Params/1000_0.0001_20_16_222_model.pt (torch, 45345 bytes, 31 tensors)

lstm_p.weight_ih_l0 f4 [64, 10]
000000 c5 6a ce bd e8 e3 d4 bd ac 27 3b bd 7b 3c 6d bc
       -0.100789584 -0.10395032 -0.04569213 -0.014479752
000010 81 ef 69 3e 65 96 f2 bd 94 5a af 3d 0c 33 3c 3e
       0.2284527 -0.11845092 0.08562198 0.18378848
000020 3d e5 8e bd aa 7d a2 bd bc 69 f0 3d 98 13 2f 3d
       -0.069773175 -0.07934125 0.11738917 0.042743295
000030 f0 0d f9 39 af 98 7a 3e 23 b4 1c 3c 91 61 f2 bd
       0.00047503365 0.24472307 0.009564432 -0.118350156
000040 87 0e 21 3b 41 47 74 3d 35 4c 87 3d e9 d2 cd 3d
       0.002457531 0.059638266 0.06606332 0.100499935
000050 68 6a c3 3c 12 d6 10 3d 9e 65 4f be 03 76 35 3e
       0.02385445 0.035360403 -0.20253608 0.17720799
000060 dd c2 1b be 0e 5e c3 bd 2f 9e a0 3d ee 67 35 bd
       -0.15211053 -0.09539424 0.07842671 -0.04428857
000070 c7 7b 24 3e de 61 b9 3d 22 2e 64 3e 0b fb 9e 3d
       0.16062842 0.0905187 0.22283223 0.077627264
000080 24 a5 8c 3d 0b f4 5f 3d f5 75 1e be e0 a2 1c 3d
       0.068674356 0.054676097 -0.15474685 0.038241267
000090 24 f2 b6 3d 57 d9 44 bd a8 b8 02 be a1 68 12 be
       0.089329034 -0.048058834 -0.12765753 -0.14297725
0000a0 86 a2 12 3e 88 53 31 be 94 2c 7c 3e 43 63 bb bc
       0.1431981 -0.17317021 0.2462638 -0.02287448
0000b0 f7 1e 8a 3d fa 92 2c 3e 25 72 3c 3e 17 b2 94 3d
       0.06744187 0.16852942 0.18402918 0.072605304
0000c0 88 63 4f be 27 48 5b 3b 80 52 ca bd bf 21 53 be
       -0.20252812 0.0033459754 -0.09879017 -0.20618342
0000d0 64 26 ac bd 04 27 fc 3d 62 8b 19 3d 7e 3e 6a 3e
       -0.0840576 0.12312129 0.03748644 0.22875401
0000e0 7f e2 07 be 35 d2 00 3e d0 7c 52 3e 9d 71 1f be
       -0.13269995 0.12580188 0.20555425 -0.15570684
0000f0 a9 3f 69 3e 7a 4f e4 3d ce 7f 22 bc f3 26 88 bd
       0.2277819 0.111479715 -0.009918166 -0.06648054
000100 84 8a 07 be c0 df 52 3e 42 86 a9 3d d7 50 a6 bc
       -0.13236433 0.20593166 0.08277561 -0.02030222
000110 a9 91 6f 3e 0d 3d 05 be 0b 2f fb bd 77 fc ec bd
       0.23395409 -0.1301157 -0.12264832 -0.11571591
000120 b8 fd 67 3e f5 ae 45 be 6b f0 4c 3c ec 35 93 bc
       0.2265538 -0.19305022 0.012508492 -0.017970048
000130 e3 0c 19 bd cc bd 58 be be 4f f0 3d aa e3 14 bd
       -0.037365805 -0.21166152 0.117339596 -0.03634993
000140 7f fa 5c be 05 4b 83 bc 1b 9f 3c be f1 7a 88 3d
       -0.21579932 -0.016026983 -0.18420069 0.06664074
000150 17 75 ec 3d 25 9d ee bd 30 5c 60 3e 82 3e 27 3d
       0.115457706 -0.11651067 0.21910167 0.040831096
000160 75 8e 5f be e4 4d c0 3c 7b 8a c6 3b 2b 64 02 3e
       -0.21831687 0.023474641 0.0060589886 0.12733524
000170 c2 20 5e be 4e c5 1a 3d 08 6f 0e be 86 7e 15 3d
       -0.21692184 0.03778582 -0.13909543 0.036497615
000180 19 a6 3b be 12 0a c9 3c 9f 26 5c be 05 93 93 3d
       -0.1832508 0.024540935 -0.21499108 0.07205776
000190 a4 5f 30 3d ea 26 3f 3e 56 bc 70 3e e9 84 91 3d
       0.04305996 0.18667188 0.23509344 0.07105429
0001a0 46 3b c3 bd e4 7e 9e bd 0a dd 10 3e d7 7a 0b 3e
       -0.0953279 -0.07739046 0.1414682 0.13621078
0001b0 d8 38 ea 3b 68 a6 22 be ee 22 11 be 38 cb 08 3d
       0.0071478896 -0.15883791 -0.14173481 0.03339693
0001c0 af 07 b7 3d 59 31 12 3e a6 c6 13 3e 2d 17 38 3e
       0.089370124 0.14276637 0.14431247 0.17977591
0001d0 f5 8b b2 bb 30 4f 1d 3e 90 05 a4 3d 9a c7 74 3e
       -0.005448813 0.15362239 0.080088735 0.23904267
0001e0 7a 91 18 3e fe 15 a6 3c 42 c3 b9 3d a0 ec a0 bd
       0.14899245 0.020274159 0.090704456 -0.07857633
0001f0 87 d7 5c be 3b f6 a6 3d d7 3b 67 3e 2a 31 de 3d
       -0.21566592 0.081524335 0.22581421 0.10849221
000200 dc 7e 82 3a 62 85 62 be 74 da 50 be a0 af c2 3d
       0.000995602 -0.22121194 -0.20395833 0.09506154
000210 02 3b 94 3d 2c be 18 3e 9a 0b 0d 3e fd 1b 80 bc
       0.07237817 0.14916295 0.13773957 -0.015638346
000220 e3 81 5d be f3 2a d0 3d 3b a4 49 be a4 da 6a 3d
       -0.21631579 0.10164442 -0.19691555 0.05733742
000230 45 4c ab bc 0d 00 00 3e c8 de 6b 3e e3 55 0a bc
       -0.020910392 0.1250002 0.23034203 -0.008443329
000240 3d ec f8 3d 40 86 43 3c 69 f1 00 3e 7e 9b f5 bd
       0.12154434 0.011933863 0.1259209 -0.119925484
000250 15 1c 72 be a8 25 c2 bd 0b 01 f5 3c 2f 27 e2 3d
       -0.23643525 -0.094798386 0.029907724 0.1104263
000260 27 af 2b 3e 81 c8 12 bc 63 92 b8 3d 00 53 61 3a
       0.16766034 -0.008958937 0.09012296 0.0008595437
000270 a9 4e 5f 3e e4 69 b1 3d 9f 0e 88 3c c6 6d 29 bc
       0.2180735 0.08662775 0.016608534 -0.010341113
000280 45 21 8b 3d c1 8a 70 bd 30 98 68 3e 2e 00 0c 3e
       0.06793455 -0.058726076 0.22714305 0.13671944
000290 ae 92 a0 bd 87 ee cd 3d 0f 83 de bd 2a ba 4e be
       -0.07840477 0.10055261 -0.10864841 -0.20188203
0002a0 bd 00 62 be 52 45 66 be e7 a6 d2 bd b0 96 c4 bd
       -0.22070594 -0.22487381 -0.1028574 -0.09599054
0002b0 d8 4f 62 bd 34 93 55 3e 97 bb 3b 3d 8b f6 00 3e
       -0.055251926 0.20856935 0.045833196 0.12594049
0002c0 05 81 61 3d 10 14 a9 3d 6a 29 79 bc d8 15 f1 3b
       0.055054683 0.0825578 -0.015207628 0.0073573403
0002d0 80 e6 75 3e 8f 5c 47 3e a5 55 8e bb 83 2f 9a 3d
       0.2401371 0.19468902 -0.0043437057 0.075285934
0002e0 0e b1 0c 3e 16 80 03 3e 61 56 15 3e 42 8e a9 bd
       0.13739416 0.1284183 0.14583732 -0.08279087
0002f0 41 bb ca 3d a8 9b 44 3c b7 87 cf 3d 54 d2 2b bd
       0.09898997 0.012000002 0.101333074 -0.04194863
000300 fa d9 23 3e 72 dc 21 be bd c7 19 3e b1 2e 9b 3d
       0.1600112 -0.1580675 0.150176 0.07577265
000310 63 cb 0a 3e 8b 44 d1 3b f9 a3 df bd 89 af 51 3b
       0.13554148 0.006386345 -0.10919947 0.0031995496
000320 dd ac 02 3e ff 7b 73 3d 92 da 67 be 0b cf 4b be
       0.12761255 0.059444424 -0.22641972 -0.199032
000330 9c 44 7a 3e 5e 44 16 be 33 5b 6d bd 51 a8 23 be
       0.24440235 -0.14674518 -0.057948302 -0.15982176
000340 4e 87 c1 3d ad 6b 59 be 75 20 25 3e 27 89 1e be
       0.094496354 -0.21232481 0.16125663 -0.15482007
000350 76 0c 7c be 32 ce 13 bd 28 12 7b 3d f8 ed d3 bd
       -0.24614128 -0.036085315 0.061296612 -0.10348123
000360 36 06 d9 3d 3b e0 5b be c4 ef 60 3e 97 a2 4f be
       0.10596888 -0.21472256 0.21966463 -0.20276867
000370 52 2b 83 3d 14 3f 28 bd 57 4d a8 bd cd 1d 56 3e
       0.06404747 -0.04107578 -0.082178764 0.20909806
000380 78 2d 55 3e 19 33 49 3e 56 e4 1b be d0 c0 38 be
       0.20818126 0.19648398 -0.15223822 -0.18042302
000390 04 e3 5e be 21 f6 02 3e 93 db 88 bc 04 48 f8 bd
       -0.21766287 0.12789203 -0.016706264 -0.12123111
0003a0 5a a5 08 be 3c e8 fc 3d 26 63 39 bd 50 bd 16 3d
       -0.13344327 0.12348983 -0.04526057 0.036801636
0003b0 44 85 4f be e5 61 69 3e da 78 81 bd c7 d9 db 3d
       -0.2026568 0.2279125 -0.06321879 0.10734897
0003c0 6b 88 48 be e6 05 46 3e af 5e 49 3e 1b 13 0a be
       -0.1958329 0.19338188 0.19665025 -0.1348385
0003d0 27 20 c7 bd 2d c8 1c be 9a a6 71 3e d7 0d 14 3e
       -0.097229294 -0.15310736 0.2359871 0.14458404
0003e0 6f 05 de 3d 34 64 e6 3d 24 da 44 be 5e c3 ec bd
       0.1084088 0.11249581 -0.19223839 -0.11560701
0003f0 61 5b 32 be a3 b6 9b bd 55 f2 91 bd 2a f8 14 3e
       -0.17417671 -0.076031946 -0.07126299 0.14547792

lstm_p.weight_hh_l0 f4 [64, 16]
000000 5a bf 8a bc 77 55 69 bb 0e 14 50 bc 35 9b 7e 3e
       -0.016936947 -0.003560392 -0.012700094 0.24863894
000010 f4 ae 63 3e 58 ed 1f be 7a ef 6a 3d 63 33 21 3d
       0.22234708 -0.15617883 0.05735729 0.039355647
000020 90 05 1a 3e fc 3e 36 bd 15 17 df 3d 17 ec f4 3d
       0.15041184 -0.04449366 0.108930744 0.11959093
000030 92 b2 7b 3c 5e a5 4d 3e 40 0f 9a 3d f0 3d 50 3e
       0.015362399 0.20082614 0.0752244 0.20336127
000040 b1 94 3c 3e e4 98 68 be d6 8e 0a be 73 b0 3c bd
       0.18416096 -0.22714573 -0.1353105 -0.046066713
000050 55 de 1c 3e 09 cd 39 be 0e 17 31 3e 85 8e c9 3d
       0.15319188 -0.18144621 0.17293951 0.098416366
000060 8e af 57 3d 4d 20 58 3e 3c 61 8e 3c 64 d4 3b be
       0.052657656 0.21106072 0.01738035 -0.1834274
000070 20 d4 f2 3d f6 71 69 be a5 23 5f be d0 7f ac 3d
       0.11856866 -0.22797379 -0.21790941 0.08422816
000080 af 68 51 3e 86 99 74 be 49 f3 2f 3e da 71 3c 3e
       0.2045009 -0.2388669 0.1718265 0.18402806
000090 e6 72 27 be 4f 34 4f be b7 98 25 3c 6c 55 28 3e
       -0.16352424 -0.20234798 0.010107211 0.16438836
0000a0 aa 3b 2b 3d 01 09 2b be 30 17 94 bd 34 12 a6 bc
       0.041804947 -0.16702653 -0.07230985 -0.020272352
0000b0 94 f2 77 3e 11 0f e7 bd 34 20 38 be 8c a9 55 bd
       0.2421363 -0.112821706 -0.17981035 -0.052163646
0000c0 b1 bc 11 be 29 c6 e3 bc 22 e3 bf 3c a3 28 d9 bd
       -0.14232136 -0.027804451 0.023423735 -0.10603454
0000d0 0e 52 d4 3d 9a da 6f be 5e 25 28 3e 41 ce 9d 3d
       0.10367213 -0.23423234 0.16420504 0.077053554
0000e0 ab 15 f2 3d 83 ba 92 bd e8 8e 9f 3d 5a 55 bf 3d
       0.11820539 -0.071644805 0.07790929 0.093424514
0000f0 1f c2 fe 3c 29 08 bc bd 8c 67 a1 bd d0 09 1e 3e
       0.031098424 -0.09181244 -0.07881078 0.1543343
000100 fa cb 5b 3e ae 5b 4a bb 11 50 4b be 5b 1c 81 3c
       0.2146453 -0.00308774 -0.19854762 0.015760591
000110 b1 b6 73 be 1a a9 d6 3d 73 c8 a6 bd 44 d4 92 3d
       -0.2380016 0.10481472 -0.081437014 0.07169393
000120 89 8c 01 be c4 ff 01 3e 8d f0 2b be 2d 2f 33 3e
       -0.12651266 0.12695223 -0.16790982 0.17498465
000130 f1 e2 2e 3e c7 e5 5a 3e 2a 2f a5 3d b0 1d 11 be
       0.17078759 0.21376716 0.080656365 -0.14171481
000140 74 5c ae 3b ad 21 2d 3e 2b 68 23 be 07 bb 42 be
       0.00532108 0.16907378 -0.15957706 -0.19016658
000150 8b 85 ab 3d 59 8c f6 bd d8 95 58 be 3d 95 23 3e
       0.08375081 -0.12038488 -0.21150911 0.15974899
000160 1d da 25 3e d3 ef 17 be 50 6e cd bd af f1 f6 3c
       0.16196485 -0.1483758 -0.10030806 0.03014454
000170 ea 29 04 be 7d 4c 66 be d4 34 e8 3d 4f bd 99 3d
       -0.12906614 -0.22490115 0.11338201 0.07506811
000180 ad 15 5c be 68 12 5e 3c 24 f7 e3 ba 43 47 01 be
       -0.21492644 0.013554193 -0.0017392379 -0.1262484
000190 15 01 52 3e 87 88 8b 3d 98 71 80 3e dd 61 0a bc
       0.20508225 0.0681315 0.25086665 -0.008446184
0001a0 a4 47 16 be ef ac 8a bc f1 46 58 be 17 0a c6 3c
       -0.14675766 -0.016928164 -0.21120812 0.024174733
0001b0 20 e8 51 be c6 8b 44 3e d9 8e 5c bd 5b eb 0c 3e
       -0.20498705 0.19193944 -0.053847168 0.13761656
0001c0 a5 98 31 3e 4a 38 52 be 85 7c 6e 3e a3 81 44 be
       0.17343386 -0.20529285 0.23289688 -0.19190077
0001d0 17 8e 68 3e 53 f3 87 bd 63 7a 81 3d 1b 07 9b 3d
       0.22710453 -0.06638207 0.063221715 0.07569715
0001e0 fd 49 7f 3e 85 4b 43 3e d6 81 23 3e c5 f3 4b 3d
       0.24930568 0.19071777 0.15967497 0.049793024
0001f0 63 0c c5 bd a0 6a 58 3c 81 12 a0 bb 2f 18 32 3e
       -0.09621503 0.013209015 -0.0048850183 0.17392038
000200 d9 e5 35 be 6b b5 30 3e 39 eb 0a 3e 9a 01 7e 3e
       -0.17763461 0.17256705 0.13566293 0.24805298
000210 7a d9 62 3d 28 99 62 3e b9 d0 28 be d1 c3 44 be
       0.055383183 0.22128737 -0.16485871 -0.19215323
000220 2b 02 f6 3c 7f 2c db 3d c9 e6 2c 3e 69 c7 59 be
       0.03003033 0.10701846 0.16884913 -0.21267475
000230 e8 d5 3f bd f9 9e 24 be 21 30 8d 3a 8a a4 bd 3b
       -0.046834856 -0.16076268 0.001077179 0.005787437
000240 40 b4 46 be 5f bb bf bc 7e 39 27 be fa 40 ab bd
       -0.19404697 -0.023404775 -0.16330525 -0.08362003
000250 7f 47 f8 3c dd 03 2c 3e 5f 4d 9b 3c 2c c6 0d be
       0.03030753 0.16798349 0.018957792 -0.13845128
000260 70 dd 29 be 3c 02 8f bd 9a 95 13 3d da d4 26 be
       -0.16588378 -0.06982848 0.036031343 -0.16292134
000270 76 b5 73 3e d3 b7 eb 3d fe 3d 53 3e b9 5c 34 3d
       0.2379969 0.11509671 0.20629117 0.04403374
000280 e4 85 28 be b4 ee 2f 3e 15 a6 16 be 19 4a 53 3e
       -0.16457325 0.17180902 -0.14711793 0.20633735
000290 e6 8d 35 3d ca 58 3a 3e 51 e7 6e be 20 54 ce bd
       0.044324778 0.18197933 -0.23330428 -0.10074639
0002a0 52 6f 06 3e 71 af 17 be b7 db 4b 3e 46 fc d1 bb
       0.13128403 -0.1481302 0.19908033 -0.006408247
0002b0 7b 2f 50 be c6 86 d3 3d 7c e5 3b 3d e0 bf d9 bd
       -0.20330612 0.1032844 0.04587315 -0.106323004
0002c0 d1 23 9f bd 83 13 9c bb 16 d3 95 bd e4 b8 7a 3e
       -0.07770503 -0.004763068 -0.07315652 0.24484593
0002d0 fe 89 4b be 4b 65 e1 3b 08 84 28 be 93 29 c4 bc
       -0.19876859 0.00687853 -0.16456616 -0.023945605
0002e0 0d f8 f1 bd 3e d2 7b 3e f9 6a 07 be 79 52 59 3e
       -0.1181489 0.2459192 -0.132244 0.21222867
0002f0 85 99 db bc eb 3b 76 3b 85 58 97 bd b3 6a 34 bc
       -0.026806602 0.0037572335 -0.07389931 -0.011011767
000300 3b 1a 50 bd ba 6e cf bd 2a 4f 3f be ac d3 89 bd
       -0.050806265 -0.10128541 -0.18682542 -0.06729826
000310 b6 05 0a be d6 59 5f 3d 4a 58 0c bc 34 c5 1b be
       -0.13478741 0.054529034 -0.008565972 -0.15211946
000320 42 21 72 be b9 b4 f2 bd 5e 2e 4f 3e e7 a3 c6 3d
       -0.236455 -0.11850876 0.20232531 0.09699231
000330 01 8a 0e 3e ca 6c 82 bd e5 77 42 3e 09 23 49 3e
       0.13919832 -0.06368406 0.18991049 0.19642271
000340 ac b3 04 be d7 6c 04 be 01 0b 07 3e f9 4e 18 3e
       -0.12959164 -0.12932144 0.13187791 0.14873876
000350 f1 4f a1 bd 54 47 c4 3d 94 44 b5 3d 2c 8e dc bd
       -0.07876576 0.09583917 0.08850971 -0.10769305
000360 66 f6 46 be f6 7d 8a bd c0 b3 37 be fa 75 5c 3e
       -0.19429931 -0.067623064 -0.17939663 0.2152938
000370 80 4d 0b 3e 81 e5 70 3e 26 79 1d 3e 38 81 c5 3d
       0.13603783 0.23525049 0.15378246 0.09643787
000380 d1 07 de 3c 95 be 39 3e 07 b3 d8 3d 01 4d c6 3c
       0.027103337 0.18139108 0.10581022 0.02420664
000390 70 19 34 3e 8f b4 48 3e a5 a9 ae bd 09 06 5a bd
       0.17587829 0.19600128 -0.08528451 -0.05322841
0003a0 6c 2d 45 bd a2 af 40 be 09 e3 2b be 6e 14 52 be
       -0.04813902 -0.18816999 -0.16785826 -0.20515606
0003b0 be 44 78 3c a8 46 0b bd 1a 17 02 3e c3 6e 4a 3d
       0.015153108 -0.03400293 0.12704125 0.049422037
0003c0 95 98 0b be 80 29 6d 3d f7 c9 5f be 30 c6 bb 3d
       -0.13632424 0.057900906 -0.21854387 0.09168661
0003d0 40 2f 22 3e 1a 6d 29 be fc 1c 02 3d 86 84 c4 3b
       0.15838337 -0.16545525 0.031765923 0.0059972433
0003e0 2a 44 45 3d 4c d5 3a 3e 64 e2 30 be 44 12 29 be
       0.04816071 0.18245429 -0.17273861 -0.16510874
0003f0 f3 ba 0a 3d 89 2e 55 be 11 b7 fa bd d4 a2 a8 3d
       0.033869695 -0.20818533 -0.122419484 0.08234182

lstm_p.bias_ih_l0 f4 [64]
000000 43 53 8c bc 42 48 4b be df 53 39 be cc 67 ad bd
       -0.017129546 -0.19851783 -0.180984 -0.08467063
000010 2f 4f 17 3e 90 9f 55 bd 9a 8d 88 3c d3 26 41 be
       0.147763 -0.052154124 0.016669083 -0.18862467
000020 24 d7 44 3e 13 7c 81 be 03 8f d3 3d 48 64 83 3d
       0.19222695 -0.25289974 0.10330012 0.064156115
000030 ae bf 6f 3e d5 b4 1b be 22 28 04 3e 5d 11 01 3e
       0.23412964 -0.152057 0.12905934 0.1260428
000040 be 9f 1c be 88 51 50 3e ed 8a 25 be b8 eb 2a be
       -0.15295312 0.20343602 -0.16166277 -0.16691482
000050 bb ff 57 be 40 4b 4c 3e d7 b0 98 3d a5 2b 82 3b
       -0.21093647 0.1995058 0.074556045 0.003972488
000060 42 80 36 3c f2 a5 38 3e ce 18 d1 bc 11 3f 1d 3d
       0.0111389775 0.18032053 -0.025524523 0.038390223
000070 d2 68 04 be 4d 1a 3c be 4e d3 73 be 3e 03 06 3e
       -0.12930611 -0.18369408 -0.23811075 0.13087174
000080 53 bc bb bd 3f 10 04 be a3 64 2b 3e 7b c3 66 3e
       -0.09166779 -0.12896822 0.16737609 0.22535507
000090 3c 98 6f 3c 44 a7 a1 bd e0 1a 6f be 22 34 64 be
       0.014623698 -0.078932315 -0.23350096 -0.22285512
0000a0 77 2d fa 3d 9a c3 1c be f4 a0 5b be a7 9c 5a be
       0.12215703 -0.15308991 -0.21448117 -0.2134882
0000b0 67 41 94 bd d5 12 fa 3d 49 70 29 3e d6 28 7e bd
       -0.07239037 0.12210623 0.1654674 -0.062050663
0000c0 ca 0b 50 3e db cc 5c 3e 50 63 01 3e f6 f9 73 3e
       0.20316997 0.21562521 0.12635541 0.23825821
0000d0 8d 49 7b be bb 46 95 3d 71 3f 42 be 8e 11 9c bb
       -0.24539776 0.072888814 -0.18969513 -0.004762835
0000e0 48 67 83 3d c2 c0 9a 3d 01 27 04 bd a6 0d 63 3d
       0.06416184 0.07556297 -0.03226376 0.055432938
0000f0 65 34 13 be 38 f2 2f 3e a4 aa d5 bd 60 2f 20 be
       -0.14375456 0.17182243 -0.10432938 -0.15643072

lstm_p.bias_hh_l0 f4 [64]
000000 42 09 76 be 84 9d 29 bc 75 f1 ba bd 84 cb b6 3d
       -0.24026969 -0.010352496 -0.091280855 0.08925536
000010 df 65 82 bc a0 39 7d 3d d0 f7 35 be e1 f9 6c 3e
       -0.015917717 0.061822534 -0.17770314 0.23142196
000020 df c1 02 bc 49 b4 49 be ea 79 41 3e c0 22 c9 3c
       -0.007980793 -0.1969768 0.18894163 0.024552703
000030 68 ef 3d bc d7 b6 02 be 44 05 a6 bd 9d 13 2c 3d
       -0.011592723 -0.1276506 -0.08106473 0.042010892
000040 58 71 fb 3d e6 72 72 be f5 d7 2d 3d d1 d8 85 3d
       0.12277478 -0.23676643 0.04244228 0.06535495
000050 83 a4 0a 3e a7 a8 b5 3d 77 40 9f 3d a2 ff 56 3e
       0.13539319 0.088700585 0.077759676 0.20995954
000060 62 77 91 bd f4 06 fe 3c ed 32 aa bd 89 fe 50 3d
       -0.071028486 0.031009175 -0.083104946 0.051023994
000070 e6 f0 df bd 8c 3c af 3d 73 c0 ad 3c e3 ea ef 3b
       -0.109346196 0.0855647 0.021209931 0.007321702
000080 ba 53 6a be 85 81 29 3e 47 ce 6f be bb 4a 60 3d
       -0.22883502 0.16553314 -0.23418532 0.05475877
000090 6b bd 18 be 07 41 25 be ec f4 1c bc da 08 30 be
       -0.14916007 -0.16138087 -0.009579878 -0.17190877
0000a0 11 0f f9 bd b6 a7 1e be 3a 36 2e 3e fd 80 cb bd
       -0.12161077 -0.15493664 0.17012873 -0.09936712
0000b0 85 e4 9a 3d 10 1a 20 bd 53 30 4b be 1c 7d f9 3d
       0.07563118 -0.039087355 -0.19842653 0.12182066
0000c0 f1 49 f4 bd d9 42 17 3e 7f 48 4f be 38 79 7a be
       -0.11928166 0.14771594 -0.20242499 -0.24460304
0000d0 3f ef 9c 3d 27 e9 4a bd c7 30 0f be 9c ec 76 3e
       0.0766282 -0.049538758 -0.13983451 0.24113697
0000e0 fc 6f 72 3e aa 36 79 be 6a 81 4d 3e ae 95 09 3e
       0.23675531 -0.24337259 0.20068899 0.13436005
0000f0 bf 35 97 bd b5 3a c7 bd a4 f7 8e 3d e2 60 62 bd
       -0.07383298 -0.09727994 0.069808275 -0.055268176

lstm_p.weight_ih_l1 f4 [64, 16]
000000 f2 e4 6f bd 72 53 9c 3d 74 fd 61 3e cb 42 1a 3c
       -0.05856795 0.076331034 0.22069341 0.009415339
000010 c6 c0 2b be 3f 9f c3 3d d8 5c 61 3e 15 9e 60 3e
       -0.16772756 0.09551858 0.22008073 0.21935304
000020 32 5f 54 3e 76 dc dc bd c0 6b 17 be 94 12 03 3e
       0.20739439 -0.10784237 -0.14787197 0.12800056
000030 04 55 c1 3d d2 c8 43 3e da 95 bb bd 0f 21 d1 bd
       0.094400436 0.19119576 -0.09159441 -0.102113836
000040 7c 2b 59 bd e2 bd 3c 3e f1 76 ae 3d e3 75 70 3e
       -0.053019986 0.1843181 0.0851878 0.2348247
000050 00 8f 01 be 78 6f 9e bd e9 d9 0e 3e 15 80 79 bd
       -0.12652206 -0.07736105 0.13950314 -0.060913164
000060 28 d9 46 3e 88 51 76 bd aa 93 24 3e 7b 6b 21 3e
       0.19418776 -0.060136348 0.16071954 0.15763657
000070 ec cc 52 3d e9 11 81 bd 26 ef 1e be 00 01 06 be
       0.05146496 -0.06302244 -0.15520915 -0.13086319
000080 a8 3b 07 be cf 89 35 be 7f 2c 34 3e ca 3e ac 3d
       -0.13206351 -0.17728351 0.17595099 0.084104136
000090 d7 70 c2 bd 90 59 55 3e bd 27 09 3d 19 c6 20 bc
       -0.09494179 0.20834947 0.033485163 -0.009812855
0000a0 be 0c 26 3e 97 c6 76 3e 61 75 28 3e c0 86 e1 bd
       0.16215798 0.24099194 0.16451026 -0.1101203
0000b0 bf 87 6d be d4 d0 f2 bd 53 80 3c bd 16 54 f0 3d
       -0.23196314 -0.11856237 -0.046020817 0.11734788
0000c0 3f 62 16 3e f5 8d 70 be 35 5d 54 3e 3c 9a 78 3e
       0.14685915 -0.23491652 0.2073868 0.24277586
0000d0 e5 67 a0 bd 29 5b 54 3e 35 66 01 3e 38 8d 1f be
       -0.07832316 0.207379 0.12636645 -0.15581214
0000e0 b0 97 b4 bd 54 1a 46 be a2 8e 67 3e 20 b8 37 3e
       -0.088179946 -0.19345981 0.22613004 0.17941332
0000f0 e2 6b 2f 3e 0d 20 04 3e f2 21 22 3e 27 62 2d 3e
       0.17130998 0.12902851 0.15833262 0.16931973
000100 f0 e7 73 bd 33 9a b1 bd b2 a8 41 3e 13 08 b0 bd
       -0.059547365 -0.08671989 0.18912008 -0.0859529
000110 9d 2c f7 3d 32 4a ce bd 7b df 57 be 41 e9 49 be
       0.12069056 -0.100727454 -0.21081345 -0.19717886
000120 99 d9 68 3e d7 cb 61 3e 2c cd 5f be 50 f6 51 3c
       0.22739257 0.22050415 -0.2185561 0.012815073
000130 09 45 5f 3e 25 be 1e be 6c d9 bd 3a bc 18 03 3e
       0.21803679 -0.15502222 0.0014484352 0.12802404
000140 47 ad 18 3e f5 dc af bd c8 4d 83 bd 2c ac 46 3d
       0.1490985 -0.08587066 -0.0641132 0.04850404
000150 b1 f3 3f 3d 50 1c 47 bd bf d5 5f 3e ad ab 0f be
       0.04686326 -0.048610985 0.21858881 -0.14030333
000160 cb 08 f3 bd f7 47 5a 3e 9b 21 82 bc c3 72 81 bc
       -0.118669115 0.21316515 -0.015885165 -0.015801793
000170 d5 1d 0a 3e c3 05 d2 3d 62 d6 68 bb fd 24 d8 3d
       0.13487943 0.10255005 -0.0035528173 0.1055393
000180 b8 27 f2 3d a3 24 a7 bd 50 56 14 3e 47 b9 23 3e
       0.11823982 -0.08161285 0.1448605 0.15988646
000190 f4 d5 7c be 1d de 1e be 73 f8 48 3e 5c c5 29 3c
       -0.24690992 -0.15514417 0.19626026 0.010361996
0001a0 0a d6 05 3e a2 87 c2 3d 9b 15 be bd 86 a9 c2 bd
       0.1306993 0.09498526 -0.09281465 -0.0950499
0001b0 e3 09 4f be c0 36 2e be ea 63 5d 3e b0 bf 50 be
       -0.20218615 -0.17013073 0.21620145 -0.20385623
0001c0 5a 82 03 3e 58 19 fa 3d f9 35 5f 3e ad 9d 7b be
       0.12842694 0.12211865 0.21797933 -0.24571867
0001d0 c8 2b da 3d f3 80 dc 3d 81 91 2b 3e 68 a7 6c 3e
       0.10652882 0.107667826 0.16754724 0.23110735
0001e0 b0 9e 01 3e 16 10 8e 3d b7 61 1b bd b1 fa 60 be
       0.1265819 0.06936662 -0.037934985 -0.21970631
0001f0 f7 1b b5 3d 5c ee d1 bd 0b 11 08 3e 06 a3 52 be
       0.088432245 -0.102505416 0.13287751 -0.20570001
000200 06 54 06 bd 43 83 21 3e d2 8c 05 3d e4 8d 25 bd
       -0.032794975 0.15772729 0.032605 -0.04041852
000210 66 01 a1 3d b9 72 9c 3d 51 c9 4f be ca 3a 9d bc
       0.07861595 0.07639069 -0.2029164 -0.019193072
000220 94 15 d5 3d 3f d6 48 3e 43 73 04 3e 5a c4 13 3d
       0.10404506 0.19612978 0.12934594 0.036075927
000230 67 f3 4b 3e 6a a1 23 3e 79 cd 70 bd 67 82 f0 3c
       0.1991707 0.15979543 -0.058789704 0.029359056
000240 48 4c 96 bd 9b e3 d6 bd 2c 78 42 3e c2 29 da 3d
       -0.07338768 -0.10492631 0.18991154 0.10652496
000250 26 b4 65 3e 42 bf b4 3d f0 2b fd bd b2 3d 3d bb
       0.22432002 0.08825542 -0.12361896 -0.0028875885
000260 8f 34 ff 3c 7e ba cf 3c 78 1e 5c be 48 8a 45 bd
       0.031152992 0.025357481 -0.21495998 -0.04822758
000270 b1 ec 03 bd aa b2 5c be 66 9d 3c be 8b 44 47 3e
       -0.03220815 -0.2155253 -0.18419418 0.19459741
000280 39 ff 62 be dd fc 49 3d 0b 85 b5 3b 84 14 61 be
       -0.22167672 0.049313415 0.0055395416 -0.21980482
000290 4a 5f 4c be 49 05 67 bc cd 38 7d be d1 81 b3 3c
       -0.19958225 -0.014100381 -0.24728699 0.021912487
0002a0 f7 35 20 3e 5b 14 ed bd 48 e4 42 3d 37 6e 95 bc
       0.15645586 -0.11576148 0.047580987 -0.018241031
0002b0 50 22 64 3e 37 c0 96 bc 8d 50 e1 bd 39 c5 25 bc
       0.22278714 -0.018402202 -0.11001692 -0.010117822
0002c0 da df 02 be c7 95 11 be d5 e8 b0 bd 47 96 00 3d
       -0.12780705 -0.14217292 -0.08638159 0.031393316
0002d0 6a 95 79 3e dc f3 3d be f5 ab 0a 3d 10 17 07 3e
       0.24373403 -0.18550056 0.033855397 0.13192391
0002e0 00 08 6c 3e 90 e8 2b 3e 2a e9 24 3e 58 b7 51 be
       0.23049927 0.16787934 0.1610457 -0.20480096
0002f0 64 13 5b 3e 39 9d 4e be be 66 95 3d 29 92 6a 3d
       0.21394116 -0.20177163 0.07294987 0.057268295
000300 45 f2 ca 3d 6c a5 28 bc cf 08 97 bc a9 cf e2 bd
       0.099094905 -0.010293346 -0.018436817 -0.11074764
000310 58 63 43 3e 1e 86 09 be 98 c2 66 be 82 52 78 3e
       0.19080865 -0.13430068 -0.22535169 0.24250224
000320 73 15 e0 bd 9c 8f 3c be 7a 9c 25 be e9 66 03 be
       -0.10941591 -0.18414158 -0.16172972 -0.12832226
000330 46 be 1a 3e fb cb 59 be 5a 33 6a be 43 8b 38 3e
       0.15111646 -0.21269219 -0.22871152 0.18021874
000340 cf d9 53 be 0d 7c 23 be 19 6c d7 bc a8 c7 65 be
       -0.20688556 -0.1596529 -0.026296662 -0.22439444
000350 18 ea 47 3e c2 ff 0c 3e 00 c1 79 3e 03 60 2b be
       0.19522893 0.13769439 0.2439003 -0.16735844
000360 b6 2c 35 be 91 70 e8 bd dd b7 fb 3d b7 31 43 3e
       -0.17692837 -0.11349595 0.122909285 0.19061933
000370 90 23 2f be 95 5e c1 3d 58 7a 13 3e 40 cb 5f 3e
       -0.1710341 0.09441868 0.14402139 0.21854877
000380 03 44 c0 3d e8 ac 69 3e 70 cf 12 be 16 a1 03 3e
       0.09387972 0.22819865 -0.14336944 0.12854418
000390 a6 22 76 be 98 2c 06 3e 1f 96 0f 3c af ab 71 be
       -0.24036655 0.13102949 0.008763819 -0.23600648
0003a0 a9 18 4c b9 7c 56 40 3e 70 d9 b6 bb ff 02 08 3e
       -0.00019464143 0.18782991 -0.00558012 0.13282393
0003b0 1a ea cf 3d ee 3a 3d be 9d 8a c9 bd 89 d5 50 3e
       0.10152073 -0.18479511 -0.098408915 0.20393957
0003c0 82 17 09 3e e8 86 21 3e 16 7d c0 3c db e0 8b bc
       0.13387874 0.15774119 0.023497146 -0.017074993
0003d0 61 47 95 3d df ef 24 bc cf 3e 33 bd 30 1c 66 be
       0.07289005 -0.010066955 -0.04376107 -0.2247169
0003e0 d1 a9 95 bd f8 8b 8c 3c e1 c3 71 3d aa 5b ff 3d
       -0.073077805 0.017156586 0.059024695 0.124686554
0003f0 47 12 75 3d 93 30 c7 bc f2 12 19 3e de 51 c5 3d
       0.059831884 -0.024315154 0.14948633 0.096347556

lstm_p.weight_hh_l1 f4 [64, 16]
000000 7c b6 45 3e d5 a9 14 be a0 df 65 3e da f1 e5 bd
       0.19307894 -0.14517911 0.22448587 -0.1122777
000010 bc 2b 40 bd b0 ae 40 be 75 b9 79 3d 54 d7 46 3e
       -0.04691671 -0.18816638 0.06096788 0.19418079
000020 cc bd a1 bd 94 35 25 3e 3d f4 87 bc 66 fa 79 3e
       -0.07897529 0.1613372 -0.016595954 0.24411926
000030 01 20 16 be 7b 64 4e 3c 7a c5 4c 3e 2b 63 4f be
       -0.14660646 0.012597199 0.19997206 -0.20252673
000040 fd 3f f8 3d 36 46 76 be b2 44 45 3e bc d6 c0 3d
       0.1212158 -0.24050221 0.19264486 0.09415957
000050 61 de 53 3d 12 9d 6d be 14 0a 80 3e 64 58 3a 3e
       0.05172575 -0.23204449 0.2500769 0.18197781
000060 ea 18 6e 3e ef aa 58 be 08 0f 66 3e 08 03 1f 3d
       0.23251691 -0.21158956 0.22466671 0.03882125
000070 a6 bd 1e 3e 5a 1d 79 be 91 ba fa bd 61 f2 8b 3c
       0.15502033 -0.24327603 -0.12242616 0.017083349
000080 b8 ef 1f 3e 08 54 66 be b0 f1 14 3e 09 52 07 3e
       0.15618789 -0.22492993 0.14545321 0.13214888
000090 9e 3e 41 be 10 7a 62 3e 49 41 e1 bd 8f d4 95 3d
       -0.18871543 0.22116876 -0.1099878 0.07315933
0000a0 32 e7 24 be 9f a8 0c be 33 bf 7d bd 92 ef ac bd
       -0.16103819 -0.13736199 -0.06194992 -0.08444132
0000b0 6f 5c 04 3d 82 eb 81 bd 10 7d 14 be fe 1c 62 3e
       0.032314714 -0.06343748 -0.14500833 0.22081372
0000c0 9d 1b b6 bb 4b ab 52 be c4 b8 5b 3e a9 7c 5b 3e
       -0.005557491 -0.20573156 0.21457201 0.21434273
0000d0 9c b2 0d be f5 01 35 3e 30 93 c8 bd ab ed 4a be
       -0.13837665 0.17676528 -0.09793699 -0.19817226
0000e0 d7 81 80 be 24 04 02 be b3 70 ee 3d f3 cd 7b 3e
       -0.2509906 -0.12696892 0.116425894 0.24590282
0000f0 da c3 65 3e 99 c2 10 bd 2e ef 72 bd 0b a8 45 ba
       0.22437993 -0.035341833 -0.05931013 -0.0007539994
000100 17 15 61 3e 86 b0 37 be 17 3d 04 be ee 94 25 3b
       0.21980701 -0.17938432 -0.12913929 0.002526577
000110 e0 cb 6d be 73 55 0a 3e 1e 14 1e be c2 0c 9e bd
       -0.23222303 0.13509159 -0.15437362 -0.07717277
000120 dd 15 05 be 8c 98 04 bc c6 72 5a 3e a7 83 c6 bd
       -0.12996621 -0.008093011 0.21332845 -0.096930794
000130 9a f0 d5 bd 86 95 ec 3d a7 62 0d bd fe 51 a7 bc
       -0.10446282 0.11551957 -0.03451791 -0.02042484
000140 52 52 4e 3e c9 79 9c 3d e8 91 38 bd 35 3b 60 3e
       0.2014859 0.07640416 -0.045061022 0.21897586
000150 83 a8 7c be d4 47 56 3e 9d d9 b7 bd 61 ad 30 3e
       -0.24673657 0.20925838 -0.08977053 0.17253639
000160 81 0c 9a bd 3d 94 53 be 93 7b ce bb 93 6a 65 3e
       -0.07521916 -0.20662017 -0.0063013523 0.22403936
000170 21 93 02 3d 48 30 4b be f7 c9 37 3e 1e 63 79 3e
       0.031878594 -0.19842637 0.17948137 0.24354216
000180 7b d2 66 3e 18 b4 02 be 16 9f 33 be c6 bd 7b be
       0.2254123 -0.12764013 -0.17541155 -0.24584112
000190 e3 30 56 bd b6 b1 8b 3d 34 67 7c be 58 1e 89 b9
       -0.052292716 0.06821005 -0.24648744 -0.00026153284
0001a0 56 69 18 3d 55 4d 3b 3e 00 05 28 3e 6d ea d1 3d
       0.03720983 0.18291219 0.16408157 0.10249791
0001b0 71 97 c3 bc 84 02 6f 3e cd 11 c3 bc 60 01 70 bd
       -0.023875924 0.23340803 -0.023812199 -0.05859506
0001c0 0f f7 00 be c5 74 89 3d e3 ce 1a be 96 11 dc 3d
       -0.12594245 0.06711725 -0.15117984 0.10745542
0001d0 c5 00 66 be d6 16 e8 3c da fb ac bb 07 50 34 be
       -0.22461231 0.028331202 -0.0052790465 -0.17608653
0001e0 ea 86 51 3e 3a 2f 4c 3e d6 aa 1c 3e e7 d2 3a 3e
       0.20461622 0.1993989 0.15299544 0.18244515
0001f0 5b 49 88 bc 1b 32 20 be c8 36 87 bd 01 ad 1e be
       -0.016636541 -0.15644114 -0.066022456 -0.15495683
000200 25 cc 01 be 48 a7 0f 3d 5b be cb bd 2e 18 81 3e
       -0.12675531 0.03507164 -0.09948417 0.2521376
000210 ad 0a 26 3e e6 0e 81 3e 59 d3 e6 3d 73 9e 11 3e
       0.1621501 0.2520668 0.1127078 0.142206
000220 69 b6 01 be 2c d7 48 3e 6a a7 42 3e 60 a1 ab 3d
       -0.1266724 0.19613332 0.19009176 0.08380389
000230 e6 70 a7 3d 21 15 59 be 41 f9 d7 3a 9b 7a 57 3e
       0.081758305 -0.21199466 0.0016477482 0.21042864
000240 95 6d cf bd 99 71 43 3e 8e 05 01 be 1c c1 29 be
       -0.10128323 0.19086303 -0.12599775 -0.16577572
000250 dc 7f 13 3e d6 0f 05 3e 2c b0 a7 3d b5 20 d6 bd
       0.14404243 0.12994322 0.08187899 -0.10455457
000260 ba d4 27 3e 70 8e d7 bd cc 19 0d 3e 9f 6e 66 3e
       0.16389742 -0.10525215 0.13779372 0.22503136
000270 58 b1 ef bd 97 ce 49 3e e0 46 36 3e ab 01 95 3d
       -0.117037475 0.19707714 0.17800474 0.07275709
000280 19 59 ca bd f1 8c 6f bd f6 47 1d 3e 92 70 d2 3d
       -0.09880275 -0.05848402 0.15359482 0.10275377
000290 e6 a0 3f 3a f4 c4 be bd 4f ee ed 3c 27 98 7b 3e
       0.00073100475 -0.093149096 0.029044298 0.2456976
0002a0 cd d1 48 3e 2e cb 24 be cb a4 7e 3e e3 79 19 3e
       0.19611283 -0.16093132 0.24867551 0.14987902
0002b0 cb 65 81 3e cd f8 8f bd 33 17 87 3d 8d a3 47 bd
       0.25272974 -0.07029877 0.06596222 -0.04873996
0002c0 73 bc 0e be 5b a5 96 bd 18 b1 19 be 38 2b 8f 3d
       -0.13939075 -0.07355758 -0.15008962 0.06990665
0002d0 3b f1 2e bd 6b 56 4d be c5 cb a2 bd 83 a3 bb bb
       -0.042710524 -0.20052497 -0.07949022 -0.005726279
0002e0 f6 86 ff bd 4c 00 20 be 4f b1 74 be 3b 05 0a 3e
       -0.12476914 -0.15625113 -0.23895763 0.13478558
0002f0 27 05 0d 3e 07 67 7e be 39 b1 03 3e d1 e0 44 be
       0.13771497 -0.2484399 0.12860574 -0.19226386
000300 8e 6b d3 bd ef e2 1d be 8d 4e 6f bd dd 8e 05 be
       -0.10323249 -0.154186 -0.05842452 -0.1304278
000310 6a e6 1d bc a8 73 43 3d 8f 0a cf bd 80 d8 1b 3e
       -0.0096374545 0.04771772 -0.10109436 0.15219307
000320 7c 07 bb bd fe e0 80 bd 9c 46 78 3d d9 40 00 3e
       -0.09132287 -0.06292914 0.060614213 0.12524737
000330 3f 10 32 3e 32 f7 cd 3d 65 44 8b 3c ce 90 09 bd
       0.1738901 0.100569144 0.017000386 -0.033585362
000340 73 ff 1c be c8 ca 54 3e b5 79 25 bc 3f 1a 41 3e
       -0.15331821 0.2078048 -0.010099818 0.18857668
000350 55 ac eb 3d cf d7 21 3e a2 65 30 be ac d6 fa 3d
       0.11507479 0.1580498 -0.1722627 0.12247977
000360 3a fd 7a 3e 90 a3 60 be c5 28 2f 3e 07 5a 15 be
       0.24510661 -0.21937394 0.17105396 -0.14585124
000370 3d d4 13 be d2 85 62 be 96 b3 79 be 88 11 34 be
       -0.14436431 -0.22121361 -0.24384913 -0.17584813
000380 e2 e6 36 be 60 b9 01 3b 2e 7e f0 bd a3 68 32 3b
       -0.17861512 0.001979433 -0.11742817 0.0027223013
000390 0b 67 25 3e d8 b9 5c 3e 36 78 43 be 83 bd 3d 3e
       0.16152589 0.21555269 -0.19088826 0.18529324
0003a0 00 5b 83 bc 9c ec b3 bd 76 c6 80 3e 3f 68 56 be
       -0.016034603 -0.08785364 0.25151414 -0.20938204
0003b0 9e 9c 12 be 27 ce d6 3d 96 16 d8 3d 11 17 e4 3d
       -0.14317557 0.10488539 0.10551183 0.11137212
0003c0 3d 5f 5c be 20 0b 25 be d4 81 29 be f5 15 33 3e
       -0.21520706 -0.16117525 -0.16553432 0.17488845
0003d0 0e dc d4 3d 89 2e cb bc 99 62 32 3e 14 56 31 3c
       0.103935346 -0.024802463 0.17420425 0.010823745
0003e0 3e d5 6b be db 72 8f bd 50 c2 00 3e fc 00 4c bd
       -0.23030564 -0.07004329 0.12574124 -0.049805626
0003f0 ff 70 cd 3d d8 3c 71 3d 4d f8 7d bd 73 30 49 be
       0.10031318 0.058895916 -0.062004376 -0.19647388

lstm_p.bias_ih_l1 f4 [64]
000000 ca 7d 91 bd f4 62 08 3c 3d a4 29 3d a1 e2 6e be
       -0.071040705 0.0083243735 0.041416395 -0.2332864
000010 cf 27 7a be 94 3f 84 3d 02 aa 06 be 14 13 42 3e
       -0.24429248 0.06457439 -0.1315079 0.1895259
000020 3c ff 7c 3d 04 e7 65 3d 39 db 76 be ba a2 ab 3d
       0.061766848 0.056128517 -0.24107064 0.08380647
000030 e1 c0 05 bd 46 b1 0a bd 41 80 43 be 9e ce 7d be
       -0.032654647 -0.033860467 -0.19091894 -0.2478585
000040 d8 ef 30 3e 77 04 23 be 77 1a 53 3d 1c 27 32 be
       0.17278993 -0.15919672 0.05153891 -0.17397732
000050 3e 87 41 be 3b a4 ee 3d 8c f5 8f 3d b8 86 f0 bd
       -0.18899247 0.11652418 0.07029256 -0.117444456
000060 b3 c1 df 3d dc 2e 1b be 71 05 2f be 10 0e c0 3c
       0.10925617 -0.15154594 -0.1709192 0.023444206
000070 74 87 cc 3c 17 d3 46 be b2 e5 0f be 1f 4e 0b be
       0.024966933 -0.19416462 -0.14052466 -0.1360402
000080 09 17 8d bd 27 78 05 3e 04 57 63 be e7 3f 35 3e
       -0.06889159 0.13034116 -0.22201163 0.17700158
000090 81 e2 5b 3c ac f2 be bc 1d 40 07 be aa 40 56 be
       0.013420702 -0.023309074 -0.13208051 -0.20923105
0000a0 b7 c6 ac bd 43 b7 fd 3d 1e 91 4b be cc 5b 63 3e
       -0.08436339 0.1238847 -0.19879577 0.22202986
0000b0 36 3d 2a be 59 3a 11 3e d1 bf 67 be 07 f3 73 be
       -0.16624913 0.14182414 -0.22631766 -0.23823176
0000c0 83 37 c3 bd 56 f6 3d 3e bf 72 f7 3d 50 7e 14 be
       -0.095320724 0.18551001 0.12082433 -0.1450131
0000d0 79 0d 91 3d b3 b6 fd bd 2e f3 64 3e ae dc 72 3e
       0.07082648 -0.12388363 0.2235839 0.23716995
0000e0 dc 9a 93 3b d4 ea 29 3e 4d 7e b7 bd b0 c2 ad 3d
       0.0045045447 0.16593486 -0.08959637 0.08484399
0000f0 e3 7f 0a 3e 65 63 f8 3d e5 33 a7 3d 4e 29 6f 3e
       0.13525347 0.12128333 0.08164195 0.233556

lstm_p.bias_hh_l1 f4 [64]
000000 0e 0f 96 3d ab 02 29 3e c5 5a 00 3e 59 e9 8f 3c
       0.0732709 0.16504924 0.12534626 0.017567324
000010 d8 e8 4c bd 77 43 43 3e a0 f8 61 3e 58 cc 5b 3e
       -0.050026745 0.19068705 0.22067499 0.2146467
000020 c0 ac 83 3d 9d c9 0d 3e f9 9c 13 be 2a 1a 23 be
       0.06429434 0.1384644 -0.14415349 -0.1592795
000030 46 d7 29 3d 90 1c 4b be 9c b2 f4 bd 46 b6 13 3e
       0.041465066 -0.19835114 -0.119481295 0.14425
000040 cd a7 fa bd 05 aa 29 be fc 62 60 be 98 41 25 3e
       -0.12239037 -0.16568764 -0.2191276 0.16138303
000050 28 13 2c 3e a5 f5 3b 3e 66 86 22 bd 68 ad fd bd
       0.16804183 0.18355425 -0.039678954 -0.1238659
000060 6e 10 67 3e 14 25 25 be 83 f6 51 3e 20 15 3e 3d
       0.22564861 -0.16127425 0.20504193 0.046406865
000070 04 b0 d2 bd e4 a1 db 3d 5e 37 09 be bc 07 c2 3c
       -0.102874786 0.107242376 -0.13400027 0.023685329
000080 ce 19 4d 3e c0 a2 62 bd 3c 34 87 3d c3 8c 2e 3e
       0.20029375 -0.05533099 0.0660176 0.17045884
000090 7d 09 a0 bd 27 b2 1d 3e bf bd 3e 3e 2a ba e2 3c
       -0.0781431 0.15399991 0.1862707 0.02767666
0000a0 5a e2 40 3e e0 da 55 3e 32 8b 38 be 89 82 f0 3d
       0.18836346 0.20884275 -0.18021849 0.117436476
0000b0 14 68 93 bb 28 83 c6 bd 39 a1 46 3e 7a 86 af 3c
       -0.004498491 -0.09692985 0.19397439 0.021426428
0000c0 23 80 3b bc 6c 37 ce 3d ef e4 92 3d 34 7c b3 3c
       -0.011444124 0.10069165 0.07172572 0.02190981
0000d0 b1 6d e1 3d c1 7f 9f bc 66 71 4b be 22 d6 d0 3d
       0.1100725 -0.019470097 -0.19867477 0.101970926
0000e0 96 58 3b bd d0 a5 f8 bd 5a a8 19 be 1c 08 f3 3d
       -0.04573878 -0.12141001 -0.15005627 0.11866781
0000f0 d1 cf c3 3d d2 a7 48 be c6 15 2a be 55 46 1d bd
       0.09561122 -0.19595268 -0.16609868 -0.038397152

attention_p.attn_1.weight f4 [16, 16]
000000 3f ef 80 be e1 5a 2c 3e 79 ad 79 3e c8 2a ca be
       -0.2518253 0.16831543 0.24382581 -0.39485765
000010 b0 fc d3 3c 55 87 db bd d2 82 0b bd 34 41 c9 be
       0.025877327 -0.10719172 -0.034060307 -0.3930756
000020 8e 7d 99 be 65 f2 ed bd 68 15 b8 3d b8 52 a3 3e
       -0.29978603 -0.11618499 0.08988458 0.31899047
000030 d8 f1 c0 3e 67 a1 7a 3d 1c dd e9 bd 5a ea ca be
       0.37684512 0.06118908 -0.114191264 -0.3963192
000040 6f ff 9a be 4e dc a0 3e 71 ef 34 3e 1b 8e ca be
       -0.30273005 0.3141808 0.17669465 -0.39561543
000050 8f ce 6f be 3c 26 8c be 1e 05 55 be 19 d0 7b 3e
       -0.2341864 -0.2737292 -0.20802733 0.24591102
000060 fe 04 27 be 71 f3 a4 3e b2 fb b0 3e d3 a2 49 be
       -0.16310498 0.3221698 0.34567028 -0.19691019
000070 a5 b9 ab bd a4 bb b2 3e 20 73 59 3e 06 09 86 3d
       -0.08385018 0.34908783 0.21235323 0.0654469
000080 f8 0a 59 bd 4a b1 06 be d5 12 20 bd 75 d6 56 be
       -0.052988976 -0.13153568 -0.03908046 -0.20980246
000090 79 64 f8 3d 4e 3b c4 3e 55 6f 81 bd c1 43 50 3e
       0.12128539 0.38326496 -0.06320063 0.20338346
0000a0 7a b7 d5 3e d7 6d 96 3e bd 21 0a be 15 50 ca be
       0.41741544 0.29380676 -0.13489433 -0.39514223
0000b0 18 fd 71 be e8 e4 b7 3d 24 ad 80 be a8 92 95 be
       -0.23631704 0.08979207 -0.25132096 -0.29213452
0000c0 28 42 ce 3e f2 a9 0b be 1a e3 8b be 1e 82 b2 3e
       0.40284848 -0.13639048 -0.27321702 0.34864897
0000d0 ff cb 93 be 10 f7 c8 3e 1b 5f 62 3e 05 a0 a0 be
       -0.28866574 0.39250994 0.22106592 -0.31372085
0000e0 ed 6a 93 3e fc be 85 3e 61 32 44 bd 3f 1c dc be
       0.28792515 0.26122272 -0.047899608 -0.429903
0000f0 61 51 9a bd bc 0f d4 3e 5e 29 c8 bd bf bd f4 bc
       -0.07535053 0.41418254 -0.09773515 -0.029875634
000100 9b bf a1 3e 2d ed b3 be 57 fe 3c be 2b e7 de 3d
       0.31591496 -0.35141888 -0.18456398 0.108839355
000110 c1 55 b8 be 29 c2 80 3e b2 a4 66 3e 16 10 31 3e
       -0.36002925 0.25148132 0.22523764 0.17291293
000120 bd c7 25 be da c0 b7 be e0 61 06 3e 4a 94 b4 3e
       -0.16189475 -0.35889322 0.13123274 0.35269386
000130 ea 90 2c 3e e5 91 a8 be f0 2a bb 3e 5f 5c 4f be
       0.16852155 -0.3292381 0.36556196 -0.2025008
000140 fb 89 db be 3e 4d 5b 3d e0 2c 99 3e 4f 22 c4 3e
       -0.42878708 0.05354046 0.2991705 0.38307425
000150 6b 5a db bd 8f a7 9b be a5 28 a6 3c 35 85 23 be
       -0.10710605 -0.30401275 0.020283053 -0.15968783
000160 7f 23 c9 bc 06 23 e2 3d 80 5a e4 3d 94 4a 5a be
       -0.024553059 0.110418364 0.11150074 -0.21317512
000170 c9 25 93 3d 06 ee 08 3e 07 72 9e be 80 6f 9f 3d
       0.07184941 0.13372049 -0.3094637 0.07784939
000180 e1 a0 b7 3e 77 11 2a be b2 df 3c 3e e4 f4 14 3e
       0.35864928 -0.16608225 0.18444708 0.14546543
000190 ac 66 ae 3e 9f be 89 3e 09 f2 96 be 7f 5b 16 be
       0.34062707 0.26903245 -0.29481533 -0.1468334
0001a0 98 9c 84 bd bb a5 50 be 9b 0c aa 3e 58 1b 00 bd
       -0.064751804 -0.20375721 0.33212742 -0.031276077
0001b0 d8 b1 e7 bd 95 e2 b1 3e 00 09 27 be 94 44 96 be
       -0.11313218 0.3474318 -0.16312027 -0.29349196
0001c0 a6 1d 54 3e 62 27 ae 3e 1e 74 8a 3c a3 3b a6 be
       0.20714435 0.34014422 0.016901072 -0.32467374
0001d0 2a 4c c0 bc 5e 24 d2 3e a2 5d 4a bd 85 b0 8b 3e
       -0.023473818 0.4104337 -0.0494057 0.2728311
0001e0 98 36 55 3e 52 ca 7c bd 33 bc 0a 3d a6 e3 76 bd
       0.20821607 -0.061716385 0.033870887 -0.060275696
0001f0 3a 3e 9d be 93 9e 6d be a5 f0 83 3e 03 d4 86 be
       -0.30711538 -0.23205023 0.25769535 -0.26333627
000200 37 f4 60 be e2 a2 81 be ce da d7 3e 8d 7e fa bd
       -0.2196816 -0.25319582 0.42159122 -0.12231169
000210 1d 38 59 be fd 63 ba 3e 85 60 2b 3e e0 09 c9 be
       -0.21212812 0.3640441 0.16736038 -0.39265347
000220 52 52 d9 3e b8 f1 67 3e de 84 f1 3d fb 65 2d bd
       0.42445618 0.22650802 0.117929205 -0.042333584
000230 ec 43 fc 3d a0 75 1b be 6a 7b 92 3e 50 15 dc 3d
       0.123176426 -0.15181589 0.28609782 0.107462525
000240 3b cc c1 3e c2 0c ee 3d 23 e9 39 bd 20 aa 4a 3e
       0.37851128 0.11623527 -0.045388352 0.1979146
000250 d4 38 93 bd ff 27 00 3e ef 30 9f 3d 41 f7 b2 3e
       -0.071885735 0.12515257 0.07773005 0.34954265
000260 3a cd 9d be 1f e1 67 bc 6a 19 5a be a8 11 9e 3e
       -0.30820638 -0.014152794 -0.21298757 0.30872846
000270 30 f3 22 be 58 3e 69 3e 4b 96 57 3e f8 ee e2 bd
       -0.15913081 0.22777689 0.21053426 -0.11080736
000280 c0 33 94 bc 65 d7 8d 3e f8 72 9e be 83 6a d2 3e
       -0.018091083 0.27703395 -0.3094709 0.41096887
000290 1b bf b5 bd 60 a8 f3 bd 92 4f 95 3c 4d b5 81 3b
       -0.08874341 -0.11897349 0.018226419 0.0039583803
0002a0 58 9a a4 be 72 f4 88 bc e5 f6 95 3e 81 e9 44 be
       -0.32149005 -0.016718123 0.29289928 -0.192297
0002b0 8a 45 90 3e bf ad d1 be 5b 5f b9 3e 45 5f a8 be
       0.28178054 -0.4095287 0.36205563 -0.32885185
0002c0 65 c5 8c be 9b f1 34 be c7 f8 39 be cc d6 c5 bd
       -0.2749435 -0.1767029 -0.18161307 -0.0966011
0002d0 e8 a4 92 be 2e f0 6c 3e e4 39 8c bd 06 d5 cb 3e
       -0.28641438 0.23138496 -0.06846979 0.3981096
0002e0 39 be cc 3e f4 98 ba be 62 c5 57 3e 2b 9e a9 3e
       0.39988878 -0.3644482 0.2107139 0.33128485
0002f0 88 0a 22 3e 7c 08 9e 3b 4e e5 92 be 6b 46 db 3e
       0.1582433 0.0048227888 -0.2869057 0.42827162
000300 47 bc 00 3e 4a 73 ad 3e bd 34 d1 bd a4 a3 2a 3e
       0.12571822 0.3387702 -0.10215137 0.16663986
000310 5b 72 53 be 62 24 cc be c0 cb bb 3b dd 7d d1 3e
       -0.20649092 -0.39871508 0.005731076 0.4091634
000320 bc d9 5b 3d e5 8f de be a2 c3 5d bc d7 38 75 3e
       0.053674445 -0.43469158 -0.013535412 0.23947464
000330 72 51 a5 be bc ba d8 3e 33 ea 7c 3e d9 ef 35 be
       -0.322887 0.42329967 0.24698715 -0.17767276
000340 b3 b8 1f 3e 86 fa 8d 3e 0e b6 9b 3e 15 6f b2 bb
       0.15597801 0.27730197 0.30412334 -0.005445371
000350 34 d0 4f bd b7 4e 5e 3e 71 12 02 3e b8 49 09 be
       -0.050735667 0.21709715 0.12702347 -0.13407028
000360 5e 9d 21 3d 9a 4c a4 be 04 5a be be 7d c5 b3 3e
       0.039456718 -0.32089692 -0.3717805 0.3511161
000370 de 35 d4 be d0 3b 87 be 00 d3 bd be 98 0e 01 3e
       -0.41447347 -0.2641282 -0.37075043 0.12603223
000380 89 f7 9a 3e 6f 80 66 bd 27 26 b7 3e fa 8e d5 3e
       0.3026698 -0.056274828 0.35771295 0.41710645
000390 c6 ed 17 bd a0 31 c1 be ea f0 7c be 94 2a be bb
       -0.037091993 -0.37733173 -0.24701276 -0.0058034156
0003a0 3c de 07 be d0 45 97 be a5 f2 f1 bd 6a d0 a8 bd
       -0.1326837 -0.2954545 -0.11813859 -0.08242877
0003b0 45 7b 90 be 28 fb b9 be 34 ab a5 3e ee 7d b3 bd
       -0.28219047 -0.3632443 0.3235718 -0.087642536
0003c0 a4 99 ab 3d 99 e3 46 be 7a 19 aa be 3c bf 8f bd
       0.08378914 -0.19422759 -0.33222562 -0.07018897
0003d0 d6 62 88 3e 6f c0 cc 3e ec 45 44 3d fd 2d 8c be
       0.26637906 0.39990565 0.047918245 -0.27378836
0003e0 75 93 05 be a9 4f 4c be 08 6f 98 bd e4 9f 14 ba
       -0.13044532 -0.19952263 -0.074430525 -0.00056695775
0003f0 c2 50 e2 bd c4 2b 36 be c6 00 8e be 00 18 b6 bd
       -0.110505596 -0.17790133 -0.27734965 -0.088912964

attention_p.attn_1.bias f4 [16]
000000 02 9e 06 bb 0f e7 19 bb 4f 39 21 3b 7a 66 21 bb
       -0.0020540957 -0.002348367 0.002460081 -0.0024627731
000010 af 7b 25 bb 15 5a 78 ba d8 32 02 3b d0 16 37 bb
       -0.0025250723 -0.00094738725 0.001986673 -0.0027937181
000020 16 91 12 3b 58 a3 24 bb 08 19 fb 3a 62 3d 1d bb
       0.002236431 -0.0025121775 0.001915724 -0.0023992886
000030 27 0c 09 3b ef 38 1a 3b 82 8b 19 bb 52 df 14 bb
       0.0020911784 0.002353247 -0.00234291 -0.0022716117

attention_p.attn_2.weight f4 [1, 16]
000000 d8 a1 e0 be 92 e1 ba be aa ce f9 3d 51 ac 24 be
       -0.43873477 -0.36500221 0.12197621 -0.16081358
000010 64 45 77 be ea aa 8d 3c 8e b7 b5 3e 65 72 83 be
       -0.24147564 0.017293412 0.35491604 -0.25673214
000020 eb aa 86 3e 7b 7a c2 be 66 9d 99 3e db 9b 40 be
       0.26302275 -0.3798407 0.30002898 -0.18809454
000030 60 85 81 3e 9b b4 d9 3e d0 7c 09 be f0 44 95 be
       0.2529707 0.42520604 -0.13426518 -0.29154158

lstm_t.weight_ih_l0 f4 [64, 7]
000000 1f b0 29 be c9 f5 87 bd 2a c0 a0 bb a1 2e 8a bd
       -0.16571091 -0.06638677 -0.0049057202 -0.06747175
000010 fe 40 51 3e 11 a6 48 be ea 27 4c 3e 1d 6b 73 3b
       0.20434949 -0.195946 0.19937101 0.0037142702
000020 fe 53 67 3e ee 07 88 3d ff 1e 55 be 30 d4 69 3e
       0.22590634 0.066421375 -0.20812605 0.2283485
000030 2d b2 71 3d 0b 8e dc 3d 12 4c 2e 3e 24 06 82 bd
       0.059007812 0.1076928 0.17021206 -0.063488275
000040 55 ec e7 3c 4f 4a ba bd fa 09 02 3e 9d 8f 3e 3b
       0.028310934 -0.090962045 0.12699118 0.00290773
000050 79 f2 a4 3d c7 a3 12 be ac 48 e9 bd a3 1e e4 bd
       0.080540605 -0.14320289 -0.11390814 -0.11138656
000060 9a 01 1c be 20 e1 42 3e 25 ed 3a be c7 c6 1d 3e
       -0.15234986 0.19031191 -0.18254526 0.15407859
000070 d7 99 59 be 2e bb 57 3e 13 7d 7b be 84 fb 37 3e
       -0.21250091 0.21067497 -0.24559431 0.1796704
000080 d9 43 39 3c 36 11 70 bd 18 9c fa bd a2 05 1a 3e
       0.01130768 -0.058610164 -0.12236804 0.15041211
000090 84 30 88 3d a2 68 e5 3d 79 f4 74 3d ef fd eb 3c
       0.066498786 0.11201598 0.05980346 0.028807608
0000a0 90 ed 47 3e 6e a2 cc 3d df 38 59 3e 17 d5 39 be
       0.19524217 0.099919185 0.21213101 -0.18147694
0000b0 f4 44 29 bd 8f a4 63 bd 08 2c be 3d d3 10 60 3d
       -0.041325524 -0.055576857 0.09285742 0.054703545
0000c0 6a bd 1b be 84 4e f2 3d f5 65 e8 bc 98 8b 2d be
       -0.15208974 0.11831382 -0.02836893 -0.16947782
0000d0 d5 9b 74 3e 92 66 34 be 81 15 db bd 20 ef 63 3e
       0.2388757 -0.17617252 -0.10697461 0.22259188
0000e0 e8 8f ac bd 6c fc 12 3e 41 00 9e bd a5 92 cb bd
       -0.084258854 0.14354104 -0.07714892 -0.099400796
0000f0 ed 72 68 3e 89 08 72 be fc 20 15 3d a9 64 2c 3c
       0.2270009 -0.23636068 0.03640841 0.010522046
000100 d1 e2 29 be c5 ab 0a 3d f9 bb b2 bd 7e 56 95 3d
       -0.1659043 0.03385522 -0.08727259 0.07291888
000110 31 18 02 be 3f c2 2c be f4 b7 5c be b0 7c 6c 3d
       -0.12704541 -0.16870974 -0.21554548 0.0577361
000120 06 7b 21 3b 6b 62 78 bd 3e f3 3f be f4 a7 0c 3b
       0.0024639978 -0.060640734 -0.18745133 0.0021462413
000130 fa 3a 4e be d1 f6 8d 3d f2 fd 34 bd 4a 8e 0c be
       -0.20139685 0.06931842 -0.044187494 -0.13726154
000140 ce 32 b9 3d ef 54 37 be b3 30 00 bb 64 86 08 3e
       0.09042893 -0.17903493 -0.0019560277 0.13332516
000150 e9 0b 56 3e 98 a4 bf bd 09 02 58 be 01 1e 28 3e
       0.20902981 -0.09357566 -0.21094526 0.16417696
000160 d2 7a 0b 3d 86 eb 70 be bf a5 1a bc 98 af 92 3c
       0.034052677 -0.23527345 -0.009438931 0.017905995
000170 d5 d5 69 bd 80 05 2f 3e aa b0 51 3d bf fa 0b be
       -0.05708869 0.17091942 0.05119387 -0.13669871
000180 d0 8d d5 bc a1 bf f0 3b 81 07 fd bd fc df 00 be
       -0.026068598 0.0073470627 -0.12354947 -0.12585443
000190 b1 b0 04 bd 91 7b ed bc 48 81 25 be bd 3d 56 3e
       -0.03239507 -0.028989585 -0.16162598 0.20921989
0001a0 1d 20 7c 3e 9a 15 31 be 8a 78 08 3e d1 48 3f be
       0.24621625 -0.17293397 0.13327232 -0.18680121
0001b0 22 ec 84 3d 5f 9d 7d 3e a9 a7 1a 3d ae a2 43 be
       0.06490351 0.24767064 0.03775755 -0.19105026
0001c0 be 23 aa bb 4c 69 43 be 93 6a 4e be bb ed 88 bd
       -0.005192249 -0.19083136 -0.20157842 -0.066859685
0001d0 8f 3e 27 be 41 3f b2 3d 29 0a 5d 3d 7b f8 62 be
       -0.16332458 0.08703471 0.053964768 -0.221651
0001e0 94 5a 23 bd 56 01 71 3e e4 88 34 3e 63 64 11 3e
       -0.039881304 0.23535666 0.17630345 0.1419845
0001f0 eb 17 be 3d 43 97 48 be 01 2a 5e 3e d9 97 70 3e
       0.09281906 -0.19588952 0.2169571 0.23495425
000200 66 bb 82 bd d3 75 58 be 54 cd 1b bd b0 de 6f bb
       -0.063834 -0.21138696 -0.038037613 -0.0036601238
000210 29 0e 34 3e 33 71 0c 3e 64 9f 53 be 51 a4 11 be
       0.17583527 0.13715057 -0.20666271 -0.14222838
000220 bc 0f 16 3d 55 40 3e 3e cc 3b 6b bc 2a 66 7d be
       0.0366361 0.18579228 -0.014357518 -0.24746004
000230 8e 5d e5 3d ff e0 56 bd 94 a2 8d 3d 75 0c e1 3d
       0.11199485 -0.052460667 0.06915775 0.10988704
000240 e3 1b f6 3d 2f dc 7e 3c f4 d1 a9 3d 73 d3 a8 3d
       0.12017038 0.015555426 0.082919985 0.08243456
000250 4d a0 bd bd 5d 04 7c 3d b5 8c 26 3e c1 f4 3d be
       -0.092590906 0.0615276 0.16264613 -0.18550397
000260 2c 96 5a 3d d2 6f 48 3e d6 28 e1 3d 8d d4 ef bd
       0.05336587 0.19573906 0.10994117 -0.11710463
000270 16 84 8a 3d 4e 50 a5 bb da 26 56 3e 3c 88 0d be
       0.06763475 -0.0050449735 0.20913258 -0.138215
000280 e3 67 f5 3d 2d 1f a7 3c 22 35 ae 3c e7 86 94 ba
       0.119827054 0.020400608 0.02126557 -0.0011331708
000290 7f e4 54 be 06 b3 c7 3d 04 81 22 be ab c9 73 3e
       -0.2079029 0.09750943 -0.15869528 0.23807399
0002a0 da a9 a8 3d af d3 fb bd 29 85 45 3e f9 cf 34 3e
       0.082355216 -0.12296235 0.19289078 0.1765746
0002b0 5e 46 69 3e 96 4b f8 3d 93 1e 59 3d 94 db 06 be
       0.22780749 0.12123792 0.053007673 -0.131697
0002c0 08 c7 6a 3e c5 e8 f6 3d 4a 05 f5 3d 04 6b 6a 3e
       0.22927487 0.12056116 0.119638994 0.22892386
0002d0 8d 1a 33 3e 93 a9 04 be 8d be 37 3e 0a 5f b9 3d
       0.17490597 -0.12955312 0.17943783 0.090513304
0002e0 e7 f6 cc bd a0 02 52 3e 17 0d c3 bd 6b fa a1 bd
       -0.100080304 0.20508814 -0.09523981 -0.079090916
0002f0 92 02 9f 3c 1a 84 65 3c 2f 66 3d 3e d5 b3 ee bd
       0.019410405 0.014008546 0.18496011 -0.11655394
000300 eb d8 6b be 6e a0 b8 3d 91 33 27 be 13 91 57 be
       -0.23031966 0.090149745 -0.16328265 -0.21051435
000310 c2 aa 3c be a4 9b 3b be 81 39 91 bd 2c 14 2f be
       -0.18424514 -0.18321091 -0.07091046 -0.17097539
000320 2e 99 25 3e 1a 4f d5 bd c9 9c 23 3e b0 e8 0f be
       0.16171715 -0.10415478 0.15977778 -0.14053607
000330 ae 37 21 3e 8b 4e e8 3c 57 37 74 be 2d 8f d2 bd
       0.15743896 0.028357765 -0.23849235 -0.10281215
000340 04 3d 72 3e 1b ff 66 3e 1c 2d 3c 3e 85 ee 44 3e
       0.23656088 0.22558253 0.18376583 0.19231613
000350 8c e3 4a 3d 49 5a 51 be 73 15 a4 bd 11 2e 43 be
       0.04953341 -0.20444597 -0.080119036 -0.19060542
000360 31 e6 fb 3d 0f 83 19 3e 8f 49 af 3d d8 60 5a 3e
       0.12299765 0.14991401 0.08558952 0.21326005
000370 43 79 17 bd af d7 08 3e 24 c5 7f bc 71 45 2e bd
       -0.03698088 0.13363527 -0.015610967 -0.042546693
000380 ab 07 2c be 44 19 25 be ef f9 dc 3c c7 a1 09 be
       -0.167998 -0.1612292 0.026974646 -0.1344062
000390 8b 39 eb 3c d6 92 f1 bd 56 77 e9 bc 5f 69 38 be
       0.028713962 -0.11795585 -0.028499287 -0.18008946
0003a0 80 05 43 be d1 2b e3 3d 13 aa 40 3e 75 bf aa bc
       -0.19045067 0.11092342 0.18814878 -0.020843247
0003b0 58 ab 65 3d c0 9a 8b 3d 7c cf 58 3e 94 b3 ad bc
       0.05607161 0.068166256 0.21172899 -0.021203794
0003c0 69 2b 7b 3e 89 ad ac 3c c0 de 29 3e 4e d8 f9 bb
       0.24528278 0.021078842 0.16588879 -0.0076246625
0003d0 49 12 da bd b8 99 5a 3c 35 3e 55 be 42 2c 59 3d
       -0.10648019 0.0133423135 -0.20824511 0.053020723
0003e0 d7 d7 4a bd c8 58 b3 3d 72 29 63 be 72 2b 47 3e
       -0.049522247 0.08757168 -0.22183779 0.19450167
0003f0 3c 12 5b bd 66 f0 bd bc 8a 52 1b 3d a1 5e 5b 3e
       -0.053484187 -0.02318592 0.037920512 0.21422817
