Params/155_0.01_7_16_222_model.pt (torch, 45257 bytes, 31 tensors)

lstm_p.weight_ih_l0 f4 [64, 10]
0	0xbd85d600	-0.06534958
1	0xbcd39100	-0.025825977
2	0xbcd0eed4	-0.025504507
3	0x3c4b8178	0.0124210045
4	0x3e837c8e	0.25680965
5	0xbdbc64e0	-0.09198928
6	0x3de70c21	0.1128161
7	0x3e57e28d	0.21082516
8	0xbd2626ce	-0.04056435
9	0xbd3eb21b	-0.046556573
10	0x3e096a94	0.13419563
11	0x3d9ba2a5	0.07599381
12	0x3bff763d	0.0077960775
13	0x3e6dcf61	0.2322364
14	0x3cbe089b	0.023197463
15	0xbdd37e4f	-0.10326826
16	0x3ca9ecec	0.020742856
17	0x3da86fa3	0.08224418
18	0x3db75657	0.08952015
19	0x3dff10ad	0.124543525
20	0x3dcbba1c	0.09947607
21	0x3e0352b3	0.12824516
22	0xbe0e2f8d	-0.13885327
23	0x3e7e97bf	0.24862574
24	0xbdbee508	-0.09321028
25	0xbd218b32	-0.039439388
26	0x3e0be7fa	0.13662711
27	0x3c9a7b91	0.01885775
28	0x3e66497f	0.22488974
29	0x3e23f5f1	0.16011788
30	0x3e4015ab	0.18758266
31	0x3ca93d39	0.020659076
32	0x3d26eeb0	0.040754974
33	0x3cfd6d61	0.030935945
34	0xbe40fd21	-0.18846561
35	0xb9e4a7ff	-0.00043612716
36	0x3d54c9a5	0.051950116
37	0xbdb0d98b	-0.08635243
38	0xbe2a0b47	-0.16605864
39	0xbe3b5a7c	-0.18296236
40	0x3e18d392	0.14924458
41	0xbe25ce94	-0.16192085
42	0x3e8f768a	0.28020126
43	0xbc996c8a	-0.018728513
44	0x3d7303ec	0.059329912
45	0x3e232a16	0.15934023
46	0x3e3c861e	0.18410537
47	0x3d9ee052	0.077576295
48	0xbe4b935c	-0.19880432
49	0x3b967ee4	0.0045927633
50	0xbdce5b31	-0.10075987
51	0xbe4c1291	-0.19928958
52	0xbddf0d01	-0.10891152
53	0x3e0bbb41	0.1364565
54	0x3d057daa	0.032590546
55	0x3e623e1e	0.22094008
56	0xbe0f860d	-0.1401598
57	0x3df5bbd9	0.1199872
58	0x3e4e367e	0.20137975
59	0xbe2013a8	-0.15632498
60	0x3e7bc383	0.245863
61	0x3e25dbee	0.16197178
62	0x3b53e7a5	0.0032334116
63	0xbd5d34eb	-0.054005545
64	0xbe0e02a0	-0.13868189
65	0x3e47cee8	0.19512522
66	0x3d95b48a	0.07309826
67	0xbcef94a4	-0.029245682
68	0x3e65bd9c	0.22435611
69	0xbe0b863a	-0.13625422
70	0xbe4d43bb	-0.20045368
71	0xbe5a81f5	-0.21338637
72	0x3e2347fb	0.15945427
73	0xbe823e49	-0.25438145
74	0xbd8a6902	-0.0675831
75	0xbdc52e29	-0.09627945
76	0xbde47f0f	-0.11157047
77	0xbe91930e	-0.28432506
78	0x3d2fbdea	0.042905726
79	0xbde51ce2	-0.111871496
80	0xbe70de4c	-0.235223
81	0xbd8a9284	-0.06766227
82	0xbe4704f2	-0.1943548
83	0x3db0b942	0.08629085
84	0x3dc51ee9	0.09625036
85	0xbe0c247e	-0.13685796
86	0x3e49f95b	0.19724028
87	0x3c80cf8e	0.01572397
88	0xbe7a34e7	-0.24434243
89	0xbb074446	-0.002064006
90	0xbcbcf8db	-0.023067882
91	0x3da9defa	0.082944825
92	0xbe787ad3	-0.24265604
93	0x3c7ca5f3	0.015420425
94	0xbe2e581b	-0.17025797
95	0x3bd53128	0.006506104
96	0xbe5a4699	-0.21315993
97	0xbbc2f54e	-0.0059496528
98	0xbe7b35b7	-0.2453221
99	0x3d301d5c	0.04299675
100	0x3d92ae02	0.071620956
101	0x3e4ec8fa	0.20193854
102	0x3e840710	0.25786638
103	0x3de416a8	0.11137134
104	0xbdac5f2b	-0.08416589
105	0xbd8d0525	-0.06885747
106	0x3e16dd40	0.14732838
107	0x3e136a43	0.14396004
108	0x3c7d1c98	0.015448712
109	0xbe16e038	-0.1473397
110	0xbe4f4f5f	-0.20245121
111	0xbdaa5b02	-0.083181396
112	0x3d959566	0.07303886
113	0x3e12ce6b	0.14336555
114	0x3d901228	0.07034713
115	0x3dc6e28d	0.0971118
116	0xbdab2c98	-0.08358115
117	0x3d94316b	0.07235988
118	0xbbb3ca39	-0.0054867533
119	0x3e1ec609	0.15505232
120	0x3d9b16b7	0.07572692
121	0xbd531664	-0.051535025
122	0x3c92fb3e	0.017942067
123	0xbe15e9d2	-0.14639977
124	0xbe905b44	-0.2819463
125	0x3c83034a	0.01599278
126	0x3e230f2d	0.15923758
127	0x3d29a0f7	0.041413274
128	0xbd861133	-0.06546249
129	0xbe92adf4	-0.2864834
130	0xbe5c7c19	-0.21531714
131	0x3dbd5d40	0.09246302
132	0x3d6b3c79	0.057430718
133	0x3dc8e31c	0.09808943
134	0x3de6b5bb	0.11265131
135	0xbd287eba	-0.04113648
136	0xbe691ce5	-0.22764929
137	0x3dd49f42	0.103819385
138	0xbe469072	-0.19391039
139	0x3d65105e	0.055923812
140	0x3cbc903a	0.023017991
141	0x3e3f9934	0.18710786
142	0x3e842515	0.2580954
143	0xbc5e5851	-0.013570861
144	0x3e1d49d7	0.15360199
145	0x3d375bc1	0.044765238
146	0x3e2bd3e6	0.16780052
147	0xbd89d324	-0.06729725
148	0xbe388c21	-0.18022205
149	0xbd1e8cce	-0.0387085
150	0x3c838bda	0.016057897
151	0x3df65d7a	0.12029548
152	0x3dfe1495	0.124062695
153	0xbd1ed81d	-0.03878032
154	0x3d671d6d	0.056424547
155	0xbd0b8645	-0.034063596
156	0x3e3ba5b4	0.1832493
157	0x3d5cc8cc	0.053902432
158	0xbc87a532	-0.016558263
159	0xbd2ce101	-0.042206768
160	0x3db3a713	0.08772101
161	0xbd4a9a5c	-0.049463615
162	0x3e7775b0	0.24165988
163	0x3e268d69	0.16264881
164	0xbd5f75a2	-0.054555543
165	0x3e0003e4	0.12501484
166	0xbdaf7256	-0.0856673
167	0xbe35f35b	-0.17768614
168	0xbe482733	-0.19546203
169	0xbe48ce25	-0.19609888
170	0xbdcb2ad1	-0.09920276
171	0xbdbd008d	-0.09228621
172	0xbd54fd5b	-0.05199943
173	0x3e53305b	0.20623915
174	0x3d71b1c9	0.05900744
175	0x3e102430	0.14076304
176	0x3d9400b1	0.072266944
177	0x3dd64ccb	0.10463866
178	0x3c045f54	0.008079369
179	0x3d022d34	0.03178139
180	0x3eb0d588	0.3453791
181	0x3ea2fc35	0.31833044
182	0x3dc574e3	0.09641435
183	0x3e312e36	0.17302784
184	0x3e729ee0	0.23693419
185	0x3e6b6b67	0.2299019
186	0x3e7d1af8	0.24717319
187	0x3ce32f6c	0.027732573
188	0x3e5a22d4	0.21302348
189	0x3e05bc38	0.13060081
190	0x3dace1f3	0.08441534
191	0xbd0b42e8	-0.033999354
192	0x3e06efdc	0.13177437
193	0xbe412e3c	-0.18865293
194	0x3e0bb9e5	0.13645132
195	0x3d573502	0.052540787
196	0x3de5960e	0.11210261
197	0xbc951b5d	-0.018201524
198	0xbe0956e8	-0.13412058
199	0xbcb79f28	-0.022414759
200	0x3e018bb0	0.12650943
201	0x3d1d755f	0.038442012
202	0xbe6302d6	-0.2216905
203	0xbe4f823f	-0.20264529
204	0x3e756ac0	0.23966503
205	0xbe212c61	-0.15739585
206	0xbd819ed5	-0.06329123
207	0xbe2471db	-0.16059057
208	0x3dbeafcc	0.09310874
209	0xbe5ccf22	-0.2156339
210	0x3e25d715	0.16195329
211	0xbe0e4302	-0.13892749
212	0xbe7f51c4	-0.24933535
213	0xbd099035	-0.033584792
214	0x3d55aa30	0.052164257
215	0xbdef0cea	-0.11672385
216	0x3dba057d	0.09083078
217	0xbe69113c	-0.2276048
218	0x3e5446e8	0.20730174
219	0xbe58bcc5	-0.2116576
220	0x3d8d5def	0.06902682
221	0xbd748411	-0.05969626
222	0xbd9079e0	-0.07054496
223	0x3e6ca044	0.23108011
224	0x3e480fb2	0.19537237
225	0x3e37b6d6	0.1794084
226	0xbe2e6427	-0.17030393
227	0xbe47c001	-0.19506837
228	0xbe6fab02	-0.23405078
229	0x3dea2d7b	0.11434456
230	0xbdb78b4a	-0.08962114
231	0xbe57d069	-0.21075596
232	0xbe45528b	-0.19269769
233	0x3d833227	0.0640605
234	0xbe015e34	-0.12633592
235	0xbd32fae7	-0.04369631
236	0xbe8f3ddc	-0.27976882
237	0x3e1c6541	0.15273
238	0xbe0ee5a6	-0.13954791
239	0x3cf1358f	0.029444484
240	0xbe50356c	-0.20332879
241	0x3e50b113	0.20380048
242	0x3e29dced	0.16588183
243	0xbe0ce428	-0.1375891
244	0xbde6463d	-0.11243866
245	0xbe2ee39d	-0.17079015
246	0x3e5de1ca	0.21668163
247	0x3df9ba08	0.12193686
248	0x3dacc24e	0.08435498
249	0x3db57321	0.0885985
250	0xbe676311	-0.22596385
251	0xbe2d1a0e	-0.1690447
252	0xbe4eb56b	-0.20186393
253	0xbdcdcf0c	-0.10049257
254	0xbde443cc	-0.11145744
255	0x3ddb3e59	0.10705251

lstm_p.weight_hh_l0 f4 [64, 16]
0	0x3c376f11	0.011195914
1	0x3cf086de	0.029361185
2	0xbaa2800a	-0.0012397778
3	0x3f07dd41	0.5307198
4	0x3ce0461c	0.02737718
5	0xbe09687d	-0.13418765
6	0xbca5ab34	-0.020223238
7	0x3d12ba69	0.035822306
8	0x3e0a5efe	0.13512799
9	0xbdb3bb67	-0.087759785
10	0x3e0e0c01	0.13871767
11	0x3e4e583f	0.2015085
12	0xbc8379c9	-0.016049283
13	0x3ebbc88b	0.3667644
14	0x3e74786e	0.23874065
15	0x3dfb36fa	0.12266345
16	0x3e9c455d	0.3052167
17	0xbe670ac2	-0.22562698
18	0xbe407f43	-0.18798546
19	0xbbdeae51	-0.0067956825
20	0x3e1b0d8a	0.15141883
21	0xbd8a215c	-0.06744644
22	0x3e3dbda4	0.18529373
23	0x3e05a70c	0.13052005
24	0x3dae7982	0.085192695
25	0x3e56b191	0.20966174
26	0x3dc20de0	0.09475303
27	0xbe47eae4	-0.19523197
28	0x3debb39f	0.115088694
29	0xbe400eec	-0.18755692
30	0xbe16b138	-0.14716041
31	0xbd3dd0ec	-0.04634182
32	0x3e8ee323	0.27907667
33	0xbe1a83cd	-0.1508934
34	0x3de4cd9f	0.111720316
35	0x3e76d7ce	0.2410576
36	0xbe780e52	-0.24224213
37	0xbe121d04	-0.14268881
38	0x3d42e494	0.04758127
39	0x3df3cd24	0.11904362
40	0x3ad7f53c	0.0016476284
41	0xbe39a9a9	-0.18131126
42	0x3cff9d3a	0.031202901
43	0x3d96fcd9	0.073724456
44	0x3e296cb2	0.1654537
45	0xbd7f4ef4	-0.062331155
46	0xbde24982	-0.11049177
47	0xbd59178d	-0.053000975
48	0xbe03b958	-0.12863672
49	0xbd840151	-0.064455636
50	0x3da7b6d5	0.08189169
51	0xbd1fec04	-0.03904344
52	0x3de65f70	0.11248672
53	0xbe65c3c6	-0.22437963
54	0x3dd0abd7	0.10189026
55	0x3de0ce8c	0.10976896
56	0x3e157781	0.14596368
57	0xbd778c85	-0.060436744
58	0x3dc4327d	0.095799424
59	0x3e14a4e7	0.1451603
60	0xbc8ff674	-0.017573573
61	0xbcfe21cb	-0.031021973
62	0xbc025958	-0.0079558715
63	0x3de4ecc2	0.111779705
64	0x3e930ae0	0.28719234
65	0xbd36b02f	-0.044601616
66	0xbe381b3c	-0.17979139
67	0x3d435958	0.047692627
68	0xbe5c215d	-0.21497102
69	0x3e01dacc	0.1268112
70	0xbd57bfd4	-0.052673176
71	0x3ddbf31e	0.1073973
72	0xbdeb004a	-0.114746645
73	0x3de41574	0.11136904
74	0xbe533469	-0.20625462
75	0x3e07d0c2	0.13263229
76	0x3e77fbcf	0.24217151
77	0x3e7b7afa	0.2455863
78	0x3da5cc43	0.080956005
79	0xbe6009e4	-0.21878773
80	0x3d5ca6fd	0.05387019
81	0x3e345906	0.17612085
82	0xbe140cba	-0.1445798
83	0x3c48d8f1	0.012258754
84	0xbd5652b1	-0.052324954
85	0xbdb18ba1	-0.0866921
86	0xbe8dea08	-0.27717614
87	0x3e31945a	0.17341748
88	0x3e3185a0	0.1733613
89	0xbe226234	-0.15857774
90	0xbd3e6f02	-0.046492584
91	0x3dd3b160	0.10336566
92	0xbe30def1	-0.17272545
93	0xbdd70517	-0.10499018
94	0x3e63e041	0.22253515
95	0x3c00729b	0.007839824
96	0xbe15cef8	-0.14629734
97	0xbb31c0b9	-0.0027122928
98	0x3d50bc31	0.050960723
99	0xbb446ae3	-0.0029970936
100	0x3e3dc061	0.18530418
101	0x3dee2d4a	0.11629732
102	0x3e6ba2ae	0.23011276
103	0x3c8c0f55	0.017097155
104	0xbe0ee9dc	-0.13956398
105	0xbcb5d302	-0.022195343
106	0xbe10676c	-0.14101952
107	0x3e1ba60e	0.15200064
108	0xbe907f78	-0.2822225
109	0x3eb02158	0.3440044
110	0x3d3e381f	0.04644024
111	0x3d286a95	0.04111727
112	0x3e76f6ec	0.2411763
113	0xbe8feb8c	-0.28109396
114	0x3e9e73e4	0.30947793
115	0xbe4c7aad	-0.19968672
116	0x3e96a139	0.29419878
117	0xbc814629	-0.015780525
118	0x3dc0c4e3	0.09412553
119	0x3e161c64	0.14659268
120	0x3e9a31a1	0.3011599
121	0x3e636d74	0.22209722
122	0x3dfa38a7	0.12217837
123	0x3d1c4ce6	0.038159274
124	0xbd6ae852	-0.057350464
125	0x3be45629	0.006968279
126	0xbd7f0f5f	-0.06227052
127	0x3de2bf34	0.11071625
128	0xbe243c59	-0.16038646
129	0x3e0f66dd	0.14004083
130	0x3e409c25	0.18809564
131	0x3eae4b58	0.34041858
132	0xbbf5ee54	-0.0075052176
133	0x3e72f2ca	0.23725429
134	0xbe87765d	-0.26457492
135	0xbe2e041a	-0.16993752
136	0x3d3f2ed8	0.046675533
137	0x3dd38139	0.10327382
138	0x3e38f9b0	0.18063998
139	0xbe26c7b7	-0.16287123
140	0xbda32319	-0.07965679
141	0xbdb5482a	-0.08851655
142	0x3d2330ed	0.03984158
143	0xbc6b6aae	-0.014368696
144	0xbe5d940a	-0.21638504
145	0xbc9bbbe7	-0.019010497
146	0xbe0d48ae	-0.13797256
147	0xbde670da	-0.112519935
148	0x3d55e0e2	0.052216418
149	0x3de6ab5c	0.11263153
150	0x3d846222	0.0646403
151	0xbdecea19	-0.11568088
152	0xbe1805a0	-0.14845896
153	0xbd0eef77	-0.03489634
154	0xbbff7d77	-0.007796939
155	0xbdda9f2f	-0.10674893
156	0x3e55907e	0.208559
157	0x3dc70d7d	0.097193696
158	0x3e559ad8	0.2085985
159	0x3da0413a	0.07824941
160	0xbdf30ddc	-0.11867878
161	0x3e12a1b9	0.14319505
162	0xbde8fa48	-0.11375862
163	0x3e919f5c	0.28441894
164	0x3dbe0757	0.09278744
165	0x3e6b7bff	0.2299652
166	0xbe8e436b	-0.2778581
167	0xbd6dfa75	-0.058100183
168	0x3e3001a6	0.17188129
169	0xbde90663	-0.11378171
170	0x3e7a941f	0.24470566
171	0x3d022982	0.031777866
172	0xbe7e93f8	-0.24861133
173	0x3e127508	0.14302456
174	0x3de4a639	0.11164517
175	0xbe1e62ae	-0.15467331
176	0xbe1d905e	-0.15387103
177	0xbde6bc55	-0.1126639
178	0x3e0798f2	0.13241938
179	0x3ea4e592	0.32206398
180	0xbe119e21	-0.14220478
181	0xbe11f56e	-0.1425378
182	0xbea1fa2d	-0.3163618
183	0x3d1d691d	0.038430322
184	0xbdc2802f	-0.09497105
185	0x3e8aaa73	0.27083167
186	0xbe833211	-0.25624135
187	0x3eb0b0c3	0.34509858
188	0xbdb8dc16	-0.09026353
189	0x3d98ca23	0.074604295
190	0xbd6161e6	-0.055025004
191	0x3c586368	0.013207294
192	0x3cbbcac6	0.022923838
193	0xbe1d7b29	-0.15379013
194	0xbe0f95b8	-0.14021957
195	0xbd24fe45	-0.040281553
196	0xbdac14b4	-0.08402386
197	0x3dd1cb48	0.10243851
198	0xbd07bfe1	-0.033141974
199	0xbd9e7fc7	-0.07739215
200	0xbe323e05	-0.17406471
201	0xbd5a2c63	-0.053264987
202	0x3e717930	0.23581386
203	0x3e1e78e7	0.15475808
204	0x3db08861	0.08619762
205	0xbd3019e6	-0.04299345
206	0x3e8c577e	0.274105
207	0x3dfdfb5d	0.12401459
208	0xbbbd4292	-0.005775758
209	0xbdec00ca	-0.11523588
210	0x3e14e4ca	0.14540401
211	0x3e87e53f	0.26542088
212	0xbdd41400	-0.10355377
213	0x3e34bc37	0.17649923
214	0x3ddfa8b9	0.10920853
215	0xbd9062b8	-0.07050079
216	0xbe113683	-0.14180951
217	0xbceab29d	-0.028649623
218	0x39a4b14a	0.00031412608
219	0x3e8f7a25	0.28022876
220	0x3d1e350b	0.038624804
221	0x3eb35900	0.3502884
222	0x3e81d615	0.25358644
223	0x3c992ccc	0.018698119
224	0x3df4d9bd	0.11955593
225	0x3e6444d1	0.22291876
226	0x3d93ef5a	0.07223387
227	0x3e056654	0.13027316
228	0x3dd47e0a	0.103756025
229	0x3e8a4827	0.27008173
230	0xbda35f60	-0.07977176
231	0xbd3253b5	-0.04353686
232	0xbc3314c1	-0.010930241
233	0xbe2f5548	-0.17122376
234	0xbc5e3119	-0.0135615105
235	0xbe3d0c79	-0.18461789
236	0xbd2075d6	-0.039174877
237	0x3d711b9c	0.05886422
238	0x3e5aff94	0.21386558
239	0xbcc1fee8	-0.02368112
240	0xbdbc75c7	-0.09202152
241	0xbceea43f	-0.029131053
242	0xbe1fd695	-0.156092
243	0x3d8342dc	0.06409237
244	0x3e77750f	0.24165748
245	0xbdf61d0f	-0.12017261
246	0xbb8a5bd9	-0.004222375
247	0x3d918858	0.07106084
248	0x3de1e491	0.11029924
249	0x3e658e5d	0.22417589
250	0xbe185537	-0.14876257
251	0xbe166760	-0.14687872
252	0xbc1cd3df	-0.009571998
253	0xbe701f49	-0.23449434
254	0xbe101a2f	-0.14072488
255	0x3d22beea	0.03973285

lstm_p.bias_ih_l0 f4 [64]
0	0x3c2aaeee	0.010417683
1	0xbe47acf1	-0.19499566
2	0xbdec8557	-0.1154887
3	0xbdd1f893	-0.1025249
4	0x3e1c76a8	0.15279639
5	0xbd3f146a	-0.046650328
6	0x3cddd78b	0.027080318
7	0xbe84fcef	-0.25974223
8	0x3e421141	0.18951894
9	0xbe8f3f4f	-0.27977988
10	0x3e072f03	0.13201527
11	0x3d0650a2	0.03279174
12	0x3e2819d6	0.16416106
13	0xbe34aaaa	-0.17643228
14	0x3e1bd055	0.15216191
15	0x3dccec55	0.10006014
16	0xbe012f9d	-0.1261582
17	0x3e53eb8c	0.20695323
18	0xbd6ed10e	-0.05830484
19	0xbe3e257d	-0.18568988
20	0xbe5911fc	-0.21198267
21	0x3e4e85ad	0.20168181
22	0x3dafb57b	0.085795365
23	0xbd8275c4	-0.06370118
24	0x3b97f484	0.004637303
25	0x3e192796	0.14956507
26	0xbb3ac552	-0.002849896
27	0xbad5c898	-0.0016310392
28	0xbe497731	-0.19674374
29	0xbe5523dd	-0.20814462
30	0xbe69d83b	-0.22836392
31	0x3dc9d4c6	0.098550364
32	0xbdb5097e	-0.08839701
33	0xbe0c4505	-0.13698204
34	0x3e5c947c	0.21541017
35	0x3e886ab6	0.26643914
36	0xbcba778d	-0.022762084
37	0xbda3c919	-0.07997341
38	0xbe7903de	-0.24317881
39	0xbe1ae90f	-0.15127967
40	0x3e025c4a	0.12730518
41	0xbe09b339	-0.13447274
42	0xbe5d68ec	-0.21622056
43	0xbdf3cafe	-0.11903952
44	0xbdbcaf2f	-0.09213101
45	0x3e4e2239	0.20130242
46	0x3e4a6f6d	0.19769068
47	0xbd920266	-0.07129364
48	0x3e6cf067	0.23138581
49	0x3e60f4fb	0.21968453
50	0x3e44c9f1	0.1921766
51	0x3e62e5cc	0.22157973
52	0xbe7a92c6	-0.24470052
53	0x3da03ab1	0.078236945
54	0xbe3807aa	-0.17971674
55	0xbd9bad24	-0.07601383
56	0x3d80b12a	0.06283791
57	0x3d49b37d	0.04924344
58	0xbbd78fce	-0.006578422
59	0x3c9d0dfc	0.019171707
60	0xbe5b2272	-0.21399859
61	0x3e161831	0.14657666
62	0xbda53148	-0.0806604
63	0xbe39f7dd	-0.18160959

lstm_p.bias_hh_l0 f4 [64]
0	0xbe59d3ed	-0.2127225
1	0xbbdfd093	-0.006830284
2	0xbcd33c39	-0.025785552
3	0x3d923abe	0.071401104
4	0xbc325514	-0.010884542
5	0x3d89e260	0.06732631
6	0xbe2b4e92	-0.16729191
7	0x3e2426cc	0.16030425
8	0xbc2f2015	-0.010688801
9	0xbe653ac1	-0.22385694
10	0x3e5ee169	0.21765675
11	0xbbdf3481	-0.006811679
12	0xbda7099c	-0.0815613
13	0xbe1bacac	-0.15202588
14	0xbd6d69ca	-0.057962216
15	0x3c834dc5	0.016028294
16	0x3e1928d4	0.14956981
17	0xbe6ed8d9	-0.23324908
18	0x3e154ca3	0.14580016
19	0x3d3eca91	0.0465799
20	0x3e099243	0.134347
21	0x3dba1d82	0.090876594
22	0x3db6451c	0.088999
23	0x3e11b362	0.14228585
24	0xbd9ec813	-0.07753005
25	0x3984ea8f	0.00025351762
26	0xbd7785ba	-0.060430266
27	0x3c3444c1	0.01100272
28	0xbe3506ce	-0.17678377
29	0x3d7a52e3	0.061114203
30	0x3cfd9899	0.030956553
31	0xbccccc05	-0.024999628
32	0xbe66fa43	-0.22556405
33	0x3e214cbd	0.1575193
34	0xbe3e9e6e	-0.18615124
35	0x3dc44918	0.09584254
36	0xbe3f05dc	-0.18654579
37	0xbe2651f4	-0.162422
38	0xbc9dc27a	-0.019257773
39	0xbdcd7b8d	-0.10033331
40	0xbdee8407	-0.11646276
41	0xbe0b9755	-0.13631947
42	0x3e2c6e42	0.16838935
43	0xbba12c38	-0.0049186014
44	0x3d64ed8a	0.055890597
45	0x3d244934	0.040108874
46	0xbe2a312f	-0.16620325
47	0x3de68f21	0.112577684
48	0xbdba80bf	-0.091065876
49	0x3e1b6af7	0.15177523
50	0xbe0be1de	-0.1366038
51	0xbe85c6b5	-0.26128164
52	0x3d9e5ce1	0.07732559
53	0xbd350152	-0.044190712
54	0xbe04f8ff	-0.1298561
55	0x3e2df694	0.16988593
56	0x3e7114ee	0.2354314
57	0xbe8a1518	-0.26969218
58	0x3e67ceac	0.22637433
59	0x3dc8e7fd	0.09809873
60	0xbe1388f0	-0.14407706
61	0xbdfaeee0	-0.12252593
62	0x3dbf70fc	0.09347722
63	0xbda4c185	-0.080447234

lstm_p.weight_ih_l1 f4 [64, 16]
0	0x3d2d9789	0.042380843
1	0x3dc03a85	0.09386162
2	0x3e4502f4	0.19239408
3	0x3db10298	0.08643073
4	0xbe343a1a	-0.17600289
5	0x3e42a70f	0.1900904
6	0x3e5cf6c2	0.21578506
7	0x3e856cfb	0.26059708
8	0x3e891fc2	0.26782042
9	0xbd6828ea	-0.056679644
10	0xbd00002f	-0.031250175
11	0x3e1c28e0	0.15249968
12	0x3d0d856a	0.03455106
13	0x3e803c45	0.25045982
14	0x3cddf527	0.027094437
15	0xbe5d3806	-0.21603402
16	0xbce24aaf	-0.027623503
17	0x3e08dbb6	0.13365063
18	0x3e07a9d1	0.13248374
19	0x3e8b3244	0.27186787
20	0xbde97abd	-0.114003636
21	0xbd4a40c1	-0.04937816
22	0x3d835833	0.06413307
23	0xbcc20b90	-0.023687154
24	0x3e6490f0	0.22320914
25	0xbd63275c	-0.055457458
26	0x3e3787f7	0.1792296
27	0x3e41eb3b	0.1893739
28	0x3cd0512c	0.02542933
29	0xbd25c41c	-0.040470228
30	0xbe0da8ea	-0.13833967
31	0xbe2d1bb0	-0.16905093
32	0xbde94c6e	-0.11391531
33	0xbe589381	-0.21150018
34	0x3e7019f3	0.23447399
35	0x3e30fe8b	0.172846
36	0xbe1e18bc	-0.15439123
37	0x3e685a89	0.22690786
38	0xbd716852	-0.05893738
39	0x3c7d7e4f	0.015472009
40	0x3e352237	0.17688833
41	0x3e715c7a	0.23570433
42	0x3e31bd70	0.17357421
43	0xbd598db2	-0.053113647
44	0xbe888d5c	-0.2667035
45	0xbd217781	-0.03942061
46	0xbb85af22	-0.0040797153
47	0x3dbeda68	0.093190014
48	0x3e559b46	0.20860013
49	0xbe83decd	-0.2575592
50	0x3e4229e4	0.18961293
51	0x3e142cec	0.14470261
52	0x3ce8d526	0.02842195
53	0x3e74320e	0.2384722
54	0x3e95d3ee	0.29263252
55	0xbdc53da3	-0.09630897
56	0xbd032ec8	-0.032027036
57	0xbdf9446b	-0.12171253
58	0x3e83c1f8	0.25733924
59	0x3e271d9a	0.16319886
60	0x3e248a8b	0.16068475
61	0x3d9883d0	0.07447016
62	0x3e1c097c	0.15237993
63	0x3dcd5b8e	0.10027228
64	0x3dc86075	0.09784023
65	0xbe1d42e0	-0.15357542
66	0x3e53733d	0.20649429
67	0xbdd3f314	-0.10349098
68	0x3e47348b	0.19453637
69	0x3d0081e5	0.031373877
70	0xbdb66bf0	-0.08907306
71	0xbdc5c652	-0.09656967
72	0x3eacae61	0.3372679
73	0x3ea44c91	0.32089666
74	0xbe4517d6	-0.19247374
75	0xbd1acea1	-0.037794713
76	0x3e6b9207	0.23004924
77	0xbe2588e8	-0.16165507
78	0x3c9b81dd	0.018982822
79	0xbc98c954	-0.018650688
80	0x3e44ce25	0.19219263
81	0xbe17c256	-0.14820227
82	0x3a321be9	0.000679432
83	0x3d2aa56c	0.041661665
84	0x3daf1e9d	0.08550761
85	0xbc195006	-0.009357458
86	0x3e2ea8f4	0.17056638
87	0xbdb37a8a	-0.08763607
88	0xbda0c3fe	-0.078498825
89	0x3e6824ed	0.22670336
90	0xbc94b006	-0.01815034
91	0xbba33172	-0.0049802596
92	0x3e010e32	0.12603071
93	0x3db4f0f0	0.08835018
94	0xbc477671	-0.012174235
95	0x3d509557	0.05092367
96	0x3e0eeb43	0.13956933
97	0xbe485911	-0.19565226
98	0x3e8b9296	0.27260274
99	0x3e3c7074	0.18402272
100	0xbe2cc0c6	-0.16870412
101	0xbe1a83d8	-0.15089357
102	0x3e0cc66e	0.1374757
103	0x3de69952	0.11259712
104	0x3e4dafd8	0.2008661
105	0x3e258141	0.16162588
106	0xbe0197b0	-0.1265552
107	0xbc96468f	-0.018344192
108	0xbe7c9a89	-0.24668325
109	0xbe17fc6d	-0.14842387
110	0x3e5d5b2d	0.21616812
111	0xbe860cbd	-0.26181594
112	0x3debbc4f	0.115105264
113	0x3e0ba158	0.13635767
114	0x3e4f44c8	0.20241082
115	0xbea31b35	-0.31856695
116	0x3e3105aa	0.17287317
117	0x3da0f6c6	0.07859568
118	0x3e8435a9	0.2582219
119	0x3e738df8	0.23784626
120	0x3e071c89	0.13194479
121	0x3dddafe3	0.10824563
122	0xbd44ad46	-0.04801681
123	0xbe742557	-0.23842369
124	0x3dcdd9d6	0.100513145
125	0xbe0d0946	-0.13773069
126	0x3ddaaa92	0.10677065
127	0xbe429b6b	-0.190046
128	0x3c641578	0.013921134
129	0x3dee2336	0.1162781
130	0x3d909013	0.0705873
131	0xbbb3d4bf	-0.005488008
132	0x3e0dd263	0.13849787
133	0x3dfa8dab	0.12234052
134	0xbe7d1ce9	-0.2471806
135	0x3cfca1d0	0.030838877
136	0x3e21f30d	0.15815373
137	0x3e834125	0.2563564
138	0x3e41c63b	0.18923275
139	0x3d991b2c	0.07475886
140	0x3e1a97bb	0.15096943
141	0x3e40aeb3	0.18816642
142	0xbc18bde5	-0.009322618
143	0xbca007e6	-0.019535016
144	0xbd7c78b1	-0.061638538
145	0xbe283173	-0.16425113
146	0x3e84a7cc	0.2590927
147	0x3e1978fc	0.14987558
148	0x3e811cd1	0.25217298
149	0x3dcea367	0.1008976
150	0xbe5e9184	-0.21735197
151	0x3d1a2291	0.03763062
152	0x3d80e1a2	0.06293036
153	0x3d36be9d	0.044615377
154	0xbe52c754	-0.2058385
155	0xb948d636	-0.00019153286
156	0xbd8d879b	-0.0691063
157	0xbe412541	-0.18861867
158	0xbe2eab0a	-0.17057434
159	0x3e2f105e	0.17096087
160	0xbe2e8fbb	-0.17047016
161	0x3dd5cadd	0.10439084
162	0xbd93deee	-0.07220255
163	0xbe84cfdc	-0.25939834
164	0xbe3a9d6d	-0.18224116
165	0x3cb65a22	0.022259776
166	0xbdc4a71d	-0.09602187
167	0x3cb0f6a8	0.02160199
168	0x3e39ab4a	0.18131748
169	0xbd80398b	-0.062609755
170	0x3e05b6f5	0.13058074
171	0xbd551f0b	-0.052031558
172	0x3e5b849f	0.2143731
173	0xbd093033	-0.033493232
174	0xbd9ae746	-0.07563643
175	0xbd155079	-0.036453698
176	0xbcedb528	-0.029017046
177	0xbe581b81	-0.21104242
178	0xbc8d29d5	-0.017231861
179	0xbc881f3c	-0.016616456
180	0x3ea458a9	0.32098892
181	0xbdd7bae6	-0.10533695
182	0x3e082255	0.13294347
183	0x3e55e1f6	0.20886979
184	0x3ea4b4f2	0.321693
185	0x3e84a1fc	0.25904834
186	0x3e8deb41	0.27718547
187	0xbe067ebc	-0.13134283
188	0x3dfb3265	0.12265471
189	0xbe6480b4	-0.22314721
190	0x3df22880	0.11824131
191	0xbc8b15f9	-0.01697825
192	0x3de984f8	0.11402315
193	0xbb8d791f	-0.0043174173
194	0xbcc8d72d	-0.024516666
195	0xbe3d4e2d	-0.18486853
196	0x3e841e4c	0.25804365
197	0xbe14be9b	-0.14525835
198	0xbdca954a	-0.09891756
199	0x3e8a1bd7	0.26974365
200	0xbda82187	-0.0820952
201	0xbe034c8a	-0.12822166
202	0xbe202ad2	-0.15641335
203	0xbe182203	-0.14856724
204	0x3e19efeb	0.15032928
205	0xbe80bdcc	-0.25144804
206	0xbe7b4739	-0.24538888
207	0x3e3bd4bf	0.18342875
208	0xbe6c7fb9	-0.23095597
209	0xbe5bedbd	-0.21477409
210	0x3d51ea48	0.05124882
211	0xbe779701	-0.24178697
212	0x3e5b88ad	0.21438856
213	0x3dd9c8dd	0.10634015
214	0x3e642dde	0.22283122
215	0xbe01f564	-0.12691265
216	0xbe06e120	-0.13171816
217	0xbdaa5b71	-0.08318222
218	0x3e16c11c	0.14722103
219	0x3e204154	0.1564992
220	0xbe23124f	-0.15924953
221	0x3d900a82	0.07033254
222	0x3e029d56	0.12755331
223	0x3e8bc8a2	0.27301508
224	0x3e79d68d	0.24398251
225	0x3e658753	0.22414903
226	0xbe26b81b	-0.16281168
227	0x3e070834	0.13186723
228	0xbe4d55a7	-0.20052205
229	0x3e8d4b66	0.27596587
230	0x3d6c3f0d	0.057677317
231	0xbe33c0e1	-0.17554046
232	0x3de06c88	0.10958201
233	0x3ea21638	0.31657577
234	0x3e2ababe	0.16672799
235	0x3e11b0f1	0.14227654
236	0x3d22e5b9	0.03976986
237	0xbe27d929	-0.16391434
238	0x3b1a0b61	0.0023505318
239	0x3dae54c3	0.08512261
240	0x3e8aa5e6	0.27079695
241	0x3e241e91	0.16027285
242	0x3c6f6205	0.014610772
243	0x3adac7a8	0.0016691582
244	0x3dabd67a	0.083905175
245	0x3dd2c52b	0.10291513
246	0x3c370bfd	0.011172292
247	0xbe360387	-0.17774783
248	0x3afd982b	0.0019347718
249	0x3db8d636	0.090252325
250	0x3e6e3b7d	0.2326488
251	0x3e2fd82e	0.1717231
252	0xbcaff233	-0.021477794
253	0xbbb1f3ed	-0.0054306895
254	0x3e94c917	0.2905967
255	0xbc6363dd	-0.01387879

lstm_p.weight_hh_l1 f4 [64, 16]
0	0x3e4d0358	0.20020807
1	0xbe26da84	-0.16294295
2	0x3e872c4a	0.26400977
3	0xbe06538d	-0.1311781
4	0xbdaaed37	-0.083460264
5	0xbe638ef9	-0.22222508
6	0x3e0911d9	0.13385715
7	0x3e6285c6	0.22121343
8	0xbdca24cf	-0.09870302
9	0x3e127658	0.14302957
10	0xbc33dfaa	-0.010978619
11	0x3e659b97	0.22422634
12	0xbdff6cde	-0.12471937
13	0xbb6c9718	-0.00361008
14	0x3e17a54a	0.14809147
15	0xbe45c27e	-0.19312474
16	0x3db66cfd	0.089075066
17	0xbe90e116	-0.28296727
18	0x3e6704d4	0.22560436
19	0x3d884b1c	0.06654951
20	0x3d16c598	0.036809534
21	0xbe8b5183	-0.27210626
22	0x3e95bd8e	0.2924618
23	0x3e540969	0.20706715
24	0x3e50086f	0.20315717
25	0xbe787923	-0.2426496
26	0x3e828182	0.25489432
27	0x3c15130f	0.009098782
28	0x3e3c7a58	0.18406045
29	0xbe984dc1	-0.29746822
30	0xbe10d1b6	-0.14142498
31	0x3d410fe5	0.0471343
32	0x3e075375	0.1321543
33	0xbe829282	-0.25502402
34	0x3e29ac53	0.16569643
35	0x3de5cd16	0.11220758
36	0xbe91f22a	-0.2850507
37	0x3e4458fe	0.19174573
38	0xba82e139	-0.0009985334
39	0x3dcd199f	0.100146525
40	0xbe44f3fb	-0.19233696
41	0xbe25ede3	-0.16204028
42	0xbd4dbd8c	-0.050229594
43	0xbde4db6f	-0.11174666
44	0x3d69d63b	0.05708907
45	0xbdbc336a	-0.09189494
46	0xbe80986a	-0.25116283
47	0x3e7c34da	0.24629536
48	0xbcc0f8b7	-0.023556096
49	0xbe7d767c	-0.2475223
50	0x3e86e839	0.26349047
51	0x3e1af89a	0.15133896
52	0xbc87ec51	-0.016592177
53	0x3decda5d	0.11565087
54	0xbe616844	-0.2201243
55	0xbe08835c	-0.1333136
56	0xbe8f5349	-0.2799323
57	0xbe374e74	-0.17901021
58	0x3e3993d6	0.18122801
59	0x3e45e1bc	0.19324392
60	0x3e9273f3	0.28604087
61	0xbd9a0a27	-0.07521468
62	0x3d7f13a1	0.06227458
63	0x3d2b6e63	0.04185332
64	0x3e3e762b	0.18599765
65	0xbe8949fd	-0.2681426
66	0xbce4077c	-0.0278356
67	0xbdab6d30	-0.08370435
68	0xbe3861c3	-0.18006043
69	0x3d1bc8bb	0.03803323
70	0xbe4df09f	-0.20111321
71	0x3c9bcd90	0.019018918
72	0xbe3264d5	-0.17421277
73	0xbdc3dc45	-0.095634975
74	0x3e97c511	0.29642537
75	0xbe410e57	-0.18853126
76	0xbc82e84a	-0.015979905
77	0x3c48462a	0.01222376
78	0x3a36cb2e	0.0006973025
79	0x3d5a6809	0.053321872
80	0x3e35e808	0.17764294
81	0x3c98c68d	0.018649364
82	0xba869307	-0.0010267206
83	0x3e38e422	0.18055776
84	0xbe75ba18	-0.2399677
85	0x3e1c71c9	0.1527778
86	0xbdaaaa1d	-0.08333228
87	0x3e545cbf	0.20738505
88	0xbdc4fe35	-0.09618799
89	0xbe7d4c4b	-0.24736135
90	0x3d1e39d8	0.038629383
91	0x3e3f2c5c	0.18669266
92	0x3d94384e	0.07237302
93	0xbe8e9932	-0.27851254
94	0x3e48e776	0.19619545
95	0x3e8e11c6	0.27747935
96	0x3e25ae33	0.16179733
97	0xbe5ff49c	-0.21870655
98	0xbde93074	-0.11386195
99	0xbeae63bc	-0.34060466
100	0x3c162e3c	0.009166297
101	0xbcd994bf	-0.026560185
102	0xbe8dfa2d	-0.2772993
103	0x3dc4eae6	0.09615116
104	0xbcf79194	-0.030220784
105	0x3dc9b1f0	0.09848392
106	0x3e836317	0.25661537
107	0x3c8bf979	0.017086731
108	0x3d9dfa31	0.07713736
109	0x3e143b11	0.14475657
110	0x3b236df3	0.002493736
111	0x3cb7e522	0.022448126
112	0xbe083990	-0.13303208
113	0x3d98dd68	0.07464105
114	0xbe21bd3a	-0.1579484
115	0x3dac87ba	0.08424325
116	0xbe0cf154	-0.13763934
117	0x3ceb9ef5	0.02876232
118	0xbdd184ce	-0.102304086
119	0xbe172969	-0.1476189
120	0x3e4e8a83	0.20170026
121	0x3e416b33	0.1888855
122	0x3e39982e	0.18124458
123	0x3e2d8ce8	0.16948283
124	0x3c18bb45	0.009321992
125	0xbe1c5fdf	-0.15270947
126	0x3d09412a	0.03350941
127	0xbe135d0a	-0.1439096
128	0xbe2951d9	-0.16535129
129	0xbc2a5b8b	-0.010397802
130	0xbd4dfefd	-0.050292004
131	0x3e4fb81e	0.20285079
132	0x3e1dcc77	0.15410028
133	0x3e52bf3d	0.20580764
134	0x3e189e96	0.14904246
135	0x3e46101d	0.19342084
136	0xbe32e6a9	-0.17470802
137	0x3e1767b1	0.14785649
138	0x3e7321af	0.23743318
139	0x3d117f40	0.035521746
140	0x3e06f6bd	0.1318006
141	0xbe841f24	-0.25805008
142	0xbcad9920	-0.02119118
143	0x3e82bbe5	0.25533977
144	0xbe14499a	-0.14481202
145	0x3e164192	0.1467345
146	0xbdc16092	-0.094422475
147	0xbe4fdbd5	-0.20298703
148	0x3df72700	0.120679855
149	0x3db7dc7f	0.08977603
150	0x3e06c70c	0.13161868
151	0xbd8a1d60	-0.06743884
152	0x3dfd106f	0.1235665
153	0xbe12e268	-0.1434418
154	0x3e335638	0.17513359
155	0x3e3f9963	0.18710856
156	0xbd9c4fde	-0.07632421
157	0x3e1d797c	0.15378374
158	0x3e046a31	0.12931134
159	0x3de75b43	0.11296704
160	0xbdb0c686	-0.08631615
161	0xbd10df43	-0.03536917
162	0x3e2b361a	0.16719857
163	0x3db9a55b	0.09064742
164	0x3cf3cbf8	0.029760346
165	0xbdadb5e6	-0.0848196
166	0xbcc0b552	-0.02352396
167	0x3e8685c6	0.26273936
168	0x3e485769	0.19564594
169	0xbe2a3bc1	-0.16624357
170	0x3e8360bf	0.2565975
171	0x3e11de51	0.14244963
172	0x3e85475b	0.26031002
173	0xbd0bcace	-0.034128956
174	0x3de999d6	0.11406295
175	0xbd49aa61	-0.04923475
176	0xbe746a3e	-0.23868653
177	0xbe17bb08	-0.1481744
178	0xbd6abf00	-0.057311058
179	0xbc39ad43	-0.011332813
180	0x3c53bd49	0.012923547
181	0xbe8c2d3e	-0.27378267
182	0xbe1db0cd	-0.15399475
183	0x3d9d06aa	0.07667287
184	0xbe59bce7	-0.21263467
185	0xbe762913	-0.24039106
186	0xbe1c9b5d	-0.15293641
187	0x3d49b90a	0.049248733
188	0x3e5e01a6	0.21680316
189	0xbea3ebec	-0.32015932
190	0x3e543471	0.2072313
191	0xbdd8746d	-0.105690815
192	0xbdf2c482	-0.11853887
193	0xbe2386f8	-0.15969455
194	0xbd343541	-0.0439961
195	0xbe2cfbb5	-0.16892894
196	0x3d926807	0.07148748
197	0x3d021c21	0.031765107
198	0xbe45fd0e	-0.19334814
199	0x3e4a7426	0.1977087
200	0xbddc24af	-0.10749184
201	0xbdba91be	-0.09109829
202	0x3dd265dd	0.10273335
203	0x3dc002db	0.09375545
204	0x3e5d1af1	0.21592309
205	0x3db800d8	0.08984536
206	0x3db2b1b5	0.08725301
207	0xbc133562	-0.008984895
208	0xbe6932d0	-0.2277329
209	0x3e214ed8	0.15752733
210	0x3d3a4d15	0.045483667
211	0x3e208ade	0.15677974
212	0x3db9f03a	0.09079023
213	0x3e10585c	0.14096206
214	0xbe1b7e84	-0.1518498
215	0x3e1fa9f6	0.15592179
216	0x3e39d16b	0.18146293
217	0xbe884483	-0.2661477
218	0x3e58ebb2	0.2118366
219	0xbe45d3ff	-0.19319151
220	0xbddae1f7	-0.106876306
221	0xbe96f51f	-0.29483888
222	0xbe85327a	-0.26015073
223	0xbe02f8b9	-0.12790193
224	0xbe5f8648	-0.21828568
225	0xbd18f8cb	-0.037346642
226	0xbcc3e788	-0.023914114
227	0xbd65847b	-0.056034546
228	0x3e0e5962	0.13901284
229	0x3e282b67	0.16422807
230	0xbe441502	-0.19148639
231	0x3e7b3b66	0.24534377
232	0xbd824ab4	-0.06361905
233	0xbe127f99	-0.14306487
234	0x3e9d156e	0.30680412
235	0xbe881acf	-0.26582953
236	0xbdbb2229	-0.09137375
237	0x3d8c8b40	0.06862497
238	0x3dd705e0	0.104991674
239	0x3e22d106	0.15900049
240	0xbe81f935	-0.25385442
241	0xbe480808	-0.19534314
242	0xbd9e0f5d	-0.07717774
243	0x3e0328fa	0.128086
244	0x3d9d1dfe	0.07671736
245	0xbd8ba7b6	-0.06819098
246	0x3e438755	0.19094594
247	0x3d7cbb60	0.061702132
248	0xbe93f2ef	-0.2889628
249	0xbdf52796	-0.11970441
250	0x3e26c920	0.1628766
251	0xbdd0ebc1	-0.102012165
252	0x3e12674a	0.14297214
253	0x3d55d4bd	0.052204836
254	0xbdaee3a0	-0.0853951
255	0xbe1a87f1	-0.1509092

lstm_p.bias_ih_l1 f4 [64]
0	0xbda284b1	-0.07935465
1	0xbcb39de1	-0.021925868
2	0x3d0c7590	0.034291804
3	0xbe964d57	-0.2935588
4	0xbeaad225	-0.33363453
5	0x3c9ed801	0.019390108
6	0xbe698c3b	-0.228074
7	0x3e2d5256	0.1692594
8	0x3c28eb9f	0.010310083
9	0x3c92992d	0.017895306
10	0xbe7cbb01	-0.24680711
11	0xbb991532	-0.004671716
12	0xbd91f8a4	-0.071275026
13	0xbdab2801	-0.083572395
14	0xbe8b349f	-0.27188584
15	0xbe91ab6e	-0.28451103
16	0x3e250a97	0.16117321
17	0xbe41e6be	-0.18935677
18	0x3d36fc1a	0.044674017
19	0xbe7678f2	-0.24069574
20	0xbe8e2e74	-0.27769816
21	0x3d958851	0.07301391
22	0xbcefe2f1	-0.029283019
23	0xbe0d3d7d	-0.13792987
24	0x3d6e54e2	0.05818642
25	0xbe41bb07	-0.18919002
26	0xbe3578f9	-0.17721929
27	0xbd80c278	-0.06287092
28	0xbc4761e6	-0.012169337
29	0xbe799c85	-0.24376114
30	0xbe62384c	-0.22091788
31	0xbe316e3e	-0.1732721
32	0xbd85d3cd	-0.065345384
33	0x3dfd0d0f	0.12356006
34	0xbe5c7558	-0.21529138
35	0x3deaed21	0.1147101
36	0x3cfac13f	0.030609725
37	0xbd53a78e	-0.051673464
38	0xbdee1132	-0.116243735
39	0xbe401058	-0.18756235
40	0xbdf8f37a	-0.121558145
41	0x3db25768	0.08708078
42	0xbe45cb49	-0.19315828
43	0x3e0308d2	0.12796333
44	0xbe002e3d	-0.12517639
45	0x3e23b500	0.15987015
46	0xbe73cf38	-0.23809516
47	0xbe57d3df	-0.21076916
48	0xbdd16205	-0.10223774
49	0x3e1ec2bc	0.15503973
50	0x3dece58c	0.1156722
51	0xbe530fd1	-0.20611502
52	0xbc9aba07	-0.018887533
53	0xbe2e2519	-0.17006339
54	0x3e0188e4	0.12649876
55	0x3e5dfb27	0.21677838
56	0xbd3fed1b	-0.04685698
57	0x3e03e483	0.12880139
58	0xbdc472c9	-0.09592206
59	0xbb588b72	-0.00330421
60	0x3dc77b8a	0.0974036
61	0x3d92861c	0.071544856
62	0x3b4017c3	0.0029311038
63	0x3e49d2ae	0.19709274

lstm_p.bias_hh_l1 f4 [64]
0	0x3d85082b	0.064956985
1	0x3e0a08ca	0.13479915
2	0x3df21e2d	0.11822162
3	0xbd2eeb8c	-0.042705104
4	0xbe0eb6a0	-0.13936853
5	0x3e14febc	0.14550298
6	0x3dfe2cd0	0.12410891
7	0x3e470b9a	0.1943802
8	0x3c52549c	0.012837555
9	0x3dcd4606	0.100231215
10	0xbe197cc5	-0.14989002
11	0xbe7db434	-0.24775773
12	0x3b3a6ed0	0.0028447397
13	0xbe7e0445	-0.24806316
14	0xbe4d4249	-0.20044817
15	0x3ddc5be7	0.107597165
16	0xbe093928	-0.1340071
17	0xbe488c4c	-0.19584769
18	0xbe676a95	-0.22599252
19	0x3dc1dfa7	0.094664864
20	0x3da27b3a	0.0793366
21	0x3e0f67b3	0.14004402
22	0xbe0e98bd	-0.13925453
23	0xbe13d0d5	-0.14435132
24	0x3e32c4c7	0.17457877
25	0xbe4bb13f	-0.19891833
26	0x3e4b82fb	0.19874184
27	0xbd2376f2	-0.039908357
28	0xbe0f5f09	-0.14001097
29	0x3d6c1e24	0.05764593
30	0xbe5b89f8	-0.2143935
31	0xbc5df2c9	-0.013546654
32	0x3e50bb50	0.20383954
33	0xbd7e692b	-0.062112015
34	0x3d94f794	0.07273784
35	0x3ddd86da	0.108167365
36	0xbd79aaf1	-0.060954038
37	0x3e00a695	0.12563546
38	0x3e4ef53e	0.2021074
39	0x3d4a1e52	0.049345322
40	0x3e1acbeb	0.15116851
41	0x3e302ae9	0.17203869
42	0xbe32c55d	-0.174581
43	0x3cbf724c	0.02336993
44	0x3d15cef0	0.036574304
45	0xbda18de9	-0.07888395
46	0x3e3a91d2	0.18219689
47	0x3d483fee	0.048889093
48	0xbc966a1d	-0.018361146
49	0x3d8fd025	0.07022122
50	0x3d8857b5	0.06657354
51	0xbd2087fb	-0.03919218
52	0x3ca6c6d5	0.020358482
53	0xbd867384	-0.065650016
54	0xbe976dd7	-0.2957599
55	0x3da7131b	0.08157941
56	0xbdc6dc8d	-0.097100355
57	0xbe225934	-0.15854341
58	0xbe20228f	-0.15638183
59	0x3cfa043a	0.030519594
60	0x3d6c9740	0.05776143
61	0xbe7b966d	-0.24569102
62	0xbe7aaf5a	-0.24480954
63	0xbd995064	-0.074860364

attention_p.attn_1.weight f4 [16, 16]
0	0xbe75eb27	-0.24015485
1	0x3e73c426	0.23805293
2	0x3e4a3e7a	0.19750395
3	0xbe9c5c84	-0.30539334
4	0x3db545ae	0.08851181
5	0xbbf8b023	-0.0075893565
6	0xbd6bf102	-0.05760289
7	0xbf0068be	-0.50159824
8	0xbe766f25	-0.24065836
9	0xbcbd3123	-0.02309472
10	0xbb2e99c8	-0.0026641954
11	0x3ed5f96e	0.41791862
12	0x3e91e4a5	0.28494754
13	0x3e41c9d0	0.18924642
14	0xbd9d0795	-0.07667462
15	0xbef160f5	-0.47144285
16	0xbe92d634	-0.2867905
17	0x3ec4dafc	0.38448322
18	0x3e09eb43	0.13468651
19	0xbe9cafa3	-0.3060275
20	0xbe2fb5f8	-0.1715926
21	0xbe397c2b	-0.18113773
22	0xbe736891	-0.23770358
23	0x3e10aa73	0.14127521
24	0xbdcdbd7a	-0.100459054
25	0x3ed30d26	0.4122097
26	0x3e829679	0.25505427
27	0xbdd29b3a	-0.10283513
28	0xbe347aaa	-0.17624918
29	0x3ef1f944	0.47260487
30	0x3e82266e	0.25419945
31	0xbc2fab2b	-0.010721962
32	0xbd9f1b8f	-0.07768928
33	0xbe501a27	-0.20322476
34	0xbb5b965d	-0.0033506372
35	0xbe9991ab	-0.29993948
36	0x3d7989c3	0.060922395
37	0x3e9845df	0.29740807
38	0xbce689fb	-0.028141966
39	0x3e9b508f	0.303349
40	0x3eb2d96c	0.34931505
41	0x3e538bb1	0.20658757
42	0xbd33f8c5	-0.043938417
43	0xbef82ad5	-0.48470178
44	0xbe1202d4	-0.14258891
45	0xbcd0373d	-0.025416965
46	0xbe97074e	-0.2949776
47	0xbe5a12da	-0.21296254
48	0x3ed30bec	0.41220033
49	0xbd88b608	-0.06675345
50	0xbea3bcfc	-0.3198012
51	0x3ee0628b	0.43825182
52	0xbe66ccc2	-0.22539046
53	0x3efe16bd	0.49626723
54	0x3e4d75db	0.2006449
55	0xbed95aa8	-0.42451978
56	0x3eb0b57a	0.34513456
57	0x3eb67022	0.35632426
58	0xbe11d755	-0.14242299
59	0xbea7d903	-0.32782754
60	0xbe2b8741	-0.16750814
61	0x3f0b732d	0.5447262
62	0xbd80af6d	-0.0628346
63	0xbdd6e922	-0.10493685
64	0x3eabdc08	0.33566308
65	0xbe8f2801	-0.27960208
66	0xbe63d7b6	-0.22250256
67	0x3e4c4e5e	0.1995177
68	0xbe99b7f9	-0.30023172
69	0x3eae7d0b	0.34079775
70	0x3e462d76	0.1935328
71	0x3d900020	0.07031274
72	0xbdc49538	-0.09598774
73	0xbe8a22bd	-0.26979628
74	0x3d2249ad	0.039621044
75	0x3ee3bdcf	0.4448075
76	0x3d974572	0.073862925
77	0xbe548c84	-0.20756727
78	0x3ed08171	0.40723756
79	0xbe8fd472	-0.2809177
80	0xbee26ec1	-0.44225124
81	0xbd0933c5	-0.033496637
82	0x3ea76294	0.32692397
83	0x3e93c9c4	0.28864872
84	0xbe190adf	-0.14945553
85	0xbee595ed	-0.44840947
86	0xbc309db3	-0.010779786
87	0xbd05b910	-0.032647192
88	0xbda7cdc8	-0.081935465
89	0xbbc52f1d	-0.006017579
90	0x3e611369	0.2198006
91	0xbeb0fa05	-0.3456575
92	0x3e2e4485	0.17018326
93	0xbc29eb0c	-0.010370981
94	0xbe98d869	-0.29852608
95	0x3e2913b6	0.16511425
96	0x3eb1017f	0.34571454
97	0xbe70c51a	-0.23512688
98	0x3e6b91c9	0.23004831
99	0x3d68c3d2	0.056827374
100	0x3e8d7825	0.27630726
101	0x3e322581	0.17397119
102	0xbe8885f6	-0.26664704
103	0xbd260a95	-0.040537436
104	0xbdfff3ff	-0.124977104
105	0xbe96b89b	-0.29437718
106	0x3ed82bc4	0.4222089
107	0xbe01f3e0	-0.12690687
108	0xbcb599d1	-0.022168072
109	0x3e648159	0.22314967
110	0xbe51efaa	-0.20501581
111	0xbe602aba	-0.21891299
112	0x3e60595f	0.21909092
113	0x3ed2378d	0.41058007
114	0xbceac8e8	-0.028660253
115	0xbe70219d	-0.23450322
116	0x3d1c8b0f	0.038218554
117	0x3f02b591	0.510583
118	0xbd93b48c	-0.07212171
119	0x3e27d266	0.16388854
120	0x3e89199e	0.26777357
121	0x3d03598e	0.032067828
122	0xbd741fcb	-0.059600633
123	0x3d20d5c1	0.03926635
124	0xbeccd6a4	-0.40007508
125	0xbdd31104	-0.1030598
126	0x3e9697fe	0.29412836
127	0xbeada5db	-0.339156
128	0xbe6e5b04	-0.23276907
129	0xbea549ef	-0.3228297
130	0x3eeea3c3	0.46609315
131	0xbe588b53	-0.21146898
132	0xbe8d7e91	-0.27635625
133	0x3e8a1de1	0.2697592
134	0x3e48a7a1	0.19595195
135	0xbe92be46	-0.28660792
136	0x3eba08dd	0.36334887
137	0x3e0b29cb	0.13590162
138	0x3e54a093	0.20764379
139	0xbe0cf62b	-0.1376578
140	0x3e5be022	0.21472219
141	0xbe8d029e	-0.2754106
142	0x3e79ede1	0.2440715
143	0x3e3b2110	0.18274331
144	0x3ec7cd3e	0.39023775
145	0x3e3ed59f	0.18636177
146	0xbdb9cfb0	-0.09072816
147	0x3e936052	0.28784424
148	0xbc17b347	-0.009259052
149	0x3e663fdd	0.224853
150	0x3d5de6a2	0.054175027
151	0x3e7695de	0.24080607
152	0xbe7ec305	-0.24879082
153	0x3da27b16	0.07933633
154	0xbe9cbbca	-0.30612022
155	0x3ed0e20f	0.4079747
156	0xbe80e23f	-0.25172612
157	0x3eb693f0	0.35659742
158	0x3e7de0a7	0.2479273
159	0xbe3edaf3	-0.1863821
160	0xbcf71fbf	-0.030166505
161	0x3e5531bc	0.20819753
162	0xbe86c53f	-0.26322362
163	0x3ea51ee5	0.32250133
164	0xbe1cc24f	-0.15308498
165	0xbe5ba342	-0.21448997
166	0x3d3bf979	0.045892213
167	0x3de23b71	0.11046494
168	0xbec30fa8	-0.38097882
169	0xbddbfefa	-0.10741992
170	0x3ec41db8	0.38303924
171	0xbe938c96	-0.28818196
172	0x3ebecc48	0.3726523
173	0xbf08c663	-0.53427714
174	0x3ea4244c	0.32058942
175	0xbe825e78	-0.254627
176	0xbe82ebd1	-0.2557054
177	0xbdd86924	-0.10566929
178	0xbe612b5d	-0.21989198
179	0xbbd63d48	-0.006538067
180	0xbe65c606	-0.22438821
181	0x3ea4558f	0.32096526
182	0xbdcea77f	-0.10090541
183	0x3e9732fc	0.29531085
184	0x3eee0f56	0.46496075
185	0xbe8d0d95	-0.27549425
186	0x3df58dc0	0.11989927
187	0x3ed8ceaa	0.42345172
188	0x3d850a9b	0.064961635
189	0x3e01030b	0.12598817
190	0xbe79c473	-0.24391346
191	0x3eb38d28	0.3506863
192	0x3de90e01	0.11379624
193	0x3e8a19aa	0.26972705
194	0xbd62a5bf	-0.05533385
195	0x3d9f6809	0.07783515
196	0xbe89f9a9	-0.26948288
197	0xbefe607c	-0.49682987
198	0x3cfc3506	0.030787002
199	0x3f044f03	0.5168306
200	0xbba839d5	-0.0051338472
201	0xbf06d56f	-0.52669424
202	0x3da0837d	0.078375794
203	0x3e113633	0.14180832
204	0xbe6d2898	-0.23160017
205	0x3e97b009	0.29626492
206	0x3e54e752	0.20791367
207	0xbdd3938f	-0.10330879
208	0x3e0ef6a5	0.13961275
209	0x3e53c642	0.20681098
210	0x3eb0f1a9	0.34559372
211	0xbdc2e7fd	-0.095169045
212	0xbde7dd7b	-0.11321541
213	0x3dff6c3c	0.12471816
214	0x3e207020	0.15667772
215	0xbcf3a474	-0.029741503
216	0xbcc05ad6	-0.023480814
217	0xbed26858	-0.41095233
218	0xbe8fd51f	-0.28092286
219	0x3e83ab1f	0.25716493
220	0xbea4d1ce	-0.32191318
221	0xbec69bb0	-0.38790655
222	0xbed322cc	-0.41237485
223	0x3e4f4c5b	0.20243971
224	0x3ea0c3fe	0.3139953
225	0x3c547a6d	0.012968642
226	0x3e9f8bff	0.31161496
227	0x3f019b27	0.5062737
228	0x3cd15718	0.025554225
229	0xbe90aaba	-0.28255254
230	0xbe8ccae8	-0.27498555
231	0xbde6ffcc	-0.11279258
232	0xbd96416b	-0.07336696
233	0xbe51a172	-0.20471743
234	0xbe56e274	-0.20984823
235	0x3c5a5ddd	0.013328043
236	0xbec02193	-0.37525615
237	0xbe72f50a	-0.23726287
238	0x3ebaf2fb	0.36513504
239	0xbe26196b	-0.16220634
240	0x3dc26293	0.09491458
241	0xbdfef9a0	-0.12449956
242	0xbec2006b	-0.37890944
243	0x3c9e638e	0.01933458
244	0x3ea856a0	0.3287859
245	0x3f002193	0.5005123
246	0x3ccf0670	0.025271624
247	0xbec40fa2	-0.38293177
248	0xbd931440	-0.07181597
249	0xbdd9024b	-0.105961405
250	0xbe2b84bf	-0.16749857
251	0x3dcaf460	0.09909892
252	0xbe4f7064	-0.20257717
253	0xbd49a402	-0.049228676
254	0xbe7663da	-0.24061528
255	0xbe27ea7d	-0.16398044

attention_p.attn_1.bias f4 [16]
0	0xbd0d2aa0	-0.03446448
1	0xbda13dfd	-0.078731515
2	0x3d944cb5	0.07241193
3	0xbdb99a30	-0.09062612
4	0xbe1d6872	-0.15371874
5	0x3bc31b4e	0.0059541827
6	0x3d28b590	0.041188776
7	0xbd35e53c	-0.044408068
8	0x3ce51479	0.027963864
9	0xbd9143c1	-0.07093001
10	0x3dd367cd	0.10322533
11	0xbda1bf68	-0.07897836
12	0x3c0e7995	0.00869598
13	0x3dbb8e79	0.09158034
14	0x3c1b7b23	0.009489807
15	0xbdc69adf	-0.09697508

attention_p.attn_2.weight f4 [1, 16]
0	0xbf112722	-0.56700337
1	0xbe95435c	-0.29152954
2	0x3d46156b	0.04836027
3	0xbe7bab1c	-0.24576992
4	0xbde31cb5	-0.1108946
5	0x3d353915	0.04424389
6	0x3eb90901	0.36139682
7	0xbea0c769	-0.31402138
8	0x3e63a16b	0.22229545
9	0xbeeb7692	-0.459889
10	0x3e9e9c78	0.3097875
11	0xbde51f78	-0.11187643
12	0x3ea905b2	0.33012158
13	0x3ead4291	0.3383985
14	0xbdd3101c	-0.10305807
15	0xbec8e3fc	-0.39236438

lstm_t.weight_ih_l0 f4 [64, 7]
0	0xbe790809	-0.24319471
1	0xbe00b3ca	-0.12568584
2	0xbd746c98	-0.059673876
3	0xbdfc3051	-0.12313903
4	0x3e166c94	0.14689857
5	0xbe83f5db	-0.2577351
6	0x3dfc20fd	0.123109795
7	0x3d687f6d	0.056762148
8	0x3e77eaa1	0.24210598
9	0x3d4778f2	0.048699327
10	0xbe76cbfa	-0.24101248
11	0x3e2d060f	0.16896842
12	0xb9f6f876	-0.00047105894
13	0x3d53f618	0.051748365
14	0x3e93812b	0.28809485
15	0xbdc31d2c	-0.095270485
16	0xbe1ae106	-0.15124902
17	0xbe84de13	-0.2595068
18	0x3db9d11b	0.09073087
19	0xbd775940	-0.06038785
20	0xbb233953	-0.0024905994
21	0xbc8c4fef	-0.017127959
22	0xbdabb0aa	-0.08383305
23	0xbd57f0e3	-0.05271996
24	0xbd573db8	-0.052549094
25	0x3e449a56	0.191995
26	0xbe345d6f	-0.17613767
27	0x3e522b24	0.2052427
28	0xbd5dd42f	-0.054157432
29	0x3e43382f	0.19064401
30	0xbe9a1967	-0.30097505
31	0x3d5fc32c	0.05462949
32	0x3cf85461	0.030313672
33	0xbd86b3c7	-0.065772586
34	0xbe10c2dd	-0.14136834
35	0x3e367049	0.17816271
36	0x3d80ae5c	0.062832564
37	0x3df64186	0.12024216
38	0x3dc103ce	0.09424554
39	0x3c228775	0.009919991
40	0x3e593ca5	0.2121454
41	0x3e49ce83	0.19707684
42	0x3e862ffb	0.2620848
43	0xbe69052f	-0.22755884
44	0xbdb4065f	-0.08790278
45	0xbdec24e9	-0.115304776
46	0xbcc75fca	-0.024337668
47	0x399db336	0.00030078896
48	0xbe1e461a	-0.15456429
49	0x3e61180b	0.21981828
50	0xbe296359	-0.16541804
51	0xbecdbd92	-0.40183693
52	0x3e028ff7	0.1275023
53	0xbe0ed838	-0.13949668
54	0xbdea09ac	-0.11427626
55	0x3e643b53	0.22288255
56	0xbdf9a556	-0.121897385
57	0x3dfac0af	0.12243783
58	0xbdb03f9d	-0.08605883
59	0xbdb422be	-0.08795689
60	0x3e3faf6a	0.18719259
61	0xbe5f79af	-0.21823762
62	0x3d932f9d	0.07186816
63	0x3d46c031	0.04852313
64	0xbe59b285	-0.21259506
65	0xbbf70449	-0.0075383526
66	0xbdff5693	-0.124676846
67	0x3bea943e	0.007158785
68	0xbe3d50bd	-0.1848783
69	0xbe5485e7	-0.20754205
70	0x3d2b5984	0.041833416
71	0x3cd9db8f	0.026593952
72	0xbe239317	-0.15974079
73	0xbe501234	-0.20319444
74	0xbe26f806	-0.16305551
75	0xbb746aae	-0.0037295031
76	0xbe43199e	-0.19052741
77	0x3e82006b	0.25390944
78	0x3acb382f	0.0015504415
79	0xbdf8cc01	-0.12148286
80	0x3e236046	0.15954694
81	0xbe09e8ae	-0.13467667
82	0x3d38ac21	0.04508603
83	0x3e55c6e5	0.20876653
84	0x3e4f31ac	0.20233792
85	0xbcfc98dd	-0.03083461
86	0xbe4e4850	-0.20144773
87	0x3e18b694	0.14913398
88	0x3de0dbed	0.109794475
89	0xbe6338fe	-0.2218971
90	0xbbea0d4b	-0.007142698
91	0x3e1ed5ef	0.15511297
92	0xbd4df585	-0.050282974
93	0x3e1e651d	0.15468259
94	0xbaed4bcd	-0.0018104255
95	0xbe7a5859	-0.24447764
96	0xbdebcb05	-0.11513332
97	0xbd138c92	-0.03602273
98	0xbe2dfbc9	-0.1699058
99	0xbe422acd	-0.1896164
100	0xbdea9111	-0.114534505
101	0xbdef446d	-0.11682973
102	0xbe77b58d	-0.2419035
103	0x3e012b02	0.12614062
104	0x3e2a251b	0.16615717
105	0xbe888a32	-0.26667935
106	0x3dd9c315	0.10632912
107	0xbe37a5f2	-0.17934397
108	0x3e2e6b5c	0.17033142
109	0x3e8a84aa	0.2705434
110	0x3d5a2493	0.053257536
111	0xbe0ecb64	-0.13944775
112	0xbdcf3e24	-0.10119274
113	0xbe7144d5	-0.23561414
114	0xbe874352	-0.2641855
115	0xbe0dff9c	-0.13867038
116	0xbe751614	-0.23934203
117	0x3ca869bb	0.020558229
118	0xbd1bfbc3	-0.038081896
119	0xbe911f8f	-0.2834439
120	0x3cd22443	0.025652057
121	0x3e7d1bc1	0.24717619
122	0x3e171053	0.14752321
123	0x3e0031d9	0.12519015
124	0x3d5ed8a4	0.054405823
125	0xbe6140f3	-0.21997432
126	0x3c0ececd	0.008716297
127	0x3efd841d	0.49514857
128	0x3cb52d55	0.022116343
129	0xbeabd742	-0.33562666
130	0xbd8d8cd0	-0.069116235
131	0xbcabeecd	-0.020987893
132	0x3dd81f85	0.10552887
133	0xbd5a1ada	-0.053248264
134	0xbe1eb410	-0.15498376
135	0xbdacb5d4	-0.084331185
136	0x3e0ad576	0.13557991
137	0x3e5e3c69	0.21702732
138	0xbce02d79	-0.027365433
139	0xbe49f59e	-0.19722602
140	0x3c005b0f	0.00783421
141	0xbca2a204	-0.019852646
142	0x3d4a9dcb	0.04946689
143	0x3d235f66	0.0398859
144	0x3df0d6e9	0.11759741
145	0x3d14febb	0.036375742
146	0x3d7d5882	0.061851986
147	0x3c3f6913	0.0116827665
148	0xbdc00b03	-0.093771
149	0x3dd5cf36	0.10439913
150	0x3e724c6f	0.2366197
151	0xbdfe7553	-0.124247216
152	0x3dd0ba04	0.1019173
153	0x3ea67f7e	0.32519144
154	0x3dad7de2	0.08471276
155	0xbd5c38b2	-0.053765006
156	0x3d8401d4	0.06445661
157	0xbc8c0a18	-0.017094657
158	0x3e060617	0.1308826
159	0xbe44f431	-0.19233777
160	0x3e13010d	0.1435587
161	0xbdae378b	-0.08506688
162	0x3e358ad1	0.17728736
163	0x3d54bebc	0.05193971
164	0xbe83ae95	-0.25719133
165	0x3df3fddd	0.11913655
166	0xbdcd2fb8	-0.10018867
167	0x3e7695cf	0.24080585
168	0x3d84e7c3	0.064895175
169	0xbe16e049	-0.14733995
170	0x3e35a2b4	0.17737848
171	0x3e17be03	0.14818577
172	0x3e2dbe6e	0.16967174
173	0x3dd17200	0.10226822
174	0x3db34b86	0.08754639
175	0xbe570eda	-0.21001759
176	0x3e748f73	0.23882847
177	0x3de83cb4	0.11339703
178	0x3dbbe41e	0.09174369
179	0x3e3f8e29	0.18706574
180	0x3dfb204f	0.12262022
181	0xbe1c6c33	-0.1527565
182	0xbd194f7a	-0.03742931
183	0x3e79f53a	0.24409953
184	0xbdbd328f	-0.09238159
185	0x3d9e5f22	0.07732989
186	0xbde9af9d	-0.11410449
187	0xbd890e80	-0.06692219
188	0x3c5d5d0c	0.013510954
189	0xbe10f407	-0.14155589
190	0x3f08d5c8	0.53451204
191	0x3e1992f9	0.14997472
192	0x3c5acde9	0.013354757
193	0x3e86543a	0.26236135
194	0xbd548342	-0.05188299
195	0xbd7f353f	-0.06230664
196	0xbe6d97f3	-0.23202495
197	0x3d0c4fa1	0.034255628
198	0x3d16f463	0.03685416
199	0xbe1a1bd5	-0.1504968
200	0x3e7abcc8	0.24486077
201	0xbd183f74	-0.03716989
202	0x3e2a06eb	0.16604201
203	0xbe15af19	-0.14617576
204	0x3e562208	0.2091142
205	0x3daf9413	0.08573165
206	0xbe4c4738	-0.19949043
207	0xbe09ddbf	-0.13463496
208	0x3e4f6439	0.20253076
209	0x3e6c66fb	0.23086159
210	0x3d9d0f72	0.076689616
211	0x3e0f2b1f	0.13981293
212	0xbcb5cd2c	-0.02219256
213	0xbe959b55	-0.2922007
214	0xbe157d24	-0.14598519
215	0xbe86a0c4	-0.2629453
216	0x3d697df0	0.05700487
217	0x3df85d33	0.12127151
218	0x3d209afd	0.03921031
219	0x3e373926	0.17892894
220	0xbc26c2db	-0.010178293
221	0x3e2e7003	0.17034917
222	0xbc49e95d	-0.012323705
223	0x3b900c7e	0.0043960204
224	0xbd8c2734	-0.06843415
225	0xbe307ced	-0.17235155
226	0x3d418b59	0.047252033
227	0xbdca27df	-0.09870886
228	0x3d51d154	0.05122502
229	0xbd9f08da	-0.0776536
230	0x3cb6bea7	0.022307707
231	0xbe24f750	-0.16109967
232	0xbe3206ed	-0.17385454
233	0x3dd49e13	0.10381713
234	0x3e40eacc	0.18839568
235	0xbc7be787	-0.015375025
236	0x3d25710f	0.040391024
237	0x3cd0d8de	0.025494035
238	0x3e47b9fa	0.19504538
239	0xbe332f07	-0.17498408
240	0x3e02e789	0.12783636
241	0xbe006f95	-0.12542565
242	0x3bc7a8a2	0.0060931006
243	0xbdde9a9e	-0.10869335
244	0xbe1c4693	-0.15261297
245	0x3d87721b	0.06613561
246	0xbe772804	-0.24136358
247	0x3da73fa3	0.081664346
248	0x3c4647cf	0.012102081
249	0x3bd999e1	0.0066406582
250	0xbe807f1a	-0.2509697
251	0x3e53fb28	0.20701277
252	0xbdc7325e	-0.09726404
253	0xbd42fe80	-0.04760599
254	0x3bbb5886	0.00571734
255	0x3e590631	0.21193768
