Params/155_0.001_5_16_222_model.pt (torch, 45279 bytes, 31 tensors)

lstm_p.weight_ih_l0 f4 [64, 10]
-0.088023126 -0.093999095 -0.032841444 0.00141391 0.23964725 -0.10634925 0.09859849 0.19658126
-0.056598287 -0.06567602 0.114618964 0.0405988 -0.003062963 0.2423181 0.006854728 -0.121739976
-0.0015733487 0.05471343 0.061077707 0.095502235 0.01631698 0.026069408 -0.21071516 0.16974136
-0.1607773 -0.104081586 0.06989391 -0.052229445 0.15317367 0.083295226 0.2079488 0.06374301
0.05311725 0.04788741 -0.16371396 0.031946592 0.08262792 -0.055114668 -0.13479136 -0.15217143
0.14358407 -0.16507842 0.24666743 -0.023697345 0.067644425 0.17079723 0.18682477 0.0773521
-0.19683048 0.009653349 -0.08972072 -0.19352536 -0.07553763 0.12456074 0.04735852 0.23496178
-0.12748846 0.1282126 0.20652062 -0.15520813 0.20737235 0.09624944 -0.03113231 -0.07940715
-0.15316117 0.1857625 0.06262372 -0.039601177 0.21532132 -0.14860034 -0.11916733 -0.10973858
0.23030691 -0.19295408 0.01613156 -0.01311611 -0.031574734 -0.20450626 0.12484463 -0.028620861
-0.2189213 -0.022716979 -0.18730764 0.068004616 0.11174365 -0.12123678 0.21345618 0.033819802
-0.22578162 0.015839672 0.007412276 0.13145354 -0.21553068 0.0352671 -0.13684428 0.0395601
-0.17951447 0.029627545 -0.20942523 0.077782884 0.04383999 0.1688037 0.23465426 0.073597446
-0.09471845 -0.07658255 0.14281859 0.13588062 0.0054880544 -0.1614321 -0.13685462 0.038879883
0.09511586 0.14517353 0.1485339 0.18517601 0.00092711794 0.16143781 0.08818149 0.24747628
0.15216483 0.02322654 0.093658164 -0.072870135 -0.21263073 0.08325311 0.22635412 0.10769371
-0.00014543773 -0.22233057 -0.2058444 0.09199102 0.072402075 0.15097143 0.13647188 -0.016955301
-0.2167942 0.102433145 -0.19619612 0.058005337 0.007235807 0.1427832 0.26036236 0.021100337
0.14588669 0.0377602 0.1521445 -0.09377787 -0.2112553 -0.06868695 0.0335985 0.11235216
0.16970648 -0.008504057 0.098677084 0.008500051 0.22669666 0.0931582 0.020604542 -0.007625205
0.08549945 -0.037110355 0.24453422 0.15162037 -0.065202475 0.11497455 -0.09358104 -0.18657994
-0.20549639 -0.2090713 -0.10515932 -0.09703578 -0.057466783 0.2052152 0.044368032 0.12400087
0.05245753 0.07887974 -0.019321473 0.0031462826 0.24121138 0.19949153 -0.004668129 0.06495025
0.13686122 0.12797444 0.14600703 -0.08147367 0.10085596 0.0139725655 0.0851918 -0.059833772
0.14561006 -0.16702558 0.13375695 0.062113203 0.12263794 -0.0064185876 -0.12139393 -0.008773752
0.12461715 0.051757526 -0.22779532 -0.19370021 0.23924926 -0.1495005 -0.059509028 -0.15917075
0.09646178 -0.20963846 0.16862403 -0.14612964 -0.23956317 -0.03045433 0.070460625 -0.095851436
0.11251997 -0.21006806 0.22242624 -0.20048477 0.042752467 -0.06366483 -0.10254636 0.19177888
0.18661964 0.17433472 -0.17463076 -0.20228615 -0.23881043 0.10699357 -0.0171204 -0.12426668
-0.1337039 0.12641884 -0.0455461 0.03798691 -0.2003141 0.23184739 -0.058580827 0.11217251
-0.19592588 0.19453217 0.19676127 -0.1373057 -0.098112345 -0.15514651 0.23290083 0.1399637
0.10294853 0.1068373 -0.19426279 -0.11885494 -0.1763159 -0.0757255 -0.071808375 0.14582169
00000000: 7845 b4bd 9982 c0bd c084 06bd f252 b93a
00000010: 1766 753e a3cd d9bd 01ee c93d 994c 493e
00000020: 9bd3 67bd 2681 86bd 59bd ea3d ed4a 263d
00000030: febb 48bb 3c22 783e a09d e03b cf52 f9bd
00000040: d238 ceba 311b 603d 9e2c 7a3d ad96 c33d
00000050: 30ab 853c 838f d53c b7c5 57be aed0 2d3e
00000060: cea2 24be ba28 d5bd 8a24 8f3d 8bee 55bd
00000070: 8fd9 1c3e b096 aa3d 88f0 543e b28b 823d
00000080: 7991 593d 9725 443d a2a4 27be 6eda 023d
00000090: d438 a93d ebbf 61bd bf06 0abe d4d2 1bbe
000000a0: b407 133e 510a 29be 6396 7c3e ef20 c2bc
000000b0: 2989 8a3d 78e5 2e3e fe4e 3f3e c76a 9e3d
000000c0: ee8d 49be 1529 1e3c 7fbf b7bd 832b 46be
000000d0: 79b3 9abd b419 ff3d 02fb 413d d299 703e
000000e0: 568c 02be 2a4a 033e 247a 533e e1ee 1ebe
000000f0: 6b59 543e 6d1e c53d 3009 ffbc 37a0 a2bd
00000100: 48d6 1cbe 8638 3e3e dd40 803d d834 22bd
00000110: 317d 5c3e b02a 18be 000e f4bd 9fbe e0bd
00000120: 93d5 6b3e c195 45be 5526 843c f4e4 56bc
00000130: 8254 01bd 176a 51be 8bae ff3d 4c76 eabc
00000140: e82c 60be f518 babc 93cd 3fbe 0146 8b3d
00000150: dbd9 e43d fd4a f8bd 4294 5a3e a286 0a3d
00000160: 4c33 67be 33c2 813c aee2 f23b c29b 063e
00000170: 13b4 5cbe 3c74 103d e820 0cbe c509 223d
00000180: a4d2 37be 77b5 f23c 9173 56be a24c 9f3d
00000190: 9091 333d e1da 2c3e 3549 703e 42ba 963d
000001a0: bffb c1bd 50d7 9cbd 093f 123e 4a24 0b3e
000001b0: 23d5 b33b 754e 25be 9e23 0cbe 8340 1f3d
000001c0: 1bcc c23d 5fa8 143e 4519 183e c89e 3d3e
000001d0: d509 733a f44f 253e 7f98 b43d 6c6a 7d3e
000001e0: 19d1 1b3e 9645 be3c dacf bf3d f03c 95bd
000001f0: dfbb 59be 9b80 aa3d 60c9 673e 858e dc3d
00000200: a580 18b9 a0aa 63be e0c8 52be ca65 bc3d
00000210: 8a47 943d 4198 1a3e 49bf 0b3e d8e5 8abc
00000220: 4cff 5dbe 78c8 d13d a3e7 48be 0197 6d3d
00000230: 591a ed3b c235 123e 374e 853e 9dda ac3c
00000240: 5263 153e 71aa 1a3d c5cb 1b3e 9d0e c0bd
00000250: 4f53 58be beab 8cbd 959e 093d e418 e63d
00000260: 89c7 2d3e 9a54 0bbc 3617 ca3d cc43 0b3c
00000270: 2b23 683e bac9 be3d dbca a83c dbdc f9bb
00000280: 561a af3d 0701 18bd 2e67 7a3e 5f42 1b3e
00000290: e088 85bd c777 eb3d 6ba7 bfbd d00e 3fbe
000002a0: a56d 52be c916 56be c55d d7bd b2ba c6bd
000002b0: 4a62 6bbd ef23 523e 41bb 353d 2bf4 fd3d
000002c0: b5dd 563d b38b a13d 1148 9ebc dd31 4e3b
000002d0: 1e00 773e 8247 4c3e 1bf7 98bb a304 853d
000002e0: 5925 0c3e bb0b 033e de82 153e abdb a6bd
000002f0: 928d ce3d 30ed 643c 0a79 ae3d 4214 75bd
00000300: ce1a 153e c108 2bbe 95f7 083e 6a6a 7e3d
00000310: 9a29 fb3d 0453 d2bb 619d f8bd c8bf 0fbc
00000320: 4737 ff3d b3ff 533d 2d43 69be 5959 46be
00000330: c2fd 743e a916 19be bdbf 73bd a8fd 22be
00000340: c18d c53d 77ab 56be c7ab 2c3e 02a3 15be
00000350: 0c50 75be 5c7b f9bc a94d 903d c24d c4bd
00000360: df70 e63d 151c 57be b4c3 633e e14b 4dbe
00000370: 361d 2f3d b562 82bd d303 d2bd af61 443e
00000380: 3819 3f3e cd84 323e 68d2 32be 1a24 4fbe
00000390: b98a 74be 721f db3d 1540 8cbc 877f febd
000003a0: ade9 08be f173 013e 8c8e 3abd 2a98 1b3d
000003b0: 241f 4dbe 6769 6d3e 73f2 6fbd b3ba e53d
000003c0: cba0 48be 7133 473e c97b 493e de99 0cbe
000003d0: 20ef c8bd bade 1ebe 8e7d 6e3e a552 0f3e
000003e0: aed6 d23d 84cd da3d d3ec 46be 386a f3bd
000003f0: 288c 34be f915 9bbd 4510 93bd 4852 153e

lstm_p.weight_hh_l0 f4 [64, 16]
-0.027261954 0.012613371 -0.024296582 0.25851277 0.20753215 -0.1631068 0.05047563 0.025884558
0.13598843 -0.05791277 0.1008847 0.10251398 0.030172223 0.18766667 0.075858526 0.18980071
0.17213246 -0.23135504 -0.13005655 -0.035084635 0.15271278 -0.18501052 0.15505107 0.100765206
0.05411613 0.21085793 0.014378783 -0.180535 0.115996234 -0.2263803 -0.22612047 0.08389109
0.22737479 -0.23447727 0.16981153 0.18682897 -0.167824 -0.2104938 0.015190776 0.16171739
0.040654603 -0.1676256 -0.06656754 -0.022757284 0.24490997 -0.11230385 -0.17249988 -0.049487762
-0.13676181 -0.027157353 0.023580996 -0.10378745 0.09123067 -0.23555462 0.15753356 0.07853655
0.12075749 -0.06872535 0.06088193 0.09218156 0.0243685 -0.09235457 -0.056354307 0.17484084
0.229487 0.009460854 -0.21087325 0.010276186 -0.24516994 0.1107303 -0.06367032 0.06625673
-0.13057637 0.12549998 -0.17538582 0.16294529 0.17362706 0.2067266 0.119093955 -0.1464685
-0.010445831 0.15700044 -0.14583704 -0.18394761 0.08904539 -0.12410407 -0.22318365 0.16282395
0.16299608 -0.14997171 -0.09213534 0.042489316 -0.12719712 -0.21858399 0.078940265 0.06588498
-0.20615545 0.015823375 -0.0033469293 -0.12890387 0.20160809 0.07258257 0.2517071 -0.004398633
-0.1403498 -0.010636296 -0.22777213 0.020502869 -0.21682467 0.18997607 -0.031209264 0.15628552
0.1885154 -0.20002985 0.22654928 -0.20792532 0.22916993 -0.058486976 0.08784811 0.07467667
0.24942665 0.1931748 0.16373017 0.046346676 -0.09487947 0.012433837 0.010627147 0.16891332
-0.19130163 0.16952625 0.13984567 0.26432285 0.051567025 0.2115924 -0.18883221 -0.19337666
0.027928136 0.102774285 0.16495857 -0.2109566 -0.04564544 -0.16164805 -0.01866504 0.012526772
-0.18381251 -0.020986386 -0.16716596 -0.094576076 0.033859864 0.17444016 0.03876562 -0.1370069
-0.16339426 -0.06586485 0.0377895 -0.16439337 0.2356303 0.11583387 0.22335264 0.045212775
-0.16312043 0.16840804 -0.14770807 0.20000637 0.053779453 0.16860999 -0.24083336 -0.09914615
0.1337307 -0.14549181 0.21327119 -0.0014483444 -0.20352025 0.10771212 0.020179832 -0.09269327
-0.061145563 0.0022122066 -0.081204355 0.22896823 -0.19755553 0.014101805 -0.13865189 -0.027469259
-0.12034391 0.24604101 -0.12679474 0.20723338 -0.022552947 0.0009864735 -0.06477973 -0.011321556
-0.070970066 -0.10145577 -0.18425624 -0.055756155 -0.14102632 0.04605625 -0.031583197 -0.15581891
-0.24184754 -0.12605225 0.1932291 0.09642651 0.14298953 -0.06748396 0.17554803 0.1968102
-0.11945071 -0.13083163 0.13185072 0.13042179 -0.07031852 0.10837562 0.11790744 -0.10430632
-0.19063193 -0.062382556 -0.16942918 0.21888337 0.1353608 0.23905215 0.15138274 0.08472449
0.007907368 0.19524555 0.09220705 0.035686035 0.16228825 0.17718084 -0.10889038 -0.069579504
-0.06454099 -0.20518984 -0.17305532 -0.21685484 0.034019135 -0.049487494 0.102496006 0.054860175
-0.13917221 0.04641859 -0.20856844 0.09534927 0.17206682 -0.16445988 0.022764739 0.014367886
0.055810288 0.18896107 -0.15468362 -0.15343103 0.028402092 -0.19905975 -0.15292239 0.07717506
00000000: 7654 dfbc 50a8 4e3c a009 c7bc c95b 843e
00000010: 4f83 543e 7805 27be 89bf 4e3d da0b d43c
00000020: 8d40 0b3e f135 6dbd a39c ce3d d9f2 d13d
00000030: bd2b f73c b12b 403e b75b 9b3d 1e5b 423e
00000040: 7e43 303e 56e8 6cbe 8b2d 05be e8b4 0fbd
00000050: bd60 1c3e 6673 3dbe b5c5 1e3e fd5d ce3d
00000060: e0a8 5d3d 24eb 573e fd94 6b3c 2bde 38be
00000070: 6f8f ed3d 3dd0 67be 208c 67be 17cf ab3d
00000080: f0d4 683e cf1a 70be 13e3 2d3e 1850 3f3e
00000090: 0eda 2bbe b08b 57be bce2 783c 3e99 253e
000000a0: 7185 263d 0ca6 2bbe 9054 88bd 7c6d babc
000000b0: aec9 7a3e 90ff e5bd cfa3 30be aeb3 4abd
000000c0: 4a0b 0cbe 1979 debc ef2c c13c 848e d4bd
000000d0: 25d7 ba3d 3b35 71be 7a50 213e c5d7 a03d
000000e0: b44f f73d e0bf 8cbd 555f 793d b0c9 bc3d
000000f0: 73a0 c73c 6524 bdbd c6d3 66bd 7a09 333e
00000100: a4fe 6a3e b301 1b3c 28ef 57be 735d 283c
00000110: d40d 7bbe 91c6 e23d 9665 82bd 9cb1 873d
00000120: d0b5 05be 1183 003e 5798 33be 21db 263e
00000130: 4bcb 313e 23b0 533e 88e7 f33d d7fb 15be
00000140: fe24 2bbc b9c4 203e 4e56 15be c35c 3cbe
00000150: 6e5d b63d 462a febd 418a 64be 52bb 263e
00000160: 72e8 263e 2f92 19be 74b1 bcbd 4709 2e3d
00000170: f63f 02be 7bd4 5fbe 6fab a13d b4ee 863d
00000180: 6a1a 53be 06a0 813c 2858 5bbb 60ff 03be
00000190: 5a72 4e3e 2ca6 943d c1df 803e 6822 90bb
000001a0: dcb7 0fbe dc43 2ebc 193d 69be a2f5 a73c
000001b0: 4907 5ebe 1689 423e 92aa ffbc 5009 203e
000001c0: 2e0a 413e a0d4 4cbe 89fc 673e 60ea 54be
000001d0: 86ab 6a3e 0a90 6fbd b6e9 b33d 15f0 983d
000001e0: b369 7f3e 9dcf 453e e2a8 273e 03d6 3d3d
000001f0: 2b50 c2bd 4bb7 4b3c 7c1d 2e3c 9df7 2c3e
00000200: 93e4 43be 4a98 2d3e b433 0f3e 5355 873e
00000210: f237 533d aeab 583e 3b5d 41be 8804 46be
00000220: 8cc9 e43c 537b d23d e6ea 283e 0205 58be
00000230: b7f6 3abd 1187 25be 6de7 98bc 173d 4d3c
00000240: 5939 3cbe a4eb abbc 8e2d 2bbe 1ab1 c1bd
00000250: a4b0 0a3d 71a0 323e b3c8 1e3d 894b 0cbe
00000260: d350 27be 27e4 86bd 2ac9 1a3d bc56 28be
00000270: 1249 713e 4f3a ed3d 8eb6 643e 0831 393d
00000280: 0b09 27be 2873 2c3e c940 17be 78ce 4c3e
00000290: d847 5c3d 19a8 2c3e 059d 76be 230d cbbd
000002a0: b3f0 083e cefb 14be c363 5a3e 60d6 bdba
000002b0: 9d67 50be 2c98 dc3d 2d50 a53c f8d5 bdbd
000002c0: c573 7abd abfa 103b 784e a6bd a676 6a3e
000002d0: ff4b 4abe 420b 673c c3fa 0dbe 3607 e1bc
000002e0: de76 f6bd 2df2 7b3e 7bd6 01be fd34 543e
000002f0: f5c0 b8bc 8f4c 813a 3cab 84bd 0c7e 39bc
00000300: c158 91bd 0bc8 cfbd abad 3cbe 9160 64bd
00000310: 3469 10be 7aa5 3c3d 625d 01bd fe8e 1fbe
00000320: e2a6 77be d713 01be d9dd 453e 437b c53d
00000330: d96b 123e 0835 8abd ddc2 333e 9d88 493e
00000340: 93a2 f4bd baf8 05be e003 073e 4a8d 053e
00000350: 2803 90bd 09f4 dd3d 7579 f13d 8d9e d5bd
00000360: 0435 43be da84 7fbd d87e 2dbe f622 603e
00000370: 069c 0a3e 16ca 743e 1404 1b3e 0984 ad3d
00000380: e88d 013c 73ee 473e 0dd7 bc3d 852b 123d
00000390: e42e 263e e56e 353e eb01 dfbd b37f 8ebd
000003a0: 112e 84bd 491d 52be 6a35 31be 320f 5ebe
000003b0: a657 0b3d 66b3 4abd 6de9 d13d 10b5 603d
000003c0: 2983 0ebe 6b21 3e3d f792 55be 7a46 c33d
000003d0: 4932 303e 2c68 28be 1e7d ba3c 4867 6b3c
000003e0: 5499 643d 037f 413e 6265 1ebe 061d 1dbe
000003f0: 81ab e83c 52d6 4bbe b097 1cbe f50d 9e3d

lstm_p.bias_ih_l0 f4 [64]
-0.0032572583 -0.20107841 -0.187893 -0.09737611 0.14688098 -0.046840247 -0.0022438036 -0.18677998
0.19117342 -0.25319982 0.105654284 0.067663826 0.23814821 -0.15288128 0.15628766 0.12979068
-0.13759398 0.20036256 -0.1631918 -0.18059982 -0.21055618 0.20528388 0.055007815 0.0052918647
0.009706459 0.17976564 -0.024829436 0.0426236 -0.12733437 -0.18119945 -0.21183883 0.13244721
-0.090392835 -0.12743685 0.17197675 0.22649968 0.013757954 -0.077036604 -0.23494206 -0.22283682
0.12400802 -0.15492618 -0.21298555 -0.21394981 -0.06916018 0.1216757 0.1618457 -0.06392053
0.21687114 0.21277562 0.12001783 0.22504695 -0.24592331 0.0777289 -0.20853075 -0.0032033678
0.06394349 0.0748105 -0.030438982 0.059264764 -0.1399512 0.17080833 -0.077456854 -0.15273713
00000000: ba77 55bb 80e7 4dbe 0667 40be 206d c7bd
00000010: f867 163e 8fdb 3fbd c70c 13bb 4043 3fbe
00000020: f7c2 433e 68a3 81be 4661 d83d 5593 8a3d
00000030: 20dd 733e e98c 1cbe df09 203e d9e7 043e
00000040: 70e5 0cbe d82b 4d3e c01b 27be 29ef 38be
00000050: 0a9c 57be f035 523e e04f 613d 6167 ad3b
00000060: d707 1f3c 7c14 383e 1a67 cbbc 1696 2e3d
00000070: f163 02be 598c 39be 47ec 58be 3ea0 073e
00000080: e11f b9bd ce7e 02be ac1a 303e 88ef 673e
00000090: 0b69 613c 5ec5 9dbd a794 70be 562f 64be
000000a0: ebf7 fd3d f8a4 1ebe e218 5abe a915 5bbe
000000b0: daa3 8dbd 1c31 f93d e1ba 253e c4e8 82bd
000000c0: 7813 5e3e dae1 593e e8cb f53d b572 663e
000000d0: 52d3 7bbe 5430 9f3d 1689 55be 98ef 51bb
000000e0: cef4 823d 3f36 993d 2c5b f9bc 9cbf 723d
000000f0: 5e4f 0fbe 61e8 2e3e b3a1 9ebd 1f67 1cbe

lstm_p.bias_hh_l0 f4 [64]
-0.22639756 -0.012913039 -0.098189756 0.07654989 -0.016799647 0.06713643 -0.19661573 0.23326665
-0.009034107 -0.19727704 0.19129561 0.028060412 -0.0075740046 -0.12847488 -0.053836443 0.045759007
0.13813399 -0.23983988 0.04091344 0.051669776 0.13577348 0.09447866 0.058211446 0.21127896
-0.072460994 0.030454077 -0.08240994 0.055257373 -0.10737444 0.08805958 0.04748203 0.00889729
-0.22756003 0.16706452 -0.22958466 0.05590322 -0.15002595 -0.1594851 -0.011021121 -0.17189047
-0.119759776 -0.15677291 0.17162436 -0.09982885 0.07886137 -0.039517917 -0.20204823 0.1199508
-0.1055805 0.14486635 -0.2087627 -0.25781408 0.07610264 -0.044698626 -0.15867013 0.24269627
0.23653695 -0.24412529 0.20251372 0.13819176 -0.07002931 -0.09829376 0.0966808 -0.051574208
00000000: c3d4 67be 3691 53bc b617 c9bd 30c6 9c3d
00000010: 6a9f 89bc d37e 893d a255 49be 74dd 6e3e
00000020: cb03 14bc fe02 4abe ffe2 433e f3de e53c
00000030: 5b2f f8bb eb8e 03be 9a83 5cbd cc6d 3b3d
00000040: ff72 0d3e 9698 75be da94 273d b0a3 533d
00000050: 3408 0b3e 077e c13d 206f 6e3d 8359 583e
00000060: 6e66 94bd d47a f93c 8bc6 a8bd 8e55 623d
00000070: 21e7 dbbd 9558 b43d 847c 423d f0c5 113c
00000080: 7f05 69be f612 2b3e 3e18 6bbe c6fa 643d
00000090: 67a0 19be 1050 23be ef91 34bc 0e04 30be
000000a0: 9d44 f5bd 1489 20be 4cbe 2f3e 1173 ccbd
000000b0: 1282 a13d 8add 21bd bbe5 4ebe c4a8 f53d
000000c0: 973a d8bd d857 143e e4c5 55be 3500 84be
000000d0: b3db 9b3d e815 37bd 6c7a 22be 5f85 783e
000000e0: be36 723e fbfb 79be c25f 4f3e 2482 0d3e
000000f0: 876b 8fbd 3d4e c9bd 9500 c63d 7a3f 53bd

lstm_p.weight_ih_l1 f4 [64, 16]
-0.06774916 0.06661106 0.23107311 0.022650478 -0.16430193 0.09440419 0.19684023 0.22598329
0.21266216 -0.10432448 -0.1472161 0.13606596 0.08740596 0.19740023 -0.1051353 -0.10321564
-0.06556594 0.1770563 0.092798576 0.2467005 -0.12527145 -0.08013717 0.12018445 -0.05774369
0.19569056 -0.060412016 0.15945451 0.16358326 0.049104497 -0.060225446 -0.17401826 -0.133448
-0.14415562 -0.18262626 0.1826834 0.098143116 -0.09791247 0.1995907 0.009022795 -0.009365234
0.16134867 0.23809001 0.16192171 -0.10590084 -0.23179364 -0.11701339 -0.06749692 0.12074333
0.1602229 -0.22892432 0.2005081 0.22966798 -0.077666186 0.2124785 0.14697246 -0.15715674
-0.08792027 -0.19127192 0.2277139 0.17473918 0.17159058 0.12751749 0.17927083 0.1708196
-0.04429991 -0.07845847 0.1797389 -0.09333224 0.11924328 -0.10135392 -0.19161007 -0.20141934
0.22542901 0.22003783 -0.21640652 0.0068553546 0.22192493 -0.15889193 0.019289127 0.1306738
0.13605504 -0.09138764 -0.05796188 0.059821308 0.045879792 -0.0531854 0.19752161 -0.13858728
-0.11861842 0.21152547 -0.019278662 -0.01163315 0.13367628 0.104048595 -0.024368644 0.10590622
0.13250874 -0.077186644 0.13828109 0.14997123 -0.24359837 -0.14636259 0.21783833 0.011684303
0.1334859 0.09989208 -0.089222394 -0.098249435 -0.20454924 -0.17019427 0.24440886 -0.20809616
0.14169997 0.1285068 0.21112615 -0.25890514 0.10661682 0.1128325 0.18836123 0.22891249
0.1258816 0.070589274 -0.0358946 -0.22471823 0.08996741 -0.10442273 0.15259519 -0.20516758
-0.046346437 0.1497972 0.0409169 -0.02871253 0.08041718 0.07360692 -0.22390856 -0.015359242
0.10618066 0.19642805 0.12841934 0.042537943 0.19599932 0.16344334 -0.07921079 0.02770015
-0.08775104 -0.11170767 0.19733782 0.11978797 0.22447594 0.08292654 -0.14449413 -0.00073753245
0.031756897 0.023837108 -0.2164572 -0.042745467 -0.03339228 -0.2134091 -0.20492686 0.19312505
-0.2090878 0.055764012 -0.0015938028 -0.2326321 -0.19931321 -0.009481628 -0.22703008 0.019858392
0.1559725 -0.114359096 0.049366985 -0.023343159 0.22403689 -0.020394102 -0.09022189 -0.008995974
-0.11708177 -0.13663077 -0.09267548 0.017426798 0.24503674 -0.18009841 0.05515673 0.1305604
0.2305748 0.16973034 0.16325112 -0.20917507 0.21465446 -0.20323323 0.09234505 0.05720512
0.11375335 -0.0039460827 -0.025300872 -0.123783946 0.19139124 -0.12849128 -0.20447128 0.24070667
-0.1096061 -0.18224658 -0.15877469 -0.13333698 0.15213832 -0.21443094 -0.20743518 0.18056905
-0.20318626 -0.16550173 -0.020425577 -0.21949801 0.19843897 0.13979514 0.23379216 -0.16229029
-0.17185587 -0.10908686 0.12867528 0.19643083 -0.17607157 0.09877912 0.1416282 0.2162483
0.10942385 0.23538847 -0.15264717 0.12374503 -0.23997861 0.13453697 0.021976028 -0.23666994
0.0017057668 0.19144648 -0.0030742553 0.12682614 0.09998114 -0.18650787 -0.06862377 0.2077776
0.15083176 0.15853786 0.021906516 -0.028236303 0.07752414 0.0004711909 -0.024011431 -0.22133292
-0.06803383 0.02323374 0.06369903 0.12442459 0.054298464 -0.021375038 0.17211711 0.09650715
00000000: 12c0 8abd 616b 883d 6e9e 6c3e 7f8d b93c
00000010: c43e 28be fc56 c13d 7c90 493e 2a68 673e
00000020: 1cc4 593e 13a8 d5bd d1bf 16be e054 0b3e
00000030: e501 b33d 4923 4a3e 2d51 d7bd b962 d3bd
00000040: 7047 86bd 3f4e 353e 2e0d be3d 0e9f 7c3e
00000050: 2947 00be f51e a4bd 4423 f63d a684 6cbd
00000060: 1b63 483e 9772 77bd 0b48 233e 5f82 273e
00000070: cc21 493d f5ae 76bd d831 32be 98a6 08be
00000080: 889d 13be 6102 3bbe 5b11 3b3e 42ff c83d
00000090: 5586 c8bd 8161 4c3e 58d4 133c a370 19bc
000000a0: 9638 253e decd 733e cece 253e 8ae2 d8bd
000000b0: 505b 6dbe b7a4 efbd d33b 8abd 4748 f73d
000000c0: 7911 243e 236b 6abe ff51 4d3e 152e 6b3e
000000d0: 730f 9fbd f793 593e f37f 163e b2ed 20be
000000e0: 8b0f b4bd c9dc 43be d52d 693e d4ee 323e
000000f0: 71b5 2f3e f293 023e c692 373e 55eb 2e3e
00000100: d373 35bd d6ae a0bd 790d 383e f924 bfbd
00000110: d235 f43d a592 cfbd 6e35 44be df40 4ebe
00000120: ddd6 663e 9951 613e ac99 5dbe e2a2 e03b
00000130: 4a40 633e 91b4 22be 3b04 9e3c 5acf 053e
00000140: 0352 0b3e 7129 bbbd 7069 6dbd 3007 753d
00000150: 73ec 3b3d efd8 59bd 1b43 4a3e d3e9 0dbe
00000160: 37ee f2bd 229a 583e 49ee 9dbc f898 3ebc
00000170: 6fe2 083e 6e17 d53d c0a0 c7bc 5ce5 d83d
00000180: 5fb0 073e 0814 9ebd 8f99 0d3e 0f92 193e
00000190: da71 79be 13e0 15be 0311 5f3e 856f 3f3c
000001a0: 87b0 083e 3894 cc3d 3bba b6bd 0037 c9bd
000001b0: 5b75 51be 6847 2ebe 5146 7a3e 2917 55be
000001c0: cc19 113e 4997 033e 7431 583e 378f 84be
000001d0: eb59 da3d ba14 e73d c4e1 403e 0968 6a3e
000001e0: 1be7 003e 1c91 903d 3706 13bd 891c 66be
000001f0: d540 b83d 96db d5bd ea41 1c3e 7317 52be
00000200: c3d5 3dbd 7064 193e 7b98 273d 8a36 ebbc
00000210: c3b1 a43d 3abf 963d 4948 65be 55a5 7bbc
00000220: 3f75 d93d 6f24 493e 5c80 033e 443c 2e3d
00000230: 0cb4 483e b15d 273e 4439 a2bd 6deb e23c
00000240: d1b6 b3bd fec6 e4bd ed12 4a3e 6553 f53d
00000250: 05dd 653e 64d5 a93d 45f6 13be f756 41ba
00000260: 8513 023d 0a46 c33c f5a6 5dbe df15 2fbd
00000270: 58c6 08bd ea87 5abe 59d8 51be 93c2 453e
00000280: 1d1b 56be ce68 643d 26e7 d0ba 1c37 6ebe
00000290: c318 4cbe d558 1bbc 937a 68be 11ae a23c
000002a0: 41b7 1f3e 1a35 eabd 0935 4a3d 273a bfbc
000002b0: ed69 653e 8811 a7bc 41c6 b8bd da63 13bc
000002c0: 91c8 efbd f0e8 0bbe a4cc bdbd a5c2 8e3c
000002d0: e9ea 7a3e b86b 38be 06ec 613d a0b1 053e
000002e0: cd1b 6c3e cacd 2d3e 4d2b 273e fd31 56be
000002f0: 61ce 5b3e 5f1c 50be 671f bd3d ea4f 6a3d
00000300: 84f7 e83d 244e 81bb c643 cfbc 7082 fdbd
00000310: 11fc 433e 3893 03be eb60 51be cf7b 763e
00000320: 2a79 e0bd d99e 3abe d595 22be 7d89 08be
00000330: 26ca 1b3e c993 5bbe e369 54be 18e7 383e
00000340: 0f10 50be 4979 29be 8a53 a7bc 16c4 60be
00000350: 9633 4b3e 7526 0f3e 3667 6f3e 6d2f 26be
00000360: fcfa 2fbe ef68 dfbd 74c3 033e 2a25 493e
00000370: 1b4c 34be b54c ca3d fc06 113e 3270 5d3e
00000380: 9d19 e03d ad09 713e 8a4f 1cbe 096e fd3d
00000390: f4bc 75be 0fc4 093e 1207 b43c 9b59 72be
000003a0: 0994 df3a 8c0a 443e 7279 49bb b6de 013e
000003b0: e9c2 cc3d ebfb 3ebe 9e8a 8cbd a7c3 543e
000003c0: a473 1a3e c057 223e 4b75 b33c d24f e7bc
000003d0: fac4 9e3d 2c0a f739 9fb3 c4bc 19a5 62be
000003e0: 5255 8bbd af54 be3c a374 823d 52d2 fe3d
000003f0: 1168 5e3d b41a afbc 783f 303e 8aa5 c53d

lstm_p.weight_hh_l1 f4 [64, 16]
0.18514119 -0.15317383 0.2303222 -0.118775964 -0.041386366 -0.19509405 0.05705266 0.2017388
-0.08661484 0.15403706 -0.009545457 0.23709525 -0.13908227 0.003385895 0.20510697 -0.19484967
0.11618224 -0.2442152 0.19370545 0.09209014 0.055664204 -0.23504332 0.2510183 0.18498214
0.22889987 -0.21411707 0.22731249 0.03656686 0.15800577 -0.24714972 -0.12096601 0.020129938
0.15449563 -0.2248842 0.14307159 0.1339248 -0.18815915 0.22175358 -0.105301045 0.07254486
-0.16107991 -0.13607797 -0.06305619 -0.08280725 0.03149997 -0.062793866 -0.14816311 0.22006433
-0.0017767374 -0.20335808 0.21498652 0.21483842 -0.14093271 0.17842008 -0.10042034 -0.19989762
-0.24864234 -0.1259071 0.11522999 0.24661988 0.22279853 -0.033293936 -0.058713924 -0.002401345
0.22965394 -0.17031598 -0.13649805 0.010460881 -0.24157004 0.14354195 -0.14786525 -0.085606866
-0.121126756 0.00014529677 0.20496367 -0.08877009 -0.11314357 0.1259112 -0.042984195 -0.02899912
0.19787128 0.07383576 -0.04523881 0.21800408 -0.24440557 0.20741896 -0.08755524 0.17446181
-0.077627 -0.20807756 -0.0047711283 0.2228427 0.033720676 -0.20118347 0.17969824 0.2454832
0.22658294 -0.12884246 -0.17180446 -0.24864858 -0.053873133 0.066836864 -0.2505993 0.0014980773
0.03623197 0.18029052 0.16613911 0.09972895 -0.022142744 0.23154812 -0.021715745 -0.056698423
-0.12235903 0.069538094 -0.15078087 0.108093806 -0.22663948 0.02989248 -0.007741192 -0.17778653
0.20690182 0.2006024 0.15175289 0.1833275 -0.018265212 -0.15388668 -0.065769255 -0.15670393
-0.13233127 0.03078283 -0.09750896 0.24936633 0.16670437 0.24850962 0.11239482 0.14583273
-0.13080092 0.19293095 0.19340928 0.08082795 0.085492164 -0.21691549 0.0043273414 0.21415174
-0.10521703 0.18831694 -0.12644313 -0.16644502 0.14668804 0.12816697 0.0843967 -0.10269851
0.1614067 -0.1064783 0.13913397 0.22414547 -0.1152949 0.19483136 0.17777044 0.074615896
-0.09471883 -0.055746842 0.15365188 0.103714496 -0.0020778747 -0.09115907 0.026976869 0.2436646
0.19877872 -0.15945025 0.24708574 0.15104572 0.2507876 -0.06764695 0.06585585 -0.050770286
-0.13624577 -0.071733825 -0.1493454 0.06997924 -0.044380676 -0.19945423 -0.08225711 -0.006881271
-0.12303228 -0.15562719 -0.23965643 0.13508005 0.13667442 -0.24666166 0.12967868 -0.19337393
-0.09967896 -0.15208744 -0.057522 -0.13015004 -0.0119439345 0.049068354 -0.103926994 0.15082504
-0.08930836 -0.062132966 0.0597003 0.12572262 0.1726064 0.10262294 0.01745868 -0.034975875
-0.15780702 0.20347062 -0.0064158402 0.18534876 0.116772346 0.15446992 -0.17358126 0.12622254
0.24120796 -0.22314143 0.17456396 -0.14931896 -0.14068936 -0.22636278 -0.24317226 -0.17223904
-0.17142269 0.005637469 -0.11827968 0.004679659 0.15312718 0.21950239 -0.19074509 0.18228807
-0.01196357 -0.08591471 0.24869932 -0.20758717 -0.14617904 0.1073067 0.10283572 0.1086819
-0.21663015 -0.1643369 -0.15984143 0.17030449 0.10530203 -0.028250998 0.1679096 0.0142446235
-0.2333152 -0.074332155 0.1297175 -0.05434967 0.10402064 0.053096388 -0.057363454 -0.19277239
00000000: a795 3d3e 9ad9 1cbe 95d9 6b3e d040 f3bd
00000010: c084 29bd bcc6 47be 0db0 693d 9e94 4e3e
00000020: 1f63 b1bd e4bb 1d3e 8c64 1cbc 19c9 723e
00000030: 956b 0ebe e4e5 5d3b 9007 523e ac86 47be
00000040: f4f0 ed3d 8d13 7abe b95a 463e c199 bc3d
00000050: 2600 643d 32af 70be 7885 803e f56b 3d3e
00000060: ba64 6a3e 8141 5bbe 9bc4 683e 22c7 153d
00000070: 44cc 213e d114 7dbe 07bd f7bd 8ae7 a43c
00000080: 1a34 1e3e 0b48 66be 5c81 123e 9523 093e
00000090: cbac 40be 5f13 633e 13a8 d7bd 6692 943d
000000a0: 22f2 24be 0658 0bbe 9b23 81bd d996 a9bd
000000b0: 1d06 013d 129a 80bd 12b8 17be 8b58 613e
000000c0: 6ae1 e8ba 1a3d 50be 6d25 5c3e 9afe 5b3e
000000d0: aa50 10be c1b3 363e 2ea9 cdbd f6b1 4cbe
000000e0: 199c 7ebe caed 00be b3fd eb3d ec89 7c3e
000000f0: 4c25 643e 395f 08bd 037e 70bd e25f 1dbb
00000100: 672a 6b3e 5067 2ebe 25c6 0bbe 1d64 2b3c
00000110: 235e 77be a9fc 123e fd69 17be a752 afbd
00000120: 4e11 f8bd ce5a 1839 ffe1 513e 18cd b5bd
00000130: d1b7 e7bd deee 003e 3210 30bd 908f edbc
00000140: c59e 4a3e 3437 973d 554c 39bd 763c 5f3e
00000150: 7445 7abe a365 543e 2950 b3bd 1ea6 323e
00000160: e8fa 9ebd 4912 55be 2057 9cbb e030 643e
00000170: b11e 0a3d 0a03 4ebe d102 383e f35f 7b3e
00000180: 5c05 683e 47ef 03be 82ed 2fbe bc9d 7ebe
00000190: 13aa 5cbd c4e1 883d 8d4e 80be 225b c43a
000001a0: f967 143d 149e 383e 5f20 2a3e b13e cc3d
000001b0: b364 b5bc f31a 6d3e 38e5 b1bc 9b3c 68bd
000001c0: 5f97 fabd fd69 8e3d 4d66 1abe 4960 dd3d
000001d0: 2e14 68be 13e1 f43c d3a9 fdbb ac0d 36be
000001e0: 12de 533e b76a 4d3e 1c65 1b3e 34ba 3b3e
000001f0: eda0 95bc 7894 1dbe 08b2 86bd ff76 20be
00000200: d981 07be 462c fc3c c7b2 c7bd e359 7f3e
00000210: 8db4 2a3e 4e79 7e3e 412f e63d 2d55 153e
00000220: adf0 05be b18f 453e 150d 463e 2089 a53d
00000230: 8416 af3d 181f 5ebe 5fcc 8d3b 984a 5b3e
00000240: 077c d7bd 28d6 403e 4f7a 01be 9070 2abe
00000250: 6435 163e 343e 033e 2dd8 ac3d 9953 d2bd
00000260: cc47 253e 4c11 dabd 2379 0e3e 6486 653e
00000270: bc1f ecbd df81 473e 7409 363e 38d0 983d
00000280: f2fb c1bd cd56 64bd eb56 1d3e 4468 d43d
00000290: f42c 08bb 9bb1 babd 98fe dc3c 3783 793e
000002a0: a68c 4b3e ed46 23be 0b04 7d3e bbab 1a3e
000002b0: 3b67 803e 7c8a 8abd 6fdf 863d 81f4 4fbd
000002c0: 0384 0bbe 2fe9 92bd 00ee 18be 4751 8f3d
000002d0: 83c8 35bd bb3d 4cbe 6a76 a8bd 497c e1bb
000002e0: 59f8 fbbd bc5c 1fbe 7f68 75be 6d52 0a3e
000002f0: 61f4 0b3e e094 7cbe 7dca 043e d103 46be
00000300: 7c24 ccbd cfbc 1bbe 309c 6bbd 0d46 05be
00000310: 7eb0 43bc e6fb 483d add7 d4bd e171 1a3e
00000320: 4de7 b6bd 237f 7ebd 4d88 743d 6ebd 003e
00000330: bbbf 303e fa2b d23d 8105 8f3c dd42 0fbd
00000340: 2a98 21be 9a5a 503e f83b d2bb 11cc 3d3e
00000350: 5726 ef3d 5d2d 1e3e 49bf 31be 7b40 013e
00000360: 38ff 763e 307f 64be e5c0 323e 12e7 18be
00000370: df10 10be a5cb 67be 2602 79be 6e5f 30be
00000380: 6e89 2fbe 84ba b83b 9e3c f2bd d357 993b
00000390: 5fcd 1c3e 3cc5 603e ae52 43be b9a9 3a3e
000003a0: d902 44bc 0df4 afbd 09ab 7e3e bb91 54be
000003b0: f5af 15be 9dc3 db3d 899b d23d 9e94 de3d
000003c0: 4bd4 5dbe ef47 28be 79ad 23be 4d64 2e3e
000003d0: 97a8 d73d a36e e7bc 7ff0 2b3e 4862 693c
000003e0: 2eea 6ebe 753b 98bd aad4 043e c29d 5ebd
000003f0: c608 d53d 997b 593d f1f5 6abd 2066 45be

lstm_p.bias_ih_l1 f4 [64]
-0.07643737 0.005638251 0.041750304 -0.23263676 -0.24188489 0.06364381 -0.13363561 0.19120567
0.05858396 0.054523353 -0.23967297 0.084530115 -0.031416863 -0.039055265 -0.19128089 -0.25151163
0.16763972 -0.16174196 0.05176592 -0.17347737 -0.18691233 0.11572008 0.06839993 -0.11569557
0.10597968 -0.15308803 -0.16962858 0.024237914 0.026219388 -0.19978136 -0.14057615 -0.1398462
-0.07184237 0.1290457 -0.22057325 0.17783189 0.012756069 -0.023690851 -0.13035381 -0.21049967
-0.08644381 0.12231052 -0.20008925 0.22313504 -0.16688265 0.13785936 -0.22759402 -0.23409665
-0.10072077 0.18277977 0.12130496 -0.14438188 0.07331196 -0.12493955 0.2214557 0.2389543
0.0012420983 0.16454591 -0.08831925 0.08564097 0.13648428 0.116059825 0.08147545 0.22996593
00000000: 328b 9cbd 14c1 b83b 5e02 2b3d 5538 6ebe
00000010: acb0 77be b057 823d c6d7 08be 6bcb 433e
00000020: bcf5 6f3d e153 5f3d d56c 75be 201e ad3d
00000030: f8ae 00bd 6af8 1fbd 23df 43be 22c6 80be
00000040: bfa9 2b3e af9f 25be 8008 543d 0da4 31be
00000050: f265 3fbe a6fe ec3d 4315 8c3d cdf1 ecbd
00000060: e00b d93d 1cc3 1cbe 1db3 2dbe 978e c63c
00000070: 0bca d63c 7c93 4cbe 32f3 0fbe d833 0fbe
00000080: 1822 93bd 8e24 043e f4dd 61be 9019 363e
00000090: d5fe 503c 5113 c2bc 787b 05be 3a8d 57be
000000a0: 7409 b1bd f07d fa3d 32e4 4cbe 837d 643e
000000b0: 49e3 2abe 012b 0d3e 680e 69be 08b7 6fbe
000000c0: b146 cebd 9f2a 3b3e bc6e f83d d8d8 13be
000000d0: 9524 963d 4fe0 ffbd 48c5 623e 70b0 743e
000000e0: e7cd a23a b97e 283e b9e0 b4bd 8864 af3d
000000f0: 89c2 0b3e c6b0 ed3d 9adc a63d 307c 6b3e

lstm_p.bias_hh_l1 f4 [64]
0.06787424 0.162363 0.12568004 0.018216984 -0.047619093 0.18975636 0.21854728 0.21632646
0.06111143 0.13685903 -0.14275582 -0.15855572 0.04270287 -0.20354591 -0.11984349 0.14059706
-0.12754059 -0.16823287 -0.21890041 0.16188298 0.17012197 0.18275005 -0.041571595 -0.12211702
0.22237211 -0.16281635 0.20633255 0.04720055 -0.10162235 0.101625614 -0.13405177 0.019879347
0.1973431 -0.056626454 0.06745581 0.17128915 -0.07880775 0.15361814 0.1879974 0.026408033
0.18628289 0.20726854 -0.18151197 0.11854173 -0.005132053 -0.10089474 0.19269803 0.025561389
-0.01684422 0.09796155 0.07220635 0.02254099 0.112557985 -0.020526096 -0.20080298 0.10375515
-0.04900121 -0.12279865 -0.148779 0.119464785 0.096841864 -0.20117608 -0.16626517 -0.04198739
00000000: a601 8b3d 7c42 263e 45b2 003e c93b 953c
00000010: 3d0c 43bd 7e4f 423e dcca 5f3e af84 5d3e
00000020: fb4f 7a3d c624 0c3e 952e 12be 6e5c 22be
00000030: 34e9 2e3d 576e 50be 8170 f5bd adf8 0f3e
00000040: 009a 02be 3d45 2cbe 6e27 60be a7c4 253e
00000050: 7434 2e3e d422 3b3e fa46 2abd 7d18 fabd
00000060: 84b5 633e 54b9 26be d748 533e 5d55 413d
00000070: 611f d0bd 1721 d03d de44 09be 03da a23c
00000080: 4f14 4a3e 24f1 67bd 4626 8a3d 6c66 2f3e
00000090: f565 a1bd 134e 1d3e 6482 403e a955 d83c
000000a0: f1c0 3e3e 343e 543e 46de 39be 02c6 f23d
000000b0: c82a a8bb e7a1 cebd a252 453e 1e66 d13c
000000c0: e4fc 89bc 11a0 c83d ece0 933d e2a7 b83c
000000d0: cd84 e63d 5826 a8bc 4c9f 4dbe 957d d43d
000000e0: 7eb5 48bd dc7d fbbd 8659 18be f4a9 f43d
000000f0: 0755 c63d 1a01 4ebe 6b41 2abe f8fa 2bbd

attention_p.attn_1.weight f4 [16, 16]
-0.26264712 0.16665134 0.23261622 -0.3965822 0.05997701 -0.11008703 -0.031803582 -0.39319557
-0.3018921 -0.11604076 0.0913225 0.3188267 0.37632948 0.06602931 -0.10375164 -0.3965516
-0.31362227 0.3125679 0.16583848 -0.39730456 -0.199856 -0.2765888 -0.20590879 0.24572703
-0.16517231 0.32237586 0.3470598 -0.19701746 -0.08444105 0.3541219 0.22284475 0.06515103
-0.04220806 -0.1299527 -0.028014911 -0.20815995 0.08715606 0.38608018 -0.06541163 0.20358095
0.41944346 0.29358333 -0.13625029 -0.39505935 -0.23572153 0.08487328 -0.26171222 -0.29182383
0.39185506 -0.1380188 -0.28398204 0.34693927 -0.2541469 0.38962045 0.22320099 -0.31390134
0.2858297 0.2614245 -0.04649425 -0.4300162 -0.07595294 0.4192833 -0.087250955 -0.030166917
0.30515778 -0.3530318 -0.19567506 0.10716826 -0.32600278 0.24864279 0.22748461 0.17274791
-0.16394815 -0.35870448 0.13261813 0.35257682 0.16796333 -0.32437038 0.37593433 -0.20277731
-0.4185703 0.05498788 0.3096972 0.38448635 -0.139981 -0.30145264 0.01749347 -0.159444
-0.022700211 0.11015286 0.1103287 -0.21318309 0.0724546 0.12897734 -0.3188032 0.07820405
0.36942735 -0.16445455 0.1956448 0.14715028 0.30655885 0.27188712 -0.297072 -0.14668135
-0.06268369 -0.2039343 0.33072743 -0.031146776 -0.112585224 0.34257883 -0.17352387 -0.29322752
0.1963288 0.33848318 0.0057114176 -0.32639188 0.010617337 0.40754366 -0.047117624 0.27271026
0.20611215 -0.061570782 0.035303578 -0.06043608 -0.30763367 -0.22720425 0.26808476 -0.26356956
-0.20886664 -0.25158104 0.4326895 -0.12063679 -0.24629061 0.36689284 0.16513473 -0.39248517
0.42651808 0.22631414 0.11654099 -0.04222042 0.123742774 -0.15672159 0.2756855 0.10774313
0.36766437 0.114592634 -0.056392636 0.19619812 -0.037686013 0.12227138 0.07991953 0.34939355
-0.31029525 -0.013983838 -0.21156874 0.30858555 -0.1596834 0.23272792 0.22099872 -0.111067645
-0.0072901505 0.27870193 -0.29826823 0.41269544 -0.12278676 -0.11607809 0.015944928 0.004071101
-0.31938186 -0.016854856 0.2914588 -0.19212693 0.28228793 -0.41435006 0.35165486 -0.32862684
-0.28602675 -0.17828001 -0.19181687 -0.09828716 -0.25178987 0.22852561 -0.0666201 0.3978685
0.3978347 -0.36419424 0.21208532 0.33121485 0.15759212 0.010022229 -0.27626365 0.42792308
0.13655335 0.34044835 -0.090936735 0.16837926 -0.24059495 -0.3958046 0.0034671095 0.40926903
0.055795442 -0.43482175 -0.014988321 0.23965286 -0.32238603 0.41847482 0.23654409 -0.17745508
0.16690092 0.27887896 0.31488463 -0.0037873639 -0.08520453 0.21993053 0.1249204 -0.13384418
0.041497663 -0.32114485 -0.373134 0.35118252 -0.41382885 -0.26927507 -0.38123292 0.12637085
0.29199752 -0.057860002 0.34664872 0.41547284 -0.0032356505 -0.3801289 -0.24472468 -0.0059868046
-0.13470474 -0.29524752 -0.11678602 -0.08252276 -0.282762 -0.35838503 0.3338235 -0.08793668
0.072946146 -0.1959022 -0.34337145 -0.071926944 0.30050343 0.39699823 0.050160043 -0.27389887
-0.13256313 -0.19938876 -0.07298071 -0.0007417139 -0.111011334 -0.17306083 -0.26690152 -0.08913524
00000000: af79 86be a6a6 2a3e f232 6e3e d20c cbbe
00000010: 74aa 753d 4f75 e1bd 7944 02bd ee50 c9be
00000020: 9a91 9abe c7a6 edbd 4a07 bb3d 413d a33e
00000030: 42ae c03e 603a 873d bd7b d4bd d008 cbbe
00000040: 1993 a0be e608 a03e 90d1 293e 816b cbbe
00000050: 0da7 4cbe 0c9d 8dbe c1d9 52be de9f 7b3e
00000060: ee22 29be 730e a53e d2b1 b13e f2be 49be
00000070: 6eef acbd 774f b53e 6a31 643e e76d 853d
00000080: 5ce2 2cbd 5212 05be 877f e5bc e227 55be
00000090: e07e b23d 4dac c53e 88f6 85bd 8677 503e
000000a0: 4bc1 d63e 8e50 963e 3285 0bbe 3845 cabe
000000b0: fc60 71be 0bd2 ad3d 25ff 85be ef69 95be
000000c0: 3aa1 c83e cd54 0dbe 1866 91be 06a2 b13e
000000d0: 8b1f 82be 557c c73e cd8e 643e adb7 a0be
000000e0: 4558 923e 6fd9 853e c170 3ebd 152b dcbe
000000f0: 378d 9bbd 4dac d63e a1b0 b2bd 9c20 f7bc
00000100: a43d 9c3e 96c0 b4be 0b5f 48be 087b db3d
00000110: d6e9 a6be 379c 7e3e baf1 683e d4e4 303e
00000120: 06e2 27be 1da8 b7be 0ccd 073e f384 b43e
00000130: 94fe 2b3e e013 a6be 777a c03e dba4 4fbe
00000140: d94e d6be f93a 613d a290 9e3e 65db c43e
00000150: 2e57 0fbe 0058 9abe 774e 8f3c 4a45 23be
00000160: cbf5 b9bc d397 e13d 03f4 e13d ab4c 5abe
00000170: 1463 943d a312 043e 2c3a a3be 7229 a03d
00000180: 9525 bd3e c666 28be 1c57 483e 90ae 163e
00000190: 48f5 9c3e ca34 8b3e d219 98be a333 16be
000001a0: 4e60 80bd 27d4 50be 1b55 a93e 8627 ffbc
000001b0: 1593 e6bd 7e66 af3e 3eb0 31be eb21 96be
000001c0: 6b0a 493e ab4d ad3e d826 bb3b d61c a7be
000001d0: 57f4 2d3c 90a9 d03e 69fe 40bd aea0 8b3e
000001e0: 100f 533e a531 7cbd 7c9a 103d d38b 77bd
000001f0: 2982 9dbe 3ba8 68be 6842 893e 97f2 86be
00000200: 23e1 55be 3bcf 80be 7a89 dd3e 6c10 f7bd
00000210: 9b33 7cbe 61d9 bb3e 1419 293e d1f3 c8be
00000220: 9460 da3e e5be 673e 0bad ee3d 52ef 2cbd
00000230: da6c fd3d a07b 20be a626 8d3e 6ea8 dc3d
00000240: 813e bc3e 8baf ea3d f7fb 66bd 29e8 483e
00000250: a65c 1abd 6b69 fa3d daac a33d b6e3 b23e
00000260: 05df 9ebe 781c 65bc 7aa5 58be edfe 9d3e
00000270: 0c84 23be 3a50 6e3e 7d4d 623e 6f77 e3bd
00000280: 37e2 eebb 05b2 8e3e 9db6 98be d14c d33e
00000290: a077 fbbd 5aba edbd f09e 823c df66 853b
000002a0: 0586 a3be 3213 8abc 163a 953e ecbc 44be
000002b0: 0b88 903e b125 d4be 1b0c b43e c741 a8be
000002c0: 1972 92be 098f 36be a46b 44be c74a c9bd
000002d0: 9aea 80be 9e02 6a3e 1e70 88bd 6cb5 cb3e
000002e0: fdb0 cb3e ab77 babe e52c 593e fe94 a93e
000002f0: d45f 213e 4634 243c 6e72 8dbe bc18 db3e
00000300: a4d4 0b3e 3f4f ae3e 0a3d babd 9d6b 2c3e
00000310: 865e 76be e7a6 cabe 7238 633b b68b d13e
00000320: c389 643d f5a0 debe 9391 75bc 8f67 753e
00000330: c80f a5be 5542 d63e 9d38 723e c9b6 35be
00000340: 13e8 2a3e 39c9 8e3e 8f38 a13e 6c35 78bb
00000350: b67f aebd 7835 613e 44d6 ff3d 730e 09be
00000360: 74f9 293d 196d a4be 6b0b bfbe 32ce b33e
00000370: 60e1 d3be 6cde 89be f630 c3be 5c67 013e
00000380: b380 953e 9cfe 6cbd f17b b13e dbb8 d43e
00000390: 350d 54bb 41a0 c2be 1b99 7abe f52c c4bb
000003a0: 0af0 09be af2a 97be 822d efbd b101 a9bd
000003b0: 2ec6 90be 3e7e b7be eaea aa3e 2518 b4bd
000003c0: ca64 953d 969a 48be 62ce afbe 6f4e 93bd
000003d0: 96db 993e 5a43 cb3e 9e74 4d3d 793c 8cbe
000003e0: a1be 07be 912c 4cbe e976 95bd 946f 42ba
000003f0: e959 e3bd dc36 31be 51a7 88be 898c b6bd

attention_p.attn_1.bias f4 [16]
0.0010881228 -0.00047024284 0.0011609541 0.00042757965 -0.0028000036 -0.0033462665 -0.0069559207 0.0024153546
0.00053465436 2.0849822e-05 -0.0038371314 -0.0017976684 0.002539276 -0.0004246513 -0.010326963 -0.002659919
00000000: 589f 8e3a ed8a f6b9 282b 983a c52c e039
00000010: 4480 37bb 094d 5bbb 7eee e3bb ed4a 1e3b
00000020: 0c28 0c3a a7e6 ae37 6278 7bbb be9f ebba
00000030: fb69 263b bca3 deb9 6c32 29bc 0952 2ebb

attention_p.attn_2.weight f4 [1, 16]
-0.4419298 -0.3669688 0.12257168 -0.15845141 -0.2382863 0.012313591 0.35633224 -0.25288165
0.2639085 -0.37756768 0.29777402 -0.18767203 0.2545205 0.42731372 -0.127043 -0.29194131
00000000: 9f44 e2be 56e3 bbbe dc06 fb3d 1641 22be
00000010: 5301 74be f2be 493c 2e71 b63e b479 81be
00000020: 041f 873e 8d50 c1be d675 983e 192d 40be
00000030: 8350 823e ddc8 da3e 8f17 02be 5579 95be

lstm_t.weight_ih_l0 f4 [64, 7]
-0.17464082 -0.062261082 0.0039867475 -0.06128163 0.20288067 -0.19557539 0.20321195 -0.0021589305
0.22761545 0.06189045 -0.20702471 0.2266509 0.061404455 0.11148468 0.16949315 -0.051347334
0.036565885 -0.094607085 0.112189636 -0.00872373 0.06857885 -0.13983132 -0.12598313 -0.11957279
-0.14822973 0.19827555 -0.17294405 0.1603539 -0.19956638 0.20527133 -0.24966235 0.17583984
0.013546396 -0.05832214 -0.12535521 0.15734747 0.05650318 0.10518252 0.06218987 0.03242615
0.19928455 0.10006186 0.19468728 -0.18621849 -0.045345858 -0.05669543 0.08514551 0.050436955
-0.1515583 0.10681437 -0.030752968 -0.1733179 0.23561558 -0.1761158 -0.107735075 0.22255382
-0.07154725 0.14084782 -0.08041618 -0.10170159 0.23541811 -0.23138037 0.03356508 0.020415645
-0.17378798 0.037166003 -0.0816537 0.07781642 -0.121404134 -0.16354923 -0.2132897 0.07970178
0.01744822 -0.0650092 -0.18794656 0.00028626446 -0.20401964 0.035255197 -0.050970566 -0.14578986
0.08602466 -0.18805148 -0.014722695 0.124539636 0.1930898 -0.09455787 -0.21552563 0.16987206
0.022447184 -0.2408779 -0.007815043 0.018140279 -0.06599861 0.16496335 0.050958756 -0.13488202
-0.026369825 0.00584505 -0.13029891 -0.11794836 -0.02501102 -0.022717379 -0.1716502 0.19895639
0.24730976 -0.18205205 0.14319345 -0.18159603 0.068643615 0.250846 0.04455979 -0.18571138
-0.024194242 -0.18438521 -0.19341628 -0.05305382 -0.1605128 0.08454519 0.060113933 -0.25156963
-0.044662904 0.22759183 0.18726966 0.14566195 0.09051456 -0.18943548 0.20890746 0.24981971
-0.050016414 -0.20696051 -0.05258291 -0.02057938 0.16159487 0.13354404 -0.22473456 -0.14305507
0.04710941 0.19343655 -0.008570402 -0.24026904 0.12640943 -0.062798716 0.06838118 0.10109524
0.124288835 0.026956486 0.08170242 0.10155375 -0.109261245 0.055596557 0.17274338 -0.17450526
0.05830672 0.20375392 0.09377268 -0.1232799 0.06343041 -0.0014002243 0.20241165 -0.15229316
0.11956239 0.014624346 0.023242094 -0.005709016 -0.2143864 0.09602362 -0.15620705 0.23730817
0.10401021 -0.12772354 0.18903689 0.16791512 0.23667689 0.13970022 0.050261974 -0.117040165
0.22605565 0.13371477 0.13424781 0.23609433 0.17783757 -0.12114534 0.19890486 0.119656555
-0.08429029 0.19466323 -0.100044504 -0.075827636 0.014322588 0.011081349 0.17201793 -0.13831188
-0.24577318 0.08121328 -0.17107446 -0.22057448 -0.214423 -0.18933307 -0.082222156 -0.16001473
0.17193235 -0.109607816 0.17303522 -0.12249036 0.1438189 0.025005832 -0.2382152 -0.09662297
0.2389275 0.22831377 0.173342 0.20559476 0.05647803 -0.1928249 -0.08402029 -0.20458773
0.124980725 0.1314579 0.101114914 0.21853761 -0.023699487 0.13893233 -0.014595644 -0.03668165
-0.15401748 -0.16029699 0.031190127 -0.13239782 0.034447655 -0.11331709 -0.030061396 -0.20002078
-0.18348649 0.11295514 0.19173308 -0.033715487 0.043488454 0.064190134 0.18843913 -0.016696908
0.24549495 0.025377374 0.1610776 -0.012485305 -0.104116224 -0.0077071 -0.21041842 0.048726253
-0.047172304 0.08043273 -0.226652 0.19634597 -0.033578195 -0.023779867 0.041679874 0.2178467
00000000: 0bd5 32be 7a05 7fbd 43a3 823b 7202 7bbd
00000010: f3bf 4f3e ea44 48be cb16 503e d87c 0dbb
00000020: 0614 693e d780 7d3d 49fe 53be 2c17 683e
00000030: 3d83 7b3d 1452 e43d 9d8f 2d3e 9551 52bd
00000040: 1cc6 153d 5cc1 c1bd aec3 e53d faed 0ebc
00000050: 1173 8c3d f12f 0fbe b901 01be 94e2 f4bd
00000060: 89c9 17be bf08 4b3e 3f18 31be d033 243e
00000070: 215b 4cbe a632 523e 7da7 7fbe 5c0f 343e
00000080: b4f1 5d3c 32e3 6ebd 1e5d 00be b21f 213e
00000090: e16f 673d ef69 d73d ceba 7e3d 48d1 043d
000000a0: 4011 4c3e 3ced cc3d 1a5c 473e 0fb0 3ebe
000000b0: 94bc 39bd 7839 68bd c560 ae3d fb96 4e3d
000000c0: 1932 1bbe 7ec1 da3d a6ed fbbc 3f7a 31be
000000d0: 3645 713e b357 34be 35a4 dcbd 26e5 633e
000000e0: 5d87 92bd 693a 103e 3db1 a4bd ec48 d0bd
000000f0: 7211 713e faee 6cbe 8a7b 093d b63e a73c
00000100: 7af5 31be 613b 183d 0e3a a7bd 375e 9f3d
00000110: bba2 f8bd 7379 27be 9d68 5abe b03a a33d
00000120: 92ef 8e3c 8b23 85bd 1075 40be c415 9639
00000130: 86ea 50be c167 103d 83c6 50bd f049 15be
00000140: b22d b03d 9190 40be 7537 71bc a30e ff3d
00000150: 55b9 453e 8ea7 c1bd c0b2 5cbe f1f2 2d3e
00000160: 28e3 b73c b2a8 76be ab0a 00bc ec9a 943c
00000170: 472a 87bd 27ec 283e 21ba 503d 831e 0abe
00000180: 8805 d8bc d587 bf3b 146d 05be e98e f1bd
00000190: e9e3 ccbc cc19 babc 12c5 2fbe 39bb 4b3e
000001a0: c53e 7d3e da6b 3abe 4ea1 123e 4ff4 39be
000001b0: 0695 8c3d e36e 803e 5484 363d 202b 3ebe
000001c0: 0133 c6bc 7acf 3cbe eb0e 46be f64e 59bd
000001d0: 785d 24be 0726 ad3d 073a 763d bccd 80be
000001e0: 73f0 36bd d50d 693e 9ec3 3f3e 6828 153e
000001f0: b35f b93d 60fb 41be d6eb 553e bdd0 7f3e
00000200: 03de 4cbd 75ed 53be 2d61 57bd 1796 a8bc
00000210: 2079 253e c5bf 083e d120 66be 077d 12be
00000220: ccf5 403d 3b14 463e df6a 0cbc 1609 76be
00000230: 7971 013e 9d9c 80bd 6f0b 8c3d 050b cf3d
00000240: 258b fe3d d9d3 dc3c 9953 a73d 6afb cf3d
00000250: 5cc4 dfbd 37b9 633d a4e3 303e 82b1 32be
00000260: 07d3 6e3d dea4 503e e40b c03d 2c7a fcbd
00000270: cee7 813d bb87 b7ba 0045 4f3e bdf2 1bbe
00000280: 20dd f43d f49a 6f3c 3466 be3c b312 bbbb
00000290: 1c88 5bbe 08a8 c43d bef4 1fbe ea00 733e
000002a0: 4e03 d53d f6c9 02be e392 413e f1f1 2b3e
000002b0: 6d5b 723e 930d 0f3e 80df 4d3d c1b2 efbd
000002c0: 227b 673e 86ec 083e 4278 093e b6c2 713e
000002d0: 0d1b 363e 0c1b f8bd b7ad 4b3e 7f0e f53d
000002e0: 63a0 acbd cc55 473e 22e4 ccbd 854b 9bbd
000002f0: 4aa9 6a3c 8c8e 353c 7825 303e a1a1 0dbe
00000300: f7ab 7bbe 2653 a63d 252e 2fbe 47de 61be
00000310: b491 5bbe 87e0 41be 1764 a8bd e7da 23be
00000320: 090f 303e 107a e0bd 2530 313e 3adc fabd
00000330: 4345 133e 08d9 cc3c afee 73be 44e2 c5bd
00000340: 69a9 743e 16cb 693e 9180 313e 6f87 523e
00000350: 8255 673d e473 45be d412 acbd 727f 51be
00000360: e5f5 ff3d e69c 063e 5615 cf3d 53c8 5f3e
00000370: 6d25 c2bc 4744 0e3e 9122 6fbc 7f3f 16bd
00000380: c2b6 1dbe e524 24be 7082 ff3c 4b93 07be
00000390: fc18 0d3d ca12 e8bd 5143 f6bc 3fd2 4cbe
000003a0: e2e3 3bbe 0655 e73d ad55 443e 4019 0abd
000003b0: f320 323d 1e76 833d 30f6 403e f4c7 88bc
000003c0: 0763 7b3e 36e4 cf3c 87f1 243e 2a8f 4cbc
000003d0: e33a d5bd d78b fcbb ed77 57be 2e95 473d
000003e0: bf37 41bd eab9 a43d 7617 68be eb0e 493e
000003f0: 4a89 09bd ffcd c2bc 84b8 2a3d 3513 5f3e
