Params/250_0.005_20_16_222_model.pt (torch, 45301 bytes, 31 tensors)

lstm_p.weight_ih_l0 f4 [64, 10]
-0.10824796 -0.11210551 -0.05284175 -0.01696727 0.21630512 -0.13191286 0.070738934 0.1678472
-0.08563669 -0.0941473 0.10590394 0.03163632 -0.008736449 0.23904473 -0.0045428392 -0.13264044
-0.012456688 0.04472222 0.052123938 0.0877931 0.03260617 0.043346524 -0.19575457 0.18103242
-0.14021301 -0.08352642 0.09022715 -0.03266425 0.171806 0.10099838 0.20004399 0.057933882
0.034010675 0.024254674 -0.16796221 0.025584793 0.076484196 -0.061667316 -0.14220658 -0.15792628
0.14787233 -0.16888803 0.25112224 -0.014712523 0.06987158 0.17179601 0.18711993 0.07526803
-0.2000613 0.0066238903 -0.10424817 -0.21202402 -0.08847629 0.122960255 0.028666059 0.21834661
-0.14374623 0.114745766 0.1950203 -0.16515875 0.19058478 0.0737034 -0.046253536 -0.095879085
-0.16952153 0.17002238 0.047910634 -0.054910522 0.19910821 -0.16577427 -0.14169134 -0.13246313
0.20840532 -0.20842133 -0.009279598 -0.0397804 -0.05900439 -0.23273078 0.09681952 -0.055884164
-0.22256698 -0.024337562 -0.18922295 0.06376984 0.10673062 -0.12612537 0.20886366 0.030678814
-0.22786292 0.014707814 -0.0064466684 0.11376369 -0.23013528 0.02025226 -0.14929114 0.026380809
-0.19321443 0.014330268 -0.22604121 0.059621353 -0.004956837 0.13494012 0.20058362 0.047719166
-0.12934618 -0.11109089 0.10758049 0.10211652 -0.027212108 -0.1935303 -0.1617398 0.013729325
0.06997957 0.12271763 0.12462261 0.16032036 -0.025017649 0.13417093 0.060918234 0.21998243
0.14241154 0.015103288 0.08234527 -0.09133492 -0.21812665 0.08004368 0.22495082 0.10652754
-0.0024279174 -0.22614655 -0.22968034 0.07036167 0.045366034 0.12019114 0.11241511 -0.041035846
-0.2418296 0.07576508 -0.22330992 0.030487273 -0.04006759 0.11879959 0.19995373 -0.040346958
0.105822094 -0.0013853885 0.11585826 -0.1298945 -0.24771073 -0.107102975 -0.008195665 0.103950374
0.12154803 -0.05878168 0.054918017 -0.03694934 0.1807486 0.047582585 -0.024955474 -0.052843317
0.06088835 -0.06641444 0.22073539 0.13408312 -0.08947 0.08814499 -0.12245596 -0.21696953
-0.23656347 -0.2398976 -0.11551091 -0.107717335 -0.06638674 0.20292617 0.031417176 0.11086386
0.039596885 0.0668127 -0.03048834 -0.006559758 0.25358453 0.207312 0.0076777036 0.08274157
0.15405391 0.14665475 0.16418977 -0.06456753 0.11686582 0.028872915 0.06356337 -0.08013588
0.12245326 -0.19509666 0.13152334 0.060057838 0.12032374 -0.009249135 -0.12565978 -0.013906614
0.13227855 0.06546298 -0.2215092 -0.19151045 0.2463093 -0.14480717 -0.05607213 -0.15831056
0.09575719 -0.21017386 0.15652345 -0.15944399 -0.25060147 -0.037656225 0.053025667 -0.11360208
0.09478272 -0.22628193 0.20806311 -0.21338816 0.029098643 -0.07681871 -0.11673249 0.17639259
0.17088556 0.15901613 -0.18904409 -0.21666369 -0.2536903 0.09135632 -0.036767896 -0.14110102
-0.15242937 0.108867645 -0.067404866 0.01399848 -0.22547181 0.20549642 -0.08530499 0.086214066
-0.20340289 0.1863311 0.1899079 -0.13866675 -0.106510304 -0.16369464 0.22458147 0.13291688
0.09699172 0.1018614 -0.20527796 -0.12968972 -0.18820497 -0.09488713 -0.08159707 0.13571583
00000000: 1bb1 ddbd 9397 e5bd 9770 58bd f2fe 8abc
00000010: 177f 5d3e 2a14 07be 93df 903d 23e0 2b3e
00000020: 4a62 afbd 4dd0 c0bd 2ae4 d83d 1695 013d
00000030: 5323 0fbc 24c8 743e 19dc 94bb e5d2 07be
00000040: 2317 4cbc a62e 373d e97f 553d decc b33d
00000050: 0c8e 053d 208c 313d e373 48be 9060 393e
00000060: 0094 0fbe e60f abbd 03c9 b83d f3ca 05bd
00000070: e9ed 2f3e 3dd8 ce3d 55d8 4c3e 144c 6d3d
00000080: c74e 0b3d bdb1 c63c 49fe 2bbe 3397 d13c
00000090: bfa3 9c3d de96 7cbd 9a9e 11be 6db7 21be
000000a0: d86b 173e fcf0 2cbe 1893 803e cb0c 71bc
000000b0: d518 8f3d 4beb 2f3e 5e9c 3f3e 2026 9a3d
000000c0: dfdc 4cbe 380d d93b 1180 d5bd d31c 59be
000000d0: 0f33 b5bd 96d2 fb3d 15d5 ea3c 4196 5f3e
000000e0: 3632 13be d4ff ea3d 67b3 473e 601f 29be
000000f0: a828 433e cff1 963d 5974 3dbd 415c c4bd
00000100: 0d97 2dbe 591a 2e3e f13d 443d dbe9 60bd
00000110: 06e3 4b3e bbc0 29be 8917 11be 6aa4 07be
00000120: 3468 553e 676c 55be 7409 18bc c6f0 22bd
00000130: 96ae 71bd fa50 6ebe 5049 c63d cbe6 64bd
00000140: 99e8 63be 915f c7bc a9c3 41be c399 823d
00000150: 9595 da3d 0227 01be 5be0 553e 2352 fb3c
00000160: e654 69be 0bf9 703c 933e d3bb f0fc e83d
00000170: 95a8 6bbe 11e8 a53c c7df 18be 911c d83c
00000180: 01da 45be 80c9 6a3c 5977 67be 8535 743d
00000190: f66c a2bb be2d 0a3e cb65 4d3e 2c75 433d
000001a0: 5373 04be 9f83 e3bd 2953 dc3d 7722 d13d
000001b0: edeb debc cf2c 46be 1e9f 25be f6f0 603c
000001c0: 7351 8f3d 6153 fb3d 243a ff3d 052b 243e
000001d0: d0f1 ccbc 1b64 093e 6685 793d 1343 613e
000001e0: 55d4 113e c873 773c a3a4 a83d cd0d bbbd
000001f0: 985c 5fbe f1ed a33d 8259 663e 1c2b da3d
00000200: b21d 1fbb f692 67be 5331 6bbe c719 903d
00000210: bcd1 393d c626 f63d e539 e63d 3415 28bd
00000220: 2ea2 77be b92a 9b3d 5bab 64be 72c0 f93c
00000230: ea1d 24bd 334d f33d acc0 4c3e da42 25bd
00000240: 41b9 d83d ed95 b5ba 1847 ed3d 1003 05be
00000250: e2a7 7dbe ce58 dbbd 1c47 06bc efe3 d43d
00000260: 2cee f83d 0fc5 70bd b7f1 603d 3158 17bd
00000270: 2916 393e f5e5 423d 6c6f ccbc 3c72 58bd
00000280: 1066 793d 4b04 88bd 7508 623e 164d 093e
00000290: 0c3c b7bd 5c85 b43d 31ca fabd 432d 5ebe
000002a0: b23d 72be b7a7 75be fc90 ecbd e89a dcbd
000002b0: c5f5 87bd e1cb 4f3e 4caf 003d 970c e33d
000002c0: 5830 223d 19d5 883d afc2 f9bc 3df3 d6bb
000002d0: d5d5 813e 9949 543e 3f95 fb3b 6a74 a93d
000002e0: 4fc0 1d3e aa2c 163e 5d21 283e fb3b 84bd
000002f0: 5957 ef3d e486 ec3c 832d 823d 481e a4bd
00000300: c6c8 fa3d 6bc7 47be 0eae 063e 35ff 753d
00000310: 4b6c f63d af89 17bc f5ac 00be 91d8 63bc
00000320: 0774 073e 7411 863d 4fd3 62be 511b 44be
00000330: 8138 7c3e 5548 14be e4ab 65bd 2a1c 22be
00000340: 581c c43d d137 57be af47 203e 4945 23be
00000350: d64e 80be 6a3d 1abd 7131 593d 35a8 e8bd
00000360: 711d c23d 73b6 67be 7f0e 553e 6d82 5abe
00000370: 4760 ee3c 2153 9dbd 7211 efbd 42a0 343e
00000380: a0fc 2e3e 20d5 223e c694 41be 16dd 5dbe
00000390: b2e3 81be 0619 bb3d ef99 16bd c97c 10be
000003a0: 7216 1cbe 00f6 de3d 900b 8abd e159 653c
000003b0: 15e2 66be a76d 523e 62b4 aebd 0091 b03d
000003c0: d948 50be 94cd 3e3e 3777 423e a8fe 0dbe
000003d0: 1322 dabd 919f 27be aff8 653e 5d1b 083e
000003e0: 98a3 c63d b69c d03d 6334 52be 62cd 04be
000003f0: ceb8 40be 2f54 c2bd 5d1c a7bd 17f9 0a3e

lstm_p.weight_hh_l0 f4 [64, 16]
-0.00922062 -0.018855633 -0.00015403301 0.28154132 0.2110684 -0.15011734 0.031185208 0.043735035
0.15972303 -0.045440275 0.12527503 0.13086626 0.014490771 0.20478256 0.07219799 0.20238127
0.19255772 -0.24484162 -0.12245017 -0.008343698 0.15773979 -0.17483592 0.1354908 0.109489754
0.064983346 0.2122976 0.024488492 -0.16427563 0.11520501 -0.21869098 -0.20463793 0.053341307
0.21174285 -0.22838025 0.15736672 0.17025317 -0.17410304 -0.19120213 0.0015366309 0.15142518
0.032984465 -0.17824389 -0.06349889 -0.038746133 0.26067922 -0.13050008 -0.18570402 -0.04309128
-0.10411444 -0.042974394 0.03471113 -0.10144621 0.109961234 -0.1995395 0.16138873 0.093195304
0.13920452 -0.049681626 0.11645248 0.10186082 0.016371282 -0.08115539 -0.0682407 0.1507404
0.1929768 0.0071116253 -0.21321756 0.0116650155 -0.24739493 0.084122695 -0.06382458 0.06704697
-0.13891163 0.12325582 -0.20477407 0.18035977 0.18087997 0.222483 0.12978731 -0.16809236
0.01383692 0.15641986 -0.1484776 -0.14909457 0.07321525 -0.11297823 -0.24641499 0.16234389
0.17029996 -0.15259954 -0.08194138 0.03730689 -0.12865634 -0.22433238 0.10517245 0.07710525
-0.18641303 -0.02567713 0.03459098 -0.12995993 0.22796081 0.09791675 0.25919536 0.026287703
-0.11150046 0.010309448 -0.17786083 0.06327819 -0.2356756 0.22932899 -0.032861162 0.0962559
0.18130648 -0.22372696 0.2525684 -0.15652014 0.24338908 -0.06304349 0.07180389 0.09473013
0.26758558 0.208794 0.1486195 0.07221757 -0.115306556 0.03274486 0.022016937 0.1536185
-0.16558182 0.15837643 0.14883944 0.2968032 0.052155532 0.23215257 -0.21427692 -0.18808295
0.040876057 0.10486451 0.19017509 -0.20618542 -0.04860733 -0.16339979 -0.016016709 0.013644777
-0.18485545 -0.03033575 -0.15198801 -0.13257474 0.054687873 0.1799403 0.05891576 -0.12344552
-0.15578674 -0.050670993 0.039776847 -0.15261048 0.21748729 0.13266109 0.20075777 0.03959722
-0.13062863 0.12391063 -0.09817001 0.23837873 0.0857099 0.23052813 -0.27354437 -0.062542416
0.16706358 -0.112019055 0.23493825 0.04119118 -0.24262373 0.13936798 0.029834455 -0.14226273
-0.06028065 -0.024892291 -0.053915534 0.25163418 -0.17404738 0.024556963 -0.14147405 -0.0035548843
-0.09910408 0.26494855 -0.13472985 0.23344232 -0.044771243 0.023586534 -0.046234623 -0.034960352
-0.041840583 -0.099511854 -0.19486874 -0.10525418 -0.1197259 0.066521846 0.024838872 -0.14682475
-0.23281243 -0.10560876 0.20946984 0.08119079 0.12830272 -0.06914986 0.15242586 0.2395436
-0.10564449 -0.1522974 0.1579018 0.14381506 -0.04798416 0.12025755 0.11134176 -0.08169401
-0.16898908 -0.03860711 -0.16363324 0.23860806 0.10656043 0.25865903 0.15974173 0.08038868
0.058910318 0.15887855 0.13029751 -0.012939915 0.19705144 0.24227574 -0.05829549 -0.02251098
-0.019575648 -0.14296211 -0.13014784 -0.1873759 -0.015059747 -0.0056966515 0.14040112 0.022636114
-0.08383907 0.013473368 -0.1724442 0.11997835 0.20637265 -0.10974477 0.014906842 0.055099577
0.094136894 0.23527025 -0.13767497 -0.12186291 -0.017300073 -0.15979698 -0.1111261 0.035642784
00000000: 1512 17bc 2177 9abc ec83 21b9 2f26 903e
00000010: 5122 583e 5cb8 19be 1f78 ff3c 8223 333d
00000020: 6f8e 233e 951f 3abd 1948 003e ce01 063e
00000030: b36a 6d3c 85b2 513e 8adc 933d 093d 4f3e
00000040: da2d 453e c3b7 7abe 28c7 fabd 02b4 08bc
00000050: 8a86 213e 3008 33be 1abe 0a3e 2a3c e03d
00000060: fd15 853d 8b64 593e 179c c83c df37 28be
00000070: 9bf0 eb3d 87f0 5fbe 9b8c 51be 6a7c 5a3d
00000080: 1ed3 583e 83dc 69be be24 213e d956 2e3e
00000090: 1148 32be 7eca 43be c768 c93a 340f 1b3e
000000a0: b81a 073d 9185 36be b50b 82bd 44b4 1ebd
000000b0: bf77 853e d0a1 05be 3229 3ebe 7b80 30bd
000000c0: f439 d5bd eb05 30bd 422d 0e3d 08c3 cfbd
000000d0: 5b33 e13d 1554 4cbe 1643 253e 2edd be3d
000000e0: a18b 0e3e f67e 4bbd a37e ee3d 689c d03d
000000f0: 111d 863c cc34 a6bd c8c1 8bbd b15b 1a3e
00000100: b69b 453e a308 e93b b455 5abe 9f1e 3f3c
00000110: 1955 7dbe 8548 ac3d 76b6 82bd ec4f 893d
00000120: da3e 0ebe 8c6d fc3d 4bb0 51be 3bb0 383e
00000130: 9938 393e 95d2 633e f7e6 043e 6720 2cbe
00000140: 40b4 623c 872c 203e 830a 18be 3fac 18be
00000150: e1f1 953d 2161 e7bd 3654 7cbe 7a3d 263e
00000160: 1d63 2e3e 0e43 1cbe e2d0 a7bd 1ccf 183d
00000170: 7dbe 03be 63b7 65be a764 d73d 5be9 9d3d
00000180: 0fe3 3ebe d858 d2bc 45af 0d3d 3714 05be
00000190: 8f6e 693e 9488 c83d 41b5 843e 4f59 d73c
000001a0: 5a5a e4bd f5e8 283c 2621 36be ff97 813d
000001b0: f254 71be 38d5 6a3e 6d99 06bd d021 c53d
000001c0: 68a8 393e ae18 65be a550 813e d146 20be
000001d0: fd3a 793e f21c 81bd eb0d 933d df01 c23d
000001e0: fa00 893e 18ce 553e b62f 183e cee6 933d
000001f0: d825 ecbd 791f 063d dd5c b43c 2b4e 1d3e
00000200: 488e 29be 6e2d 223e 5e69 183e 97f6 973e
00000210: 0aa1 553d 67b9 6d3e 696b 5bbe d198 40be
00000220: a76d 273d 34c3 d63d 42bd 423e 4522 53be
00000230: 7b18 47bd 4652 27be 7935 83bc 588e 5f3c
00000240: bf4a 3dbe ae82 f8bc bfa2 1bbe acc1 07be
00000250: 6400 603d 4542 383e a751 713d 01d1 fcbd
00000260: 8f86 1fbe 638c 4fbd 0ced 223d ec45 1cbe
00000270: fdb4 5e3e 4fd8 073e 7293 4d3e b230 223d
00000280: 83c3 05be dbc4 fd3d 5c0d c9bd 8e19 743e
00000290: ac88 af3d 910f 6c3e 020e 8cbe 3d16 80bd
000002a0: b712 2b3e 3f6a e5bd a793 703e 15b8 283d
000002b0: 5b72 78be 7bb6 0e3e 6367 f43c 52ad 11be
000002c0: d8e8 76bd ebea cbbc 89d6 5cbd 32d6 803e
000002d0: 7a39 32be af2b c93c 93de 10be 10f9 68bb
000002e0: 14f7 cabd 56a7 873e 9ff6 09be 810b 6f3e
000002f0: 0d62 37bd 8c38 c13c 8460 3dbd 9632 0fbd
00000300: 0861 2bbd dfcc cbbd ac8b 47be 818f d7bd
00000310: da32 f5bd 9b3c 883d e47a cb3c 3a59 16be
00000320: 6266 6ebe 6849 d8bd 437f 563e 5b47 a63d
00000330: ca61 033e 719e 8dbd 8615 1c3e eb4a 753e
00000340: 235c d8bd daf3 1bbe 02b1 213e 4144 133e
00000350: 0a8b 44bd 9749 f63d 2607 e43d 304f a7bd
00000360: 790b 2dbe 7d22 1ebd 798f 27be ac55 743e
00000370: 5b3c da3d f56e 843e 5693 233e d2a2 a43d
00000380: f24b 713d 0fb1 223e b66c 053e f001 54bc
00000390: dac7 493e 2217 783e 40c7 6ebd f268 b8bc
000003a0: 1c5d a0bc a964 12be 7a45 05be 78df 3fbe
000003b0: 28bd 76bc faaa babb 50c5 0f3e 5f6f b93c
000003c0: d1b3 abbd 67bf 5c3c 3695 30be 36b7 f53d
000003d0: 5a53 533e dec1 e0bd d43b 743c 18b0 613d
000003e0: d8ca c03d afea 703e abfa 0cbe 4393 f9bd
000003f0: e2b8 8dbc d2a1 23be 1596 e3bd 2bfe 113d

lstm_p.bias_ih_l0 f4 [64]
-0.023240708 -0.20753014 -0.17419322 -0.12016616 0.15357341 -0.05521019 -0.018328717 -0.20647368
0.18736725 -0.26730618 0.07283493 0.044615775 0.22544454 -0.17942777 0.10184421 0.07876823
-0.15859139 0.1935872 -0.1505321 -0.20444515 -0.20560586 0.19569232 0.03979213 -0.013852065
0.0050853686 0.165172 -0.057220504 0.01884354 -0.13620788 -0.2105446 -0.27069816 0.08275921
-0.09334332 -0.12661132 0.16341114 0.22297055 0.007274794 -0.07942404 -0.22321439 -0.2068319
0.12201809 -0.14615603 -0.21533106 -0.1981111 -0.0765034 0.14784779 0.17981932 -0.081333965
0.1966874 0.20594496 0.13374005 0.20246989 -0.23996696 0.06971703 -0.225559 -0.022569487
0.05975575 0.060656477 -0.06355934 0.035621807 -0.15206453 0.14427775 -0.13145901 -0.20328276
00000000: 4c63 bebc c882 54be b55f 32be ad19 f6bd
00000010: 5942 1d3e 1524 62bd 1b26 96bc d66d 53be
00000020: 33dd 3f3e 5bdc 88be 7b2a 953d 08bf 363d
00000030: efda 663e eabb 37be b293 d03d 3d51 a13d
00000040: c865 22be b93b 463e 1625 1abe 125a 51be
00000050: 588a 52be 9163 483e 13fd 223d c6f3 62bc
00000060: 2aa3 a63b d922 293e 0c60 6abd c55d 9a3c
00000070: 147a 0bbe 0199 57be f398 8abe a97d a93d
00000080: c82a bfbd 66a6 01be 4055 273e 6452 643e
00000090: 6561 ee3b 12a9 a2bd 5092 64be becb 53be
000000a0: 9fe4 f93d eda9 15be bf7f 5cbe a3dd 4abe
000000b0: d1ad 9cbd 6965 173e 8e22 383e 6c92 a6bd
000000c0: 6c68 493e 3ce3 523e 27f3 083e 4454 4f3e
000000d0: e6b9 75be cdc7 8e3d f0f8 66be a5e3 b8bc
000000e0: 72c2 743d ed72 783d 662b 82bd 2ce8 113d
000000f0: ceb6 1bbe 8cbd 133e 319d 06be 5b29 50be

lstm_p.bias_hh_l0 f4 [64]
-0.24638091 -0.019364912 -0.08449007 0.053759843 -0.0101073915 0.058766462 -0.21270093 0.21357295
-0.012840525 -0.21138321 0.15847646 0.0050123623 -0.020277834 -0.15502137 -0.1082799 -0.0052636443
0.11713659 -0.24661525 0.05357296 0.027824625 0.1407238 0.084887214 0.042995766 0.19213496
-0.0770821 0.015860582 -0.114800915 0.0314773 -0.11624794 0.05871423 -0.011377532 -0.040790867
-0.23051059 0.16789004 -0.23815027 0.052374247 -0.15650892 -0.16187261 0.00070656015 -0.15588555
-0.12174971 -0.14800276 0.16927885 -0.08399002 0.071518146 -0.013345776 -0.18407461 0.102537364
-0.12576422 0.13803568 -0.19504033 -0.28039122 0.08205897 -0.05271056 -0.17569837 0.22333032
0.23234926 -0.25827903 0.1693935 0.11454885 -0.08214296 -0.12482474 0.04267865 -0.102120295
00000000: 474b 7cbe 2aa3 9ebc 2109 adbd 4833 5c3d
00000010: 7999 25bc 1ab5 703d 46ce 59be deb2 5a3e
00000020: 1161 52bc d774 58be a747 223e be3e a43b
00000030: b31d a6bc ecbd 1ebe dac1 ddbd a67a acbb
00000040: 4fe5 ef3d b588 7cbe 526f 5b3d 78f0 e33c
00000050: e619 103e 59d9 ad3d 541c 303d 07bf 443e
00000060: 38dd 9dbd 0dee 813c be1c ebbd 57ee 003d
00000070: 6613 eebd 557e 703d d468 3abc 5314 27bd
00000080: f80a 6cbe 5eeb 2b3e aadd 73be 6186 563d
00000090: e043 20be efc1 25be 7338 393a 76a0 1fbe
000000a0: e957 f9bd 098e 17be 6f57 2d3e f602 acbd
000000b0: 1b78 923d 3ea8 5abc 0e7e 3cbe 1cff d13d
000000c0: 56c8 00be 3a59 0d3e a7b8 47be 708f 8fbe
000000d0: 890e a83d 07e7 57bd 46ea 33be b4b0 643e
000000e0: f7ec 6d3e 263d 84be 7d75 2d3e 9698 ea3d
000000f0: 913a a8bd 1da4 ffbd cfcf 2e3d 7224 d1bd

lstm_p.weight_ih_l1 f4 [64, 16]
-0.02994761 0.050051127 0.24652949 0.04018703 -0.14281419 0.122220606 0.18816163 0.2409369
0.23215799 -0.09357627 -0.122957714 0.1497811 0.07675324 0.20304088 -0.10480918 -0.11864515
-0.040735077 0.16810103 0.10013222 0.27421373 -0.12748946 -0.06665837 0.08279595 -0.05577376
0.20656209 -0.063790284 0.18331727 0.1663078 0.049404204 -0.066716865 -0.17188542 -0.12620147
-0.11695453 -0.19653378 0.19469045 0.13368411 -0.095744416 0.2226644 -0.016502 0.00027305316
0.17682357 0.24323401 0.18498373 -0.09599782 -0.23867746 -0.113916405 -0.05555412 0.11412079
0.15424179 -0.24566239 0.2196573 0.19894436 -0.059759438 0.21624056 0.15931521 -0.14024973
-0.07685295 -0.17594728 0.21425673 0.19488567 0.15420789 0.14687125 0.17735356 0.15159893
-0.041333146 -0.10737262 0.2094339 -0.10203157 0.14023355 -0.08251953 -0.18242966 -0.17570998
0.24769904 0.24193148 -0.20738381 0.034859452 0.19778445 -0.13210328 0.03319313 0.10440168
0.20990492 -0.14365716 -0.0015771628 0.09610947 0.11221053 0.007116068 0.17705353 -0.080763705
-0.060655124 0.27032802 0.03620985 0.041958768 0.07025343 0.16043712 -0.016855745 0.07326185
0.15969488 -0.12537356 0.18822366 0.17772645 -0.21095602 -0.11312205 0.18199766 0.052499462
0.17315124 0.1336566 -0.055008013 -0.052192118 -0.24342991 -0.13137022 0.2432001 -0.24404451
0.12657905 0.12151502 0.21998742 -0.27847895 0.11987629 0.10815191 0.21575797 0.24001658
0.12864466 0.082727216 -0.057016317 -0.21197602 0.077506185 -0.08877864 0.15291296 -0.22046757
0.007147877 0.12836497 0.06369826 -0.011252459 0.10279448 0.11524883 -0.24713434 0.007613951
0.13647097 0.22413239 0.17322583 0.056652978 0.16992135 0.17739338 -0.095709674 0.03699354
-0.05556496 -0.123584196 0.20897087 0.16299248 0.22705472 0.102969095 -0.18059221 0.0056054187
0.04812943 0.02743256 -0.18472995 -0.03788641 -0.041033875 -0.21600765 -0.20986338 0.20364211
-0.21519288 0.049277358 0.008837351 -0.27987295 -0.17978342 -0.0045830505 -0.19756666 0.03300566
0.16199277 -0.09586622 0.044517767 -0.014057156 0.20682465 -0.004949295 -0.104529686 -0.018860376
-0.1024652 -0.16382162 -0.062208235 -0.0036219417 0.279644 -0.15723802 0.06412721 0.16037385
0.25623566 0.20218413 0.17870456 -0.18303522 0.18246506 -0.17510483 0.067236096 0.051034372
0.095959745 -0.013944816 -0.015273125 -0.15915759 0.20340715 -0.13554846 -0.18550791 0.25165585
-0.10690879 -0.17359781 -0.19355145 -0.11788727 0.14454722 -0.20058246 -0.19802558 0.1603409
-0.22196795 -0.15482973 -0.033063475 -0.20942792 0.18686433 0.12291139 0.21508905 -0.18217655
-0.19018945 -0.13756303 0.11754239 0.181609 -0.15117013 0.061713602 0.13620923 0.21457715
0.13144812 0.18468352 -0.09841399 0.1413792 -0.21070132 0.1667659 0.0026998234 -0.19847244
0.040431276 0.22042103 0.033064287 0.17363511 0.06438062 -0.15100853 -0.07759162 0.17411482
0.19080885 0.10718064 0.07410411 -0.022635303 0.12468265 0.054109037 -0.04130202 -0.17229995
-0.020825239 0.070824124 0.11514151 0.17034452 0.006736282 0.025291823 0.14260142 0.073048785
00000000: b154 f5bc 6902 4d3d 3a72 7c3e 289b 243d
00000010: e23d 12be cc4e fa3d 71ad 403e 2ab8 763e
00000020: d3ba 6d3e eaa4 bfbd 41d1 fbbd 3760 193e
00000030: cd30 9d3d f3e9 4f3e 32a6 d6bd 3afc f2bd
00000040: d3d9 26bd ad22 2c3e 1f12 cd3d be65 8c3e
00000050: 998c 02be 2f84 88bd ec90 a93d 0773 64bd
00000060: 0385 533e 7ba4 82bd 86b7 3b3e 984c 2a3e
00000070: 105c 4a3d daa2 88bd bb02 30be f53a 01be
00000080: db85 efbd 2740 49be ef5c 473e 7de4 083e
00000090: a615 c4bd 2302 643e 342f 87bc 9328 8f39
000000a0: 3d11 353e 5612 793e 606c 3d3e 819a c4bd
000000b0: dd67 74be 014d e9bd b88c 63bd 29b8 e93d
000000c0: 8ff1 1d3e ec8e 7bbe d8ed 603e 12b8 4b3e
000000d0: 50c6 74bd 2a6e 5d3e 8723 233e a09d 0fbe
000000e0: 1465 9dbd 862b 34be 1e66 5b3e 1c90 473e
000000f0: ace8 1d3e 6b65 163e 2c9c 353e c03c 1b3e
00000100: f24c 29bd 2de6 dbbd d775 563e eef5 d0bd
00000110: 6299 0f3e 0000 a9bd d7ce 3abe 51ed 33be
00000120: d1a4 7d3e e3bc 773e 6c5c 54be c9c8 0e3d
00000130: 0288 4a3e 1546 07be 85f5 073d 8cd0 d53d
00000140: 51f1 563e dd1a 13be cdb8 ceba 0bd5 c43d
00000150: a2ce e53d e82d e93b 854d 353e 7167 a5bd
00000160: 8271 78bd 6f68 8a3e c850 143d f5dc 2b3d
00000170: 08e1 8f3d a149 243e 0f15 8abc 4f0a 963d
00000180: 0e87 233e ed61 00be b4bd 403e ecfd 353e
00000190: db04 58be 89ac e7bd 985d 3a3e ad09 573d
000001a0: 8f4e 313e 47dd 083e 1550 61bd 67c7 55bd
000001b0: b145 79be ea85 06be 7209 793e cee6 79be
000001c0: f09d 013e dedc f83d 6244 613e cb94 8ebe
000001d0: b381 f53d c07e dd3d a8ef 5c3e e8c6 753e
000001e0: 6dbb 033e e36c a93d f189 69bd 3e10 59be
000001f0: 90bb 9e3d 93d1 b5bd 3795 1c3e 40c2 61be
00000200: bd38 ea3b 1b72 033e 3c74 823d 3c5c 38bc
00000210: ea85 d23d 9407 ec3d c910 7dbe 737e f93b
00000220: 0cbf 0b3e f682 653e 1d62 313e f40c 683d
00000230: ddff 2d3e 9ca6 353e 6f03 c4bd 8a86 173d
00000240: 1598 63bd b619 fdbd 76fc 553e 80e7 263e
00000250: 0881 683e 76e1 d23d 2aed 38be a9ad b73b
00000260: 5d23 453d 40ba e03c d929 3dbe c82e 1bbd
00000270: 2313 28bd 1c31 5dbe 6de6 56be 8f87 503e
00000280: 865b 5cbe 0ed7 493d 89ca 103c 824b 8fbe
00000290: 2519 38be 6a2d 96bb ea4e 4abe f130 073d
000002a0: 6fe1 253e 8255 c4bd 4358 363d fc4f 66bc
000002b0: d7c9 533e b22d a2bb a913 d6bd 1381 9abc
000002c0: 46d9 d1bd dbc0 27be 10ce 7ebd 195e 6dbb
000002d0: 802d 8f3e 0103 21be 2055 833d 0b39 243e
000002e0: 5231 833e 5b09 4f3e 54fe 363e 966d 3bbe
000002f0: 1fd8 3a3e ae4e 33be 14b3 893d 6b09 513d
00000300: 8b86 c43d cc78 64bc 213c 7abc 35fa 22be
00000310: f749 503e 37cd 0abe c9f5 3dbe 09d9 803e
00000320: fff2 dabd a0c3 31be 5a32 46be e26e f1bd
00000330: 3004 143e 7d65 4dbe 38c7 4abe 6830 243e
00000340: 914b 63be af8b 1ebe 916d 07bd 4674 56be
00000350: 5d59 3f3e f8b8 fb3d 4e40 5c3e 7d8c 3abe
00000360: 06c1 42be 53dd 0cbe 11ba f03d b6f7 393e
00000370: 58cc 1abe 67c7 7c3d 6f7a 0b3e 1dba 5b3e
00000380: 569a 063e ad1d 3d3e 468d c9bd b6c5 103e
00000390: 16c2 57be aec4 2a3e 85ef 303b 5c3c 4bbe
000003a0: 449b 253d 0db6 613e 6b6e 073d 67cd 313e
000003b0: fdd9 833d fba1 1abe 5be8 9ebd 284b 323e
000003c0: 6563 433e 8681 db3d e5c3 973d ac6d b9bc
000003d0: 9e59 ff3d 70a1 5d3d 4f2c 29bd 666f 30be
000003e0: b199 aabc 3d0c 913d 50cf eb3d cb6e 2e3e
000003f0: 07bc dc3b cc30 cf3c 1b06 123e 9a9a 953d

lstm_p.weight_hh_l1 f4 [64, 16]
0.16662829 -0.17326376 0.25177732 -0.13549374 -0.05691618 -0.20577884 0.10391878 0.21553959
-0.103139915 0.13676724 0.00713749 0.22129561 -0.12103731 -0.02490854 0.15898922 -0.18246593
0.1057254 -0.25403753 0.2067215 0.09114974 0.033798113 -0.22844914 0.29516238 0.18399484
0.22034387 -0.21857847 0.22950456 0.03535768 0.16110384 -0.26693872 -0.16461769 0.019327579
0.13482176 -0.24273 0.16207998 0.12277373 -0.202466 0.2160443 -0.06640344 0.08217759
-0.17842531 -0.15006623 -0.051133998 -0.09427617 0.04353999 -0.08400082 -0.18567587 0.230853
-0.017077211 -0.21721488 0.22331117 0.19808008 -0.117374085 0.15865774 -0.13011384 -0.18092594
-0.26119235 -0.14178726 0.13222547 0.22989176 0.24055238 -0.040627997 -0.03139555 0.015303784
0.19785523 -0.2000795 -0.10902001 -0.019216215 -0.20816208 0.111084744 -0.17835873 -0.055176094
-0.15014228 -0.029347124 0.23469155 -0.11840711 -0.0829755 0.1100552 -0.010702529 0.0019476765
0.14677772 0.014395654 0.015193109 0.15593645 -0.239312 0.16701749 -0.06472834 0.23553734
-0.13456728 -0.26938722 0.057201803 0.16088262 0.096570306 -0.27034304 0.1576242 0.3019981
0.18101457 -0.17005706 -0.13446084 -0.2879099 -0.028766327 0.027745768 -0.23608235 0.04182666
-0.0030055875 0.1408021 0.20645463 0.060743 0.019428166 0.18797469 -0.026928265 -0.017295597
-0.1280972 0.064954996 -0.15209226 0.09705311 -0.20413342 0.013910216 -0.043528557 -0.16453531
0.2032086 0.19177099 0.16226095 0.17248423 -0.0074221 -0.14446265 -0.032702092 -0.14435515
-0.15229331 0.0023026208 -0.062509984 0.22414465 0.13363367 0.25305843 0.15218867 0.16691323
-0.16232023 0.16558933 0.21939367 0.054422162 0.10893823 -0.2513064 -0.037962183 0.23530221
-0.11694081 0.1739132 -0.107122585 -0.17180249 0.12227742 0.1353989 0.1254758 -0.09965091
0.14683132 -0.115962185 0.1459806 0.21790792 -0.1082295 0.1626023 0.13718766 0.07731822
-0.09738003 -0.06283019 0.15877931 0.08905608 0.015931519 -0.10264466 -0.015328033 0.25897887
0.19012918 -0.17158571 0.26141173 0.13615642 0.26387703 -0.07128959 0.10540734 -0.03678291
-0.15659878 -0.09847077 -0.124634236 0.03964776 -0.035941545 -0.21419105 -0.11918926 0.023464637
-0.15073878 -0.18484062 -0.2091176 0.10439096 0.1662678 -0.26953253 0.15895078 -0.16455507
-0.110834695 -0.15739256 -0.060643207 -0.14028674 0.014210043 0.029064486 -0.13322821 0.16338411
-0.08964503 -0.06989902 0.069189504 0.11666503 0.18395346 0.11203765 0.046290886 -0.023173297
-0.15666698 0.21714312 -0.023813266 0.20542866 0.119911104 0.14582773 -0.1280963 0.10586478
0.26255578 -0.20405175 0.1557524 -0.12759353 -0.15592737 -0.22027446 -0.2626878 -0.198901
-0.22168548 -0.040246274 -0.076221086 -0.034282506 0.18245257 0.18372501 -0.19351326 0.22313167
-0.05619327 -0.1273609 0.29013902 -0.24690568 -0.10322933 0.049824458 0.113394834 0.14762309
-0.2626064 -0.2140358 -0.109851256 0.121430665 0.11996999 -0.057249498 0.16442858 0.061683048
-0.28772828 -0.1236657 0.17969424 -0.104257524 0.15077591 0.01289617 -0.045049854 -0.14324225
00000000: 9ba0 2a3e 0e6c 31be f5e8 803e dfbe 0abe
00000010: f120 69bd b0b7 52be 5fd3 d43d 69b6 5c3e
00000020: 053b d3bd b60c 0c3e 9be1 e93b 519b 623e
00000030: 69e2 f7bd ff0c ccbc 12ce 223e 59d8 3abe
00000040: 8f86 d83d 3511 82be cdae 533e b7ac ba3d
00000050: e46f 0a3d 92ee 69be 861f 973e 2569 3c3e
00000060: d3a1 613e 09d3 5fbe 3e03 6b3e 37d3 103d
00000070: 68f8 243e 31ac 88be 8a91 28be df54 9e3c
00000080: b70e 0a3e 378e 78be 4bf8 253e cb70 fb3d
00000090: 3f53 4fbe b83a 5d3e 87fe 87bd b94c a83d
000000a0: 20b5 36be f6aa 19be e271 51bd dd13 c1bd
000000b0: fd56 323d 9f08 acbd d121 3ebe bb64 6c3e
000000c0: 82e5 8bbc 946d 5ebe afab 643e 81d5 4a3e
000000d0: d361 f0bd 2d77 223e 903c 05be a644 39be
000000e0: 01bb 85be ae30 11be 1d66 073e bf68 6b3e
000000f0: 5d53 763e 8b69 26bd 9f98 00bd b9bc 7a3c
00000100: 909a 4a3e a4e1 4cbe e245 dfbd 536b 9dbc
00000110: 7128 55be 6680 e33d aca3 36be 5400 62bd
00000120: e6be 19be 6169 f0bc fb52 703e 6d7f f2bd
00000130: 0fef a9bd 9f64 e13d a959 2fbc 2e49 ff3a
00000140: e64c 163e c0db 6b3c 85ec 783c cead 1f3e
00000150: 340e 75be a206 2b3e 4b90 84bd b330 713e
00000160: 01cc 09be 1fed 89be 704c 6a3d 6abe 243e
00000170: a7c6 c53d 676a 8abe 3d68 213e 7f9f 9a3e
00000180: e25b 393e 7023 2ebe 1ab0 09be ed68 93be
00000190: 5ca7 ebbc 184b e33c 92bf 71be 6f52 2b3d
000001a0: 64f9 44bb 6d2e 103e d868 533e a7cd 783d
000001b0: d127 9f3c 707c 403e aa98 dcbc 7faf 8dbc
000001c0: ea2b 03be 2007 853d 13be 1bbe c8c3 c63d
000001d0: 5a08 51be ade7 633c 004b 32bd f27b 28be
000001e0: ea15 503e 9d5f 443e bc27 263e b59f 303e
000001f0: 1635 f3bb 04ee 13be a1f2 05bd d6d1 13be
00000200: c7f2 1bbe 91e7 163b 3c05 80bd 2d86 653e
00000210: 44d7 083e e090 813e 59d7 1b3e 4deb 2a3e
00000220: 4637 26be 4090 293e bca8 603e c6e9 5e3d
00000230: 021b df3d 3cab 80be 3c7e 1bbd 10f3 703e
00000240: aa7e efbd 4d16 323e 1663 dbbd feec 2fbe
00000250: 956c fa3d 02a6 0a3e ba7c 003e c715 ccbd
00000260: f35a 163e 957d edbd f07b 153e 4123 5f3e
00000270: 6ea7 ddbd 3881 263e ec7a 0c3e 0459 9e3d
00000280: 2e6f c7bd 1dad 80bd 0b97 223e 0963 b63d
00000290: d182 823c 5d37 d2bd 6e22 7bbc e198 843e
000002a0: 39b1 423e 2ab4 2fbe c2d7 853e 976c 0b3e
000002b0: e41a 873e 4700 92bd cedf d73d ada9 16bd
000002c0: 6e5b 20be 0bab c9bd 3c40 ffbd b165 223d
000002d0: 7137 13bd e654 5bbe 8019 f4bd e938 c03c
000002e0: 445b 1abe dc46 3dbe ed22 56be edca d53d
000002f0: 1b42 2a3e 2b00 8abe fec3 223e 2081 28be
00000300: 4dfd e2bd 842b 21be 0365 78bd 54a7 0fbe
00000310: 3dd1 683c a518 ee3c fa6c 08be 2a4e 273e
00000320: d097 b7bd 3827 8fbd 3ab3 8d3d 13ee ee3d
00000330: 4c5e 3c3e ff73 e53d 839b 3d3d edd5 bdbc
00000340: 4f6d 20be c45a 5e3e 0a14 c3bc e45b 523e
00000350: f493 f53d dd53 153e ad2b 03be a2cf d83d
00000360: b66d 863e f1f2 50be 8f7d 1f3e e1a7 02be
00000370: 6dab 1fbe a18f 61be 047f 86be b4ac 4bbe
00000380: 8501 63be 47d9 24bd cd19 9cbd d06b 0cbd
00000390: d9d4 3a3e 6922 3c3e 5728 46be a17c 643e
000003a0: ea2a 66bd e56a 02be 1a8d 943e d8d4 7cbe
000003b0: e669 d3bd bb14 4c3d 8d3b e83d 822a 173e
000003c0: 5974 86be 332c 5bbe b2f9 e0bd a4b0 f83d
000003d0: d3b2 f53d 737e 6abd f75f 283e 5da7 7c3d
000003e0: 1f51 93be 7144 fdbd c401 383e f884 d5bd
000003f0: 0065 1a3e 754a 533c 3286 38bd 19ae 12be

lstm_p.bias_ih_l1 f4 [64]
-0.091965124 0.0019155996 0.031470712 -0.24822034 -0.26503173 0.0072053596 -0.1736779 0.18188027
0.032680865 0.04547801 -0.25251383 0.054464556 -0.039980896 -0.020239918 -0.22833116 -0.30156988
0.15194196 -0.16587491 0.041650143 -0.18957807 -0.20990868 0.059922032 0.028405711 -0.12517637
0.07966538 -0.16200612 -0.18274254 -0.0059225927 0.016827988 -0.18074144 -0.17767978 -0.19047652
-0.0751988 0.13134998 -0.22086957 0.16236448 0.028356517 -0.045443855 -0.13353959 -0.20582153
-0.10552901 0.11354865 -0.18838407 0.19385587 -0.16108759 0.16775614 -0.22666728 -0.18609327
-0.11617759 0.17887127 0.11130411 -0.1603369 0.050020568 -0.1811214 0.1814735 0.22921617
-0.024599787 0.15573977 -0.10146033 0.055477038 0.12746541 0.13478008 0.044110455 0.17990081
00000000: 3658 bcbd db14 fb3a 6fe7 003d 792d 7ebe
00000010: 3db2 87be f01a ec3b 9fd8 31be d23e 3a3e
00000020: 5fdc 053d 2647 3a3d 7e49 81be 3a16 5f3d
00000030: 02c3 23bd 2fce a5bc a5cf 69be 5e67 9abe
00000040: ac96 1b3e 1ddb 29be 5799 2a3d c120 42be
00000050: 4df2 56be ce70 753d 18b3 e83c 3c2e 00be
00000060: 9a27 a33d efe4 25be dc20 3bbe 4f12 c2bb
00000070: d9da 893c 4914 39be b0f1 35be 470c 43be
00000080: d401 9abd 9c80 063e a22b 62be e042 263e
00000090: ed4b e83c 5623 3abd 9abe 08be e1c2 52be
000000a0: 981f d8bd 328c e83d c1e7 40be 2782 463e
000000b0: 25f4 24be 44c8 2b3e 781b 68be 3c8f 3ebe
000000c0: 84ee edbd 082a 373e 69f3 e33d 5b2f 24be
000000d0: 5ee2 4c3d e377 39be 30d4 393e a5b7 6a3e
000000e0: 7e85 c9bc 3f7a 1f3e 6fca cfbd e43b 633d
000000f0: 4b86 023e ca03 0a3e 2aad 343d eb37 383e

lstm_p.bias_hh_l1 f4 [64]
0.05234648 0.15864056 0.11540051 0.0026334366 -0.0707659 0.13331805 0.17850499 0.20700106
0.035208344 0.12781397 -0.15559658 -0.18862149 0.03413882 -0.18473056 -0.15689355 0.090538636
-0.14323832 -0.17236583 -0.22901641 0.14578228 0.14712562 0.1269521 -0.08156582 -0.13159782
0.19605777 -0.17173444 0.19321859 0.01704007 -0.111013725 0.12066567 -0.1711554 -0.03075107
0.19398652 -0.05432208 0.06715955 0.15582174 -0.063207254 0.13186516 0.18481162 0.031086164
0.16719784 0.1985067 -0.1698068 0.08926245 0.0006629817 -0.070997864 0.19362476 0.07356496
-0.032300983 0.09405298 0.062205486 0.0065858983 0.08926661 -0.07670788 -0.24078518 0.09401714
-0.07484311 -0.13160507 -0.16192017 0.08930083 0.08782309 -0.1824559 -0.20363016 -0.09205236
00000000: 4369 563d ac72 223e 1a57 ec3d bc95 2c3b
00000010: b6ed 90bd 8784 083e 03ca 363e 16f8 533e
00000020: a036 103d aae1 023e b654 1fbe fe25 41be
00000030: 26d5 0b3d 022a 3dbe b4a8 20be 526c b93d
00000040: 11ad 12be ab80 30be 4783 6abe f347 153e
00000050: 19a8 163e bbff 013e fb0b a7bd 94c1 06be
00000060: 5ec3 483e 27db 2fbe 18db 453e 9e97 8b3c
00000070: 2a5b e3bd 901f f73d 5c43 2fbe abe9 fbbc
00000080: 67a4 463e d480 5ebd f28a 893d bc8f 1f3e
00000090: ce72 81bd a907 073e 423f 3d3e 69a8 fe3c
000000a0: e935 2b3e 5745 4b3e d5e1 2dbe 3bcf b63d
000000b0: f3cb 2d3a 5467 91bd 9245 463e 3aa9 963d
000000c0: 094e 04bd d99e c03d 2ecb 7e3d 85ce d73b
000000d0: 6ad1 b63d 0519 9dbd 6490 76be 0f8c c03d
000000e0: 5847 99bd 7bc3 06be 67ce 25be 5be3 b63d
000000f0: 98dc b33d b8d5 3abe 6d84 50be f385 bcbd

attention_p.attn_1.weight f4 [16, 16]
-0.23422652 0.21730655 0.2497043 -0.3556114 0.057776276 -0.0924089 -0.08398585 -0.43051943
-0.24844019 -0.07205069 0.047738574 0.3618729 0.333011 0.12639204 -0.10086113 -0.43179834
-0.28459844 0.36251473 0.18405683 -0.35691077 -0.2019478 -0.25838172 -0.25797668 0.20892024
-0.11223408 0.36567777 0.30413976 -0.1546569 -0.12707512 0.4139307 0.22519149 0.030277982
-0.0725183 -0.17841534 -0.047394536 -0.24727204 0.091089115 0.36680156 -0.013808025 0.23933868
0.36773372 0.2517449 -0.09479722 -0.435968 -0.19470982 0.025128031 -0.261985 -0.25779
0.41862783 -0.08631487 -0.26745918 0.38885677 -0.2547145 0.40621784 0.1705569 -0.35196388
0.34010908 0.30645996 -0.09117042 -0.38592133 -0.12046716 0.47957486 -0.08271072 -0.06596719
0.3348504 -0.30416974 -0.17637557 0.1465814 -0.3296268 0.2675584 0.17582193 0.13668375
-0.11190459 -0.31648368 0.09083503 0.3938634 0.12661655 -0.26493952 0.3769435 -0.23706312
-0.45415115 0.016707905 0.2820844 0.35232925 -0.12135779 -0.3257511 0.06691433 -0.12915859
-0.0651454 0.076943226 0.14337085 -0.24572185 0.1040902 0.08863659 -0.307428 0.10812618
0.34038106 -0.21426384 0.17758156 0.106952384 0.30940133 0.2535937 -0.24498756 -0.1100226
-0.1154696 -0.24705712 0.37344852 -0.07333002 -0.07018316 0.28215182 -0.17532966 -0.25852507
0.22423819 0.38947898 0.022346148 -0.2851167 0.00862387 0.4248536 -0.09943766 0.23511435
0.25983125 -0.01722961 -0.008621306 -0.017039498 -0.35130587 -0.16699678 0.271487 -0.29902354
-0.23826148 -0.3010729 0.41424918 -0.16060033 -0.24333833 0.3483517 0.21705243 -0.35600016
0.37395912 0.18347524 0.15897636 -0.08411606 0.16582943 -0.21660961 0.27411953 0.14234835
0.39552248 0.16536401 -0.039031908 0.23725343 -0.03944244 0.13970327 0.027576342 0.31202692
-0.25674567 0.030108338 -0.25525588 0.35174364 -0.20311432 0.29299927 0.22429737 -0.14632711
-0.03541331 0.22784105 -0.3150365 0.37154794 -0.12080558 -0.1335752 0.06820416 0.041530743
-0.37298286 -0.061052095 0.33525226 -0.23538479 0.32582662 -0.47491562 0.34851232 -0.29328585
-0.2572219 -0.12912385 -0.17208011 -0.05864272 -0.25382695 0.24709058 -0.11846848 0.36172146
0.4501992 -0.32174462 0.17001294 0.3727369 0.11588312 0.069332786 -0.27476388 0.39360073
0.108222455 0.28967324 -0.10789905 0.1272858 -0.23845017 -0.4133845 0.05560059 0.44672495
0.002245622 -0.4789486 0.028720537 0.1964719 -0.2789493 0.35833496 0.23340929 -0.1420845
0.13821302 0.22889502 0.29640824 -0.04419129 -0.08344146 0.20186912 0.1770754 -0.097035095
-0.01148159 -0.3644695 -0.33019257 0.3088006 -0.37116596 -0.32891798 -0.38383752 0.16123484
0.32183528 -0.009128772 0.36560106 0.45479524 -0.006843117 -0.36110443 -0.29651737 -0.04193173
-0.08277992 -0.25313357 -0.15848832 -0.041339647 -0.3240535 -0.29854253 0.33451745 -0.12210908
0.10139019 -0.1451947 -0.32640377 -0.030876746 0.29831854 0.4146431 -0.001925838 -0.31131548
-0.079062425 -0.15531911 -0.116634056 0.042382464 -0.15438789 -0.11301405 -0.263828 -0.12448467
00000000: 14d9 6fbe 9c85 5e3e 7cb2 7f3e b312 b6be
00000010: d1a6 6c3d e140 bdbd c600 acbd 0b6d dcbe
00000020: 1b67 7ebe 508f 93bd 8689 433d 6847 b93e
00000030: 6b80 aa3e ea6c 013e 4890 cebd ac14 ddbe
00000040: e3b6 91be 889b b93e 6579 3c3e 02bd b6be
00000050: 67cb 4ebe 9c4a 84be 8515 84be 30ef 553e
00000060: fbda e5bd 1e3a bb3e 35b8 9b3e 615e 1ebe
00000070: fb1f 02be baee d33e 9998 663e 8809 f83c
00000080: 7984 94bd 83b2 36be c620 42bd e234 7dbe
00000090: ee8c ba3d 6acd bb3e 0e3b 62bc 3315 753e
000000a0: 9847 bc3e b5e4 803e 0b25 c2bd 3337 dfbe
000000b0: 0362 47be 4dd9 cd3c e622 86be 0dfd 83be
000000c0: 6356 d63e dac5 b0bd 69f0 88be 3c18 c73e
000000d0: f069 82be c9fb cf3e 78a6 2e3e 9c34 b4be
000000e0: c722 ae3e 52e8 9c3e 8fb7 babd 7b97 c5be
000000f0: 7db7 f6bd d68a f53e 3d64 a9bd ce19 87bd
00000100: 8371 ab3e 23bc 9bbe cc9b 34be 6f19 163e
00000110: d8c4 a8be 6afd 883e aa0a 343e d3f6 0b3e
00000120: 3c2e e5bd 260a a2be b707 ba3d 77a8 c93e
00000130: c5a7 013e 27a6 87be bdfe c03e adc0 72be
00000140: 8086 e8be 04df 883c 5e6d 903e 8064 b43e
00000150: 6f8a f8bd d9c8 a6be 610a 893d 2642 04be
00000160: f46a 85bd 6994 9d3d cfcf 123e 829e 7bbe
00000170: 3e2d d53d 1a87 b53d 3467 9dbe 4271 dd3d
00000180: 6d46 ae3e fb67 5bbe f1d7 353e da09 db3d
00000190: da69 9e3e 09d7 813e 05de 7abe 8753 e1bd
000001a0: 537b ecbd 8bfc 7cbe a534 bf3e 0d2e 96bd
000001b0: 30bc 8fbd 3476 903e 9e89 33be 665d 84be
000001c0: b29e 653e ca69 c73e 450f b73c d1fa 91be
000001d0: 224b 0d3c 6986 d93e f9a5 cbbd d1c1 703e
000001e0: 9a08 853e 1c25 8dbc 6140 0dbc 6b96 8bbc
000001f0: 5dde b3be 3401 2bbe 5800 8b3e 9d19 99be
00000200: d1fa 73be 3a26 9abe 7818 d43e 6a74 24be
00000210: af2d 79be 275b b23e fe42 5e3e a745 b6be
00000220: 9277 bf3e efe0 3b3e b3ca 223e 0a45 acbd
00000230: 31cf 293e e9ce 5dbe 6559 8c3e c4c3 113e
00000240: ec81 ca3e 2f55 293e ecdf 1fbd 90f2 723e
00000250: 658e 21bd 600e 0f3e c8e7 e13c fec1 9f3e
00000260: 2b74 83be c3a5 f63c e6b0 82be be17 b43e
00000270: 33fd 4fbe 0004 963e 36ae 653e c6d6 15be
00000280: 8c0d 11bd 2a4f 693e 774c a1be 883b be3e
00000290: ea68 f7bd f0c7 08be 9fae 8b3d 241c 2a3d
000002a0: 9cf7 bebe c311 7abd 2fa6 ab3e b608 71be
000002b0: bfd2 a63e 2428 f3be 3570 b23e 9029 96be
000002c0: 97b2 83be 0b39 04be c535 30be 5933 70bd
000002d0: 9bf5 81be 5005 7d3e 9a9f f2bd 8e33 b93e
000002e0: 8280 e63e b6bb a4be df17 2e3e 5fd7 be3e
000002f0: 2154 ed3d 59fe 8d3d daad 8cbe 0986 c93e
00000300: bca3 dd3d 0d50 943e 2dfa dcbd 3557 023e
00000310: 482c 74be 22a7 d3be 72bd 633d 22b9 e43e
00000320: 492b 133b c038 f5be 5547 eb3c ee2f 493e
00000330: 71d2 8ebe ae77 b73e d802 6f3e 997e 11be
00000340: b787 0d3e 7563 6a3e d2c2 973e ed01 35bd
00000350: 5be3 aabd c7b6 4e3e 4153 353e 56ba c6bd
00000360: 471d 3cbc bf9b babe 000f a9be 1d1b 9e3e
00000370: 7709 bebe f067 a8be 5a86 c4be bf1a 253e
00000380: 98c7 a43e d890 15bc 1030 bb3e ecda e83e
00000390: 3a3c e0bb aee2 b8be 20d1 97be 9bc0 2bbd
000003a0: 8588 a9bd b99a 81be c34a 22be c353 29bd
000003b0: 57ea a5be 91da 98be df45 ab3e 5314 fabd
000003c0: a9a5 cf3d ebad 14be 651e a7be 3bf1 fcbc
000003d0: 35bd 983e 1a4c d43e 666c fcba be64 9fbe
000003e0: 7beb a1bd f90b 1fbe d6dd eebd 3c99 2d3d
000003f0: dc17 1ebe e973 e7bd 7714 87be d2f1 febd

attention_p.attn_1.bias f4 [16]
-0.025271373 -0.027633589 0.029001292 -0.036335297 -0.05996169 -0.019198406 0.051819198 -0.044979535
0.028357467 -0.045057867 0.05775916 -0.039506834 0.041915935 0.03213587 -0.02544425 -0.024706094
00000000: e905 cfbc d65f e2bc 1e94 ed3c 52d4 14bd
00000010: 649a 75bd fa45 9dbc 5e40 543d 763c 38bd
00000020: eb4d e83c 998e 38bd de94 6c3d ebd1 21bd
00000030: 0bb0 2b3d e7a0 033d 7670 d0bc 6f64 cabc

attention_p.attn_2.weight f4 [1, 16]
-0.47621334 -0.33995143 0.098841645 -0.19667956 -0.18734504 -0.012484516 0.36362135 -0.285261
0.23976843 -0.4241688 0.3538105 -0.1488783 0.26630986 0.39248687 -0.11669821 -0.3005977
00000000: 3cd2 f3be 1d0e aebe 7d6d ca3d 5e66 49be
00000010: 61d7 3fbe db8b 4cbc 942c ba3e bb0d 92be
00000020: db85 753e a72c d9be a626 b53e 8e73 18be
00000030: c459 883e 0af4 c83e 79ff eebd f1e7 99be

lstm_t.weight_ih_l0 f4 [64, 7]
-0.18486838 -0.07014243 -0.0051045134 -0.07387115 0.18165144 -0.19680332 0.19499372 0.05712508
0.21862277 0.055866454 -0.21968448 0.19940269 0.037530627 0.09862551 0.15348485 -0.07184278
0.017533815 -0.10210723 0.113446996 -0.016129363 0.052016836 -0.18991642 -0.09050997 -0.107153475
-0.15959646 0.18177286 -0.18764825 0.14878836 -0.25420913 0.21067834 -0.24600053 0.18189786
0.03791087 -0.047453165 -0.11653434 0.15004 0.058854155 0.10045189 0.04764946 0.015276942
0.17891234 0.07402007 0.21848059 -0.1810819 -0.037551217 -0.055697482 0.104830496 0.059202597
-0.15614818 0.12388534 -0.03830894 -0.18325746 0.23301913 -0.18081024 -0.11056352 0.22227699
-0.09318947 0.13248233 -0.08785045 -0.10684253 0.22470863 -0.2505643 0.04323908 -0.043549523
-0.15871598 0.03926408 -0.091948815 0.06438574 -0.13410646 -0.17850569 -0.24806787 0.11765706
0.09883128 -0.03719085 -0.17627563 0.0031828927 -0.20035145 0.09770986 0.00010756142 -0.11305057
0.11229675 -0.15750422 0.018677637 0.15510868 0.21814188 -0.0749347 -0.19364794 0.17747411
0.047702145 -0.22126673 -0.00092474034 0.010375693 -0.06880766 0.15840618 0.040338024 -0.14879614
-0.040080346 -0.0062169996 -0.12524252 -0.1272711 -0.032080982 -0.029369282 -0.16413811 0.20995547
0.25333467 -0.14976963 0.12189996 -0.19912298 0.050266497 0.23090851 0.031125253 -0.20853285
-0.006148785 -0.199739 -0.21089737 -0.07677393 -0.18793727 0.07377635 0.049705848 -0.23537482
-0.03132341 0.23120256 0.17037345 0.11602587 0.0720196 -0.20614643 0.22188823 0.20766798
-0.08632821 -0.22955434 -0.057898197 -0.024817934 0.14926758 0.13813218 -0.19978599 -0.13846628
0.030529022 0.17432262 -0.025900934 -0.25538647 0.111126475 -0.05915313 0.0665279 0.105344616
0.12428537 0.04224254 0.08861332 0.070241615 -0.096635155 0.055316545 0.15365376 -0.19645484
0.039634697 0.17658183 0.109771065 -0.11435103 0.07148402 -0.0033874323 0.211056 -0.12325204
0.11242098 0.01856885 0.022863535 -0.004928164 -0.21019179 0.095392056 -0.16275477 0.23867787
0.07491878 -0.13305049 0.18305537 0.16685116 0.22068162 0.11513673 0.05456866 -0.12699218
0.2219615 0.122514874 0.11832134 0.22136475 0.16654342 -0.13798179 0.2660762 0.1052782
-0.046067975 0.25068948 -0.08386137 -0.073180705 0.014736259 0.042528 0.22483201 -0.08539021
-0.2051175 0.114308044 -0.13941766 -0.18603249 -0.16024153 -0.16780682 -0.05547416 -0.15799929
0.17428166 -0.08900254 0.17139474 -0.15691173 0.14706974 0.017964676 -0.24891812 -0.1135706
0.22335626 0.21239138 0.19197306 0.19164973 0.048157856 -0.20499493 -0.08630932 -0.1965159
0.1252058 0.13797453 0.07894545 0.2033098 -0.045386553 0.119264044 -0.028198903 -0.06253874
-0.18312265 -0.14054076 0.04512841 -0.11251393 0.05520898 -0.09631343 -0.0067592235 -0.16940409
-0.19391453 0.10932491 0.18633375 -0.024588661 0.052133918 0.058580965 0.21306495 -0.033883475
0.23408277 0.012664307 0.15325238 -0.01596995 -0.09474773 0.0257264 -0.21153146 0.050127245
-0.05044736 0.08337887 -0.21986905 0.19816527 -0.06949424 -0.021297058 0.036261253 0.20993555
00000000: 234e 3dbe d6a6 8fbd c343 a7bb c249 97bd
00000010: d602 3a3e cf86 49be 6fac 473e fdfb 693d
00000020: a6de 5f3e 39d4 643d f8f4 60be 3830 4c3e
00000030: b7b9 193d 2cfc c93d 222b 1d3e 4f22 93bd
00000040: 13a3 8f3c 981d d1bd e656 e83d ba21 84bc
00000050: 9b0f 553d 7379 42be 4b5d b9bd 4873 dbbd
00000060: 416d 23be aa22 3a3e dd26 40be fa5b 183e
00000070: b327 82be 10bc 573e 90e7 7bbe 6f43 3a3e
00000080: 6e48 1b3d 405e 42bd 8ea9 eebd 16a4 193e
00000090: 0e11 713d b8b9 cd3d 152c 433d 244c 7a3c
000000a0: cc34 373e d697 973d 60b9 5f3e 896d 39be
000000b0: 4ecf 19bd 0b23 64bd 5fb1 d63d 6c7e 723d
000000c0: 4fe5 1fbe 99b7 fd3d d6e9 1cbd d8a7 3bbe
000000d0: 919c 6e3e 5226 39be 206f e2bd 949c 633e
000000e0: 1fda bebd 73a9 073e f0ea b3bd 42d0 dabd
000000f0: 051a 663e f749 80be 761b 313d fc60 32bd
00000100: 7186 22be 5fd3 203d a94f bcbd acdc 833d
00000110: 3453 09be 32ca 36be 8105 7ebe 2ff6 f03d
00000120: 0e68 ca3d 6f55 18bd 9981 34be 1498 503b
00000130: ee28 4dbe 1b1c c83d 9992 e138 0f87 e7bd
00000140: d7fb e53d c948 21be d801 993c cfd4 1e3e
00000150: 9660 5f3e 5d77 99bd a54b 46be c6bb 353e
00000160: 5363 433d bf93 62be 466a 72ba d0fe 293c
00000170: 08eb 8cbd 3b35 223e 7c39 253d 045e 18be
00000180: 4a2b 24bd f9b7 cbbb 933f 00be 5b53 02be
00000190: 5967 03bd d997 f0bc d213 28be 91fe 563e
000001a0: 15b5 813e 365d 19be b0a6 f93d e5e6 4bbe
000001b0: 3ee4 4d3d 4873 6c3e 63fa fe3c a389 55be
000001c0: bf7b c9bb 6188 4cbe 7bf5 57be a63b 9dbd
000001d0: a172 40be 0e18 973d 5c98 4b3d 1906 71be
000001e0: fa4c 00bd 5dc0 6c3e 6176 2e3e f99e ed3d
000001f0: 037f 933d 0d18 53be ab36 633e eaa6 543e
00000200: d8cc b0bd 4b10 6bbe a926 6dbd fb4e cbbc
00000210: 9ad9 183e 8672 0d3e b394 4cbe 1bca 0dbe
00000220: 0018 fa3c a181 323e 322e d4bc 04c2 82be
00000230: 4796 e33d 8d4a 72bd c83f 883d ebbe d73d
00000240: 5489 fe3d 8306 2d3d e67a b53d d6da 8f3d
00000250: a7e8 c5bd 9a93 623d 6957 1d3e 752b 49be
00000260: fe57 223d ded1 343e a7cf e03d df30 eabd
00000270: 3766 923d afff 5dbb 101f 583e 916b fcbd
00000280: f93c e63d b31d 983c 4f4c bb3c 707c a1bb
00000290: 843c 57be e95c c33d 30a9 26be f967 743e
000002a0: 046f 993d 633e 08be de72 3b3e 08db 2a3e
000002b0: 5dfa 613e cecc eb3d 6383 5f3d 3d0a 02be
000002c0: e049 633e 14e9 fa3d 7552 f23d 71ad 623e
000002d0: 5c8a 2a3e 194b 0dbe 243b 883e 199c d73d
000002e0: c6b1 3cbd 5f5a 803e 83bf abbd c4df 95bd
000002f0: 5a70 713c d731 2e3d 5d3a 663e 10e1 aebd
00000300: 520a 52be 561a ea3d 81c3 0ebe 4d7f 3ebe
00000310: 5b16 24be 8dd5 2bbe df38 63bd 91ca 21be
00000320: e476 323e f746 b6bd 1a82 2f3e 78ad 20be
00000330: 7399 163e a82a 933c 64e4 7ebe b497 e8bd
00000340: 81b7 643e 207d 593e 9694 443e d43f 443e
00000350: 2c41 453d 31ea 51be f1c2 b0bd 773b 49be
00000360: f335 003e 3249 0d3e 27ae a13d 7230 503e
00000370: 40e7 39bd b540 f43d 6301 e7bc 5014 80bd
00000380: 8184 3bbe ebe9 0fbe 91d8 383d b46d e6bd
00000390: d022 623d fa3f c5bd 7a7c ddbb 4478 2dbe
000003a0: 8891 46be bde5 df3d 46ce 3e3e 296e c9bc
000003b0: 608a 553d 98f2 6f3d b32d 5a3e 66c9 0abd
000003c0: 65b3 6f3e f47d 4f3c 31ee 1c3e 6ad3 82bc
000003d0: 190b c2bd 2cc0 d23c b49b 58be 3a52 4d3d
000003e0: e4a1 4ebd 8ac2 aa3d 5a25 61be d6eb 4a3e
000003f0: ff52 8ebd 2b77 aebc ae86 143d 58f9 563e
