Params/300_0.001_10_16_222_model.pt (torch, 45301 bytes, 31 tensors)

lstm_p.weight_ih_l0 f4 [64, 10]
-0.09841822 -0.105587386 -0.042432595 -0.008483417 0.22993803 -0.11776454 0.08527378 0.18350278
-0.06989556 -0.079710096 0.11401462 0.035355724 -0.0016747696 0.24518512 0.0059304917 -0.12221904
-0.0020190969 0.055420153 0.062023807 0.09644867 0.022162631 0.031046197 -0.20365986 0.17793798
-0.15358044 -0.09679276 0.07671974 -0.045696218 0.1593631 0.08931796 0.20758781 0.0646839
0.053582106 0.04150042 -0.16329226 0.0302112 0.08095308 -0.05697597 -0.13704866 -0.15303558
0.13843565 -0.1760884 0.240906 -0.028110817 0.0650478 0.16634546 0.18240541 0.07067862
-0.20423613 0.0015350354 -0.096126124 -0.20633441 -0.080732055 0.12720317 0.038413573 0.22874086
-0.13347597 0.12502365 0.20481487 -0.15630217 0.21149585 0.091924176 -0.025437187 -0.077424
-0.14931002 0.18934782 0.066190444 -0.03704346 0.21677005 -0.14768021 -0.12238584 -0.11098766
0.22544308 -0.19693175 0.013340128 -0.016728014 -0.03535002 -0.20967524 0.11941572 -0.034078557
-0.21743762 -0.022264205 -0.18462227 0.06906993 0.11301175 -0.11932892 0.2154357 0.03720701
-0.22205156 0.019582862 0.004495005 0.12941374 -0.2191337 0.033480253 -0.13996781 0.036181286
-0.18266189 0.025104025 -0.21440788 0.072777234 0.04436489 0.18721956 0.23610236 0.072702646
-0.09586415 -0.07789554 0.14003485 0.13488081 0.0055977223 -0.1604185 -0.1376093 0.041783832
0.09213426 0.1425029 0.14889558 0.18435714 -0.0002343316 0.15891747 0.08554593 0.24464977
0.15865673 0.02899109 0.10124047 -0.06769555 -0.20662925 0.08970759 0.23315391 0.11526727
0.0074089933 -0.21512358 -0.20375058 0.098597765 0.071320295 0.14569141 0.13757843 -0.0151389055
-0.2148144 0.103223905 -0.19553053 0.058882732 -0.003873146 0.14756705 0.24575983 0.004166562
0.13881826 0.028868098 0.14329746 -0.10207396 -0.21758631 -0.07615183 0.03743994 0.12516566
0.1732886 -0.007703947 0.0945142 0.004368515 0.22059403 0.08868321 0.018405171 -0.0084474245
0.071688615 -0.058227025 0.23153704 0.14109118 -0.07557997 0.10242515 -0.10775744 -0.20140885
-0.22019024 -0.22452796 -0.10491646 -0.10128593 -0.056179687 0.20803097 0.043734297 0.12351083
0.05215508 0.07958388 -0.018021543 0.0045530456 0.24529263 0.19903043 0.0005802564 0.078559145
0.14266324 0.1336516 0.15085 -0.07747996 0.10458739 0.017741214 0.085615695 -0.05845769
0.14452207 -0.17256236 0.13884267 0.06644061 0.12632142 -0.0032707872 -0.11921863 -0.007483486
0.12348117 0.05781115 -0.23128965 -0.20421293 0.24123253 -0.14931042 -0.05989538 -0.16175015
0.09281376 -0.2140039 0.1636786 -0.15538706 -0.24259467 -0.03179187 0.06281222 -0.10318872
0.1055053 -0.21553087 0.21881709 -0.2035001 0.050205547 -0.056574617 -0.096207626 0.19476531
0.1929572 0.18044473 -0.16875984 -0.19718711 -0.23482242 0.11038795 -0.017448116 -0.11847345
-0.1353245 0.12076072 -0.04536676 0.037412472 -0.20122021 0.229634 -0.061424848 0.10932601
-0.1969003 0.18866183 0.19671662 -0.13406554 -0.099184245 -0.15569797 0.23253518 0.14082621
0.104526415 0.108456075 -0.1944607 -0.114760645 -0.17713527 -0.08007449 -0.07278215 0.14458367
00000000: 7e8f c9bd 333e d8bd cdcd 2dbd 08fe 0abc
00000010: e074 6b3e 892e f1bd 05a4 ae3d 27e8 3b3e
00000020: 6725 8fbd 0c3f a3bd 7f80 e93d 2ad1 103d
00000030: f183 dbba cf11 7b3e 9254 c23b fa4d fabd
00000040: d352 04bb 3e00 633d ad0c 7e3d e186 c53d
00000050: 688e b53c 9854 fe3c 368c 50be 6035 363e
00000060: 3144 1dbe 483b c6bd 3d1f 9d3d f52b 3bbd
00000070: 1530 233e 56ec b63d e691 543e fe78 843d
00000080: e978 5b3d 58fc 293d 1636 27be 7a7d f73c
00000090: baca a53d a25f 69bd 7c56 0cbe 5cb5 1cbe
000000a0: 13c2 0d3e 8450 34be 10b0 763e a848 e6bc
000000b0: c837 853d 7756 2a3e 7cc8 3a3e f4bf 903d
000000c0: 4723 51be 3e33 c93a c6dd c4bd 5449 53be
000000d0: d956 a5bd 8c41 023e 8d57 1d3d 0b3b 6a3e
000000e0: edad 08be 3306 003e fdba 513e ad0d 20be
000000f0: 5e92 583e be42 bc3d a661 d0bc 7990 9ebd
00000100: bae4 18be 65e4 413e db8e 873d e2ba 17bd
00000110: f8f8 5d3e 7b39 17be 6da5 fabd 804d e3bd
00000120: 8dda 663e 7aa8 49be 8d90 5a3c 3009 89bc
00000130: 2fcb 10bd 1bb5 56be 3b90 f43d f595 0bbd
00000140: f8a7 5ebe 6c63 b6bc 9f0d 3dbe 8974 8d3d
00000150: b472 e73d b962 f4bd 2d9b 5c3e 6166 183d
00000160: 7c61 63be 3d6c a03c d64a 933b 0985 043e
00000170: 9664 60be 9722 093d b953 0fbe d432 143d
00000180: b80b 3bbe f5a6 cd3c bd8d 5bbe 3b0c 953d
00000190: f5b7 353d 7cb6 3f3e d1c4 713e 20e5 943d
000001a0: 6c54 c4bd b287 9fbd 4c65 0f3e 321e 0a3e
000001b0: 196d b73b bf44 24be 74e9 0cbe 8625 2b3d
000001c0: e3b0 bc3d 48ec 113e 1578 183e 1ec8 3c3e
000001d0: e9b6 75b9 43bb 223e b432 af3d 7885 7a3e
000001e0: e976 223e b97e ed3c 2a57 cf3d f7a3 8abd
000001f0: 9e96 53be 9db8 b73d e6bf 6e3e 3f11 ec3d
00000200: 24c7 f23b 5b49 5cbe fea3 50be a0ed c93d
00000210: 6010 923d 2130 153e 5ce1 0c3e 2c09 78bc
00000220: 4ef8 5bbe 0e67 d33d 2839 48be 052f 713d
00000230: 9bd4 7dbb d11b 173e 77a8 7b3e a887 883b
00000240: 6026 0e3e ca7c ec3c 92bc 123e 270c d1bd
00000250: f2ce 5ebe 7ef5 9bbd 9f5a 193d 6d2b 003e
00000260: 9172 313e 6471 fcbb a990 c13d c325 8f3b
00000270: 67e3 613e 8b9f b53d 71c6 963c 1167 0abc
00000280: 7bd1 923d 767f 6ebd 0c18 6d3e 357a 103e
00000290: acc9 9abd 47c4 d13d efaf dcbd 1f3e 4ebe
000002a0: 8d79 61be a8ea 65be 71de d6bd ff6e cfbd
000002b0: ac1c 66bd 1206 553e bc22 333d 3ff3 fc3d
000002c0: 91a0 553d e0fc a23d eaa1 93bc b731 953b
000002d0: fe2d 7b3e a2ce 4b3e 591c 183a 9ee3 a03d
000002e0: 5016 123e f7db 083e 6c78 1a3e d0ad 9ebd
000002f0: ea31 d63d 0656 913c 4857 af3d 5571 6fbd
00000300: 98fd 133e 30b4 30be c62c 0e3e 0412 883d
00000310: 675a 013e b45a 56bb e628 f4bd 0838 f5bb
00000320: b2e3 fc3d 62cb 6c3d 32d7 6cbe 321d 51be
00000330: a905 773e d5e4 18be dc54 75bd d5a1 25be
00000340: 2415 be3d d723 5bbe 5d9b 273e c91d 1fbe
00000350: bd6a 78be 3138 02bd b1a3 803d 9c54 d3bd
00000360: 2a13 d83d 20b4 5cbe 9611 603e 5562 50be
00000370: 55a4 4d3d c9ba 67bd 8108 c5bd 8f70 473e
00000380: 9296 453e 81c6 383e 61cf 2cbe 6beb 49be
00000390: 4a75 70be 1413 e23d 5aef 8ebc 35a2 f2bd
000003a0: 8192 0abe 6551 f73d 7fd2 39bd d23d 193d
000003b0: ac0c 4ebe 2d25 6b3e 9f98 7bbd 51e6 df3d
000003c0: 3ba0 49be 9130 413e 1570 493e 7a48 09be
000003d0: 1c21 cbbd 4a6f 1fbe b41d 6e3e bf34 103e
000003e0: f211 d63d 381e de3d b520 47be a107 ebbd
000003f0: f362 35be 18fe a3bd cf0e 95bd be0d 143e

lstm_p.weight_hh_l0 f4 [64, 16]
-0.023636373 0.001757887 -0.018187461 0.25648805 0.21608149 -0.16236506 0.050317526 0.03324052
0.1452011 -0.050636098 0.10661589 0.11321213 0.02178564 0.1948218 0.07081002 0.2066719
0.1820672 -0.23049253 -0.13167545 -0.030027077 0.15070361 -0.18263826 0.15428188 0.09986339
0.053931583 0.2092642 0.016246954 -0.18040276 0.11558819 -0.22474782 -0.2247797 0.08683464
0.20594183 -0.2350415 0.16679458 0.18617849 -0.1649567 -0.20415446 0.01075759 0.16058727
0.039601035 -0.16867541 -0.07088056 -0.024707388 0.2455876 -0.11683981 -0.18440923 -0.040112667
-0.13086084 -0.037176006 0.03149074 -0.10427948 0.11196961 -0.22158529 0.16037951 0.08577935
0.12627497 -0.064038865 0.08483115 0.10098972 0.02129954 -0.084990256 -0.08233022 0.1502854
0.21916167 -0.0030949335 -0.19906382 0.005748347 -0.23211116 0.11102849 -0.06918328 0.075091474
-0.122791976 0.133005 -0.16403775 0.17497543 0.1683428 0.21350804 0.09585246 -0.1516847
0.00011936141 0.16805787 -0.15773278 -0.17769392 0.078799255 -0.12510079 -0.22484182 0.15742134
0.1596676 -0.1533191 -0.10132158 0.031204995 -0.12711263 -0.22483861 0.10638865 0.07686316
-0.20496167 -0.0038304387 0.015607273 -0.12695284 0.21388155 0.077995986 0.25104833 0.0060617668
-0.13341132 -0.0056073694 -0.20162936 0.041163467 -0.22033398 0.20605461 -0.04863854 0.12373894
0.17851749 -0.20305304 0.23035999 -0.20908935 0.23219232 -0.061517023 0.078752436 0.077044524
0.25113994 0.19559853 0.1629741 0.048161063 -0.09654309 0.012392736 0.0062790522 0.16978426
-0.18132173 0.1694664 0.13922909 0.26596922 0.05083204 0.21736588 -0.18111458 -0.19259651
0.029247692 0.103402734 0.16763446 -0.20977308 -0.047055673 -0.15894888 -0.007280996 0.008717714
-0.18790644 -0.025003996 -0.1619096 -0.09637306 0.03611085 0.17391531 0.031399835 -0.13437779
-0.16188625 -0.064211875 0.038529307 -0.16108373 0.23401944 0.11798325 0.21408804 0.039633367
-0.16529347 0.16883747 -0.1454885 0.21724667 0.04175953 0.1780589 -0.24755526 -0.10047468
0.13117786 -0.1505505 0.19869979 -0.0033940445 -0.20451902 0.10679034 0.030035317 -0.095772155
-0.07605717 0.0011453569 -0.07921666 0.23060614 -0.19650666 0.007649405 -0.14528273 -0.026547033
-0.12015458 0.24739185 -0.13175103 0.20711651 -0.022797143 -0.0005859057 -0.062809594 -0.011282517
-0.062481005 -0.100153804 -0.18623933 -0.058263645 -0.14747234 0.044983644 -0.027798517 -0.15758999
-0.24360606 -0.12973249 0.19173501 0.096286766 0.14380689 -0.06597 0.18038902 0.19799256
-0.123689316 -0.12850727 0.1312608 0.13062373 -0.07517103 0.100835495 0.10161518 -0.10534225
-0.19175263 -0.06272389 -0.17425126 0.21550682 0.13494502 0.23615783 0.1666103 0.08766511
0.014058994 0.19299231 0.09462092 0.0350028 0.16032757 0.1830641 -0.1035694 -0.06575339
-0.060216837 -0.20129551 -0.175794 -0.21684846 0.02745627 -0.045697093 0.116145976 0.059784397
-0.14038783 0.05400217 -0.21456969 0.10571019 0.15489778 -0.16923666 0.014077259 0.0066184183
0.048119325 0.17881522 -0.17210707 -0.1611737 0.03257297 -0.20537011 -0.13683139 0.08423114
00000000: 11a1 c1bc e668 e63a dffd 94bc 6752 833e
00000010: 7744 5d3e 0743 26be c019 4e3d 3627 083d
00000020: 99af 143e cc67 4fbd 6f59 da3d c3db e73d
00000030: cc77 b23c 5e7f 473e d804 913d cca1 533e
00000040: d36f 3a3e 3c06 6cbe eed5 06be 58fb f5bc
00000050: 0c52 1a3e 8605 3bbe 12fc 1d3e 2d85 cc3d
00000060: 5de7 5c3d 5b49 563e 5518 853c 80bb 38be
00000070: 80b9 ec3d 4b24 66be a62c 66be 5cd6 b13d
00000080: 6ae2 523e b8ae 70be 33cc 2a3e 93a5 3e3e
00000090: 69ea 28be de0d 51be 9a40 303c fd70 243e
000000a0: b234 223d 3fb9 2cbe d429 91bd 2667 cabc
000000b0: 517b 7b3e b649 efbd c6d5 3cbe 2e4d 24bd
000000c0: 6200 06be de45 18bd 6ffc 003d 7b90 d5bd
000000d0: 5350 e53d 41e7 62be 873a 243e 15ad af3d
000000e0: 3a4e 013e cf26 83bd f4bb ad3d b3d3 ce3d
000000f0: 5f7c ae3c 5f0f aebd bf9c a8bd 6ae4 193e
00000100: eb6b 603e 5ed4 4abb 63d7 4bbe a15c bc3b
00000110: 8cae 6dbe e862 e33d f7af 8dbd 8fc9 993d
00000120: 5c7a fbbd 7632 083e 83f9 27be c22c 333e
00000130: 0e62 2c3e daa1 5a3e 4b4e c43d 3c53 1bbe
00000140: ab51 fa38 5d17 2c3e b484 21be 65f5 35be
00000150: 8161 a13d 6c1a 00be ef3c 66be 0f33 213e
00000160: e77f 233e afff 1cbe b081 cfbd 9ea1 ff3c
00000170: d029 02be 183c 66be 4be2 d93d 6f6a 9d3d
00000180: 79e1 51be 1908 7bbb a6b5 7f3c edff 01be
00000190: c403 5b3e 5cbc 9f3d 6889 803e c9a1 c63b
000001a0: fa9c 08be 06be b7bb ed77 4ebe 069b 283d
000001b0: 3b9f 61be fbff 523e 3539 47bd d76a fd3d
000001c0: 4acd 363e 23ed 4fbe 7de3 6b3e 851b 56be
000001d0: d3c3 6d3e 46f9 7bbd f548 a13d 85c9 9d3d
000001e0: 6a95 803e fb4a 483e afe2 263e 8944 453d
000001f0: 62b8 c5bd e70a 4b3c 82c0 cd3b eddb 2d3e
00000200: 67ac 39be 9a88 2d3e 1292 0e3e 1e2d 883e
00000210: 4235 503d 2995 5e3e 1a76 39be 0538 45be
00000220: db98 ef3c d0c4 d33d 5ea8 2b3e c1ce 56be
00000230: 73bd 40bd 7fc3 22be 6c95 eebb bed4 0e3c
00000240: 8c6a 40be 2ed5 ccbc a1cb 25be 3d5f c5bd
00000250: f8e8 133d db16 323e 1d9d 003d 559a 09be
00000260: 82c5 25be 8481 83bd e8d0 1d3d 22f3 24be
00000270: cba2 6f3e 34a1 f13d e539 5b3e 9956 223d
00000280: b142 29be bbe3 2c3e f0fa 14be e975 5e3e
00000290: 0a0c 2b3d 1355 363e 207f 7dbe abc5 cdbd
000002a0: 7d53 063e e929 1abe f577 4b3e 9e6e 5ebb
000002b0: 6f6d 51be e5b4 da3d a00c f63c 3124 c4bd
000002c0: ddc3 9bbd cd1f 963a 583c a2bd 0424 6c3e
000002d0: 0b39 49be dca7 fa3b ffc4 14be 2a79 d9bc
000002e0: 9b13 f6bd 4a54 7d3e bee9 06be 5a16 543e
000002f0: 13c1 babc 7797 19ba 51a2 80bd 4eda 38bc
00000300: 15ec 7fbd 701d cdbd 86b5 3ebe dca5 6ebd
00000310: fd02 17be c540 383d b7b9 e3bc 455f 21be
00000320: de73 79be 98d8 04be 2f56 443e ff31 c53d
00000330: 1d42 133e 481b 87bd e6b7 383e 90be 4a3e
00000340: d350 fdbd 6997 03be 3b69 063e 3ac2 053e
00000350: 45f3 99bd d782 ce3d 9f1b d03d adbd d7bd
00000360: cd5a 44be 6275 80bd ec6e 32be d2ad 5c3e
00000370: 072f 0a3e 5cd3 713e e49b 2a3e c489 b33d
00000380: b257 663c c79f 453e 9dc8 c13d 195f 0f3d
00000390: e92c 243e 2875 3b3e 321c d4bd b7a9 86bd
000003a0: eea5 76bd 6920 4ebe 5803 34be 860d 5ebe
000003b0: f9eb e03c e02c 3bbd f1dd ed3d 7ce0 743d
000003c0: d4c1 0fbe 6131 5d3d 28b8 5bbe 967e d83d
000003d0: 869d 1e3e 604c 2dbe 4ea4 663c 51df d83b
000003e0: c518 453d 561b 373e d63c 30be b80a 25be
000003f0: 3c6b 053d 8b4c 52be 871d 0cbe 6081 ac3d

lstm_p.bias_ih_l0 f4 [64]
-0.012985898 -0.2000869 -0.18157178 -0.10035744 0.14281756 -0.048606314 0.0018999937 -0.19030634
0.19240816 -0.25565135 0.104339555 0.06636988 0.24454455 -0.15375242 0.14432004 0.12953204
-0.1486565 0.20238389 -0.157199 -0.18234046 -0.21555662 0.20304586 0.060308438 0.0021172285
0.011022807 0.17725109 -0.025000969 0.0413261 -0.123546764 -0.18563496 -0.22266853 0.1343383
-0.092251055 -0.12641962 0.16564375 0.22525884 0.015714051 -0.07864098 -0.23271085 -0.21969308
0.12248397 -0.15352592 -0.21422178 -0.2120536 -0.062202062 0.12699881 0.16386607 -0.06334507
0.20718087 0.21384539 0.12582542 0.22259298 -0.24995719 0.07648247 -0.2048829 -0.0068512056
0.064662285 0.07251238 -0.031326633 0.058605958 -0.13394028 0.16996239 -0.08897693 -0.15301558
00000000: cec2 54bc 95e3 4cbe f4ed 39be 3488 cdbd
00000010: c43e 123e 6a17 47bd 3609 f93a aadf 42be
00000020: a506 453e bce4 82be faaf d53d efec 873d
00000030: e369 7a3e 4671 1dbe a2c8 133e 0ca4 043e
00000040: 6939 18be b93d 4f3e c6f8 20be 75b7 3abe
00000050: e0ba 5cbe 41eb 4f3e fb05 773d 33c1 0a3b
00000060: 0199 343c 4f81 353e d5ce ccbc 8e45 293d
00000070: 1606 fdbd 1717 3ebe 3803 64be fb8f 093e
00000080: 1fee bcbd 2574 01be 849e 293e 41aa 663e
00000090: c1ba 803c 860e a1bd c14b 6ebe 39f7 60be
000000a0: e0d8 fa3d e635 1dbe f45c 5bbe 9424 59be
000000b0: 97c7 7ebd fa0b 023e 82cc 273e 0fbb 81bd
000000c0: 3927 543e 49fa 5a3e 61d8 003e 6aef 633e
000000d0: c7f4 7fbe d7a2 9c3d d3cc 51be 1480 e0bb
000000e0: a96d 843d 5f81 943d 5b50 00bd cd0c 703d
000000f0: a427 09be 9f0a 2e3e 8939 b6bd 1eb0 1cbe

lstm_p.bias_hh_l0 f4 [64]
-0.23612608 -0.011921695 -0.09186865 0.07356855 -0.020863285 0.06537035 -0.19247217 0.22974029
-0.007799616 -0.19972828 0.18998109 0.026766447 -0.0011778834 -0.12934601 -0.06580411 0.045500185
0.12707147 -0.23781855 0.04690615 0.049929332 0.13077304 0.092240736 0.06351205 0.20810434
-0.07114461 0.027939655 -0.08258137 0.05395987 -0.103586785 0.08362382 0.036652118 0.010788195
-0.22941828 0.16808175 -0.23591766 0.05466252 -0.14806964 -0.16108961 -0.008789851 -0.16874672
-0.12128383 -0.15537265 0.17038813 -0.09793252 0.08581949 -0.03419479 -0.20002785 0.120526254
-0.11527079 0.14593612 -0.20295496 -0.26026827 0.072068825 -0.04594513 -0.15502228 0.23904863
0.23725577 -0.24642314 0.20162615 0.13753298 -0.06401874 -0.09914002 0.085160725 -0.051853023
00000000: 09cb 71be 3753 43bc a125 bcbd 1cab 963d
00000010: 7be9 aabc e4e0 853d 6d17 45be 0a41 6b3e
00000020: ec93 ffbb 9285 4cbe 678a 423e 4f45 db3c
00000030: 3563 9aba 4873 04be 4ec4 86bd 675e 3a3d
00000040: 061f 023e b586 73be aa20 403d b382 4c3d
00000050: 5ee9 053e b6e8 bc3d 9b12 823d 4e19 553e
00000060: 44b4 91bd b4e1 e43c 6c20 a9bd 0605 5d3d
00000070: 4f25 d4bd f742 ab3d 8820 163d f8c0 303c
00000080: a0ec 6abe 9f1d 2c3e 6694 71be cee5 5f3d
00000090: 919f 17be adf4 24be 4f03 10bc f1cb 2cbe
000000a0: a863 f8bd 021a 1fbe 3a7a 2e3e d890 c8bd
000000b0: 21c2 af3d d60f 0cbd 1ad4 4cbe 78d6 f63d
000000c0: 1813 ecbd 4770 153e 6dd3 4fbe e241 85be
000000d0: d298 933d f630 3cbd 29be 1ebe 2ac9 743e
000000e0: 2df3 723e 5956 7cbe 1677 4e3e 72d5 0c3e
000000f0: 421c 83bd ec09 cbbd bf68 ae3d d663 54bd

lstm_p.weight_ih_l1 f4 [64, 16]
-0.06098285 0.069678284 0.22781025 0.026760086 -0.16905515 0.095352635 0.20098278 0.2230681
0.21034496 -0.10865889 -0.14714219 0.13433029 0.0898417 0.1967868 -0.102624014 -0.104504436
-0.05671392 0.17901093 0.09071033 0.2527348 -0.1297426 -0.079396635 0.12095052 -0.05923188
0.19517268 -0.062884144 0.16051129 0.16263708 0.04896183 -0.05950929 -0.16303575 -0.13210954
-0.13547896 -0.1806885 0.17988305 0.100664556 -0.09969173 0.20453358 0.015998608 -0.009971503
0.16157895 0.23770908 0.16315536 -0.10682107 -0.23241942 -0.11637812 -0.054466136 0.11958498
0.15175208 -0.23235708 0.20445198 0.22427198 -0.07341901 0.21172047 0.14253052 -0.15478104
-0.08667542 -0.18907341 0.22797184 0.17718364 0.1709625 0.12811793 0.16743416 0.16757551
-0.05516606 -0.08614357 0.18741149 -0.1009395 0.12606783 -0.09663617 -0.19566059 -0.19548284
0.230136 0.22475617 -0.21549743 0.012428226 0.21635278 -0.15453248 0.011068527 0.12812452
0.14410986 -0.089581504 -0.059974108 0.06650712 0.041973643 -0.052722625 0.19809872 -0.13999228
-0.11909885 0.20920844 -0.01787387 -0.012152681 0.13395154 0.1049156 -0.014367945 0.106081635
0.12491236 -0.09072549 0.15467733 0.15487108 -0.23946632 -0.14567408 0.20263647 0.018711206
0.13901678 0.102555454 -0.08588993 -0.08689831 -0.2108197 -0.16398273 0.22811338 -0.21956956
0.13279235 0.12632284 0.21359603 -0.26383054 0.11064724 0.11102404 0.18525732 0.2306432
0.12669279 0.072959214 -0.036678087 -0.22341485 0.08982813 -0.10484735 0.14225039 -0.20643136
-0.034303676 0.15053721 0.04021143 -0.021765413 0.077545986 0.0761699 -0.22283055 -0.015201694
0.107299134 0.19576971 0.13085774 0.04316137 0.19439517 0.16568425 -0.06639617 0.026674785
-0.076954626 -0.109831735 0.19517805 0.12582779 0.22053038 0.08527137 -0.1419421 -0.0017337435
0.03170564 0.022427844 -0.2152857 -0.04346941 -0.034117308 -0.2120806 -0.19291218 0.19470647
-0.2167128 0.052208323 0.0023017686 -0.23852497 -0.19438548 -0.009679556 -0.22994822 0.02275187
0.15788217 -0.11129987 0.04966146 -0.020803766 0.22260895 -0.019622905 -0.10037409 -0.011749353
-0.12142035 -0.1409016 -0.08785203 0.013083791 0.2492153 -0.1800276 0.04969541 0.13426957
0.23331861 0.17342415 0.16490705 -0.20547827 0.21234022 -0.20116499 0.08351087 0.053587407
0.10302577 -0.0059733875 -0.023024825 -0.12962979 0.19515057 -0.13080958 -0.20778365 0.24187511
-0.10947052 -0.18082008 -0.16058189 -0.13226241 0.15272124 -0.21534932 -0.21967344 0.17950603
-0.21125041 -0.16410519 -0.021664312 -0.20943667 0.19228046 0.13427787 0.22975837 -0.16718228
-0.1770175 -0.11712691 0.12171991 0.19447216 -0.1720913 0.09649672 0.13352029 0.2225332
0.10198188 0.21762168 -0.13273403 0.12448239 -0.23229423 0.13959672 0.013794093 -0.22640818
0.010112005 0.19648053 0.0021760722 0.1429464 0.090546735 -0.17559113 -0.08929236 0.19507909
0.13759029 0.14778914 0.033297062 -0.01227753 0.0804637 -0.0030453973 -0.046417013 -0.21647915
-0.06451966 0.022876278 0.06442748 0.13383111 0.050130032 -0.015493017 0.1549448 0.090823784
00000000: 27c9 79bd 7db3 8e3d 1747 693e f837 db3c
00000010: cb1c 2dbe 3e48 c33d 6ece 4d3e f76b 643e
00000020: ab64 573e 8d88 debd 71ac 16be e18d 093e
00000030: edfe b73d 7b82 493e 8a2c d2bd 6c06 d6bd
00000040: db4c 68bd a44e 373e 56c6 b93d 7566 813e
00000050: 3edb 04be b49a a2bd e8b4 f73d 219d 72bd
00000060: 59db 473e 67c9 80bd 125d 243e 568a 263e
00000070: 338c 483d 03c0 73bd d8f2 26be b947 07be
00000080: ffba 0abe 6806 39be 4333 383e 3829 ce3d
00000090: 2e2b ccbd 4071 513e 830f 833c 845f 23bc
000000a0: f474 253e 026a 733e 3312 273e 01c5 dabd
000000b0: 5bff 6dbe a757 eebd e217 5fbd f8e8 f43d
000000c0: e664 1b3e 04ef 6dbe dc5b 513e 8ea7 653e
000000d0: b55c 96bd 40cd 583e 85f3 113e ec7e 1ebe
000000e0: e282 b1bd 769c 41be 7371 693e a16f 353e
000000f0: cb10 2f3e 5931 033e dc73 2b3e ea98 2b3e
00000100: cef5 61bd 0a6c b0bd cce8 3f3e 5eb9 cebd
00000110: ed17 013e 2fe9 c5bd 405b 48be a72c 48be
00000120: c6a8 6b3e 7b26 663e 5cab 5cbe c29f 4b3c
00000130: 958b 5d3e c33d 1ebe c458 353c 1333 033e
00000140: 8991 133e 8276 b7bd 69a7 75bd e334 883d
00000150: 8eec 2b3d aef3 57bd 64da 4a3e 235a 0fbe
00000160: 19ea f3bd bd3a 563e 396c 92bc 0a1c 47bc
00000170: 982a 093e fddd d63d 8767 6bbc 5441 d93d
00000180: 0dd2 ff3d 49ce b9bd bc63 1e3e 8696 1e3e
00000190: a936 75be 962b 15be ef7f 4f3e 3e48 993c
000001a0: 6a5a 0e3e 9808 d23d 0fe7 afbd bef7 b1bd
000001b0: 1fe1 57be 17eb 27be 8e96 693e d8d6 60be
000001c0: b8fa 073e c65a 013e ebb8 5a3e cc14 87be
000001d0: 059b e23d 9260 e33d 18b4 3d3e bb2d 6c3e
000001e0: c1bb 013e a46b 953d c33b 16bd ddc6 64be
000001f0: d0f7 b73d 35ba d6bd 16aa 113e be62 53be
00000200: 0382 0cbd 6d26 1a3e beb4 243d 614d b2bc
00000210: 6ed0 9e3d f7fe 9b3d b12d 64be 8710 79bc
00000220: a6bf db3d db77 483e 92ff 053e fac9 303d
00000230: 870f 473e 22a9 293e b7fa 87bd 1485 da3c
00000240: 639a 9dbd 76ef e0bd c1dc 473e 00d9 003e
00000250: b7d2 613e c2a2 ae3d 4559 11be c73e e3ba
00000260: c6dd 013d 99ba b73c db73 5cbe fb0c 32bd
00000270: 97be 0bbd a82b 59be c58a 45be 2261 473e
00000280: f6e9 5dbe 65d8 553d 45d9 163b e43f 74be
00000290: fd0c 47be 0097 1ebc 8c77 6bbe 2162 ba3c
000002a0: ddab 213e 30f1 e3bd d169 4b3d a96c aabc
000002b0: 9af3 633e 37c0 a0bc ee90 cdbd 5c80 40bc
000002c0: 3cab f8bd 8248 10be c4eb b3bd 665d 563c
000002d0: 4c32 7f3e 2859 38be 6a8d 4b3d f67d 093e
000002e0: 13eb 6e3e 1a96 313e 65dd 283e e568 52be
000002f0: b76f 593e 32fe 4dbe bf07 ab3d 787e 5b3d
00000300: 2dff d23d 68bc c3bb 8f9e bcbc acbd 04be
00000310: 8dd5 473e f2f2 05be 3dc5 54be 1cae 773e
00000320: 1432 e0bd e628 39be 946f 24be cc6f 07be
00000330: f562 1c3e 8884 5cbe 13f2 60be 6ed0 373e
00000340: 0752 58be 310b 28be 5b79 b1bc 9176 56be
00000350: 2be5 443e 2380 093e c745 6b3e d531 2bbe
00000360: 1344 35be 3ce0 efbd 4a48 f93d b623 473e
00000370: b438 30be 13a0 c53d 8bb9 083e bedf 633e
00000380: e0db d03d 38d8 5e3e 6eeb 07be a0f0 fe3d
00000390: 8ade 6dbe 71f2 0e3e 9f00 623c 8cd7 67be
000003a0: d3ac 253c 3132 493e 6f9c 0e3b 8b60 123e
000003b0: 9170 b93d 29ce 33be eade b6bd d0c2 473e
000003c0: 78e4 0c3e 0956 173e 8062 083d b127 49bc
000003d0: 27ca a43d 4a95 47bb c41f 3ebd b6ac 5dbe
000003e0: e222 84bd 0867 bb3c 8ef2 833d 060b 093e
000003f0: 2655 4d3d 6cd6 7dbc daa9 1e3e d201 ba3d

lstm_p.weight_hh_l1 f4 [64, 16]
0.18746796 -0.15025365 0.22761162 -0.11566522 -0.04534997 -0.19271028 0.0688969 0.19883116
-0.08390318 0.15699084 -0.012541088 0.24027541 -0.1422587 0.00504338 0.1891441 -0.19802286
0.1172507 -0.24309726 0.19334765 0.09354105 0.0519641 -0.23404999 0.25858793 0.1839711
0.22991504 -0.21318021 0.22603035 0.037856035 0.156676 -0.24725072 -0.13282587 0.018867595
0.15468648 -0.22510438 0.14414537 0.13373853 -0.1903761 0.22154742 -0.102115884 0.07280377
-0.16127707 -0.13660242 -0.062911354 -0.083123505 0.031593744 -0.06385198 -0.1542122 0.22030503
-0.0045765736 -0.20596063 0.2164117 0.21225697 -0.13589981 0.17589426 -0.10517489 -0.19732508
-0.25123662 -0.12816885 0.1178604 0.24413434 0.22556147 -0.034491807 -0.050776526 0.00029608692
0.22136652 -0.17818202 -0.12833662 0.0021213193 -0.23031873 0.13564917 -0.16073485 -0.07765283
-0.12909828 -0.0076955324 0.21327999 -0.097019784 -0.1045388 0.12041307 -0.02783366 -0.020605756
0.19908822 0.07527589 -0.04596821 0.2197498 -0.24768639 0.20863955 -0.07875106 0.17321405
-0.07633434 -0.20679197 -0.006337516 0.22447842 0.03214062 -0.2003904 0.16701925 0.24399152
0.21215503 -0.13975269 -0.16373579 -0.25651306 -0.04344874 0.056900088 -0.25269616 0.010424407
0.025487939 0.17179456 0.17490326 0.09187047 -0.012940877 0.21923529 -0.01769013 -0.04796242
-0.123387635 0.06834303 -0.1506428 0.106704764 -0.22333054 0.028899916 -0.012659149 -0.17664298
0.20580855 0.1996108 0.15303136 0.18204668 -0.016891807 -0.15365312 -0.05676328 -0.15532687
-0.13281563 0.030179674 -0.096353374 0.24906324 0.16440767 0.24769716 0.119915865 0.14669178
-0.13153252 0.19206531 0.19392961 0.08032147 0.08595094 -0.21874562 -0.008759755 0.21469429
-0.10444097 0.18902871 -0.12597507 -0.16559982 0.14333752 0.1287379 0.08970994 -0.1032642
0.16205089 -0.10608762 0.13837741 0.22483586 -0.11613615 0.19417647 0.1682247 0.07380352
-0.09746628 -0.058530528 0.1553723 0.10080689 0.0027432693 -0.09379621 0.021193122 0.24635394
0.19608228 -0.16198191 0.24993625 0.14824304 0.2537432 -0.06937192 0.075144544 -0.04788947
-0.13990504 -0.07533571 -0.14673899 0.0664948 -0.039430644 -0.20284015 -0.08647792 -0.003407124
-0.12653449 -0.15890902 -0.23613611 0.13165726 0.14029093 -0.24915177 0.13665316 -0.18984741
-0.100439705 -0.15280803 -0.05806252 -0.1310865 -0.00837203 0.048390385 -0.108337685 0.15147774
-0.08995989 -0.06258014 0.060541943 0.124944665 0.17350943 0.103397734 0.02614762 -0.034061078
-0.15505777 0.20729622 -0.011230831 0.18995334 0.112999626 0.15830022 -0.1670795 0.12228798
0.24467507 -0.21885619 0.17030844 -0.1447993 -0.14472362 -0.22205819 -0.2499246 -0.17609408
-0.18938383 -0.009029111 -0.10573894 -0.007218892 0.16848268 0.20545267 -0.19835341 0.1953815
-0.026491618 -0.09840714 0.2615883 -0.21950078 -0.13267694 0.091120824 0.11224821 0.12140935
-0.22370365 -0.1696073 -0.15789361 0.16725744 0.109682925 -0.032803703 0.1687362 0.018918797
-0.23865663 -0.07815071 0.13360725 -0.057701115 0.108531505 0.04902091 -0.05760447 -0.18813257
00000000: 9af7 3f3e 18dc 19be 0513 693e e3e1 ecbd
00000010: e4c0 39bd d855 45be d119 8d3d 659a 4b3e
00000020: 6ed5 abbd 35c2 203e 2379 4dbc c20a 763e
00000030: 44ac 11be f042 a53b feae 413e 81c6 4abe
00000040: 2321 f03d 7dee 78be edfc 453e 7392 bf3d
00000050: 4fd8 543d cdaa 6fbe a365 843e ec62 3c3e
00000060: d96e 6b3e ea4b 5abe 8074 673e ee0e 1b3d
00000070: ac6f 203e 4b2f 7dbe 8103 08be 3790 9a3c
00000080: 2266 1e3e c381 66be d89a 133e c1f2 083e
00000090: f4f1 42be 54dd 623e 2222 d1bd 251a 953d
000000a0: d125 25be 81e1 0bbe abd7 80bd a83c aabd
000000b0: 7168 013d d4c4 82bd cee9 1dbe a497 613e
000000c0: 15f7 95bb 58e7 52be 079b 5d3e e459 593e
000000d0: 5229 0bbe a01d 343e ef65 d7bd 960f 4abe
000000e0: 16a2 80be b23e 03be cb60 f13d 5afe 793e
000000f0: 96f9 663e 4847 0dbd 0cfb 4fbd 1d3c 9b39
00000100: e8ad 623e 5975 36be ad6a 03be d505 0b3b
00000110: acd8 6bbe 9ee7 0a3e ad97 24be 7208 9fbd
00000120: 5732 04be ce2a fcbb 1266 5a3e 4fb2 c6bd
00000130: 7018 d6bd 219b f63d 6a03 e4bc 67cd a8bc
00000140: c8dd 4b3e 3f2a 9a3d 2949 3cbd 1706 613e
00000150: 80a1 7dbe 9ba5 553e 3c48 a1bd 065f 313e
00000160: 2e55 9cbd 46c1 53be f0aa cfbb acdd 653e
00000170: e2a5 033d 2433 4dbe 1807 2b3e ead8 793e
00000180: 2b3f 593e 541b 0fbe 5baa 27be ae55 83be
00000190: 4ef7 31bd 1110 693d 6461 81be 22cb 2a3c
000001a0: 15cc d03c eaea 2f3e d719 333e 9626 bc3d
000001b0: f905 54bc 377f 603e e4ea 90bc 3e74 44bd
000001c0: a8b2 fcbd 6ef7 8b3d 1b42 1abe 0788 da3d
000001d0: c3b0 64be 84bf ec3c 5268 4fbc e6e1 34be
000001e0: 7abf 523e c666 4c3e 41b4 1c3e 726a 3a3e
000001f0: b060 8abc 3e57 1dbe 9d80 68bd 020e 1fbe
00000200: d200 08be 5d3b f73c eb54 c5bd 6f0a 7f3e
00000210: 7c5a 283e 53a4 7d3e 7396 f53d 5f36 163e
00000220: 76b0 06be c5ac 443e 7c95 463e 957f a43d
00000230: 0c07 b03d dafe 5fbe 1385 0fbc d2d8 5b3e
00000240: 26e5 d5bd be90 413e 9cff 00be 0093 29be
00000250: 12c7 123e ded3 033e d8b9 b73d 2e7c d3bd
00000260: abf0 253e 7744 d9bd cfb2 0d3e 5f3b 663e
00000270: cad8 edbd 32d6 463e 1943 2c3e 4d26 973d
00000280: 679c c7bd b5bd 6fbd eb19 1f3e d873 ce3d
00000290: 6cc8 333b 3a18 c0bd 339d ad3c 3544 7c3e
000002a0: cbc9 483e 96de 25be 4aef 7f3e 06cd 173e
000002b0: a1ea 813e dd12 8ebd 62e5 993d c027 44bd
000002c0: 4443 0fbe 9c49 9abd bf42 16be 6d2e 883d
000002d0: 0782 21bd 54b5 4fbe 561b b1bd 0e4a 5fbb
000002e0: 4292 01be 0cb9 22be aacd 71be 29d1 063e
000002f0: 6da8 0f3e a421 7fbe ceee 0b3e 5c67 42be
00000300: 55b3 cdbd b579 1cbe f7d2 6dbd 8a3b 06be
00000310: d72a 09bc ff34 463d 26e0 ddbd fb1c 1b3e
00000320: e43c b8bd 042a 80bd d4fa 773d fde2 ff3d
00000330: 75ac 313e 31c2 d33d 8933 d63c a183 0bbd
00000340: 77c7 1ebe 7645 543e 8501 38bc 2183 423e
00000350: 596c e73d 7419 223e e316 2bbe 1f72 fa3d
00000360: 1a8c 7a3e d61b 60be 5665 2e3e 4546 14be
00000370: 6e32 14be 3963 63be 3cec 7fbe 0252 34be
00000380: d6ed 41be d6ee 13bc a88d d8bd 758c ecbb
00000390: b986 2c3e 2f62 523e 281d 4bbe 1712 483e
000003a0: f304 d9bc af89 c9bd e7ee 853e d0c4 60be
000003b0: 77dc 07be 8e9d ba3d 64e2 e53d 77a5 f83d
000003c0: 9212 65be 89ad 2dbe ddae 21be 8945 2b3e
000003d0: 71a1 e03d 2d5d 06bd 2fc9 2c3e 98fb 9a3c
000003e0: 6762 74be 7b0d a0bd 57d0 083e 0158 6cbd
000003f0: c445 de3d 26ca 483d aaf2 6bbd d3a5 40be

lstm_p.bias_ih_l1 f4 [64]
-0.073952824 0.0070733065 0.042008962 -0.23470922 -0.24687262 0.06480984 -0.13906027 0.18960279
0.05838977 0.05541441 -0.24233177 0.08108487 -0.03243594 -0.03364624 -0.20001628 -0.25573608
0.17025785 -0.16025901 0.052093048 -0.17562987 -0.19184431 0.11676689 0.06285198 -0.11721818
0.10589095 -0.15224925 -0.17220567 0.020759562 0.025149908 -0.19400485 -0.14984345 -0.14396375
-0.068984546 0.13056208 -0.2219712 0.17579216 0.015557673 -0.022518044 -0.13197617 -0.20887113
-0.0865292 0.123496465 -0.19761847 0.21972619 -0.16609891 0.14438893 -0.22586802 -0.2307899
-0.09828693 0.18430227 0.121571995 -0.14650095 0.06825041 -0.12374547 0.21604446 0.23742217
0.0010780506 0.16534486 -0.09100914 0.08219178 0.13550745 0.121461734 0.072517626 0.22559498
00000000: 9474 97bd 32c7 e73b 9711 2c3d 9d57 70be
00000010: 2dcc 7cbe 05bb 843d d165 0ebe 3c27 423e
00000020: 1d2a 6f3d 38fa 623d d225 78be d30f a63d
00000030: 8cdb 04bd a4d0 09bd 11d1 4cbe d7ef 82be
00000040: 1358 2e3e f01a 24be 855f 553d 51d8 33be
00000050: d672 44be 7b23 ef3d 8ab8 803d 1610 f0bd
00000060: 5bdd d83d 3ae7 1bbe af56 30be f50f aa3c
00000070: 2e07 ce3c 35a9 46be 9070 19be 3c6b 13be
00000080: c547 8dbd 11b2 053e 6b4c 63be dc02 343e
00000090: 9ce5 7e3c c377 b8bc c324 07be 50e2 55be
000000a0: 3936 b1bd b7eb fc3d 7f5c 4abe e7ff 603e
000000b0: d515 2abe b1da 133e f249 67be 3054 6cbe
000000c0: a84a c9bd bcb9 3c3e bdfa f83d 5804 16be
000000d0: dfc6 8b3d 446e fdbd c23a 5d3e cc1e 733e
000000e0: 604d 8d3a 2a50 293e 0063 babd 2a54 a83d
000000f0: 77c2 0a3e eec0 f83d 1f84 943d 5f02 673e

lstm_p.bias_hh_l1 f4 [64]
0.07035878 0.16379824 0.12593879 0.016144522 -0.052606847 0.19092244 0.21312262 0.21472359
0.06091725 0.1377503 -0.14541462 -0.16200121 0.041683782 -0.19813691 -0.12857865 0.13637227
-0.12492244 -0.16674992 -0.21857338 0.15973048 0.16518998 0.18379697 -0.047119543 -0.12363963
0.22228338 -0.16197756 0.20375545 0.043722235 -0.102691814 0.10740225 -0.14331907 0.015761731
0.2002008 -0.05511008 0.06605791 0.16924942 -0.07600609 0.15479095 0.18637504 0.028036572
0.18619762 0.20845442 -0.17904119 0.11513282 -0.0043482906 -0.09436508 0.19442403 0.028868273
-0.014410266 0.09948395 0.072473384 0.020421896 0.10749643 -0.019331966 -0.20621422 0.10222313
-0.04916528 -0.121999934 -0.15146902 0.1160156 0.09586518 -0.1957742 -0.17522307 -0.046358224
00000000: 4418 903d baba 273e 19f6 003e 8441 843c
00000010: 477a 57bd 2c81 433e d13c 5a3e 80e0 5b3e
00000020: 5e84 793d 6a0e 0d3e 92e7 14be a5e3 25be
00000030: 9dbc 2a3d 67e4 4abe 1faa 03be 2ca5 0b3e
00000040: 56d7 ffbd 7ec0 2abe b3d1 5fbe 6390 233e
00000050: 9027 293e 4635 3c3e 6c00 41bd c636 fdbd
00000060: 419e 633e 72dd 25be 45a5 503e 1616 333d
00000070: 1650 d2bd b6f5 db3d 3cc2 12be bf1e 813c
00000080: 7001 4d3e 1bbb 61bd 5f49 873d b84f 2d3e
00000090: 15a9 9bbd 8581 1e3e 19d9 3e3e f4ac e53c
000000a0: 97aa 3e3e 1375 553e 9356 37be c2ca eb3d
000000b0: 1b7c 8ebb 7b42 c1bd 1817 473e 287d ec3c
000000c0: 0919 6cbc 3ebe cb3d ed6c 943d d24b a73c
000000d0: 1727 dc3d 125e 9ebc d229 53be 5c5a d13d
000000e0: 8861 49bd 1adb f9bd b21a 1bbe 9699 ed3d
000000f0: f754 c43d 0879 48be ad6d 33be 1fe2 3dbd

attention_p.attn_1.weight f4 [16, 16]
-0.25520295 0.17128924 0.24211225 -0.3907193 0.039708845 -0.10427637 -0.036543533 -0.39650795
-0.2974763 -0.112125546 0.08612117 0.32345 0.3729849 0.070098266 -0.11677387 -0.40006053
-0.30618185 0.31717443 0.17532647 -0.3914698 -0.22030562 -0.27079353 -0.21062295 0.24246061
-0.16077633 0.32624105 0.3418941 -0.19244379 -0.08772345 0.3580684 0.20990197 0.06169075
-0.049740903 -0.13456553 -0.03764447 -0.21395543 0.10761635 0.3802871 -0.060641836 0.20685813
0.41503033 0.28972876 -0.1311012 -0.39960352 -0.2324313 0.08090906 -0.24872558 -0.28836194
0.39927918 -0.13338318 -0.27477166 0.35283548 -0.27463275 0.39544776 0.2184808 -0.31718668
0.2902462 0.26533556 -0.05170881 -0.42538494 -0.079269 0.42328095 -0.100134894 -0.03365762
0.3126303 -0.3484104 -0.18609723 0.11298468 -0.34632248 0.25443622 0.2227107 0.16945368
-0.1595365 -0.35482365 0.1274519 0.35715228 0.16464657 -0.32034567 0.36296764 -0.20626129
-0.4260587 0.050396867 0.2996271 0.37895876 -0.119911 -0.3071484 0.022876354 -0.15612479
-0.027153833 0.106363386 0.11531881 -0.21755011 0.07574437 0.12511502 -0.3066635 0.08166247
0.36195293 -0.16907898 0.18605474 0.14132394 0.3268809 0.26609033 -0.2923072 -0.14338453
-0.067094795 -0.20782098 0.33590087 -0.03573182 -0.109264836 0.33855116 -0.16051573 -0.28973976
0.20377181 0.3431277 0.015164294 -0.3205257 -0.009642771 0.41335806 -0.0518838 0.2693897
0.21053557 -0.057646755 0.030097174 -0.05580643 -0.31098777 -0.22313008 0.2551148 -0.26708657
-0.21635544 -0.2562043 0.42312863 -0.12646295 -0.22587776 0.36109087 0.1698945 -0.38919383
0.42210203 0.22243321 0.121713795 -0.046799198 0.12705632 -0.16072239 0.28868148 0.11122527
0.37506092 0.11920702 -0.046951972 0.20205173 -0.05796696 0.12806344 0.07519059 0.34611008
-0.30590528 -0.010091273 -0.2167503 0.31319112 -0.1629924 0.23675625 0.20805515 -0.114549875
-0.014713089 0.2740635 -0.30772763 0.40683174 -0.10258237 -0.121885404 0.020700833 0.007388251
-0.32379612 -0.02077608 0.2966609 -0.19675587 0.28563887 -0.41843155 0.36464065 -0.3251124
-0.27849555 -0.17365424 -0.18272431 -0.09241062 -0.27254862 0.23436874 -0.07117933 0.39461026
0.40226337 -0.360324 0.20688659 0.3358 0.15430842 0.013967559 -0.2892335 0.424466
0.129116 0.33580315 -0.10039866 0.16250286 -0.22034794 -0.40162265 0.008204165 0.41259056
0.051374327 -0.43874913 -0.00977538 0.23501483 -0.3190297 0.41439268 0.24956663 -0.17393528
0.15946986 0.2742868 0.30545732 -0.009614103 -0.064656235 0.2141439 0.12965146 -0.13060072
0.037111852 -0.32499307 -0.3679809 0.34662437 -0.41057196 -0.2731853 -0.36834598 0.12980922
0.29946324 -0.05324377 0.35630935 0.42125338 -0.023496594 -0.3743497 -0.2495569 -0.00928108
-0.13029014 -0.29138088 -0.1219291 -0.07797514 -0.28607294 -0.35437974 0.32096416 -0.09141439
0.080382995 -0.1912598 -0.33394405 -0.06605222 0.2802443 0.4028139 0.045433607 -0.27721637
-0.12814482 -0.19546467 -0.07819079 0.003892964 -0.11436331 -0.16898611 -0.27991447 -0.092651114
00000000: f6a9 82be 7266 2f3e 46ec 773e 5c0c c8be
00000010: bea5 223d d98e d5bd acae 15bd 1703 cbbe
00000020: d04e 98be 14a2 e5bd 4c60 b03d 3d9b a53e
00000030: e0f7 be3e ae8f 8f3d 2427 efbd bcd4 ccbe
00000040: dec3 9cbe b064 a23e c888 333e bb6e c8be
00000050: cc97 61be 73a5 8abe 8bad 57be 9847 783e
00000060: 8da2 24be 1109 a73e be0c af3e fc0f 45be
00000070: 5aa8 b3bd be54 b73e 8bf0 563e 71af 7c3d
00000080: 1ebd 4bbd 8ccb 09be 1631 1abd 2217 5bbe
00000090: f665 dc3d feb4 c23e 9363 78bd 9ed2 533e
000000a0: db7e d43e 5457 943e 653f 06be d598 ccbe
000000b0: 7902 6ebe a6b3 a53d ebb1 7ebe 2da4 93be
000000c0: 526e cc3e 9a95 08be dfae 8cbe daa6 b43e
000000d0: aa9c 8cbe 2178 ca3e 6eb9 5f3e 4b66 a2be
000000e0: 269b 943e 10da 873e 9ecc 53bd 0ecc d9be
000000f0: c957 a2bd 48b8 d83e 8613 cdbd 93dc 09bd
00000100: 1411 a03e d962 b2be 4690 3ebe 8364 e73d
00000110: 2e51 b1be 7745 823e 460e 643e 4485 2d3e
00000120: 895d 23be 72ab b5be c082 023e aadc b63e
00000130: 1c99 283e 5904 a4be e5d6 b93e 2936 53be
00000140: 5e24 dabe f26c 4e3d b968 993e e206 c23e
00000150: e693 f5bd 8e42 9dbe 3167 bb3c 2ddf 1fbe
00000160: b771 debc 0cd5 d93d 452c ec3d 75c5 5ebe
00000170: dd1f 9b3d 271e 003e 0003 9dbe a73e a73d
00000180: e551 b93e 0a23 2dbe 2285 3e3e 39b7 103e
00000190: ef5c a73e fe3c 883e 4aa9 95be 65d3 12be
000001a0: ff68 89bd 06cf 54be 33fb ab3e 875b 12bd
000001b0: 3ec6 dfbd 9456 ad3e 3c5e 24be c558 94be
000001c0: 8fa9 503e 6fae af3e a973 783c f21b a4be
000001d0: b7fc 1dbc aba3 d33e 1c84 54bd 72ed 893e
000001e0: a396 573e 011f 6cbd 598e f63c 4895 64bd
000001f0: ca39 9fbe 367c 64be 689e 823e 92bf 88be
00000200: 488c 5dbe 362d 83be 51a4 d83e 817f 01be
00000210: 804c 67be e7e0 b83e d3f8 2d3e 6a44 c7be
00000220: c21d d83e 88c5 633e 1545 f93d 84b0 3fbd
00000230: 0d1b 023e 6994 24be 0fce 933e 13ca e33d
00000240: fc07 c03e cf22 f43d b650 40bd a6e6 4e3e
00000250: c36e 6dbd 1023 033e 86fd 993d 5735 b13e
00000260: 9e9f 9cbe de55 25bc caf3 5dbe 965a a03e
00000270: 7be7 26be 3b70 723e 690c 553e 2099 eabd
00000280: 2b0f 71bc 0d52 8c3e 7a8e 9dbe 404c d03e
00000290: b516 d2bd 0e9f f9bd cb94 a93c 2419 f23b
000002a0: 9bc8 a5be 9932 aabc f0e3 973e 5f7a 49be
000002b0: 423f 923e a93c d6be 2eb2 ba3e 2275 a6be
000002c0: f896 8ebe 6bd2 31be 151c 3bbe c741 bdbd
000002d0: 7e8b 8bbe 5cfe 6f3e 78c6 91bd 5b0a ca3e
000002e0: 77f5 cd3e 637c b8be 14da 533e faed ab3e
000002f0: 0703 1e3e 30d8 643c 6a16 94be 9c53 d93e
00000300: fc36 043e 64ee ab3e d09d cdbd 2667 263e
00000310: e4a2 61be 7ca1 cdbe c36a 063c 123f d33e
00000320: e36d 523d baa3 e0be ea28 20bc baa7 703e
00000330: dc57 a3be 472b d43e 658e 7f3e 171c 32be
00000340: 114c 233e 526f 8c3e e764 9c3e 7884 1dbc
00000350: 7d6a 84bd 8a48 5b3e 5ac3 043e 32bc 05be
00000360: 9902 183d 7e65 a6be fe67 bcbe c078 b13e
00000370: 7d36 d2be f2de 8bbe d897 bcbe b5ec 043e
00000380: 3f53 993e 2416 5abd 2e6e b63e 86ae d73e
00000390: ee7b c0bc c4aa bfbe d88b 7fbe ac0f 18bc
000003a0: c76a 05be e02f 95be f7b5 f9bd 6eb1 9fbd
000003b0: 2778 92be 4371 b5be 6a55 a43e 7837 bbbd
000003c0: d79f a43d 9cd9 43be b7fa aabe 6346 87bd
000003d0: 2e7c 8f3e a03d ce3e 9718 3a3d 4eef 8dbe
000003e0: 6538 03be e427 48be 7e22 a0bd 1921 7f3b
000003f0: 5037 eabd b20a 2dbe f350 8fbe debf bdbd

attention_p.attn_1.bias f4 [16]
-0.004727809 -0.006062335 0.004740704 -0.004707811 -0.00558995 -0.0065753222 0.0014455531 -0.0002833124
0.004540712 -0.006326051 0.0017858709 -0.0054894276 0.0049497546 0.005391952 -0.011254396 -0.0059036724
00000000: bdeb 9abb 8da6 c6bb e857 9b3b fb43 9abb
00000010: e62b b7bb cd75 d7bb b778 bd3a 8c89 94b9
00000020: 41ca 943b c34a cfbb e213 ea3a a8e0 b3bb
00000030: 8d31 a23b f9ae b03b 5c64 38bc 9873 c1bb

attention_p.attn_2.weight f4 [1, 16]
-0.4427826 -0.36133647 0.11915338 -0.1635639 -0.23741725 0.0117181875 0.35326678 -0.25652212
0.26024723 -0.38375363 0.30287465 -0.18452051 0.2562265 0.4219588 -0.12545225 -0.29528496
00000000: 67b4 e2be 1801 b9be b006 f43d 4c7d 27be
00000010: 821d 73be a4fd 3f3c 62df b43e de56 83be
00000020: 203f 853e 5b7b c4be 6312 9b3e f2f2 3cbe
00000030: 1f30 833e fc0a d83e 8e76 00be 972f 97be

lstm_t.weight_ih_l0 f4 [64, 7]
-0.17919008 -0.062269416 -0.0051578064 -0.08561025 0.1920914 -0.20284675 0.19093463 0.016677093
0.21954782 0.059981935 -0.22849144 0.21274875 0.048349947 0.09619486 0.15943281 -0.06048215
0.027543163 -0.08627832 0.1328286 0.0045642275 0.08485655 -0.15446055 -0.11417543 -0.11776779
-0.1646674 0.1790382 -0.19420554 0.1425811 -0.21150814 0.21230431 -0.24081989 0.20058875
0.024503417 -0.04982716 -0.112821944 0.16397461 0.06724765 0.11067522 0.055451967 0.025138507
0.18764222 0.08947714 0.20024277 -0.18364237 -0.044089463 -0.073487625 0.07999052 0.04894055
-0.1579741 0.10236785 -0.02847552 -0.16403177 0.24988894 -0.16825283 -0.098603204 0.23262443
-0.06993696 0.14244638 -0.076995164 -0.087197386 0.24110287 -0.23181833 0.040837213 -0.00038388214
-0.16013002 0.03514974 -0.09647394 0.06386334 -0.13526328 -0.17847706 -0.23342933 0.06627456
0.02614528 -0.044595975 -0.1780542 0.009548644 -0.19153567 0.06859847 -0.04966019 -0.12410185
0.10718935 -0.16417895 0.0144003285 0.14907748 0.21760768 -0.09501142 -0.20902418 0.16971989
0.038028013 -0.23039895 -0.001908498 0.022816852 -0.05739689 0.17162132 0.051343165 -0.1375691
-0.025977194 0.008023406 -0.13583562 -0.12472933 -0.03302682 -0.034245033 -0.16992413 0.20490748
0.24114686 -0.17215087 0.130099 -0.19257466 0.045023594 0.23005366 0.019940443 -0.20694518
-0.015964549 -0.18939057 -0.20266357 -0.08451211 -0.17656663 0.07879587 0.04531808 -0.23574765
-0.04394121 0.2328894 0.15579598 0.12629193 0.08239557 -0.20694618 0.21664065 0.23231581
-0.0676197 -0.2105848 -0.031735178 -0.00024163161 0.18104583 0.13504015 -0.20645861 -0.14497407
0.02573615 0.17498793 -0.024820898 -0.25833791 0.11711211 -0.049621098 0.07086374 0.12044262
0.13776134 0.02522962 0.09161448 0.087375075 -0.0889144 0.062070727 0.15772355 -0.19204006
0.046364035 0.18529257 0.09639633 -0.12147049 0.06565554 -0.013776223 0.19252264 -0.1470306
0.11457071 0.015446769 0.016462067 -0.0023791175 -0.19828281 0.108529046 -0.14907071 0.2496298
0.09187218 -0.12013309 0.1932832 0.18100807 0.24175699 0.12567484 0.052128404 -0.12530279
0.23472723 0.12187139 0.113612846 0.22039594 0.1678052 -0.13804147 0.19558632 0.09097104
-0.095274314 0.22101542 -0.083640985 -0.07287865 0.027628144 0.0062512504 0.17593607 -0.112897225
-0.21462822 0.10546381 -0.14725694 -0.19426866 -0.19654346 -0.18205504 -0.065896496 -0.16449249
0.16797829 -0.09687651 0.16952169 -0.12852351 0.15942101 0.029638158 -0.23823121 -0.10320011
0.23692597 0.22700416 0.17427008 0.1903856 0.04828486 -0.21113129 -0.096821785 -0.19853123
0.11843198 0.13878185 0.08208566 0.20968089 -0.052158568 0.11494936 -0.032677118 -0.059427284
-0.16530713 -0.15670654 0.03059535 -0.124707304 0.04099836 -0.11014249 -0.021565065 -0.18637808
-0.19211671 0.11011771 0.18319057 -0.03139225 0.050958253 0.06205406 0.19886474 -0.025153834
0.24154295 0.0054199956 0.15040247 -0.015786294 -0.11447336 0.0073779123 -0.2121217 0.04994836
-0.0631465 0.07430272 -0.22952843 0.18690413 -0.04559611 -0.019620175 0.03972261 0.21742523
00000000: 9b7d 37be 370e 7fbd d102 a9bb 6d54 afbd
00000010: 9cb3 443e 0fb7 4fbe 5e84 433e 669e 883c
00000020: 25d1 603e 9eaf 753d a9f9 69be cfda 593e
00000030: 980a 463d d001 c53d 5b42 233e 22bc 77bd
00000040: 33a2 e13c b0b2 b0bd 3804 083e 848f 953b
00000050: 45c9 ad3d e82a 1ebe cfd4 e9bd 3d30 f1bd
00000060: 929e 28be ca55 373e d1dd 46be c800 123e
00000070: 9795 58be 4d66 593e 7d99 76be 2367 4d3e
00000080: 64bb c83c 9017 4cbd 310f e7bd f6e8 273e
00000090: 23b9 893d b1a9 e23d 9a21 633d 45ef cd3c
000000a0: 4825 403e ca3f b73d 710c 4d3e bf0c 3cbe
000000b0: 2797 34bd ae80 96bd 12d2 a33d e375 483d
000000c0: f6c3 21be 3ca6 d13d 7e45 e9bc f2f7 27be
000000d0: e3e2 7f3e 784a 2cbe 7af0 c9bd 1935 6e3e
000000e0: 1c3b 8fbd 77dd 113e a4af 9dbd 8b94 b2bd
000000f0: ace3 763e c961 6dbe ec44 273d ca43 c9b9
00000100: 20f9 23be 2cf9 0f3d 2194 c5bd c8ca 823d
00000110: 7582 0abe b1c2 36be 1908 6fbe f5ba 873d
00000120: a02e d63c 45aa 36bd d753 36be ea71 1c3c
00000130: ed21 44be 5b7d 8c3d 7c68 4bbd 1c29 febd
00000140: 1786 db3d 871e 28be 5bef 6b3c c4a7 183e
00000150: 8cd4 5e3e 5995 c2bd 6f0a 56be 0dcb 2d3e
00000160: 43c3 1b3d b4ed 6bbe 9126 faba 68ea ba3c
00000170: 0019 6bbd 80bd 2f3e 364d 523d eade 0cbe
00000180: 20ce d4bc 9b74 033c 7e18 0bbe 1772 ffbd
00000190: 2147 07bd 8544 0cbd 9700 2ebe 44d3 513e
000001a0: 34ef 763e 5148 30be ac38 053e 4b32 45be
000001b0: a96a 383d 3093 6b3e 245a a33c 70e9 53be
000001c0: 16c8 82bc 9aef 41be 0a87 4fbe af14 adbd
000001d0: e2cd 34be bb5f a13d 739f 393d d567 71be
000001e0: b3fb 33bd 8f7a 6e3e fb88 1f3e ac52 013e
000001f0: 02bf a83d b3e9 53be 0cd7 5d3e 32e4 6d3e
00000200: 337c 8abd 8ba3 57be bffc 01bd 7e5e 7db9
00000210: 1464 393e f747 0a3e e369 53be 1574 14be
00000220: 9ed4 d23c 0930 333e 3255 cbbc de44 84be
00000230: 79d8 ef3d 7e3f 4bbd 0221 913d 9faa f63d
00000240: 4f11 0d3e 59ae ce3c 5fa0 bb3d b4f1 b23d
00000250: c118 b6bd e03d 7e3d 4882 213e 26a6 44be
00000260: 37e8 3d3d 56bd 3d3e 706b c53d 85c5 f8bd
00000270: 6976 863d abb5 61bc a824 453e 318f 16be
00000280: 0ca4 ea3d 7214 7d3c 75db 863c f8ea 1bbb
00000290: a60a 4bbe 7a44 de3d fea5 18be f49e 7f3e
000002a0: 7b27 bc3d 5608 f6bd 08ec 453e 2e5a 393e
000002b0: 258f 773e e8b0 003e 9884 553d 604f 00be
000002c0: 565c 703e b597 f93d daad e83d 79af 613e
000002d0: 20d5 2b3e be5a 0dbe c847 483e 064f ba3d
000002e0: 2e1f c3bd de51 623e f74b abbd 6741 95bd
000002f0: 6b54 e23c 4ad7 cc3b 9628 343e a936 e7bd
00000300: 80c7 5bbe 69fd d73d 86ca 16be 5dee 46be
00000310: b042 49be a36c 3abe bef4 86bd b870 28be
00000320: 8002 2c3e 3167 c6bd 1897 2d3e ab9b 03be
00000330: 433f 233e b9cb f23c e2f2 73be 945a d3bd
00000340: b99c 723e c773 683e db73 323e 71f4 423e
00000350: 58c6 453d cd32 58be 804a c6bd c54b 4bbe
00000360: 778c f23d d41c 0e3e 871c a83d 96b6 563e
00000370: 39a4 55bd 926a eb3d 71d8 05bd 066a 73bd
00000380: 4646 29be ae77 20be 19a3 fa3c 8b66 ffbd
00000390: e5ed 273d 6392 e1bd 38a9 b0bc e5d9 3ebe
000003a0: 3eba 44be 6585 e13d 4f96 3b3e 2995 00bd
000003b0: 9ab9 503d 662c 7e3d 33a3 4b3e 6a0f cebc
000003c0: 0957 773e 389a b13b 1b03 1a3e 4252 81bc
000003d0: 0271 eabd 6ac2 f13b 6e36 59be a796 4c3d
000003e0: f452 81bd 062c 983d 8009 6bbe cc63 3f3e
000003f0: fdc2 3abd 7dba a0bc 2db4 223d b8a4 5e3e
