Params/300_0.001_40_16_222_model.pt (torch, 45301 bytes, 31 tensors)

lstm_p.weight_ih_l0 f4 [64, 10]
00000000: e60f d1bd 3d58 d6bd 6c6e 41bd 3679 85bc
00000010: aa5b 683e 9890 f6bd 139f aa3d 1da1 393e
00000020: 8424 94bd 2fac a7bd b0ce de3d 739d 0e3d
00000030: 562e 09bc 057e 713e 179f 9f3a ab85 01be
00000040: 3780 b1bb 8927 553d b205 703d fda6 be3d
00000050: dce1 d13c 0b71 193d 4cba 4dbe ff1c 373e
00000060: e5c8 19be a24b bfbd 1bb9 a43d ea45 2dbd
00000070: 507f 263e aa66 bd3d dc9b 633e 5f9d 9e3d
00000080: 45aa 8b3d c2e9 673d 6840 1fbe 89c6 193d
00000090: 839f b53d ec92 47bd 7368 03be 2810 13be
000000a0: 3e92 123e dc85 31be b02c 7c3e 59cf bbbc
000000b0: bba5 893d 5f50 2c3e e420 3c3e cc04 943d
000000c0: cab6 4fbe d964 473b fa2d cdbd c152 54be
000000d0: 1621 afbd fb08 fa3d e8ab 123d a27c 683e
000000e0: a0a6 09be eb2b fe3d e7c5 503e bf20 21be
000000f0: 8da1 653e b4c4 e43d 4653 61bc e1ce 8ebd
00000100: 1131 08be 5c25 523e 8134 a83d a17b abbc
00000110: 3ff2 6e3e 4bca 05be aa24 02be f0df f5bd
00000120: da63 633e b852 4abe b858 043c 4ee7 b6bc
00000130: 60aa 2abd b21e 5dbe 1d8c e73d fc71 26bd
00000140: 2631 5dbe 19fe 81bc b8f0 3cbe a5fe 873d
00000150: 5a1f ec3d 00e9 eebd cc35 603e 1594 263d
00000160: 5cbd 5fbe 48dd be3c e539 cc3b e928 023e
00000170: 3edd 5dbe fc88 1b3d 3f55 0ebe 65d9 153d
00000180: 198c 3bbe 11d9 c93c 530e 5cbe aebe 933d
00000190: 0edf 0f3d 8a7e 363e 28b0 693e 9054 8d3d
000001a0: f68d cbbd 3d9f a6bd 9e8b 0a3e f2f2 043e
000001b0: 088b 0f3a 1686 29be bf6e 13be 20c6 fd3c
000001c0: 2c95 b23d c2e5 0f3e c978 113e a0c5 353e
000001d0: 94d6 fcbb fdfe 1a3e f866 9f3d 2178 723e
000001e0: 808d 193e 4a77 ab3c e3f0 bb3d f4ba 9ebd
000001f0: 492b 5cbe c425 a83d a2d5 673e 0593 df3d
00000200: 87e0 e53a b1b1 61be 13bd 54be 17c6 ba3d
00000210: e383 8c3d c3e7 143e e411 093e 3107 a0bc
00000220: 5c7f 61be 1f2b c83d c0a4 4dbe a4d7 5a3d
00000230: d2cb c7bc fe30 f63d 2a7a 683e 9bba 3ebc
00000240: 972c f13d 230c 033c cba1 f93d fe0b febd
00000250: eb64 76be 4e9f cabd 4ca6 ad3c 4aac d53d
00000260: c159 223e 03c3 98bc 2cd9 a53d 5454 06bc
00000270: df1d 563e 2505 9f3d c133 f83b baa1 9ebc
00000280: 5cff 873d 5d38 75bd 23de 663e 0e88 0a3e
00000290: d4c6 a3bd eb38 ca3d 0adb e2bd e123 51be
000002a0: b784 64be 73c8 68be 2806 e4bd 14d5 d4bd
000002b0: 48e1 82bd 30b6 4c3e 158e 1b3d cfdb f23d
000002c0: ae07 453d b27d 9b3d 94c9 b1bc 3995 6c3a
000002d0: 87df 773e 24b2 493e 6a07 26bb 96e7 9d3d
000002e0: 00d6 0e3e 6cbe 053e d29d 173e f804 a5bd
000002f0: 4b39 cf3d 1866 683c 7b67 cf3d 879d 2bbd
00000300: c8c6 233e 5426 21be 6bd6 183e 3274 993d
00000310: 43ff 093e 4509 b83b dc3e e1bd 727f 1f3b
00000320: ee87 023e dfcb 713d 33f4 67be 6ae7 4bbe
00000330: 9e0c 7a3e 7685 16be 7fa7 6ebd c504 24be
00000340: 12cb c03d 0ec7 59be 44c9 233e 2f79 1fbe
00000350: dc7b 7dbe 59e0 18bd 9cb9 743d 7f46 d7bd
00000360: c69b d53d 3d95 5dbe 583d 5f3e 434d 51be
00000370: 3b45 753d f08b 3abd 96e8 b0bd b719 523e
00000380: 058f 513e eeb1 483e f491 1cbe d073 39be
00000390: cf95 5fbe b155 023e 29ad adbc acb4 00be
000003a0: 9b3b 0dbe c7aa f33d a5b2 4bbd a0a4 043d
000003b0: 73ff 53be 37f0 643e db5c 8abd 61ee d23d
000003c0: d4cf 48be 042e 463e 38f6 483e f857 0abe
000003d0: fba7 c7bd 41ff 1cbe c973 713e 22d8 133e
000003e0: 5a92 dd3d 1bf4 e53d debf 44be a88b edbd
000003f0: 911b 32be 577e 9bbd 6ede 91bd 09f7 143e
-0.102081105 -0.10466049 -0.047224447 -0.01629315 0.22691217 -0.12039298 0.08331122 0.18127866
-0.07233527 -0.08187138 0.10879266 0.034818124 -0.008372864 0.23583229 0.001217815 -0.12648647
-0.0054168957 0.052039657 0.05859918 0.09309194 0.025620393 0.03746132 -0.20090598 0.17882155
-0.15018041 -0.09340598 0.080431186 -0.042303003 0.16259503 0.09248097 0.22227424 0.0774486
0.06819586 0.056619413 -0.15551913 0.037542854 0.08868315 -0.0487241 -0.12832813 -0.14361632
0.143136 -0.1733622 0.24626422 -0.02292602 0.06721064 0.16827534 0.18371922 0.072274774
-0.20284572 0.00304251 -0.10018535 -0.20734693 -0.085512325 0.12208744 0.035808474 0.22703794
-0.13442469 0.124107204 0.20387994 -0.15735148 0.22424908 0.11170331 -0.013752764 -0.06973053
-0.13299967 0.20522064 0.08213139 -0.020932974 0.23334597 -0.1306545 -0.12709299 -0.12005603
0.22206059 -0.19758117 0.008077793 -0.022327092 -0.04166639 -0.2159374 0.11306021 -0.040636048
-0.2160078 -0.015868234 -0.18451202 0.066403665 0.11529417 -0.11665535 0.21895522 0.040668566
-0.21849579 0.023298874 0.0062324875 0.12710918 -0.21666428 0.037972435 -0.13899706 0.036584277
-0.18315162 0.024639638 -0.2148984 0.07214104 0.03512483 0.17821708 0.22821105 0.06900895
-0.09939186 -0.08135841 0.13529822 0.12983301 0.00054757344 -0.16555056 -0.14397715 0.030978262
0.087198585 0.1405249 0.14206232 0.17751169 -0.0077160094 0.15136333 0.077833116 0.23678638
0.14995384 0.020930905 0.09176805 -0.07750502 -0.21500887 0.08210328 0.22640088 0.109167136
0.0017538228 -0.2204044 -0.20775251 0.09119814 0.06861093 0.14541535 0.13385731 -0.01953468
-0.2202124 0.0977385 -0.20082378 0.053428307 -0.024389181 0.12021063 0.22702852 -0.01164117
0.11776083 0.007998499 0.12189063 -0.12404631 -0.24061935 -0.09893666 0.02119746 0.10433252
0.15854551 -0.018647676 0.08098063 -0.008198816 0.20909832 0.07764653 0.007574529 -0.019364227
0.06640503 -0.059868205 0.22545676 0.13528463 -0.07996908 0.098741375 -0.11076935 -0.20423843
-0.22316252 -0.22732715 -0.11133987 -0.10392204 -0.06390625 0.19991374 0.037977297 0.118583314
0.048103027 0.07592334 -0.021702565 0.00090249215 0.24206363 0.19696862 -0.002533401 0.07710187
0.13948822 0.13060921 0.14806297 -0.08057588 0.1011835 0.014184497 0.10127159 -0.041898277
0.15993798 -0.15737277 0.14925544 0.074928656 0.13476281 0.0056163394 -0.109983176 0.0024337438
0.12747166 0.059032317 -0.22651748 -0.19912496 0.24418876 -0.14699349 -0.058265205 -0.16017444
0.094137326 -0.2126734 0.15994745 -0.15573572 -0.2475428 -0.03732333 0.059747323 -0.10511493
0.10430102 -0.21638961 0.21800745 -0.2043963 0.059880476 -0.04554361 -0.08638112 0.20517622
0.20464714 0.19599125 -0.15290052 -0.18110585 -0.21834491 0.12728001 -0.021200733 -0.12568921
-0.13792269 0.118978076 -0.049730916 0.03238356 -0.20702915 0.2235726 -0.06755992 0.102993734
-0.1961053 0.19353491 0.19625175 -0.1351012 -0.097488366 -0.15331747 0.23579325 0.14437917
0.1081893 0.112282 -0.19213817 -0.11598903 -0.17393328 -0.07592457 -0.07122503 0.14547361

lstm_p.weight_hh_l0 f4 [64, 16]
00000000: 1199 7dbc 7cec e3bb d4e5 14bc a290 803e
00000010: d66f 643e d849 1ebe c726 653d c00e 283d
00000020: 4731 1c3e c017 32bd f761 e53d 3aae fa3d
00000030: d324 623c c730 4f3e 28bb 9a3d eae1 4e3e
00000040: 3bf2 3d3e 7e9b 6fbe bba8 03be 50c0 2cbd
00000050: d68e 253e 4b77 31be b1ae 2e3e aa92 da3d
00000060: 6a9f 7b3d 058a 613e 3736 a03c 62e5 34be
00000070: 521b e13d 6e60 61be a3b1 55be 1e4c 9e3d
00000080: c99b 513e 2a56 72be d6e2 2d3e 18ed 383e
00000090: ca1e 29be 6cb3 4fbe 1754 6b3c 0b36 263e
000000a0: 0f5f 253d 54d6 2cbe 2ae6 8fbd 3b4d babc
000000b0: 6128 7a3e df58 ecbd c5d4 3abe aac7 4abd
000000c0: bbc2 0bbe ef64 e7bc 1ef5 c73c b434 d7bd
000000d0: 1ab6 d53d 1d7c 6abe 4aca 263e f352 9f3d
000000e0: 0627 f53d 61f6 90bd f091 ab3d 0818 c03d
000000f0: 030f fb3c f1ce bbbd cdd6 a0bd 4301 1e3e
00000100: 392a 5a3e e296 52bb cdc2 4bbe 13f2 5e3c
00000110: 2787 73be d658 d43d 23db a2bd fcdd 923d
00000120: 612d 02be 2d14 023e 6d48 2fbe d496 333e
00000130: 9fb0 2e3e d867 5b3e 61ec a63d d6ad 11be
00000140: cb09 f73b 6cde 2b3e 90a1 21be 6e2b 3ebe
00000150: 27ef ac3d aae7 f2bd d736 5bbe 18b6 243e
00000160: cfbb 273e 98e2 16be 5c4a c5bd 6405 ff3c
00000170: 1015 05be c8aa 65be aea4 e83d 4ab7 983d
00000180: b6f5 59be 903e 683c 2e2d 99ba b36c 01be
00000190: e8c8 533e 31fe 8f3d 88af 803e 4641 8ebb
000001a0: d182 11be 69d5 5fbc 4578 52be 6bad c73c
000001b0: 9fe5 55be c615 483e a9f2 53bd 43c4 0a3e
000001c0: d454 373e ad7d 56be 75fa 723e 623c 40be
000001d0: 7162 6d3e 9208 7bbd d6ae 6c3d ea30 a43d
000001e0: bf04 823e 1a14 483e 6ce9 273e 8d85 5d3d
000001f0: a316 cebd e559 903c 013a 81b9 11ce 2d3e
00000200: e117 34be d29a 303e 388c 0b3e 77ea 7d3e
00000210: a1cb 623d 0534 643e 7fd8 2dbe cf92 44be
00000220: 1a47 fd3c baa1 db3d bc42 303e d1f2 59be
00000230: f6cb 3fbd 2111 25be 440c 2b3a 6814 cc3b
00000240: 1c4c 48be d9d7 bfbc 76bf 27be 7098 a7bd
00000250: ae2d f83c d4a7 2a3e 7a75 b63c 66e0 0dbe
00000260: 1db3 2abe e45a 8fbd d840 073d 5c80 26be
00000270: 73ab 733e 7dbf ec3d 1b93 533e 84ab 313d
00000280: 3b23 25be 2b99 283e b463 0fbe 00a0 593e
00000290: 379c 523d 1e26 413e 4326 75be e122 c0bd
000002a0: 94c4 0a3e 73c6 13be c441 503e 9aa3 f639
000002b0: ea93 54be 2934 db3d b722 493d f16d e8bd
000002c0: 5564 9ebd 3914 e9bb a674 91bd 907f 7c3e
000002d0: c7ff 48be d660 033c 8131 29be 3cf2 b0bc
000002e0: 5a33 eebd 342c 7e3e bad8 09be 8de2 5b3e
000002f0: 8cc4 efbc 17fb d13b 29b7 91bd bf98 5ebc
00000300: 9d4b 56bd 0eaf d0bd 0ea5 3dbe 44e1 84bd
00000310: d715 0bbe 93e0 573d 9065 84bb 0f73 1bbe
00000320: 55c3 72be 2543 f3bd b1fc 4b3e b14b ca3d
00000330: f40f 0e3e 7606 7dbd 7bc8 453e b569 453e
00000340: a088 01be 295f 08be 18e8 0a3e 493a 1c3e
00000350: 3fab 99bd ddce ca3d 999f b73d d9a3 d4bd
00000360: 8b4c 43be 6bc4 82bd 98b8 35be 4a9a 603e
00000370: 7060 073e fa14 753e 8774 213e a219 bd3d
00000380: 6860 f13c f80b 363e 58bc df3d e55d 083d
00000390: 7c1a 373e ef25 4b3e 822c a9bd 6d7d 4cbd
000003a0: 198c 38bd a070 3dbe 0ac1 2abe 1d2f 4ebe
000003b0: f35a 413c 524d f9bc 6669 053e 4726 3c3d
000003c0: 904d ffbd a88d 483d e95d 56be 59bc cd3d
000003d0: c2b5 2b3e 04cd 1ebe 5a3c b23c f63a 783c
000003e0: 15c8 6d3d 8d7b 443e 4e20 29be 3c09 20be
000003f0: 681d cb3c 9531 4cbe 9e63 eabd 34db 973d
-0.015478388 -0.0069556814 -0.009087998 0.25110346 0.22308287 -0.15457857 0.055945184 0.04102969
0.15253173 -0.04347968 0.11200326 0.12240262 0.013802725 0.20233451 0.075552285 0.20203367
0.18549435 -0.2339916 -0.12857334 -0.04217559 0.16167769 -0.17330663 0.17058827 0.10672505
0.061431326 0.22025307 0.019557102 -0.17665628 0.10991539 -0.22009441 -0.20868544 0.07729362
0.20469584 -0.23665681 0.16981062 0.18059194 -0.16515651 -0.20283288 0.01436331 0.16231553
0.040373858 -0.16878635 -0.07026322 -0.022741904 0.24429466 -0.11540388 -0.18245228 -0.04950682
-0.13648503 -0.028246371 0.024408873 -0.10508099 0.10435124 -0.22898908 0.16288105 0.07779493
0.11970334 -0.07078243 0.08377445 0.093795836 0.030646807 -0.0917033 -0.0785347 0.15430169
0.21305169 -0.003213339 -0.1989853 0.01360752 -0.23782025 0.103685066 -0.07951953 0.071712464
-0.12712623 0.12703009 -0.17117472 0.17538005 0.17059563 0.21426332 0.081505544 -0.1422647
0.007539009 0.16784066 -0.15784287 -0.18571255 0.08444052 -0.11860593 -0.21407638 0.16085088
0.16380237 -0.14734876 -0.096333236 0.0311305 -0.12996316 -0.22428429 0.11359535 0.074568346
-0.21285138 0.014175072 -0.0011686438 -0.12639122 0.20682108 0.07030905 0.2513392 -0.0043412773
-0.14210059 -0.013661721 -0.20553692 0.024374684 -0.20888375 0.19539556 -0.05174509 0.1355143
0.17903453 -0.20946379 0.23728354 -0.18773034 0.23182084 -0.06128747 0.057783924 0.08017142
0.25394246 0.19538918 0.16397637 0.054082442 -0.10062911 0.01762099 -0.00024648014 0.1697314
-0.17587234 0.1724656 0.13627708 0.24796472 0.055369977 0.22285469 -0.16977118 -0.19196628
0.030917693 0.10724206 0.17212957 -0.21284033 -0.04682537 -0.16119815 0.000652496 0.0062280186
-0.19560283 -0.023418354 -0.1638163 -0.08183372 0.03029522 0.16665584 0.022272814 -0.13855132
-0.16669889 -0.06999758 0.033020824 -0.16259903 0.23795871 0.11559961 0.20661585 0.04337646
-0.1612672 0.16464679 -0.14002877 0.21252441 0.05141851 0.18862197 -0.23940377 -0.093816526
0.13551551 -0.14431171 0.20337588 0.0004704267 -0.2075955 0.10703308 0.049105372 -0.11349095
-0.077339806 -0.0071130064 -0.07102327 0.24658036 -0.19628821 0.008018693 -0.1652279 -0.021599881
-0.11630888 0.2482155 -0.13461581 0.21473141 -0.029268526 0.006408106 -0.07115013 -0.013586222
-0.052318204 -0.10189639 -0.18519995 -0.064882785 -0.1358255 0.052704405 -0.0040404275 -0.1518061
-0.23707326 -0.11878041 0.19920613 0.09877718 0.13873273 -0.06177374 0.19314758 0.19278605
-0.12649775 -0.1331755 0.13565099 0.15256609 -0.07503366 0.09902737 0.08965988 -0.10382814
-0.19072168 -0.0638512 -0.17746198 0.21933857 0.13220382 0.23933783 0.15767108 0.09233405
0.029464915 0.17778003 0.109245956 0.03329267 0.17881197 0.1983869 -0.08260442 -0.049924303
-0.045055483 -0.18499994 -0.16675201 -0.2013516 0.011801469 -0.030432377 0.13028488 0.04593494
-0.12465966 0.04896322 -0.20934261 0.1004569 0.16768554 -0.15507895 0.021757293 0.015150776
0.05805214 0.19187756 -0.1651623 -0.15628523 0.024794295 -0.19940789 -0.11444782 0.074148566

lstm_p.bias_ih_l0 f4 [64]
00000000: 36cb 98bc b632 54be c293 37be cdb6 adbd
00000010: c941 173e b0d7 5abd ca80 483c c5c1 45be
00000020: 8294 443e fa63 81be 9595 cc3d 23ac 7d3d
00000030: 11c4 703e 5b9a 1fbe 30bc 003e 73ed ee3d
00000040: d836 1ebe d09f 473e e09c 23be d808 2bbe
00000050: 1619 58be 56eb 4a3e a507 903d b45b 0bba
00000060: ba77 313c bcc4 383e a68c efbc bce1 133d
00000070: 3771 04be 01fd 3fbe ff6d 77be 06be f93d
00000080: c628 bcbd 1959 0dbe 00d3 293e 0e4f 673e
00000090: 067f 6f3c 627a a1bd 1f55 6ebe 9a83 5fbe
000000a0: e175 f93d 9cbe 1cbe e012 5cbe caa6 58be
000000b0: b4b4 91bd a397 003e 4561 2c3e 56c6 96bd
000000c0: 5878 4e3e 49f3 533e b82a 033e a2eb 733e
000000d0: 825e 7bbe 55ae 923d fdbb 46be b1bf 17bc
000000e0: a5e4 823d e623 9b3d 6bd7 12bd 16bf 593d
000000f0: fb4a 12be cd10 2c3e 1597 dcbd 369e 29be
-0.018651586 -0.2072247 -0.17927459 -0.08482132 0.14771189 -0.053428352 0.012237737 -0.19312198
0.19197276 -0.2527159 0.09989468 0.06193174 0.23512293 -0.15586226 0.12571788 0.116663836
-0.15450609 0.19494557 -0.15977812 -0.16702592 -0.2110332 0.19816336 0.07032708 -0.0005316094
0.010831768 0.18043798 -0.029241871 0.03610395 -0.12933813 -0.18748857 -0.24163054 0.12194447
-0.091874644 -0.1380352 0.16584396 0.2258875 0.014617687 -0.07884671 -0.23274659 -0.21827546
0.12180687 -0.15307087 -0.21491575 -0.21157375 -0.071145445 0.12557845 0.1683398 -0.07362048
0.20163095 0.20698275 0.12809265 0.23820356 -0.2454777 0.071621574 -0.1940765 -0.009262011
0.06391267 0.075752065 -0.03584997 0.05316075 -0.14286415 0.16803284 -0.10771004 -0.16564259

lstm_p.bias_hh_l0 f4 [64]
00000000: 4498 77be 8322 9cbc 3671 b7bd 837c b63d
00000010: 23d1 82bc 7f01 783d 7581 3abe ef5e 683e
00000020: efeb 06bc 1984 49be 31fd 3d3e ede9 b63c
00000030: 64a9 2dbc 5d9c 06be 30dd acbd 18a9 053d
00000040: 2d43 f83d 9e24 7bbe 2990 353d 909e 853d
00000050: 288b 0a3e e0e8 b23d 4597 963d ed62 523e
00000060: 6f18 92bd 2afd fe3c dfcf b1bd 34a1 473d
00000070: a601 e0bd 2577 a73d d6ea 903c 2272 d2ba
00000080: f289 6abe ab38 203e ea5f 71be 0979 623d
00000090: fabe 18be 962a 25be 1099 10bc 5258 2bbe
000000a0: a7c6 f9bd b8a2 1ebe 4ec4 2d3e 4b95 c7bd
000000b0: 3871 9d3d 2ae1 11bd 573f 48be 32cb e13d
000000c0: d570 f7bd 4769 0e3e 1681 4dbe 8c87 7abe
000000d0: 54c5 9c3d f719 50bd 53ad 13be 2e51 723e
000000e0: ad2e 723e 1705 79be 53d5 493e 0542 073e
000000f0: f262 95bd 8cfd cebd 330b 883d 210e 84bd
-0.24179178 -0.019059425 -0.0895714 0.089104675 -0.015968865 0.0605483 -0.18213446 0.22692464
-0.008234962 -0.19679298 0.18553616 0.022328341 -0.010599468 -0.13145585 -0.08440626 0.032631963
0.12122188 -0.24525687 0.044326935 0.06524384 0.13529646 0.08735824 0.07353071 0.2054555
-0.071335666 0.031126577 -0.086822264 0.04873772 -0.109378144 0.08177022 0.017690104 -0.0016055743
-0.22904184 0.15646617 -0.23571745 0.05529121 -0.14916602 -0.16129526 -0.008825555 -0.1673291
-0.12196093 -0.1549176 0.16969416 -0.09745272 0.076876104 -0.035615124 -0.19555412 0.110250846
-0.12082068 0.13907348 -0.20068774 -0.2446577 0.07654825 -0.050806012 -0.14421587 0.2366378
0.23650618 -0.24318348 0.19710283 0.13208778 -0.07294263 -0.10106954 0.06642761 -0.064480074

lstm_p.weight_ih_l1 f4 [64, 16]
00000000: 0e94 56bd 4bc7 903d d7cc 673e 7131 703c
00000010: 09b1 25be 1dd5 cf3d 667f 5b3e dea7 663e
00000020: a11c 5b3e 9142 cebd c185 0ebe eeaa 083e
00000030: b167 b63d 19e0 483e 3bb1 b1bd 706f ddbd
00000040: 5e64 4fbd 3bea 3c3e d916 af3d e70e 713e
00000050: 4e7c 01be 110c 9bbd 4c69 0b3e fe8f 79bd
00000060: d4b4 473e 25ab 75bd b62f 293e 14ff 203e
00000070: 22b9 533d 2853 82bd ac82 1fbe 7659 05be
00000080: bfa7 04be 7001 37be 1e3b 363e 9f58 ab3d
00000090: 9e6e c0bd bf02 583e 5824 e83c 2275 09bc
000000a0: 690c 283e 7a10 783e 6236 2c3e 2b24 dfbd
000000b0: 08c2 6ebe d322 f1bd 3593 39bd d825 ee3d
000000c0: 100f 163e 9b44 72be 75bd 553e 8fc9 7a3e
000000d0: 6556 9dbd 38a1 543e 6270 053e 40ef 1dbe
000000e0: abbd b2bd 00a0 44be fc90 643e eca9 393e
000000f0: a8ab 2d3e e733 063e 8816 243e 8c52 2b3e
00000100: fc3e 63bd 69be b8bd af60 453e 126e a4bd
00000110: 0865 fe3d 8a0f c7bd e4d8 5cbe d130 46be
00000120: 5a91 6c3e 5f82 653e cd57 5dbe f8b6 863c
00000130: 2287 5b3e cfec 1abe a87d ba3b 11ee fe3d
00000140: d74d 233e 7374 c1bd 6f0b 62bd 855b 6f3d
00000150: d810 633d 5eec 1ebd 12e6 5c3e 50c1 06be
00000160: fc12 e0bd 2b3b 633e 93ed aebb f2d0 f0bb
00000170: 244c 013e 02fe e23d 238e 923b ec1e c73d
00000180: e6b4 fd3d 2c66 b3bd 8031 1b3e 5147 273e
00000190: fd19 79be 2b23 19be 518a 473e 7945 853c
000001a0: 8e2c 0c3e f3b9 cd3d 7468 b0bd f2dd b5bd
000001b0: 53ac 54be 4d1d 28be 87a0 633e a413 57be
000001c0: 1767 023e 49bc f73d f0f9 5f3e f83a 7bbe
000001d0: b645 dc3d 948c db3d 994f 2f3e 4dbb 6d3e
000001e0: 95e6 013e e3ed 8f3d 9f4f 2abd 2592 5fbe
000001f0: e697 b23d 4cb4 cebd 04a2 093e dc3f 54be
00000200: 611f f3bc 5a10 213e 725c 093d 10bc 21bd
00000210: 492c a23d bf57 a13d daa6 50be ec26 98bc
00000220: cbf4 d73d 4c9f 493e 4b83 083e 3e88 143d
00000230: af85 4b3e d59f 233e d8da 70bd 8e91 f03c
00000240: 1e1b 91bd f0ae d7bd 215e 433e 4ebc da3d
00000250: 083f 663e 5edf b83d b264 03be be10 1cbb
00000260: 1d05 053d 2b97 d43c c882 57be effb 44bd
00000270: 662e 05bd f9c6 5cbe 81db 3cbe c37c 473e
00000280: 1700 64be 4cba 453d 23a8 c93b d900 60be
00000290: 0d76 4bbe 1b0f 6fbc 377a 78be 6c00 bb3c
000002a0: da5f 203e 5985 ebbd 8760 353d ea06 8bbc
000002b0: fd05 633e f69d 8abc 7694 debd 66c5 3dbc
000002c0: 5c7d fcbd ca58 16be ee7f a7bd 2cfd 123d
000002d0: 1b9b 7e3e 5a42 39be d65a 0a3d 4002 0c3e
000002e0: cbc8 703e c5ee 303e 5b48 283e 3adb 4cbe
000002f0: 4341 563e fbac 49be 4f55 9f3d 456a 563d
00000300: 0904 c83d d99c 37bc 500a 93bc 2760 e1bd
00000310: e22c 443e df55 0abe 2b60 62be 6d27 793e
00000320: 2ffd dfbd 4fd0 3bbe 775f 29be c43c 02be
00000330: 43be 193e 5976 58be 64bb 68be 4a18 373e
00000340: 4bcf 59be 2c6d 1dbe f577 04bd f322 65be
00000350: 24dc 413e 29c7 063e 2bd8 753e 92a5 31be
00000360: 3186 3bbe 40eb f4bd d71e f53d 3b21 3d3e
00000370: e00a 29be a485 b53d 379f 0d3e 1c5f 623e
00000380: 8d98 c83d 79ab 643e 0219 0dbe b046 063e
00000390: a551 73be 22e8 093e c66a 063c e0e2 6cbe
000003a0: 3bfd a13b a7be 443e 17e4 6f39 5270 0d3e
000003b0: 25bf c63d 731f 38be 6780 c0bd 4957 4c3e
000003c0: f00d 0a3e 932a 203e b34f ca3c 1ee1 6fbc
000003d0: 530e 983d cb1c 15bc a3c4 27bd 28a0 64be
000003e0: 3ca1 92bd ee69 9c3c 9b8b 713d 40fc 003e
000003f0: 81ef 6e3d ba9b bdbc 1343 1b3e 16a6 c13d
-0.05238729 0.07069262 0.22636734 0.014660225 -0.16180815 0.1014807 0.21435317 0.22524974
0.2139764 -0.1007129 -0.1391821 0.13346455 0.08906496 0.19616736 -0.08676382 -0.10812271
-0.050632827 0.18448727 0.0854928 0.23540841 -0.12645075 -0.07570661 0.13614386 -0.060928337
0.19502574 -0.05997767 0.16522107 0.15722305 0.05169023 -0.06363517 -0.15577191 -0.13022408
-0.12954615 -0.17871642 0.17795989 0.083665125 -0.093960986 0.21094798 0.028337643 -0.008389743
0.16410984 0.24225035 0.1681762 -0.1089557 -0.23316205 -0.1177422 -0.045306403 0.11628312
0.14654183 -0.23658983 0.20873053 0.24490951 -0.07682494 0.20764625 0.13031152 -0.15423298
-0.087275825 -0.1920166 0.22320932 0.18131226 0.16960013 0.13105737 0.1602422 0.16730708
-0.05547999 -0.09020693 0.19275163 -0.08028807 0.12421614 -0.09719761 -0.21567112 -0.1935456
0.23102322 0.22413014 -0.21615525 0.016444668 0.21438268 -0.15129398 0.005691249 0.12447751
0.15947662 -0.09446039 -0.055186685 0.05843689 0.055435985 -0.038799636 0.2157214 -0.1315968
-0.10941121 0.2219054 -0.0053383796 -0.007349127 0.12626702 0.110836044 0.0044725104 0.09722695
0.12388019 -0.08759722 0.15155602 0.16335799 -0.2432632 -0.14954822 0.19486357 0.016268479
0.13688871 0.100452326 -0.08613673 -0.08880223 -0.20768861 -0.16417427 0.22229205 -0.21003586
0.12734638 0.120964594 0.21872687 -0.24534214 0.10755484 0.107201725 0.17120208 0.23215981
0.12685616 0.07027795 -0.04157984 -0.21833093 0.087203786 -0.10092983 0.1344071 -0.20727485
-0.029678049 0.15728894 0.03353543 -0.03948599 0.07918603 0.07878064 -0.20376149 -0.018573247
0.105447374 0.19689673 0.13331334 0.036262743 0.19875215 0.1597894 -0.058802456 0.02936628
-0.0708525 -0.105314136 0.19078876 0.106804475 0.22484982 0.09026979 -0.12831381 -0.002381369
0.03247558 0.025950989 -0.21045983 -0.048091825 -0.032514952 -0.21560277 -0.18443109 0.19481187
-0.2226566 0.04827337 0.0061540767 -0.21875323 -0.19869252 -0.014591004 -0.24265371 0.02282735
0.15661564 -0.115000434 0.04428151 -0.01697107 0.22170253 -0.016921025 -0.108681604 -0.011582708
-0.12328598 -0.14682308 -0.081786975 0.035885975 0.24863856 -0.18091717 0.033778034 0.13672733
0.23514096 0.17278583 0.16433851 -0.20005503 0.20923333 -0.19694893 0.07779943 0.05234744
0.09766395 -0.011206829 -0.017949253 -0.11004668 0.19157746 -0.1350932 -0.22106998 0.24331446
-0.10936963 -0.18341182 -0.16540323 -0.12718493 0.15013985 -0.21138896 -0.22727734 0.1788036
-0.21270482 -0.15373677 -0.032340962 -0.22376613 0.18931633 0.13161911 0.24008243 -0.17348316
-0.18312909 -0.11958933 0.11968773 0.18469708 -0.16508055 0.088633806 0.13830267 0.22106594
0.09794722 0.22331037 -0.13779071 0.13112903 -0.23761614 0.13467458 0.008204168 -0.23133421
0.0049435175 0.19213353 0.00022877786 0.13812378 0.09704427 -0.17980747 -0.09399491 0.19955172
0.13481879 0.15641241 0.024696207 -0.014641074 0.07424607 -0.009101103 -0.04095901 -0.2232672
-0.07159659 0.01909348 0.05897103 0.12596226 0.058333877 -0.023145545 0.15162306 0.094555065

lstm_p.weight_hh_l1 f4 [64, 16]
00000000: 82a9 3f3e 87c2 1abe b3d0 6c3e 86e6 f1bd
00000010: 7ad8 2bbd bc0c 46be c065 823d b478 4c3e
00000020: ebf9 adbd f649 1f3e 4ab5 31bc 6721 743e
00000030: f34c 10be 6227 193c b86f 4c3e d599 49be
00000040: e214 f83d 76ea 76be a9df 463e 28e5 c03d
00000050: 3642 4a3d aeaf 6cbe 5a07 833e 9607 3a3e
00000060: 6119 6d3e dde9 58be a51d 663e 7ae6 1e3d
00000070: 59bb 1e3e c535 7cbe 3085 02be 465e 8b3c
00000080: 6ced 1d3e 68a7 68be 6299 173e 25bc 053e
00000090: 8aa7 42be c0b7 613e f875 d5bd c8a5 983d
000000a0: b18b 27be e48a 0ebe f3eb 76bd 7636 b0bd
000000b0: 09e2 0a3d 995b 89bd 7e6f 19be 5cba 633e
000000c0: b01f e7bb 52c8 53be 9f01 5c3e fed8 593e
000000d0: 95a4 0abe 49c9 323e de04 d2bd b010 49be
000000e0: 0ce9 80be e774 03be 5a9b f13d 9f33 7a3e
000000f0: 4a66 673e 2ae6 0abd 966e 62bd 2116 683a
00000100: 988f 5d3e 6771 3bbe 027c 00be 0768 97ba
00000110: 493a 6abe 94a5 063e 4cb8 21be 0172 96bd
00000120: cbdd 08be 1068 41bc 7939 5e3e eb1f cebd
00000130: 605a cebd 4ea1 e43d b0d6 febc d626 89bc
00000140: 6f72 453e 00c7 893d 75f2 10bd 6b5f 573e
00000150: c119 75be 52eb 4d3e c9da c1bd 6b62 393e
00000160: ee39 adbd 8fa1 5cbe 6149 1d3b 0f86 5c3e
00000170: fbf3 253d 8c05 56be 22b8 3d3e 4119 813e
00000180: ef51 603e ed9c 09be edaf 2cbe 8c09 81be
00000190: 8dfa 45bd 6206 803d 0f0e 7dbe 24ed c73b
000001a0: 7f1c f83c 82a4 343e 4c83 2e3e e005 c53d
000001b0: 1054 8fbc 7fce 673e 9e9e b9bc 4201 56bd
000001c0: 2fec 01be 1c79 883d a936 1bbe e9d8 d93d
000001d0: f50f 63be c56a d93c 1190 2cbc 46f6 32be
000001e0: 7861 513e 4b51 4b3e bfb3 1d3e 05c2 393e
000001f0: 0924 7fbc 3c25 1ebe 4786 7bbd b888 1dbe
00000200: 9888 02be 8e60 0a3d 7468 c7bd e3c0 803e
00000210: 8534 243e 502f 813e f927 f33d 51fe 113e
00000220: 5459 03be 83e5 473e 9f68 433e 1429 aa3d
00000230: 07cb a83d 7db6 5cbe 269b 71bb 851a 583e
00000240: c2b4 d0bd 6744 423e 8a02 febd 4539 2abe
00000250: 1974 113e dd7f 053e c41e b33d c4b9 d5bd
00000260: 9249 263e c616 d9bd 0dac 0d3e 32e6 653e
00000270: f2af eebd e96d 463e 9165 313e 08e4 953d
00000280: f301 ccbd 5bec 70bd 68ca 1c3e ca85 d03d
00000290: f6bf 673b 092c c2bd 9fa1 c43c 97ce 7c3e
000002a0: c4d1 483e c182 25be e887 7f3e 8f8f 183e
000002b0: 3cde 813e 66fd 8bbd 6c06 903d 6ca8 43bd
000002c0: 887c 13be 2d1b a0bd f40d 15be 5b4e 853d
000002d0: 4a6e 19bd b459 52be 4894 aabd 4674 6eba
000002e0: 5765 04be 6dda 24be 2bcb 6fbe 2218 053e
000002f0: f1e8 113e 2f23 81be 36d9 073e b8fc 3fbe
00000300: 34e5 d4bd 081e 1ebe 37f0 71bd 7b6e 06be
00000310: ad17 e5bb 7a08 3d3d 0e3b d9bd 1cf5 1c3e
00000320: 39c0 babd 9d1a 82bd 5b6d 7b3d e4de fe3d
00000330: 1cea 323e 61e8 d23d 5e35 af3c b2f3 05bd
00000340: 2277 19be bd1a 5b3e 88b2 85bc c465 473e
00000350: 80b9 e03d 07d0 273e 89a9 2cbe a861 ee3d
00000360: a9a6 803e 1d51 5abe 60d6 283e 5115 0fbe
00000370: ad24 1abe 5f19 5cbe 6aa3 7dbe 515e 3abe
00000380: 13d7 3bbe 289a 51bb ae73 e5bd b306 efba
00000390: baa5 283e 1b64 583e 8130 45be 0fba 423e
000003a0: 0826 b0bc a003 bebd 6433 833e 8033 5bbe
000003b0: 89a0 0dbe 6b4b ca3d 66a7 db3d 97ec ed3d
000003c0: c2dc 5dbe 2961 26be b136 28be 7380 313e
000003d0: 5a60 d83d e850 d8bc 010f 303e 59d2 483c
000003e0: 18e9 6cbe 564b 92bd d138 023e cdfd 51bd
000003f0: c27a d03d fa0c 713d 638a 72bd 86a4 47be
0.18717006 -0.15113269 0.23126487 -0.11811547 -0.041954495 -0.19340795 0.063670635 0.1996792
-0.08494934 0.15555558 -0.010846445 0.23840867 -0.14091854 0.0093477685 0.19964492 -0.19687589
0.12113358 -0.24112877 0.19421257 0.09418708 0.04937955 -0.23113891 0.25591546 0.18166956
0.23154213 -0.21182962 0.22472246 0.03879402 0.15501155 -0.24629886 -0.1274612 0.017012727
0.154226 -0.2272011 0.14804605 0.13060053 -0.19009224 0.22042751 -0.104228914 0.07453495
-0.16361882 -0.1392017 -0.060283612 -0.086041376 0.03390697 -0.06706924 -0.14983937 0.22239059
-0.007053338 -0.20681885 0.21484993 0.21274182 -0.13539346 0.17459597 -0.102548346 -0.19635272
-0.251778 -0.12837563 0.11797209 0.24433754 0.22597614 -0.033910908 -0.055281244 0.0008853395
0.21636808 -0.18304978 -0.12547305 -0.0011551388 -0.22873797 0.131491 -0.1579296 -0.07345963
-0.13365857 -0.011804596 0.21701612 -0.100646816 -0.100758314 0.11163579 -0.03110823 -0.016742151
0.19281934 0.06727409 -0.035387475 0.21032493 -0.23935606 0.20109299 -0.09465558 0.1810395
-0.08458315 -0.21546005 0.0024000036 0.21535514 0.04051588 -0.20900553 0.18527272 0.2521458
0.21906255 -0.13438769 -0.16863985 -0.25202596 -0.048334647 0.062512174 -0.24712394 0.0061012674
0.030287025 0.1764088 0.17042273 0.09620261 -0.017496139 0.22637366 -0.022658642 -0.052247293
-0.12687753 0.06663725 -0.1515757 0.106370755 -0.22174056 0.02654017 -0.010532395 -0.17476758
0.20447338 0.1985523 0.15400599 0.18140419 -0.015572556 -0.15443891 -0.061407354 -0.15384185
-0.12747419 0.033783488 -0.0973672 0.2514716 0.1603566 0.2523141 0.118728586 0.1425717
-0.12827045 0.19521146 0.19082879 0.08308616 0.082418494 -0.21553989 -0.0036866157 0.21103866
-0.10190727 0.18971406 -0.12402828 -0.16623409 0.14204444 0.13037057 0.087461025 -0.104358226
0.16239002 -0.10600047 0.13835163 0.22451094 -0.11654653 0.19377865 0.17323901 0.07318884
-0.09961309 -0.058819156 0.15311587 0.10181768 0.003536222 -0.09481055 0.024002848 0.24688183
0.19611269 -0.1616316 0.24954188 0.14898513 0.25364864 -0.06835441 0.07032475 -0.04776804
-0.14402974 -0.07817683 -0.14556104 0.06509086 -0.037458695 -0.20542032 -0.08329064 -0.00090963056
-0.12929283 -0.16098948 -0.23417346 0.12997487 0.14249016 -0.25222155 0.13266453 -0.18748748
-0.103952795 -0.15441144 -0.059066977 -0.13128082 -0.0069913478 0.046150662 -0.10606967 0.15327877
-0.09118695 -0.06352732 0.061383586 0.12444857 0.17472118 0.10298229 0.021387752 -0.03270311
-0.14986852 0.21396919 -0.016320482 0.19472414 0.10972881 0.1638795 -0.16861548 0.1163972
0.25127152 -0.21320005 0.16488028 -0.13972975 -0.15053053 -0.21494053 -0.24769369 -0.18200041
-0.18343763 -0.0031982753 -0.11203705 -0.001823625 0.1646947 0.21131937 -0.19256784 0.19016288
-0.02150251 -0.09278035 0.25625145 -0.21406364 -0.1383077 0.09877666 0.10725288 0.116173916
-0.21666244 -0.16248001 -0.16427113 0.17334156 0.105652526 -0.026405767 0.17193224 0.012257182
-0.23135793 -0.071432754 0.12716986 -0.051267434 0.10179664 0.058850266 -0.059214007 -0.19496354

lstm_p.bias_ih_l1 f4 [64]
00000000: 4a17 9ebd e2a6 053c b5b1 233d 6b59 70be
00000010: 39ce 7dbe 473a 643d 9155 0cbe 782b 413e
00000020: 78dd 793d e60d 633d 5f9f 77be 0ad7 a13d
00000030: 875f 08bd 7afa e2bc e20d 48be e041 7fbe
00000040: 8002 2b3e 5447 23be f430 4d3d afaf 33be
00000050: a430 45be af80 dc3d d189 843d d662 f2bd
00000060: 8220 de3d bfe7 1bbe 40d4 2fbe 11f9 983c
00000070: 36c7 c63c 8790 40be 757f 14be 8dcb 0cbe
00000080: 313b 99bd 16b6 053e 283d 63be bcdc 333e
00000090: afbd 853c 0395 06bd 7cf2 06be 87cf 55be
000000a0: cbc0 acbd 6c5c fc3d 9cd2 4abe e77e 5e3e
000000b0: f5ba 29be e470 163e 00af 67be a98c 72be
000000c0: 75cb cfbd 3dc1 3d3e d384 f43d 8604 16be
000000d0: 1fc3 893d 18e3 07be 534b 5f3e 40e5 713e
000000e0: 7d0d 753b 7d34 293e cafd b8bd 50f4 a33d
000000f0: 38cd 093e 0c7f 023e 8d18 9e3d 8fb3 6d3e
-0.07719286 0.008157464 0.039964397 -0.2347161 -0.24785699 0.05571964 -0.13704516 0.18864238
0.061002225 0.055433176 -0.24181889 0.079023436 -0.033294227 -0.027707327 -0.19536546 -0.24927473
0.16700172 -0.15945178 0.050095513 -0.17547487 -0.19256836 0.10766732 0.06471599 -0.11835258
0.10846044 -0.15225123 -0.1717081 0.018673452 0.024264913 -0.18805133 -0.14501746 -0.13749523
-0.07481993 0.13057742 -0.22191298 0.17564672 0.0163258 -0.032856952 -0.13178438 -0.20879947
-0.0843521 0.123223156 -0.19806904 0.21728097 -0.16575225 0.14691502 -0.22625351 -0.2368647
-0.10146228 0.18530746 0.11939397 -0.14650163 0.067266695 -0.13270223 0.21806078 0.23622608
0.0037392073 0.16523929 -0.090327814 0.08005583 0.13457191 0.12743777 0.077195264 0.23213027

lstm_p.bias_hh_l1 f4 [64]
00000000: 8e75 893d ebd6 283e 45bc fd3d 1933 843c
00000010: 8582 5bbd 3e32 3a3e 114d 5c3e bce4 5a3e
00000020: da1b 823d 5513 0d3e 1f61 14be 0300 28be
00000030: a138 273d 8ecf 44be e1cd fdbd 0443 123e
00000040: 3e41 03be e2ec 29be 5add 61be 05b9 233e
00000050: c269 283e e1e3 323e de5d 39bd 8589 ffbd
00000060: d43f 663e f7dd 25be b427 513e a18a 2a3d
00000070: 1220 d4bd 0c27 e83d 21d1 0dbe 251c b63c
00000080: b807 473e ffaa 61bd f167 873d 9829 2d3e
00000090: 6016 9abd 3beb 133e 600b 3f3e 4843 e63c
000000a0: 51e5 403e 732d 553e b0cc 37be c0c8 e63d
000000b0: f01f 83bb 1316 bcbd 0ab2 463e 3eb9 ba3c
000000c0: c60f 90bc 40cd cd3d 03f7 8f3d 6d4a a73c
000000d0: 5723 da3d c2bd e7bc 4119 51be 42e7 ce3d
000000e0: 1a7b 3ebd 7612 fabd 1868 1abe bc39 e93d
000000f0: 766a c23d 755a 42be 71a3 2ebe 671d 23bd
0.06711875 0.16488235 0.12389425 0.016137647 -0.05359127 0.18183228 0.21513774 0.21376318
0.063529685 0.13776906 -0.14490174 -0.16406254 0.04082549 -0.19219801 -0.12392784 0.14283377
-0.12817857 -0.1659427 -0.22057095 0.15988548 0.16446593 0.17469741 -0.045255534 -0.12477402
0.22485286 -0.16197954 0.20425302 0.041636113 -0.103576794 0.113355726 -0.13849308 0.022230217
0.19436538 -0.055094715 0.06611622 0.16910398 -0.07523799 0.14445202 0.18656683 0.028108254
0.18837477 0.20818119 -0.17949176 0.11268759 -0.00400161 -0.09183898 0.19403854 0.022793408
-0.017585646 0.10048914 0.070295356 0.020421231 0.10651272 -0.028288726 -0.2041979 0.10102703
-0.046504118 -0.122105524 -0.15078771 0.11387965 0.09492962 -0.18979819 -0.17054535 -0.039822962

attention_p.attn_1.weight f4 [16, 16]
00000000: 7ac7 7ebe 0d50 313e f360 7d3e f5d1 c7be
00000010: d197 c13c 6569 d3bd c3d6 23bd fa9e cbbe
00000020: fbea 96be 59d2 e3bd 5693 ae3d 55d8 a53e
00000030: ee68 be3e 5efc 6e3d de92 ecbd 8b4c cdbe
00000040: f274 99be 8257 a33e 69a5 383e a634 c8be
00000050: 131a 72be 8c1e 8abe e523 5bbe 6513 773e
00000060: fcdd 21be 9b7c a73e 439a ae3e 2795 44be
00000070: 67e6 b5bd 724a b13e ef1d 583e 87fa 783d
00000080: e57b 65bd cc9d 0bbe 1ff2 2ebd 3380 5bbe
00000090: 641c fd3d ea34 c23e 9f9a 6abd 38f8 543e
000000a0: 5829 d33e b0ea 933e 3768 05be c9d0 ccbe
000000b0: fdf4 6cbe eed9 bd3d 28ec 7fbe 7434 93be
000000c0: 52c8 cf3e 72aa 06be dc08 8abe 70df b43e
000000d0: 22e9 94be 8bff ca3e 9239 5c3e e201 a3be
000000e0: 5703 963e 284d 883e 885c 57bd 5c90 d9be
000000f0: bd93 a4bd a8a4 d23e b2a8 cabd c795 0dbd
00000100: be4c a33e 6976 b1be 3e46 39be 403c e83d
00000110: b981 b9be 75c8 823e 4894 603e c25a 2c3e
00000120: 99aa 20be 233d b5be c5a7 013e 8f15 b73e
00000130: 4788 273e 890d aabe 0076 ba3e a619 54be
00000140: 4e22 ddbe a446 483d 4c4a 973e 85e0 c13e
00000150: c021 d6bd 60a7 9dbe fa98 d53c 65f3 1ebe
00000160: 839f f0bc a474 d83d 9583 ed3d 7b1c 5fbe
00000170: abd5 9c3d e031 0c3e 8e8f 9dbe 9a9b a83d
00000180: c813 b63e 5202 2fbe 9e2a 393e 2047 103e
00000190: fb90 af3e 9cb7 873e eae8 93be 6ca3 11be
000001a0: fcdd 8ebd e8b0 55be 416b ac3e 7334 14bd
000001b0: 2a98 ddbd cf5b b33e 0fa4 25be 5fe4 93be
000001c0: d833 573e d2a2 b03e b207 a83c 13e2 a3be
000001d0: 759e d2bc 1e2c d43e bab3 62bd 0d52 893e
000001e0: 975d 5a3e fc82 68bd 4264 ef3c 92af 62bd
000001f0: 18c8 9fbe 4386 70be dc44 833e ec36 89be
00000200: 590c 64be a71b 84be a7ff d53e 8bed 01be
00000210: ece5 56be 155d b83e 3a76 313e 9aad c6be
00000220: 79c1 d63e 82e5 623e e200 fb3d 5583 41bd
00000230: 8830 033e 8783 18be 9c2c 933e 6997 e53d
00000240: e856 c33e 71f9 f73d a016 2bbd b85c 4f3e
00000250: 60ce 97bd 1c37 043e 8dfd 923d fb98 b03e
00000260: fa39 9bbe 79c8 16bc 8bdb 5ebe 1398 a03e
00000270: 1007 28be 895e 663e e840 563e d779 ecbd
00000280: 64ec acbc 655c 8b3e 554c a0be 4d11 d03e
00000290: 9727 b1bd 19c7 fbbd fdf4 c53c 2b9f 0c3c
000002a0: 5a2d a7be 987b b1bc ce57 983e 91f5 49be
000002b0: d7ce 923e a339 d0be 0d0c ba3e b4fc a5be
000002c0: 123f 8bbe f400 30be 5438 36be d97d bcbd
000002d0: 35ca 93be e8fa 703e 7c7d 98bd 4579 c93e
000002e0: c54e cf3e e912 b8be dd08 533e f021 ac3e
000002f0: a5fa 1c3e 8cd0 013b 8891 93be 83e6 d83e
00000300: 034c fb3d c6f7 aa3e ed99 d8bd 56f0 253e
00000310: 6128 51be 2f2c cebe 4043 3f3c 66dc d33e
00000320: 973d 473d ec18 e1be 9298 11bc 982b 703e
00000330: 6fc7 a2be 5d2e da3e 8e41 7e3e d529 31be
00000340: 3ca7 1c3e 667e 8b3e 62da 993e 527d 24bc
00000350: b6b5 46bd 7d3f 5a3e 3435 083e bc8b 04be
00000360: a7f8 0c3d e6d6 a6be c6f7 bbbe 753d b13e
00000370: 21a9 d1be becc 85be cf2b bdbe 09d6 053e
00000380: 3d84 9c3e 9493 52bd 6800 b93e b5ea d73e
00000390: e61a 21bd ec27 bfbe 0384 81be 4426 2bbc
000003a0: 32b3 02be afba 94be 1880 fbbd 6aad 9ebd
000003b0: 3607 93be f06d bbbe f2ff a43e 2112 bdbd
000003c0: 89c6 b13d b2ec 41be 3140 a8be a158 86bd
000003d0: 9a3d 873e 48c8 ce3e 70ec 2b3d 878c 8ebe
000003e0: 7f6c 00be 9e3d 47be 75f4 a1bd 9214 8f3b
000003f0: 0d79 ecbd 3812 39be 7dac 8ebe 09a4 bfbd
-0.24880782 0.17315693 0.24744014 -0.39027372 0.023631962 -0.10322837 -0.039999735 -0.39769727
-0.2947615 -0.11124105 0.08524196 0.3239161 0.3718943 0.058346145 -0.1155145 -0.4009746
-0.29972035 0.319027 0.18031849 -0.39102668 -0.23642759 -0.2697643 -0.21400411 0.24128492
-0.15807337 0.32712254 0.34102067 -0.19197522 -0.088818364 0.3462711 0.21105169 0.060785796
-0.05602636 -0.13634413 -0.042711373 -0.21435623 0.12358931 0.37930995 -0.057276364 0.20797813
0.4124248 0.2888999 -0.13028036 -0.4000304 -0.2314033 0.092700824 -0.2499243 -0.28750956
0.4058252 -0.13150957 -0.26959884 0.3532672 -0.29084116 0.3964809 0.21506336 -0.31837374
0.29299423 0.26621366 -0.05257848 -0.4249295 -0.08035991 0.41141248 -0.09895457 -0.034566667
0.31894487 -0.34660652 -0.18093202 0.11339617 -0.36231783 0.25543562 0.21931565 0.16831496
-0.15690078 -0.35398206 0.12661655 0.35758635 0.1636058 -0.33213452 0.36418152 -0.20712909
-0.43190235 0.048895493 0.29548872 0.37866607 -0.10455656 -0.3079176 0.026073921 -0.15522535
-0.029372936 0.105691224 0.11597363 -0.21788208 0.076579414 0.13690901 -0.30773586 0.08232804
0.35561967 -0.17090729 0.18082663 0.14089632 0.342903 0.2650727 -0.28888637 -0.14222497
-0.06975934 -0.20868266 0.33675578 -0.036182832 -0.108200386 0.35030982 -0.16175865 -0.2888517
0.2101587 0.34499222 0.020511482 -0.32008418 -0.025710324 0.4143991 -0.05534718 0.26820412
0.21324764 -0.05676554 0.029222611 -0.05534322 -0.31207347 -0.23488717 0.25638473 -0.26799715
-0.22270335 -0.25802347 0.4179661 -0.12688272 -0.20986146 0.36008516 0.17330256 -0.38804322
0.41944483 0.22157863 0.12256028 -0.04724439 0.12811482 -0.14893924 0.28744972 0.1121052
0.38152242 0.12108124 -0.041769624 0.20250213 -0.0741241 0.12911648 0.07177267 0.34491715
-0.3031767 -0.00920307 -0.21763436 0.31366023 -0.16408944 0.22497 0.20923197 -0.115466766
-0.021108814 0.2721893 -0.31308237 0.406382 -0.08650129 -0.12293834 0.024164671 0.0085828705
-0.32651788 -0.02166538 0.2975449 -0.19722582 0.2867343 -0.40668973 0.3633732 -0.3241936
-0.27196556 -0.17187864 -0.17794925 -0.09203691 -0.2886521 0.23533213 -0.07445809 0.39350334
0.40489784 -0.35951927 0.2060885 0.33619642 0.15329988 0.0019808142 -0.2882197 0.42363366
0.122703575 0.3339216 -0.10576234 0.16204962 -0.2042556 -0.40268084 0.0116737485 0.41379088
0.04864272 -0.43964326 -0.008886473 0.2345413 -0.3179278 0.42613497 0.24829695 -0.17301114
0.1529817 0.27244872 0.30049425 -0.010039644 -0.048513137 0.21313281 0.13301545 -0.1294393
0.03441682 -0.3258583 -0.36712474 0.346172 -0.40949348 -0.26132768 -0.36947486 0.13069929
0.3056964 -0.051410273 0.36133122 0.42171255 -0.039332293 -0.37335145 -0.2529603 -0.010446135
-0.1276367 -0.29048678 -0.12280291 -0.0774792 -0.2871644 -0.36607313 0.3222652 -0.092319734
0.08680446 -0.18937948 -0.32861474 -0.06559873 0.26414186 0.40387177 0.04197353 -0.2784159
-0.12541388 -0.19457099 -0.079079546 0.004366466 -0.11546526 -0.18073356 -0.27865973 -0.09357459

attention_p.attn_1.bias f4 [16]
00000000: be56 d5bb db0a d0bb 5e96 de3b 337c d9bb
00000010: dbbe 17bc 5e0b dabb de85 ba3b 95b6 dbbb
00000020: 28c3 d13b 2276 e5bb 45b7 d13b 5bb3 e6bb
00000030: 4524 c33b 14fb d33b 5368 9e39 0eaa c3bb
-0.0065105846 -0.0063489503 0.0067928275 -0.00663712 -0.009261812 -0.006654187 0.0056922277 -0.006705115
0.0064014383 -0.007002608 0.0064000213 -0.007040424 0.0059552514 0.00646914 0.00030213836 -0.0059712

attention_p.attn_2.weight f4 [1, 16]
00000000: cb19 e3be fcc0 b8be 15c3 f03d 8012 29be
00000010: 7e34 71be 3f71 453c 67f6 b33e 937f 85be
00000020: 6074 843e 55d4 c4be 310d 9c3e f5c7 3bbe
00000030: 1f9b 833e 3f83 d73e 2d2f 0ebe 6738 97be
-0.44355616 -0.36084735 0.11755959 -0.16510963 -0.2355518 0.012050926 0.35148928 -0.26073894
0.25870037 -0.38443246 0.30478814 -0.18337996 0.25704286 0.4209232 -0.13885184 -0.2953522

lstm_t.weight_ih_l0 f4 [64, 7]
00000000: efcc 27be 34eb 8abd eaf6 cbbb f0b0 8ebd
00000010: 360b 4f3e 45bd 4abe cb9c 463e f94b b9ba
00000020: db27 663e 59fa 843d 1e56 57be 3a07 673e
00000030: f53a 673d 5aec d63d c262 2e3e 2782 85bd
00000040: fada da3c 2732 bdbd 1f19 013e 2b32 1a3b
00000050: a0b7 a43d 3e50 14be 8856 e8bd 8961 e4bd
00000060: 4c15 1fbe 46c2 3e3e b13f 3fbe 6f3b 193e
00000070: 0333 58be f854 583e 8ea5 7abe b7a0 393e
00000080: 8b89 563c 04c1 68bd 0e9d eebd 3857 183e
00000090: 34b6 873d e6e6 e43d f76c 713d e585 de3c
000000a0: 73a7 463e 8a87 cf3d 6f83 5c3e ca9c 37be
000000b0: 7f48 20bd 97c7 5dbd b6d5 be3d d610 603d
000000c0: 2307 21be 20eb f83d acda dcbc 07d9 2bbe
000000d0: feb0 773e f197 30be 3ed1 d3bd 5c19 683e
000000e0: 774e b0bd d7f1 123e 90ea 9dbd 3939 cabd
000000f0: 3121 6a3e 1feb 6fbe 070c 2c3d 1459 613c
00000100: 3541 2abe 06af 093d cfff b5bd 03ed 8f3d
00000110: e0a8 04be a117 30be 742c 58be d130 6d3d
00000120: 6668 413a 2977 6ebd 979b 3bbe 7ac5 ce3b
00000130: 94ad 49be 644a 953d efcf 26bd 9fcf 08be
00000140: 9517 c33d 8426 32be a07e 4f3b 18ff 0d3e
00000150: c9d4 553e 60fe bfbd 741f 58be ad96 273e
00000160: 64fc 023d 47cc 73be 05a6 56bc 8458 803c
00000170: 4ea9 71bd de01 2d3e 4b0c 493d 6ed3 0ebe
00000180: 49b7 efbc 29b6 833b ffbc f9bd 91d6 00be
00000190: f58c 04bd a0e5 eebc a741 26be 95db 543e
000001a0: b13d 793e 7fad 31be defe 073e f5fb 3fbe
000001b0: 944a 823d 63b7 7b3e d67f 123d 1319 46be
000001c0: dd0e ddbb 66a6 44be 3c98 4fbe 62f9 8cbd
000001d0: 2d46 29be 7b8c ad3d c47b 473d acec 63be
000001e0: e7ac 29bd 6d42 6f3e f303 323e 3aae 0e3e
000001f0: 4950 b93d 08f7 4bbe 6579 5f3e d1cf 6f3e
00000200: 36f0 84bd baa7 59be 6735 1fbd 055d 8bbb
00000210: e0d2 333e 20a7 093e 4f0b 54be a008 12be
00000220: 1def 093d 8df4 393e 9c32 99bc 1c11 81be
00000230: f470 e63d 9f71 54bd 730f 8f3d 5730 e33d
00000240: 39ae f93d 739a 8c3c 8623 ae3d 49ee a63d
00000250: 7b2b bfbd c818 7a3d edb6 253e 14d8 3fbe
00000260: e9db 523d e2b0 463e f687 e63d 22ef e9bd
00000270: a2ea 8f3d 551a 33bb c0e4 573e da1f 0cbe
00000280: 8fb3 f43d f505 ba3c d203 c23c 23d5 793a
00000290: 1326 52be c986 cf3d 679d 1ebe 9a04 783e
000002a0: ca82 a83d 058c fcbd d061 453e 5ef0 343e
000002b0: 6f42 6a3e 29d9 fb3d 44b3 623d f316 08be
000002c0: 1fde 693e 0662 f63d 181c f33d a729 683e
000002d0: d1bc 303e 548a 07be 6329 353e c800 b73d
000002e0: 44a5 cebd b53b 533e 2416 bebd 993a 99bd
000002f0: 9cad c53c 2f8c 903c ff09 413e 5f49 e7bd
00000300: 9387 67be 4c66 c23d e272 22be 0045 52be
00000310: 0505 3cbe d373 3bbe 3c5e 91bd 216e 2fbe
00000320: eaf3 233e 43f7 dabd 1ae0 1f3e ef31 13be
00000330: 4e09 1f3e 3f2b d83c 3540 76be b18d d7bd
00000340: 2e2b 6f3e 68b3 633e 0494 3c3e e146 453e
00000350: 8f58 4b3d 5e78 51be cd8a a5bd 3c5f 44be
00000360: cdc5 f73d b363 193e b98b ae3d 7cc6 593e
00000370: f19d 1bbd 1e3b 073e f5d7 8dbc f125 36bd
00000380: c55c 2cbe f5a8 24be c8ad e13c 1b53 08be
00000390: a1b0 003d 3943 eabd 17ad b9bc 0410 39be
000003a0: 834c 44be 5278 e03d aee7 3e3e b459 c1bc
000003b0: 9180 583d 1083 843d c8bf 573e 1e33 bbbc
000003c0: 7a5a 793e f09e 993c 41c5 263e 4232 25bc
000003d0: 153b e6bd 6a84 563c aed6 55be e929 563d
000003e0: d122 50bd 1d87 ae3d 70e0 65be 6db4 443e
000003f0: 4d11 5dbd 4157 bbbc 19ee 1c3d d8ec 5b3e
-0.1638677 -0.06783143 -0.006224503 -0.06967342 0.2021912 -0.19798763 0.1939575 -0.0014137021
0.22476141 0.064930625 -0.21028945 0.2256135 0.05645271 0.10494299 0.1702986 -0.06518965
0.026715744 -0.092380814 0.12607239 0.0023528438 0.08042836 -0.14483735 -0.113446295 -0.11151416
-0.15535468 0.18628797 -0.1867664 0.14964078 -0.2111321 0.21126163 -0.24477217 0.18127714
0.013094316 -0.0568247 -0.116510496 0.14877021 0.06626549 0.11176853 0.058941808 0.027163455
0.19399814 0.10133274 0.21534513 -0.17930904 -0.039131638 -0.05414542 0.09318106 0.054703556
-0.15725379 0.121542215 -0.02695974 -0.16782008 0.24188611 -0.17245461 -0.10342644 0.22665924
-0.08608716 0.14350067 -0.07710755 -0.098741956 0.22864224 -0.23429535 0.042003658 0.013754148
-0.16626437 0.03361418 -0.08886682 0.07027628 -0.12955046 -0.17196514 -0.21110708 0.057907883
0.00073779223 -0.05821911 -0.18321072 0.006310162 -0.19695121 0.072895795 -0.040725645 -0.13360451
0.09525982 -0.17397505 0.0031661168 0.13866842 0.20881952 -0.0937469 -0.21105748 0.16366072
0.03197898 -0.23808394 -0.013101106 0.015667208 -0.058999352 0.16895244 0.04908399 -0.13947842
-0.029262202 0.004019518 -0.12194251 -0.1258185 -0.03236099 -0.029162228 -0.16235982 0.20786889
0.2433994 -0.1735134 0.13280818 -0.18748458 0.06361881 0.24581675 0.035766445 -0.19345503
-0.0067461566 -0.19204101 -0.20272917 -0.068835035 -0.16530676 0.0847406 0.048702016 -0.22258252
-0.04142466 0.23365183 0.17384319 0.1393365 0.09048516 -0.19918454 0.21823652 0.2341912
-0.06491129 -0.21255389 -0.038869288 -0.004253032 0.17560911 0.1344266 -0.20707439 -0.14261103
0.0336753 0.18159695 -0.01870089 -0.25208366 0.11252013 -0.05186617 0.069853686 0.110932045
0.121914335 0.01716349 0.08502869 0.08150918 -0.09334465 0.06105879 0.16183062 -0.18734771
0.051479254 0.19403413 0.11256401 -0.11422564 0.070271745 -0.0027328928 0.21083355 -0.13684025
0.119483106 0.022707919 0.023683462 0.0009530356 -0.20522337 0.1013313 -0.15489732 0.24220505
0.08228071 -0.12331394 0.19275594 0.17669818 0.22876905 0.122972794 0.055346742 -0.13290004
0.22838639 0.12030415 0.11870593 0.22672139 0.17259528 -0.13236362 0.17691569 0.08935696
-0.10090116 0.20628245 -0.09281567 -0.0748188 0.024130635 0.01764497 0.1885147 -0.11293291
-0.22610311 0.09492168 -0.15864137 -0.20534134 -0.1836129 -0.18305902 -0.07098052 -0.17131855
0.16011015 -0.10691693 0.15612832 -0.14374517 0.15530893 0.026387809 -0.2404793 -0.10525072
0.23356315 0.22236407 0.18415838 0.1926532 0.049645003 -0.20456073 -0.08083115 -0.19176954
0.120982744 0.14979438 0.08522744 0.21267122 -0.03799242 0.13206145 -0.01731489 -0.044469777
-0.16832264 -0.16080077 0.027548686 -0.13312952 0.031418446 -0.11438603 -0.022665543 -0.18072516
-0.19169812 0.10960449 0.18643066 -0.023602344 0.052856985 0.06470311 0.21069252 -0.022851523
0.2435092 0.018752545 0.16286184 -0.010082783 -0.11241738 0.013093093 -0.20882675 0.052286062
-0.050814454 0.085218646 -0.22448897 0.19209452 -0.053971577 -0.022868754 0.038313005 0.21477067
