Params/300_0.001_20_16_222_model.pt (torch, 45301 bytes, 31 tensors)

lstm_p.weight_ih_l0 f4 [64, 10]
000000 18 55 cc bd 8c 7a d2 bd 19 64 37 bd e8 0d 5e bc
       -0.09977168 -0.1027728 -0.044773195 -0.01355312
000010 0d bd 6a 3e e9 61 f1 bd fd 11 b0 3d ae 59 3c 3e
       0.2292368 -0.11786253 0.08597181 0.18393585
000020 38 c5 8e bd 95 54 a2 bd 97 98 f0 3d f2 3b 31 3d
       -0.0697121 -0.07926289 0.11747854 0.04327006
000030 85 fe ab 39 f0 8d 7a 3e cb e3 1d 3c 29 41 f2 bd
       0.00032805293 0.24468207 0.00963683 -0.118288346
000040 1d ef 20 3b d7 e4 73 3d 5f 17 87 3d da 7d cd 3d
       0.0024556585 0.05954441 0.065962546 0.1003377
000050 9a 82 d2 3c d3 97 18 3d 01 7d 4d be af 56 37 3e
       0.025697041 0.037254166 -0.20067216 0.17904161
000060 a7 da 19 be d7 a9 bf bd 0c 3a a4 3d f4 37 2e bd
       -0.15024815 -0.09358566 0.08018884 -0.04253383
000070 9c 4d 26 3e 87 0c bd 3d 1d 76 61 3e 37 4a 9e 3d
       0.16240543 0.09230905 0.22017713 0.07728999
000080 a9 59 87 3d 4b 18 56 3d 96 66 1e be 55 12 1d 3d
       0.06608898 0.05226926 -0.15468821 0.03834756
000090 c0 07 b7 3d 96 02 45 bd 23 d6 02 be 3f 96 12 be
       0.08937025 -0.04809817 -0.12776999 -0.14315127
0000a0 dc a0 10 3e 62 63 33 be 84 1d 7a 3e 86 a5 ca bc
       0.14123863 -0.1751838 0.24425322 -0.02473713
0000b0 38 1e 86 3d 05 a9 2a 3e 15 96 3a 3e 0c 14 91 3d
       0.065487325 0.16666038 0.18221314 0.07083902
0000c0 b7 31 51 be 76 f5 cd 3a 65 45 c8 bd d4 17 52 be
       -0.20429121 0.0015713412 -0.09778861 -0.20516902
0000d0 87 15 aa bd b2 96 fe 3d 51 a4 1c 3d de e2 6a 3e
       -0.08304887 0.124310866 0.03824264 0.22938105
0000e0 2a 57 07 be 01 4d 01 3e ef f4 52 3e f6 ec 1e be
       -0.13216844 0.12627031 0.20601247 -0.15520081
0000f0 25 f6 65 3e 47 37 de 3d 3f 1d 5c bc d0 33 8f bd
       0.22457178 0.10850387 -0.013434707 -0.06992304
000100 e2 01 0b be 21 78 4f 3e 8e 02 a3 3d 5a 28 c0 bc
       -0.13574937 0.2026067 0.07959472 -0.023456741
000110 20 43 6c 3e 5f a3 08 be 8e 1e 00 be bb 12 f2 bd
       0.23072481 -0.13343571 -0.12511656 -0.11819979
000120 2b 7b 65 3e 92 32 48 be c6 8c 24 3c 55 25 a7 bc
       0.22410266 -0.19550541 0.010043329 -0.020403543
000130 b7 d5 22 bd 46 26 5b be e4 83 eb 3d 6e 78 1e bd
       -0.039754596 -0.21401319 0.114997655 -0.03868907
000140 c2 b2 5b be c5 1c 72 bc c5 4e 3b be 55 40 8b 3d
       -0.2145491 -0.014777367 -0.18291767 0.0679938
000150 0a e8 ee 3d c7 49 ec bd c3 77 61 3e 39 92 2b 3d
       0.11665352 -0.115375094 0.22018342 0.041887496
000160 82 79 5e be 41 12 c9 3c fb 82 8c 3b 7a 78 00 3e
       -0.21726039 0.024544837 0.004288075 0.12545958
000170 ec e8 5f be cb 3d 13 3d 5a 3d 10 be 99 67 0e 3d
       -0.21866196 0.035947602 -0.14085904 0.034766767
000180 55 63 3d be bb 44 bb 3c c9 e0 5d be 1f 14 90 3d
       -0.18494923 0.022859922 -0.2166778 0.07035088
000190 68 87 29 3d c7 96 37 3e b1 9f 6f 3e 3c 59 92 3d
       0.0413889 0.1792861 0.23400761 0.07145926
0001a0 89 4c c5 bd 6a 98 a0 bd 1b a6 0f 3e e6 2e 0a 3e
       -0.096337385 -0.07841571 0.14028208 0.13494453
0001b0 66 39 bf 3b 37 05 24 be 93 c0 13 be 5e 27 fc 3c
       0.0058357 -0.16017614 -0.1442893 0.03078049
0001c0 9a d3 b1 3d 4f 97 0f 3e 78 2c 11 3e df 83 35 3e
       0.08682938 0.14022563 0.1417712 0.17726086
0001d0 43 0e 02 bc e0 c6 1a 3e 32 f6 9e 3d 43 3f 72 3e
       -0.007937971 0.15114927 0.07761802 0.23656945
0001e0 99 31 1b 3e 84 11 bc 3c 21 be be 3d 0e 8e a0 bd
       0.15155639 0.02295757 0.09313608 -0.07839595
0001f0 68 08 5a be 75 9b ac 3d d3 13 6a 3e c7 e8 e3 3d
       -0.21292269 0.084280886 0.22859125 0.11128383
000200 ba 9b 7a 3b 3a 9d 5f be a8 29 54 be 59 0c bc 3d
       0.0038239793 -0.21837321 -0.20719016 0.09182043
000210 3a a7 8d 3d 04 76 15 3e bc ba 09 3e 41 c5 9a bc
       0.069166616 0.145958 0.1345014 -0.018892886
000220 a6 d3 60 be 67 89 c9 3d 47 f8 4c be 0b 82 5d 3d
       -0.21955737 0.098406605 -0.20016585 0.054079097
000230 52 29 c5 bc ac 3b fb 3d 36 67 68 3e 49 9c 41 bc
       -0.024067555 0.12267241 0.22695622 -0.011817046
000240 82 3e f2 3d d1 74 0e 3c a0 6c fb 3d 83 e2 fb bd
       0.11828329 0.008694843 0.12276578 -0.12299063
000250 5f 35 75 be 97 4f c8 bd 07 6c c6 3c f2 7e d6 3d
       -0.2394614 -0.097808056 0.024221433 0.10473432
000260 10 1a 26 3e 71 8f 67 bc 87 f1 ad 3d 31 9e 8c bb
       0.1622088 -0.01413332 0.08493333 -0.004291319
000270 de 06 5a 3e 12 a3 a6 3d f3 5b 38 3c 54 0d 81 bc
       0.21291682 0.08136572 0.011252391 -0.015753426
000280 0f 2b 8d 3d 1d 57 6c bd 1c 8f 69 3e ac 12 0d 3e
       0.068929784 -0.057700265 0.22808498 0.13776654
000290 57 c4 9e bd 57 7e cf 3d 37 57 dd bd 5c 58 4e be
       -0.077522926 0.10131519 -0.108076505 -0.20150894
0002a0 e6 c6 61 be ed 0f 66 be 3b da d2 bd 66 e9 c3 bd
       -0.2204853 -0.22467013 -0.102955304 -0.095660016
0002b0 ae a3 63 bd 67 98 55 3e ae ec 3a 3d 24 7d 00 3e
       -0.05557602 0.20858918 0.04563587 0.12547737
0002c0 d6 54 5c 3d 13 42 a1 3d 33 e0 9c bc d7 bc 5d 3b
       0.053791843 0.07873931 -0.019149875 0.003383448
0002d0 21 0b 78 3e 17 99 49 3e 39 56 14 bb e7 55 9e 3d
       0.24222995 0.19687305 -0.00226344 0.07731228
0002e0 ae e5 0e 3e ef a9 05 3e 00 70 17 3e b9 6a a5 bd
       0.13954803 0.13053106 0.14788818 -0.08076996
0002f0 93 e2 ce 3d 55 1c 66 3c 7f 55 ca 3d b8 f2 35 bd
       0.10101809 0.014044841 0.09879588 -0.044420928
000300 c5 2a 21 3e 91 9c 24 be 32 95 19 3e f8 33 9b 3d
       0.15738972 -0.1607535 0.1499832 0.075782716
000310 c9 cb 0a 3e 99 fd ce 3b ad eb df bd f1 ae 44 3b
       0.135543 0.0063168523 -0.109336235 0.00300115
000320 cd a0 00 3e de 46 6b 3d 8e e7 69 be b8 cd 4d be
       0.1256134 0.05744063 -0.22842237 -0.20098007
000330 32 2d 78 3e a6 4d 18 be a1 42 75 bd 8d 94 25 be
       0.2423599 -0.1487337 -0.059877995 -0.16169949
000340 b1 bd bd 3d 52 52 5b be 68 36 26 3e 36 5c 1d be
       0.092646964 -0.21418121 0.16231692 -0.15367207
000350 64 01 7b be d2 6e 0f bd f0 b1 7e 3d 02 62 d2 bd
       -0.24512249 -0.035017796 0.062181413 -0.102726
000360 e5 53 da 3d 57 50 5b be a4 70 61 3e a1 19 4f be
       0.10660533 -0.21417366 0.22015625 -0.2022462
000370 d6 ca 77 3d 2e 6b 36 bd fb cb af bd 30 a2 52 3e
       0.060496174 -0.04453581 -0.08583828 0.20569682
000380 7d d9 51 3e 41 b4 45 3e 42 6b 1f be 36 38 3c be
       0.20493121 0.19307043 -0.1556826 -0.18380818
000390 3a 65 62 be 94 c7 fe 3d d9 da 9d bc c9 a5 fd bd
       -0.22108927 0.1244041 -0.019269394 -0.12385137
0003a0 3a 3c 0b be 60 c9 f7 3d c6 d3 43 bd 6b 5d 0c 3d
       -0.13597193 0.12098956 -0.047809385 0.034268778
0003b0 17 13 52 be 88 de 66 3e af 74 86 bd 8b df d6 3d
       -0.20515095 0.22545826 -0.065652244 0.10491856
0003c0 db 40 47 be 3b 62 47 3e 27 a4 4a 3e 3e c0 08 be
       -0.19458334 0.19471066 0.19789182 -0.13354585
0003d0 36 a7 c4 bd 6a 9c 1b be 2b c1 72 3e 1f 1e 15 3e
       -0.096022055 -0.15196386 0.237065 0.14562272
0003e0 c2 1d e0 3d 8b 83 e8 3d 7e c1 46 be 04 d8 f0 bd
       0.10943176 0.11353215 -0.19409749 -0.11759952
0003f0 a3 39 34 be 74 94 9f bd d3 aa 95 bd f7 1f 13 3e
       -0.17600112 -0.07791987 -0.07307973 0.14367662

lstm_p.weight_hh_l0 f4 [64, 16]
000000 be b8 92 bc 03 1e 88 bb f1 48 45 bc 72 b6 80 3e
       -0.017910358 -0.0041539683 -0.012041316 0.25139195
000010 c1 e6 61 3e 43 da 20 be 30 8e 5f 3d 38 f9 1d 3d
       0.22060682 -0.1570826 0.05457896 0.03856775
000020 fc 4f 19 3e 6b ab 3b bd 65 b5 de 3d 2c 13 f5 3d
       0.14971918 -0.045817774 0.10874442 0.11966547
000030 d8 a1 84 3c 14 9f 4c 3e 1d 4a 96 3d 73 49 50 3e
       0.016190454 0.19982558 0.07338355 0.20340519
000040 ac 45 3c 3e fa 85 6c be c6 d7 08 be 8e c0 31 bd
       0.18385953 -0.23097983 -0.13363561 -0.043396525
000050 e9 d6 1b 3e 04 c6 39 be fa 78 2d 3e bb 7d c9 3d
       0.152187 -0.18141943 0.1694068 0.09838434
000060 f9 94 58 3d 8f c3 57 3e 16 c7 91 3c f7 cb 3a be
       0.052876446 0.21070693 0.017795127 -0.18241869
000070 42 e9 f2 3d 41 06 6a be 17 83 60 be f0 a4 a8 3d
       0.11860897 -0.22853948 -0.21925007 0.08234584
000080 d3 d3 4f 3e e1 c9 72 be e3 ef 2d 3e fe cf 3d 3e
       0.20295648 -0.23709823 0.16986041 0.18536374
000090 5d b7 29 be 43 c8 50 be 05 f3 f2 3b e7 18 26 3e
       -0.16573854 -0.20388894 0.007414224 0.16220437
0000a0 d3 e3 23 3d 9f 6a 2d be 5e 51 94 bd 08 0a b8 bc
       0.040012192 -0.16935204 -0.07242082 -0.02246572
0000b0 09 23 7a 3e f5 1b ec bd e0 a6 3b be c8 87 4c bd
       0.24427427 -0.1152877 -0.18325377 -0.04993418
0000c0 d5 3c 0d be 55 20 e4 bc 32 c0 bc 3c ba 09 db bd
       -0.13792737 -0.027847448 0.023040865 -0.106952146
0000d0 d4 ca d7 3d e1 cb 6c be a7 9b 28 3e 91 52 9d 3d
       0.10536733 -0.23124649 0.16465627 0.07681764
0000e0 25 de f2 3d 1c c2 8e bd 8b d4 a9 3d ea 1f be 3d
       0.11858777 -0.06970617 0.082924925 0.09283431
0000f0 56 2f 00 3d 96 c3 bd bd 63 c1 a6 bd 65 d9 1e 3e
       0.031295143 -0.09265821 -0.08142354 0.15512617
000100 9e 73 5d 3e 2c 95 99 bb a6 8a 49 be 4e fd 5f 3c
       0.21626136 -0.004686972 -0.19681796 0.013671232
000110 01 9d 71 be 58 d9 d9 3d d1 43 a1 bd b1 01 97 3d
       -0.23595048 0.10637158 -0.07874263 0.073733695
000120 66 52 ff bd d6 47 04 3e 4b 2e 2b be ae 40 35 3e
       -0.12466888 0.12918028 -0.16716878 0.17700455
000130 c9 bf 2c 3e ca 39 5d 3e 0d 28 ac 3d d6 00 13 be
       0.16870035 0.21604076 0.084060766 -0.14355788
000140 27 2b 95 3b fd 61 2d 3e c9 cb 23 be 8b 9e 3f be
       0.0045522633 0.16931911 -0.15995707 -0.18712823
000150 91 f9 a7 3d 23 43 f8 bd 2e 02 5c be 29 76 22 3e
       0.08201898 -0.1212218 -0.21485206 0.15865387
000160 c2 0d 25 3e 59 77 19 be 28 79 cc bd cf f1 ef 3c
       0.1611853 -0.14986934 -0.09984046 0.029290108
000170 3e 09 03 be c0 c7 67 be 10 ab e3 3d 92 23 9b 3d
       -0.12796494 -0.22634792 0.11116612 0.07575144
000180 ef fc 58 be 9c 01 2b 3c 96 a0 b4 3a 6f ca 02 be
       -0.21190237 0.010437395 0.0013780768 -0.12772535
000190 07 df 54 3e ed 9a 91 3d bb 48 81 3e 70 54 b0 bb
       0.20788203 0.07109628 0.252508 -0.0053811595
0001a0 3a b3 12 be da 39 60 bc 62 04 54 be 57 3a df 3c
       -0.14326182 -0.013685668 -0.20704797 0.027249498
0001b0 8d 27 55 be b9 28 47 3e 46 d0 51 bd 6a 16 0a 3e
       -0.20815869 0.19449128 -0.051224016 0.13485113
0001c0 5e cd 33 3e 63 7c 54 be b2 df 70 3e e4 d2 45 be
       0.1755881 -0.20750575 0.23522833 -0.1931873
0001d0 d9 54 6b 3e ef bc 83 bd f4 81 87 3d 3a 43 a0 3d
       0.22981586 -0.064325206 0.066165835 0.078253224
0001e0 7f db 80 3e 47 0f 46 3e 7e 7d 24 3e 80 57 56 3d
       0.25167462 0.19341765 0.16063496 0.05232954
0001f0 f9 62 ca bd 1c d7 82 3c 4f aa c7 ba 71 b2 2f 3e
       -0.09882159 0.015971713 -0.0015233251 0.17157914
000200 2e c6 36 be d0 74 31 3e b6 fb 09 3e 4d 6b 80 3e
       -0.17849037 0.17329717 0.13474926 0.25081864
000210 5a f0 5a 3d 30 b9 61 3e fd f6 2c be 27 32 46 be
       0.053451873 0.220433 -0.16891094 -0.19355069
000220 53 aa ed 3c ac b3 d7 3d 95 52 2d 3e c8 23 5b be
       0.029011881 0.105323166 0.16926034 -0.21400368
000230 d1 3e 3a bd 15 69 26 be 1f f1 ae ba 1d 64 e2 3b
       -0.045470063 -0.16251023 -0.0013347006 0.006908907
000240 0a 5c 45 be 3c 87 cb bc 98 99 25 be 80 1b b1 bd
       -0.19273391 -0.024844758 -0.16171873 -0.08647823
000250 f3 7d 05 3d a6 71 2d 3e 1b 67 ba 3c 69 d7 0b be
       0.032590818 0.16937885 0.022754243 -0.13656391
000260 d6 42 28 be bb e3 8a bd bf 1f 15 3d c5 d0 24 be
       -0.16431746 -0.067817174 0.03640723 -0.16095264
000270 17 cf 71 3e 86 58 f0 3d 27 96 55 3e 21 b1 2d 3d
       0.23614155 0.117356345 0.2085806 0.04240525
000280 65 22 28 be 92 c3 2d 3e 92 28 12 be b9 8c 55 3e
       -0.1641937 0.16969135 -0.14273289 0.20854463
000290 06 d6 37 3d 07 c3 3e 3e 9e 37 72 be cf ed ca bd
       0.044881843 0.18629085 -0.23654029 -0.0990864
0002a0 05 b3 07 3e 4d 2c 17 be c0 13 4d 3e 70 df 97 bb
       0.13251884 -0.14762993 0.20027065 -0.00463479
0002b0 c0 8d 51 be d1 73 d5 3d c3 ba 39 3d 4e a5 e8 bd
       -0.2046423 0.10422481 0.045344125 -0.11359654
0002c0 db 30 9b bd 1b 56 e8 bb 3a da 90 bd 2b a8 7b 3e
       -0.07577678 -0.0070903427 -0.070728734 0.2457587
0002d0 6d ad 48 be da 14 13 3c a8 5f 25 be a1 bf ae bc
       -0.19597407 0.008977139 -0.16149771 -0.02133161
0002e0 67 13 ed bd 76 9d 7e 3e 5b b8 06 be f7 fe 5b 3e
       -0.11575966 0.24864754 -0.13156264 0.2148398
0002f0 f5 2e f1 bc b4 14 d7 3b c8 96 90 bd 0a 8e 5c bc
       -0.029441336 0.0065637473 -0.07060009 -0.013461599
000300 c7 7f 59 bd 04 2f c9 bd 08 61 41 be 25 d0 91 bd
       -0.053100374 -0.09823421 -0.1888467 -0.071197785
000310 3b ab 09 be 8c 40 5d 3d db 3e 74 bb aa 68 1e be
       -0.13444225 0.054016635 -0.003726891 -0.15469614
000320 65 eb 74 be a9 19 f7 bd cb 1f 4e 3e 34 4a c2 3d
       -0.23917921 -0.12065441 0.20129316 0.094868094
000330 bd 16 11 3e 0d 48 86 bd d6 54 42 3e 64 19 4b 3e
       0.1416883 -0.06556711 0.18977675 0.19833905
000340 78 cc 01 be cd a3 07 be 58 50 0a 3e 19 92 1a 3e
       -0.12675655 -0.13246079 0.13507211 0.15094794
000350 3f a2 9a bd 99 30 ca 3d da 43 ba 3d b4 f9 d5 bd
       -0.07550477 0.098725505 0.09094973 -0.10448018
000360 5a c8 43 be 40 f7 83 bd b8 1b 35 be b8 d2 5f 3e
       -0.19119397 -0.064436436 -0.17686355 0.21857727
000370 b5 fa 07 3e a9 4a 74 3e 77 c7 20 3e 2c 2e bf 3d
       0.13279231 0.23856606 0.1570109 0.093349785
000380 86 c7 f9 3c b5 ac 35 3e 7a fe e0 3d 46 fe b7 3c
       0.030490648 0.17741664 0.109860376 0.022460114
000390 cf 83 37 3e f9 41 4c 3e d3 c3 a8 bd e8 88 4a bd
       0.17921375 0.19947042 -0.082404755 -0.04944697
0003a0 ce ef 35 bd 97 e9 3c be 9d a3 28 be 0d 02 4e be
       -0.04441815 -0.18448482 -0.16468664 -0.2011797
0003b0 62 6e 3a 3c 16 95 f7 bc e4 ce 05 3e 77 83 3a 3d
       0.011378856 -0.030222457 0.13067204 0.04553553
0003c0 d9 e8 06 be 65 f5 57 3d 9a 9c 5a be 51 37 c0 3d
       -0.13174762 0.05272426 -0.21348801 0.09385551
0003d0 2c 95 27 3e 7e 82 23 be 96 85 02 3d 9e d2 34 3c
       0.16365498 -0.15967748 0.03186568 0.011036543
0003e0 da dd 59 3d 10 ac 3f 3e 5a b0 2b be 4c 1b 24 be
       0.05319009 0.1871798 -0.16766492 -0.16026038
0003f0 9e 1c ee 3c 28 6f 50 be a9 ba f5 bd 28 78 9d 3d
       0.02906638 -0.20354903 -0.11998493 0.076889336

lstm_p.bias_ih_l0 f4 [64]
000000 83 6f 84 bc 21 45 4b be ee 68 37 be 62 e6 b2 bd
       -0.016166454 -0.1985059 -0.17911121 -0.08735348
000010 a1 53 15 3e 92 40 51 bd dd 9f 56 3c 71 ad 43 be
       0.14582683 -0.05108697 0.013099638 -0.19109131
000020 6c 2e 46 3e 86 68 82 be 26 e5 d2 3d 0c 55 7c 3d
       0.19353646 -0.2547037 0.10297613 0.061604545
000030 92 3a 72 3e 63 02 1f be bf c5 00 3e 13 36 f7 3d
       0.23655155 -0.15528254 0.12575434 0.12070861
000040 c7 9e 1b be 71 30 50 3e 14 6c 23 be 61 a7 2d be
       -0.15197287 0.20330979 -0.15959197 -0.16958381
000050 51 06 5a be 6d 55 4d 3e 7c 77 91 3d a1 1c bf 3a
       -0.21291472 0.20052119 0.07102868 0.0014580676
000060 4e 23 4b 3c 8d c0 36 3e 73 9f d5 bc c6 d0 12 3d
       0.012398554 0.1784689 -0.026077008 0.035843633
000070 1f b5 01 be c2 64 3f be 2d 6a 77 be e3 98 00 3e
       -0.12666748 -0.1869078 -0.24161597 0.12558322
000080 77 f7 be bd cc 29 03 be e0 45 29 3e ae 74 65 3e
       -0.09324544 -0.12808913 0.16530561 0.22407791
000090 07 b1 84 3c e3 b6 a4 bd a3 30 6d be d3 b3 61 be
       0.016197694 -0.080426954 -0.23163085 -0.22041254
0000a0 67 0d f7 3d 81 28 1b be 27 49 5d be 50 10 58 be
       0.12063103 -0.1515217 -0.21609937 -0.21099973
0000b0 5f 1c 8f bd 2a 30 00 3e d1 5a 2d 3e c7 38 88 bd
       -0.06987833 0.12518373 0.16929175 -0.066514544
0000c0 c8 03 51 3e 16 c4 5c 3e d8 48 03 3e fc 32 71 3e
       0.20411599 0.21559176 0.12820756 0.23554605
0000d0 d1 44 7d be b1 6e 97 3d bf d7 45 be 46 59 ed bb
       -0.24733283 0.073941596 -0.19320582 -0.0072433082
0000e0 9a 2a 86 3d c3 0a 97 3d cf 06 06 bd ed 93 58 3d
       0.06551094 0.073750995 -0.032721337 0.052875448
0000f0 e9 ab 10 be be a5 2c 3e 9e 80 dc bd 58 af 25 be
       -0.14128079 0.168601 -0.10766719 -0.1618017

lstm_p.bias_hh_l0 f4 [64]
000000 d0 0c 75 be d6 6b 29 bc 8e 1b b7 bd ee 4c b1 3d
       -0.23930669 -0.0103406515 -0.089408025 0.08657251
000010 64 42 92 bc 4e cc 80 3d 84 9f 39 be 43 73 6a 3e
       -0.017853923 0.06288968 -0.18127257 0.22895531
000020 c9 9a da bb 37 8d 4b be f8 24 41 3e ba 3b b4 3c
       -0.006671284 -0.19878088 0.18861759 0.022001136
000030 7d 41 16 bc 65 04 06 be 0d ca ac bd 58 3a 16 3d
       -0.009170887 -0.13087614 -0.08436976 0.036676735
000040 52 73 fd 3d fd 93 72 be 59 53 36 3d 7e 61 80 3d
       0.12375511 -0.23689266 0.04451308 0.06268595
000050 ed 9d 08 3e 07 bd b7 3d 1c 07 98 3d 81 6c 54 3e
       0.13341494 0.08971601 0.07423231 0.20744516
000060 fe e2 8e bd b3 db ee 3c 94 54 ab bd 3e 90 46 3d
       -0.06976889 0.029157495 -0.08365741 0.048477404
000070 75 89 da bd a5 a7 a8 3d 67 09 91 3c cb 3e 05 3b
       -0.10670749 0.08235101 0.017704679 0.0020331617
000080 4e f1 6b be f8 67 2a 3e 0a ed 71 be 8d 0f 5b 3d
       -0.23041269 0.16641223 -0.2362558 0.053481627
000090 c8 20 17 be d6 c8 26 be df a2 fc bb 8b 88 2d be
       -0.14758599 -0.1628755 -0.0077098454 -0.16946618
0000a0 21 2f fc bd 9d 0c 1d be 07 8e 2c 3e 57 68 c6 bd
       -0.123136766 -0.15336843 0.16851054 -0.0968787
0000b0 8d 09 a0 3d 0d 7f 13 bd cb 45 47 be c1 58 f0 3d
       0.07814322 -0.036009837 -0.19460218 0.117356785
0000c0 f5 59 f2 bd 14 3a 17 3e f6 62 4d be 32 40 7d be
       -0.11833564 0.14768249 -0.20057282 -0.2473152
0000d0 bc f8 98 3d 3f 99 46 bd 15 c9 12 be 60 62 74 3e
       0.07469317 -0.04848599 -0.14334519 0.23865652
0000e0 a9 d1 73 3e ad 11 7b be 79 09 4d 3e 3b f7 06 3e
       0.23810448 -0.24518462 0.20023145 0.13180248
0000f0 ce 24 92 bd ad d3 cd bd aa 21 88 3d cb 60 78 bd
       -0.07135926 -0.100501396 0.06647046 -0.060639184

lstm_p.weight_ih_l1 f4 [64, 16]
000000 a5 29 6a bd 48 ba 9a 3d eb 9d 62 3e fc 5a 28 3c
       -0.05716862 0.075550616 0.22130553 0.010275599
000010 5d 24 2c be 66 ed c6 3d b5 7c 5f 3e 6b ef 60 3e
       -0.16810746 0.09713249 0.21824916 0.2196633
000020 1e 39 55 3e 33 0b dd bd 89 d9 14 be 66 3f 03 3e
       0.2082257 -0.10793152 -0.14536108 0.12817153
000030 a9 a5 c0 3d e4 7a 43 3e e9 69 bf bd a8 7a d2 bd
       0.09406597 0.19089848 -0.09346373 -0.10277301
000040 83 3f 5a bd ab 72 3d 3e e3 a0 ac 3d f1 12 73 3e
       -0.053283226 0.18500774 0.08429124 0.23737694
000050 af 72 03 be eb 5e 9f bd 40 86 0b 3e 31 cd 7e bd
       -0.12836717 -0.07781776 0.13625431 -0.062207405
000060 be fb 45 3e 76 c9 7c bd 87 fd 25 3e 8f 15 20 3e
       0.19334313 -0.061715566 0.16209994 0.15633224
000070 8d ef 57 3d dd 8c 84 bd 66 46 21 be 0b f2 04 be
       0.052718688 -0.0647218 -0.15749511 -0.12982957
000080 02 a1 07 be fa 83 35 be c3 12 34 3e 5a 0e b3 3d
       -0.13245013 -0.17726126 0.17585282 0.08742972
000090 66 b7 c5 bd ff 12 55 3e cc 57 ee 3c 58 87 2d bc
       -0.09654121 0.20808028 0.0290946 -0.0105913505
0000a0 cf 8e 25 3e 6a 85 75 3e b3 0e 29 3e ce e0 e2 bd
       0.16167758 0.23976675 0.16509514 -0.11078034
0000b0 2a be 6c be f0 2b f5 bd 5d 64 44 bd f4 a5 f0 3d
       -0.23119417 -0.11971271 -0.047947276 0.11750403
0000c0 f6 f5 17 3e a1 72 72 be cf 66 56 3e 31 5b 76 3e
       0.1483992 -0.2367654 0.20937656 0.24058224
0000d0 c8 4f 9b bd 88 19 56 3e 7a dc 04 3e 96 42 1d be
       -0.075835764 0.20908177 0.1297473 -0.15357432
0000e0 ff 92 b0 bd 75 ad 43 be 30 c1 67 3e 48 09 3a 3e
       -0.08621787 -0.19109137 0.22632289 0.18167603
0000f0 fa 1d 2d 3e 45 b2 06 3e e8 05 25 3e b0 4e 2b 3e
       0.16905966 0.13153942 0.16115534 0.16729236
000100 93 f2 6e bd 66 52 b6 bd 64 1a 44 3e b7 26 b4 bd
       -0.058336806 -0.08902435 0.19150692 -0.08796447
000110 9d 59 fc 3d 65 67 ca bd 86 7d 54 be 63 5a 47 be
       0.1232178 -0.09883002 -0.20751008 -0.19468074
000120 03 46 6b 3e fc 62 64 3e 51 40 5e be a1 cf 7b 3c
       0.22975926 0.22303385 -0.21704222 0.015369327
000130 a7 9b 5c 3e 0a f4 1b be de e6 a5 3b 13 b0 00 3e
       0.21543752 -0.15229812 0.005062922 0.12567167
000140 ed e0 1d 3e 1f ed ba bd be 06 71 bd 2b f9 47 3d
       0.15417834 -0.091272585 -0.05884432 0.04882161
000150 a9 e1 56 3d c2 53 2e bd 24 d4 5f 3e a4 32 0a be
       0.0524613 -0.042560346 0.21858269 -0.1349588
000160 88 00 e8 bd ba 7d 5f 3e a9 3a 26 bc 25 b3 2f bc
       -0.11328226 0.21825305 -0.010145822 -0.010723864
000170 a1 e2 04 3e c0 11 dc 3d 02 d7 9b ba e9 a6 cc 3d
       0.12977077 0.10745573 -0.0011889639 0.09992773
000180 41 a2 fa 3d 75 fc b0 bd 16 89 19 3e b0 9b 23 3e
       0.12237979 -0.08641902 0.149937 0.15977359
000190 fb a7 79 be ec be 1a be ee d9 49 3e 8a cf 70 3c
       -0.24380486 -0.15111893 0.1971204 0.014697919
0001a0 41 59 0a 3e 18 6b ca 3d 9a 76 b4 bd da f9 b8 bd
       0.1351061 0.09883708 -0.08811684 -0.090320304
0001b0 3d 7d 53 be 33 a5 29 be 58 e8 61 3e 18 c1 55 be
       -0.20653243 -0.16566925 0.22061288 -0.2087444
0001c0 e5 b3 04 3e cd f5 f6 3d e0 f3 60 3e ee bd 7d be
       0.1295925 0.120586015 0.21968031 -0.24779484
0001d0 f6 07 df 3d 07 47 df 3d 1e e2 2e 3e 79 b5 6e 3e
       0.1089019 0.10902219 0.17078444 0.23311414
0001e0 b6 50 03 3e 0b 8d 92 3d 8e 4c 1d bd 1c ec 5e be
       0.12823758 0.07155808 -0.038403086 -0.21769756
0001f0 cb 04 b1 3d 5d 34 cd bd f3 e5 0a 3e a4 7a 54 be
       0.08643492 -0.10019753 0.13564281 -0.20749909
000200 10 18 04 bd ee 6e 21 3e 0a 2b 05 3d 84 58 18 bd
       -0.03224951 0.15764973 0.03251175 -0.03719379
000210 74 6a 9e 3d cc 3c 9d 3d 2b b1 53 be 2f a4 a1 bc
       0.07735148 0.07677612 -0.20673053 -0.01973161
000220 19 f6 d4 3d 64 e2 47 3e 5c ed 05 3e 94 78 11 3d
       0.10398502 0.19519955 0.13078827 0.035515383
000230 7a 6a 4c 3e 43 a8 22 3e b5 cb 78 bd 3c b1 f2 3c
       0.19962493 0.15884499 -0.060741145 0.029625528
000240 80 4b 97 bd 22 82 d5 bd 87 93 41 3e 02 f8 df 3d
       -0.07387447 -0.104252115 0.18903933 0.109359756
000250 63 d7 63 3e 15 78 b3 3d 85 4f 02 be 3b 60 89 bb
       0.22250132 0.08763138 -0.12725647 -0.00419238
000260 15 05 f8 3c 7f a0 c2 3c 72 fd 5a be f2 c5 4a bd
       0.03027586 0.023758171 -0.21385744 -0.04950518
000270 e9 7f fd bc ab 69 5e be 2e 0d 3f be 62 57 48 3e
       -0.030944781 -0.21719997 -0.18657371 0.19564584
000280 e6 d4 61 be 78 21 44 3d 8c b8 e9 3b 9d 80 63 be
       -0.2205387 0.04788348 0.0071325954 -0.22217031
000290 09 14 4a be 19 53 52 bc 9f a4 79 be 11 19 c3 3c
       -0.19734205 -0.012837195 -0.24379204 0.023815664
0002a0 22 d4 21 3e 54 d3 e8 bd 0a fd 41 3d 75 a5 85 bc
       0.15803578 -0.11368433 0.047360457 -0.016314248
0002b0 54 2c 62 3e f5 76 84 bc 4a d1 db bd 3d ee 40 bc
       0.22087222 -0.016170004 -0.10733278 -0.01177555
0002c0 3c 4b 00 be b2 50 14 be 58 4e ab bd 45 3d fa 3c
       -0.125287 -0.14483908 -0.08364552 0.030546794
0002d0 88 b6 7c 3e a9 52 3b be b2 e7 16 3d f2 06 0a 3e
       0.24679005 -0.18293251 0.036842056 0.13479212
0002e0 c9 cb 6e 3e 10 e2 2e 3e 14 c5 26 3e 3e bf 4e be
       0.23319925 0.17078424 0.16286117 -0.2019014
0002f0 b2 1c 58 3e 7b 7e 4b be dc b5 9b 3d 91 84 5f 3d
       0.21104696 -0.19872467 0.07603046 0.054569785
000300 a7 78 cd 3d d3 1d 43 bc b5 86 88 bc 4f 9a e7 bd
       0.10032778 -0.011908966 -0.016665796 -0.11308729
000310 34 d1 45 3e af 06 08 be ce 46 63 be 56 71 7a 3e
       0.19318086 -0.132838 -0.22194979 0.24457297
000320 fc 84 dc bd 53 40 3a be 52 e3 25 be f8 49 01 be
       -0.10767552 -0.181886 -0.16199997 -0.12625873
000330 4a a3 18 3e d4 68 57 be f1 40 67 be 43 9c 36 3e
       0.1490604 -0.21036083 -0.22583367 0.17833047
000340 14 bf 56 be 10 f6 20 be 0b 6f ec bc c7 37 63 be
       -0.20971328 -0.15718865 -0.028861543 -0.22189246
000350 e1 e2 44 3e 54 46 0a 3e 42 3e 76 3e 31 48 2e be
       0.19227172 0.1350339 0.24047187 -0.17019726
000360 4a e7 37 be e5 7c ee bd 64 5d f9 3d 9d 5c 40 3e
       -0.17959324 -0.116449155 0.12176016 0.18785329
000370 cf 32 2c be 07 2a bb 3d 94 f5 0f 3e 6d f1 61 3e
       -0.16816257 0.091388755 0.14058524 0.22064753
000380 f6 40 c6 3d ea 25 66 3e ed 1d 0f be 66 c5 02 3e
       0.09680359 0.224754 -0.1397626 0.12770614
000390 7f 72 73 be 84 f0 08 3e 30 d3 2a 3c 4c 5a 6e be
       -0.23774146 0.13373 0.010426328 -0.23276633
0003a0 45 57 4f 3b bc 77 43 3e 48 9d 13 bb e3 ae 0b 3e
       0.003163771 0.19088644 -0.0022524167 0.13640933
0003b0 6f 03 c9 3d aa a6 39 be 7b 7a c2 bd 90 96 4d 3e
       0.09815108 -0.18129984 -0.094960175 0.20076966
0003c0 75 50 0e 3e eb bd 1c 3e a2 c3 e6 3c e9 b0 87 bc
       0.1389788 0.15306823 0.028169457 -0.01656385
0003d0 17 4e 9e 3d ea 84 a6 bb 8e a3 32 bd 4b 4c 61 be
       0.07729738 -0.0050817626 -0.04361301 -0.2200176
0003e0 89 da 8b bd bb 7d b1 3c b3 bc 81 3d d8 60 04 3e
       -0.06828792 0.021666398 0.0633482 0.12927568
0003f0 f7 d9 61 3d df bd a2 bc b1 91 1c 3e 32 aa bb 3d
       0.055139508 -0.019865928 0.15289952 0.091633216

lstm_p.weight_hh_l1 f4 [64, 16]
000000 34 c7 44 3e f2 98 15 be 15 4a 67 3e 66 ca e6 bd
       0.19216615 -0.14609125 0.22586854 -0.11269073
000010 2a 6c 41 bd 7d e7 40 be 2b 83 87 3d 14 fd 46 3e
       -0.047222294 -0.18838306 0.06616815 0.19432479
000020 5d a7 a3 bd e5 ae 24 3e 15 83 84 bc f1 9c 79 3e
       -0.079909064 0.16082342 -0.016175786 0.24376275
000030 26 d0 15 be ce c2 35 3c b5 c7 48 3e 20 0c 4f be
       -0.14630184 0.011093808 0.19607432 -0.20219469
000040 a8 76 f9 3d 7f 82 75 be 57 e3 44 3e f8 81 c3 3d
       0.12180835 -0.23975562 0.19227348 0.09546274
000050 b3 6c 4c 3d 2c 28 6c be 36 4a 82 3e ad d8 38 3e
       0.04990835 -0.230622 0.25447243 0.18051405
000060 da cd 6e 3e 07 78 57 be 56 c5 64 3e 27 78 24 3d
       0.23320714 -0.2104188 0.22340903 0.04015365
000070 4d 5c 1d 3e 27 e6 78 be 68 cc 00 be a8 0a 81 3c
       0.15367241 -0.24306546 -0.12577975 0.015752152
000080 e6 99 1f 3e e0 53 66 be df e9 14 3e 5d 01 08 3e
       0.15586051 -0.22492933 0.1454234 0.1328177
000090 71 81 42 be 3d 36 63 3e 18 b8 d8 bd 07 45 94 3d
       -0.1899469 0.22188659 -0.10581988 0.072397284
0000a0 ec f5 24 be fe 25 0c be 9a 16 80 bd a5 82 ab bd
       -0.16109437 -0.13686368 -0.06254311 -0.08374528
0000b0 6d 80 01 3d 46 37 82 bd 3c a2 17 be 97 73 61 3e
       0.031616617 -0.06358199 -0.14807981 0.2201675
0000c0 4d 03 f0 bb de 9a 54 be c7 6a 5d 3e 67 31 59 3e
       -0.0073246122 -0.20762202 0.21622764 0.21210252
0000d0 b1 2d 0b be 4c a8 32 3e b5 31 d0 bd 18 85 48 be
       -0.13591649 0.17447013 -0.10165731 -0.19582021
0000e0 37 75 81 be 46 3d 04 be df fb f2 3d 58 7c 79 3e
       -0.2528474 -0.12913999 0.11864447 0.2436384
0000f0 41 1a 68 3e 00 29 17 bd fb 1a 66 bd c0 d8 c6 3a
       0.22666265 -0.036904335 -0.056178074 0.0015170798
000100 f9 c4 5e 3e 48 0a 3a be 9c 21 02 be df b3 89 38
       0.21754827 -0.18167984 -0.12708133 6.566173e-05
000110 2c 36 6b be d4 c7 07 3e 7c 7f 21 be a2 c4 98 bd
       -0.22969884 0.13259822 -0.15771288 -0.0745938
000120 16 6d 07 be 90 c0 2c bc ab f7 5c 3e 5c 9a cb bd
       -0.13225207 -0.010543957 0.21578853 -0.09941551
000130 41 c9 d0 bd 2c f8 e8 3d 01 86 01 bd a3 bc 92 bc
       -0.10194636 0.1137546 -0.031621937 -0.017912215
000140 0f a9 48 3e c6 43 91 3d 6e 9f 21 bd 6c ae 5a 3e
       0.1959574 0.07093005 -0.039458685 0.21355599
000150 1a 22 77 be b3 bf 50 3e 84 5b b9 bd ae fb 35 3e
       -0.24134102 0.20385627 -0.09050658 0.1777179
000160 56 44 a5 bd 44 13 59 be d5 a1 68 ba 7b ed 5f 3e
       -0.08069675 -0.21198756 -0.00088742125 0.21867935
000170 c4 58 18 3d 8e f6 50 be e6 b2 3a 3e dc d3 7e 3e
       0.03719403 -0.20406553 0.18232307 0.24885505
000180 47 7a 61 3e 6c fb 07 be 93 75 2e be 84 3d 80 be
       0.22019301 -0.13279504 -0.17037039 -0.25046933
000190 66 36 46 bd 95 44 82 3d 6b ae 7e be 17 89 94 3b
       -0.048391722 0.06360737 -0.24871223 0.004532944
0001a0 df 27 03 3d 29 53 36 3e 39 dd 2c 3e 74 56 c8 3d
       0.032020446 0.1780516 0.16881265 0.097821146
0001b0 0c 96 9c bc c4 af 69 3e e7 af ad bc 02 5f 5c bd
       -0.019114517 0.22820956 -0.02120204 -0.053801544
0001c0 37 77 02 be e0 2b 86 3d 60 79 19 be 0e ea d7 3d
       -0.1274079 0.06551337 -0.14987707 0.10542689
0001d0 7a 9b 63 be 85 db d6 3c 5f ff 17 bc da 1c 32 be
       -0.22227278 0.026227722 -0.009277194 -0.17393818
0001e0 17 ee 4f 3e e9 33 4a 3e 39 b6 1e 3e 86 b8 38 3e
       0.20305668 0.19746365 0.154992 0.1803914
0001f0 34 bb 6e bc 41 68 21 be ad 7a 80 bd ae 92 1c be
       -0.014571 -0.15762426 -0.062733985 -0.15290329
000200 b3 fb 01 be 9c 3d 0f 3d d1 d4 ca bd 9f 5a 81 3e
       -0.12693672 0.034970865 -0.09903873 0.2526445
000210 31 c3 24 3e e7 64 81 3e 43 55 f0 3d 97 ea 10 3e
       0.16090085 0.25272295 0.117350124 0.14151989
000220 6d dc 01 be f6 31 49 3e 06 30 42 3e fd b7 ac 3d
       -0.12681742 0.19647965 0.18963632 0.084335305
000230 15 4d a6 3d 0f e1 59 be 42 27 ef ba b3 ef 56 3e
       0.08120171 -0.2127726 -0.0018245953 0.20989875
000240 e8 30 ce bd a9 3d 44 3e 9e 86 01 be ce 61 28 be
       -0.10067922 0.19164146 -0.12649009 -0.1644356
000250 02 a3 11 3e e1 88 06 3e 59 1d b0 3d c7 28 d9 bd
       0.14222339 0.13138153 0.085993476 -0.10603481
000260 4c 92 28 3e fb 17 d5 bd 87 c7 0b 3e 9e d4 67 3e
       0.16462058 -0.104049645 0.13650332 0.22639701
000270 71 83 f2 bd c6 27 4a 3e 39 08 33 3e a9 39 92 3d
       -0.11841477 0.19741735 0.17483605 0.07139904
000280 c9 14 cd bd bf 9f 75 bd 0a 88 1e 3e 94 89 ce 3d
       -0.1001373 -0.0599668 0.15481582 0.10084835
000290 1c 0c 40 3b fe d2 c2 bd cc ae ce 3c 2b af 7d 3e
       0.0029304093 -0.095129 0.025229834 0.24773853
0002a0 84 57 47 3e f2 a7 26 be 72 48 80 3e 17 7f 17 3e
       0.19466978 -0.16275004 0.2505527 0.14794575
0002b0 11 66 82 3e 6b 2f 92 bd dc 6c 8d 3d a9 af 3f bd
       0.25468495 -0.071379505 0.06905529 -0.046798382
0002c0 55 62 11 be f8 1a 9c bd c1 17 17 be 8c 4d 89 3d
       -0.14197667 -0.076223314 -0.14755155 0.06704244
0002d0 c1 b3 22 bd e3 4a 50 be e8 59 aa bd 5e 25 37 bb
       -0.039722208 -0.20341067 -0.083179295 -0.0027945857
0002e0 16 7b 02 be 2c e6 22 be a4 c4 71 be be 11 07 3e
       -0.12742266 -0.15908116 -0.23610169 0.13190362
0002f0 62 fb 0f 3e 6a 83 80 be 07 26 07 3e 6c ec 41 be
       0.14060739 -0.2510026 0.131981 -0.18937844
000300 c8 a1 d6 bd d0 9d 1f be 4b 8a 69 bd 5b b4 07 be
       -0.10480076 -0.15587544 -0.057016652 -0.13252394
000310 a4 ce ed bb 5d 95 3a 3d 33 f2 d6 bd 1b 1b 1e 3e
       -0.0072572995 0.0455526 -0.104954146 0.15440027
000320 93 65 be bd 23 fc 84 bd bc 5d 80 3d 6e 2b fc 3d
       -0.092967175 -0.06493404 0.062678784 0.12312971
000330 02 3f 34 3e ad 64 cb 3d 29 78 a5 3c 8a e2 00 bd
       0.1760216 0.09931312 0.020198898 -0.031466044
000340 3b a9 1a be f8 79 57 3e 72 1d 50 bc dd 0e 44 3e
       -0.15103619 0.21042621 -0.012702333 0.19146295
000350 47 e6 e5 3d 1f c5 24 3e 40 c9 2c be fe d0 f4 3d
       0.112255625 0.1609082 -0.16873646 0.119539246
000360 36 a5 7d 3e 24 bb 5d be 9d 3b 2c 3e 3d 60 12 be
       0.24770054 -0.2165342 0.16819616 -0.14294524
000370 b2 c9 16 be ed cd 5f be a9 04 7d be b1 05 37 be
       -0.14725378 -0.21855898 -0.24708809 -0.17873265
000380 e5 61 3a be fb b2 bb ba 45 80 e9 bd 63 bf fe b9
       -0.18201406 -0.0014320308 -0.114014186 -0.0004858925
000390 f6 58 28 3e 9c 72 59 3e 68 4c 46 be 92 35 41 3e
       0.16440186 0.21235126 -0.19365084 0.18868092
0003a0 60 80 9f bc 53 c6 ba bd d0 72 82 3e 08 be 59 be
       -0.019470394 -0.091198586 0.2547822 -0.21263897
0003b0 ec 2e 0f be 96 d5 cf 3d 64 63 dd 3d 22 ef ea 3d
       -0.13982743 0.1014816 0.10809973 0.11471392
0003c0 0c 44 61 be 80 f2 29 be 43 78 24 be a3 48 2e 3e
       -0.21998614 -0.16596413 -0.16061501 0.17019896
0003d0 b6 cb dd 3d 60 21 f1 bc ab 02 30 3e 04 10 7d 3c
       0.108298704 -0.02943486 0.17188518 0.015445713
0003e0 87 b5 70 be 96 20 99 bd 03 93 05 3e d2 35 5f bd
       -0.23506747 -0.074769184 0.13044362 -0.054494686
0003f0 6d 07 d7 3d f3 05 5d 3d 02 d6 71 bd 4d 66 44 be
       0.10499463 0.05396075 -0.059041984 -0.1917965

lstm_p.bias_ih_l1 f4 [64]
000000 b8 49 92 bd bc ee 1b 3c 67 e1 2c 3d 5e 1b 71 be
       -0.07142967 0.009517368 0.042207148 -0.23545596
000010 f9 a9 7c be a2 35 72 3d 87 cf 0a be 6a 1b 40 3e
       -0.24674214 0.05913318 -0.13555728 0.18760458
000020 18 ea 7e 3d 6f d5 6a 3d 24 b9 78 be a3 d2 a5 3d
       0.062234968 0.057332452 -0.24289376 0.080968164
000030 b8 e6 0d bd 96 8b fe bc 08 b1 46 be 07 53 81 be
       -0.03464386 -0.03107242 -0.1940347 -0.25258657
000040 9a 81 30 3e 50 d2 21 be 69 5f 56 3d ff 68 34 be
       0.17236939 -0.15802884 0.052337084 -0.17618178
000050 b9 08 44 be b4 86 e3 3d a1 a1 87 3d b5 7d f4 bd
       -0.19143952 0.11109677 0.06622625 -0.11938039
000060 c1 90 e0 3d 8d f6 19 be ff e8 30 be 05 bc a8 3c
       0.109651096 -0.15035458 -0.17276381 0.020597467
000070 75 f5 bb 3c 42 fa 43 be d0 1c 13 be 66 25 10 be
       0.022944191 -0.19138435 -0.1436646 -0.14076766
000080 40 83 8c bd 60 19 07 3e e9 dd 64 be 5b 0b 33 3e
       -0.068609715 0.13193274 -0.22350277 0.174848
000090 9f 76 80 3c f7 ea ea bc 11 bd 08 be 49 84 54 be
       0.015681563 -0.028676493 -0.13353373 -0.20753588
0000a0 ec de aa bd 55 12 00 3e 0d b6 49 be 33 7c 60 3e
       -0.083433 0.12506993 -0.19698353 0.21922378
0000b0 f5 51 28 be 4d 43 14 3e 65 27 66 be 2f 11 6f be
       -0.16437514 0.14478798 -0.22475965 -0.23346399
0000c0 a4 03 c4 bd 81 29 3f 3e 4b 24 f9 3d 06 be 16 be
       -0.09571007 0.18668176 0.121651255 -0.14720926
0000d0 18 09 8c 3d 1c 72 04 be 9f d0 60 3e 7a de 70 3e
       0.06837672 -0.12934154 0.21954583 0.23522368
0000e0 da 61 a2 3b 00 28 2b 3e 61 39 bb bd 5c ed a7 3d
       0.0049555125 0.16714478 -0.091418035 0.081995696
0000f0 07 71 08 3e 9c 16 fe 3d 0a d0 a0 3d a3 52 6a 3e
       0.13324367 0.12406656 0.0785218 0.22883086

lstm_p.bias_hh_l1 f4 [64]
000000 20 43 95 3d 6b 3b 2a 3e 0e 2a 01 3e 16 47 7c 3c
       0.07288194 0.16624229 0.12613699 0.015397808
000010 84 f1 56 bd 13 b1 3d 3e 1b d3 5d 3e ae d4 59 3e
       -0.05247642 0.1852458 0.21662562 0.21272537
000020 2d a2 84 3d 38 05 0f 3e e4 7a 15 be 39 02 26 be
       0.06476245 0.13966835 -0.1459766 -0.16211785
000030 70 b1 21 3d b3 41 48 be 28 14 fb bd d8 de 0e 3e
       0.03947586 -0.19556312 -0.12259704 0.13952196
000040 4a 84 fb bd de 77 28 be bd 91 5f be b5 ff 22 3e
       -0.122810915 -0.16451976 -0.21832938 0.15917857
000050 ad 91 29 3e e0 66 36 3e 3c 2e 33 bd 32 d2 00 be
       0.16559477 0.17812681 -0.043745264 -0.12580183
000060 f4 77 67 3e c5 ec 23 be f5 12 50 3e 1b 6c 32 3d
       0.22604352 -0.16008289 0.20319732 0.04356013
000070 84 d4 d6 bd 94 53 e1 3d 7c 6e 0c be 54 4d 9b 3c
       -0.10489753 0.110022694 -0.13714021 0.018957771
000080 ae 63 4d 3e d4 1d 5c bd 69 26 84 3d 37 58 2c 3e
       0.20057556 -0.053739384 0.06452639 0.16830526
000090 25 68 9b bd 20 33 18 3e cb 40 3d 3e 35 9d f0 3c
       -0.07588223 0.14863253 0.18481748 0.029371837
0000a0 40 d6 41 3e 92 11 57 3e 21 b0 36 be 5a c3 ea 3d
       0.18929386 0.21002796 -0.17840625 0.114630416
0000b0 c7 00 2c bb 3e 71 c0 bd a5 39 48 3e 17 95 d6 3c
       -0.002624558 -0.09396599 0.1955324 0.026194138
0000c0 0a e1 41 bc c8 9d d0 3d 7b 96 94 3d 77 7e a1 3c
       -0.011833439 0.101863444 0.07255264 0.019713623
0000d0 50 69 dc 3d e7 35 cc bc f5 93 4f be b8 d9 cc 3d
       0.10762274 -0.024928046 -0.20271285 0.10002464
0000e0 b5 7f 39 bd 73 2b f6 bd e2 85 1b be c8 32 ed 3d
       -0.045287807 -0.12020006 -0.15187791 0.115819514
0000f0 17 b2 bf 3d 35 ce 45 be b4 47 2d be 0e a1 30 bd
       0.0936014 -0.19316943 -0.16921884 -0.043122344

attention_p.attn_1.weight f4 [16, 16]
000000 d0 68 7e be 9e 1a 30 3e 0c 27 7d 3e a8 62 c8 be
       -0.2484467 0.17197654 0.24721926 -0.3913777
000010 57 d9 bf 3c 4a 95 d4 bd a8 95 1a bd 7b 14 cb be
       0.023419065 -0.10380037 -0.03774038 -0.39664063
000020 98 9d 97 be 6f 9a e6 bd 18 e5 b0 3d f6 20 a5 3e
       -0.29612422 -0.112599246 0.08637446 0.3225171
000030 fa 15 bf 3e a8 50 80 3d 13 12 ef bd 1a bf cc be
       0.37321454 0.06265384 -0.11673369 -0.3998955
000040 29 45 99 be 45 bc a2 3e ad 69 38 3e ff c5 c8 be
       -0.29935578 0.31784263 0.18009062 -0.3921356
000050 7b 4b 72 be b5 69 8a be 87 d4 58 be 6f 29 78 3e
       -0.23661606 -0.27033773 -0.21174823 0.24234556
000060 d3 44 23 be 7e c9 a6 3e 94 2f af 3e 5a 06 46 be
       -0.15944223 0.325756 0.34215987 -0.1933836
000070 90 2a b3 bd 0e 6d b3 3e 4a db 56 3e 75 6b 7d 3d
       -0.087483525 0.3504414 0.2098209 0.061870057
000080 64 e5 66 bd 56 6e 0a be 50 04 2e bd c7 64 5a be
       -0.056371108 -0.13518652 -0.04248458 -0.21327506
000090 5b 80 fd 3d 3f 7f c2 3e 5d da 73 bd 55 e8 53 3e
       0.123779975 0.37987706 -0.05953442 0.20694096
0000a0 e3 d8 d3 3e 35 99 94 3e a9 8b 06 be 1c 1d cc be
       0.4137641 0.29023138 -0.13139214 -0.3986596
0000b0 ff 47 6e be 3c f9 b4 3d 13 b8 7e be 0f bf 93 be
       -0.23269652 0.088366 -0.24874906 -0.28856704
0000c0 ac fb cf 3e f0 e7 07 be 91 26 8a be bb 4a b4 3e
       0.40621698 -0.13272071 -0.2698255 0.35213265
0000d0 02 03 95 be 9e b3 ca 3e 68 8b 5e 3e e9 73 a2 be
       -0.29103857 0.39590162 0.21732867 -0.31729057
0000e0 0f 4c 95 3e d6 95 87 3e 94 97 52 bd 55 4d da be
       0.2915959 0.26481503 -0.051414087 -0.42637125
0000f0 93 c5 a1 bd b6 c5 d4 3e 90 49 cd bd cc 0a 09 bd
       -0.078990124 0.4155709 -0.100237966 -0.033457562
000100 b0 7a a3 3e 52 0e b2 be 8a 82 39 be aa 04 e6 3d
       0.3192954 -0.3477655 -0.18116203 0.11231358
000110 79 9b b9 be 49 7e 82 3e 64 e3 62 3e fe 6a 2d 3e
       -0.3625143 0.25486973 0.22157055 0.16935346
000120 e0 09 22 be da eb b5 be 4d cb 02 3e a2 61 b6 3e
       -0.1582408 -0.35531503 0.12772866 0.35621363
000130 3a db 28 3e 92 d5 a7 be 03 db b9 3e 2a 04 53 be
       0.16489878 -0.3278013 0.36299905 -0.20607057
000140 ba 46 dd be 63 8b 4c 3d f0 6a 97 3e e2 5f c2 3e
       -0.43218023 0.049937617 0.29573774 0.37963778
000150 11 ef d5 bd a9 60 9d be 7d 7f c3 3c 44 ea 1f be
       -0.10445989 -0.30737808 0.023864502 -0.15616709
000160 a8 a7 e6 bc 04 e9 da 3d 8f 72 eb 3d 44 d9 5d be
       -0.028156117 0.106889755 0.1149646 -0.21664912
000170 42 77 9a 3d 86 93 07 3e 94 12 9d be 7d a8 a6 3d
       0.07542278 0.1323987 -0.30678236 0.08137605
000180 b5 e5 b5 3e d3 cf 2d be e5 64 39 3e 9d 65 11 3e
       0.35526815 -0.1697381 0.18104894 0.14198919
000190 c7 ab af 3e 53 02 88 3e 32 11 95 be f2 b5 12 be
       0.34310743 0.26564273 -0.2911468 -0.14327219
0001a0 ad 19 8c bd 5e 50 54 be 28 d8 ab 3e 62 88 0e bd
       -0.06840835 -0.20733783 0.33563352 -0.034798034
0001b0 1e 45 e0 bd 7f 23 b1 3e 5e 6a 24 be 6e 70 94 be
       -0.10950683 0.34597394 -0.16056201 -0.28992027
0001c0 60 93 57 3e 69 07 b0 3e e0 3d a6 3c 73 73 a4 be
       0.21052313 0.34380654 0.020293176 -0.3211933
0001d0 3d 62 d4 bc e7 e0 d3 3e 3a 6f 59 bd 24 dd 89 3e
       -0.02592575 0.41382524 -0.05308459 0.2692653
0001e0 dd f6 58 3e 72 19 6e bd dd b5 f8 3c ea 70 68 bd
       0.21187921 -0.058129735 0.030360157 -0.05674831
0001f0 34 1a 9f be df 19 6c be ed a3 82 3e d6 a8 88 be
       -0.3107468 -0.23056744 0.2551569 -0.26691312
000200 c2 69 64 be 16 82 83 be 51 1d d6 3e 73 ce 00 be
       -0.22305968 -0.25685185 0.41819242 -0.12578754
000210 5d b1 56 be c8 a7 b8 3e b2 25 2f 3e 1b 37 c7 be
       -0.20966096 0.36065507 0.17104223 -0.3890923
000220 06 73 d7 3e 1a 47 64 3e f1 b2 f8 3d be d2 3b bd
       0.42079943 0.22292748 0.12143505 -0.045855276
000230 6e d8 01 3e bb ef 1c be 4c ca 93 3e e9 65 e3 3d
       0.12680218 -0.15325825 0.28865278 0.11103422
000240 d3 86 c3 3e 43 8d f5 3d ac 01 2c bd 9c 3a 4e 3e
       0.381888 0.11989834 -0.041993782 0.20139545
000250 45 38 98 bd 2d a1 03 3e 2e 9c 97 3d cc 23 b1 3e
       -0.074326076 0.12854452 0.07402836 0.34597623
000260 fe ec 9b be 94 1a 2d bc ea b1 5d be 0f e0 9f 3e
       -0.30454248 -0.010565419 -0.216499 0.3122563
000270 9d ab 26 be 8b a9 6a 3e c7 fe 54 3e c3 42 ea bd
       -0.16276403 0.22916238 0.20800315 -0.11438515
000280 ef e2 af bc 6a f7 8b 3e a0 2f a0 be 49 a2 d0 3e
       -0.021470515 0.273372 -0.31286335 0.40748814
000290 09 b6 b0 bd cd 9a fa bd 0e 70 b3 3c cc 8e f6 3b
       -0.086284705 -0.12236557 0.021904018 0.007524347
0002a0 70 7a a6 be 80 56 a6 bc 1c c3 97 3e 3c 86 48 be
       -0.32515287 -0.020304918 0.29641044 -0.19582456
0002b0 89 21 92 3e 1e 6f d2 be 72 ac ba 3e 65 8a a6 be
       0.2854121 -0.411004 0.3645969 -0.32527462
0002c0 34 0d 8b be fa 33 31 be 3c 7a 36 be e2 bb be bd
       -0.2715851 -0.17304984 -0.17820066 -0.093131796
0002d0 44 de 93 be b0 66 70 3e b9 e2 93 bd df 02 ca 3e
       -0.28880513 0.23476672 -0.07220978 0.39455315
0002e0 09 9d ce 3e 5d c4 b8 be 18 30 54 3e f0 6a ab 3e
       0.40354183 -0.36087313 0.20721471 0.33480024
0002f0 14 55 1e 3e 49 e1 c6 3b eb 30 94 be e8 72 d9 3e
       0.15462142 0.0060693366 -0.2894357 0.4247048
000300 66 8d fa 3d 28 93 ab 3e db 26 d8 bd 10 13 27 3e
       0.12234001 0.3351071 -0.10554286 0.16315866
000310 96 ef 50 be 01 e1 cd be 4d 38 1a 3c 57 51 d3 3e
       -0.20403895 -0.40210727 0.009412837 0.41272995
000320 f7 d7 4c 3d 23 66 e0 be dc 3a 24 bc ee 9b 71 3e
       0.050010648 -0.43827924 -0.010023799 0.23594639
000330 55 75 a3 be 87 f8 d7 3e 7c 83 7f 3e f6 45 32 be
       -0.31925455 0.421818 0.24952501 -0.174095
000340 57 45 1c 3e 76 1a 8c 3e c8 f8 99 3e 2b 38 12 bc
       0.15260826 0.27363938 0.30072618 -0.008924524
000350 87 f7 45 bd 11 d6 5a 3e a4 e5 05 3e 2f a3 05 be
       -0.048331764 0.21370722 0.13075882 -0.13050531
000360 1b 9c 12 3d 9e 22 a6 be fb 8d bc be 4e f7 b1 3e
       0.035793405 -0.32448286 -0.36827073 0.3475899
000370 9c 59 d2 be 7b e8 87 be 73 88 bc be 2c b8 04 3e
       -0.41083992 -0.26544556 -0.36822852 0.12960881
000380 0f b3 9c 3e ac 89 57 bd d7 e3 b8 3e 53 56 d7 3e
       0.3060536 -0.05262153 0.36111328 0.42058048
000390 be 23 22 bd 77 75 bf be 0c 59 80 be 84 65 19 bc
       -0.039584868 -0.37394306 -0.25067937 -0.009362582
0003a0 59 20 04 be db 70 95 be bf 1f f9 bd 45 9b a1 bd
       -0.12902965 -0.29187664 -0.12164258 -0.078909434
0003b0 19 56 92 be 99 3d b9 be df 5a a4 3e 56 cd ba bd
       -0.28581312 -0.36179808 0.3210058 -0.09121196
0003c0 c0 84 b2 3d 5f 23 43 be f1 5c a8 be 14 9e 88 bd
       0.08716726 -0.19056462 -0.3288341 -0.06670776
0003d0 94 21 87 3e 11 7d ce 3e d8 2d 35 3d 7a 01 8e be
       0.26392806 0.40329793 0.044233173 -0.27735502
0003e0 03 d3 01 be 2e a3 48 be 28 a0 9f bd b4 13 42 3b
       -0.12678151 -0.19593498 -0.07794219 0.0029613795
0003f0 58 c1 e9 bd 88 aa 34 be 5f 4d 8f be cb 6b bd bd
       -0.114138305 -0.17643178 -0.27988717 -0.092490755

attention_p.attn_1.bias f4 [16]
000000 38 4f b8 bb 61 e4 bb bb e0 b2 c5 3b 64 63 c3 bb
       -0.005624678 -0.005734012 0.0060332865 -0.005962776
000010 9d f9 d7 bb cd c8 67 bb ae 34 bb 3b 5e bc d0 bb
       -0.0065910355 -0.003536749 0.005713067 -0.0063701114
000020 4b d1 bb 3b 53 61 c4 bb c6 19 ad 3b 0b 5f c5 bb
       0.005731737 -0.0059930473 0.0052826134 -0.006023293
000030 19 18 b4 3b c2 5b be 3b 31 3a ad bb b1 1c b8 bb
       0.0054960367 0.005809278 -0.005286478 -0.0056186547

attention_p.attn_2.weight f4 [1, 16]
000000 80 78 e2 be 62 21 b9 be 05 83 f2 3d 23 45 28 be
       -0.4423256 -0.36158282 0.11841396 -0.16432624
000010 d7 56 73 be 17 d7 69 3c f1 ee b3 3e 88 4b 85 be
       -0.23763596 0.014272473 0.35143235 -0.26034188
000020 d8 e2 84 3e b0 46 c4 be 87 50 9b 3e 52 e9 3c be
       0.25954318 -0.3833518 0.30334875 -0.1844838
000030 cf 43 83 3e e4 eb d7 3e 5f 04 07 be 83 ff 96 be
       0.2563767 0.42172158 -0.13185261 -0.29491815

lstm_t.weight_ih_l0 f4 [64, 7]
000000 cc 3c 28 be 9f 5f 86 bd be e5 76 bb 41 85 89 bd
       -0.16429442 -0.06561207 -0.0037673558 -0.06714869
000010 84 d8 4e 3e 4e de 4a be 35 0d 4a 3e 99 7e d2 3a
       0.20199782 -0.19811365 0.197316 0.0016059458
000020 3a af 67 3e 75 eb 88 3d b6 e1 54 be 95 74 67 3e
       0.22625437 0.06685535 -0.20789227 0.22603066
000030 6b 41 6a 3d 30 fe d7 3d 9c ae 2e 3e 35 01 81 bd
       0.057191294 0.10546529 0.17058796 -0.06299058
000040 c7 90 ec 3c 31 67 b9 bd 53 14 02 3e 87 ea 3a 3b
       0.028877629 -0.09052885 0.12703066 0.0028521137
000050 e2 04 a4 3d 58 0f 15 be be be ea bd 37 ff e5 bd
       0.08008744 -0.14556634 -0.114621624 -0.11230319
000060 e3 b7 1d be 87 cb 40 3e fa cc 3c be 1a ea 1b 3e
       -0.15402178 0.1882764 -0.18437567 0.15226021
000070 64 96 5b be 88 93 56 3e 41 c6 7c be b7 64 37 3e
       -0.21444088 0.20954716 -0.24685003 0.17909513
000080 ca 8d 5d 3c 76 eb 67 bd a1 12 f6 bd 2b 27 18 3e
       0.013522575 -0.056621037 -0.12015272 0.14858691
000090 d3 e1 84 3d 15 ba e1 3d 1c f9 6c 3d 18 d4 d9 3c
       0.06488385 0.110218205 0.057854757 0.026590392
0000a0 4e 83 45 3e 45 16 c7 3d ff 90 5b 3e 4d e2 37 be
       0.1928837 0.097210445 0.2144203 -0.1795742
0000b0 f7 d6 20 bd 45 5b 5c bd d6 e6 be 3d 6a d8 64 3d
       -0.039267506 -0.05379798 0.09321372 0.05587045
0000c0 79 29 1e be cf 30 f7 3d 8e 0d da bc 85 9d 2b be
       -0.15445508 0.120698564 -0.026617792 -0.16759308
0000d0 18 e3 76 3e 13 bb 31 be 0b ce d5 bd e7 93 66 3e
       0.24110067 -0.1735652 -0.1043969 0.22517358
0000e0 83 1c b0 bd 15 5f 11 3e 5b 87 a1 bd 83 63 ce bd
       -0.08599188 0.14196427 -0.07887145 -0.10077574
0000f0 88 18 68 3e 52 03 73 be 5b cd 1c 3d 1c 23 50 3c
       0.22665608 -0.23731735 0.03828178 0.012703683
000100 42 0a 2b be fe c0 05 3d a2 fe b5 bd 65 45 91 3d
       -0.16703132 0.032654755 -0.08886458 0.07093314
000110 c2 27 04 be d7 e5 2e be 39 d7 59 be bf 93 69 3d
       -0.12905791 -0.17079864 -0.21273507 0.057025667
000120 02 c0 28 3b 95 d0 6b bd e6 c2 3c be 5b 77 aa 3b
       0.0025749211 -0.057571966 -0.18433723 0.0052022166
000130 0f 3f 4b be 5f cc 94 3d 0f ad 2a bd 15 db 09 be
       -0.19848274 0.07265543 -0.041668948 -0.1346248
000140 22 28 be 3d e8 10 35 be 40 ad a2 b9 3a 9a 0a 3e
       0.092849985 -0.1768223 -0.0003102813 0.13535395
000150 7f 40 58 3e 29 e6 bc bd 5c 52 56 be e6 c1 29 3e
       0.21118353 -0.09223587 -0.20929855 0.16577873
000160 15 2c 0f 3d 22 66 70 be 97 41 0f bc 4d b8 80 3c
       0.03495415 -0.2347646 -0.008743665 0.015712881
000170 47 16 73 bd 8d 98 2c 3e 4c fa 47 3d 1c ac 0e be
       -0.059347417 0.16855069 0.048822686 -0.13932842
000180 94 92 ec bc 8a 58 95 3b 0c 4e f9 bd 47 aa fe bd
       -0.028878488 0.004557674 -0.121730894 -0.124348216
000190 8d d1 fb bc 08 06 e1 bc 09 85 24 be aa 3a 57 3e
       -0.03073957 -0.027468696 -0.16066374 0.21018472
0001a0 ac 72 7d 3e 05 41 2f be 9a 77 09 3e e9 3f 3e be
       0.24750775 -0.17114647 0.1342453 -0.18579067
0001b0 4c 45 86 3d 88 b8 7b 3e 96 90 1c 3d a8 57 45 be
       0.06556186 0.24582112 0.038223825 -0.1927172
0001c0 5c 8c 96 bb 76 ef 42 be 01 85 4d be e6 5e 87 bd
       -0.004594369 -0.1903666 -0.20070268 -0.06609897
0001d0 81 81 29 be 5c f9 ac 3d e4 f0 53 3d 91 e6 62 be
       -0.16553308 0.08445999 0.051743403 -0.22158267
0001e0 52 f9 20 bd 1c 86 71 3e 22 16 35 3e 5f af 0e 3e
       -0.03930027 0.23586315 0.17684224 0.13934086
0001f0 20 64 b8 3d 30 2b 4b be d9 bd 5e 3e e1 f4 70 3e
       0.09003472 -0.19840693 0.21752109 0.23530914
000200 ae df 81 bd 25 0e 58 be b5 9d 1b bd b5 63 7b bb
       -0.06341492 -0.21099146 -0.037992198 -0.003835899
000210 b0 bd 33 3e 08 1f 0b 3e c3 b8 54 be a8 9b 12 be
       0.17552829 0.13586056 -0.20773606 -0.1431719
000220 52 31 10 3d 9c 41 3c 3e 30 7a 86 bc 86 2f 7f be
       0.035203286 0.18384403 -0.016415685 -0.24920473
000230 25 18 e3 3d 62 9e 5b bd ab 26 8b 3d 9e 97 de 3d
       0.110885896 -0.053617842 0.06794485 0.108687624
000240 a7 8a f5 3d ca 0b 8f 3c b4 93 ad 3d c7 b8 a4 3d
       0.119893365 0.017461676 0.08475438 0.08043056
000250 4c 1f c1 bd 80 01 75 3d b8 ae 24 3e ad 0b 40 be
       -0.094297975 0.059815884 0.16082275 -0.18754454
000260 3c cf 50 3d c9 f9 45 3e ba 09 e5 3d 8e b9 eb bd
       0.050978884 0.19333567 0.11183496 -0.11510001
000270 ed c4 8e 3d d4 ce 41 bb 83 98 57 3e 44 b1 0c be
       0.06971154 -0.0029572742 0.21054272 -0.13739496
000280 19 27 f3 3d c2 c5 b5 3c 9b 46 bd 3c be e6 27 3a
       0.11872692 0.022189025 0.023104956 0.00064049277
000290 04 df 52 be 97 69 cc 3d cd ec 1f be 44 2e 76 3e
       -0.20592886 0.09981077 -0.15617676 0.24041086
0002a0 fb 90 a5 3d 01 de fe bd 4b dd 43 3e bd 1d 33 3e
       0.080842935 -0.12444688 0.19127385 0.17491813
0002b0 d4 43 68 3e ac 66 f7 3d bd 18 5c 3d 27 25 08 be
       0.22682124 0.1208013 0.05373453 -0.13295422
0002c0 69 45 69 3e cd 87 f4 3d 99 6a f2 3d 00 aa 68 3e
       0.22780384 0.119399644 0.11836738 0.227211
0002d0 5e 12 31 3e c7 90 06 be e1 9c 36 3e 60 ba ba 3d
       0.17292163 -0.13141166 0.17833282 0.091175795
0002e0 00 4e ce bd da 16 56 3e 9d e6 bc bd 05 65 9b bd
       -0.10073471 0.20907155 -0.092236735 -0.07587627
0002f0 11 5c b7 3c 44 3f 8a 3c 97 24 40 3e 93 58 e9 bd
       0.022382768 0.01687587 0.18763958 -0.11393847
000300 8e 45 69 be 9b 5f bd 3d e9 49 25 be 9f ae 55 be
       -0.2278044 0.09246751 -0.16141476 -0.20867394
000310 60 3a 3b be 80 1b 3a be bd 09 8e bd 31 60 2d be
       -0.18283987 -0.18174553 -0.06935451 -0.16931225
000320 b7 ea 26 3e fa 66 d4 bd 23 34 24 3e 61 7b 12 be
       0.16300474 -0.10371204 0.16035514 -0.14304878
000330 d4 fe 1e 3e e0 2a d6 3c a2 87 76 be 06 80 d7 bd
       0.15526897 0.026143491 -0.24075177 -0.105224654
000340 5a 6c 6f 3e 97 2f 64 3e 63 e0 3d 3e ec 70 46 3e
       0.23381177 0.22283779 0.18542628 0.19379014
000350 c4 4b 51 3d f9 bb 4f be 0c 4d a2 bd b6 9e 42 be
       0.051097646 -0.2028655 -0.07924852 -0.19005856
000360 94 db fa 3d 7b 52 1a 3e 2c 3d b1 3d 83 5a 5b 3e
       0.122489125 0.15070526 0.08654246 0.21421246
000370 cd 93 13 bd 60 47 09 3e f9 93 7a bc 34 a8 33 bd
       -0.036029626 0.13406134 -0.0152940685 -0.043861583
000380 8e cc 2d be c8 87 25 be 5a b9 d7 3c 26 09 0a be
       -0.16972563 -0.16165078 0.0263335 -0.13480052
000390 97 47 ed 3c 3d 96 f1 bd 6e 8b db bc bc 12 37 be
       0.0289648 -0.11796234 -0.026799884 -0.1787824
0003a0 c6 89 42 be cb 86 e4 3d 2e 2f 41 3e 30 a2 ac bc
       -0.18997869 0.11158522 0.18865654 -0.02107343
0003b0 34 cf 64 3d f9 a8 87 3d df 79 59 3e 09 0b ad bc
       0.055861667 0.06624026 0.21237896 -0.021123426
0003c0 cb 6b 7b 3e c4 a4 ad 3c 44 47 29 3e 13 c2 16 bc
       0.24552839 0.02119673 0.16531092 -0.009201544
0003d0 2d 36 dd bd ca f4 71 3c cb 79 54 be 58 ec 5c 3d
       -0.10801349 0.014767835 -0.20749585 0.053936332
0003e0 bb bf 47 bd ee 2b b3 3d 29 f1 62 be a9 7d 45 3e
       -0.048766833 0.08748613 -0.22162308 0.19286217
0003f0 2f 71 62 bd fa 66 c6 bc 20 5f 16 3d 2d 2b 5a 3e
       -0.05528372 -0.024219025 0.036711812 0.21305533
