Params/300_0.001_7_16_222_model.pt (torch, 45279 bytes, 31 tensors)

lstm_p.weight_ih_l0 f4 [64, 10]
00000000: 292a d1bd c25d dabd 3a7f 3abd 9876 17bc
00000010: 61a5 693e e23c f4bd 88a3 ac3d 8aca 393e
00000020: c39e 93bd 8afe a6bd f219 ed3d addb 213d
00000030: 308d cfb8 e059 7c3e 44a3 0b3c 5d91 f4bd
00000040: aff7 9c3a 2e60 6d3d 82f1 833d 8268 ca3d
00000050: 5cb6 9d3c eab8 e53c 7752 52be bd83 343e
00000060: ca3c 1fbe bc92 c9bd ace9 993d 5882 43bd
00000070: 1642 213e 23fa b23d 227c 5c3e 8b01 943d
00000080: 879d 753d 5384 3c3d 4efc 25be 5623 ff3c
00000090: e4d5 a73d d1d7 63bd e57e 0abe 2968 1abe
000000a0: d52f 143e 2b8b 26be 1f63 7a3e 9e8a debc
000000b0: ea91 8d3d e5fe 2e3e 3986 3f3e 3ce7 9b3d
000000c0: 319c 4bbe 937f e43b 3ed3 cfbd 212a 5abe
000000d0: e904 aebd 185c 003e d9ca 0f3d e6bd 663e
000000e0: a4fe 0bbe 6571 f73d 5333 4d3e fb97 24be
000000f0: fedf 603e c46a d03d 82b7 93bc e226 9dbd
00000100: 0fa2 11be 865b 483e c240 943d 050a fbbc
00000110: 4bfe 643e d8fe 0fbe 92bd f3bd 6b1e debd
00000120: 0ae1 693e aa5c 47be d013 813c a1b5 6abc
00000130: b1f4 07bd f4cb 53be f87c fa3d a321 00bd
00000140: 301f 60be 0e6b c2bc cab3 3dbe be4b 8e3d
00000150: 5c9c e63d 8d47 f5bd 987d 5c3e 0349 153d
00000160: c132 64be df93 9a3c ae3e ae3b ca5a 053e
00000170: 4e1d 60be 0a30 043d fe6a 0fbe 91c6 123d
00000180: bde4 3bbe 6412 cd3c 4c81 5bbe 37ee 943d
00000190: c8eb 3d3d ee9c 393e da99 753e 6cb6 9d3d
000001a0: e048 c1bd 07eb 9dbd 054e 103e 2953 0a3e
000001b0: 45c4 bf3b b9e6 23be dee3 0cbe fc6e 233d
000001c0: f3af bc3d a7bc 123e 7967 173e ed15 3c3e
000001d0: 6bc3 90ba 1f67 223e 9aaa ae3d cd5d 7a3e
000001e0: fca1 183e 21aa 9b3c 471f bb3d 4359 9fbd
000001f0: fe49 5dbe 8ce2 a43d c898 653e c6b7 d93d
00000200: ab2e adba 1cdc 64be f1e5 5abe e241 b13d
00000210: e8be 7d3d fea0 0e3e 307e 023e 25c9 cfbc
00000220: 99a1 66be 595c be3d d6fb 52be ecfd 453d
00000230: 52af 29bb a077 113e beca 7d3e 5aa7 043c
00000240: a797 0d3e 254b eb3c 0478 123e 2077 d2bd
00000250: 04b1 60be 5c7e 9ebd f93f 1d3d d39a f93d
00000260: 5573 323e a882 20bb f982 c03d 89c7 893b
00000270: c654 623e ae6e ba3d f914 a93c 53c3 c8bb
00000280: 5808 8c3d 9e55 75bd 7bc3 683e 3e72 0e3e
00000290: 113f a0bd 069c cd3d 5df7 dfbd 5774 50be
000002a0: d0f4 63be 4f19 68be 0ff0 d3bd b2ff c5bd
000002b0: 6797 64bd ce06 563e 18bf 3a3d 5bb5 003e
000002c0: f349 603d fc70 a73d 01c0 83bc 04d8 d23b
000002d0: 6693 773e 461b 4c3e 948f 51bb da81 9b3d
000002e0: c12f 0e3e f38a 053e 3c54 173e 3bd1 a5bd
000002f0: 7143 cf3d 4f70 6c3c 3cd7 bc3d f1e7 51bd
00000300: 1c01 1a3e 51a8 2abe a4a9 113e e2d3 8b3d
00000310: f3fb 023e 39cc cbba c8cf efbd 4db7 9ebb
00000320: 6845 013e f3fd 6d3d b9cb 69be dede 4cbe
00000330: 7646 7b3e 1630 14be c860 62bd 8639 20be
00000340: b5f6 c83d 98ab 55be 2310 253e 9864 1fbe
00000350: 12d5 7bbe e133 0fbd d60b 733d 7633 dabd
00000360: 5367 d13d 2294 60be 95d0 5b3e 45af 54be
00000370: e25e 643d d0d3 45bd c092 bbbd 9fdd 4b3e
00000380: 2e12 4e3e 2a43 403e a973 25be 76b6 42be
00000390: a2d3 68be 09ca f13d 630b 7fbc a7e5 f6bd
000003a0: 3834 07be a772 fe3d ac7e 31bd 9e03 213d
000003b0: a673 4cbe fa46 6d3e 2a52 72bd 1861 e43d
000003c0: 835e 49be 8a7f 453e 987d 483e 9608 0abe
000003d0: 9acb cabd 9e49 1fbe c29e 6e3e 3c40 103e
000003e0: c7e5 d53d 1714 de3d 078b 47be 2d00 f3bd
000003f0: 8aa9 34be cc38 9fbd 954b 95bd 6498 133e
-0.102131195 -0.10662414 -0.04553149 -0.009244584 0.22816993 -0.11925675 0.084296286 0.18143669
-0.07208016 -0.08154018 0.11577214 0.03951614 -9.8968274e-05 0.2464366 0.008522812 -0.11941788
0.0011975671 0.057953052 0.06442548 0.098832145 0.019251995 0.028042275 -0.2053927 0.17628379
-0.15550533 -0.098424405 0.075152725 -0.047731727 0.15747866 0.08739116 0.21531728 0.07226857
0.059964683 0.04602463 -0.16209528 0.03114478 0.08195093 -0.05562574 -0.13524969 -0.15078796
0.14471371 -0.16264026 0.24451874 -0.027165707 0.069125965 0.17089422 0.18703546 0.07612464
-0.19883801 0.006973216 -0.10147713 -0.21305133 -0.0849703 0.12535131 0.03510556 0.22533378
-0.13671356 0.12082175 0.2003911 -0.16073601 0.21960446 0.10176614 -0.01803184 -0.07673432
-0.14221977 0.19566163 0.07238914 -0.030644426 0.2236263 -0.14062059 -0.11901392 -0.108456455
0.22839752 -0.19468942 0.015756518 -0.01432553 -0.03319234 -0.2068327 0.12230867 -0.03128208
-0.21886897 -0.023732688 -0.18525615 0.069480404 0.11260292 -0.11976538 0.21532285 0.036446583
-0.22284986 0.018869339 0.0053175306 0.13022915 -0.21886179 0.032272376 -0.14005658 0.0358339
-0.18348975 0.025033183 -0.21436042 0.072719984 0.046367437 0.1812627 0.23984471 0.0770081
-0.09437728 -0.077108435 0.14092262 0.13508286 0.0058522546 -0.16005982 -0.137588 0.039900765
0.09213247 0.14329778 0.14785565 0.18367739 -0.0011044567 0.1585965 0.085286334 0.24449845
0.14905542 0.019002022 0.09136825 -0.07780697 -0.21610257 0.08051023 0.22421563 0.10630755
-0.0013212761 -0.2234959 -0.21376778 0.08655144 0.06194964 0.13928601 0.12743449 -0.025364468
-0.22522582 0.09294958 -0.2060388 0.048337862 -0.0025891853 0.1420579 0.24784371 0.00809654
0.13827382 0.028722355 0.14303595 -0.102766275 -0.21942526 -0.07738945 0.038391087 0.121877335
0.17426808 -0.002449194 0.09399981 0.0042046946 0.22102651 0.09103142 0.020639883 -0.0061268
0.06837529 -0.059896104 0.2273082 0.13910767 -0.07824529 0.10039525 -0.10935853 -0.2035688
-0.22261357 -0.22665904 -0.10348522 -0.09667911 -0.05580845 0.20901033 0.045592397 0.12569182
0.054758023 0.08175847 -0.016082766 0.0064344425 0.24177322 0.19932279 -0.0031976448 0.075931266
0.13885404 0.13041286 0.14778227 -0.08096548 0.10120285 0.014431073 0.0922074 -0.051246587
0.15039486 -0.1666577 0.14224869 0.06827523 0.12791423 -0.0015548534 -0.11709553 -0.0048436285
0.12624133 0.058103513 -0.2283162 -0.20006892 0.24538597 -0.14471468 -0.05526808 -0.15646943
0.09812681 -0.20866239 0.16119437 -0.15565717 -0.24592999 -0.034961585 0.05933746 -0.10654347
0.10224786 -0.21931508 0.21466286 -0.20769985 0.05575455 -0.048297703 -0.0915885 0.1990876
0.20124123 0.18775621 -0.16157402 -0.19014916 -0.22736982 0.11806113 -0.01556668 -0.120555215
-0.13203514 0.12424212 -0.043333694 0.03931009 -0.19965991 0.23171607 -0.05916039 0.11151332
-0.1966496 0.19286934 0.1957916 -0.13479838 -0.09902115 -0.15555426 0.23302749 0.14087003
0.10444217 0.108436756 -0.19486628 -0.11865268 -0.17642799 -0.07774505 -0.07289807 0.14413601

lstm_p.weight_hh_l0 f4 [64, 16]
00000000: 09d8 bcbc 72af 933a c5fc 6dbc 7516 833e
00000010: 4015 5b3e cffb 25be 6101 523d 01e3 093d
00000020: 3c32 133e fe5b 50bd 1ddd ca3d f63d eb3d
00000030: 2341 a53c 0ba9 4a3e 6a5f 963d fc9e 563e
00000040: c504 3b3e 3eba 69be 2209 09be fcd9 2ebd
00000050: 22cf 193e b9a9 39be 7894 293e 1343 c83d
00000060: 012b 533d 51e9 543e 50cf 4d3c 2b62 3bbe
00000070: bb3f f13d 80da 68be 958a 6cbe f1d4 b43d
00000080: 5e84 563e 2c14 71be 54a4 2d3e d4e5 3c3e
00000090: 9d36 29be 0bbe 4cbe 5e90 3e3c deb6 243e
000000a0: 4373 213d 9921 2dbe e2da 97bd 293e c4bc
000000b0: a2ac 793e b9e2 e9bd 8eb2 34be 1c30 3dbd
000000c0: a0a2 0abe e448 10bd 9f55 f03c a707 dabd
000000d0: 1cfe e43d 0a74 69be c9f2 253e 77e6 ad3d
000000e0: 5065 023e 6f99 7fbd 48fb b93d 28d9 cc3d
000000f0: 47c1 bf3c a828 b2bd eaa4 a7bd b0a8 143e
00000100: 4986 5f3e f8ba a03a e06b 51be 9f70 2f3c
00000110: d6d0 70be 23c5 db3d 7536 92bd c796 943d
00000120: bb7d fdbd d9b6 053e 846e 22be 3f9b 2f3e
00000130: 5f94 2f3e c9c6 573e 1b69 c23d 0f89 19be
00000140: 1cf8 7839 b400 293e 546d 1cbe 9c71 3bbe
00000150: 4713 a13d 71aa fdbd 3818 64be b8f8 223e
00000160: 9c61 233e 4132 1cbe 0143 debd cd4a 093d
00000170: 57a7 04be 081b 63be ee0b cc3d c22a a03d
00000180: 0b3f 52be c2e6 733b cd3f e23b 8565 03be
00000190: 1026 5d3e 8a4d 9b3d 2c44 813e 761b c2b8
000001a0: 7f88 0cbe e706 06bc 2c99 48be d63b 0d3d
000001b0: 808d 59be 2fd6 4a3e de36 69bd 3828 013e
000001c0: 095d 323e ae6f 4dbe 7706 693e 9273 4dbe
000001d0: 8ba0 6a3e 0865 88bd a500 953d c3ad 983d
000001e0: 1534 7f3e 48b5 453e 423c 273e 483d 3b3d
000001f0: 2368 c1bd 214a 313c a49b f83b 6176 313e
00000200: 5537 36be 8731 2c3e 014c 103e 3fdc 833e
00000210: c311 563d de22 613e 8030 33be 0317 44be
00000220: e738 f33c 5f0a d63d 9778 283e e19a 55be
00000230: ff13 46bd 4ec1 21be 9460 69bc 6464 183c
00000240: ae01 44be 83ab bcbc 64e2 28be 624c b7bd
00000250: 5998 0c3d 87f9 2e3e 58c1 e43c 4b32 0dbe
00000260: 4764 28be fe1d 8abd 0053 303d fabd 26be
00000270: 8fff 733e cfe6 ed3d 0fff 5e3e 73e1 223d
00000280: 0d38 2bbe 40f1 293e 197c 10be 8289 5c3e
00000290: 0bb8 2e3d 15b3 363e 575c 78be 6813 c9bd
000002a0: f0f9 073e 9078 18be b9a7 473e b3c9 02bb
000002b0: 9193 54be 789f de3d 98f3 093d af2d c3bd
000002c0: f849 9cbd e3b7 1839 1217 a0bd f9f7 743e
000002d0: add7 4bbe f31b 743b bee4 1fbe cc8a d3bc
000002e0: 18cc f3bd 0597 7d3e 4570 05be 6f3e 553e
000002f0: 89d3 c8bc b618 c53a fd72 80bd a819 35bc
00000300: 4c45 67bd 0f2a d5bd 8387 3abe 0f5b 6dbd
00000310: 70f4 0ebe 7055 4e3d b0e3 bbbc e356 1cbe
00000320: 6ae0 73be 0df4 f7bd 1d52 4b3e 70b3 cd3d
00000330: c8b0 0e3e 79b0 80bd 0c39 333e 647b 483e
00000340: 87df fdbd c2d3 0dbe d570 103e 939d 1b3e
00000350: 3aa9 8dbd 8f0e cf3d 9d5e ab3d b2a7 c6bd
00000360: ad6b 3cbe d0a5 67bd d380 2bbe 1729 663e
00000370: 1fc7 013e 117b 793e 0f71 1a3e 9fd8 b23d
00000380: b771 ac3c 0d59 413e d74e cc3d f914 d03c
00000390: a23d 283e 9764 3e3e 1705 c0bd 647c 73bd
000003a0: c98c 5dbd c6c7 45be b3a3 37be 6d64 59be
000003b0: 07a8 a03c 59e0 2bbd 220f 053e 9bd1 753d
000003c0: 1b9c 0fbe 61cf 5a3d 4c59 5bbe 8410 c93d
000003d0: ed5d 233e 4f80 2bbe ce0a a43c 8441 f23b
000003e0: 64dd 483d 6eca 3a3e 9356 31be 81b2 25be
000003f0: 9aec fe3c d41c 53be 4b29 0ebe d90c b33d
-0.023052232 0.0011267497 -0.014525597 0.2560307 0.21394825 -0.16209339 0.051270846 0.033663753
0.14374632 -0.05086898 0.09905455 0.114864275 0.020172661 0.19791047 0.073424175 0.20959085
0.18263538 -0.22824952 -0.1338239 -0.042688355 0.15020421 -0.1813115 0.16560543 0.097784184
0.051554684 0.20792128 0.012561634 -0.18299167 0.11779734 -0.22739601 -0.2309974 0.08829678
0.20948932 -0.23542851 0.16957217 0.18447047 -0.1652474 -0.1999437 0.0116310995 0.16085383
0.039416563 -0.16907348 -0.074147955 -0.023955422 0.2438226 -0.11420197 -0.17646238 -0.04618846
-0.13538599 -0.035225764 0.029337702 -0.10645991 0.1118128 -0.22798172 0.16205896 0.08491223
0.1273396 -0.062402185 0.09081131 0.10002357 0.023407592 -0.08699161 -0.08185752 0.14517474
0.2182857 0.0012262752 -0.20451307 0.010708003 -0.23517165 0.1073096 -0.07139293 0.07255321
-0.12377497 0.13058032 -0.15862471 0.17149065 0.17146443 0.21071924 0.094927035 -0.1499369
0.00023743551 0.16504174 -0.1527608 -0.18305057 0.07865005 -0.12386025 -0.22274864 0.15915191
0.15955204 -0.15253545 -0.10852624 0.0335186 -0.1295446 -0.2217828 0.09963213 0.078206554
-0.20531861 0.00372164 0.0069045783 -0.12831695 0.21596551 0.07583149 0.25247324 -9.255756e-05
-0.13723944 -0.008180357 -0.1958968 0.034480892 -0.21245384 0.19808267 -0.05693709 0.12612998
0.17418303 -0.20062134 0.22756372 -0.20063618 0.22912805 -0.06659895 0.072755136 0.074550174
0.24922211 0.19307435 0.1633158 0.04571274 -0.09443691 0.010820896 0.007586913 0.17330314
-0.17794545 0.16815768 0.14091493 0.25753972 0.052263033 0.21985957 -0.1749897 -0.19149403
0.02969022 0.10451197 0.16452251 -0.20859863 -0.048358914 -0.15796396 -0.014244217 0.009301279
-0.19141266 -0.023031002 -0.16492611 -0.08950116 0.034324978 0.17087375 0.027924225 -0.13788716
-0.16444503 -0.06744002 0.043047905 -0.16283408 0.23827957 0.11616289 0.21776985 0.039765786
-0.167206 0.16595936 -0.1410984 0.2153683 0.042655986 0.17841752 -0.24253975 -0.098181546
0.13278937 -0.14889741 0.19497575 -0.0019956648 -0.20759417 0.1087026 0.033679575 -0.09530198
-0.07631296 0.00014564353 -0.078169 0.23922719 -0.19906493 0.0037248104 -0.15614602 -0.02582302
-0.11904162 0.2476464 -0.13031109 0.20824598 -0.02451493 0.0015037272 -0.06271932 -0.01105348
-0.05646257 -0.10408413 -0.18215756 -0.05794817 -0.13960433 0.05037445 -0.022935718 -0.1526752
-0.23816076 -0.12107096 0.19855542 0.100439906 0.13934624 -0.062836595 0.1750223 0.1957832
-0.1239615 -0.1385031 0.14105542 0.15196829 -0.06917043 0.10110199 0.083676554 -0.09699954
-0.1840045 -0.056554615 -0.16748361 0.22476612 0.12673615 0.24363352 0.15082191 0.087327234
0.021050317 0.18881626 0.09975975 0.025400626 0.16429761 0.1859306 -0.09375971 -0.0594448
-0.05408934 -0.19314489 -0.1793354 -0.21229716 0.019611372 -0.041962 0.12994054 0.06001435
-0.14024393 0.05342043 -0.21420783 0.09817603 0.15953799 -0.16748165 0.020024683 0.007393064
0.04903926 0.18241283 -0.17318182 -0.16181375 0.03111868 -0.20616466 -0.1388294 0.08742685

lstm_p.bias_ih_l0 f4 [64]
00000000: 2bb2 7bbc b129 4bbe 6a83 3bbe 2b41 bfbd
00000010: 4b0c 153e dab7 54bd be22 ff3b 9b18 40be
00000020: d2a7 443e 3cff 82be bff0 dc3d f93a 883d
00000030: f5f1 703e 2cde 26be c9cf 163e 5dde 063e
00000040: 2891 1abe fd73 503e 7438 23be 2b54 34be
00000050: 0d11 5abe c5b7 4c3e 1e33 863d d65c a03b
00000060: e289 303c ed71 353e 0c6a aebc 5636 2a3d
00000070: 9311 04be 6abc 46be 975b 62be dcbb 0c3e
00000080: db0a bbbd 6951 00be d9ea 2b3e a7de 673e
00000090: ff72 603c 4719 a0bd c35b 6fbe 009c 63be
000000a0: 3d03 fc3d a050 1cbe e0cb 5abe 967b 59be
000000b0: 9dcb 91bd 1b17 093e 5ce9 2c3e 59f4 7fbd
000000c0: 1cf3 513e 0bbd 5c3e ec92 fe3d 951d 6b3e
000000d0: e9da 7cbe 612c 963d a862 4bbe a72b 86bb
000000e0: c5e9 833d 3634 943d 75f9 e4bc dedb 6e3d
000000f0: 582c 12be d9cf 243e aedb b0bd cb7a 1abe
-0.015362303 -0.19840123 -0.18311849 -0.09338602 0.1455547 -0.051933147 0.007786124 -0.18759386
0.19204643 -0.25585353 0.10788106 0.06651873 0.235298 -0.1629569 0.14727701 0.13170762
-0.15094435 0.20356746 -0.15939504 -0.17610233 -0.21295567 0.19991978 0.065527186 0.0048938794
0.010775061 0.1771924 -0.021290801 0.041555725 -0.12897329 -0.19407812 -0.22105251 0.13743538
-0.0913293 -0.12531056 0.16788806 0.22643529 0.013699292 -0.07817321 -0.23374848 -0.22227478
0.12305305 -0.15265131 -0.21366835 -0.2123855 -0.07118914 0.1338772 0.16885895 -0.062488887
0.20502895 0.21556489 0.12430367 0.22960503 -0.24692883 0.07332683 -0.19861853 -0.0040945592
0.064410724 0.07236521 -0.027950982 0.05831515 -0.14274728 0.16094913 -0.086356506 -0.15085904

lstm_p.bias_hh_l0 f4 [64]
00000000: 013a 74be a7b4 27bc 8650 bfbd 25f2 a43d
00000010: 117d 94bc 5621 7e3d 6c10 3fbe 1908 6e3e
00000020: 01b7 05bc 9cba 4cbe c42a 463e 8c7d dc3c
00000030: 43cb 2abc 2ee0 0dbe feb5 80bd a647 433d
00000040: 948e ff3d 7150 72be d521 373d ca0f 663d
00000050: 3193 083e bc81 b63d bec2 8c3d 32f1 573e
00000060: 2b36 92bd d866 e43c 3c87 a1bd cef5 5d3d
00000070: 5c42 dfbd 55f8 993d 0dbf 1c3d 2a7f 633c
00000080: 01fb 69be 5b40 2d3e 1148 6fbe 74b7 643d
00000090: bcaf 19be 097a 24be 6603 21bc b870 2fbe
000000a0: 4b39 f7bd bc34 1ebe 4e0b 2f3e e83e c9bd
000000b0: 4f5a 9d3d 94c6 dfbc 40b7 47be 5c97 f83d
000000c0: 477b f0bd 0933 173e 5562 51be cbaa 81be
000000d0: 8ccc 993d e01d 49bd fe53 18be cc9b 773e
000000e0: 41b1 723e f37c 7cbe feeb 513e 3689 0c3e
000000f0: ae25 95bd 6f7f ddbd 9ac6 b33d 928e 4bbd
-0.23850252 -0.010235942 -0.093415305 0.08053998 -0.018126043 0.06204351 -0.18658608 0.23245277
-0.008161307 -0.19993061 0.19352251 0.026915334 -0.010424438 -0.13855049 -0.06284712 0.04767575
0.124783665 -0.23663498 0.04471 0.0561674 0.13337399 0.089114636 0.068730816 0.21088102
-0.07139238 0.027881071 -0.07887122 0.054189496 -0.10901329 0.07518069 0.038268138 0.013885299
-0.22849657 0.16919081 -0.23367335 0.055839017 -0.15008444 -0.16062178 -0.00982747 -0.17132843
-0.12071475 -0.15449804 0.17094156 -0.098264515 0.076832406 -0.02731637 -0.19503498 0.121382445
-0.11742263 0.14765562 -0.20447667 -0.25325617 0.07509717 -0.049100757 -0.1487579 0.24180526
0.2370043 -0.2465704 0.2050018 0.13724217 -0.072825775 -0.10815322 0.087781146 -0.049696513

lstm_p.weight_ih_l1 f4 [64, 16]
00000000: 19bc 6fbd bf84 8f3d 7ee3 683e e154 a13c
00000010: aa0c 2cbe e98a c73d 7db8 533e a3f2 633e
00000020: 44a9 563e 353f debd 389b 19be 49d2 083e
00000030: c0f7 b83d 7b73 483e 447f d2bd a991 d1bd
00000040: db90 61bd 1810 373e f299 ba3d abd8 793e
00000050: 5f19 03be fb6b 9dbd 9f69 043e 0cdb 70bd
00000060: f1e3 473e 9b13 7dbd bbca 213e 5a6b 263e
00000070: 605c 483d 7f71 76bd 01aa 2dbe 5e19 07be
00000080: a592 08be ce18 3abe 09d8 393e 5c50 bb3d
00000090: 38da c9bd 613d 543e 34fa be3c 59c9 19bc
000000a0: e018 253e 38c0 753e a5d4 223e 3567 d9bd
000000b0: d9e4 6ebe b5bc ecbd 751b 7dbd 6ab8 f53d
000000c0: ffd3 183e 8cd6 6cbe 8ed4 4f3e a47c 703e
000000d0: 45d9 98bd fb7b 553e f99e 0a3e 0789 1fbe
000000e0: 9529 b2bd bcd9 44be 17de 6c3e 89a2 343e
000000f0: 9e04 303e 53e5 023e 79e3 2f3e e6ec 2c3e
00000100: 2ed4 6bbd 37b5 a7bd 2480 3b3e f6d5 bfbd
00000110: c66e fd3d 1ce1 cebd ce96 4bbe fc06 4bbe
00000120: dedc 693e e9ec 623e 612b 5abe f31a 0d3c
00000130: 6dca 603e 8e86 21be 1edb 5f3c 2346 023e
00000140: 9bd5 153e c0e3 b7bd 474a 74bd 188a 6c3d
00000150: c1d4 323d d7ce 4cbd 900b 533e ff17 0fbe
00000160: 0938 f4bd 6aee 563e bfeb a9bc ffcb 4abc
00000170: cdd4 083e da2e d63d 8c1e a6bc b93e dc3d
00000180: 492a f53d 3423 abbd ad56 153e e49a 223e
00000190: 0e67 76be 881d 1cbe cf69 4d3e adf3 7f3c
000001a0: 12a1 0c3e c450 cc3d 33d6 a8bd 003e bdbd
000001b0: 4a89 52be 8a90 2cbe 34ff 6b3e 2513 5ebe
000001c0: c59a 053e 39b8 013e 3724 5a3e ddfc 81be
000001d0: 4708 df3d 71e4 dc3d 34d4 343e f396 6b3e
000001e0: 3ba0 013e d017 933d df26 0cbd 63e6 64be
000001f0: 8f5d b83d 90ce d5bd 0315 163e 9885 53be
00000200: 0baf 0fbd dd0d 1b3e 1876 213d 1f01 f8bc
00000210: af60 9e3d f04b 9d3d ce51 5cbe b939 88bc
00000220: d6a2 d73d 2001 473e 815d 013e 7fea 2a3d
00000230: 45da 483e 71c6 273e e2a4 9abd 2c2f e93c
00000240: 0e34 9abd 2f3e e2bd cdc3 483e b9dc ec3d
00000250: 78ae 633e b36b b43d f1e5 08be dff1 92ba
00000260: 92ed 013d db31 bf3c ecd3 5fbe 0c39 31bd
00000270: f774 0dbd 3f71 59be c87d 4cbe fe1a 483e
00000280: 4424 61be bb2a 5d3d adcc 5539 de9b 69be
00000290: d897 49be 26f9 60bc 70a5 73be f2ef aa3c
000002a0: b664 203e 2547 ecbd 22c2 543d 50ce b6bc
000002b0: 9dc5 653e 1e33 a8bc 3d84 c4bd 51a3 3bbc
000002c0: 7420 00be faae 0fbe eff9 b5bd b335 c73c
000002d0: ab81 7e3e 3629 3cbe 402e 2c3d e29d 083e
000002e0: 8689 6e3e 7128 2e3e e067 2b3e 32e9 52be
000002f0: 224e 5a3e 5210 4ebe a14b ad3d df9a 633d
00000300: a0b8 ce3d a475 b2bb 412d c2bc 6295 f2bd
00000310: 42b8 453e dd81 09be a1dc 5dbe 2c1d 773e
00000320: 84fe dfbd a405 3abe 4da9 21be a8b2 07be
00000330: 5279 1c3e b030 5cbe 8970 5bbe bfa2 373e
00000340: 17c9 51be 5d81 26be 95fc bfbc 9bc5 67be
00000350: 8283 4a3e d420 103e dfaf 763e 9a17 2abe
00000360: e59a 33be 40d6 e3bd 211c fe3d 1a78 453e
00000370: 9273 31be b55b c23d b82b 103e 0665 5f3e
00000380: 0ed8 c63d 0a11 6c3e 0bd1 16be ba99 003e
00000390: 2995 72be e862 083e 2be8 773c 9769 70be
000003a0: 7903 543b 1841 443e 74e2 8a3b 7304 083e
000003b0: 25a9 ce3d 92ab 3ebe f71b adbd 0fd6 4b3e
000003c0: 0bf6 0a3e 64e0 193e 7489 f83c c7cc 71bc
000003d0: 8483 a23d 1800 dfbb 80dd 39bd 24b5 61be
000003e0: f3c3 8abd 0f74 a33c 028f 8a3d 006a 073e
000003f0: e9bd 613d 6458 88bc 7774 1b3e f403 b93d
-0.058528993 0.07007741 0.22743031 0.019693794 -0.16801706 0.09743292 0.20675845 0.22260527
0.20963007 -0.108518995 -0.15000618 0.13361467 0.090316296 0.19575302 -0.1027818 -0.102328606
-0.055069786 0.17877233 0.09111394 0.24399059 -0.12802647 -0.07686611 0.12930916 -0.05880265
0.19520546 -0.061786275 0.15799992 0.16251889 0.04891622 -0.060166832 -0.16959383 -0.1319327
-0.1333719 -0.18173525 0.18148817 0.09146187 -0.09856075 0.20726539 0.023312666 -0.009386384
0.1612277 0.23999107 0.1590143 -0.10615388 -0.23329486 -0.115594305 -0.061793763 0.11998065
0.1492462 -0.23128718 0.20295927 0.23485047 -0.07463316 0.20848076 0.13537206 -0.15579616
-0.086993374 -0.19223684 0.23131596 0.17640127 0.17189261 0.12782793 0.17176618 0.16887245
-0.057575397 -0.08188861 0.183106 -0.09366982 0.12374644 -0.1010153 -0.19881746 -0.19826883
0.2283816 0.22160687 -0.2130561 0.008612382 0.2195222 -0.15773985 0.013663081 0.12722068
0.14632265 -0.08978987 -0.05964115 0.057748884 0.04365993 -0.050001945 0.2060988 -0.13973998
-0.1192475 0.20989385 -0.020742295 -0.012377738 0.13362427 0.10458155 -0.020278238 0.10754151
0.11970956 -0.08356324 0.14583845 0.15879399 -0.2406275 -0.1524564 0.20059894 0.015622062
0.13733318 0.09976342 -0.0824398 -0.09240341 -0.20560184 -0.16852012 0.23046571 -0.2168699
0.13047321 0.12667932 0.21302877 -0.25388232 0.10890251 0.10785759 0.17659074 0.23006801
0.1265878 0.07182276 -0.034216758 -0.2235351 0.0900222 -0.10439789 0.14656453 -0.2065643
-0.035079043 0.15142007 0.039419264 -0.030273972 0.07733285 0.076804996 -0.21515581 -0.016629087
0.10529105 0.19434023 0.12633325 0.04172754 0.19614513 0.16384293 -0.0755098 0.028464876
-0.0752946 -0.11047017 0.19605942 0.11565537 0.22234523 0.088096045 -0.13368966 -0.0011210999
0.031720705 0.023339203 -0.21858186 -0.043267295 -0.034535374 -0.21234606 -0.19969857 0.19541547
-0.2198649 0.05399583 0.0002038951 -0.22813365 -0.1968683 -0.013731277 -0.23793578 0.020866368
0.15663418 -0.11537007 0.051942952 -0.022315174 0.22438665 -0.020532187 -0.09595535 -0.011452512
-0.1251238 -0.14031592 -0.08885562 0.024317598 0.24854152 -0.18375096 0.042036295 0.13341478
0.23294649 0.17007615 0.16738844 -0.2059677 0.21318868 -0.20123413 0.08461691 0.05556762
0.10093808 -0.0054461528 -0.02370322 -0.11844899 0.1930857 -0.13428445 -0.21666194 0.24132222
-0.10937217 -0.18166214 -0.1578724 -0.13251746 0.15280655 -0.21502948 -0.21429648 0.17933176
-0.20486866 -0.16260286 -0.02343587 -0.22633974 0.19776729 0.14075023 0.24090527 -0.16610566
-0.17539556 -0.11124849 0.12407709 0.19284096 -0.17329243 0.09490148 0.14079177 0.21815881
0.09709178 0.23053375 -0.14728181 0.12558642 -0.23689713 0.1331898 0.015131037 -0.2347778
0.0032350703 0.19165456 0.004238421 0.13282947 0.100908555 -0.18620136 -0.084525995 0.19905876
0.1357042 0.15027004 0.03033898 -0.014758295 0.07935241 -0.006805431 -0.045377254 -0.22041756
-0.067756556 0.019952802 0.06765558 0.1322403 0.055112753 -0.01664371 0.15181147 0.09033957

lstm_p.weight_hh_l1 f4 [64, 16]
00000000: 8db6 403e 0850 19be 1faf 683e f6e1 ebbd
00000010: 7dfc 36bd 35c9 44be 3df1 813d 0df3 4a3e
00000020: 401a aabd ab65 213e 2634 55bc 9390 763e
00000030: cd2c 12be f65e a23b aa32 4a3e ec4c 4bbe
00000040: e319 f03d 0749 79be 793a 463e 8274 be3d
00000050: 8fff 593d c2fd 6fbe 824c 823e 21ac 3c3e
00000060: a090 6b3e 5fa1 5abe 1ff3 673e d2eb 183d
00000070: 30f1 203e 100a 7fbe 7b5c fdbd cfe5 9d3c
00000080: 983f 1e3e 31fe 66be 528e 153e 3471 063e
00000090: 7eb0 40be c382 623e ead9 dabd 034a 963d
000000a0: 90e6 24be d270 0ebe 8b50 77bd 0ba8 afbd
000000b0: 0a36 043d 496b 8ebd b99d 17be 5239 643e
000000c0: 7507 84bb 4b07 52be b421 5d3e ab51 5a3e
000000d0: ba52 0cbe 4fe6 343e 472d cfbd bff2 4abe
000000e0: d385 80be b75e 02be b567 ef3d 680d 7b3e
000000f0: 9ae7 653e 1a9e febc e7c5 68bd c6a2 2fba
00000100: 344b 653e 63f6 33be 85e8 04be 91c4 8e3b
00000110: e48a 6fbe 9d62 0d3e 3a54 20be d4df a3bd
00000120: 57e4 01be 107e b5bb d7e1 573e a20b c2bd
00000130: 6c40 dbbd c872 fe3d 20d1 0fbd ec60 bebc
00000140: 0d51 4c3e 7e0a 9a3d 3b80 3cbd f1d4 603e
00000150: 2766 7dbe d7af 553e 7112 abbd 0e50 313e
00000160: 8968 9bbd 79cb 53be a27e cbbb d9a3 653e
00000170: 7d3a 043d 8013 4fbe bc6f 343e c6e5 793e
00000180: 833a 5d3e 0827 0cbe 0e4a 2cbe 135c 81be
00000190: 0169 39bd 95da 713d 02f3 80be 48ca 0e3c
000001a0: acb8 e03c c542 343e 3e01 2f3e b87b c43d
000001b0: 1eb2 74bc 4976 6c3e db12 98bc 8f59 4cbd
000001c0: d98f fcbd d0c1 8c3d 6581 1abe a7c6 db3d
000001d0: 9b0a 66be 20f3 ef3c 5be3 28bc 8741 35be
000001e0: eba2 523e 23cb 4c3e 9324 1c3e 6903 3b3e
000001f0: 4fed 8ebc 6f64 1bbe 07fd 82bd 0d8c 1fbe
00000200: 4484 06be 05bd 003d e1c0 c8bd 0b27 803e
00000210: ba51 283e 4ff2 7e3e e94a ef3d f7b7 143e
00000220: 68fd 04be 0925 463e 2e4b 453e 8b1b a73d
00000230: 6956 ad3d 98d5 5fbe 43db b7ba dc82 5a3e
00000240: 8325 d6bd 2e20 413e ede1 00be b426 2abe
00000250: 85fd 133e f86a 033e 571b b13d 65ab d2bd
00000260: ca17 263e 151d dabd 2845 0e3e 6b9a 653e
00000270: c89f ecbd df1c 443e bd48 343e 612d 983d
00000280: 07f5 c4bd 79e4 68bd 7dbf 1d3e 011b d23d
00000290: 4df1 603a e5dd bcbd bff5 d63c 7b92 7a3e
000002a0: dae1 493e 2829 24be 481d 7e3e ddb0 193e
000002b0: 1bf7 803e 530a 86bd ebf2 8a3d ff43 4bbd
000002c0: 1edb 0ebe 48cf 98bd 1fdf 16be 90ce 893d
000002d0: 5270 23bd 7222 4fbe 2b00 abbd 0469 84bb
000002e0: a277 01be 6303 22be 2c8f 72be e4a7 073e
000002f0: 7fdb 0e3e 7e55 7cbe ec1c 073e 6d20 43be
00000300: 7581 cdbd a519 1cbe 4844 6ebd 089e 05be
00000310: 54ee 23bc 7c05 483d 5f66 d9bd eebf 1a3e
00000320: 2c72 b8bd 4edf 7ebd f8aa 753d 2389 003e
00000330: 461d 313e b5e5 d73d ab9f 9b3c 6c7b 0dbd
00000340: 33ad 1dbe 4a8e 543e 2550 26bc 52c2 413e
00000350: b211 e83d b241 223e 9ab8 2ebe 48f3 f93d
00000360: b27b 7b3e 1054 60be e0af 2e3e a1dc 14be
00000370: fc0f 14be 98fd 64be df4e 79be c459 34be
00000380: b6d5 36be 35ad 8a3a 3097 e9bd ca24 113a
00000390: 3017 273e c542 5b3e c2ac 47be 14f4 3e3e
000003a0: 457f 8fbc 1c40 b7bd 0499 813e 2d3e 58be
000003b0: 0f14 11be 427f dc3d b752 de3d e3d9 e63d
000003c0: 3784 61be 5326 2abe 3ebf 24be 22ab 2e3e
000003d0: ae73 de3d b2e1 f5bc f476 2e3e 8a19 7f3c
000003e0: e084 71be 5cb9 98bd 8f63 053e 053c 5dbd
000003f0: 36b2 d63d bcca 6b3d e77a 72bd 684a 44be
0.18819638 -0.14971936 0.22723053 -0.11517708 -0.044674385 -0.1921738 0.06344841 0.19819279
-0.08305788 0.1576144 -0.013012921 0.24078588 -0.14274903 0.004955168 0.1974589 -0.19853562
0.117236875 -0.24344264 0.19358243 0.09299566 0.053222235 -0.23436645 0.25448996 0.18425037
0.23004389 -0.2135062 0.22651337 0.03733427 0.15717006 -0.24906182 -0.12371155 0.01927462
0.15453947 -0.22557904 0.14605072 0.13129121 -0.18817326 0.22120194 -0.10686095 0.07338335
-0.16103578 -0.13910225 -0.060379546 -0.085769735 0.0322781 -0.06954057 -0.1480626 0.22287491
-0.0040292093 -0.20510595 0.21594888 0.21320216 -0.13703433 0.17665981 -0.10116058 -0.19819163
-0.251021 -0.12731443 0.116897024 0.24516833 0.2245163 -0.031081248 -0.05682936 -0.00066999753
0.22391969 -0.17574458 -0.12979324 0.0043569286 -0.23392826 0.13807149 -0.1565713 -0.08001676
-0.12684761 -0.0055387095 0.21082245 -0.09474875 -0.10705647 0.124242365 -0.035111547 -0.023239575
0.19952793 0.075215325 -0.046020728 0.2195623 -0.24746 0.20867859 -0.08353127 0.17315695
-0.07588298 -0.20683087 -0.006210164 0.22425784 0.03228234 -0.20222282 0.17620748 0.24404058
0.21604352 -0.13686764 -0.16825125 -0.2526556 -0.045266155 0.059046347 -0.251854 0.00871522
0.027431808 0.17603596 0.17090318 0.0959391 -0.014935045 0.23091997 -0.018563678 -0.049890097
-0.12332124 0.06872904 -0.15088423 0.10731249 -0.22464983 0.029290736 -0.010308112 -0.17700778
0.20569961 0.19999366 0.15248327 0.1826302 -0.017447142 -0.15175031 -0.063959174 -0.15580769
-0.13136393 0.031430263 -0.09802414 0.25029787 0.16437426 0.24897121 0.1168421 0.14523302
-0.12987292 0.19350065 0.1926696 0.0815955 0.08463747 -0.21858823 -0.0014027137 0.21338981
-0.104563735 0.18859932 -0.12586184 -0.16616327 0.14452179 0.12833774 0.08647793 -0.10286597
0.16220012 -0.10650078 0.13893569 0.22422187 -0.11553913 0.19151638 0.17605872 0.0743053
-0.09617048 -0.056858514 0.15405078 0.10259057 0.00085808785 -0.092220105 0.026240228 0.2446994
0.19715062 -0.16031325 0.24815857 0.15008874 0.25188527 -0.06544938 0.06784614 -0.049625393
-0.13950774 -0.07461411 -0.14733551 0.06728852 -0.03990204 -0.20227984 -0.083496414 -0.004040839
-0.12643293 -0.15821604 -0.23687428 0.13247639 0.13950919 -0.24641988 0.13194627 -0.19055338
-0.100344576 -0.15244158 -0.058170587 -0.13048565 -0.010005552 0.048833355 -0.10615229 0.15112278
-0.090061516 -0.06222468 0.0599775 0.12552314 0.17296323 0.1054186 0.018997034 -0.034541532
-0.15398102 0.20757404 -0.010150944 0.18921784 0.113315 0.15845373 -0.17062607 0.12204605
0.24558905 -0.21907067 0.17059278 -0.14537288 -0.14459223 -0.22362363 -0.24346493 -0.17612368
-0.17854962 0.0010580184 -0.1140579 0.0005536793 0.16317439 0.2141219 -0.19499496 0.18647796
-0.017516742 -0.08947775 0.25312054 -0.21117468 -0.14167808 0.1076646 0.1085562 0.11272027
-0.22023092 -0.16616182 -0.16088578 0.1705747 0.10861908 -0.030014846 0.17037565 0.015570054
-0.23585844 -0.074572295 0.1302626 -0.054012317 0.1048321 0.05756639 -0.05919924 -0.19169009

lstm_p.bias_ih_l1 f4 [64]
00000000: 1070 96bd c0c9 dc3b 18ce 2a3d 7783 6fbe
00000010: 7b4e 7abe 6d59 843d a7db 0bbe f8ab 423e
00000020: 0e9e 753d dae3 603d 635d 76be e8a2 a73d
00000030: 77cc 02bd 97ef 10bd a34a 45be 9e21 81be
00000040: ebd5 2e3e f27f 24be 4d45 543d c9f9 32be
00000050: 5d0b 42be 8be0 ee3d 83f6 853d 2612 efbd
00000060: 480a dc3d 2564 1cbe 0f8b 2ebe b382 b03c
00000070: c730 d23c c35b 48be 1cbf 11be 65db 0fbe
00000080: 2e38 8dbd db3c 053e dea3 62be 4bc9 343e
00000090: c67c 5c3c d7b8 babc dde5 06be 4372 56be
000000a0: 59f9 aebd bad2 fb3d a208 4cbe 5fa6 613e
000000b0: a479 2abe 8f4f 123e 6296 68be fabb 6fbe
000000c0: aa39 c8bd 085a 3c3e db5b f83d e728 15be
000000d0: 8dcd 903d 8cc7 fdbd 07c6 5f3e eb94 733e
000000e0: 29dd 2c3b 6fd4 283e 46bf b6bd e4ed a93d
000000f0: 763b 0b3e 582a f53d b5d6 a33d c1a3 6a3e
-0.07345593 0.0067379177 0.041700453 -0.23389994 -0.24444 0.06462369 -0.1365801 0.19010913
0.059965186 0.054904796 -0.24059062 0.08185369 -0.031933274 -0.03538474 -0.19266753 -0.2522096
0.1707379 -0.16064432 0.051823903 -0.17478098 -0.18949647 0.11663922 0.06541159 -0.116733834
0.107441485 -0.15272577 -0.17045234 0.021546697 0.025658024 -0.19566254 -0.14233059 -0.14048536
-0.06895481 0.13011496 -0.22132823 0.17654912 0.013457483 -0.022793217 -0.13173623 -0.20942025
-0.08543653 0.12296052 -0.19925168 0.22036122 -0.16647965 0.14288162 -0.22713616 -0.23411551
-0.097766235 0.18393719 0.12126895 -0.14566384 0.07070456 -0.12391576 0.21852885 0.23787276
0.002637694 0.16487287 -0.08923201 0.08297327 0.13596901 0.11970967 0.079999365 0.2291403

lstm_p.bias_hh_l1 f4 [64]
00000000: c81c 913d cb62 273e 3ca5 003e c2e2 8a3c
00000010: 8b83 4dbd 6650 433e fbc6 5c3e 3c65 5c3e
00000020: 49f8 7f3d d088 0c3e 231f 13be 181a 25be
00000030: b1cb 2c3d 26ac 4cbe 6947 f8bd a241 0f3e
00000040: abdb febd 8025 2bbe 4418 60be eb6e 243e
00000050: 098f 2b3e d113 3c3e 7784 36bd d638 fcbd
00000060: b734 653e 5d5a 26be e570 523e 734f 363d
00000070: ab45 d1bd 9490 d83d c810 0bbe 7b9d 9d3c
00000080: 3709 4d3e e58f 63bd 899a 883d 2716 2e3e
00000090: 33f6 9fbd 6139 1e3e ff17 3f3e 692d e13c
000000a0: 08c9 3f3e 97e8 543e b602 39be ac17 ed3d
000000b0: e6f5 9abb bd58 c4bd a8ca 453e bb3e d13c
000000c0: 3191 63bc dbfe ca3d 0bce 933d 5527 ae3c
000000d0: c52d e13d 2bc3 9fbc 8d9e 50be 9446 d23d
000000e0: 1ffe 42bd 97d2 fabd d348 19be 5033 ef3d
000000f0: f346 c53d 5344 4abe 61c4 2bbe a05c 2fbd
0.07085568 0.1634628 0.12563032 0.01695383 -0.050174277 0.19073638 0.2156028 0.21522993
0.062492643 0.13724065 -0.14367346 -0.16123235 0.042186443 -0.19987544 -0.121229954 0.1398988
-0.12444242 -0.16713524 -0.21884257 0.16057937 0.16753782 0.18366934 -0.044559922 -0.12315528
0.2238339 -0.16245408 0.20550878 0.044509362 -0.10218366 0.10574451 -0.1358062 0.019240132
0.20023046 -0.05555715 0.066701 0.17000638 -0.07810631 0.15451576 0.18661498 0.027487474
0.18729031 0.20791851 -0.1806744 0.11576781 -0.0047290204 -0.09587238 0.19315588 0.025542608
-0.013889597 0.09911891 0.07217034 0.02125899 0.10995058 -0.019502243 -0.20372982 0.10267368
-0.04760563 -0.12247198 -0.14969186 0.11679709 0.09632673 -0.19752626 -0.16774131 -0.042812943

attention_p.attn_1.weight f4 [16, 16]
00000000: 9f3b 83be 1b80 2d3e 2b23 783e 49ee c8be
00000010: 9a73 1f3d 6ed4 d7bd 1bd3 fcbc 24a5 cabe
00000020: 4b41 99be 27fd e7bd 61dc b23d f718 a53e
00000030: b673 bf3e be2a 983d 6bf6 e4bd 1b57 ccbe
00000040: 174d 9dbe 2c74 a13e 68aa 333e c44d c9be
00000050: 8960 62be c733 8bbe 49f7 51be 7efc 783e
00000060: 4284 26be 0076 a63e 1ba8 af3e 510c 46be
00000070: ccc9 b1bd d687 b93e 7af2 5b3e f33f 803d
00000080: 7a39 47bd 0af3 07be e79b 1abd 2864 59be
00000090: a7fb dd3d a940 c33e afc3 87bd c424 533e
000000a0: 4d6c d53e 73e5 943e 666d 07be 781f ccbe
000000b0: 68e8 6ebe 500f 9d3d bde4 81be 201a 94be
000000c0: 66e4 cb3e e981 0abe 9396 8cbe 03c1 b33e
000000d0: 79f0 8cbe 8de6 c93e 2b6f 653e fd07 a2be
000000e0: 56a5 933e e440 873e 09c6 4ebd 5950 dabe
000000f0: b963 a0bd 7aeb da3e 662d c3bd 71e6 05bd
00000100: 2a80 9f3e e751 b3be e86b 3ebe 5bf1 e33d
00000110: ddb8 b1be 3cb7 813e 4fdd 693e 6139 2e3e
00000120: 5c3c 25be 323d b6be 7ab7 033e 7c5f b63e
00000130: a186 293e 16de a1be 5e62 bc3e 8443 52be
00000140: 2234 d9be 7a24 573d 3ef3 993e 1ff0 c23e
00000150: 16ea f5bd 5587 9cbe de2d 8a3c 62db 20be
00000160: 6a30 ccbc cf6a dc3d d65e e93d 1ab8 5dbe
00000170: 23e4 983d a9ac f73d 747f 9fbe 67e6 a43d
00000180: 18e3 b93e b343 2bbe 3558 3e3e a072 123e
00000190: 59c6 a73e 94cb 883e 7f91 98be 8c88 13be
000001a0: 22aa 85bd dda9 53be 1a60 ab3e 466b 0ebd
000001b0: 6fa4 e1bd 682f ab3e 9c78 29be b9d2 94be
000001c0: 0b87 4f3e 67bb ae3e 4f16 7c3c e1fd a4be
000001d0: a2bc 2abc ad12 d33e 063f 3dbd 304b 8a3e
000001e0: eeb1 553e c5d5 70bd ff3d 003d 27a9 68bd
000001f0: 43be 9ebe a630 60be 9527 853e 0342 88be
00000200: c26c 5cbe 0e3d 82be 9191 d83e 1e85 ffbd
00000210: 2a89 66be d96f b93e 472d 283e 539f c7be
00000220: 2e0e d93e e9eb 643e 20d6 f63d caba 3bbd
00000230: 7a2a 013e dedf 28be 5b43 913e a8e0 e13d
00000240: ae7b bf3e 045b f03d 8578 3fbd f924 4d3e
00000250: 0fbf 70bd 2d04 023e 107c a53d 6891 b13e
00000260: 0191 9dbe 60fa 37bc 8bb9 5cbe 31da 9f3e
00000270: 76f4 25be 45d4 763e a314 5a3e 6aa9 e8bd
00000280: 1096 5ebc 4446 8d3e 6daa 9dbe e22e d13e
00000290: 4d82 d0bd 8c55 f7bd 99f7 753c a465 da3b
000002a0: f2d4 a4be 47bb a0bc 1f44 973e de74 48be
000002b0: abc2 913e d564 d8be 0e25 b83e 84f3 a6be
000002c0: 6a1c 8fbe ceb7 33be 7414 3bbe e8c9 c0bd
000002d0: 5dcb 8bbe 80df 6e3e 9381 86bd 1865 ca3e
000002e0: 9a01 cd3e e610 b9be 7d14 553e 316e ab3e
000002f0: 5cf5 1e3e 4776 953c c79d 91be 4fce d93e
00000300: aa5a 053e 97e2 ac3e 2116 cebd 752d 283e
00000310: 58d6 60be 430f cdbe 5228 253b 2de0 d23e
00000320: 4308 5a3d c20b e0be 232d 34bc b1ae 713e
00000330: dfd4 a3be 9504 d23e 5176 7a3e 7919 33be
00000340: ee5a 243e 8e60 8d3e f057 9c3e 2787 01bc
00000350: 1f04 83bd dd64 5c3e df22 fe3d 2a71 06be
00000360: 0790 1f3d bed1 a5be c703 bdbe 88f7 b13e
00000370: a8ae d2be 8313 8ebe c311 bfbe 2bf8 033e
00000380: 38bb 983e c0a4 61bd 1671 b63e 4ed1 d63e
00000390: 8c70 c6bc 993c c0be 57b4 79be 9768 0cbc
000003a0: bd50 07be 5ec3 95be 0445 f7bd aaaa a1bd
000003b0: 62ff 91be 1150 b3be 82da a63e 0748 b9bd
000003c0: fd5c a23d f9c0 45be 89dc aabe 81d1 8abd
000003d0: bc15 8f3e f7ab cd3e 6e52 513d 0091 8dbe
000003e0: 111e 05be cf56 49be 16a4 9dbd 089f 3d3b
000003f0: cb45 e8bd caba 28be cbc5 8cbe 44c7 bbbd
-0.25631425 0.169434 0.24232166 -0.39244297 0.038928606 -0.105385646 -0.030862382 -0.39579117
-0.29932627 -0.11327582 0.0873344 0.3224561 0.37392968 0.074300274 -0.11179813 -0.39910206
-0.30722877 0.31533945 0.17545474 -0.39317143 -0.22107138 -0.2718794 -0.20504488 0.24315068
-0.1626139 0.32511902 0.34307942 -0.19340636 -0.08681068 0.36236447 0.21479216 0.06262197
-0.0486388 -0.13276306 -0.037746336 -0.21229613 0.108390145 0.3813527 -0.066291206 0.20619494
0.4168419 0.29081306 -0.13225326 -0.3986776 -0.23330843 0.07668936 -0.25369826 -0.28926182
0.39822692 -0.1352612 -0.2745863 0.35108194 -0.27527216 0.3943371 0.22405688 -0.3164672
0.2883708 0.26416695 -0.05048183 -0.42639425 -0.078315206 0.4275778 -0.095301434 -0.03269047
0.3115247 -0.35023424 -0.1859585 0.11130019 -0.34711352 0.2533511 0.22838329 0.17014076
-0.16136307 -0.35593563 0.1286296 0.35619724 0.16555263 -0.3161475 0.36793798 -0.20533568
-0.42422587 0.05252502 0.30068392 0.38073823 -0.12007539 -0.30572 0.016867574 -0.15708688
-0.02492543 0.107625596 0.11395042 -0.2165226 0.074653886 0.12093479 -0.31151927 0.08051758
0.3630607 -0.16725044 0.18588336 0.14301538 0.32768515 0.26717818 -0.29798505 -0.14407557
-0.06526591 -0.20670266 0.33471757 -0.034770273 -0.11017691 0.33434606 -0.16549915 -0.2906702
0.20266359 0.34127352 0.015386178 -0.32224944 -0.01042095 0.41225186 -0.046202682 0.2701049
0.20868656 -0.058797617 0.031309124 -0.05680194 -0.31004533 -0.21893558 0.2600676 -0.26612863
-0.21525863 -0.25437206 0.42298558 -0.12476562 -0.22513261 0.36218145 0.16423522 -0.38988742
0.4239363 0.22355618 0.1205256 -0.045832433 0.1261386 -0.16491649 0.283717 0.11029178
0.37399048 0.1173611 -0.046745796 0.20033635 -0.058775958 0.12696905 0.08080304 0.3468125
-0.30774692 -0.011229128 -0.21555154 0.31221154 -0.16206536 0.24104412 0.21296935 -0.11360438
-0.013585582 0.2759267 -0.30794087 0.4085608 -0.10181103 -0.12076864 0.015012645 0.0066649485
-0.32193714 -0.01962055 0.2954416 -0.19575831 0.28468832 -0.4226443 0.3596577 -0.32607663
-0.27951366 -0.17550585 -0.18269521 -0.094135106 -0.2730359 0.23327446 -0.06567683 0.39530253
0.40040284 -0.36145705 0.20808597 0.33482507 0.15523285 0.018244876 -0.28440687 0.42540213
0.13022867 0.33766624 -0.100628145 0.1642359 -0.21956766 -0.40050706 0.0025201035 0.41186658
0.053230535 -0.4375897 -0.01099709 0.23601796 -0.31998345 0.4101912 0.24459197 -0.17490186
0.16050312 0.27612728 0.3053584 -0.007905758 -0.063972704 0.21522851 0.12408995 -0.13129106
0.038955715 -0.32386583 -0.36916944 0.34759164 -0.41148877 -0.2774926 -0.3731824 0.12887637
0.29830337 -0.05508876 0.35633153 0.41956562 -0.024223588 -0.37546232 -0.243852 -0.008569858
-0.13214393 -0.29250616 -0.120737106 -0.0789388 -0.28515154 -0.35022023 0.32588583 -0.09046941
0.07927892 -0.19311894 -0.3337138 -0.06778241 0.2794627 0.4017026 0.051104 -0.2764969
-0.1299975 -0.19662021 -0.076973125 0.0028933901 -0.11341437 -0.16477504 -0.27494654 -0.09168866

attention_p.attn_1.bias f4 [16]
00000000: 7763 85bb 45b7 9fbb f8fd 693b d2da 55bb
00000010: 03c6 a3bb 3e60 2abb 5261 b23a a7eb 323a
00000020: cefd 8a3b 8b14 91bb 0daa 3e3b f749 99bb
00000030: 10dc a63b 5311 8b3b ed16 22bc e35b b1bb
-0.004070695 -0.0048741424 0.0035704356 -0.0032631648 -0.00499797 -0.0025997306 0.0013609326 0.0006825276
0.0042416817 -0.0044274977 0.0029093057 -0.0046780067 0.0050921515 0.0042440086 -0.009893161 -0.005412565

attention_p.attn_2.weight f4 [1, 16]
00000000: 0b36 e3be 62ab b9be 6049 f63d ebf6 25be
00000010: ed8e 73be af90 893c 7913 b53e 1d93 82be
00000020: e56e 853e c19c c3be 9a97 9c3e 13de 3dbe
00000030: 4b3f 833e cb98 d83e b3b8 01be 7cd0 96be
-0.4437717 -0.36263567 0.12025714 -0.16207473 -0.2378499 0.016792623 0.3536642 -0.25502864
0.26061168 -0.3820553 0.30584413 -0.18541746 0.25634226 0.42304072 -0.12668113 -0.29455936

lstm_t.weight_ih_l0 f4 [64, 7]
00000000: 137d 18be 9a2e 92bd 8b88 98bb 6b57 7fbd
00000010: 9171 503e 028a 48be 7221 523e 70e8 5dbc
00000020: bb57 673e fcfc 8e3d 7d31 4ebe 3a84 6a3e
00000030: b3f8 813d e6dc e93d 0cfd 3c3e ab0d 88bd
00000040: 6018 cd3c 996c c1bd 862f f53d 1810 82bb
00000050: 1c98 913d bc03 06be 464c e4bd 707b cdbd
00000060: c5c6 11be d66e 443e 5db1 38be 34a9 213e
00000070: e677 49be 47dd 583e 2299 7ebe 0e66 343e
00000080: e615 803c 1301 6cbd b6c4 fdbd a9d0 083e
00000090: 5222 8d3d 3cc1 ed3d 0838 873d 091f e23c
000000a0: f2c0 463e 482f c63d f71d 653e 2eb7 3ebe
000000b0: 709c 2cbd 9835 61bd 3f65 b03d fb18 4d3d
000000c0: 229f 1cbe 876a 0a3e e34f 16bd e9d0 3bbe
000000d0: 5c83 6c3e 2654 31be 85e6 d8bd 14af 643e
000000e0: d48c c9bd f92d 163e 4a50 9cbd d206 cdbd
000000f0: 8cf5 6e3e 6077 6ebe 9295 0f3d e9e9 fe3c
00000100: 0b98 27be e217 1c3d 841c 9bbd 2b08 9c3d
00000110: a94a fbbd 1234 27be ee95 49be ace6 5d3d
00000120: 5053 01bc ca37 8ebd fc99 3dbe c7ad 193b
00000130: 5a9c 4ebe 8938 893d 7f44 39bd 30d4 16be
00000140: 9e1a a53d d55c 3bbe ddc1 f2bb 8fa4 023e
00000150: afd8 553e 73af c0bd 301e 56be c69b 293e
00000160: d80c 043d 0794 71be ea87 40bc 78e7 ce3a
00000170: 3668 60bd 5e9b 303e 0472 553d 405c 0dbe
00000180: 4400 e3bc fcf8 a93b 7150 e3bd 58a5 03be
00000190: 2e69 0cbd 97c6 fbbc afa2 2dbe 9348 4e3e
000001a0: 2d63 783e bcb2 3cbe e779 073e 8a85 3dbe
000001b0: 366f 8f3d 3162 7b3e fe87 1b3d 4fbb 3fbe
000001c0: e8f2 dcbb 6a16 4cbe 60d3 4ebe ccdd 74bd
000001d0: 0e8a 23be 4d47 b53d 421e 7b3d 4e5d 5fbe
000001e0: d888 72bd 986c 6b3e 9184 383e 5cc4 123e
000001f0: aea8 be3d 4f71 44be 58f6 503e 3c4b 803e
00000200: 827f 50bd 04d9 4ebe dea4 fabc 3230 2d3a
00000210: cc34 333e 4c08 023e 5d12 54be 9ad2 09be
00000220: bf7b 3a3d c745 403e 4a3f 77bc ecd4 7abe
00000230: 2d39 d53d ae3b 43bd e959 903d e272 dc3d
00000240: f061 003e aeda ab3c 3564 a93d 50f3 ad3d
00000250: 67de cfbd 7785 6c3d 9d85 2b3e 870b 3cbe
00000260: c195 503d 3f29 483e 03d1 e13d ecc8 e2bd
00000270: f964 933d 36be c238 42e7 523e 10c9 13be
00000280: 7572 f73d 4671 aa3c 7894 093d c6db c23b
00000290: 0281 59be 2e0e c83d 729b 1ebe ef76 733e
000002a0: 9091 ac3d fb80 fcbd 3dd0 453e 39a3 343e
000002b0: a95f 703e 321c 043e edfc 5a3d a1ae 0cbe
000002c0: 348f 7f3e 5870 083e 949c 093e d974 723e
000002d0: e10d 373e 4beb fabd 926d 293e b2c6 cf3d
000002e0: a178 cfbd ae10 493e 8892 c3bd 512c 9cbd
000002f0: 1d18 983c 9447 823c 7e15 3d3e 841a 00be
00000300: 652b 76be b613 ab3d 3a02 2dbe 4743 5ebe
00000310: 3ba2 3bbe 8980 38be 2327 8bbd 2d53 2cbe
00000320: aa9d 253e 899a d3bd 2dc5 223e 1395 14be
00000330: 5144 1e3e 988b e43c 7243 74be c3ca d3bd
00000340: 0edf 6f3e 80d6 653e 2bab 353e b89b 433e
00000350: 7c48 473d 335e 50be 4127 aebd 4129 4bbe
00000360: c583 fb3d e062 1a3e 43de a63d 0db6 583e
00000370: e119 09bd fb9b 073e aad1 9abc c2a0 27bd
00000380: 0d9e 31be a3cc 20be 0955 e13c 2774 08be
00000390: 7daf 173d 5ab7 e2bd 3b96 c6bc fbab 35be
000003a0: b8f9 46be 6a48 e03d d496 3f3e 1b7f e2bc
000003b0: 0f93 483d 9bd6 7f3d a5c7 5a3e 38fe d5bc
000003c0: cd65 793e 332d b53c eaee 233e 1955 46bc
000003d0: 6ebc dbbd 7115 a23c 0077 5abe a97a 553d
000003e0: 60e1 47bd 1418 a53d 82c8 68be 3773 443e
000003f0: 91f5 81bd 07f1 98bc c65e 243d 4b03 5e3e
-0.14891462 -0.07137795 -0.004654949 -0.062339228 0.20355822 -0.19583896 0.20520571 -0.013544187
0.2259206 0.06981847 -0.20136066 0.22902003 0.06346264 0.11419086 0.18455905 -0.06643232
0.025036037 -0.094445415 0.11971955 -0.0039692037 0.07109091 -0.13087362 -0.111473605 -0.100333095
-0.14235981 0.19182906 -0.18036409 0.15787202 -0.19674644 0.2117816 -0.24863103 0.17617056
0.015635442 -0.057618212 -0.12391035 0.13360848 0.06891312 0.11609122 0.06602484 0.02760269
0.1940954 0.09676987 0.22374712 -0.18624565 -0.042141378 -0.05498275 0.08613061 0.05007265
-0.1529508 0.135172 -0.03669728 -0.18341412 0.23096985 -0.17317256 -0.10590843 0.22332412
-0.09841314 0.14665975 -0.076325014 -0.100110665 0.23335856 -0.23287725 0.03505475 0.031117396
-0.16366594 0.038108714 -0.07573798 0.076187454 -0.122701 -0.16328457 -0.196861 0.054175064
-0.007893398 -0.06944235 -0.18515772 0.0023449527 -0.20176831 0.06700236 -0.04523134 -0.1472938
0.080617175 -0.18297131 -0.007408364 0.12758087 0.2088344 -0.09408464 -0.20909953 0.16563329
0.03223881 -0.23591624 -0.011751154 0.0015785536 -0.054786883 0.17246768 0.052110687 -0.13804722
-0.027710088 0.005187152 -0.11099327 -0.12856042 -0.034279995 -0.030734343 -0.1695659 0.20144872
0.24256583 -0.18427557 0.13230096 -0.18507972 0.07003634 0.24549176 0.03797149 -0.18723796
-0.006742824 -0.19930425 -0.2019782 -0.059781834 -0.15970632 0.0885149 0.061308153 -0.21812937
-0.059212536 0.22990644 0.1801932 0.14332718 0.09309517 -0.19183849 0.20406473 0.250574
-0.05090285 -0.20199972 -0.030596193 0.0006606608 0.17500609 0.12698478 -0.2071013 -0.13459244
0.04552817 0.18776618 -0.015090773 -0.24495286 0.10411296 -0.047664337 0.07048399 0.107641
0.1253736 0.020978298 0.08271066 0.08493674 -0.10149842 0.05774447 0.16750188 -0.18363772
0.050924066 0.19546984 0.11026194 -0.11073479 0.071969934 9.2860704e-05 0.2059603 -0.14432168
0.12082378 0.020805966 0.033588856 0.005946609 -0.21240619 0.097683296 -0.15488985 0.23775838
0.08426201 -0.123292886 0.19317718 0.1764039 0.23473991 0.1290138 0.053463865 -0.1373849
0.24956971 0.13324106 0.13438636 0.23677386 0.17876388 -0.1225191 0.16545704 0.1014532
-0.1013043 0.19635269 -0.09549433 -0.0762564 0.018566186 0.015903272 0.1846523 -0.12510115
-0.24039991 0.08353369 -0.1689538 -0.21705352 -0.18323605 -0.18017782 -0.06794574 -0.16828604
0.16173425 -0.103322096 0.15895529 -0.14509992 0.15455748 0.027898595 -0.23853853 -0.10341408
0.23424932 0.22445107 0.17741077 0.1910237 0.04865311 -0.20348434 -0.08503581 -0.19839956
0.122809924 0.1507678 0.08147862 0.21163197 -0.033471946 0.13243096 -0.018898804 -0.040924795
-0.17345448 -0.15703063 0.027506368 -0.13325559 0.037032593 -0.11070128 -0.024241557 -0.17741387
-0.19431198 0.10951312 0.1870988 -0.0276485 0.04896837 0.062460523 0.21365221 -0.026122198
0.2435524 0.02211628 0.16009107 -0.01210525 -0.107292995 0.019785615 -0.21334457 0.05211893
-0.04879892 0.08061233 -0.22732738 0.19184576 -0.06345666 -0.018669618 0.040129445 0.21680944
