Params/300_0.001_5_16_222_model.pt (torch, 45279 bytes, 31 tensors)

lstm_p.weight_ih_l0 f4 [64, 10]
-0.09635171 -0.10006367 -0.04137455 -0.010296457 0.23036589 -0.11464232 0.08947975 0.18738037
-0.06627814 -0.075833425 0.11478908 0.04006802 -0.002248225 0.24453232 0.007036725 -0.12093856
-0.00015539568 0.056863066 0.06334132 0.097766876 0.012976009 0.02552885 -0.21435207 0.17013058
-0.16361858 -0.10682372 0.06666428 -0.056178395 0.14914751 0.079036795 0.21502405 0.07037417
0.06067117 0.051599424 -0.16071445 0.033122573 0.08392195 -0.05362289 -0.13318598 -0.14844723
0.14399678 -0.16965082 0.244844 -0.024228312 0.068532 0.17012163 0.1856799 0.07480199
-0.20000933 0.0060997624 -0.09590436 -0.20286658 -0.081357844 0.12348494 0.040203035 0.23001792
-0.13188161 0.12562643 0.20471539 -0.15681288 0.21811737 0.10141155 -0.01902938 -0.07119989
-0.14363319 0.1947959 0.07167725 -0.031008618 0.22360085 -0.1402183 -0.12089106 -0.112856366
0.22822802 -0.19453962 0.014486747 -0.01567828 -0.034834795 -0.20872013 0.12038291 -0.033237595
-0.21797791 -0.019710815 -0.18623976 0.06808518 0.11292429 -0.11931639 0.21605423 0.037347786
-0.22194467 0.019785618 0.0068910983 0.12948968 -0.21615966 0.03528213 -0.13775365 0.038072567
-0.18152633 0.026709432 -0.21264566 0.07447028 0.04327886 0.18015744 0.23494828 0.07198019
-0.09755764 -0.07746988 0.14153937 0.13575307 0.004234155 -0.16209616 -0.13984285 0.035670087
0.09134101 0.14389719 0.14616588 0.18191895 -0.0030551504 0.15642084 0.082969286 0.24203382
0.1513988 0.022464205 0.09320759 -0.075179495 -0.21345112 0.08330449 0.22727574 0.10961703
0.002081653 -0.22007018 -0.20579308 0.091211416 0.07065411 0.1461245 0.13632047 -0.017231802
-0.21766113 0.10065274 -0.19789672 0.05637173 -0.012433744 0.13086164 0.23941849 0.0014791614
0.12922098 0.02017115 0.1343808 -0.111643955 -0.22860876 -0.08691001 0.032268666 0.10894924
0.17055143 -0.0073357876 0.0924016 0.003131252 0.22281617 0.090649165 0.019653695 -0.009807296
0.07112121 -0.05541332 0.23056875 0.1412222 -0.07630419 0.10286105 -0.10638179 -0.19976726
-0.21890832 -0.22304802 -0.10486536 -0.09771593 -0.05701969 0.20786487 0.044479165 0.12468692
0.053841226 0.08114421 -0.01670371 0.005817986 0.23718227 0.19210862 -0.0074553713 0.06994605
0.13390897 0.12508288 0.1426148 -0.085763186 0.09616355 0.009232928 0.09305864 -0.05080188
0.15221357 -0.16324493 0.14149432 0.068087816 0.12795514 -0.0013059422 -0.116721615 -0.0042124507
0.12556835 0.058588803 -0.22822574 -0.19864093 0.24393155 -0.1465816 -0.057483092 -0.1587679
0.09596725 -0.21057676 0.16332693 -0.1535691 -0.24421428 -0.03467628 0.06363352 -0.10205042
0.1069116 -0.21446967 0.21918759 -0.20353596 0.05566495 -0.048697658 -0.090310946 0.20169657
0.19809502 0.18496953 -0.16422972 -0.19237122 -0.22935832 0.11654984 -0.016128108 -0.1210502
-0.13307367 0.12294047 -0.044488728 0.03800212 -0.2011471 0.22986905 -0.061054826 0.109578
-0.19707043 0.19220002 0.19573121 -0.13474911 -0.098862715 -0.15510249 0.23369253 0.14182507
0.10537655 0.10938334 -0.19249855 -0.11577625 -0.17470135 -0.07754076 -0.070867985 0.14617239
00000000: 0c54 c5bd 2eee ccbd 5c78 29bd 79b2 28bc
00000010: 09e5 6b3e 98c9 eabd 2941 b73d a4e0 3f3e
00000020: d5bc 87bd 8e4e 9bbd 8a16 eb3d 5d1e 243d
00000030: f556 13bb ae66 7a3e 5494 e63b a3ae f7bd
00000040: b6f1 22b9 3fe9 683d 18b9 813d 003a c83d
00000050: 5499 543c e121 d13c 1c7f 5bbe b636 2e3e
00000060: a18b 27be 65c6 dabd 4887 883d 511b 66bd
00000070: 20ba 183e 0bde a13d 442f 5c3e 5520 903d
00000080: 5582 783d eb59 533d 5492 24be 89ab 073d
00000090: 45df ab3d ada3 5bbd e861 08be 8d02 18be
000000a0: e473 133e f2b8 2dbe 63b8 7a3e 747a c6bc
000000b0: 815a 8c3d 5d34 2e3e df22 3e3e c931 993d
000000c0: 3fcf 4cbe 84e0 c73b 8169 c4bd 42bc 4fbe
000000d0: f19e a6bd ace5 fc3d f0ab 243d d189 6b3e
000000e0: f90b 07be 37a4 003e e9a0 513e 8e93 20be
000000f0: 295a 5f3e dcb0 cf3d 81e3 9bbc 3fd1 91bd
00000100: 9414 13be 9478 473e 86cb 923d c905 febc
00000110: 9ff7 643e 6395 0fbe bb95 f7bd 3d21 e7bd
00000120: 9bb4 693e 6535 47be d259 6d3c bc6f 80bc
00000130: eeae 0ebd bbba 55be 518b f63d 2524 08bd
00000140: 9a35 5fbe 9378 a1bc a3b5 3ebe 3e70 8b3d
00000150: da44 e73d 275c f4bd 523d 5d3e fef9 183d
00000160: 7745 63be 7315 a23c b9ce e13b f198 043e
00000170: f558 5dbe ff83 103d 4b0f 0dbe fbf1 1b3d
00000180: 0ae2 39be bdcd da3c c9bf 59be e083 983d
00000190: 2d45 313d 317b 383e 4896 703e 5a6a 933d
000001a0: 4dcc c7bd 87a8 9ebd b2ef 103e da02 0b3e
000001b0: abbe 8a3b 89fc 25be f732 0fbe cc1a 123d
000001c0: ff10 bb3d c959 133e 82ac 153e f648 3a3e
000001d0: eb38 48bb c92c 203e cdeb a93d b7d7 773e
000001e0: 4908 1b3e da06 b83c 9fe3 be3d b5f7 99bd
000001f0: ee92 5abe 8b9b aa3d f9ba 683e e57e e03d
00000200: 586c 083b 145a 61be 6cbb 52be 0dcd ba3d
00000210: 1ab3 903d a9a1 153e 9897 0b3e b529 8dbc
00000220: 8fe2 5ebe 0623 ce3d 70a5 4abe 0be6 663d
00000230: e7b6 4bbc 9800 063e 1f2a 753e 6ce0 c13a
00000240: 8152 043e f83d a53c 1f9b 093e 96a5 e4bd
00000250: 6a18 6abe e0fd b1bd 262c 043d c720 df3d
00000260: 09a5 2e3e 0c61 f0bb 0d3d bd3d b135 4d3b
00000270: ec29 643e 45a6 b93d c900 a13c c8ae 20bc
00000280: ffa7 913d 14f9 62bd 371a 6c3e 8d9c 103e
00000290: 5f45 9cbd d0a8 d23d b2de d9bd ca8f 4cbe
000002a0: 8129 60be b366 64be a6c3 d6bd 4a1f c8bd
000002b0: 7a8d 69bd 87da 543e c92f 363d db5b ff3d
000002c0: 9e88 5c3d f02e a63d 38d6 88bc cea4 be3b
000002d0: e9df 723e 1fb8 443e 304c f4bb e03f 8f3d
000002e0: 6f1f 093e ba15 003e 9d09 123e 9ca4 afbd
000002f0: 65f1 c43d b545 173c 8795 be3d a215 50bd
00000300: e0dd 1b3e ae29 27be e3e3 103e a071 8b3d
00000310: ac06 033e 262c abba be0b efbd 9908 8abb
00000320: fd94 003e d0fa 6f3d 02b4 69be 8768 4bbe
00000330: 31c9 793e 7d19 16be 6473 6bbd 0d94 22be
00000340: 7a8a c43d 6fa1 57be 2d3f 273e 3841 1dbe
00000350: 4f13 7abe b708 0ebd 4a52 823d d0ff d0bd
00000360: 78f4 da3d f09d 5bbe b672 603e bb6b 50be
00000370: ee00 643d 3277 47bd f2f4 b8bd 8c89 4e3e
00000380: 6cd9 4a3e a768 3d3e d62b 28be f6fc 44be
00000390: e8dc 6abe afb1 ee3d 181f 84bc 2be9 f7bd
000003a0: 7744 08be 37c8 fb3d d039 36bd 1ca8 1b3d
000003b0: 81f9 4dbe cb62 6b3e a014 7abd 6e6a e03d
000003c0: d5cc 49be 15d0 443e c36d 483e acfb 09be
000003d0: 8978 cabd 30d3 1ebe 184d 6f3e 973a 113e
000003e0: a9cf d73d 5f04 e03d 571e 45be 191c edbd
000003f0: e9e4 32be b1cd 9ebd 3c23 91bd 37ae 153e

lstm_p.weight_hh_l0 f4 [64, 16]
-0.01805743 -0.00077095715 -0.013684146 0.25158855 0.21874493 -0.15801157 0.05505857 0.035531163
0.14613387 -0.04851581 0.106969506 0.11578964 0.019937491 0.19678853 0.07468449 0.19876124
0.18232113 -0.2290956 -0.1331937 -0.041673355 0.15423192 -0.18201022 0.16543868 0.10034994
0.054571755 0.21219283 0.016319036 -0.18208392 0.11620969 -0.22620827 -0.21974176 0.08557445
0.21569431 -0.24143314 0.17461523 0.18699528 -0.16177356 -0.20385335 0.011445311 0.16761762
0.045254517 -0.16298802 -0.06926543 -0.016996196 0.2390539 -0.108828664 -0.17512935 -0.052761845
-0.13892275 -0.02973036 0.025390748 -0.10376956 0.09948429 -0.23417744 0.16028753 0.0799517
0.12170641 -0.06818659 0.07515916 0.095064275 0.026001466 -0.08994322 -0.06652007 0.1568492
0.21854885 0.0019198441 -0.2034664 0.014108762 -0.23872131 0.10623578 -0.07535394 0.07127697
-0.12672773 0.12788142 -0.16976348 0.17046367 0.1706041 0.21080235 0.09105351 -0.14466612
0.0012765317 0.16556068 -0.15553091 -0.18795867 0.08468851 -0.12109857 -0.21551852 0.1602273
0.16195007 -0.14946027 -0.09751994 0.033378206 -0.12818043 -0.22358242 0.10354057 0.07211245
-0.21123503 0.011775178 3.8266735e-05 -0.1278836 0.205033 0.07024588 0.25206977 -0.005909478
-0.14370663 -0.013657438 -0.21538427 0.025935004 -0.21023597 0.19234242 -0.046116244 0.14333385
0.1763699 -0.2028439 0.23023239 -0.20041914 0.22948046 -0.063966826 0.07331248 0.07482179
0.24858867 0.19106065 0.1612776 0.048051048 -0.095179245 0.012236735 -0.0014245665 0.1714182
-0.18034638 0.17021939 0.1382593 0.255907 0.05303134 0.21843806 -0.17342137 -0.19144534
0.030578906 0.10662408 0.16741773 -0.21091214 -0.047520522 -0.1599094 -0.0032917839 0.008381031
-0.19168124 -0.024284035 -0.16474794 -0.088637434 0.033284828 0.17053185 0.025599042 -0.13609174
-0.16330819 -0.06662919 0.037604414 -0.16355276 0.23521103 0.11529439 0.21032761 0.043296777
-0.16453345 0.16948962 -0.14605796 0.20303215 0.04742329 0.180464 -0.23394707 -0.09902766
0.13296868 -0.14652531 0.20290767 -0.004099815 -0.20456125 0.10542833 0.042854454 -0.10358476
-0.075157434 -0.0021113616 -0.07596321 0.23677896 -0.19860132 0.008452824 -0.15312448 -0.02533138
-0.119385265 0.24576022 -0.13261098 0.21031532 -0.025108038 0.0024360453 -0.072555296 -0.012642662
-0.05773912 -0.10061115 -0.1858732 -0.061399292 -0.13890363 0.048779394 -0.019848326 -0.15429942
-0.23928723 -0.12248824 0.19623977 0.09671436 0.14128073 -0.06503099 0.1853184 0.19789213
-0.1271675 -0.13107827 0.13337131 0.14163683 -0.07579974 0.098662026 0.09406101 -0.10535348
-0.19182044 -0.064825326 -0.17496502 0.21738745 0.13406534 0.2372668 0.15041056 0.0934126
0.020675858 0.18772814 0.0993428 0.028403243 0.16938633 0.1892499 -0.092626 -0.060221877
-0.05477863 -0.1932748 -0.17228206 -0.21097663 0.022619542 -0.041328028 0.12074837 0.05410843
-0.13790889 0.054087587 -0.21531956 0.093505524 0.16072088 -0.16517845 0.024936626 0.006619365
0.048841674 0.18242255 -0.16824402 -0.16146056 0.03388868 -0.20531113 -0.13073677 0.080276065
00000000: 2ded 93bc 0f1a 4aba 7833 60bc 37d0 803e
00000010: acfe 5f3e c9cd 21be 1885 613d 2089 113d
00000020: 1ea4 153e 84b8 46bd d412 db3d 1e23 ed3d
00000030: f353 a33c ef82 493e 2ff4 983d 1188 4b3e
00000040: 64b2 3a3e 0998 6abe ee63 08be aeb1 2abd
00000050: f9ee 1d3e e360 3abe c268 293e 4584 cd3d
00000060: a286 5f3d 1449 593e 80af 853c 3574 3abe
00000070: 59ff ed3d 24a3 67be fc03 61be a841 af3d
00000080: f8de 5c3e 403a 77be 56ce 323e b17b 3f3e
00000090: f8a7 25be efbe 50be 1d85 3b3c f4a3 2b3e
000000a0: cd5c 393d 55e6 26be 09db 8dbd 9b3b 8bbc
000000b0: 8cca 743e 90e1 debd 1c55 33be ce1c 58bd
000000c0: c441 0ebe 158d f3bc 4200 d03c 2385 d4bd
000000d0: 6bbe cb3d 36cc 6fbe 6a22 243e b8bd a33d
000000e0: 3641 f93d 69a5 8bbd 0ced 993d 0fb1 c23d
000000f0: 0701 d53c 2734 b8bd ad3b 88bd 149d 203e
00000100: 45cb 5f3e 47a3 fb3a 7f59 50be 7028 673c
00000110: 5c73 74be 2592 d93d 2b53 9abd a9f9 913d
00000120: eac4 01be 59f3 023e 7ad6 2dbe 078e 2e3e
00000130: d7b2 2e3e 92dc 573e 437a ba3d 5b23 14be
00000140: 4c51 a73a bd88 293e 7f43 1fbe 3d78 40be
00000150: 2b71 ad3d 8702 f8bd e3b0 5cbe a012 243e
00000160: 3dd6 253e 1d0c 19be 89b8 c7bd 96b7 083d
00000170: bb41 03be caf2 64be 140d d43d b1af 933d
00000180: ff4d 58be adec 403c 9880 2038 ebf3 02be
00000190: 2cf4 513e 12dd 8f3d 4a0f 813e 4ba4 c1bb
000001a0: d527 13be 72c3 5fbc b28d 5cbe a575 d43c
000001b0: 1948 57be 69f5 443e 63e4 3cbd 1cc6 123e
000001c0: 509a 343e 50b6 4fbe 0ac2 6b3e ad3a 4dbe
000001d0: edfc 6a3e 0a01 83bd da24 963d 2b3c 993d
000001e0: 078e 7e3e 67a5 433e f525 253e 2dd1 443d
000001f0: 56ed c2bd 967c 483c 85b8 baba 4188 2f3e
00000200: b9ac 38be fe4d 2e3e d993 0d3e 3e06 833e
00000210: 6437 593d 3aae 5f3e 5f95 31be 3f0a 44be
00000220: 9d80 fa3c ba5d da3d 8e6f 2b3e 5af9 57be
00000230: e1a4 42bd 4abf 23be f8ba 57bb 9850 093c
00000240: 1648 44be 50ef c6bc afb3 28be 8b87 b5bd
00000250: ac55 083d e79f 2e3e 15b5 d13c a25b 0bbe
00000260: 433a 27be e374 88bd 1607 1a3d 607a 27be
00000270: 29db 703e 771f ec3d 1f60 573e f657 313d
00000280: 757b 28be b08e 2d3e 3890 15be a9e7 4f3e
00000290: ec3e 423d 8ecb 383e d28f 6fbe 04cf cabd
000002a0: f128 083e bb0a 16be 07c7 4f3e be57 86bb
000002b0: 8178 51be cfea d73d 2788 2f3d 3f24 d4bd
000002c0: 24ec 99bd c55e 0abb 9992 9bbd 2f76 723e
000002d0: 255e 4bbe b77d 0a3c aacc 1cbe c183 cfbc
000002e0: 4380 f4bd 91a8 7b3e 2ccb 07be e65c 573e
000002f0: 5faf cdbc 0fa6 1f3b df97 94bd 2b23 4fbc
00000300: db7f 6cbd 380d cebd 8b55 3ebe d37d 7bbd
00000310: c13c 0ebe e7cc 473d f598 a2bc ab00 1ebe
00000320: b607 75be 1ddb fabd 14f3 483e 2e12 c63d
00000330: e5ab 103e f82e 85bd 1bc4 3d3e 3ca4 4a3e
00000340: 3238 02be 6239 06be 7d92 083e 3f09 113e
00000350: e53c 9bbd 510f ca3d 0fa3 c03d 91c3 d7bd
00000360: 946c 44be 24c3 84bd 082a 33be d19a 5e3e
00000370: 6d48 093e 11f6 723e 3a05 1a3e 1b4f bf3d
00000380: 6b60 a93c ce3b 403e 3d74 cb3d ebad e83c
00000390: 9c73 2d3e baca 413e b3b2 bdbd 37ab 76bd
000003a0: 8f5f 60bd d4e9 45be b56a 30be 420a 58be
000003b0: 9e4c b93c 9447 29bd ec4a f73d cda0 5d3d
000003c0: fd37 0dbe f28a 5d3d bb7c 5cbe d37f bf3d
000003d0: 0494 243e 8a24 29be e547 cc3c 42e7 d83b
000003e0: 350e 483d facc 3a3e 2948 2cbe eb55 25be
000003f0: dbce 0a3d 153d 52be dcdf 05be c767 a43d

lstm_p.bias_ih_l0 f4 [64]
-0.015007665 -0.20087917 -0.19095697 -0.09134771 0.14632753 -0.050656307 0.0092659835 -0.1874694
0.19079399 -0.252619 0.10391968 0.065612815 0.2368784 -0.15356985 0.13773823 0.12879893
-0.15041646 0.20118013 -0.16520998 -0.17432773 -0.21203116 0.20100516 0.06661229 0.00494196
0.009573238 0.18049183 -0.025319388 0.04008172 -0.12748589 -0.18478416 -0.23069862 0.13368198
-0.0902441 -0.12770693 0.16683209 0.22685948 0.0132927075 -0.07735064 -0.2346401 -0.2234453
0.12381408 -0.15436986 -0.21303248 -0.21415749 -0.06967762 0.12557837 0.16258122 -0.06358644
0.2052244 0.21316652 0.11694737 0.23142189 -0.2467649 0.07425626 -0.19726907 -0.0037189564
0.06300933 0.07568542 -0.031807296 0.05703418 -0.14111966 0.17022735 -0.09577019 -0.15362908
00000000: b6e2 75bc 45b3 4dbe 398a 43be 8214 bbbd
00000010: e2d6 153e fd7c 4fbd 5ad0 173c faf7 3fbe
00000020: 805f 433e 4757 81be d7d3 d43d 0360 863d
00000030: 4090 723e 6a41 1dbe 400b 0d3e dee3 033e
00000040: c606 1abe 2a02 4e3e ce2c 29be f882 32be
00000050: b21e 59be 4cd4 4d3e 066c 883d 2af0 a13b
00000060: 12d9 1c3c dad2 383e 9b6a cfbc bb2c 243d
00000070: a98b 02be 0f38 3dbe 423c 6cbe eee3 083e
00000080: e6d1 b8bd 9bc5 02be 08d6 2a3e da4d 683e
00000090: a8c9 593c 036a 9ebd 7f45 70be d8ce 64be
000000a0: 3d92 fd3d 2213 1ebe 3025 5abe 1a4c 5bbe
000000b0: 24b3 8ebd 9e97 003e b17b 263e 9c39 82bd
000000c0: 5826 523e 5348 5a3e 1a82 ef3d dcf9 6c3e
000000d0: f0af 7cbe ab13 983d e700 4abe bcb9 73bb
000000e0: 090b 813d f500 9b3d 5e48 02bd ac9c 693d
000000f0: ac81 10be 1450 2e3e 2923 c4bd f150 1dbe

lstm_p.bias_hh_l0 f4 [64]
-0.2381479 -0.012713901 -0.10125378 0.08257829 -0.017353266 0.06332036 -0.18510623 0.23257723
-0.009413783 -0.19669607 0.18956114 0.026009407 -0.008844022 -0.12916346 -0.07238587 0.044767015
0.12531155 -0.23902231 0.03889506 0.057942044 0.1342985 0.09020001 0.06981592 0.21092907
-0.0725942 0.031180425 -0.082899794 0.05271549 -0.1075259 0.08447463 0.028622037 0.010131931
-0.22741131 0.16679443 -0.23472932 0.056263193 -0.150491 -0.15979917 -0.010719109 -0.17249894
-0.11995372 -0.15621659 0.17157742 -0.10003642 0.07834393 -0.03561521 -0.2013127 0.120284885
-0.11722726 0.14525725 -0.21183299 -0.25143936 0.07526105 -0.04817133 -0.14740844 0.24218085
0.23560284 -0.24325012 0.20114551 0.13596125 -0.071198136 -0.098875016 0.078367464 -0.05246655
00000000: 0bdd 73be f74d 50bc 245e cfbd ce1e a93d
00000010: 7028 8ebc 1bae 813d 7d8c 3dbe ba28 6e3e
00000020: 453c 1abc b26a 49be 511c 423e ae11 d53c
00000030: 84e6 10bc 6d43 04be 0b3f 94bd 9e5d 373d
00000040: ac51 003e 44c2 74be 6d50 1f3d a354 6d3d
00000050: 8c85 093e c8ba b83d a6fb 8e3d cafd 573e
00000060: 45ac 94bd 176e ff3c 5ec7 a9bd 33ec 573d
00000070: 8a36 dcbd 0901 ad3d c378 ea3c 6600 263c
00000080: 83de 68be 29cc 2a3e e25c 70be 3c74 663d
00000090: 501a 1abe 65a2 23be 349f 2fbc 90a3 30be
000000a0: 4caa f5bd 3ef7 1fbe feb1 2f3e e5df ccbd
000000b0: c872 a03d 41e1 11bd eb24 4ebe ec57 f63d
000000c0: d814 f0bd 51be 143e bfea 58be a9bc 80be
000000d0: 7722 9a3d 4d4f 45bd 3df2 16be 42fe 773e
000000e0: df41 713e 8f16 79be 17f9 4d3e 6d39 0b3e
000000f0: 54d0 91bd fc7e cabd 1f7f a03d 2ae7 56bd

lstm_p.weight_ih_l1 f4 [64, 16]
-0.059199084 0.07127893 0.2259926 0.017886626 -0.16768208 0.09637645 0.2072462 0.2230114
0.21066782 -0.1055685 -0.1475987 0.13234091 0.09048459 0.19501515 -0.094684824 -0.101797976
-0.05666828 0.180514 0.088953294 0.24136002 -0.12722693 -0.07786833 0.13138843 -0.058737975
0.19601199 -0.05931049 0.16068083 0.16077925 0.04943691 -0.060868073 -0.1602321 -0.13124035
-0.13388132 -0.18063283 0.1796918 0.089583255 -0.096707895 0.20617236 0.025244653 -0.0082831625
0.16337493 0.2412861 0.16373643 -0.10729973 -0.23327437 -0.11662214 -0.05065522 0.11842157
0.14912929 -0.23224834 0.20460644 0.23636577 -0.076502785 0.20908758 0.13380088 -0.15675974
-0.088816956 -0.19317485 0.22690085 0.17737882 0.1719901 0.12795688 0.16346718 0.16873227
-0.055539414 -0.083717324 0.18592666 -0.0909864 0.122108705 -0.10084328 -0.2018748 -0.19864689
0.22639824 0.2223295 -0.21758603 0.01069314 0.21940021 -0.15647098 0.0058335555 0.12787488
0.1440756 -0.08811948 -0.06174532 0.054379277 0.04437341 -0.050780624 0.20854533 -0.13956021
-0.11833685 0.21258084 -0.01803943 -0.014176949 0.13419025 0.10334797 -0.010364471 0.10709897
0.123444915 -0.08053183 0.14353749 0.15678908 -0.24393569 -0.15177087 0.20303123 0.013116884
0.13364732 0.098711334 -0.090687215 -0.095515445 -0.20517191 -0.16974597 0.22277568 -0.20712714
0.13060142 0.12513532 0.21497852 -0.25262877 0.108070076 0.10925438 0.17596652 0.2296956
0.12542608 0.06920514 -0.03733412 -0.22207676 0.08973185 -0.10393325 0.1377263 -0.20634735
-0.036156464 0.1534385 0.0368737 -0.033997353 0.07853073 0.07645163 -0.21215966 -0.016460523
0.1064059 0.19752042 0.1296152 0.039692793 0.19657391 0.16254048 -0.06394357 0.02880489
-0.0755078 -0.108521104 0.1935509 0.11293127 0.22336848 0.087015 -0.13118562 -0.0010223258
0.03272457 0.025888577 -0.21502802 -0.045263864 -0.033842728 -0.21359603 -0.18930553 0.19453678
-0.21972942 0.05244114 0.0023491746 -0.22625074 -0.19809668 -0.0127186915 -0.23969288 0.020465363
0.15531756 -0.11593609 0.048135165 -0.02072541 0.22405514 -0.019928256 -0.105183914 -0.010528635
-0.12572345 -0.13986942 -0.08880772 0.024106387 0.24613045 -0.18329647 0.04198001 0.13128322
0.2301626 0.16845459 0.1624458 -0.20654836 0.21441889 -0.20260006 0.07793389 0.055884846
0.1035993 -0.0074103693 -0.021305576 -0.117092304 0.19255538 -0.13245125 -0.21725856 0.24130912
-0.11033331 -0.18404421 -0.16080528 -0.13054907 0.1521812 -0.21394132 -0.22335058 0.17945878
-0.20704831 -0.1635301 -0.02213109 -0.21981215 0.19640379 0.13545391 0.23593307 -0.1648253
-0.17439358 -0.11212178 0.124480315 0.19440207 -0.17335722 0.09672099 0.14234838 0.21560036
0.09846167 0.22832987 -0.1437695 0.12661844 -0.23836839 0.13261354 0.013290943 -0.23402874
0.0022941085 0.1910132 -0.004269086 0.13349393 0.09900563 -0.18283685 -0.090785235 0.20373634
0.14032231 0.15543668 0.025640035 -0.020273162 0.07825696 -0.0044748764 -0.03735425 -0.22183628
-0.07008731 0.020236088 0.063324995 0.12701789 0.05642974 -0.021568563 0.15405229 0.09279191
00000000: bd7a 72bd b0fa 913d 9b6a 673e f986 923c
00000010: dab4 2bbe 0461 c53d 5938 543e 1a5d 643e
00000020: 4eb9 573e 4c34 d8bd 1d24 17be 6084 073e
00000030: fc4f b93d 0db2 473e 1eea c1bd 757b d0bd
00000040: 001d 68bd a9d8 383e 252d b63d 1527 773e
00000050: c747 02be 6e79 9fbd b08a 063e 3b97 70bd
00000060: 5eb7 483e 8eef 72bd 8489 243e 51a3 243e
00000070: 5b7e 4a3d cd50 79bd e213 24be df63 06be
00000080: 2f18 09be d0f7 38be 2101 383e 6d77 b73d
00000090: ca0e c6bd d91e 533e e0cd ce3c 1ab6 07bc
000000a0: c24b 273e b413 773e 86aa 273e f6bf dbbd
000000b0: 7adf 6ebe 97d7 eebd d97b 4fbd 0287 f23d
000000c0: 59b5 183e 82d2 6dbe 5a84 513e de09 723e
000000d0: 7ead 9cbd 0e1b 563e 1903 093e a085 20be
000000e0: aae5 b5bd a1cf 45be b258 683e cba2 353e
000000f0: 2c1e 303e 2107 033e f163 273e 27c8 2c3e
00000100: 4c7d 63bd fd73 abbd 8f63 3e3e 1457 babd
00000110: 2114 fa3d ec86 cebd 44b8 4ebe 176a 4bbe
00000120: f1d4 673e 58aa 633e dfce 5ebe 4832 2f3c
00000130: 73aa 603e ee39 20be 6927 bf3b a2f1 023e
00000140: 8e88 133e fc77 b4bd a9e8 7cbd cebc 5e3d
00000150: e5c0 353d 58ff 4fbd e88c 553e dfe8 0ebe
00000160: 975a f2bd cbae 593e 6dc7 93bc 6f46 68bc
00000170: 2b69 093e 1aa8 d33d becf 29bc b456 db3d
00000180: b0d0 fc3d dfed a4bd 7efb 123e 518d 203e
00000190: 47ca 79be d369 1bbe 6be7 4f3e 33e8 563c
000001a0: d8da 083e 2b29 ca3d 38ba b9bd 9a9d c3bd
000001b0: 9618 52be e3d1 2dbe 4f1f 643e 2319 54be
000001c0: 61bc 053e 7923 003e 5423 5c3e 8f58 81be
000001d0: d853 dd3d c3c0 df3d 9130 343e 5335 6b3e
000001e0: b26f 003e 6dbb 8d3d aaeb 18bd 1768 63be
000001f0: 55c5 b73d f5da d4bd 2008 0d3e b84c 53be
00000200: cd18 14bd fb1e 1d3e e008 173d cf40 0bbd
00000210: b8d4 a03d ac92 9c3d 6240 59be 38d8 86bc
00000220: 56eb d93d cb42 4a3e d9b9 043e e994 223d
00000230: ac4a 493e 0371 263e d9f4 82bd 3cf8 eb3c
00000240: d5a3 9abd 5040 debd 3532 463e 8248 e73d
00000250: b5ba 643e ec34 b23d 8655 06be 90ff 85ba
00000260: 330a 063d 4814 d43c 4e30 5cbe 9a66 39bd
00000270: ac9e 0abd ebb8 5abe 4fd9 41be a634 473e
00000280: c000 61be 85cc 563d 9cf4 193b 46ae 67be
00000290: dbd9 4abe 0f62 50bc 0d72 75be faa6 a73c
000002a0: 910b 1f3e e76f edbd 6129 453d 56c8 a9bc
000002b0: b66e 653e 9540 a3bc aa6a d7bd 4c80 2cbc
000002c0: a6bd 00be ee39 0fbe d2e0 b5bd c27a c53c
000002d0: 9f09 7c3e 12b2 3bbe 3bf3 2b3d 1c6f 063e
000002e0: bfaf 6b3e 5c7f 2c3e 3158 263e 6a81 53be
000002f0: a090 5b3e 6476 4fbe ce9b 9f3d 82e7 643d
00000300: df2b d43d afd2 f2bb 0889 aebc 17ce efbd
00000310: 3d2d 453e 4da1 07be 0779 5ebe bd19 773e
00000320: 6ef6 e1bd 1676 3cbe 24aa 24be a8ae 05be
00000330: 63d5 1b3e 6f13 5bbe 04b6 64be 0bc4 373e
00000340: 7904 54be 6f74 27be 424c b5bc 7016 61be
00000350: 131e 493e 6eb4 0a3e 7098 713e f7c7 28be
00000360: 3b94 32be 1ba0 e5bd 89ef fe3d 5611 473e
00000370: 8e84 31be a815 c63d c6c3 113e 57c6 5c3e
00000380: 46a6 c93d 4ecf 693e 5038 13be 44a8 013e
00000390: d816 74be d8cb 073e 41c2 593c 3ba5 6fbe
000003a0: c158 163b f798 433e b0e3 8bbb a2b2 083e
000003b0: 77c3 ca3d 9539 3bbe 9ced b9bd 42a0 503e
000003c0: a7b0 0f3e cb2a 1f3e 0d0b d23c e713 a6bc
000003d0: 2f45 a03d fca1 92bb c500 19bd 0d29 63be
000003e0: f089 8fbd 27c6 a53c 89b0 813d fa10 023e
000003f0: df22 673d 8eb0 b0bc e2bf 1d3e af09 be3d

lstm_p.weight_hh_l1 f4 [64, 16]
0.18855643 -0.14981253 0.22834456 -0.116032474 -0.043896805 -0.19227877 0.05938297 0.19836539
-0.08339751 0.15714754 -0.012590342 0.24014553 -0.14249893 0.0066525135 0.19989336 -0.19829133
0.11817147 -0.24317499 0.1945741 0.09233154 0.053737223 -0.2343337 0.25031298 0.18408361
0.22994222 -0.21366923 0.2267055 0.036927857 0.15710269 -0.24659623 -0.12383002 0.019216636
0.15384421 -0.22675805 0.14448933 0.13314894 -0.1892974 0.21963501 -0.10716901 0.07450364
-0.16083908 -0.13859816 -0.06271671 -0.08348722 0.033565424 -0.06546126 -0.14711471 0.22211708
-0.0036324454 -0.2041967 0.21377659 0.2150102 -0.13730085 0.17792484 -0.10105227 -0.19915907
-0.24953039 -0.12604411 0.11553419 0.24663164 0.2234471 -0.033319302 -0.056839664 -0.0017315431
0.22323751 -0.17622414 -0.12982668 0.0049523176 -0.23486057 0.13788219 -0.1555531 -0.07972347
-0.12693124 -0.005475201 0.21074283 -0.09446455 -0.10706119 0.119661085 -0.03412043 -0.023034303
0.19994155 0.07509524 -0.044614322 0.21849991 -0.24633038 0.20833462 -0.087955825 0.17331855
-0.076372504 -0.20736128 -0.005627012 0.22348194 0.03258715 -0.20033096 0.17666894 0.24432671
0.22294728 -0.13070486 -0.17200562 -0.24940135 -0.049784433 0.065055795 -0.2504751 0.00325403
0.034186292 0.17936115 0.16749704 0.09889361 -0.020426014 0.23062456 -0.02037968 -0.0550903
-0.12384885 0.06889183 -0.15220936 0.10837055 -0.2255785 0.029692411 -0.006324363 -0.17730363
0.2062894 0.2005866 0.15187131 0.18343431 -0.017811144 -0.15409893 -0.06363759 -0.15619348
-0.1303082 0.031876724 -0.09690619 0.24970527 0.16479556 0.24923252 0.11212767 0.14486302
-0.12976061 0.19348142 0.19271356 0.081312165 0.08443639 -0.21590512 0.0010573806 0.21312943
-0.10394918 0.18857324 -0.124529324 -0.16718523 0.1456815 0.12803587 0.08242319 -0.10281652
0.1616867 -0.10692588 0.1394287 0.22355698 -0.115352124 0.194392 0.17623477 0.074505195
-0.09645732 -0.056519147 0.15239587 0.10385418 -0.0005629291 -0.09156896 0.02623148 0.24429667
0.19799332 -0.1595717 0.24735811 0.15104319 0.25137532 -0.06778753 0.0680605 -0.050149847
-0.1378987 -0.07246879 -0.1504366 0.07013548 -0.04109473 -0.19981223 -0.08304524 -0.0062819533
-0.12376768 -0.1557509 -0.23941219 0.13508773 0.1372232 -0.24678017 0.13164581 -0.19280575
-0.10126095 -0.15260229 -0.05922319 -0.12970355 -0.010573398 0.048917636 -0.10224148 0.15117386
-0.08982767 -0.06195325 0.05968082 0.12602925 0.17291324 0.102649316 0.019428393 -0.034620456
-0.15633418 0.20519182 -0.008659897 0.18714209 0.115971215 0.15595888 -0.17171814 0.12461026
0.24264732 -0.22130154 0.17281972 -0.14745438 -0.14246948 -0.22359464 -0.24649402 -0.17383593
-0.17850384 0.0011173377 -0.115944415 0.0011554047 0.16154021 0.2146121 -0.19357137 0.18683068
-0.016837293 -0.08943931 0.25289887 -0.21105112 -0.1416962 0.104266204 0.107187465 0.112906024
-0.21782497 -0.16405515 -0.16239469 0.17172052 0.10672572 -0.027787263 0.16887856 0.013778212
-0.23321462 -0.07314529 0.12882908 -0.05298922 0.10335169 0.055179518 -0.056664634 -0.19341147
00000000: f014 413e 7568 19be 28d3 693e 6fa2 edbd
00000010: 23cd 33bd bae4 44be 8f3b 733d 4c20 4b3e
00000020: 50cc aabd 49eb 203e b947 4ebc b6e8 753e
00000030: 3deb 11be 54fd d93b d8b0 4c3e e20c 4bbe
00000040: e203 f23d dd02 79be 6f3e 473e 5218 bd3d
00000050: 901b 5c3d 2cf5 6fbe 0629 803e 6a80 3c3e
00000060: f975 6b3e 1bcc 5abe 7d25 683e aa41 173d
00000070: 87df 203e b983 7cbe 989a fdbd 356c 9d3c
00000080: 5689 1d3e 4333 68be 03f5 133e 3258 083e
00000090: 2dd7 41be 00e8 603e 6d7b dbbd 5d95 983d
000000a0: 00b3 24be adec 0dbe 9e71 80bd 59fb aabd
000000b0: e67b 093d 8e10 86bd 3da5 16be a972 633e
000000c0: 520e 6ebb f118 51be 40e8 5a3e a22b 5c3e
000000d0: 9898 0cbe ee31 363e 7ef4 cebd 5bf0 4bbe
000000e0: e584 7fbe b511 01be 309d ec3d 018d 7c3e
000000f0: 51cf 643e d279 08bd b5d0 68bd f2f4 e2ba
00000100: 6098 643e 1a74 34be 49f1 04be 0d47 a23b
00000110: 4a7f 70be fd30 0d3e 5049 1fbe 0f46 a3bd
00000120: 43fa 01be 5169 b3bb f8cc 573e a176 c1bd
00000130: e642 dbbd df10 f53d ddc1 0bbd 6fb2 bcbc
00000140: 7abd 4c3e 88cb 993d 82bd 36bd 71be 5f3e
00000150: 083e 7cbe ac55 553e 2f22 b4bd 6b7a 313e
00000160: 3069 9cbd 8456 54be cc62 b8bb 73d8 643e
00000170: 1a7a 053d 8f23 4dbe b4e8 343e c830 7a3e
00000180: 4b4c 643e 7fd7 05be 3e22 30be 1163 7fbe
00000190: c3ea 4bbd f93b 853d 463e 80be 9041 553b
000001a0: ed06 0c3d 73aa 373e 5884 2b3e bc88 ca3d
000001b0: 7554 a7bc d828 6c3e 49f3 a6bc 5ea6 61bd
000001c0: 77a4 fdbd 2917 8d3d c5dc 1bbe 61f1 dd3d
000001d0: 0dfe 66be 803d f33c 9a3c cfbb 158f 35be
000001e0: 873d 533e 9366 4d3e 2784 1b3e 34d6 3b3e
000001f0: ade8 91bc 1ccc 1dbe 6d54 82bd 2ff1 1fbe
00000200: 836f 05be 2b91 023d c176 c6bd bdb2 7f3e
00000210: 2bc0 283e cf36 7f3e 31a3 e53d f956 143e
00000220: f7df 04be fe1f 463e b456 453e fe86 a63d
00000230: fcec ac3d 3b16 5dbe ce97 8a3a 9a3e 5a3e
00000240: 4fe3 d4bd 5819 413e 3b09 ffbd 9b32 2bbe
00000250: 882d 153e d61b 033e 7dcd a83d 7891 d2bd
00000260: 3391 253e f5fb dabd 66c6 0e3e 1fec 643e
00000270: bc3d ecbd b20e 473e e376 343e 2e96 983d
00000280: 6a8b c5bd 9f80 67bd aa0d 1c3e 80b1 d43d
00000290: 8891 13ba 8288 bbbd 67e3 d63c e828 7a3e
000002a0: c3be 4a3e c466 23be 724b 7d3e 11ab 1a3e
000002b0: 44b4 803e 30d4 8abd 4e63 8b3d ed69 4dbd
000002c0: 5135 0dbe 846a 94bd 0d0c 1abe 31a3 8f3d
000002d0: f352 28bd 949b 4cbe 9f13 aabd d8d8 cdbb
000002e0: e979 fdbd 2a7d 1fbe 7828 75be 7054 0a3e
000002f0: 3d84 0c3e f1b3 7cbe 29ce 063e df6e 45be
00000300: e761 cfbd c643 1cbe 0494 72bd 02d1 04be
00000310: 0c3c 2dbc dc5d 483d fb63 d1bd 52cd 1a3e
00000320: 92f7 b7bd b1c2 7dbd e073 743d d00d 013e
00000330: 2b10 313e ce39 d23d 4b28 9f3c 2ece 0dbd
00000340: 1116 20be ce1d 523e 3ee2 0dbc 2da2 3f3e
00000350: 5182 ed3d afb3 1f3e e1d6 2fbe aa33 ff3d
00000360: 8a78 783e df9c 62be a7f7 303e 48fe 16be
00000370: 85e3 11be fef5 64be ee68 7cbe 0c02 32be
00000380: b6c9 36be a273 923a 4474 edbd f370 973a
00000390: cc6a 253e 46c3 5b3e 9337 46be 8b50 3f3e
000003a0: 5dee 89bc f52b b7bd f67b 813e c91d 58be
000003b0: cf18 11be 8589 d53d 1a85 db3d 463b e73d
000003c0: 820d 5fbe 13fe 27be cb4a 26be 81d7 2f3e
000003d0: 0493 da3d 1da2 e3bc 80ee 2c3e 02be 613c
000003e0: d0cf 6ebe 33cd 95bd c5eb 033e 390b 59bd
000003f0: 0daa d33d eb03 623d 2d19 68bd a80d 46be

lstm_p.bias_ih_l1 f4 [64]
-0.0742686 0.00624853 0.04011537 -0.2324636 -0.24321142 0.06403676 -0.1342353 0.19085096
0.059166845 0.0543583 -0.23975465 0.08431153 -0.031559497 -0.036362488 -0.19299024 -0.2507542
0.16962582 -0.16122104 0.050230328 -0.17325628 -0.18800676 0.1160221 0.067645736 -0.11610099
0.10663174 -0.15332268 -0.16964635 0.02397584 0.026057731 -0.19663723 -0.14255388 -0.13908073
-0.07099361 0.12894277 -0.22051361 0.17790364 0.012421259 -0.023579685 -0.13055371 -0.21053782
-0.08647718 0.12212123 -0.20011464 0.2227284 -0.16729353 0.14116259 -0.22770247 -0.23531492
-0.09855506 0.1834198 0.11958098 -0.14421605 0.07192781 -0.12446877 0.22085088 0.2385264
0.0018751388 0.16421893 -0.0883199 0.08536403 0.13634078 0.11876452 0.079619706 0.23066232
00000000: 231a 98bd 78c0 cc3b 0450 243d f00a 6ebe
00000010: 6a0c 79be b425 833d fa74 09be 6f6e 433e
00000020: ef58 723d cfa6 5e3d 3e82 75be 86ab ac3d
00000030: 8844 01bd d5f0 14bd 3c9f 45be db62 80be
00000040: 64b2 2d3e 2117 25be 51be 4d3d 186a 31be
00000050: d884 40be ff9c ed3d d989 8a3d 5bc6 edbd
00000060: be61 da3d 9f00 1dbe c6b7 2dbe fb68 c43c
00000070: 0677 d53c 455b 49be a5f9 11be 2e6b 0ebe
00000080: 1965 91bd 9309 043e 52ce 61be 5f2c 363e
00000090: 8982 4b3c 2f2a c1bc dfaf 05be 3a97 57be
000000a0: f31a b1bd b21a fa3d daea 4cbe ea12 643e
000000b0: ff4e 2bbe ed8c 103e d62a 69be 65f6 70be
000000c0: 3cd7 c9bd 66d2 3b3e dfe6 f43d 5fad 13be
000000d0: e34e 933d 7ce9 febd bc26 623e 4440 743e
000000e0: 38c7 f53a 0229 283e 10e1 b4bd 56d3 ae3d
000000f0: eb9c 0b3e d03a f33d a80f a33d be32 6c3e

lstm_p.bias_hh_l1 f4 [64]
0.070043005 0.1629734 0.1240452 0.018390136 -0.048945732 0.19014943 0.2179476 0.21597175
0.06169433 0.1366942 -0.1428375 -0.15877445 0.042560223 -0.20085314 -0.1215526 0.14135426
-0.1255545 -0.16771196 -0.2204362 0.16210407 0.16902754 0.18305217 -0.042325776 -0.122522436
0.22302416 -0.163051 0.20631477 0.0469385 -0.101784 0.104769796 -0.1360295 0.02064472
0.19819172 -0.056729354 0.06751552 0.1713609 -0.07914254 0.15372933 0.1877975 0.02636986
0.18624964 0.20707928 -0.18153736 0.11813504 -0.0055428836 -0.09759139 0.19258958 0.024343163
-0.014678438 0.09860153 0.070482366 0.022706809 0.11117383 -0.020055275 -0.20140779 0.10332734
-0.048368182 -0.12312592 -0.14877976 0.11918785 0.09669849 -0.19847146 -0.16812094 -0.041290887
00000000: b572 8f3d 80e2 263e 690b fe3d e9a6 963c
00000010: 527b 48bd 88b6 423e a82d 5f3e b327 5d3e
00000020: 32b3 7c3d 90f9 0b3e fe43 12be c595 22be
00000030: a153 2e3d 72ac 4dbe 92f0 f8bd 2cbf 103e
00000040: 5c91 00be afbc 2bbe 07ba 61be 9cfe 253e
00000050: 8e15 2d3e 0772 3b3e cb5d 2dbd 0bed fabd
00000060: 7260 643e d7f6 26be 2e44 533e 9642 403d
00000070: 2174 d0bd 8c91 d63d 514b 0bbe 1e1f a93c
00000080: c5f2 4a3e 0a5d 68bd 9445 8a3d 3b79 2f3e
00000090: 7c15 a2bd 396b 1d3e fd4d 403e 9b05 d83c
000000a0: 3ab8 3e3e 970c 543e eee4 39be c9f0 f13d
000000b0: 14a1 b5bb ffdd c7bd 3436 453e 506b c73c
000000c0: d57d 70bc 99ef c93d 0f59 903d a103 ba3c
000000d0: 1baf e33d f64a a4bc d83d 4ebe 499d d33d
000000e0: b71d 46bd 7129 fcbd b959 18be c218 f43d
000000f0: dc09 c63d 1a3c 4bbe e527 2cbe a220 29bd

attention_p.attn_1.weight f4 [16, 16]
-0.2557471 0.16776183 0.24282843 -0.39490965 0.036353447 -0.10782274 -0.027229339 -0.39347616
-0.30048865 -0.11586741 0.08991778 0.31936172 0.37629923 0.064717576 -0.11373003 -0.39671105
-0.30668494 0.3136541 0.17581479 -0.3956439 -0.2233961 -0.27433622 -0.2014249 0.24548087
-0.16378516 0.3225171 0.34567708 -0.19651052 -0.0844279 0.35271 0.21288201 0.06502563
-0.049126677 -0.13104697 -0.038152695 -0.20981419 0.11083382 0.38382977 -0.069990136 0.20384285
0.4180543 0.29342842 -0.134864 -0.39557448 -0.23571113 0.08621591 -0.2517311 -0.2916831
0.39882383 -0.13694446 -0.27417722 0.34859362 -0.27765578 0.39187056 0.22761512 -0.31413147
0.2872133 0.26154962 -0.04786772 -0.4295246 -0.075915806 0.41782406 -0.09715749 -0.030276394
0.312041 -0.3519312 -0.18552053 0.10882813 -0.34961694 0.2508933 0.23206346 0.17247564
-0.162556 -0.35853764 0.1312255 0.3531033 0.16793883 -0.32568467 0.36598048 -0.2029298
-0.42489564 0.054002896 0.3001667 0.38295233 -0.11711359 -0.30348727 0.01314492 -0.15923044
-0.023932042 0.10999667 0.11159322 -0.21367796 0.072479166 0.13020927 -0.30931258 0.078328624
0.36253121 -0.1655595 0.1854214 0.1454867 0.330218 0.26963088 -0.30165857 -0.14640582
-0.064080365 -0.20410286 0.33212447 -0.031675626 -0.11255929 0.3438926 -0.16354315 -0.29307285
0.20322065 0.33959192 0.015887141 -0.32472306 -0.012990417 0.40980384 -0.04256558 0.2724293
0.20751403 -0.061396867 0.033901885 -0.059902117 -0.30766445 -0.22852129 0.25814497 -0.26372954
-0.21578048 -0.25267795 0.42254505 -0.12229465 -0.22264262 0.36463904 0.16057499 -0.39221948
0.42512468 0.22615612 0.117931075 -0.042739045 0.12375603 -0.15537877 0.2856579 0.10788786
0.3745706 0.11568747 -0.04634237 0.19786596 -0.061247207 0.124525286 0.0844446 0.34913388
-0.30890512 -0.013827412 -0.21296029 0.30910656 -0.159688 0.23136653 0.21104123 -0.11120702
-0.014169202 0.27759114 -0.30846536 0.41102397 -0.09920588 -0.11833899 0.011383919 0.004355307
-0.32078415 -0.01703226 0.29286292 -0.19266488 0.28232312 -0.41304842 0.36159638 -0.3284635
-0.27897334 -0.1772084 -0.18238083 -0.0966172 -0.2752065 0.23079139 -0.06214943 0.3976508
0.39922246 -0.36407557 0.21070312 0.33170614 0.15763572 0.00854107 -0.28627482 0.42782402
0.12964985 0.33933243 -0.101143174 0.1667002 -0.21697418 -0.39807495 -0.0011061616 0.409556
0.05438595 -0.43500113 -0.013577057 0.23911138 -0.32234892 0.41978112 0.24652061 -0.17728908
0.15996003 0.27782384 0.30499893 -0.0054203803 -0.0616807 0.21770194 0.12049922 -0.13363317
0.040135164 -0.32125083 -0.37178266 0.3507102 -0.41388616 -0.26779488 -0.3713016 0.12646039
0.29880053 -0.056776635 0.35674295 0.41711524 -0.026722195 -0.3779082 -0.24015892 -0.0062466925
-0.13333578 -0.2950868 -0.11815986 -0.08200401 -0.28278244 -0.35969234 0.323933 -0.08808152
0.07985345 -0.1947876 -0.3332157 -0.07024784 0.27689955 0.39926744 0.054726638 -0.27418372
-0.13115484 -0.19921054 -0.074390925 -0.00020140783 -0.11104652 -0.17437378 -0.276872 -0.08929931
00000000: 49f1 82be c2c9 2b3e 04a8 783e 9931 cabe
00000010: 5ae7 143d 2bd2 dcbd 1010 dfbc b575 c9be
00000020: a6d9 99be e54b edbd d026 b83d 6183 a33e
00000030: 4baa c03e a68a 843d 4aeb e8bd b61d cbbe
00000040: cf05 9dbe 4597 a03e cb08 343e d691 cabe
00000050: f2c1 64be cc75 8cbe 5442 4ebe 565f 7b3e
00000060: 4cb7 27be f620 a53e 96fc b03e 0e3a 49be
00000070: 89e8 acbd 6896 b43e befd 593e 282c 853d
00000080: 0e39 49bd 2d31 06be 0046 1cbd 88d9 56be
00000090: d8fc e23d 5685 c43e fd56 8fbd 2ebc 503e
000000a0: 370b d63e 403c 963e ca19 0abe bd88 cabe
000000b0: 425e 71be f891 b03d e6e2 80be 7d57 95be
000000c0: a332 cc3e 2b3b 0cbe f560 8cbe dd7a b23e
000000d0: e628 8ebe 42a3 c83e f013 693e d7d5 a0be
000000e0: 9f0d 933e d5e9 853e f110 44bd a6ea dbbe
000000f0: bf79 9bbd 09ed d53e 82fa c6bd 3306 f8bc
00000100: d7c3 9f3e 5430 b4be 18f9 3dbe 48e1 de3d
00000110: fe00 b3be 1675 803e 0ba2 6d3e 749d 303e
00000120: 1475 26be 3f92 b7be fa5f 063e f5c9 b43e
00000130: 28f8 2b3e 24c0 a6be cb61 bb3e d4cc 4fbe
00000140: ec8b d9be 2432 5d3d 73af 993e 5412 c43e
00000150: 40d9 efbd af62 9bbe ca5d 573c 4e0d 23be
00000160: 210d c4bc ef45 e13d fc8a e43d 65ce 5abe
00000170: f56f 943d 9455 053e 385e 9ebe c26a a03d
00000180: b19d b93e 6e88 29be 1cdf 3d3e 77fa 143e
00000190: 5512 a93e 0f0d 8a3e fe72 9abe 68eb 15be
000001a0: 913c 83bd 5700 51be 380c aa3e 4dbe 01bd
000001b0: 7c85 e6bd b112 b03e db77 27be a50d 96be
000001c0: 1319 503e fede ad3e c025 823c 1a42 a6be
000001d0: c2d5 54bc cfd1 d13e 3f59 2ebd da7b 8b3e
000001e0: 8f7e 543e 487b 7bbd b4dc 0a3d ec5b 75bd
000001f0: 3286 9dbe 7c01 6abe 942b 843e 8f07 87be
00000200: 8ff5 5cbe 015f 81be d357 d83e 9e75 fabd
00000210: 6dfc 63be f8b1 ba3e c56d 243e fed0 c8be
00000220: f1a9 d93e 7895 673e d985 f13d 230f 2fbd
00000230: cd73 fd3d 9d1b 1fbe c141 923e 4ff4 dc3d
00000240: b8c7 bf3e 8ded ec3d 7fd1 3dbd 609d 4a3e
00000250: 5ade 7abd 1d07 ff3d 4af1 ac3d adc1 b23e
00000260: d028 9ebe 5f8c 62bc 4312 5abe 3743 9e3e
00000270: 4085 23be 59eb 6c3e 311b 583e 82c0 e3bd
00000280: f125 68bc 6d20 8e3e 2cef 9dbe bc71 d23e
00000290: 742c cbbd b65b f2bd 9e83 3a3c f7b6 8e3b
000002a0: d23d a4be 3d87 8bbc 21f2 953e f149 45be
000002b0: a88c 903e 157b d3be 2923 b93e 5e2c a8be
000002c0: 98d5 8ebe 1e76 35be 0ac2 3abe 3ddf c5bd
000002d0: dee7 8cbe 9454 6c3e 6790 7ebd e398 cb3e
000002e0: e366 cc3e 1d68 babe 8fc2 573e 63d5 a93e
000002f0: 426b 213e d8ef 0b3c 9d92 92be c00b db3e
00000300: eec2 043e fbbc ad3e 2724 cfbd 75b3 2a3e
00000310: 7b2e 5ebe 7bd0 cbbe a0fc 90ba 53b1 d13e
00000320: cdc3 5e3d 78b8 debe 4e72 5ebc 9dd9 743e
00000330: eb0a a5be 8ded d63e e66f 7c3e 458b 35be
00000340: 90cc 233e ed3e 8e3e d228 9c3e 729d b1bb
00000350: e7a4 7cbd 42ed 5e3e 4cc8 f63d 22d7 08be
00000360: c564 243d fd7a a4be 4c5a bebe 4a90 b33e
00000370: e3e8 d3be 691c 89be 3e1b bebe d57e 013e
00000380: 62fc 983e 9e8e 68bd 03a7 b63e 2190 d53e
00000390: 81e8 dabc 2f7d c1be 38ec 75be 0eb1 ccbb
000003a0: 2d89 08be 9e15 97be ccfd f1bd b8f1 a7bd
000003b0: dcc8 90be 9829 b8be 8cda a53e 1564 b4bd
000003c0: 358a a33d 6776 47be 409b aabe 19de 8fbd
000003d0: c7c5 8d3e c86c cc3e 0a29 603d cf61 8cbe
000003e0: 744d 06be d9fd 4bbe 455a 98bd 0131 53b9
000003f0: 5c6c e3bd 0a8f 32be 2bc2 8dbe 8fe2 b6bd

attention_p.attn_1.bias f4 [16]
-0.002550818 -0.0024601368 0.0021068195 -0.0017499235 -0.0025927287 -0.0036562427 0.00010550323 3.1721243e-05
0.0023029821 -0.0020131008 0.0021864502 -0.0026179831 0.002430187 0.0022376217 -0.004394369 -0.002644313
00000000: a02b 27bb 3f3a 21bb 9112 0a3b b05d e5ba
00000010: c5ea 29bb 939d 6fbb 9e41 dd38 6d0c 0538
00000020: a1ed 163b 3aee 03bb 8c4a 0f3b 7892 2bbb
00000030: c643 1f3b 10a5 123b a4fe 8fbb 364c 2dbb

attention_p.attn_2.weight f4 [1, 16]
-0.44006535 -0.36501926 0.12199848 -0.16032243 -0.24026722 0.013510841 0.35460484 -0.25458327
0.26278728 -0.37943605 0.30036777 -0.1876309 0.2536349 0.42528304 -0.13054669 -0.29186445
00000000: 3f50 e1be cee3 babe 57da f93d 902b 24be
00000010: 9c08 76be 935c 5d3c c48e b53e bd58 82be
00000020: 0e8c 863e 7145 c2be cec9 993e 5122 40be
00000030: 6fdc 813e b3be d93e 08ae 05be 426f 95be

lstm_t.weight_ih_l0 f4 [64, 7]
-0.16932335 -0.065343454 -0.0021655178 -0.063927606 0.20526743 -0.19410302 0.20385188 0.000114776056
0.22452785 0.062592775 -0.20877619 0.22644766 0.061177343 0.111485586 0.16895735 -0.059907902
0.031542663 -0.09380131 0.116800494 -0.006185914 0.07235533 -0.13854477 -0.11810943 -0.114094935
-0.15007311 0.19578396 -0.17641385 0.15981267 -0.20576301 0.20812379 -0.24523981 0.17693539
0.009994821 -0.061079305 -0.12662761 0.1530384 0.062750824 0.109498516 0.063501246 0.032896604
0.19943634 0.10309314 0.202235 -0.18402275 -0.0445948 -0.056428023 0.089329466 0.055149708
-0.1487614 0.11257486 -0.02678038 -0.16911957 0.23409323 -0.18028753 -0.111604445 0.21847458
-0.07962428 0.14222112 -0.076131076 -0.09879022 0.23148416 -0.23555668 0.032630526 0.014138453
-0.16974373 0.03473194 -0.08208977 0.07810523 -0.12165491 -0.16327904 -0.21566242 0.065916836
0.009822531 -0.06540561 -0.19057378 -0.0015672629 -0.20542914 0.054118294 -0.0440236 -0.14000691
0.08784631 -0.18587969 -0.010648388 0.12655418 0.2012514 -0.09208152 -0.21062599 0.16799323
0.030743374 -0.23530214 -0.007181694 0.018990625 -0.060677428 0.16786584 0.05277019 -0.13360187
-0.023685511 0.009546179 -0.12656417 -0.12290939 -0.029001111 -0.028172724 -0.1658051 0.20452844
0.24866338 -0.17872874 0.13682117 -0.1865227 0.06756307 0.24931306 0.04093298 -0.18637025
-0.009777535 -0.18923762 -0.19853684 -0.06061005 -0.15967688 0.087208554 0.06000168 -0.22846903
-0.043399468 0.23065694 0.18123907 0.14543697 0.09131898 -0.19051008 0.21316649 0.23913126
-0.05871923 -0.20835082 -0.048688725 -0.016829029 0.16631153 0.1389009 -0.21166216 -0.14262816
0.044219505 0.19119948 -0.009922913 -0.24125575 0.115494356 -0.056068152 0.06770615 0.10596857
0.120459385 0.020281943 0.07975542 0.092009954 -0.09723443 0.059543632 0.16969988 -0.17791948
0.05775387 0.20204042 0.102987975 -0.11736157 0.06390707 -0.0014585548 0.20496058 -0.14513327
0.122390375 0.013124298 0.02224155 -0.00242294 -0.2151688 0.09272883 -0.16132765 0.2336459
0.09038697 -0.124682255 0.1909216 0.17323479 0.23234119 0.12897086 0.048684373 -0.12523052
0.22756733 0.1270371 0.12877752 0.23519307 0.17888418 -0.12253418 0.18312195 0.099593244
-0.091842726 0.19833043 -0.10016929 -0.07855331 0.014296459 0.012214959 0.18307224 -0.12374282
-0.24108951 0.08315428 -0.17001933 -0.21807133 -0.1945247 -0.18499695 -0.07549163 -0.16508254
0.16527884 -0.10604651 0.1652347 -0.13413087 0.15335399 0.02585939 -0.23648486 -0.09839604
0.23956715 0.22898932 0.1805218 0.19613923 0.05275337 -0.19963375 -0.08136078 -0.19771932
0.12653682 0.14463851 0.09023202 0.2158067 -0.031726725 0.136156 -0.01541576 -0.03809603
-0.15938744 -0.15897863 0.031192182 -0.1319157 0.033491615 -0.116119765 -0.03097022 -0.18902834
-0.18788084 0.112197496 0.18974368 -0.026666334 0.050428685 0.067763254 0.2012358 -0.019655226
0.24560286 0.023337336 0.16454592 -0.008385363 -0.10258518 0.0029657837 -0.20830244 0.049629
-0.047971413 0.08496707 -0.22312912 0.19715904 -0.043737497 -0.024483608 0.040369943 0.21633983
00000000: 1a63 2dbe cad2 85bd 5ceb 0dbb 7aec 82bd
00000010: a031 523e f1c2 46be 8cbe 503e edb3 f038
00000020: a1ea 653e a430 803d 6dc9 55be e5e1 673e
00000030: 1895 7a3d 8e52 e43d 2803 2d3e fd61 75bd
00000040: e132 013d e71a c0bd 1935 ef3d 35b3 cabb
00000050: 082f 943d aede 0dbe 5be3 f1bd 9baa e9bd
00000060: c4ac 19be 977b 483e d5a5 34be efa5 233e
00000070: 8ab3 52be 671e 553e 2520 7bbe 8d2e 353e
00000080: 51c1 233c 4b2e 7abd abaa 01be 19b6 1c3e
00000090: 8183 803d c240 e03d f10c 823d 97be 063d
000000a0: 0a39 4c3e 7f22 d33d b116 4f3e 7670 3cbe
000000b0: 09a9 36bd 1221 67bd 5ef2 b63d a9e4 613d
000000c0: e954 18be a68d e63d 8762 dbbc ae2d 2dbe
000000d0: 23b6 6f3e 4b9d 38be df90 e4bd cdb7 5f3e
000000e0: 0e12 a3bd 6aa2 113e 9cea 9bbd 8752 cabd
000000f0: 2f0a 6d3e c535 71be 96a7 053d f8a4 673c
00000100: 4dd1 2dbe 1443 0e3d ae1e a8bd a3f5 9f3d
00000110: 3626 f9bd 9f32 27be 9cd6 5cbe 68ff 863d
00000120: aeee 203c 60f3 85bd c625 43be 9e6c cdba
00000130: 045c 52be 25ab 5d3d 1752 34bd f95d 0fbe
00000140: c4e8 b33d 3f57 3ebe 9476 2ebc 6b97 013e
00000150: d914 4e3e 3c95 bcbd 57ae 57be 6b06 2c3e
00000160: 87d9 fb3c 0bf3 70be 6a54 ebbb 3a92 9b3c
00000170: e588 78bd 06e5 2b3e 8e25 583d eece 08be
00000180: 1e08 c2bc 9467 1c3c 0a9a 01be ebb7 fbbd
00000190: bd93 edbc 7cca e6bc d0c8 29be e76f 513e
000001a0: 9da1 7e3e ab04 37be d91a 0c3e cfff 3ebe
000001b0: 825e 8a3d ec4b 7f3e 57a9 273d d8d7 3ebe
000001c0: f431 20bc 82c7 41be 3e4d 4bbe 3e42 78bd
000001d0: 5682 23be 669a b23d 52c4 753d c9f3 69be
000001e0: a4c3 31bd 5531 6c3e bc96 393e 6eed 143e
000001f0: 7205 bb3d 1315 43be 5148 5a3e d3de 743e
00000200: 9383 70bd eb59 55be d46d 47bd 08dd 89bc
00000210: 924d 2a3e 0a3c 0e3e f7bd 58be 1e0d 12be
00000220: 831f 353d ccc9 433e b793 22bc bf0b 77be
00000230: 4e88 ec3d b8a7 65bd 86a9 8a3d 0d06 d93d
00000240: 69b3 f63d 5126 a63c cf56 a33d b76f bc3d
00000250: d822 c7bd 06e4 733d cec5 2d3e 8630 36be
00000260: 528f 6c3d afe3 4e3e 5ceb d23d 435b f0bd
00000270: b6e1 823d fa2c bfba 30e1 513e d19d 14be
00000280: cea7 fa3d 4c07 573c e933 b63c 30ca 1ebb
00000290: 3655 5cbe 9de8 bd3d 1333 25be df40 6f3e
000002a0: ce1c b93d 6959 ffbd f480 433e 7664 313e
000002b0: d9ea 6d3e f010 043e 4469 473d 6e3c 00be
000002c0: 6907 693e 0316 023e 41de 033e 74d6 703e
000002d0: 6a2d 373e 33f3 fabd 5284 3b3e 8bf7 cb3d
000002e0: 0a18 bcbd 2217 4b3e 8f25 cdbd 8fe0 a0bd
000002f0: b23b 6a3c 4021 483c 4a77 3b3e e06c fdbd
00000300: 2be0 76be cb4c aa3d 8c19 2ebe 174e 5fbe
00000310: 7c31 47be d76f 3dbe 5b9b 9abd 660b 29be
00000320: db3e 293e ea2e d9bd 4933 293e 9a59 09be
00000330: d408 1d3e 12d7 d33c 1629 72be dd83 c9bd
00000340: 1751 753e 2d7c 6a3e b5da 383e b9d8 483e
00000350: eb13 583d ca6c 4cbe 7ba0 a6bd ef76 4abe
00000360: de92 013e 1e1c 143e 91cb b83d 6efc 5c3e
00000370: e2f3 01bd 7a6c 0b3e 6292 7cbc 950a 1cbd
00000380: 7636 23be 4bcb 22be bf86 ff3c e914 07be
00000390: 812e 093d 33d0 edbd 42b5 fdbc a590 41be
000003a0: d663 40be cdc7 e53d 2b4c 423e 5b73 dabc
000003b0: 4f8e 4e3d 76c7 8a3d c210 4e3e ff03 a1bc
000003c0: 517f 7b3e f12d bf3c ba7e 283e c362 09bc
000003d0: 2e18 d2bd 985d 423b 3c4d 55be c747 4b3d
000003e0: ac7d 44bd 3703 ae3d f67b 64be 0fe4 493e
000003f0: 1726 33bd d991 c8bc f45a 253d 3088 5d3e
