Params/301_0.001_30_16_222_model.pt (torch, 45301 bytes, 31 tensors)

lstm_p.weight_ih_l0 f4 [64, 10]
0	0xbdd178d3	-0.102281235
1	0xbdd69e8b	-0.104794584
2	0xbd428067	-0.047485735
3	0xbc86ed10	-0.016470462
4	0x3e67b15d	0.22626252
5	0xbdf85132	-0.12124862
6	0x3da8b3fb	0.082374536
7	0x3e389bd5	0.18028195
8	0xbd961fea	-0.07330306
9	0xbda97a56	-0.08275287
10	0x3ddd5a61	0.10808254
11	0x3d0daa84	0.034586444
12	0xbc18a373	-0.009316313
13	0x3e70a0e9	0.23498882
14	0x397bd7a4	0.00024017558
15	0xbe02905b	-0.1275038
16	0xbbd24d42	-0.0064179013
17	0x3d5130b8	0.051071852
18	0x3d6c5a15	0.057703096
19	0x3dbcf655	0.092266716
20	0x3cd6c346	0.02621616
21	0x3d1cf5b5	0.038320262
22	0xbe4d2d20	-0.20036745
23	0x3e37c3d6	0.17945799
24	0xbe194fde	-0.14971873
25	0xbdbe7b9b	-0.093009196
26	0x3da58f8b	0.08084019
27	0xbd2b7ddf	-0.041868087
28	0x3e26fb79	0.16306867
29	0x3dbe730f	0.092992894
30	0x3e614796	0.21999964
31	0x3d9a2a8d	0.07527647
32	0x3d86d4f2	0.06583585
33	0x3d56e7c1	0.05246711
34	0xbe20fbae	-0.15721008
35	0x3d13216f	0.035920557
36	0x3db244cd	0.08704529
37	0xbd4e589a	-0.050377466
38	0xbe0524bc	-0.13002294
39	0xbe14dcdb	-0.14537375
40	0x3e12acd7	0.14323746
41	0xbe31aee1	-0.17351867
42	0x3e7c2ba2	0.2462602
43	0xbcbbf016	-0.02294163
44	0x3d8a0cd2	0.067407265
45	0x3e2cb3b2	0.16865423
46	0x3e3c8ffc	0.184143
47	0x3d94dc76	0.07268612
48	0xbe4f523d	-0.20246215
49	0x3b5c485a	0.003361246
50	0xbdccc96d	-0.099993564
51	0xbe5405a2	-0.20705274
52	0xbdaeb713	-0.085310124
53	0x3dfac386	0.122443244
54	0x3d120b55	0.03565534
55	0x3e683061	0.22674705
56	0xbe0a0031	-0.13476636
57	0x3dfd7c3f	0.12377214
58	0x3e507726	0.20357952
59	0xbe2156e9	-0.1575581
60	0x3e615a02	0.22006992
61	0x3de18ca9	0.11013157
62	0xbc94b4d3	-0.01815263
63	0xbd979394	-0.07401195
64	0xbe09cf7b	-0.13458054
65	0x3e50a27b	0.20374481
66	0x3da552ba	0.080724195
67	0xbcb6791f	-0.022274552
68	0x3e6d95b1	0.23201634
69	0xbe073715	-0.13204606
70	0xbe02efa7	-0.12786733
71	0xbdf7dc90	-0.12102616
72	0x3e62bccc	0.22142333
73	0xbe4ae9ff	-0.19815825
74	0x3bf0dafc	0.0073503237
75	0xbcbcba25	-0.02303798
76	0xbd2d918d	-0.042375136
77	0xbe5dd143	-0.21661858
78	0x3de629c9	0.11238439
79	0xbd29273d	-0.041297186
80	0xbe5d2821	-0.21597339
81	0xbc80b542	-0.01571143
82	0xbe3ceaff	-0.18449019
83	0x3d88696b	0.06660732
84	0x3debd0d1	0.11514438
85	0xbdef55e3	-0.116863035
86	0x3e5fffc5	0.21874912
87	0x3d25cb88	0.040477306
88	0xbe5fe65a	-0.21865216
89	0x3cbe0bde	0.023199018
90	0x3b973efd	0.004615663
91	0x3e004837	0.12527548
92	0xbe5f78ed	-0.21823473
93	0x3d1400bb	0.03613351
94	0xbe0fc152	-0.1403859
95	0x3d10453c	0.035222277
96	0xbe3cfb69	-0.1845528
97	0x3cbdfec9	0.02319278
98	0xbe5d992a	-0.21640459
99	0x3d907542	0.07053615
100	0x3d0b1faf	0.033965763
101	0x3e348275	0.1762789
102	0x3e68d9ae	0.22739288
103	0x3d8bd747	0.0682817
104	0xbdcd733e	-0.10031746
105	0xbda865ed	-0.08222566
106	0x3e0bc13b	0.1364793
107	0x3e063e9c	0.13109821
108	0x3afdf4ec	0.001937536
109	0xbe280704	-0.16408926
110	0xbe144360	-0.14478827
111	0x3cf741c4	0.030182727
112	0x3db0df31	0.086363204
113	0x3e0efc38	0.13963401
114	0x3e10b782	0.14132503
115	0x3e350b8c	0.17680186
116	0xbc09f230	-0.008419558
117	0x3e1a44e6	0.15065345
118	0x3d9deb71	0.077109225
119	0x3e71b6ea	0.23604932
120	0x3e1817df	0.14852856
121	0x3c9afcad	0.018919313
122	0x3db954a7	0.09049349
123	0xbda1b97a	-0.07896705
124	0xbe5d68a8	-0.21621954
125	0x3da5972f	0.080854766
126	0x3e667ef8	0.22509372
127	0x3ddcbdb4	0.107783705
128	0x39b00e16	0.0003357983
129	0xbe633f77	-0.22192179
130	0xbe57d5ae	-0.21077606
131	0x3db474ff	0.08811378
132	0x3d868452	0.06568207
133	0x3e11dca4	0.14244324
134	0x3e060fd9	0.13091983
135	0xbcb851fd	-0.022500033
136	0xbe648fb1	-0.22320439
137	0x3dc1f924	0.09471348
138	0xbe50c979	-0.20389356
139	0x3d4e17f4	0.050315812
140	0xbccc5941	-0.024944903
141	0x3df59667	0.119915776
142	0x3e67d4bf	0.2263975
143	0xbc4b2bf2	-0.012400614
144	0x3df038ca	0.11729582
145	0x3bf55362	0.0074867466
146	0x3df863af	0.12128388
147	0xbdff7bbb	-0.124747716
148	0xbe771bcf	-0.24131702
149	0xbdcbfd52	-0.099604264
150	0x3c8d0c4f	0.017217783
151	0x3dc61c4c	0.09673366
152	0x3e1f79d0	0.15573812
153	0xbc9dcc8d	-0.019262576
154	0x3da02b42	0.07820751
155	0xbc2e4116	-0.010635635
156	0x3e53b070	0.20672774
157	0x3d9a66d0	0.07539141
158	0x3bb0e69e	0.0053985855
159	0xbcafaea5	-0.021445582
160	0x3d878f9a	0.06619187
161	0xbd766f1f	-0.060164567
162	0x3e66a900	0.22525406
163	0x3e0a6784	0.1351605
164	0xbda4cf13	-0.08047309
165	0x3dc8be3f	0.098019116
166	0xbde4996e	-0.11162077
167	0xbe521861	-0.20517112
168	0xbe65830a	-0.22413269
169	0xbe69b7b4	-0.22823983
170	0xbde61b02	-0.1123562
171	0xbdd61db6	-0.10454886
172	0xbd852db6	-0.06502859
173	0x3e4bcecd	0.19903107
174	0x3d167167	0.036729243
175	0x3df0471f	0.11732315
176	0x3d3ff2f0	0.046862543
177	0x3d99057c	0.07471749
178	0xbcbb38ce	-0.022854235
179	0xb93a464d	-0.00017764531
180	0x3e78bad2	0.24290016
181	0x3e4ab703	0.19796376
182	0xbae0649e	-0.001711983
183	0x3d9f9fec	0.077941746
184	0x3e0f9802	0.1402283
185	0x3e0678c1	0.13132001
186	0x3e185425	0.14875849
187	0xbda393f5	-0.07987205
188	0x3dd0b585	0.10190872
189	0x3c74d49e	0.01494327
190	0x3dca19cf	0.09868204
191	0xbd363270	-0.044481695
192	0x3e2125a9	0.15737022
193	0xbe2429a9	-0.16031517
194	0x3e16d583	0.14729886
195	0x3d95dd1c	0.07317564
196	0x3e083a25	0.1330343
197	0x3b7ef07a	0.003890066
198	0xbde4cdee	-0.111720905
199	0x3a2897cc	0.0006431311
200	0x3e02cc57	0.12773262
201	0x3d73d0d7	0.059525337
202	0xbe67d86e	-0.22641155
203	0xbe4be623	-0.19912009
204	0x3e7a76d9	0.244594
205	0xbe15ec7f	-0.14640997
206	0xbd6bfed5	-0.057616074
207	0xbe2356ac	-0.15951031
208	0x3dc228c3	0.09480431
209	0xbe592995	-0.21207269
210	0x3e23f3c7	0.16010962
211	0xbe1f3541	-0.15547659
212	0xbe7d5728	-0.24740279
213	0xbd17d6de	-0.037070148
214	0x3d746a3f	0.059671637
215	0xbdd7bd63	-0.105341695
216	0x3dd4f565	0.10398368
217	0xbe5def23	-0.21673255
218	0x3e5ee073	0.21765308
219	0xbe519595	-0.20467217
220	0x3d6273bb	0.05528615
221	0xbd4c6b94	-0.049907282
222	0xbdba4aeb	-0.09096321
223	0x3e4d5dcc	0.20055312
224	0x3e4d8fe3	0.2007442
225	0x3e46cbdf	0.19413708
226	0xbe1e3e13	-0.15453367
227	0xbe3b05b2	-0.18263891
228	0xbe611a1a	-0.21982613
229	0x3e00ca1e	0.12577102
230	0xbcb34dc1	-0.021887662
231	0xbe016519	-0.12636222
232	0xbe0ded88	-0.13860142
233	0x3df226a4	0.11823776
234	0xbd4e42eb	-0.050356787
235	0x3d020814	0.031745985
236	0xbe54a9c7	-0.2076789
237	0x3e6446c3	0.22292618
238	0xbd8badef	-0.068202846
239	0x3dd1a6cf	0.10236894
240	0xbe48cc93	-0.19609289
241	0x3e463d2a	0.1935927
242	0x3e48fec0	0.1962843
243	0xbe0a3bee	-0.13499424
244	0xbdc813bd	-0.0976939
245	0xbe1d4418	-0.15358007
246	0x3e712846	0.2355052
247	0x3e138dad	0.14409514
248	0x3ddd0273	0.10791483
249	0x3de57e26	0.112057015
250	0xbe468280	-0.1938572
251	0xbdf13ddb	-0.11779376
252	0xbe33db5f	-0.17564152
253	0xbd9f572f	-0.07780301
254	0xbd94d07b	-0.07266327
255	0x3e1389b0	0.14407992

lstm_p.weight_hh_l0 f4 [64, 16]
0	0xbc7a6066	-0.015281772
1	0xbc074666	-0.00825653
2	0xbc04300b	-0.008068095
3	0x3e82daff	0.25557706
4	0x3e63b525	0.2223707
5	0xbe1e196c	-0.15439385
6	0x3d578bbb	0.05262349
7	0x3d299de7	0.041410353
8	0x3e1ccf0e	0.1531336
9	0xbd3354fc	-0.04378222
10	0x3de7912e	0.11306988
11	0x3dfd2eca	0.1236244
12	0x3c622a28	0.013803996
13	0x3e4fa690	0.20278382
14	0x3d99633a	0.07489629
15	0x3e4dc7fd	0.2009582
16	0x3e3eb7ce	0.18624803
17	0xbe71255c	-0.23549408
18	0xbe02811e	-0.12744567
19	0xbd1da601	-0.03848839
20	0x3e250d39	0.16118325
21	0xbe309738	-0.17245185
22	0x3e2a9db3	0.1666172
23	0x3ddd29d0	0.10798991
24	0x3d80fd8e	0.06298362
25	0x3e62725d	0.22113939
26	0x3cb53b62	0.022123042
27	0xbe33c9ac	-0.175574
28	0x3de00d91	0.109400876
29	0xbe6059b9	-0.21909226
30	0xbe503c2f	-0.20335458
31	0x3d9700eb	0.07373222
32	0x3e5212b3	0.20514946
33	0xbe71c212	-0.23609188
34	0x3e2d28ea	0.16910139
35	0x3e3a6f0d	0.18206425
36	0xbe2a81a2	-0.16651013
37	0xbe4fd2d6	-0.20295271
38	0x3bd793f7	0.006578918
39	0x3e2575d0	0.16158223
40	0x3d24432a	0.040103115
41	0xbe2dbc35	-0.16966327
42	0xbd8f32f4	-0.069921404
43	0xbcc0dffd	-0.023544306
44	0x3e7b5aec	0.24546403
45	0xbdee795d	-0.11644242
46	0xbe3b6beb	-0.18302886
47	0xbd496204	-0.04916574
48	0xbe07b366	-0.13252029
49	0xbcf54a07	-0.029942526
50	0x3cd4c36b	0.025972089
51	0xbdd4fbd2	-0.103995934
52	0x3dde1b5b	0.108450614
53	0xbe65f6ee	-0.22457477
54	0x3e257950	0.16159558
55	0x3da326f8	0.07966417
56	0x3df93977	0.12169164
57	0xbd8ca410	-0.0686723
58	0x3db08e13	0.086208485
59	0x3dc2ec2d	0.09517703
60	0x3ced3b33	0.028958892
61	0xbdb90f1a	-0.090360835
62	0xbd9f1932	-0.077684775
63	0x3e1c5743	0.15267663
64	0x3e593f19	0.21215476
65	0xbb272eac	-0.0025509996
66	0xbe4d4bd4	-0.20048457
67	0x3c1a2252	0.009407597
68	0xbe737728	-0.23775923
69	0x3dd28b85	0.102805175
70	0xbd9c0b76	-0.076193735
71	0x3d91f08b	0.07125958
72	0xbe0301ba	-0.12793627
73	0x3e022bd0	0.12712026
74	0xbe30f73c	-0.17281812
75	0x3e32ccf3	0.17460994
76	0x3e2f0e70	0.17095351
77	0x3e5b34ac	0.21406811
78	0x3dab90e7	0.08377247
79	0xbe11daab	-0.14243571
80	0x3c002b17	0.007822773
81	0x3e2b572b	0.1673247
82	0xbe214c68	-0.15751803
83	0xbe388a14	-0.18021423
84	0x3daa895a	0.08326979
85	0xbdf2a531	-0.11847914
86	0xbe60c114	-0.21948653
87	0x3e24a40a	0.16078201
88	0x3e27f45e	0.16401812
89	0xbe178aec	-0.14799088
90	0xbdc46c03	-0.09590914
91	0x3d00b5ff	0.031423565
92	0xbe047356	-0.12934622
93	0xbe65ebb9	-0.22453202
94	0x3de78030	0.11303747
95	0x3d970fc4	0.07376054
96	0xbe560087	-0.20898639
97	0x3c4986bd	0.0123001905
98	0x39f6ad48	0.0004704988
99	0xbe013b8c	-0.12620372
100	0x3e56b7a9	0.20968498
101	0x3d985e40	0.07439852
102	0x3e80b054	0.25134528
103	0x398b4cff	0.00026569513
104	0xbe0ccc79	-0.13749875
105	0xbc17e890	-0.009271756
106	0xbe4e5706	-0.20150384
107	0x3cd27835	0.025692085
108	0xbe5a942f	-0.2134559
109	0x3e4ba730	0.19887996
110	0xbd4a5342	-0.049395807
111	0x3e05d977	0.13071238
112	0x3e36fc5a	0.17869702
113	0xbe572cd0	-0.21013188
114	0x3e739bab	0.23789851
115	0xbe405ad3	-0.18784647
116	0x3e6e2089	0.23254599
117	0xbd7bb2fa	-0.061449982
118	0x3d8717d5	0.065963425
119	0x3da59695	0.08085362
120	0x3e823765	0.25432888
121	0x3e48c2a0	0.19605494
122	0x3e25fb6e	0.16209194
123	0x3d60b6b1	0.054861728
124	0xbdd0075a	-0.10157652
125	0x3c97d774	0.018535353
126	0x3a32b863	0.0006817637
127	0x3e2d3ae2	0.16916993
128	0xbe33784f	-0.17526363
129	0x3e3045db	0.17214148
130	0x3e0bc81d	0.13650556
131	0x3e805a94	0.25069106
132	0x3d5da63b	0.054113608
133	0x3e649102	0.22320941
134	0xbe32620a	-0.17420211
135	0xbe44a1ea	-0.1920239
136	0x3cffaaf3	0.031209445
137	0x3dda99f5	0.10673896
138	0x3e30e445	0.17274578
139	0xbe59e533	-0.21278839
140	0xbd3d915f	-0.046281215
141	0xbe255e4c	-0.16149253
142	0x39b5233d	0.00034549265
143	0x3bb69996	0.005572508
144	0xbe4776ee	-0.19478962
145	0xbcc99711	-0.024608167
146	0xbe26134e	-0.16218302
147	0xbdbacf4c	-0.0912157
148	0x3d08712e	0.03331106
149	0x3e2c063c	0.16799253
150	0x3ce7fee2	0.02831978
151	0xbe0c2c59	-0.13688792
152	0xbe296367	-0.16541825
153	0xbd8b4c9c	-0.068017215
154	0x3d0b9108	0.03407386
155	0xbe24d2f8	-0.16096103
156	0x3e7173fb	0.235794
157	0x3df078e5	0.11741809
158	0x3e5450a0	0.20733881
159	0x3d305204	0.043046966
160	0xbe236e26	-0.15959987
161	0x3e26a210	0.1627276
162	0xbe0da74e	-0.13833353
163	0x3e594554	0.21217853
164	0x3d56028c	0.052248523
165	0x3e430882	0.19046214
166	0xbe777668	-0.24166262
167	0xbdbcecc4	-0.09224847
168	0x3e0c38ee	0.13693592
169	0xbe12818a	-0.14307228
170	0x3e518e77	0.20464502
171	0x3b0fb3cc	0.0021927236
172	0xbe57f9b4	-0.21091348
173	0x3de2115f	0.110384695
174	0x3d4fe16e	0.050752096
175	0xbdee14ac	-0.116250366
176	0xbd9e9d72	-0.07744874
177	0xbc01d82e	-0.007925076
178	0xbd9026c6	-0.070386454
179	0x3e7c1e45	0.24620922
180	0xbe47f133	-0.19525604
181	0x3c09347a	0.008374328
182	0xbe2776f1	-0.16353966
183	0xbca9df7e	-0.020736452
184	0xbdecf9f3	-0.115711115
185	0x3e7f3609	0.24922957
186	0xbe0ad151	-0.1355641
187	0x3e5cb938	0.2155503
188	0xbcf78199	-0.030213164
189	0x3bf1fd20	0.007384911
190	0xbd8e5daa	-0.06951459
191	0xbc6f58e9	-0.0146086
192	0xbd55b937	-0.052178588
193	0xbdd2bee5	-0.102903165
194	0xbe3c4589	-0.183859
195	0xbd8cbd70	-0.0687207
196	0xbe07f991	-0.13278796
197	0x3d5c004b	0.053711217
198	0x3a689859	0.0008872799
199	0xbe1a2b1e	-0.1505551
200	0xbe71cff7	-0.23614489
201	0xbdf05a1a	-0.117359355
202	0x3e4d336e	0.2003915
203	0x3dcd249f	0.100167505
204	0x3e0c30df	0.13690518
205	0xbd76ea44	-0.060282007
206	0x3e449d31	0.19200589
207	0x3e45ebe6	0.1932827
208	0xbdfef6c1	-0.12449408
209	0xbe0ae139	-0.13562478
210	0x3e0e1068	0.13873446
211	0x3e1d1e5e	0.15343615
212	0xbd929767	-0.07157784
213	0x3dd03c09	0.10167701
214	0x3dbd0f5a	0.09231444
215	0xbdcf0c44	-0.10109761
216	0xbe40a05d	-0.18811174
217	0xbd7a090c	-0.061043784
218	0xbe342de1	-0.17595626
219	0x3e636ef0	0.22210288
220	0x3e043c35	0.12913592
221	0x3e77d962	0.24204019
222	0x3e21df5a	0.15807858
223	0x3dbb1530	0.091349006
224	0x3cf3e84e	0.029773857
225	0x3e34a579	0.17641248
226	0x3de1dc13	0.11028304
227	0x3d077d08	0.033078223
228	0x3e37d808	0.17953503
229	0x3e4bd90b	0.19907014
230	0xbda97efd	-0.08276174
231	0xbd491061	-0.049087886
232	0xbd35898b	-0.044320624
233	0xbe3cef76	-0.18450722
234	0xbe2a00ca	-0.16601864
235	0xbe4d0500	-0.20021439
236	0x3c36bbe7	0.011153198
237	0xbcf2857f	-0.029604672
238	0x3e05f855	0.13083012
239	0x3d3647b0	0.04450196
240	0xbdfbcab0	-0.12294519
241	0x3d418d1c	0.047253713
242	0xbe555109	-0.20831694
243	0x3dd0b18a	0.10190113
244	0x3e2c6af5	0.16837676
245	0xbe1d235c	-0.1534552
246	0x3cb933fd	0.022607798
247	0x3c886fad	0.016654814
248	0x3d73d73e	0.059531443
249	0x3e461f21	0.19347812
250	0xbe2913f4	-0.16511518
251	0xbe1e9d09	-0.15489592
252	0x3cc2f22b	0.023797115
253	0xbe4ad00d	-0.19805928
254	0xbde129c3	-0.109942935
255	0x3d91db13	0.07121863

lstm_p.bias_ih_l0 f4 [64]
0	0xbc9ac331	-0.018891903
1	0xbe5511d4	-0.20807582
2	0xbe3703a2	-0.1787248
3	0xbdb2e8f5	-0.08735839
4	0x3e17432b	0.14771716
5	0xbd59f5fe	-0.053213112
6	0x3c00138c	0.00781716
7	0xbe4667a6	-0.19375476
8	0x3e44a3ac	0.19203061
9	0xbe823df1	-0.25437883
10	0x3dcaf4cb	0.09909972
11	0x3d7a4d96	0.061109148
12	0x3e6f5852	0.23373535
13	0xbe22a994	-0.15885001
14	0x3e0010f4	0.12506467
15	0x3deb3915	0.11485497
16	0xbe1e7277	-0.15473352
17	0x3e468c4d	0.19389458
18	0xbe22cb8f	-0.15897964
19	0xbe2da8c5	-0.16958912
20	0xbe57e9af	-0.21085237
21	0x3e4b0ead	0.19829817
22	0x3d86d047	0.065826945
23	0xba9cf319	-0.0011974304
24	0x3c312c0d	0.010813725
25	0x3e37043a	0.17872706
26	0xbcf6b045	-0.030113349
27	0x3d107e64	0.035276785
28	0xbe05cf58	-0.13067377
29	0xbe42f9ce	-0.19040605
30	0xbe7822bb	-0.24231999
31	0x3df5b19b	0.11996766
32	0xbdbd3051	-0.09237731
33	0xbe0d3309	-0.13789
34	0x3e292797	0.16519009
35	0x3e6782fc	0.2260856
36	0x3c67c4b5	0.01414602
37	0xbda29d04	-0.079401046
38	0xbe6d9f3b	-0.23205273
39	0xbe5eefb3	-0.21771125
40	0x3df8bb0f	0.121450536
41	0xbe1b3c6f	-0.15159772
42	0xbe5c25fd	-0.21498866
43	0xbe57c05c	-0.21069473
44	0xbd93bfc3	-0.0721431
45	0x3e03c312	0.12867382
46	0x3e2d34ac	0.16914624
47	0xbd947c08	-0.072502196
48	0x3e4e3017	0.20135532
49	0x3e530dda	0.20610753
50	0x3e03b9e6	0.12863883
51	0x3e713cbb	0.23558323
52	0xbe7b4cbd	-0.24540992
53	0x3d930fff	0.071807854
54	0xbe4b30e8	-0.19842875
55	0xbc2217d1	-0.009893374
56	0x3d831589	0.06400592
57	0x3d97ae04	0.07406238
58	0xbd1626ad	-0.036657978
59	0x3d56727d	0.05235528
60	0xbe13bbd6	-0.14427122
61	0x3e29028f	0.16504882
62	0xbdddee52	-0.108364716
63	0xbe2bac9f	-0.16765068

lstm_p.bias_hh_l0 f4 [64]
0	0xbe77d744	-0.24203211
1	0xbca31b8e	-0.0199106
2	0xbdb650f8	-0.08902162
3	0x3db14a5b	0.0865676
4	0xbc82c610	-0.015963584
5	0x3d78e331	0.06076354
6	0xbe3f0849	-0.18655504
7	0x3e67b90e	0.22629187
8	0xbc05f959	-0.008177125
9	0xbe4b3807	-0.19845591
10	0x3e3d2cc9	0.18474115
11	0x3cb02ccf	0.021505741
12	0xbc446575	-0.01198708
13	0xbe09ab96	-0.13444361
14	0xbdae33a6	-0.08505945
15	0x3cfc80b9	0.030823098
16	0x3df7cbf3	0.12099447
17	0xbe7c3821	-0.24630786
18	0x3d38d567	0.04512539
19	0x3d805eb4	0.06268063
20	0x3e0aba8f	0.13547729
21	0x3db32f89	0.08749301
22	0x3d8d5fe7	0.069030575
23	0x3e51b462	0.20478967
24	0xbd9221e6	-0.07135372
25	0x3cf0f928	0.029415682
26	0xbdb398c8	-0.08769375
27	0x3d443ddc	0.047910556
28	0xbde2bdec	-0.11071381
29	0x3da17d8c	0.07885274
30	0x3c8b44ed	0.01700064
31	0xbb6ac69a	-0.0035823942
32	0xbe6b0db9	-0.22954454
33	0x3e205ebb	0.15661137
34	0xbe720b53	-0.23637132
35	0x3d6348c2	0.05548931
36	0xbe193aa0	-0.1496377
37	0xbe25bbe7	-0.1618496
38	0xbc053b01	-0.008131743
39	0xbe2ac46b	-0.1667649
40	0xbdfa8179	-0.12231726
41	0xbe1d208b	-0.15344445
42	0x3e2db131	0.16962124
43	0xbdc5c866	-0.096573636
44	0x3d9b6629	0.07587845
45	0xbd05336b	-0.03251974
46	0xbe476bf0	-0.19474769
47	0x3de41580	0.11136913
48	0xbdf80152	-0.12109627
49	0x3e0d83d8	0.13819826
50	0xbe4cf1e8	-0.20014155
51	0xbe7d3673	-0.24727802
52	0x3d9ce8e8	0.07661611
53	0xbd4f56a5	-0.05061974
54	0xbe18223e	-0.14856812
55	0x3e71abac	0.23600644
56	0x3e724723	0.23659949
57	0xbe7ac00c	-0.24487323
58	0x3e490184	0.19629484
59	0x3e066ee0	0.13128233
60	0xbd9844ab	-0.074349724
61	0xbdd51a0d	-0.104053594
62	0x3d86b3f6	0.065772936
63	0xbd882af3	-0.06648817

lstm_p.weight_ih_l1 f4 [64, 16]
0	0xbd4dd9d9	-0.050256584
1	0x3d97fca2	0.07421233
2	0x3e64003a	0.22265711
3	0x3c50b3d9	0.0127381915
4	0xbe2b2e88	-0.16716969
5	0x3dcb8cab	0.0993894
6	0x3e5def5e	0.21673343
7	0x3e62bc12	0.22142056
8	0x3e575eea	0.210323
9	0xbdd7dd88	-0.105403006
10	0xbe0f0a75	-0.13968833
11	0x3e04a4b1	0.1295345
12	0x3dbf2384	0.09332946
13	0x3e44fc77	0.19236933
14	0xbdb14aae	-0.08656822
15	0xbdd837a7	-0.1055749
16	0xbd4bd274	-0.04976125
17	0x3e3ca2b3	0.1842144
18	0x3daf64f2	0.08564176
19	0x3e734815	0.23757966
20	0xbe02c383	-0.12769894
21	0xbd9a054f	-0.07520544
22	0x3e078d9e	0.13237616
23	0xbd79d913	-0.060998034
24	0x3e4809ce	0.1953499
25	0xbd77c3a9	-0.06048933
26	0x3e29a8ed	0.16568346
27	0x3e20f807	0.15719615
28	0x3d562ff3	0.05229182
29	0xbd8306e1	-0.063977964
30	0xbe1fcc14	-0.15605193
31	0xbe05ec1d	-0.13078351
32	0xbe04022f	-0.12891458
33	0xbe379b91	-0.17930438
34	0x3e36abec	0.1783902
35	0x3dbbac4d	0.09163723
36	0xbdc2c71e	-0.09510635
37	0x3e586d1c	0.21135372
38	0x3cc0e6a9	0.023547487
39	0xbc067d48	-0.00820858
40	0x3e287f56	0.16454825
41	0x3e77c658	0.24196756
42	0x3e2ccfdf	0.16876172
43	0xbdde77d8	-0.10862702
44	0xbe6e76c4	-0.23287493
45	0xbdf1286b	-0.11775287
46	0xbd38e266	-0.045137785
47	0x3debab80	0.115073204
48	0x3e1663d8	0.14686525
49	0xbe7323ab	-0.23744075
50	0x3e56b80d	0.20968647
51	0x3e782e6b	0.24236457
52	0xbd997adc	-0.07494137
53	0x3e555716	0.20834002
54	0x3e09df5c	0.13464111
55	0xbe1cc61e	-0.1530995
56	0xbdb10707	-0.086439185
57	0xbe4325ea	-0.19057432
58	0x3e64a619	0.22328986
59	0x3e3abf5c	0.1823706
60	0x3e2c28c6	0.16812429
61	0x3e0784d9	0.13234271
62	0x3e254ec0	0.16143322
63	0x3e2aa3f6	0.16664109
64	0xbd663f08	-0.056212455
65	0xbdba6cc7	-0.09102779
66	0x3e46033a	0.19337168
67	0xbda43716	-0.08018319
68	0x3dffdfff	0.12493896
69	0xbdc6e2fc	-0.097112626
70	0xbe5aafec	-0.21356171
71	0xbe4567fe	-0.19277951
72	0x3e6d2200	0.23157501
73	0x3e6644de	0.22487208
74	0xbe5dd633	-0.21663742
75	0x3c8d9bf7	0.017286284
76	0x3e5a9ec4	0.21349627
77	0xbe19df68	-0.15026629
78	0x3bd78877	0.006577547
79	0x3dfd4dce	0.12368356
80	0x3e25400e	0.16137716
81	0xbdc594fa	-0.09647556
82	0xbd5b4da0	-0.053540826
83	0x3d7d87c3	0.06189705
84	0x3d64597b	0.055749398
85	0xbd17f1e3	-0.037095916
86	0x3e5bc204	0.2146073
87	0xbe04fc4d	-0.1298687
88	0xbddc6a90	-0.10762513
89	0x3e64b79a	0.22335663
90	0xbba18d9d	-0.0049302117
91	0xbbb9de76	-0.0056722714
92	0x3e000f95	0.12505944
93	0x3de640ef	0.11242854
94	0x3bfa170f	0.0076321433
95	0x3dc14efb	0.094388925
96	0x3e052d7f	0.13005637
97	0xbdbc0469	-0.09180529
98	0x3e1f579e	0.15560767
99	0x3e280c66	0.1641098
100	0xbe746605	-0.23867042
101	0xbe1349e6	-0.14383659
102	0x3e45d106	0.19318017
103	0x3caa5eb7	0.020797117
104	0x3e11166f	0.14168714
105	0x3dd7567f	0.10514545
106	0xbda68fb9	-0.08132882
107	0xbdad853e	-0.084726796
108	0xbe596094	-0.21228248
109	0xbe23d589	-0.15999426
110	0x3e66c261	0.22535087
111	0xbe5ad1ca	-0.2136909
112	0x3e023857	0.12716804
113	0x3df6a3fd	0.12042997
114	0x3e60aa82	0.21940044
115	0xbe7d18a9	-0.24716438
116	0x3de04f6e	0.1095265
117	0x3ddc20f6	0.10748474
118	0x3e3342b2	0.17505911
119	0x3e6e9eed	0.23302813
120	0x3e02627d	0.12732883
121	0x3d927d2c	0.07152781
122	0xbd2a9f37	-0.041655745
123	0xbe5ebd24	-0.21751839
124	0x3dafd296	0.08585088
125	0xbdcc7d02	-0.09984781
126	0x3e0a8c8e	0.1353018
127	0xbe547c4a	-0.20750538
128	0xbcdca4bf	-0.026934026
129	0x3e1eead6	0.1551927
130	0x3d135c60	0.035976768
131	0xbd15dd97	-0.036588278
132	0x3da5b004	0.08090213
133	0x3da6b8fd	0.081407525
134	0xbe53648c	-0.20643824
135	0xbc861891	-0.016369136
136	0x3ddd206a	0.10797198
137	0x3e4bc261	0.19898368
138	0x3e0ae773	0.13564853
139	0x3d1d09cd	0.038339425
140	0x3e4968c5	0.19668873
141	0x3e259129	0.16168655
142	0xbd6c878b	-0.05774645
143	0x3ce132c3	0.027490025
144	0xbd8fc16a	-0.07019313
145	0xbdd824db	-0.105539046
146	0x3e43871a	0.19094506
147	0x3ddfb12e	0.10922466
148	0x3e650b61	0.22367622
149	0x3db99e90	0.090634465
150	0xbe07aa40	-0.13248539
151	0xbb23840e	-0.0024950537
152	0x3d061fde	0.032745235
153	0x3cd041c1	0.025421979
154	0xbe57013b	-0.20996563
155	0xbd4515b9	-0.04811642
156	0xbd02bd44	-0.03191878
157	0xbe5d2b01	-0.21598436
158	0xbe3d77f8	-0.18502796
159	0x3e4713e2	0.19441178
160	0xbe634e4f	-0.22197841
161	0x3d420a0d	0.047372866
162	0x3bf2f507	0.0074144634
163	0xbe62f1ae	-0.22162506
164	0xbe48bfe4	-0.1960445
165	0xbc5e27f7	-0.013559333
166	0xbe744571	-0.23854615
167	0x3cc6f4f3	0.024286723
168	0x3e218d72	0.15776613
169	0xbde77526	-0.11301641
170	0x3d390df5	0.045179326
171	0xbc807913	-0.015682733
172	0x3e60ece6	0.2196537
173	0xbc7a784e	-0.015287472
174	0xbddc6a83	-0.10762503
175	0xbc4233d8	-0.011853181
176	0xbdf67c27	-0.12035399
177	0xbe19b630	-0.15010905
178	0xbd9fd3e1	-0.078040846
179	0x3d11f454	0.0356334
180	0x3e8185be	0.2529735
181	0xbe35a7be	-0.1773977
182	0x3d1d10db	0.038346153
183	0x3e0faaab	0.14029948
184	0x3e74314a	0.23846927
185	0x3e34961f	0.17635392
186	0x3e2b1035	0.16705401
187	0xbe49358d	-0.19649334
188	0x3e524cfb	0.20537178
189	0xbe45fcc9	-0.19334711
190	0x3d9fb10b	0.0779744
191	0x3d50c264	0.050966635
192	0x3dc7564e	0.09733258
193	0xbc4047cf	-0.0117358705
194	0xbc8f63f9	-0.017503725
195	0xbde56b8b	-0.11202153
196	0x3e45b2c5	0.19306476
197	0xbe0a37e2	-0.1349788
198	0xbe5e1e4b	-0.21691243
199	0x3e79e4de	0.24403712
200	0xbddf557e	-0.10904978
201	0xbe3ac7e4	-0.18240315
202	0xbe29fb8d	-0.16599865
203	0xbe018a0d	-0.12650318
204	0x3e18aa3d	0.14908691
205	0xbe57807f	-0.21045111
206	0xbe677608	-0.22603619
207	0x3e368d1e	0.1782727
208	0xbe5fd6f3	-0.2185934
209	0xbe165620	-0.14681292
210	0xbd22ffeb	-0.039794844
211	0xbe655c77	-0.22398554
212	0x3e3b64b1	0.1830013
213	0x3e001824	0.12509209
214	0x3e75b671	0.23995377
215	0xbe38c20d	-0.18042774
216	0xbe429c50	-0.19004941
217	0xbe014563	-0.12624125
218	0x3de71176	0.11282627
219	0x3e35da8b	0.17759149
220	0xbe224f82	-0.15850642
221	0x3da8a910	0.08235371
222	0x3e0ae6c2	0.1356459
223	0x3e694d78	0.22783458
224	0x3dd30643	0.10303929
225	0x3e612c09	0.21989454
226	0xbe098862	-0.13430932
227	0x3e06f075	0.13177665
228	0xbe7085b7	-0.23488508
229	0x3e0e5c53	0.13902406
230	0x3bef062b	0.0072944365
231	0xbe6958c5	-0.22787769
232	0x3c11427a	0.008865947
233	0x3e4816a0	0.19539881
234	0x3b9b1a3b	0.0047333515
235	0x3e10c3e2	0.14137223
236	0x3dc02e8b	0.09383877
237	0xbe34c98b	-0.17655008
238	0xbdbac260	-0.09119105
239	0x3e4919bf	0.19638728
240	0x3e143bc6	0.14475927
241	0x3e17cfbd	0.1482534
242	0x3d09c473	0.033634614
243	0xbc1809ab	-0.009279649
244	0x3daaf47f	0.08347415
245	0x3a43a801	0.0007463694
246	0xbd3ca903	-0.04605962
247	0xbe5bd2ba	-0.21467105
248	0xbd7f726d	-0.062364984
249	0x3cdf653a	0.027269948
250	0x3d8e9b7a	0.069632486
251	0x3e09673b	0.13418286
252	0x3d4bf5c6	0.049794935
253	0xbc760e39	-0.015018039
254	0x3e200303	0.15626149
255	0x3db3b986	0.0877562

lstm_p.weight_hh_l1 f4 [64, 16]
0	0x3e42e211	0.1903155
1	0xbe1784b7	-0.1479672
2	0x3e69da21	0.22837116
3	0xbdea66d1	-0.11445392
4	0xbd3947a8	-0.045234352
5	0xbe4301c4	-0.19043642
6	0x3d925bdd	0.07146428
7	0x3e489453	0.19587831
8	0xbda75c2e	-0.08171879
9	0x3e22e4b9	0.15907563
10	0xbc6d3c5f	-0.014479726
11	0x3e77d9b0	0.24204135
12	0xbe14386b	-0.14474647
13	0x3c38f979	0.011289948
14	0x3e44a473	0.19203357
15	0xbe4d3880	-0.20041084
16	0x3df5c7e1	0.120010145
17	0xbe775458	-0.24153268
18	0x3e4786ca	0.19485012
19	0x3dc14261	0.09436489
20	0x3d4a5e81	0.049406532
21	0xbe6cb370	-0.23115325
22	0x3e855d38	0.26047683
23	0x3e39c161	0.18140174
24	0x3e6cad57	0.23112999
25	0xbe58e94c	-0.21182746
26	0x3e6603e6	0.22462425
27	0x3d1fb3f6	0.038989983
28	0x3e1e7711	0.15475108
29	0xbe7a9857	-0.24472176
30	0xbe065272	-0.13117388
31	0x3c8a5aed	0.01688906
32	0x3e1c7c5b	0.15281813
33	0xbe694f56	-0.2278417
34	0x3e1847d8	0.14871156
35	0x3e059a99	0.13047256
36	0xbe41e87f	-0.18936346
37	0x3e61368f	0.21993469
38	0xbdca62e1	-0.09882141
39	0x3d98e57c	0.07465646
40	0xbe28264d	-0.1642086
41	0xbe0ed68b	-0.13949029
42	0xbd7612fd	-0.060076702
43	0xbdb07123	-0.08615329
44	0x3d0b2855	0.03397401
45	0xbd86f5c5	-0.065898456
46	0xbe1e4da4	-0.15459305
47	0x3e63fab3	0.22263603
48	0xbbecfb79	-0.0072321263
49	0xbe549608	-0.20760357
50	0x3e5c8dc2	0.21538451
51	0x3e589864	0.21151882
52	0xbe09c72f	-0.13454889
53	0x3e31c4e6	0.17360267
54	0xbdd8c983	-0.1058531
55	0xbe47c5f4	-0.19509107
56	0xbe814880	-0.25250626
57	0xbe0498c1	-0.12948896
58	0x3df40357	0.119146995
59	0x3e78ee08	0.24309552
60	0x3e68b687	0.22725879
61	0xbd14ceaf	-0.03632992
62	0xbd58386f	-0.052788194
63	0x3b06e24f	0.0020581668
64	0x3e5ccce6	0.21562538
65	0xbe3c0028	-0.18359435
66	0xbe0027f7	-0.12515245
67	0xbaf823bc	-0.0018931548
68	0xbe6915d1	-0.22762229
69	0x3e05a2ee	0.13050434
70	0xbe23ade3	-0.15984301
71	0xbd94d1d0	-0.07266581
72	0xbe094786	-0.1340619
73	0xbc4c2acf	-0.012461378
74	0x3e5ef2ef	0.2177236
75	0xbdcf9607	-0.10136037
76	0xbdccdeab	-0.10003408
77	0x3deaf149	0.11471803
78	0xbcf0fbec	-0.029417
79	0xbc82b9c2	-0.015957717
80	0x3e42c9aa	0.19022241
81	0x3d8584f8	0.065195024
82	0xbd08e444	-0.033420816
83	0x3e558b0f	0.20853828
84	0xbe7305ab	-0.23732631
85	0x3e4ba042	0.19885352
86	0xbdb852a0	-0.090001345
87	0x3e3b2075	0.182741
88	0xbdb0f68f	-0.08640777
89	0xbe5e802a	-0.21728578
90	0x3b88a39a	0.0041698935
91	0x3e5abace	0.21360323
92	0x3d2ca907	0.042153385
93	0xbe5510f2	-0.20807245
94	0x3e3b1724	0.18270546
95	0x3e8212fe	0.25405115
96	0x3e5bd531	0.21468045
97	0xbe0dd930	-0.13852382
98	0xbe281d26	-0.16417369
99	0xbe8341fc	-0.2563628
100	0xbd385f4a	-0.04501275
101	0x3d703b2e	0.05865019
102	0xbe7a7ba6	-0.2446123
103	0x3c268803	0.010164264
104	0x3cd69d7f	0.026198147
105	0x3e3047d2	0.17214897
106	0x3e32eb02	0.17472461
107	0x3dbc343c	0.091896504
108	0xbc5967ff	-0.0132694235
109	0x3e6335f8	0.22188556
110	0xbcc9d0e3	-0.024635738
111	0xbd452fee	-0.048141412
112	0xbe01a745	-0.12661465
113	0x3d87976e	0.0662068
114	0xbe1b192b	-0.1514632
115	0x3dd7d49e	0.105386004
116	0xbe6280a9	-0.22119392
117	0x3cd39ca3	0.025831526
118	0xbc6e8a04	-0.014559273
119	0xbe31e2e3	-0.17371707
120	0x3e50fb0d	0.20408268
121	0x3e4a75d9	0.19771518
122	0x3e1ea50a	0.15492645
123	0x3e38b998	0.18039548
124	0xbc6db244	-0.014507834
125	0xbe2084f8	-0.15675724
126	0xbd6f4cbc	-0.05842279
127	0xbe1c96e7	-0.1529194
128	0xbe0576b2	-0.1303356
129	0x3cfff00d	0.031242395
130	0xbdc1f541	-0.094706066
131	0x3e7f40f6	0.24927124
132	0x3e24ff1c	0.16112942
133	0x3e805cef	0.25070903
134	0x3dfba70b	0.1228772
135	0x3e142660	0.14467764
136	0xbe060dd2	-0.1309121
137	0x3e4573cd	0.19282456
138	0x3e45c0b4	0.19311792
139	0x3da5939c	0.08084795
140	0x3dad55fd	0.084636666
141	0xbe5f5929	-0.21811356
142	0xbc04fc76	-0.008116832
143	0x3e5a3f66	0.21313247
144	0xbdd2ed4f	-0.10299169
145	0x3e41ed6d	0.18938227
146	0xbdfcf03a	-0.12350507
147	0xbe29f70c	-0.16598147
148	0x3e115f0c	0.14196414
149	0x3e059e6d	0.13048716
150	0x3dbca68b	0.09211453
151	0xbdd6625d	-0.1046798
152	0x3e25e971	0.16202332
153	0xbdd8f5b8	-0.10593742
154	0x3e0d814c	0.13818854
155	0x3e662ab4	0.22477227
156	0xbdef509a	-0.116852954
157	0x3e47b614	0.19503051
158	0x3e2d77d6	0.16940245
159	0x3d957ae2	0.07298829
160	0xbdcc2c57	-0.09969395
161	0xbd74fe45	-0.059812803
162	0x3e1da283	0.15394025
163	0x3dcd4c4f	0.1002432
164	0x3b81a63d	0.0039565847
165	0xbdc407c6	-0.09571795
166	0x3c9d748d	0.019220615
167	0x3e7e78f3	0.24850826
168	0x3e47c219	0.19507636
169	0xbe26ff06	-0.16308221
170	0x3e808b5a	0.25106317
171	0x3e16e7ba	0.14736834
172	0x3e82bbf1	0.25534013
173	0xbd9284c4	-0.07154229
174	0x3d969061	0.07351757
175	0xbd3dc5a1	-0.04633105
176	0xbe16bf79	-0.14721479
177	0xbda723f9	-0.08161158
178	0xbe11ce8b	-0.14238946
179	0x3d7bce57	0.061476078
180	0xbd16cf5a	-0.03681884
181	0xbe54c514	-0.20778304
182	0xbdb46b93	-0.08809581
183	0x3b32bc67	0.002727294
184	0xbe0806c3	-0.1328383
185	0xbe289176	-0.16461739
186	0xbe6c0a1c	-0.23050731
187	0x3e0157e8	0.1263119
188	0x3e15b9d8	0.14621675
189	0xbe834255	-0.25636545
190	0x3e0929c4	0.13394839
191	0xbe3c744e	-0.18403742
192	0xbdd450b9	-0.10366959
193	0xbe1e7180	-0.15472984
194	0xbd7200ed	-0.059082914
195	0xbe074a96	-0.13212046
196	0xbbcada98	-0.006190609
197	0x3d3997ce	0.045310788
198	0xbde05334	-0.1095337
199	0x3e1ddee8	0.15417063
200	0xbdbb1caa	-0.091363266
201	0xbd837865	-0.06419448
202	0x3d7e8804	0.062141433
203	0x3dfd27fd	0.12361143
204	0x3e33cc96	0.17558512
205	0x3dd08832	0.10182227
206	0x3cc65432	0.02421007
207	0xbd02895f	-0.03186929
208	0xbe0ec995	-0.13944085
209	0x3e629d5d	0.22130342
210	0xbcbdb4c0	-0.023157477
211	0x3e4e738b	0.20161264
212	0x3ddcc830	0.1078037
213	0x3e2deb32	0.16984251
214	0xbe28f690	-0.16500306
215	0x3ddfd8fd	0.10930059
216	0x3e847442	0.25869948
217	0xbe531eb2	-0.20617178
218	0x3e21a552	0.15785721
219	0xbe081330	-0.1328857
220	0xbe214305	-0.15748222
221	0xbe5539b0	-0.20822787
222	0xbe7d75ba	-0.2475194
223	0xbe415525	-0.18880136
224	0xbe40206d	-0.1876237
225	0xbbe61289	-0.0070212525
226	0xbddc9b56	-0.107718155
227	0xbbaac39f	-0.005211308
228	0x3e2aff44	0.16698939
229	0x3e5553c3	0.20832734
230	0xbe43f744	-0.19137293
231	0x3e461631	0.19344403
232	0xbcd06239	-0.025437461
233	0xbdc56172	-0.09637727
234	0x3e84fd5b	0.25974545
235	0xbe5eb757	-0.21749626
236	0xbe0a2166	-0.13489303
237	0x3dc35143	0.09536984
238	0x3ddac3d1	0.1068188
239	0x3df4cca3	0.11953094
240	0xbe668653	-0.22512178
241	0xbe2fa60d	-0.17153187
242	0xbe1e517d	-0.15460773
243	0x3e28d5d8	0.16487825
244	0x3de2cb3b	0.110739194
245	0xbd08607f	-0.03329515
246	0x3e3263a2	0.1742082
247	0x3ca88cca	0.020574946
248	0xbe76a313	-0.24085645
249	0xbda46a94	-0.08028141
250	0x3e0b1ebf	0.13585947
251	0xbd753dcd	-0.05987339
252	0x3de21e82	0.11040975
253	0x3d464969	0.048409853
254	0xbd7ad0ac	-0.06123416
255	0xbe3f2e07	-0.18669902

lstm_p.bias_ih_l1 f4 [64]
0	0xbd95bdc7	-0.07311588
1	0x3c07147b	0.008244629
2	0x3d23645b	0.03989063
3	0xbe718614	-0.23586303
4	0xbe7e8a77	-0.24857508
5	0x3d5e1075	0.054214913
6	0xbe114d92	-0.14189747
7	0x3e40444f	0.18776058
8	0x3d70b6e9	0.058768187
9	0x3d638416	0.05554589
10	0xbe793008	-0.24334729
11	0x3d9a4e15	0.07534424
12	0xbd0b3647	-0.03398731
13	0xbca9b5df	-0.020716606
14	0xbe4ba431	-0.19886853
15	0xbe842911	-0.2581258
16	0x3e2ecd11	0.17070414
17	0xbe2333d6	-0.15937743
18	0x3d4cc0e4	0.049988642
19	0xbe34e841	-0.17666723
20	0xbe45ee94	-0.19329292
21	0x3dd93def	0.10607516
22	0x3d757f79	0.05993602
23	0xbdf43388	-0.11923891
24	0x3dd97045	0.10617117
25	0xbe1bd1b1	-0.1521671
26	0xbe316ca7	-0.17326604
27	0x3c763bc7	0.0150289005
28	0x3cc0cf97	0.023536487
29	0xbe397547	-0.18111144
30	0xbe180e87	-0.14849292
31	0xbe15bdec	-0.1462323
32	0xbd8f1847	-0.069870524
33	0x3e0657ef	0.13119482
34	0xbe63d57a	-0.22249404
35	0x3e32af1c	0.17449611
36	0x3c8b4f02	0.017005447
37	0xbd06934d	-0.03285532
38	0xbe07ab0f	-0.13248847
39	0xbe5513b2	-0.20808294
40	0xbdb01ddd	-0.08599446
41	0x3dfca66b	0.12336429
42	0xbe493666	-0.19649658
43	0x3e5ac147	0.21362792
44	0xbe292779	-0.16518964
45	0x3e19e3c4	0.15028292
46	0xbe671aaa	-0.22568765
47	0xbe69020d	-0.22754689
48	0xbdc76e36	-0.09737818
49	0x3e3dd804	0.18539435
50	0x3df46b85	0.1193457
51	0xbe173689	-0.14766897
52	0x3d884320	0.06653428
53	0xbe097dc0	-0.13426876
54	0x3e5a5165	0.21320112
55	0x3e70f8db	0.23532431
56	0x3ac46a1e	0.0014985239
57	0x3e294c9a	0.16533127
58	0xbdbc2c5e	-0.0918815
59	0x3d9c6c3e	0.07637833
60	0x3e091457	0.13386665
61	0x3e09a8ce	0.134433
62	0x3d96f33b	0.07370611
63	0x3e64b09f	0.22333

lstm_p.bias_hh_l1 f4 [64]
0	0x3d91cf11	0.07119573
1	0x3e28edc9	0.16496958
2	0x3dfd9595	0.12382046
3	0x3c759baa	0.0149907265
4	0xbd5e737e	-0.05430936
5	0x3e38a7c9	0.18032755
6	0x3e575510	0.21028543
7	0x3e59fd93	0.21288137
8	0x3d7b1127	0.061295655
9	0x3e0d30e3	0.1378818
10	0xbe15f1c8	-0.14643013
11	0xbe2bc480	-0.16774178
12	0x3d2461e1	0.040132407
13	0xbe3da6fb	-0.18520729
14	0xbe027d40	-0.12743092
15	0x3e0932c2	0.13398269
16	0xbdfeed5b	-0.12447616
17	0xbe29d964	-0.16586834
18	0xbe61f95d	-0.22067781
19	0x3e228073	0.15869312
20	0x3e27abd2	0.16374138
21	0x3e31427e	0.17310521
22	0xbd4cf203	-0.050035488
23	0xbe00ad1a	-0.12566033
24	0x3e63e7b8	0.22256362
25	0xbe25c7e9	-0.16189541
26	0x3e4f8f4d	0.20269509
27	0x3d1b9d0b	0.037991565
28	0xbdd59df9	-0.104305215
29	0x3df65d85	0.12029556
30	0xbe116033	-0.14196853
31	0x3c5d1274	0.013493169
32	0x3e4c192f	0.19931482
33	0xbd5f23a4	-0.05447735
34	0x3d863747	0.06553512
35	0x3e2bfbf8	0.16795337
36	0xbd98b20c	-0.07455835
37	0x3e13ebac	0.1444537
38	0x3e3e52cd	0.18586273
39	0x3cec21e2	0.02882475
40	0x3e3f36c8	0.18673241
41	0x3e555275	0.20832236
42	0xbe36307a	-0.1779193
43	0x3ddf4d7b	0.1090345
44	0xbb61614b	-0.0034390267
45	0xbdb5304d	-0.08847103
46	0x3e474660	0.1946044
47	0x3d03870c	0.032111213
48	0xbc5d35a2	-0.013501557
49	0x3dcdfadb	0.100576125
50	0x3d8fddb5	0.07024709
51	0x3c9dba57	0.019253893
52	0x3dd8a358	0.1057803
53	0xbcf492f9	-0.029855238
54	0xbe56132f	-0.20905755
55	0x3dcd0e7b	0.100125276
56	0xbd47a8a0	-0.048744798
57	0xbdf9e23c	-0.12201354
58	0xbe1bff62	-0.1523414
59	0x3de1b1aa	0.11020215
60	0x3dc0f8b6	0.09422438
61	0xbe3b30b4	-0.18280298
62	0xbe323618	-0.17403448
63	0xbd472930	-0.048623264

attention_p.attn_1.weight f4 [16, 16]
0	0xbe7acfa9	-0.24493279
1	0x3e362b30	0.17789912
2	0x3e7da9aa	0.24771753
3	0xbec5f883	-0.38666162
4	0x3cd480d2	0.025940333
5	0xbdd017ac	-0.10160765
6	0xbd3eef3f	-0.04661488
7	0xbecd6498	-0.4011581
8	0xbe93df90	-0.28881502
9	0xbddb4cb2	-0.10707988
10	0x3da69263	0.0813339
11	0x3ea7d7c4	0.32781804
12	0x3ebc6250	0.36793756
13	0x3d853da1	0.065058954
14	0xbde5913d	-0.11209343
15	0xbecf0617	-0.40434334
16	0xbe97797d	-0.29584876
17	0x3ea5c06d	0.32373372
18	0x3e38ffb9	0.180663
19	0xbec65ef0	-0.38744307
20	0xbe6fab9a	-0.23405305
21	0xbe894bc3	-0.26815614
22	0xbe61e163	-0.22058634
23	0x3e73909e	0.23785636
24	0xbe1bcf6d	-0.15215845
25	0x3ea9998b	0.33124956
26	0x3eac9dba	0.33714086
27	0xbe409ef7	-0.1881064
28	0xbdbdf511	-0.09275258
29	0x3eb4a746	0.3528387
30	0x3e5ba0ad	0.21448012
31	0x3d6b4c73	0.057445955
32	0xbd74e6f0	-0.05979055
33	0xbe104967	-0.14090501
34	0xbd30408a	-0.0430303
35	0xbe5f0d37	-0.21782385
36	0x3df8c6c1	0.12147284
37	0x3ec163f3	0.37771568
38	0xbd4fb9eb	-0.050714415
39	0x3e585df8	0.21129596
40	0x3ed03886	0.40668124
41	0x3e91dfba	0.28491002
42	0xbe0191b1	-0.12653233
43	0xbecebac3	-0.40376863
44	0xbe6913fe	-0.22761533
45	0x3db09a62	0.08623196
46	0xbe819d5d	-0.2531537
47	0xbe918c7d	-0.28427497
48	0x3ed1cb37	0.40975353
49	0xbe01b50c	-0.1266672
50	0xbe89d590	-0.26920748
51	0x3eb6c291	0.35695317
52	0xbe938deb	-0.28819212
53	0x3ecbd21a	0.39808732
54	0x3e556fdf	0.20843457
55	0xbea4d0bd	-0.32190505
56	0x3e991f1d	0.2990655
57	0x3e8a7a28	0.27046323
58	0xbd67b839	-0.056572173
59	0xbed785dd	-0.42094317
60	0xbdacdf1e	-0.08440994
61	0x3ed61705	0.41814438
62	0xbdc3515a	-0.09537001
63	0xbd1ba4a2	-0.037998803
64	0x3ea53be0	0.32272243
65	0xbeaf1bb0	-0.3420081
66	0xbe38f0ab	-0.18060558
67	0x3def647c	0.11689088
68	0xbeb86720	-0.36016178
69	0x3e8399ee	0.25703377
70	0x3e59d8c3	0.21274094
71	0x3e28ed82	0.16496852
72	0xbe1abe5a	-0.15111676
73	0xbeb32dd6	-0.34995908
74	0x3dfb9308	0.12283903
75	0x3eb903a9	0.36135605
76	0x3e23a027	0.15979062
77	0xbea6b7be	-0.3256206
78	0x3ebc236c	0.36745775
79	0xbe577066	-0.2103897
80	0xbededee7	-0.43529436
81	0x3d3771d0	0.044786274
82	0x3e97155b	0.2950848
83	0x3ec046c6	0.37553996
84	0xbdd97944	-0.10618833
85	0xbe9e6c87	-0.30942175
86	0x3d05fb1f	0.03271019
87	0xbe1be82b	-0.15225284
88	0xbd0dc422	-0.034610875
89	0x3dd11ce0	0.102105856
90	0x3df46629	0.11933548
91	0xbe628d89	-0.22124304
92	0x3da3c93d	0.079973675
93	0x3e062aa9	0.13102211
94	0xbe9ef284	-0.310444
95	0x3dae91c9	0.085239
96	0x3eb41eb7	0.35179684
97	0xbe33c8e3	-0.17557101
98	0x3e38de1d	0.1805348
99	0x3e0ca4d0	0.13734746
100	0x3eae6e40	0.3406849
101	0x3e86e4d0	0.26346445
102	0xbe908795	-0.2822844
103	0xbe0e2888	-0.13882649
104	0xbd9ade1f	-0.075618975
105	0xbe59e044	-0.21276957
106	0x3eae624a	0.34059364
107	0xbd23e57d	-0.04001378
108	0xbdd5a4a8	-0.10431796
109	0x3eaff7e8	0.34368825
110	0xbe290ef0	-0.16509604
111	0xbe923286	-0.2855417
112	0x3e5b2ea6	0.21404514
113	0x3eb3149a	0.34976655
114	0x3caa5075	0.020790318
115	0xbea20562	-0.31644732
116	0xbcbf4286	-0.02334715
117	0x3ed50082	0.4160195
118	0xbd7ddcda	-0.0619782
119	0x3e878938	0.26471877
120	0x3e607e43	0.21923165
121	0xbd57587b	-0.052574616
122	0x3ccf2790	0.02528742
123	0xbd5295f6	-0.051412545
124	0xbea1d259	-0.31605795
125	0xbe69991b	-0.22812311
126	0x3e850a11	0.25984243
127	0xbe8af35e	-0.271388
128	0xbe67f866	-0.2265335
129	0xbe867dcd	-0.26267853
130	0x3ed5d77a	0.41765958
131	0xbe058e29	-0.13042511
132	0xbe593093	-0.21209936
133	0x3eb78a5b	0.35847744
134	0x3e383449	0.17988695
135	0xbec4f119	-0.38465193
136	0x3ed3c28c	0.41359365
137	0x3e5eb862	0.21750024
138	0x3e016cf1	0.12639214
139	0xbd512b4c	-0.05106668
140	0x3e072944	0.13199335
141	0xbe1f4291	-0.15552737
142	0x3e91782d	0.28412
143	0x3dec5b9a	0.11540909
144	0x3ec551c4	0.38538945
145	0x3e00da79	0.1258334
146	0xbd29b616	-0.041433416
147	0x3e5310bc	0.20611852
148	0xbd92e9de	-0.07173513
149	0x3e05dd0a	0.13072601
150	0x3d856d05	0.065149345
151	0x3eaed2e3	0.3414527
152	0xbe982c69	-0.29721382
153	0xbba4fb6f	-0.005034856
154	0xbe62dd87	-0.22154818
155	0x3ea2986c	0.31756914
156	0xbe2c15e0	-0.1680522
157	0x3e6d2ed0	0.23162389
158	0x3e59cf0c	0.21270388
159	0xbdf36132	-0.11883773
160	0xbcccb2d8	-0.024987623
161	0x3e88ed82	0.26743704
162	0xbea0705c	-0.31335723
163	0x3ece36e0	0.4027624
164	0xbdb5e7a5	-0.08882073
165	0xbdff1916	-0.12455957
166	0x3cfc2dc5	0.030783543
167	0x3c45739b	0.012051488
168	0xbeaa3a2b	-0.33247504
169	0xbcd3a4e2	-0.025835458
170	0x3e9a5915	0.3014609
171	0xbe4df6b1	-0.20113637
172	0x3e94d662	0.2906981
173	0xbed3ac1a	-0.4134224
174	0x3eb84a0a	0.35993987
175	0xbea44244	-0.32081807
176	0xbe894fdb	-0.26818737
177	0xbe2b42d9	-0.16724719
178	0xbe35b554	-0.17744952
179	0xbdb54c12	-0.088524
180	0xbe9289ba	-0.28620702
181	0x3e7296ad	0.23690291
182	0xbda5f14a	-0.08102663
183	0x3ec7c0e9	0.39014366
184	0x3ed24c74	0.41073954
185	0xbeb60066	-0.3554718
186	0x3e4f2406	0.20228586
187	0x3eae131d	0.33998957
188	0x3e190961	0.14944984
189	0x3c08ce98	0.008350037
190	0xbe91d79d	-0.28484812
191	0x3ed739be	0.4203624
192	0x3df3532d	0.11881099
193	0x3ea88767	0.32915804
194	0xbdd928bc	-0.106034726
195	0x3e22390b	0.15842073
196	0xbe538ca9	-0.20659126
197	0xbecf0112	-0.40430504
198	0x3c95d3b7	0.01828943
199	0x3ed5a449	0.41726902
200	0x3d2ec9ba	0.04267285
201	0xbee33ced	-0.4438242
202	0xbba283c4	-0.0049595553
203	0x3e6c27dc	0.2306208
204	0xbea0be4a	-0.3139518
205	0x3ed6ba74	0.41939127
206	0x3e7aba97	0.24485241
207	0xbe2db28b	-0.1696264
208	0x3e18ada4	0.14909989
209	0x3e89139c	0.26772773
210	0x3e99a8ef	0.300117
211	0xbc5f5bfc	-0.013632771
212	0xbd50c026	-0.050964497
213	0x3e589adf	0.21152829
214	0x3e0ef1d2	0.13959435
215	0xbe010690	-0.1260016
216	0x3ce9555a	0.028483082
217	0xbea8f553	-0.32999668
218	0xbeb9f9b1	-0.36323312
219	0x3eaf40f9	0.34229258
220	0xbecfa3b2	-0.40554577
221	0xbe8926a6	-0.267873
222	0xbebef13d	-0.37293425
223	0x3e0943b6	0.13404736
224	0x3e9e76b9	0.30949953
225	0xbd3fe80e	-0.046852164
226	0x3eb926da	0.36162454
227	0x3ed9aff7	0.42517063
228	0xbd1881a0	-0.037232995
229	0xbebe58b3	-0.37177047
230	0xbe84dc98	-0.2594955
231	0xbc616999	-0.013758087
232	0xbdf9a387	-0.121893935
233	0xbe92b0fc	-0.28650653
234	0xbe019560	-0.12654638
235	0xbd970c29	-0.07375366
236	0xbe94f60b	-0.29093966
237	0xbeb81c68	-0.35959172
238	0x3ea6a4c4	0.3254758
239	0xbdc3ac5e	-0.09554361
240	0x3db9bf3f	0.090696804
241	0xbe3d0cd8	-0.18461931
242	0xbea81c61	-0.3283415
243	0xbd7dd64a	-0.06197194
244	0x3e886f99	0.26647642
245	0x3ecf9d31	0.40549615
246	0x3d10d740	0.03536153
247	0xbe90540a	-0.28189117
248	0xbdf4a104	-0.11944774
249	0xbe42f663	-0.19039302
250	0xbda9fe18	-0.08300418
251	0x3c07bb1c	0.008284356
252	0xbdf49cd5	-0.11943976
253	0xbe322d82	-0.17400172
254	0xbe8ce92d	-0.2752165
255	0xbdc69172	-0.0969571

attention_p.attn_1.bias f4 [16]
0	0xbbf7372b	-0.0075444183
1	0xbc0c0086	-0.008545047
2	0x3c1d7d09	0.00961233
3	0xbc249424	-0.010045085
4	0xbc8b19d1	-0.016980084
5	0xbb4909a7	-0.003067592
6	0x3c074e17	0.008258364
7	0xbc350e24	-0.011050735
8	0x3c06fcad	0.008238954
9	0xbc33bd93	-0.010970491
10	0x3c515c45	0.012778346
11	0xbc2dcf77	-0.0106085455
12	0x3be45367	0.00696795
13	0x3c1321c6	0.00898022
14	0xbc344abc	-0.011004146
15	0xbbdfaa01	-0.006825686

attention_p.attn_2.weight f4 [1, 16]
0	0xbee49136	-0.44642037
1	0xbeb771dc	-0.35829055
2	0x3deacf06	0.11465268
3	0xbe2cb292	-0.16864994
4	0xbe6b68d4	-0.22989208
5	0x3c4c3ed2	0.012466149
6	0x3eb42dc8	0.35191178
7	0xbe878d3d	-0.26474944
8	0x3e833082	0.25622946
9	0xbec6e81a	-0.38848954
10	0x3e9e9828	0.3097546
11	0xbe37fe3a	-0.17968073
12	0x3e84396d	0.25825062
13	0x3ed5fe5d	0.41795626
14	0xbe047d61	-0.12938453
15	0xbe9789d9	-0.29597357

lstm_t.weight_ih_l0 f4 [64, 7]
0	0xbe2bce45	-0.16777904
1	0xbd8c5108	-0.06851393
2	0xbbd39244	-0.006456645
3	0xbd8e7ae7	-0.069570355
4	0x3e4f666f	0.20253919
5	0xbe4c20d0	-0.19934392
6	0x3e442fee	0.19158909
7	0x3c05691c	0.008142736
8	0x3e650de7	0.22368585
9	0x3d842e15	0.06454102
10	0xbe57266a	-0.21010748
11	0x3e679cd1	0.22618414
12	0x3d65a16b	0.056062143
13	0x3dd62dec	0.10457978
14	0x3e2c0b6a	0.16801229
15	0xbd85dd79	-0.06536383
16	0x3cdc64e9	0.026903586
17	0xbdbd6e88	-0.09249598
18	0x3e00edc2	0.12590697
19	0x3b1807af	0.002319794
20	0x3da3f3e0	0.080055
21	0xbe168ee1	-0.14702941
22	0xbde764b9	-0.11298508
23	0xbde41a94	-0.11137882
24	0xbe1dcb9e	-0.15409705
25	0x3e3fec23	0.18742423
26	0xbe3d3370	-0.18476653
27	0x3e1aacfb	0.1510505
28	0xbe5cfcfb	-0.2158088
29	0x3e57f26f	0.21088575
30	0xbe7bb067	-0.24579011
31	0x3e3803f3	0.17970257
32	0x3c3be708	0.011468656
33	0xbd688698	-0.056768984
34	0xbdf11a01	-0.11772538
35	0x3e19b65f	0.15010975
36	0x3d863ba0	0.06554341
37	0x3de2c316	0.11072366
38	0x3d6d79cb	0.05797748
39	0x3cd7d044	0.026344426
40	0x3e45adf4	0.19304639
41	0x3dca3f44	0.09875348
42	0x3e5cf237	0.21576773
43	0xbe375896	-0.17904887
44	0xbd1d1d9b	-0.038358312
45	0xbd591c88	-0.053005725
46	0x3dc34dea	0.09536345
47	0x3d66190b	0.056176227
48	0xbe22c7e8	-0.1589657
49	0x3df9d70e	0.121992216
50	0xbcd5bc8b	-0.02609088
51	0xbe2ba187	-0.16760837
52	0x3e7736ea	0.24142042
53	0xbe313a67	-0.17307435
54	0xbdd52888	-0.10408121
55	0x3e676d1c	0.22600216
56	0xbdaf3585	-0.0855513
57	0x3e11f8bb	0.1425504
58	0xbda0b3aa	-0.07846768
59	0xbdcd6cba	-0.100305036
60	0x3e6830b3	0.22674827
61	0xbe70d7b3	-0.23519783
62	0x3d292aa0	0.041300416
63	0x3c03f6a7	0.008054412
64	0xbe29b14d	-0.16571541
65	0x3d0a916f	0.033830103
66	0xbdb50eba	-0.088406995
67	0x3d911356	0.07083766
68	0xbe044ae9	-0.12919201
69	0xbe2fc0f9	-0.17163457
70	0xbe5a90ef	-0.2134435
71	0x3d7bccb7	0.06147453
72	0xbaa84d0c	-0.0012840345
73	0xbd636801	-0.055519108
74	0xbe3947a8	-0.18093741
75	0x3c0a7337	0.008450321
76	0xbe47deee	-0.19518635
77	0x3d9e29ca	0.077228144
78	0xbd1e827e	-0.038698666
79	0xbe074b36	-0.13212284
80	0x3dc63069	0.09677202
81	0xbe303e70	-0.17211318
82	0x3b2c2111	0.0026264826
83	0x3e0ee9d1	0.13956381
84	0x3e5950f2	0.21222284
85	0xbdbf3fe9	-0.09338362
86	0xbe5720ae	-0.2100856
87	0x3e28c58b	0.16481607
88	0x3d094202	0.033510216
89	0xbe72e4b1	-0.23720051
90	0xbc3e058f	-0.011598005
91	0x3c825047	0.01590742
92	0xbd760fe9	-0.060073767
93	0x3e2bb51e	0.1676831
94	0x3d443486	0.047901653
95	0xbe0fdca9	-0.14049019
96	0xbcf9767c	-0.030452006
97	0x3b403a66	0.0029331683
98	0xbdfbdcc6	-0.122979686
99	0xbe003e8f	-0.12523864
100	0xbd00da6b	-0.0314583
101	0xbce77bf0	-0.02825734
102	0xbe253cdd	-0.16136499
103	0x3e55d497	0.20881878
104	0x3e7ac2cf	0.24488376
105	0xbe2eb4ff	-0.17061232
106	0x3e07bda7	0.1325594
107	0xbe3fb568	-0.18721545
108	0x3d83e37f	0.06439876
109	0x3e7ce661	0.24697258
110	0x3d175ee9	0.036955748
111	0xbe442011	-0.19152857
112	0xbc00c631	-0.0078597525
113	0xbe461eb0	-0.19347644
114	0xbe50feea	-0.20409742
115	0xbd8df048	-0.06930596
116	0xbe28bcb0	-0.16478229
117	0x3daca560	0.0842998
118	0x3d3f2816	0.04666909
119	0xbe64fe32	-0.22362593
120	0xbd2617c0	-0.040549994
121	0x3e6f2e04	0.23357397
122	0x3e32b2bf	0.17450999
123	0x3e105206	0.1409379
124	0x3db9fed8	0.09081811
125	0xbe4b5f4e	-0.19860575
126	0x3e5fccad	0.21855421
127	0x3e6d546a	0.23176733
128	0xbd88c0bf	-0.066773884
129	0xbe5b1564	-0.21394879
130	0xbd250401	-0.04028702
131	0xbbacfcf0	-0.005279176
132	0x3e327a83	0.17429547
133	0x3e09baf6	0.13450226
134	0xbe5434c8	-0.2072326
135	0xbe121ae2	-0.14268067
136	0x3d0fc3c7	0.035098817
137	0x3e3b20ef	0.18274282
138	0xbc9098cb	-0.017650982
139	0xbe806eb0	-0.25084448
140	0x3de5cb0c	0.11220369
141	0xbd566a6b	-0.05234758
142	0x3d8e0b5b	0.0693576
143	0x3de112a3	0.10989883
144	0x3df69f1e	0.12042068
145	0x3c83407b	0.016021958
146	0x3dae1e63	0.085018896
147	0x3da512c7	0.08060222
148	0xbdbe644b	-0.09296473
149	0x3d795ec3	0.060881387
150	0x3e254950	0.16141248
151	0xbe401028	-0.18756163
152	0x3d50f591	0.05101544
153	0x3e469a2e	0.19394752
154	0x3de736ba	0.11289735
155	0xbde9553a	-0.11393209
156	0x3d909fee	0.07061754
157	0xbb0ccf4f	-0.002148587
158	0x3e58f6eb	0.21187942
159	0xbe0aebc7	-0.13566504
160	0x3df7d7f7	0.12101739
161	0x3cbb21c6	0.022843253
162	0x3ccae836	0.02476893
163	0x3ad30b12	0.0016101322
164	0xbe5248a0	-0.20535517
165	0x3dcdb0b6	0.100434706
166	0xbe1f83ad	-0.15577574
167	0x3e76fac7	0.24119101
168	0x3da76110	0.0817281
169	0xbdfd505a	-0.123688415
170	0x3e44ac06	0.19206247
171	0x3e33c970	0.17557311
172	0x3e68bc7d	0.22728153
173	0x3df8da0f	0.121509664
174	0x3d62a91f	0.055337068
175	0xbe07cff6	-0.13262925
176	0x3e6828f9	0.2267188
177	0x3df54b92	0.119773045
178	0x3df2791b	0.11839505
179	0x3e687509	0.22700895
180	0x3e30de96	0.1727241
181	0xbe0758c3	-0.13217454
182	0x3e352046	0.17688093
183	0x3dbcd264	0.09219816
184	0xbdd16fbc	-0.1022639
185	0x3e4e914a	0.20172611
186	0xbdb99b2b	-0.09062799
187	0xbd953322	-0.072851434
188	0x3cd2ffbf	0.025756715
189	0x3ca4b205	0.020104418
190	0x3e439c9f	0.19102715
191	0xbde2be4c	-0.110714525
192	0xbe6591be	-0.22418877
193	0x3dc594ff	0.096475594
194	0xbe2260e2	-0.1585727
195	0xbe52373e	-0.20528886
196	0xbe3c0886	-0.18362626
197	0xbe39eaf7	-0.18156038
198	0xbd8ec6ed	-0.06971536
199	0xbe2deb60	-0.1698432
200	0x3e25cff0	0.16192603
201	0xbdd716c8	-0.10502392
202	0x3e22413d	0.15845199
203	0xbe14a4f6	-0.14516053
204	0x3e1e8ad2	0.15482643
205	0x3cd2906c	0.025703631
206	0xbe7720ae	-0.2413356
207	0xbdd8fb75	-0.105948366
208	0x3e6e3536	0.23262486
209	0x3e62c43b	0.22145168
210	0x3e3d38b5	0.18478663
211	0x3e454858	0.19265878
212	0x3d4bc3ec	0.049747393
213	0xbe50edfc	-0.20403284
214	0xbda3ed22	-0.08004214
215	0xbe43a869	-0.19107212
216	0x3df7707c	0.120820016
217	0x3e19286c	0.14956826
218	0x3dae0400	0.08496857
219	0x3e598411	0.21241786
220	0xbd1a5be4	-0.03768529
221	0x3e080d8a	0.13286415
222	0xbc872d84	-0.016501196
223	0xbd302cf8	-0.043011636
224	0xbe2ce847	-0.16885482
225	0xbe228b3d	-0.15873428
226	0x3cec2ffc	0.028831474
227	0xbe07373f	-0.13204668
228	0x3d033172	0.032029577
229	0xbde8cb3c	-0.11366889
230	0xbcc558a8	-0.024090126
231	0xbe382db8	-0.1798619
232	0xbe4500d3	-0.19238596
233	0x3ddffd03	0.1093693
234	0x3e3ef04a	0.1864635
235	0xbcbdffc4	-0.023193248
236	0x3d597284	0.053087726
237	0x3d85a970	0.06526458
238	0x3e58a0ec	0.21155137
239	0xbcbfba8e	-0.023404386
240	0x3e793742	0.24337485
241	0x3c9c114c	0.019051217
242	0x3e2739b8	0.16330612
243	0xbc30121c	-0.010746505
244	0xbde29e2d	-0.11065326
245	0x3c6bbf92	0.014388936
246	0xbe55fc89	-0.20897116
247	0x3d57b50f	0.052662905
248	0xbd4d5f37	-0.050139632
249	0x3db09d01	0.08623696
250	0xbe657766	-0.22408828
251	0x3e444848	0.19168198
252	0xbd62676f	-0.055274423
253	0xbcbd161b	-0.02308183
254	0x3d19cbd7	0.037547912
255	0x3e5b0d9d	0.21391912
