Params/301_0.001_10_16_222_model.pt (torch, 45301 bytes, 31 tensors)

lstm_p.weight_ih_l0 f4 [64, 10]
00000000: ba99 c5bd 5344 d6bd cbbf 25bd 5944 a2bb
00000010: 49d4 6c3e e2c3 eebd ac7d b03d b9ba 3c3e
00000020: 1889 8dbd ebd5 a1bd 3e56 ea3d 5380 0f3d
00000030: b65b 9dba d883 7c3e 6f24 cd3b 46db f9bd
00000040: 8b0f 0fbb bc7f 613d 9b19 7c3d b54a c43d
00000050: 3a92 c53c 4168 113d e8a8 4fbe 2854 363e
00000060: b8e5 1abe 8806 c1bd a7d0 a23d bba1 2fbd
00000070: 5d19 263e 9803 bd3d a122 593e dec6 843d
00000080: c190 6c3d 6626 283d bd1a 26be d531 003d
00000090: cf3e a83d 2fc3 63bd 04c3 0abe 16fb 1abe
000000a0: 23cc 0c3e d9dc 34be f9c6 753e eeb1 f4bc
000000b0: 9e61 843d 768e 293e af26 3a3e ee7d 8f3d
000000c0: 6c8c 51be 632e 983a 19c6 bfbd 2a62 51be
000000d0: c689 a0bd b4f1 043e 0de3 243d 14df 6b3e
000000e0: 9959 07be bb22 013e 8698 523e 9e36 1fbe
000000f0: 5721 553e 9a27 bb3d 7cc7 f2bc 55f8 a8bd
00000100: df6a 17be d70e 443e f169 8c3d b3d1 0dbd
00000110: 0f46 603e 5f4e 15be 82a8 fbbd 00a4 e2bd
00000120: 0143 663e 6312 4bbe abd5 523c 6d55 8cbc
00000130: 403f 11bd d8c1 56be 639e f43d 89f4 0abd
00000140: bcbb 5ebe 0c96 c1bc 32e7 3cbe 3955 903d
00000150: 8ee0 e63d 67d7 f4bd 0313 5c3e c6f3 153d
00000160: 9e25 64be c2f8 983c 3496 853b 289e 043e
00000170: 1ecd 60be ad9c 043d 13a4 0fbe 7c00 133d
00000180: 3620 3bbe 76ab cd3c 4678 5bbe 1764 953d
00000190: 306d 403d b928 483e 5fcd 733e ee08 993d
000001a0: a398 c0bd dabd 9abd 1a8e 113e 8755 0c3e
000001b0: f4b0 f43b e16c 22be 988d 0bbe f32f 383d
000001c0: 1582 be3d 2585 113e 08cb 193e 6c00 3e3e
000001d0: 3088 a33a e14b 243e 3c83 b23d 1250 7c3e
000001e0: 00e2 293e 2677 1f3d aaf8 dc3d aed5 82bd
000001f0: 20fe 4bbe 900b c53d 6038 753e 6822 f83d
00000200: 4709 553c 93be 56be 2bbf 52be 032f c63d
00000210: 203e 8e3d 75d9 123e 426f 0a3e 329e 8ebc
00000220: b8fb 5dbe 389a cf3d 9e2d 4abe cb99 693d
00000230: ac59 223b 7465 213e d938 803e b6c3 8d3b
00000240: 9bc7 163e 81de 163d 9c88 1b3e ce2f bfbd
00000250: 8895 55be ad0d 89bd c1ba 263d d6ef 0a3e
00000260: 306f 333e b9e7 eebb 31a2 c53d a70e c53b
00000270: da3d 633e 99c1 b73d 882e 9d3c 0804 fcbb
00000280: a915 983d 08ab 68bd ea90 6f3e df24 133e
00000290: 729e 96bd 5921 d53d e6ca d9bd 0808 4dbe
000002a0: 555a 60be 30d8 64be 529b d5bd fb76 cfbd
000002b0: 3447 63bd e4f4 553e d78c 353d 7cb5 fd3d
000002c0: 08e1 553d c772 a23d 280f 97bc 32b6 833b
000002d0: 95c0 7e3e 5d53 523e f302 2c3b 3d26 a43d
000002e0: 2408 163e 2544 0d3e ff5f 1f3e 0217 94bd
000002f0: 8e16 e13d 19e4 be3c 70db b13d 8313 65bd
00000300: 4382 143e 07d3 30be 4552 103e 4728 8b3d
00000310: f3d0 023e a240 dfba 18aa f0bd 0f69 b8bb
00000320: 27c4 fa3d 63c4 6a3d 1cea 6dbe 8617 52be
00000330: f05e 763e 2399 19be 2dd8 77bd 7333 26be
00000340: 985c bd3d af6f 5bbe 7df0 293e c9db 1dbe
00000350: 35d6 75be 2a8d edbc f608 853d 64cf cfbd
00000360: 4127 db3d 2b7e 5bbe 6600 613e 857e 4fbe
00000370: 78b5 383d 0946 7bbd ea18 d0bd ace5 423e
00000380: 3b6e 423e 9c97 373e e423 2bbe d1d7 47be
00000390: 5d63 6ebe 5e54 e53d 0f4c 94bc d349 f2bd
000003a0: 8f50 0bbe 45ff f43d 8657 3cbd a060 173d
000003b0: 5f3b 4ebe 3220 6b3e 9e73 7bbd 1136 e03d
000003c0: da61 49be 705c 403e 6cdb 493e 128b 08be
000003d0: 351d cbbd 5d89 1fbe 06c2 6d3e cda6 0f3e
000003e0: a4a8 d43d aa65 dc3d 6ddd 47be d79b ebbd
000003f0: ec07 36be f6e4 a5bd 514a 96bd 618d 133e
-0.09648462 -0.104622506 -0.04046611 -0.0049519953 0.23127855 -0.116584554 0.0861772 0.18430604
-0.06910914 -0.0790213 0.11442231 0.03503449 -0.0012005481 0.2465967 0.0062604467 -0.12200026
-0.0021829333 0.055053458 0.061547857 0.09584562 0.024117578 0.035499815 -0.20279276 0.1780554
-0.15126693 -0.09425074 0.079499535 -0.042878848 0.16220613 0.09229201 0.21204616 0.064832434
0.057755236 0.041052245 -0.16221137 0.031297524 0.08215105 -0.055606063 -0.13550955 -0.15134844
0.13749747 -0.17662372 0.24001683 -0.02987 0.064639315 0.16558251 0.18178819 0.07006441
-0.20463723 0.0011610504 -0.09363956 -0.20447603 -0.07838778 0.12982827 0.040255595 0.23034316
-0.13217773 0.12610905 0.20565996 -0.15548179 0.208135 0.09138413 -0.029636137 -0.082504906
-0.14786862 0.19146286 0.06856144 -0.034623813 0.21901725 -0.14580677 -0.12288 -0.11066437
0.22486497 -0.19831233 0.012868325 -0.017130578 -0.03546071 -0.20972383 0.11944272 -0.033924613
-0.21751302 -0.023631118 -0.18447569 0.07047505 0.11273299 -0.11955147 0.21491627 0.036609434
-0.22279975 0.018673304 0.0040767435 0.12950957 -0.21953246 0.03237598 -0.14027433 0.035889134
-0.18274006 0.025106173 -0.214326 0.07294481 0.04697913 0.19546784 0.23808812 0.07472406
-0.09404113 -0.075557426 0.14214364 0.13704501 0.0074673835 -0.15861847 -0.13628232 0.044967603
0.09302155 0.14210947 0.15018857 0.18554848 0.00124765 0.1604457 0.08716437 0.2463992
0.16590118 0.03893199 0.107896164 -0.063884124 -0.1992116 0.09621346 0.23947287 0.121159375
0.0130027 -0.20971136 -0.20580737 0.096769355 0.06945443 0.14340766 0.13519004 -0.017409418
-0.21678054 0.10136837 -0.19743964 0.057031434 0.0024772687 0.15761358 0.2504337 0.004326309
0.14724581 0.03683329 0.15188831 -0.0933529 -0.20857823 -0.066920616 0.040705446 0.13568053
0.17522883 -0.007290807 0.09650076 0.0060137096 0.22191563 0.08972473 0.019187227 -0.0076909102
0.07426006 -0.056803733 0.23395124 0.14369534 -0.0735444 0.10406751 -0.10634403 -0.20022595
-0.21909459 -0.22348094 -0.104300156 -0.101301156 -0.055487826 0.208942 0.04432377 0.12388131
0.05221656 0.07932048 -0.018439844 0.004019522 0.24878152 0.20539613 0.0026246875 0.08015106
0.14651543 0.13795526 0.15563963 -0.07230951 0.1099063 0.023302125 0.086844325 -0.05592681
0.14502816 -0.17268 0.14093883 0.06794792 0.1277502 -0.0017032812 -0.11751193 -0.0056277583
0.12244444 0.057316195 -0.23233837 -0.20516786 0.24059653 -0.14999823 -0.060508896 -0.16230564
0.092461765 -0.21429323 0.16595645 -0.15415873 -0.24007495 -0.028997976 0.0649585 -0.101469785
0.107008465 -0.21434848 0.21972808 -0.20263107 0.045094937 -0.061346088 -0.10161002 0.19032925
0.18987362 0.17928928 -0.1671291 -0.19515921 -0.23280092 0.111977324 -0.018102674 -0.11830487
-0.1360495 0.11962751 -0.045981906 0.036957383 -0.20139836 0.229615 -0.061389558 0.10947812
-0.19666234 0.18785262 0.19712609 -0.13334301 -0.0991768 -0.15579744 0.23218545 0.14028473
0.10383728 0.107615784 -0.19518061 -0.115043335 -0.1777646 -0.081003115 -0.073383935 0.144094

lstm_p.weight_hh_l0 f4 [64, 16]
00000000: bf09 e3bc 55e6 b33b c2cb adbc 4181 853e
00000010: 7ed5 583e 475e 2abe fa5d 3e3d eb36 f23c
00000020: 4860 113e 81b3 5dbd c8a7 d73d 1f15 e03d
00000030: 6060 d53c fa8b 443e 42e4 8e3d 9fa0 543e
00000040: 0574 373e fc4f 6cbe 1c4c 06be 7c37 efbc
00000050: 13b0 173e 5c23 3ebe 1d68 173e f5cb ca3d
00000060: 23f6 573d 800d 543e 65a2 583c 9b8d 38be
00000070: 3c9d ed3d 294a 66be 0415 6cbe 6982 b63d
00000080: 5952 563e 1812 6cbe ceae 253e d036 383e
00000090: 44f6 28be 7f52 4dbe 9a8c 853c cec0 213e
000000a0: 154e 1e3d 2af3 2bbe 7ef4 86bd 5911 f4bc
000000b0: 005b 7e3e 8fd8 f9bd 1925 30be 5f86 2abd
000000c0: 1790 06be 114d 13bd 7bb5 fa3c ff05 d6bd
000000d0: 8e81 e43d 2251 65be 1afc 233e 2306 ad3d
000000e0: 0c3f 003e 7cbd 85bd a000 ad3d 5fde cc3d
000000f0: c37e b83c a618 b1bd 4dad a8bd 1e14 1a3e
00000100: 1f98 623e 934d 5abb 83d1 4bbe 6a63 643b
00000110: 0de8 6cbe 4314 e73d ce41 84bd 32a9 9a3d
00000120: 8d21 fabd c901 093e 1f44 27be 9517 333e
00000130: 2fd7 2b3e a416 5a3e 38cf cf3d 0e79 1dbe
00000140: 0fee 63bb a135 2d3e 7343 22be 6bd5 32be
00000150: 8b9e 9c3d e123 03be c93a 6bbe bc37 1f3e
00000160: 7095 213e 33a3 1fbe 316e d0bd 9b67 f63c
00000170: 18db ffbd f6be 66be f9c3 d13d 126f a03d
00000180: 05d2 4dbe 1043 8cbb 923c 773c 289b 02be
00000190: 662c 5d3e ac5c a33d 4037 803e c061 0d3c
000001a0: a5ef 05be bd41 0abb 2374 4cbe d7f4 273d
000001b0: 80da 64be 49be 533e 4e64 4fbd f990 fe3d
000001c0: 9e64 3a3e bee4 4fbe 5eaa 6b3e d9a5 57be
000001d0: 765e 6f3e b8fc 6ebd 6f40 af3d c85f 9f3d
000001e0: e828 813e 2504 4a3e dda4 293e 817b 453d
000001f0: 71b6 c6bd c2cd 503c 8932 493c 370b 2c3e
00000200: 0005 3cbe 2e4a 2d3e 481f 0f3e b13c 8a3e
00000210: e2d6 463d 836f 5b3e 7c2f 42be 97ec 45be
00000220: 1912 e83c de8d d03d e4f9 293e 9682 56be
00000230: 57c5 3ebd da6f 22be 4579 44bc c007 303c
00000240: fb0e 3ebe f160 d1bc d06c 25be 439d d1bd
00000250: 7cf8 1a3d 56b3 343e 7081 243d dba9 08be
00000260: 53be 24be 7cf1 80bd 16aa 213d 7784 24be
00000270: 8e84 6e3e a21b f23d 71ca 5d3e 7401 1e3d
00000280: a26e 29be 1875 2f3e 6cb1 18be b4ef 583e
00000290: b404 233d 4e86 373e ff65 7bbe 3b5e d2bd
000002a0: 7da8 043e 15bb 1bbe cd2e 4c3e 1b0a bcbb
000002b0: 03dd 4ebe 609b d93d 5ffc c23c 6efe b9bd
000002c0: 42cc 97bd cc42 403b 755a a6bd 5d1b 6b3e
000002d0: e8ed 48be 6a59 203c 1ca7 0fbe bbff dfbc
000002e0: 6e49 f6bd 85cb 7d3e 6404 03be 0260 523e
000002f0: 26de adbc 70c0 f0ba af1d 5bbd c68b 54bc
00000300: b948 8abd 7b5e cbbd 3b50 3fbe 337c 75bd
00000310: 26ea 1bbe a655 293d d21c c9bc 8ab5 23be
00000320: 8eb6 7cbe 45b3 09be cffa 3f3e d3ce c23d
00000330: f55f 153e 2956 8abd 48c4 333e 2ee1 4a3e
00000340: a484 f4bd 13c1 05be 248a 083e 40a1 093e
00000350: 2505 95bd d302 d73d a8a4 e23d 1fd9 d2bd
00000360: ee90 41be 37ac 75bd a523 2dbe e9ca 5e3e
00000370: 2307 083e f858 743e e16d 313e 7ebb aa3d
00000380: 366e 5b3c 0773 4d3e fb42 b33d 0db6 223d
00000390: 3460 213e 415e 393e 600d d4bd c0a0 89bd
000003a0: 33ee 79bd 2f81 4ebe d4ff 34be 068c 65be
000003b0: f999 ee3c 020a 4abd 3ccc f53d 40be 723d
000003c0: b675 11be ec14 563d 8fcc 59be 73aa d43d
000003d0: 146b 1e3e 95db 2ebe 46dd 2e3c 636b ef3b
000003e0: 676d 463d 1f8f 363e 95ea 2fbe 8052 23be
000003f0: ab3e 023d 9b12 51be 988b 12be bdea ab3d
-0.027714608 0.005490104 -0.021215323 0.26075175 0.21175191 -0.16637526 0.04647634 0.029567203
0.14196885 -0.054126266 0.105300486 0.109415285 0.026046932 0.19194022 0.069771305 0.20764397
0.17915352 -0.23077387 -0.13114971 -0.029201262 0.1481326 -0.18568176 0.1478581 0.09902183
0.05272497 0.20708275 0.013222312 -0.18022768 0.11602256 -0.22489227 -0.23054892 0.089115925
0.2092985 -0.23053777 0.16179964 0.1798966 -0.16500193 -0.20051001 0.016302396 0.15796205
0.038648684 -0.16791978 -0.06589602 -0.029793428 0.24839401 -0.121995084 -0.17201652 -0.041632053
-0.13140903 -0.035962168 0.030604115 -0.104503624 0.11157523 -0.22394231 0.16014138 0.08448436
0.1252405 -0.06530282 0.08447385 0.100033514 0.022521382 -0.086472794 -0.082361795 0.15046737
0.22128342 -0.0033310398 -0.19904141 0.0034849294 -0.23135395 0.112831615 -0.06457864 0.07551803
-0.122134306 0.13379587 -0.1633458 0.17489465 0.16781305 0.21297699 0.10146946 -0.1537821
-0.0034779345 0.16914989 -0.15846042 -0.17464225 0.07647427 -0.12806655 -0.22971644 0.15548605
0.15779662 -0.155896 -0.10177267 0.0300787 -0.12492961 -0.22533783 0.10242457 0.07833685
-0.20099647 -0.0042804554 0.015090125 -0.127545 0.21598968 0.0797666 0.25042152 0.008629262
-0.13079698 -0.0021096312 -0.19966178 0.04100498 -0.22348976 0.20678057 -0.050632767 0.12429995
0.18202445 -0.20302102 0.23014209 -0.2105936 0.23375878 -0.05834648 0.085572116 0.07781941
0.25226521 0.19728144 0.16566797 0.048213486 -0.09702767 0.012744369 0.012280115 0.16801153
-0.18361282 0.16922829 0.13976777 0.2699943 0.048544772 0.21429257 -0.18963426 -0.19328533
0.028328942 0.10183309 0.16599232 -0.20948252 -0.046574917 -0.1586298 -0.0119918035 0.010744035
-0.18560402 -0.02555892 -0.1615479 -0.102350734 0.03783463 0.17646536 0.040162504 -0.13346045
-0.16088228 -0.062960595 0.039468847 -0.16066156 0.23292753 0.11821677 0.21659257 0.038575605
-0.1654611 0.17134511 -0.14911431 0.2118519 0.039799407 0.17922327 -0.24550627 -0.10271879
0.12954898 -0.15208085 0.19939728 -0.0057385094 -0.20201497 0.106253386 0.02380198 -0.09081732
-0.07412006 0.002933669 -0.08122722 0.22959657 -0.19622004 0.009786943 -0.14028591 -0.027343621
-0.12025724 0.24784668 -0.12794644 0.20544437 -0.021224093 -0.0018367898 -0.053495105 -0.012972778
-0.06752152 -0.0993013 -0.18682949 -0.0599329 -0.1522604 0.041341446 -0.024549875 -0.1598722
-0.24679014 -0.13447292 0.1874802 0.09512105 0.14587386 -0.06754715 0.17555344 0.19812462
-0.11939362 -0.13061933 0.13333946 0.13440418 -0.07276372 0.104985856 0.11066562 -0.10295319
-0.18902943 -0.05997869 -0.16908129 0.21757092 0.13283972 0.23862064 0.17327072 0.083365425
0.013392976 0.2006341 0.0875301 0.0397244 0.15759355 0.18102361 -0.103541136 -0.06720114
-0.06101818 -0.20166467 -0.17675716 -0.22416696 0.029126154 -0.04932595 0.12001845 0.059263468
-0.1420506 0.052266046 -0.21269439 0.10384073 0.15470535 -0.17075951 0.010672873 0.0073065027
0.048444178 0.17828034 -0.1717933 -0.1594944 0.031798046 -0.20417254 -0.14311063 0.08394382

lstm_p.bias_ih_l0 f4 [64]
00000000: b983 2abc 6c0b 4cbe 9dd9 38be 9c48 cabd
00000010: b8e8 103e b667 3cbd fe59 5bbb 82ca 43be
00000020: 0a91 453e 3e3d 83be 49b0 d93d 7934 893d
00000030: 4158 803e a3bb 1fbe d8f3 173e 07d2 053e
00000040: ff8a 15be df0b 503e 0a75 1ebe d2f4 39be
00000050: 3eb2 5dbe 429e 523e 7197 623d 64a1 9c3a
00000060: 0f31 3c3c 15b0 343e 8b4f bebc 4db6 2c3d
00000070: 40fb f7bd 902f 40be b2f8 5cbe e46f 0a3e
00000080: a4b6 bdbd 9475 febd 56de 2a3e dd36 673e
00000090: a69f 813c eb4d a1bd 7f03 6ebe 7daa 5fbe
000000a0: 5067 fa3d ec2b 1dbe 7084 5bbe eb49 58be
000000b0: dbba 69bd 8871 053e ec2d 283e f9e2 81bd
000000c0: 22b8 563e 33b5 5b3e 6855 023e ef2c 653e
000000d0: 4790 80be 8708 a23d 22b7 56be 8f2d 00bc
000000e0: f7b9 853d 91f7 923d 3933 f0bc 5502 743d
000000f0: a324 03be bfc0 2b3e ae2c adbd 657b 1bbe
-0.010407382 -0.19926232 -0.18051763 -0.098771304 0.14151275 -0.045997344 -0.0033470388 -0.1912022
0.1929361 -0.25632662 0.10629327 0.066994615 0.25067332 -0.15598921 0.14839113 0.130684
-0.14603804 0.20317028 -0.15474334 -0.18159798 -0.21650025 0.20568183 0.055320207 0.0011949954
0.011486306 0.17645295 -0.023231288 0.042166043 -0.12108469 -0.18768144 -0.21579245 0.13519245
-0.092633516 -0.1242477 0.16686377 0.22579522 0.015823197 -0.0787619 -0.23243521 -0.2184238
0.122267365 -0.15348786 -0.2143724 -0.21121947 -0.057062965 0.1303159 0.16423768 -0.0634212
0.20968679 0.21455841 0.12727892 0.22380422 -0.25110075 0.07911783 -0.20968297 -0.007823362
0.065296106 0.07176126 -0.0293213 0.059572536 -0.12806945 0.16772746 -0.084557876 -0.1518379

lstm_p.bias_hh_l0 f4 [64]
00000000: 2427 6fbe 26d0 35bc e4fc b9bd b4ea 993d
00000010: 229a b5bc b738 8b3d cd76 4abe 3256 6a3e
00000020: 4b46 eebb a236 4dbe 738a 443e c763 e03c
00000030: 4141 a23b a5bd 06be 90db 7cbd 8316 3f3d
00000040: 74cd 043e 8fb8 72be a72f 4a3d 7a8d 4f3d
00000050: 00f2 043e c64e c23d b5b6 6f3d 9327 543e
00000060: 46c1 90bd a057 de3c ac80 a5bd c575 603d
00000070: 7c1a cfbd 2a12 a73d f64a 323d cdc0 3e3c
00000080: ea50 6bbe f256 2e3e 9454 70be 2a18 623d
00000090: 0683 17be 5f14 25be 127f 0bbc 357f 2bbe
000000a0: 38d5 f8bd 0810 1fbe be52 2e3e 95db c6bd
000000b0: 7748 ba3d 02f3 fcbc b072 4cbe 8fae f63d
000000c0: 50f1 e6bd 312b 163e 6656 4ebe 23a3 84be
000000d0: 1541 913d 8265 31bd 78a8 23be 53ca 733e
000000e0: 6199 733e 3e1b 7dbe ad84 503e cad2 0d3e
000000f0: 422c 6ebd b99d cfbd 9a75 b73d ef90 4fbd
-0.23354775 -0.01109699 -0.09081438 0.07515469 -0.022168223 0.06797927 -0.19771881 0.22884443
-0.007271563 -0.20040372 0.19193439 0.027391328 0.0049516265 -0.13158281 -0.06173283 0.04665233
0.12968999 -0.23703216 0.04936185 0.050672032 0.1298294 0.09487681 0.058523852 0.20718221
-0.07068114 0.027141392 -0.08081183 0.054799814 -0.10112473 0.081577614 0.04352852 0.011642647
-0.22980085 0.17025355 -0.23469764 0.055198826 -0.14796075 -0.16121052 -0.008514183 -0.16747744
-0.12150043 -0.15533459 0.17023751 -0.09709851 0.09095853 -0.030877594 -0.19965625 0.12045013
-0.112764955 0.14664914 -0.20150146 -0.25905713 0.070924915 -0.043309696 -0.15982234 0.2380765
0.23788978 -0.24717423 0.20363112 0.13849941 -0.058147676 -0.10137505 0.089579776 -0.05067533

lstm_p.weight_ih_l1 f4 [64, 16]
00000000: eb3d 81bd 81b7 8c3d bc64 6a3e b7f4 c53c
00000010: 65f5 2dbe 2a03 c03d 2137 4e3e e38d 643e
00000020: ea52 573e c2e9 e0bd 09a3 17be 2c57 0a3e
00000030: dd2c b73d 4da3 493e 967d dabd 3ce7 d5bd
00000040: c963 72bd 94e4 353e 420c bd3d 0688 803e
00000050: 9d47 06be 6a12 a7bd 0d02 ed3d b7cd 71bd
00000060: 1f90 473e d04e 83bd 543e 223e 7be1 273e
00000070: baf3 453d b356 70bd 2322 2dbe 24fe 06be
00000080: f4ef 0cbe d2b2 39be f62f 393e f969 d73d
00000090: e0c8 d0bd a079 4e3e c36f f03b a570 2abc
000000a0: a1bf 243e 62f6 713e 529c 253e 665c d9bd
000000b0: 7bbd 6dbe bcc8 ecbd 6dab 73bd 3552 f83d
000000c0: 47e6 1d3e 9958 6dbe c97c 503e d487 623e
000000d0: 7991 93bd 764c 5b3e 4954 1a3e 2134 1ebe
000000e0: 4827 b0bd 2177 40be 4f49 6b3e cbcb 343e
000000f0: f00a 2f3e b8d7 023e e3c4 303e f39f 2a3e
00000100: b66c 61bd 8071 b0bd db89 3f3e b895 d2bd
00000110: a71d 023e 224f c4bd aa57 43be f548 48be
00000120: ce04 6c3e aeef 653e 94d5 5abe 85c2 4b3c
00000130: 12c4 5d3e bef6 1dbe 68e5 273c cca4 033e
00000140: c495 113e 8f42 babd 331d 6fbd df4a 8a3d
00000150: f3f0 263d 95ae 5fbd 5053 453e 4102 0fbe
00000160: b004 f4bd ee4d 553e f08b 9abc b2f1 31bc
00000170: dbac 083e 7aa5 d83d 81a5 a3bc 04f8 d83d
00000180: 5c27 033e 1e56 b6bd 453f 1b3e 981e 1b3e
00000190: e03f 73be 9b01 12be db12 553e 1822 973c
000001a0: c3f2 0e3e 8a08 d43d bbbe aabd 5c23 b6bd
000001b0: 7215 58be d9a6 29be 09cc 6e3e a722 60be
000001c0: bdb6 0a3e ab54 023e ec87 593e 0f91 87be
000001d0: 5c5d e53d 2cd4 e83d 5991 443e 8047 6c3e
000001e0: 3445 023e c2e7 973d c1ba 0cbd 7aac 65be
000001f0: 69b3 b83d 6298 d7bd 041b 183e f267 54be
00000200: 8c18 13bd 36ba 173e 6caa 2f3d 8963 a9bc
00000210: 3e86 9c3d d16d 983d d7c5 68be 766a 66bc
00000220: 78bb dc3d 96ea 473e 396b 043e 4126 3a3d
00000230: 026a 453e 16a2 2b3e bc34 96bd da5e da3c
00000240: f56e a2bd 711f e4bd 9ec0 493e 71ec 033e
00000250: 504d 603e d592 a93d 6965 19be 35e8 c0ba
00000260: cf0b 013d 2959 ae3c 352c 5ebe 02bd 2bbd
00000270: 5994 0ebd 61dc 57be 1b37 4cbe 2e20 483e
00000280: 24fb 5abe ba7c 583d 06f5 b53a a4f7 76be
00000290: 9743 45be 304f e0bb b20e 63be 61b6 bd3c
000002a0: 5081 223e 9adb e0bd 8fe2 533d 5fe0 afbc
000002b0: 20cf 633e fdc3 a3bc 125a c1bd a88b 51bc
000002c0: b036 f2bd 839a 10be 3399 b3bd d1f7 3c3c
000002d0: 166a 803e d87b 35be c5a8 6d3d 5c79 0a3e
000002e0: 9b29 703e 2541 333e cc34 2b3e da16 52be
000002f0: 589c 583e b92c 4dbe d566 b53d 961e 563d
00000300: e4b3 d73d 9d9a 9abb 580e c9bc 192c 07be
00000310: 4dfb 483e 8861 03be 3ecf 4cbe b479 773e
00000320: 289e dfbd b43d 38be ae27 22be a0b5 08be
00000330: 451d 1d3e af6a 5dbe 124b 5abe 81e8 363e
00000340: 70a6 55be 5b23 26be a09e c4bc 18a2 60be
00000350: 1756 463e 590b 0d3e 587a 703e 8a8a 2bbe
00000360: e002 35be 5af9 ecbd cf08 fe3d c169 443e
00000370: c4df 2fbe bac8 bf3d c36b 0e3e efbb 5f3e
00000380: 4c30 d83d 6bfe 5f3e 9637 0abe 43e9 f83d
00000390: 3aff 6bbe 882b 113e 01fe 8e3c a70f 68be
000003a0: 84d7 323c 945b 4a3e 2a76 9f3b 7e4f 103e
000003b0: 525b b83d 3b4a 36be 4c1f afbd 0b1d 483e
000003c0: 83df 0c3e b378 1a3e 31c4 f43c 8102 71bc
000003d0: cda7 a23d 6ece 29bb 966a 33bd bf43 60be
000003e0: 87bd 87bd 04c3 af3c fe42 823d 6f3a 053e
000003f0: 40f0 553d 9193 98bc 0f2d 213e 66c5 bd3d
-0.06310638 0.06870938 0.2288999 0.02416454 -0.16988142 0.093756035 0.20138218 0.2231975
0.21027723 -0.10982086 -0.14808287 0.13509816 0.08944104 0.196912 -0.10668485 -0.10444495
-0.059177194 0.17762977 0.092308536 0.25103778 -0.13113256 -0.08157809 0.11572657 -0.059034076
0.19488572 -0.06411517 0.15844089 0.16394608 0.04832814 -0.058676433 -0.16907553 -0.13182884
-0.1376341 -0.18134621 0.18084702 0.105182596 -0.10194564 0.20163584 0.007337542 -0.010402833
0.16088726 0.23629144 0.16172913 -0.10613327 -0.23216812 -0.115617245 -0.059489656 0.12125055
0.15419875 -0.23178329 0.20360102 0.22122127 -0.07205481 0.21415886 0.15071215 -0.15449573
-0.08601242 -0.18795444 0.22977184 0.17655866 0.17094016 0.12777603 0.17262606 0.16662578
-0.055035315 -0.086153984 0.18704931 -0.10282463 0.12706624 -0.09585406 -0.1907641 -0.19559081
0.23048708 0.22454712 -0.21370536 0.012436514 0.21656826 -0.15426156 0.010247566 0.12855834
0.14217287 -0.09094726 -0.058377456 0.06752562 0.04075713 -0.054609854 0.19270062 -0.13965704
-0.119149566 0.20830509 -0.018865556 -0.010860847 0.13347189 0.10578437 -0.01997638 0.1059418
0.12807983 -0.08903144 0.15160854 0.1514839 -0.23754835 -0.14258425 0.20807974 0.018448874
0.13959794 0.10353191 -0.0833716 -0.08893463 -0.2110193 -0.16567554 0.2332002 -0.21888219
0.13546272 0.12727611 0.21243256 -0.26477858 0.111994475 0.113685936 0.1919607 0.2307415
0.12721711 0.07417251 -0.03435779 -0.22429076 0.09018595 -0.105271116 0.14854056 -0.20742777
-0.03591208 0.14817128 0.042887136 -0.020677345 0.07642792 0.07442821 -0.2273172 -0.014063468
0.10777944 0.19523081 0.12931527 0.045446638 0.1927872 0.1676105 -0.07334277 0.026656557
-0.079313196 -0.111388095 0.19702384 0.12883164 0.21904492 0.08279959 -0.14980091 -0.0014717641
0.031505402 0.02128275 -0.21696551 -0.0419283 -0.034809444 -0.21080162 -0.19942896 0.19543526
-0.21384865 0.052853324 0.0013882227 -0.24117905 -0.19264065 -0.0068453774 -0.22173575 0.023158254
0.15869641 -0.10979386 0.051729735 -0.021469293 0.2224698 -0.019990915 -0.09441008 -0.012789644
-0.11826837 -0.14121442 -0.08769455 0.011533693 0.25080937 -0.17723024 0.05802228 0.13522857
0.23453371 0.1750532 0.16719359 -0.2051653 0.2115339 -0.20036592 0.08857504 0.052275263
0.10532358 -0.0047181384 -0.024542972 -0.13200416 0.19627114 -0.12830174 -0.20000932 0.2416752
-0.10918838 -0.17992288 -0.15835449 -0.13350534 0.15343197 -0.21622728 -0.213177 0.1786213
-0.20864272 -0.16224425 -0.02400142 -0.21936834 0.19368778 0.1377386 0.2348417 -0.16752067
-0.17676878 -0.115709975 0.12404024 0.19180967 -0.17175204 0.093644574 0.13908295 0.21849035
0.10556087 0.21874397 -0.13497767 0.12153866 -0.2304658 0.14176762 0.017455103 -0.22662221
0.010915641 0.19761497 0.004866381 0.14092824 0.09001793 -0.17801754 -0.08550891 0.19542329
0.13757138 0.15085106 0.029878708 -0.01471007 0.07942162 -0.0025910395 -0.04380282 -0.21900843
-0.06627946 0.021455295 0.06360434 0.13010572 0.052231073 -0.018625053 0.15739845 0.092661664

lstm_p.weight_hh_l1 f4 [64, 16]
00000000: 0ffd 3e3e a84d 1abe f5f4 683e 1dec ecbd
00000010: 108d 3bbd ae90 45be 9f82 8f3d 33d0 4b3e
00000020: 30af acbd f392 203e b09d 4abc 7dfd 753e
00000030: b960 11be 985e 993b 90b1 403e a56e 4abe
00000040: a9c0 ed3d f65e 79be 8f99 453e 5ddc bf3d
00000050: 3d81 543d 05dc 6fbe 3f91 843e bcb0 3c3e
00000060: 80f4 6a3e 726f 5abe e892 673e 7546 1b3d
00000070: 35b1 203e 6d1a 7ebe cd59 08be 4e10 9d3c
00000080: fa4c 1e3e 9d09 66be 877e 123e 79fa 093e
00000090: 7366 43be 4d88 633e f70a cdbd d605 943d
000000a0: 47d5 24be e01c 0bbe 6168 82bd ec53 a8bd
000000b0: d549 fd3c 295c 81bd 4941 20be 27ff 603e
000000c0: 6e93 8bbb aa1c 53be d972 5e3e 22c7 583e
000000d0: 24f2 0abe b9bc 333e b490 d8bd 29e0 49be
000000e0: 4ab7 80be 94a0 03be 7520 f23d 9d7f 793e
000000f0: f438 673e 9a08 0cbd 91f0 4dbd d417 043a
00000100: 48cf 633e 2f6c 35be 9184 04be 7e63 513b
00000110: f8cd 6bbe 62ac 0b3e ddbe 22be db9a a0bd
00000120: 0885 03be 3ff1 d9bb d06a 593e d589 c4bd
00000130: 9a25 d8bd cb72 fd3d 9727 f4bc 5852 b0bc
00000140: c489 4a3e c3ef 983d 5be7 3cbd 19f3 603e
00000150: 5455 7dbe 0f3a 553e 4fb8 9fbd 54cd 313e
00000160: cdb4 9dbd b70b 54be ec08 c6bb d9c0 653e
00000170: b82e 053d b4b5 4dbe ef62 2a3e f94a 7a3e
00000180: 4ef7 5a3e 1e00 0ebe e1ed 26be 6225 83be
00000190: 4181 33bd 0592 6c3d b9ee 81be a594 183c
000001a0: 7951 da3c d0a2 303e 3f70 323e fb35 bd3d
000001b0: 123a 61bc 1448 603e 5009 88bc d2ab 47bd
000001c0: aa61 fbbd d6fa 8b3d 7a84 19be 12a1 d93d
000001d0: fd7f 64be 2e0c eb3c ed1e 54bc 15d6 34be
000001e0: 04c6 523e ec2d 4c3e d6ed 1c3e 790c 3a3e
000001f0: edc0 89bc aab0 1cbe 39de 67bd 9e04 1fbe
00000200: 2242 0abe 5e60 eb3c cc14 c4bd b72a 7e3e
00000210: a09b 283e 5d6c 7c3e c9fe f43d 1498 173e
00000220: c42a 08be b873 433e 4fc5 473e aa73 a23d
00000230: 04b8 b23d f82a 62be 43b3 10bc 273a 5d3e
00000240: 2733 d8bd aa20 413e f363 01be 685f 29be
00000250: 00af 123e b0aa 033e f9d2 b83d a7ce d2bd
00000260: ee6e 253e 3786 d9bd e8ca 0d3e b350 663e
00000270: 6b5c edbd c4e2 453e 647e 2b3e 22c0 973d
00000280: 85e4 c6bd f3e2 70bd 2227 203e 09ec cc3d
00000290: 7859 403b e609 c1bd fb76 a53c d294 7c3e
000002a0: 7893 483e 2d68 26be bf3a 803e cd1c 173e
000002b0: 6b1d 823e 14f2 8dbd 1bb3 9b3d 65c8 42bd
000002c0: d5c3 0fbe 7c40 9cbd 4db0 14be 95bc 853d
000002d0: 04a1 1fbd bac7 50be 2eed b3bd 7851 21bb
000002e0: 5682 02be 8edc 23be 23b6 70be 849c 053e
000002f0: 42a3 103e 8c0e 80be b7d4 0c3e 4d76 41be
00000300: a5c2 cbbd 8b2e 1cbe 340f 6cbd 4566 06be
00000310: 4ab9 0abc 6674 463d d14d ddbd b5d1 1a3e
00000320: 8f8e b7bd 07f7 7fbd 04a7 773d 78c2 ff3d
00000330: c56f 313e 4b30 d63d 4e02 d53c 2096 0cbd
00000340: 8fa2 1ebe aa01 543e d9cf 26bc 77bd 413e
00000350: d083 e63d 02ce 213e 3ffb 2abe d881 f93d
00000360: fac3 7a3e de5c 60be c7aa 2e3e 3cba 14be
00000370: 9932 14be 5ad0 63be 64b5 7dbe 6948 34be
00000380: ef99 40be a615 01bc 31aa d7bd ecc9 ddbb
00000390: ddf9 2b3e f358 533e 490d 4cbe 6fb3 463e
000003a0: 8848 cebc b5b4 c7bd 7b86 853e 1614 60be
000003b0: a6d5 08be 0086 bc3d a6fc e73d 1ec8 f63d
000003c0: 5319 62be ca47 2bbe 7b32 23be 4375 2d3e
000003d0: 3580 db3d 4a66 f8bc fa3c 2e3e 1c1e 843c
000003e0: ecd0 71be de38 9bbd 0b56 063e 5c0f 63bd
000003f0: f50d d93d 034f 4f3d caee 6cbd e43d 43be
0.18651222 -0.15068686 0.22749694 -0.115684725 -0.045788825 -0.19293472 0.07007336 0.1990364
-0.08431852 0.15681057 -0.012366697 0.2402248 -0.14197053 0.004680466 0.18817735 -0.1976877
0.11609013 -0.24352631 0.19296859 0.09368203 0.051881064 -0.23423775 0.25892064 0.18426794
0.22944832 -0.21331576 0.22614634 0.03790899 0.15692599 -0.24814768 -0.13315506 0.019172814
0.15459052 -0.22464605 0.14306079 0.13474454 -0.1908205 0.22219963 -0.10011857 0.072276756
-0.16096984 -0.13585234 -0.06367565 -0.08219132 0.030918995 -0.06316406 -0.15649904 0.21972333
-0.0042595183 -0.20616403 0.21723498 0.21169713 -0.13568932 0.1755246 -0.10574475 -0.19714417
-0.25139838 -0.12854224 0.11822597 0.24365087 0.2258032 -0.03418789 -0.05027825 0.0005038951
0.2224704 -0.1771705 -0.12941195 0.003195017 -0.2302779 0.13639978 -0.15893121 -0.07842036
-0.12843716 -0.006651073 0.21232152 -0.09596602 -0.10554047 0.12375411 -0.029804034 -0.02152364
0.19779116 0.07467606 -0.046119075 0.21967734 -0.24739581 0.20822929 -0.07798826 0.17363483
-0.07700501 -0.20707594 -0.006043544 0.22436847 0.032515258 -0.20088845 0.16639303 0.24442662
0.21383402 -0.13867232 -0.16301681 -0.25614458 -0.043824438 0.057756443 -0.25377443 0.009312783
0.026650177 0.17249608 0.17425631 0.092388116 -0.013746755 0.21902496 -0.016606003 -0.048747845
-0.12274487 0.068349525 -0.14991942 0.10626425 -0.22314449 0.028692331 -0.012946826 -0.17659791
0.2058335 0.19939393 0.15325102 0.1816882 -0.016815627 -0.15301767 -0.056608412 -0.15529105
-0.1350179 0.028732475 -0.09574279 0.24820982 0.16465616 0.24650712 0.11962659 0.14804107
-0.13297564 0.19087112 0.19508861 0.079322174 0.087265044 -0.22086704 -0.008831802 0.21604215
-0.105566315 0.18860117 -0.12635784 -0.16540301 0.1432457 0.12858081 0.09024615 -0.10293322
0.16155598 -0.106213026 0.13846934 0.22491722 -0.11589893 0.19324785 0.16747433 0.07409693
-0.097115554 -0.058810186 0.15639928 0.10005958 0.0029350203 -0.09425716 0.020198336 0.24666145
0.19587505 -0.16250677 0.2504482 0.1475708 0.2541307 -0.06930938 0.07602521 -0.047554392
-0.14039548 -0.07629487 -0.14520378 0.0653011 -0.038971916 -0.2038869 -0.08785473 -0.002461521
-0.12745032 -0.16002104 -0.2350698 0.13047987 0.14124778 -0.25011098 0.1375302 -0.18892784
-0.09949235 -0.1525213 -0.057631686 -0.1312495 -0.008467028 0.04845085 -0.10805858 0.1511906
-0.08962738 -0.062491443 0.060462013 0.12488264 0.17327793 0.1045843 0.026002076 -0.034322858
-0.15491699 0.2070376 -0.010181391 0.18919931 0.1125561 0.15801242 -0.16697405 0.12182969
0.24488822 -0.21910426 0.17057334 -0.14524168 -0.14472426 -0.22247449 -0.24776226 -0.17605747
-0.18808721 -0.007878697 -0.10530508 -0.0067684557 0.16794534 0.206394 -0.19926943 0.19404386
-0.02518107 -0.09751264 0.26079163 -0.21882662 -0.1336275 0.09205246 0.11327486 0.12049888
-0.22079973 -0.16726604 -0.15937226 0.16939263 0.10717813 -0.030322213 0.17015448 0.016127639
-0.23614854 -0.07579206 0.1311876 -0.05543457 0.10598365 0.05061246 -0.057844914 -0.19066578

lstm_p.bias_ih_l1 f4 [64]
00000000: 7870 97bd bfb9 e53b c388 2e3d d5ca 70be
00000010: c917 7dbe 2357 843d 34e9 0ebe 6be9 413e
00000020: 187f 6b3d cc94 623d dfbd 78be 82d9 a33d
00000030: 22a2 04bd 7bf3 09bd 6a62 4dbe 9abf 81be
00000040: f476 2e3e 931a 24be 6ed9 573d 5954 34be
00000050: 2ecd 44be 7abd ee3d df14 7f3d c272 f0bd
00000060: 600a d73d 71fb 1bbe 76ef 30be c32a a13c
00000070: b164 ce3c b6a9 46be 46fc 19be 5b14 11be
00000080: 2c80 8bbd 360e 063e 737f 63be ad9b 333e
00000090: bcad 873c fe0c b9bc 6545 07be 326f 55be
000000a0: 610b b2bd 27ff fc3d a8bb 49be 4bfb 5f3e
000000b0: 77e7 29be 6db6 133e fe04 67be 6e5e 6ebe
000000c0: fa53 c9bd c4a9 3c3e 9450 fa3d 9777 16be
000000d0: 7831 8b3d 47e8 fdbd 22b5 5c3e daee 723e
000000e0: 8e6e 2d39 bb49 293e e1aa bbbd e829 a63d
000000f0: 7bd0 0a3e adb9 f83d 9179 933d 7368 693e
-0.073944986 0.007010668 0.042610895 -0.23514874 -0.24716105 0.064619325 -0.13956147 0.18936698
0.057494253 0.055317685 -0.2429118 0.08000471 -0.032381184 -0.033679467 -0.20057073 -0.25341493
0.17037565 -0.16025762 0.05269759 -0.17610301 -0.19218895 0.116572335 0.062275764 -0.11740638
0.10500026 -0.15232636 -0.17278847 0.01967371 0.025194498 -0.19400677 -0.15037641 -0.14167921
-0.06811556 0.13091359 -0.22216587 0.17539854 0.016562335 -0.022589203 -0.13210066 -0.20843199
-0.086935766 0.12353354 -0.19700491 0.21873204 -0.16592203 0.14425059 -0.22560498 -0.2327821
-0.098304704 0.18424135 0.122224 -0.14694057 0.06796545 -0.12397819 0.21553472 0.23723927
0.0001653975 0.16532032 -0.09163452 0.08113462 0.13556091 0.1214479 0.07200921 0.2279375

lstm_p.bias_hh_l1 f4 [64]
00000000: 601c 903d 4faa 273e de93 013e b2a7 803c
00000010: aca8 58bd 424f 433e 6eb9 593e afa2 5b3e
00000020: 56d9 753d 0ff5 0c3e 9f7f 15be c8fe 26be
00000030: 07f6 2a3d 07ed 4abe 783b 04be bb05 0e3e
00000040: 8499 ffbd 21c0 2abe 4a33 5fbe 5b14 233e
00000050: 38cd 283e 3c02 3c3e a75c 43bd 7299 fdbd
00000060: bab4 623e a9f1 25be 7e0c 503e 79a3 2e3d
00000070: b238 d2bd 99f4 db3d f24d 13be 44d6 933c
00000080: 21e5 4d3e 6b4a 60bd 58e3 863d 89e8 2c3e
00000090: 679a 99bd ce6e 1e3e 77b8 3e3e e845 e93c
000000a0: 0540 3e3e bb7e 553e bcb5 36be 8cc1 e93d
000000b0: dfaf 88bb fd8a c1bd 0c5c 473e a22a dc3c
000000c0: 9963 6cbc 669e cb3d c4c2 953d 17b2 a33c
000000d0: b091 db3d e945 a0bc 72af 53be 75fa d03d
000000e0: 821e 4dbd f8e7 f9bd 91be 1bbe 546f eb3d
000000f0: 1671 c43d a57c 48be e6f2 33be b449 34bd
0.07036662 0.16373561 0.12654063 0.015704963 -0.052895233 0.19073203 0.21262142 0.21448778
0.06002172 0.13765357 -0.14599465 -0.16308129 0.041738536 -0.19816981 -0.1291331 0.13869374
-0.12480453 -0.16674854 -0.21796909 0.15925734 0.16484535 0.18360227 -0.047695782 -0.12382783
0.22139254 -0.16205467 0.20317265 0.04263637 -0.1026472 0.10740013 -0.14385203 0.018046506
0.20106937 -0.05475847 0.06586331 0.1688558 -0.07500153 0.15471956 0.18625055 0.028475717
0.18579109 0.20849125 -0.17842764 0.11413869 -0.004171356 -0.09450338 0.19468707 0.026875798
-0.014428043 0.099423215 0.07312539 0.01998238 0.10721147 -0.019564586 -0.20672396 0.10204021
-0.050077923 -0.12202448 -0.15209414 0.114958435 0.09591882 -0.19578798 -0.17573127 -0.0440156

attention_p.attn_1.weight f4 [16, 16]
00000000: 68d1 82be b3ed 2e3e 8f85 753e a44a c8be
00000010: 743e 1a3d 20ae d6bd c5c5 22bd 10ae cabe
00000020: 3694 98be ea8d e6bd c995 b13d 4869 a53e
00000030: d552 bf3e 49a0 8f3d c608 efbd a08d ccbe
00000040: 56e5 9cbe cf28 a23e 6939 313e 78ac c8be
00000050: ec61 63be 3cec 8abe fecb 5abe 88ef 783e
00000060: 2c2b 25be bbce a63e 4459 af3e f572 45be
00000070: eb3f b2bd 035d b73e b9e6 563e f1e0 7e3d
00000080: a69f 4abd fe51 09be 3331 11bd c39a 5abe
00000090: 3601 e13d bbfa c23e 0081 6bbd 442c 533e
000000a0: 30c2 d43e 5c92 943e e2d7 06be 7966 ccbe
000000b0: 93b6 6ebe bba0 a53d f4b5 7ebe fbe9 93be
000000c0: eb4d cc3e c809 09be aee2 8dbe 916a b43e
000000d0: fa5d 8dbe 0331 ca3e e199 5c3e cf12 a2be
000000e0: 4156 943e eba1 873e 0870 51bd 1dfb d9be
000000f0: 1ff7 a0bd 04c1 d83e 3f26 cdbd 02b4 07bd
00000100: 8aec 9f3e ae9e b2be ebdb 40be bd6d e63d
00000110: 5574 b2be ddff 813e 85cd 603e 682b 2e3e
00000120: d0e3 23be d0e5 b5be ae1a 033e efaa b63e
00000130: 7b4c 293e 1eff a3be acdb b93e d5aa 52be
00000140: 6730 dabe b680 4f3d 862b 9a3e de2f c23e
00000150: 31a5 eebd 6f1c 9dbe a722 d53c 2c45 20be
00000160: 2995 dcbc c366 da3d 9466 eb3d 4486 5ebe
00000170: f02e 9a3d 3ec0 ff3d 4e0b 9dbe c595 a63d
00000180: e378 b93e 13a9 2cbe b0dc 403e 2934 113e
00000190: 5b7b a83e 2a84 883e aa07 94be 757c 13be
000001a0: de54 88bd 6a58 54be 30ae ab3e 26c8 10bd
000001b0: e031 e1bd ca51 ad3e 446a 24be 9d9f 94be
000001c0: d65a 503e 2b73 af3e 6dc0 513c 3959 a4be
000001d0: ad0e 3fbc 7f5c d33e 05a6 61bd 7c41 8a3e
000001e0: 090d 573e a5ec 6dbd a454 fb3c 021b 66bd
000001f0: 23e0 9ebe 616f 64be 53a7 823e 7679 88be
00000200: 9142 5dbe 75f0 82be 49cc d93e aa02 01be
00000210: 752c 65be db27 b93e 3733 313e a398 c7be
00000220: 5a62 d83e f13b 643e 0211 f83d 4b1d 3ebd
00000230: a765 013e b99a 24be 30ca 933e 4baf e23d
00000240: 94e2 bf3e 0433 f33d 2fde 49bd e06a 4e3e
00000250: 4737 75bd 1894 023e 6e97 933d dd89 b13e
00000260: d8e4 9cbe d1a0 2cbc 0d5a 5dbe 5029 a03e
00000270: ad32 26be 8282 723e 7c0d 553e bf7e e9bd
00000280: 2e3f 6cbc 3f8d 8c3e 3a5c 9cbe b589 d03e
00000290: 8ed6 cdbd da83 f8bd 57df c33c 8b18 dd3b
000002a0: 6b84 a5be 4492 a6bc 9697 973e fa17 49be
000002b0: 58e5 913e 8542 d6be 85a9 ba3e 56bb a6be
000002c0: 30af 8ebe f645 32be 155a 3dbe f730 bebd
000002d0: d942 8cbe 9a75 6f3e 8bc4 97bd 8f5b ca3e
000002e0: b3b3 cd3e 59b4 b8be 216e 543e bcbe ab3e
000002f0: 95b0 1e3e 325b 653c 7927 94be d496 d93e
00000300: fa86 043e b22a ac3e c6c7 c8bd e9e3 263e
00000310: a291 5fbe 6159 cdbe c3ed 3a3c d3e9 d23e
00000320: 0e9c 543d e868 e0be 9fda 29bc 940b 713e
00000330: fcb2 a3be 4127 d43e 727d 7f3e cbaa 32be
00000340: a588 233e e8a9 8c3e 9d8c 9d3e f1ed 15bc
00000350: 4634 81bd 66d4 5b3e 30d6 073e e061 06be
00000360: 121e 1a3d 942c a6be 53b3 bcbe cea8 b13e
00000370: c48e d2be 93e9 8bbe 4c8f bcbe 0663 043e
00000380: 333b 993e d4b9 5bbd 6561 b53e ed75 d73e
00000390: 9964 d4bc f4e7 bfbe ab68 81be 33b4 0ebc
000003a0: 9bdb 05be 9964 95be b7a0 f8bd 3367 a0bd
000003b0: cd25 92be a565 b5be 965b a43e 113d babd
000003c0: 1601 a43d 6952 44be 942f acbe 0540 88bd
000003d0: 5476 8e3e 88f5 cd3e ba06 2d3d 029a 8dbe
000003e0: 1fc4 03be cc9d 48be 4bec 9ebd 3922 663b
000003f0: 81ca e8bd 2402 2dbe df49 8fbe 4da2 bcbd
-0.2555039 0.17082863 0.2397673 -0.39119446 0.037657216 -0.104824305 -0.03973939 -0.39585924
-0.29800576 -0.11257537 0.086711474 0.32306886 0.37367883 0.07012994 -0.11671595 -0.399518
-0.3064372 0.3167176 0.17307056 -0.39194083 -0.22205323 -0.27133358 -0.2136688 0.24310124
-0.1612975 0.32579598 0.34247792 -0.19282134 -0.08703598 0.3581315 0.20986451 0.06222624
-0.04946866 -0.13410184 -0.03544731 -0.213481 0.10986559 0.38081917 -0.05749607 0.20622355
0.41554403 0.29017913 -0.1316829 -0.3992193 -0.23311834 0.080872975 -0.24874097 -0.2888945
0.39903197 -0.13382638 -0.27712005 0.35237554 -0.2761076 0.39490518 0.21543075 -0.31654975
0.28972057 0.2649072 -0.051132232 -0.42574397 -0.078596346 0.4233476 -0.100170605 -0.033130653
0.31235152 -0.34886688 -0.18833892 0.112514 -0.3485438 0.2539052 0.219534 0.17008746
-0.16004872 -0.35526896 0.12803146 0.35677287 0.16533081 -0.32030576 0.3630041 -0.2057298
-0.42615053 0.050659858 0.3011133 0.37927145 -0.116526015 -0.30685756 0.0260175 -0.15651387
-0.026926594 0.106641315 0.114941746 -0.21730906 0.07528484 0.12487839 -0.30672687 0.08134035
0.36225042 -0.16861372 0.18834186 0.14180054 0.32906613 0.26663333 -0.28912097 -0.14402945
-0.06656812 -0.20736852 0.33531332 -0.035347126 -0.10995841 0.33851463 -0.16056162 -0.29028025
0.20347151 0.34267554 0.012802226 -0.3209932 -0.011661214 0.41281506 -0.05508997 0.27003086
0.21001066 -0.05808701 0.030680008 -0.0561781 -0.31030378 -0.22308113 0.25518283 -0.26655167
-0.21607424 -0.2557408 0.4253867 -0.12598673 -0.2238024 0.3616322 0.17304693 -0.3898364
0.42262536 0.22288491 0.12112619 -0.046414655 0.12636434 -0.16074647 0.28865194 0.11068591
0.37477553 0.11874965 -0.049284156 0.20157957 -0.05986717 0.12751806 0.07206617 0.34675494
-0.30643344 -0.0105363885 -0.21616383 0.3128152 -0.16230269 0.23682597 0.20805925 -0.11401128
-0.01441936 0.27451512 -0.30539113 0.40730062 -0.10050689 -0.12134524 0.023910208 0.0067473105
-0.3232759 -0.020333417 0.29607838 -0.19638053 0.28495288 -0.41847625 0.36457458 -0.325648
-0.27868032 -0.174095 -0.18491395 -0.09286683 -0.2739475 0.23384705 -0.074105345 0.3952298
0.40176162 -0.36075094 0.20745136 0.33543956 0.15497048 0.013998793 -0.28936365 0.42497885
0.12942114 0.33626324 -0.09803729 0.16297878 -0.21832898 -0.40107253 0.011409226 0.4119402
0.051906638 -0.43830037 -0.010367065 0.23539573 -0.31972492 0.41436198 0.24950197 -0.17447965
0.15970095 0.27473378 0.30771342 -0.009150968 -0.063087985 0.21467742 0.132653 -0.13123274
0.037626334 -0.32455885 -0.36855564 0.346991 -0.41124547 -0.2732664 -0.36828077 0.129284
0.29927978 -0.053644016 0.3542587 0.42082158 -0.025926875 -0.37481654 -0.25275168 -0.008709955
-0.13072054 -0.29178312 -0.12140029 -0.07832184 -0.28544465 -0.3542911 0.32101125 -0.09093679
0.080080196 -0.19172062 -0.3363005 -0.06652836 0.27824652 0.40226388 0.042242743 -0.2765656
-0.12867783 -0.19591445 -0.07759913 0.0035115613 -0.113667496 -0.16895348 -0.27986047 -0.09210644

attention_p.attn_1.bias f4 [16]
00000000: aaa3 70bb 8ea0 b5bb 6c83 873b b174 7dbb
00000010: 6435 a3bb 52b3 01bc 067d 98ba 8b56 1139
00000020: b128 893b 9f1c b8bb d779 7ebb 1fa1 98bb
00000030: e745 ac3b 2b0e 953b ec2e 84bc 30ab b3bb
-0.0036718645 -0.0055428213 0.0041355398 -0.003867429 -0.00498073 -0.007916288 -0.001163394 0.00013860517
0.004185759 -0.0056186463 -0.0038829946 -0.004657879 0.0052573564 0.004548808 -0.016135655 -0.0054830536

attention_p.attn_2.weight f4 [1, 16]
00000000: dc75 e2be ce47 b9be 2951 f53d 16b8 26be
00000010: e894 73be 1813 2e3c 42aa b53e cb49 83be
00000020: 739f 853e ea2a c4be 02d1 993e 4d9c 3dbe
00000030: 06f3 823e b86f d83e 1085 f6bd 2cf8 96be
-0.44230545 -0.36187595 0.11978371 -0.1628116 -0.23787272 0.0106246695 0.3548146 -0.25642237
0.26098213 -0.3831399 0.30042273 -0.18516655 0.25576037 0.42272735 -0.120370984 -0.29486215

lstm_t.weight_ih_l0 f4 [64, 7]
00000000: 1686 37be d1eb 73bd c53a 9ebb 52b9 a7bd
00000010: db51 473e 1817 4fbe 1750 433e 7127 b13c
00000020: 9df0 5f3e 18c6 703d ed1f 69be 70e1 5a3e
00000030: 0326 4a3d 1cc5 c43d 269a 223e a5ba 6dbd
00000040: 1524 e93c 77ea a6bd d57e 0d3e 3f98 0a3c
00000050: bf02 b93d 7cc5 26be bdb4 edbd 7df0 fabd
00000060: 37d7 2cbe 37ec 333e 280b 4bbe 0265 0e3e
00000070: e14d 5ebe 8f67 583e cc5c 75be b639 4e3e
00000080: 719a cf3c b3bb 4abd 0007 e4bd 903d 293e
00000090: 4197 863d 0ec5 dd3d b10b 523d df27 b23c
000000a0: 82fc 3a3e d39c ad3d 27df 4f3e 06ec 3bbe
000000b0: ddd1 35bd e005 91bd 63ad a63d 1fb8 4f3d
000000c0: de15 21be 08fc cc3d 09ba d8bc 6928 22be
000000d0: cc82 843e ffdd 25be e6ce babd 69da 753e
000000e0: e4c0 8cbd f75c 0f3e 779f 9fbd b9e8 abbd
000000f0: 99c7 753e 064f 6fbe e37a 253d 06fd 6fbb
00000100: 80ed 22be 0f4e 0c3d 07bb d1bd 93ed 6f3d
00000110: b5e8 0fbe 17ec 3bbe 6555 77be 67e0 913d
00000120: 4075 d03c 50a3 27bd 4fe1 33be 54c0 413c
00000130: 9c03 41be 1b86 9b3d f10f 48bd f778 febd
00000140: 7884 eb3d e0d8 21be 94e0 ae3c d07f 1f3e
00000150: c792 623e 9125 c4bd 4643 55be c83f 2e3e
00000160: dce3 2a3d 3801 68be 6930 183b 264c 993c
00000170: 172a 73bd c050 2e3e 272b 483d a50f 11be
00000180: 7a25 efbc f8da 953b 9019 0abe 2444 fbbd
00000190: c42b 04bd 6774 10bd 0308 2ebe cb94 543e
000001a0: cc9b 783e bae9 2ebe 04db 053e 9f24 46be
000001b0: 830d 3d3d 452f 6c3e e003 a43c f37c 54be
000001c0: 314b 64bc e1b2 3dbe a753 4fbe d6ce a1bd
000001d0: 809e 30be 5e3d a53d c644 3d3d b6d3 78be
000001e0: eeca 32bd 9883 6e3e e7dd 223e de3a 023e
000001f0: 5b87 aa3d c714 54be b5d2 623e 4205 6d3e
00000200: 59c5 8cbd 00ab 54be 67c7 dbbc ce3d 523b
00000210: 0001 3f3e c041 093e 206c 56be 5394 18be
00000220: 7b7d ab3c a018 303e a5bd e0bc 07ab 85be
00000230: 6dd6 f53d 6c5d 4abd d065 903d 5074 fc3d
00000240: f45c 0d3e 4e13 ca3c ca56 bc3d 1029 b53d
00000250: 3c22 b5bd 9b9a 783d 0fef 1c3e e804 49be
00000260: d29b 2c3d 8992 383e 03dd b63d d1da fbbd
00000270: 4da1 863d dd5a 7abc 9a4a 463e 92a0 14be
00000280: cff9 ed3d a2d8 693c 513f 743c 4ec2 a3ba
00000290: eb55 42be 5ad7 ee3d 4c38 11be 2b13 843e
000002a0: 816f c43d 2519 f7bd 4d90 443e 9b37 3a3e
000002b0: 9265 763e 7d2a fc3d a328 4f3d 4079 fdbd
000002c0: 85e0 703e c070 f73d 9e9a dc3d e14a 5b3e
000002d0: 6c6b 263e 93db 12be b6b2 4e3e de0a c53d
000002e0: 3485 c1bd 6671 643e 449a a5bd cc45 92bd
000002f0: 55f6 f73c 04fe 15ba a939 343e 97ce e1bd
00000300: 3222 53be 8725 ea3d df12 0fbe b9ad 3ebe
00000310: 7806 58be bc59 3abe a480 84bd 0f63 28be
00000320: bde6 2f3e 9b58 bcbd f32f 333e 54a4 fbbd
00000330: bfeb 213e c3c1 e63c 3c55 76be 916b dbbd
00000340: 625e 6f3e 0c67 653e a9ea 2d3e 8c9a 433e
00000350: 4b3a 483d 7479 59be e64e c2bd 40da 48be
00000360: 846b f53d d17d 083e b333 a83d 5e88 563e
00000370: 0e00 54bd f358 ed3d bb4a 03bd 511d 74bd
00000380: 770e 33be dbda 22be 32ea f43c a405 fdbd
00000390: 4435 1a3d 9908 e4bd eaec b0bc f33e 3bbe
000003a0: dcae 42be 04e8 e43d d551 3a3e 6d08 f1bc
000003b0: 35df 593d a0da 813d db1f 4a3e 3aed cbbc
000003c0: 1ca6 763e adbe 0a3b 0ba1 183e 9ea0 81bc
000003d0: 14c6 ecbd d173 393c 7838 59be 92b2 4c3d
000003e0: a06b 7fbd cc90 9c3d c1de 68be 7baa 403e
000003f0: aaf1 46bd 685e a3bc 6db0 1f3d 1921 5f3e
-0.17922243 -0.059551064 -0.004828783 -0.08189644 0.19464819 -0.20223653 0.1907352 0.021625252
0.2186913 0.058782667 -0.22766085 0.2137506 0.049352657 0.09607908 0.15879115 -0.058039326
0.028459588 -0.08150189 0.13817914 0.00845915 0.09033727 -0.16286272 -0.11606739 -0.12252901
-0.16878973 0.17570578 -0.19828475 0.13905719 -0.21709396 0.21133254 -0.2396118 0.20139202
0.025342198 -0.04949541 -0.11134148 0.1652739 0.06571818 0.10828601 0.05128068 0.021747528
0.18260387 0.084771775 0.2029997 -0.18351755 -0.044389594 -0.07081199 0.0813854 0.0507127
-0.15730998 0.10009009 -0.026455896 -0.15835728 0.2588104 -0.16197966 -0.09121494 0.24009098
-0.068727285 0.14000307 -0.077940874 -0.08393998 0.24001922 -0.23369989 0.040400397 -0.003661932
-0.15910912 0.03425413 -0.10240751 0.058576178 -0.14053614 -0.1835178 -0.24153669 0.071228795
0.025446534 -0.04092723 -0.17566417 0.01182564 -0.18849033 0.07593938 -0.048843328 -0.12425416
0.11499876 -0.15805387 0.021347322 0.155761 0.22126304 -0.09577478 -0.20826444 0.17016518
0.04172121 -0.22656715 0.0023222214 0.018713068 -0.059366312 0.17022991 0.04886928 -0.14166124
-0.029192675 0.0045732222 -0.13486314 -0.12268856 -0.0322683 -0.03526726 -0.16995244 0.20759885
0.24278182 -0.17081347 0.13071829 -0.19349907 0.046155464 0.23064907 0.020021379 -0.2075079
-0.013933943 -0.18525268 -0.20246755 -0.07900779 -0.17247963 0.080683455 0.046208166 -0.24299511
-0.04365056 0.23292387 0.15904962 0.12717769 0.08326598 -0.20711051 0.22150691 0.23146537
-0.068735786 -0.20768356 -0.02682848 0.0032080295 0.18652725 0.13403988 -0.20939684 -0.14900331
0.020933857 0.17196894 -0.02743418 -0.26107046 0.12003789 -0.0494055 0.07050669 0.12326872
0.1380499 0.024667408 0.09196241 0.08845723 -0.0884442 0.06069432 0.15325569 -0.19630778
0.04214079 0.18024649 0.089288734 -0.12297595 0.065737344 -0.015280453 0.19364396 -0.14514378
0.11619913 0.014272841 0.014907674 -0.001249382 -0.18978088 0.11662169 -0.14181632 0.25795874
0.0959158 -0.12065343 0.19195671 0.18185274 0.24062183 0.123127915 0.050575864 -0.12376642
0.23523147 0.12082052 0.107716784 0.21415283 0.16251916 -0.14341573 0.2018536 0.096212134
-0.094492346 0.22308883 -0.080860645 -0.07142219 0.030268827 -0.000572175 0.1760012 -0.11025732
-0.20618513 0.11432939 -0.13972043 -0.18620957 -0.21096218 -0.18198293 -0.06469849 -0.16444038
0.17177863 -0.09196588 0.1749876 -0.122872025 0.15812586 0.028168565 -0.24055952 -0.10713876
0.23375848 0.2240259 0.16984047 0.19101924 0.048883718 -0.21237737 -0.09487705 -0.19614506
0.119833976 0.13329245 0.08212986 0.20950457 -0.051757865 0.11589231 -0.03205369 -0.05959827
-0.17485987 -0.15903799 0.02989683 -0.123545915 0.037648454 -0.111344524 -0.021597344 -0.18285732
-0.19012016 0.11177066 0.18195279 -0.029422963 0.053191382 0.063405275 0.19738714 -0.024893392
0.24086803 0.002117078 0.14905183 -0.015823659 -0.11561218 0.011319117 -0.21212947 0.049974985
-0.0623585 0.07644805 -0.22741224 0.18815033 -0.048570313 -0.019942477 0.038986612 0.2178997
