Params/301_0.0001_15_16_222_model.pt (torch, 45323 bytes, 31 tensors)

lstm_p.weight_ih_l0 f4 [64, 10]
0	0xbdce1d62	-0.10064198
1	0xbdd49f20	-0.10381913
2	0xbd3a8153	-0.04553349
3	0xbc6a8e41	-0.014316143
4	0x3e6a1404	0.22859198
5	0xbdf24fcb	-0.118316256
6	0x3dafa68c	0.08576688
7	0x3e3c674c	0.1839878
8	0xbd8e7bf5	-0.06957237
9	0xbda20e49	-0.07912881
10	0x3df0bc03	0.117546104
11	0x3d2fbdb5	0.042905528
12	0x3a2d994f	0.0006622271
13	0x3e7abd2d	0.24486227
14	0x3c227527	0.009915627
15	0xbdf15186	-0.117831275
16	0x3b563d10	0.0032690205
17	0x3d78e11a	0.06076155
18	0x3d89e020	0.067322016
19	0x3dd084ec	0.10181603
20	0x3cc48972	0.02399132
21	0x3d11cbf3	0.03559489
22	0xbe4f45c6	-0.2024146
23	0x3e357fab	0.17724483
24	0xbe1ba676	-0.15200219
25	0xbdc33e1a	-0.09533329
26	0x3da0b69d	0.07847331
27	0xbd352d7a	-0.044232823
28	0x3e248dc0	0.16069698
29	0x3db98e76	0.090603754
30	0x3e6382bc	0.2221784
31	0x3d9ddddc	0.07708332
32	0x3d8b9cbf	0.06817006
33	0x3d5ca2c3	0.05386616
34	0xbe1ee40f	-0.15516685
35	0x3d1b19b8	0.037866324
36	0x3db630a0	0.08895993
37	0xbd46839a	-0.04846535
38	0xbe032c40	-0.12809849
39	0xbe12e53b	-0.14345257
40	0x3e12aa0c	0.1432268
41	0xbe3192d3	-0.17341165
42	0x3e7c341e	0.24629256
43	0xbcbaf97e	-0.022824045
44	0x3d8a31cc	0.06747779
45	0x3e2cb32a	0.1686522
46	0x3e3c99df	0.18418072
47	0x3d94f711	0.07273687
48	0xbe4f41ac	-0.20239896
49	0x3b61d69a	0.0034460188
50	0xbdca2541	-0.09870387
51	0xbe5306e0	-0.20608091
52	0xbdabf874	-0.08396998
53	0x3dfc58c3	0.123216175
54	0x3d1a0113	0.03759868
55	0x3e6a513f	0.22882555
56	0xbe07dade	-0.13267085
57	0x3e00dbaa	0.12583795
58	0x3e5284d4	0.20558482
59	0xbe1f675f	-0.15566777
60	0x3e690409	0.22755446
61	0x3de47934	0.1115593
62	0xbc27a864	-0.010233019
63	0xbd88a166	-0.06671409
64	0xbe07a7ba	-0.13247576
65	0x3e52c7ea	0.20584074
66	0x3da95883	0.082688354
67	0xbca7778b	-0.020442745
68	0x3e6f6506	0.23378381
69	0xbe056b5f	-0.1302924
70	0xbdfb3a2b	-0.12266954
71	0xbded2d20	-0.115808725
72	0x3e67f7cf	0.22653125
73	0xbe45a9f3	-0.19303112
74	0x3c4d1619	0.0125174755
75	0xbc92d62d	-0.017924393
76	0xbd18cb83	-0.03730346
77	0xbe58aed0	-0.21160436
78	0x3df06b8b	0.11739262
79	0xbd14b9b0	-0.036309898
80	0xbe5cf5d9	-0.21578158
81	0xbc827889	-0.015926616
82	0xbe3c99ae	-0.18417999
83	0x3d8868b7	0.06660598
84	0x3dec6be1	0.11544014
85	0xbdeec10b	-0.11657914
86	0x3e604621	0.21901752
87	0x3d26ed84	0.040753856
88	0xbe5fa2c3	-0.21839432
89	0x3cbfca14	0.023411788
90	0x3bc5a53c	0.0060316604
91	0x3e024dc9	0.12724985
92	0xbe5e29bd	-0.2169561
93	0x3d1acd67	0.037793543
94	0xbe0e6c4a	-0.13908496
95	0x3d15c0bd	0.036560763
96	0xbe3b90ea	-0.18316999
97	0x3cc99f57	0.024612112
98	0xbe5c148f	-0.21492217
99	0x3d93afe4	0.07211283
100	0x3d31f165	0.043443102
101	0x3e40c031	0.18823315
102	0x3e709ca4	0.23497254
103	0x3d914679	0.0709352
104	0xbdc38cd7	-0.095483474
105	0xbd9f054d	-0.07764683
106	0x3e1092d6	0.14118513
107	0x3e0b3497	0.1359428
108	0x3be0d43a	0.006861237
109	0xbe22eedf	-0.15911435
110	0xbe1114a8	-0.14168036
111	0x3d08bc49	0.033382688
112	0x3db7249d	0.0894253
113	0x3e124912	0.14285687
114	0x3e13dd68	0.14439929
115	0x3e383602	0.17989352
116	0xbbae0f51	-0.0053118845
117	0x3e1d7299	0.15375747
118	0x3da448c8	0.080216944
119	0x3e74e5b7	0.23915754
120	0x3e1cac1b	0.15300028
121	0x3cbf0fde	0.023322996
122	0x3dc27631	0.094951995
123	0xbd981cff	-0.074274056
124	0xbe588637	-0.21144949
125	0x3daf98e6	0.08574085
126	0x3e6b7fe6	0.22998008
127	0x3de6d258	0.11270589
128	0x3bab9584	0.0052363295
129	0xbe5e2cdc	-0.216968
130	0xbe50c613	-0.2038806
131	0x3dc2e5af	0.09516465
132	0x3d945434	0.07242623
133	0x3e18cb12	0.14921215
134	0x3e0d263f	0.13784121
135	0xbc7e067a	-0.015504474
136	0xbe5d5a9e	-0.21616599
137	0x3dd0709e	0.1017773
138	0xbe498603	-0.19680028
139	0x3d6b4d5c	0.057446823
140	0xbc975c25	-0.018476555
141	0x3e0284b5	0.12745936
142	0x3e6e2b7b	0.23258774
143	0xbbdaf64e	-0.006682194
144	0x3dfe82ae	0.12427269
145	0x3c71cfae	0.014758987
146	0x3e03c9b1	0.12869908
147	0xbdeffc4b	-0.11718043
148	0xbe6f5e43	-0.23375802
149	0xbdbcc81b	-0.092178546
150	0x3d01351b	0.031544786
151	0x3de06d87	0.10958391
152	0x3e2dd0ef	0.16974233
153	0xbbe4d551	-0.006983437
154	0x3dbc4ee0	0.09194732
155	0x3b303e16	0.0026892475
156	0x3e613887	0.2199422
157	0x3db55e74	0.08855906
158	0x3c97ca61	0.018529119
159	0xbc09226f	-0.008370026
160	0x3d8b5a14	0.068042904
161	0xbd7074a0	-0.058704972
162	0x3e68b781	0.22726251
163	0x3e0c3329	0.13691391
164	0xbda06554	-0.07831827
165	0x3dce1f36	0.10064547
166	0xbdde5620	-0.10856271
167	0xbe4e9b61	-0.2017646
168	0xbe61dde4	-0.22057301
169	0xbe662097	-0.2247337
170	0xbdd1c27d	-0.10242174
171	0xbdc3eea3	-0.09567001
172	0xbd6036cf	-0.05473977
173	0x3e55f3f7	0.20893846
174	0x3d3fbb56	0.046809517
175	0x3e025788	0.12728703
176	0x3d688da9	0.056775723
177	0x3dad4658	0.08460683
178	0xbc5531ff	-0.013012408
179	0x3c1d2c7c	0.009593125
180	0x3e75f77b	0.24020188
181	0x3e4758ca	0.19467464
182	0xbb8b7e7d	-0.004257022
183	0x3d9a8314	0.075445324
184	0x3e0cc0c4	0.13745409
185	0x3e038bd6	0.12846312
186	0x3e155aff	0.14585494
187	0xbda98000	-0.08276367
188	0x3dcad2ad	0.099034645
189	0x3c45984c	0.012060236
190	0x3dcdef4b	0.10055407
191	0xbd2e54bd	-0.04256128
192	0x3e2306ae	0.15920517
193	0xbe22b1f5	-0.15888198
194	0x3e193459	0.14961375
195	0x3d9a3a1c	0.07530615
196	0x3e0a5901	0.13510515
197	0x3bc26a9f	0.0059331204
198	0xbde0a642	-0.10969211
199	0x3b2e94b5	0.002663893
200	0x3e02b88f	0.12765716
201	0x3d73faf5	0.059565503
202	0xbe67d164	-0.2263847
203	0xbe4bd702	-0.19906238
204	0x3e7a5821	0.24447681
205	0xbe16298e	-0.1466429
206	0xbd6cc5d8	-0.057805866
207	0xbe2383ef	-0.15968297
208	0x3dc1cee0	0.094632864
209	0xbe594e63	-0.21221308
210	0x3e252da1	0.16130687
211	0xbe1e94d5	-0.15486462
212	0xbe7bfa66	-0.24607238
213	0xbd133d65	-0.035947222
214	0x3d7b355c	0.061330184
215	0xbdd3dc28	-0.10344726
216	0x3dd901e5	0.105960645
217	0xbe5be3c9	-0.21473612
218	0x3e60ec50	0.21965146
219	0xbe4fa46c	-0.20277566
220	0x3d82de8a	0.06390102
221	0xbd279128	-0.040909916
222	0xbda8c804	-0.08241275
223	0x3e55ce46	0.20879468
224	0x3e54edc8	0.20793831
225	0x3e49258c	0.19643229
226	0xbe1be2a9	-0.15223183
227	0xbe38ce33	-0.18047409
228	0xbe5f0560	-0.21779394
229	0x3e02cf90	0.12774491
230	0xbc8881a9	-0.01666339
231	0xbdf803ca	-0.12110098
232	0xbe08a03f	-0.13342379
233	0x3dfcce99	0.12344093
234	0xbd3923d0	-0.04520017
235	0x3d170c29	0.03687683
236	0xbe4f6b70	-0.20255828
237	0x3e697b67	0.2280098
238	0xbd8148dd	-0.06312726
239	0x3ddc04d2	0.10743107
240	0xbe489786	-0.19589052
241	0x3e45e0c9	0.1932403
242	0x3e495543	0.19661431
243	0xbe0a0b08	-0.1348077
244	0xbdc7477a	-0.0973043
245	0xbe1ce216	-0.1532062
246	0x3e71853e	0.23585984
247	0x3e13ecdf	0.14445828
248	0x3dddc416	0.10828416
249	0x3de627a0	0.112380266
250	0xbe44d317	-0.1922115
251	0xbdec8349	-0.11548478
252	0xbe325a3d	-0.17417236
253	0xbd9bd80c	-0.07609567
254	0xbd91db5a	-0.07121916
255	0x3e150b9a	0.14555207

lstm_p.weight_hh_l0 f4 [64, 16]
0	0xbc8b644a	-0.017015595
1	0xbb630e5e	-0.0034646015
2	0xbc5273c8	-0.012844987
3	0x3e7eae03	0.24871068
4	0x3e63a973	0.22232608
5	0xbe20036d	-0.15626307
6	0x3d6ad2de	0.057330005
7	0x3d20a9ec	0.03922455
8	0x3e19f060	0.15033102
9	0xbd36a3ac	-0.044589683
10	0x3ddf17e8	0.10893232
11	0x3df4a314	0.11945167
12	0x3c7efdac	0.01556341
13	0x3e4d831f	0.2006955
14	0x3d99bbcd	0.07506523
15	0x3e508176	0.20361885
16	0x3e3c85ae	0.1841037
17	0xbe66b9fb	-0.22531883
18	0xbe0c8c7c	-0.13725466
19	0xbd3dc46e	-0.046329908
20	0x3e1ce976	0.15323433
21	0xbe39d505	-0.18147667
22	0x3e313464	0.17305142
23	0x3dc86b91	0.09786142
24	0x3d568908	0.052376777
25	0x3e5809aa	0.21097437
26	0x3c8d6419	0.017259644
27	0xbe3d990b	-0.18515413
28	0x3df373fe	0.11887358
29	0xbe69ffaf	-0.22851442
30	0xbe5f394a	-0.21799198
31	0x3daff838	0.08592266
32	0x3e5155d1	0.20442893
33	0xbe748c61	-0.23881675
34	0x3e2fe741	0.1717806
35	0x3e3dbb58	0.18528497
36	0xbe27604d	-0.1634533
37	0xbe4f48dc	-0.20242637
38	0x3c2a3a5e	0.010389892
39	0x3e284469	0.16432346
40	0x3d2b2556	0.041783653
41	0xbe2b13e0	-0.167068
42	0xbd93a627	-0.072094254
43	0xbca64292	-0.020295415
44	0x3e7829cb	0.24234693
45	0xbde741a6	-0.11291818
46	0xbe37f69c	-0.17965168
47	0xbd561d16	-0.052273832
48	0xbe1187cc	-0.14211959
49	0xbce7ac43	-0.028280383
50	0x3cc38e65	0.02387161
51	0xbdd8c168	-0.10583764
52	0x3dd47ce3	0.10375383
53	0xbe6f8c0f	-0.23393272
54	0x3e2806d6	0.16408858
55	0x3d9eda54	0.077564865
56	0x3df2f0da	0.11862345
57	0xbd91e418	-0.071235836
58	0x3da0c5c7	0.07850223
59	0x3dc02f51	0.09384025
60	0x3cfbcf7a	0.030738581
61	0xbdbb320b	-0.09140404
62	0xbda0b975	-0.07847873
63	0x3e1d118f	0.1533873
64	0x3e5c044c	0.21486014
65	0xbb4fc06a	-0.003170038
66	0xbe4b3ad4	-0.1984666
67	0x3c8156fe	0.015788551
68	0xbe73b93d	-0.23801132
69	0x3dd6e61e	0.1049311
70	0xbda6c482	-0.0814295
71	0x3d92fffa	0.0717773
72	0xbe017f31	-0.12646176
73	0x3e020d8e	0.12700483
74	0xbe2c0bc3	-0.16801362
75	0x3e333e42	0.17504218
76	0x3e2ea990	0.1705687
77	0x3e5b0fd5	0.21392758
78	0x3da54a17	0.08070772
79	0xbe111645	-0.14168651
80	0x3ba99d66	0.005176234
81	0x3e2d2bfa	0.16911307
82	0xbe23761a	-0.15963021
83	0xbe42910e	-0.19000646
84	0x3dab792a	0.083727196
85	0xbdf6bdeb	-0.12047943
86	0xbe58b735	-0.21163638
87	0x3e237e34	0.15966111
88	0x3e25c9af	0.16190217
89	0xbe180745	-0.14846523
90	0xbdcd5925	-0.100267686
91	0x3cf6a796	0.030109208
92	0xbe03f36f	-0.12885831
93	0xbe666dfc	-0.22502893
94	0x3de7da4e	0.11320935
95	0x3d99dcfb	0.07512852
96	0xbe5bea47	-0.21476088
97	0x3c4a1a7d	0.012335417
98	0xba51f6be	-0.0008009485
99	0xbe011e56	-0.12609228
100	0x3e522f83	0.20525937
101	0x3d8c0028	0.06835967
102	0x3e806b4d	0.25081864
103	0xbbfd047c	-0.007721482
104	0xbe15c479	-0.1462573
105	0xbc87d887	-0.01658274
106	0xbe57e48f	-0.21083282
107	0x3ccd47fb	0.025058737
108	0xbe526b32	-0.20548704
109	0x3e45823b	0.1928796
110	0xbd5bb877	-0.053642716
111	0x3e0acae6	0.13553962
112	0x3e31afdf	0.17352246
113	0xbe522825	-0.20523126
114	0x3e6e6ae3	0.23282962
115	0xbe4529f3	-0.19254284
116	0x3e687ab9	0.22703065
117	0xbd87d412	-0.06632246
118	0x3d8207fa	0.06349178
119	0x3d9afb67	0.075674824
120	0x3e7f3f7d	0.24926563
121	0x3e434a53	0.19071321
122	0x3e235518	0.1595043
123	0x3d4b99de	0.049707286
124	0xbdc5488c	-0.09632978
125	0x3c583da7	0.013198293
126	0xbb9d9b59	-0.0048097786
127	0x3e323274	0.17402059
128	0xbe36009b	-0.17773668
129	0x3e30a344	0.17249781
130	0x3e0afda8	0.13573325
131	0x3e7f06ad	0.2490489
132	0x3d63126b	0.055437487
133	0x3e628130	0.22119594
134	0xbe28dec7	-0.16491233
135	0xbe44c1c5	-0.19214542
136	0x3cf63ad4	0.030057348
137	0x3ddb2570	0.107005
138	0x3e2d0cc6	0.16899404
139	0xbe59b02c	-0.2125861
140	0xbd3f5168	-0.046708494
141	0xbe249dda	-0.1607584
142	0x3a7e5da3	0.0009703284
143	0x3bbaa47d	0.005695878
144	0xbe469359	-0.19392146
145	0xbcbf92e8	-0.02338548
146	0xbe273aac	-0.16330975
147	0xbdadb7ec	-0.08482346
148	0x3cf80187	0.030274166
149	0x3e2c2564	0.16811138
150	0x3c9cf648	0.019160405
151	0xbe0dbbea	-0.13841215
152	0xbe29db7d	-0.16587634
153	0xbd8ee9a5	-0.06978158
154	0x3d1315f0	0.035909593
155	0xbe26dde9	-0.1629559
156	0x3e738a66	0.23783264
157	0x3debcb84	0.11513427
158	0x3e536926	0.2064558
159	0x3d3426c1	0.04398227
160	0xbe28a9a5	-0.16470964
161	0x3e305127	0.17218457
162	0xbe170957	-0.14749657
163	0x3e53d8d6	0.20688185
164	0x3d35e95a	0.044411995
165	0x3e399797	0.18124233
166	0xbe6e0ccb	-0.23247068
167	0xbdce73c1	-0.10080672
168	0x3e066d13	0.13127546
169	0xbe17b5f8	-0.1481551
170	0x3e4bfa6f	0.19919752
171	0xbbe37f8d	-0.0069426955
172	0xbe500dd5	-0.20317777
173	0x3dd37684	0.103253394
174	0x3d3aaa46	0.04557254
175	0xbdd983c8	-0.106208384
176	0xbd9efe09	-0.07763297
177	0xbb976926	-0.004620689
178	0xbd961f93	-0.07330241
179	0x3e7a3e75	0.24437888
180	0xbe4bb28e	-0.19892332
181	0x3be0d843	0.006861718
182	0xbe287e32	-0.1645439
183	0xbcc50184	-0.024048574
184	0xbdf235c5	-0.11826662
185	0x3e7bbf61	0.24584724
186	0xbe07ae19	-0.13250007
187	0x3e592933	0.21207123
188	0xbcdbcd12	-0.026831184
189	0x3b70e976	0.0036760247
190	0xbd975e67	-0.07391053
191	0xbc314e2b	-0.010821859
192	0xbd62ca34	-0.055368617
193	0xbdc78b1b	-0.09743329
194	0xbe41acb4	-0.18913537
195	0xbd8a5ae0	-0.06755614
196	0xbe0d9236	-0.13825306
197	0x3d4a4593	0.049382757
198	0xbc161f21	-0.009162695
199	0xbe1fed33	-0.15617828
200	0xbe76bdf1	-0.24095894
201	0xbdfc50bc	-0.12320086
202	0x3e4be6c1	0.19912244
203	0x3dc1227d	0.09430406
204	0x3e12cb69	0.14335407
205	0xbd88166b	-0.06644901
206	0x3e403194	0.18768913
207	0x3e4adcf8	0.19810855
208	0xbe04c216	-0.12964663
209	0xbe0445ec	-0.12917298
210	0x3e06e2e9	0.13172497
211	0x3e174ed8	0.1477617
212	0xbda19a6a	-0.0789078
213	0x3dc431df	0.09579825
214	0x3db59a82	0.08867361
215	0xbddcc245	-0.107792415
216	0xbe471783	-0.19442563
217	0xbd8a9dc3	-0.06768372
218	0xbe37eae7	-0.17960702
219	0x3e5c4a51	0.21512724
220	0x3e0b4c3f	0.13603304
221	0x3e70c5f4	0.23513013
222	0x3e1d7136	0.15375218
223	0x3dc5ceb7	0.09658568
224	0x3ccbe405	0.024889002
225	0x3e3bccfe	0.18339917
226	0x3dd45ab4	0.10368863
227	0x3cbf2a9e	0.023335751
228	0x3e32f63b	0.17476742
229	0x3e472af4	0.19449979
230	0xbdaf9430	-0.085731864
231	0xbd621a3e	-0.055200808
232	0xbd4e402b	-0.050354164
233	0xbe42c770	-0.19021392
234	0xbe2e7093	-0.17035131
235	0xbe543a7b	-0.20725434
236	0x3c8cdf55	0.017196337
237	0xbd139746	-0.036032937
238	0x3dff6eae	0.12472282
239	0x3d533473	0.05156369
240	0xbe0d0c0a	-0.13774124
241	0x3d77e2bc	0.060518965
242	0xbe628f3e	-0.22124955
243	0x3db7ae0f	0.08968746
244	0x3e1fcb64	0.15604931
245	0xbe2c0dc8	-0.16802132
246	0x3d01a888	0.031654865
247	0x3b635bd5	0.0034692187
248	0x3d3bcd8d	0.045850325
249	0x3e388a00	0.18021393
250	0xbe31db84	-0.17368895
251	0xbe2bba76	-0.16770348
252	0x3d14e7a8	0.036353737
253	0xbe57d6df	-0.2107806
254	0xbe0006f0	-0.12502646
255	0x3dae5b93	0.0851356

lstm_p.bias_ih_l0 f4 [64]
0	0xbc8b152a	-0.016977865
1	0xbe4b1588	-0.19832432
2	0xbe393cf0	-0.18089652
3	0xbdaea842	-0.085281864
4	0x3e175a4b	0.14780538
5	0xbd55400b	-0.05206303
6	0x3c8662e3	0.016404575
7	0xbe412636	-0.18862233
8	0x3e44d49c	0.19221729
9	0xbe817d20	-0.25290775
10	0x3dd340c8	0.103150904
11	0x3d838c0c	0.06423196
12	0x3e7421c1	0.23841001
13	0xbe1ba3a2	-0.1519914
14	0x3e065061	0.131166
15	0x3e031da2	0.12804273
16	0xbe1c7a91	-0.1528113
17	0x3e50d5d5	0.2039407
18	0xbe256dec	-0.16155213
19	0xbe2ba652	-0.16762665
20	0xbe57f816	-0.21090731
21	0x3e4c61b4	0.19959146
22	0x3d9823a3	0.07428672
23	0x3b824b7f	0.003976285
24	0x3c361c5c	0.01111516
25	0x3e38a33f	0.18031023
26	0xbcd26523	-0.025682991
27	0x3d1d91b6	0.03846904
28	0xbe000c30	-0.12504649
29	0xbe3c0e58	-0.18364847
30	0xbe7156fa	-0.23568335
31	0x3e089c10	0.13340783
32	0xbdbbc3d7	-0.09168213
33	0xbe040595	-0.12892754
34	0x3e2b4acc	0.16727751
35	0x3e66c476	0.22535881
36	0x3c6fd688	0.014638551
37	0xbda1a000	-0.07891846
38	0xbe6f1bd2	-0.23350456
39	0xbe643311	-0.22285105
40	0x3dfa399e	0.12218021
41	0xbe1ccc5a	-0.15312329
42	0xbe5ba112	-0.21448162
43	0xbe5aa0cf	-0.21350406
44	0xbd8ac507	-0.06775861
45	0x3dfa03d5	0.12207762
46	0x3e27d718	0.16390646
47	0xbd7b7ccb	-0.06139831
48	0x3e50341c	0.20332378
49	0x3e5d0e95	0.21587594
50	0x3e01779c	0.12643284
51	0x3e734b40	0.23759174
52	0xbe7b3996	-0.24533686
53	0x3d9576fc	0.07298085
54	0xbe428d90	-0.18999314
55	0xbb9c1bcd	-0.0047640563
56	0x3d836622	0.06415965
57	0x3d9ab811	0.07554639
58	0xbd04bd84	-0.0324073
59	0x3d636891	0.055519644
60	0xbe0eb69e	-0.1393685
61	0x3e3001d7	0.17188202
62	0xbdd12e2f	-0.10213887
63	0xbe1e0a4a	-0.15433612

lstm_p.bias_hh_l0 f4 [64]
0	0xbe75e192	-0.2401183
1	0xbc2670df	-0.0101587465
2	0xbdbac375	-0.09119312
3	0x3db58b0e	0.08864413
4	0xbc820dc9	-0.015875714
5	0x3d7d9925	0.061913628
6	0xbe363d1b	-0.17796747
7	0x3e6cfa7e	0.2314243
8	0xbc02e96d	-0.007990223
9	0xbe49b673	-0.19698505
10	0x3e4152c6	0.18879232
11	0x3cc9c194	0.024628438
12	0xbbef9b6f	-0.0073122303
13	0xbe02a5a4	-0.127585
14	0xbda1b49a	-0.07895775
15	0x3d344481	0.044010643
16	0x3dfbbbd1	0.122916825
17	0xbe71ee99	-0.23626174
18	0x3d2e4c1b	0.04255305
19	0x3d846365	0.064642705
20	0x3e0aac28	0.13542235
21	0x3db5d5ae	0.08878647
22	0x3d9eb343	0.07749035
23	0x3e5700b9	0.2099637
24	0xbd9183e8	-0.07105237
25	0x3cfdf107	0.03099872
26	0xbdaa860c	-0.08326349
27	0x3d51512e	0.05110281
28	0xbdd7377a	-0.10508628
29	0x3daf544f	0.085610025
30	0x3cc1a38d	0.023637557
31	0x3c21827b	0.009857769
32	0xbe6a577e	-0.22884938
33	0x3e298c2f	0.16557382
34	0xbe6fe81e	-0.2342839
35	0x3d604e70	0.054762304
36	0xbe18b991	-0.14914538
37	0xbe253d67	-0.16136704
38	0xbc1d033d	-0.009583292
39	0xbe3007c9	-0.1719047
40	0xbdf902ea	-0.12158759
41	0xbe1eb076	-0.15497002
42	0x3e2e361c	0.17012829
43	0xbdcb8940	-0.09938288
44	0x3da460e5	0.08026294
45	0xbd2037e3	-0.039115798
46	0xbe4cc984	-0.19998747
47	0x3dfad323	0.122473024
48	0xbdf3f937	-0.11912768
49	0x3e178493	0.14796667
50	0xbe4f3431	-0.20234753
51	0xbe7b27ee	-0.2452695
52	0x3d9d0f1e	0.07668899
53	0xbd4a88b6	-0.049446784
54	0xbe0f7ee6	-0.14013252
55	0x3e76ec63	0.24113612
56	0x3e726f5c	0.23675293
57	0xbe793b07	-0.24338923
58	0x3e4d5bc6	0.2005454
59	0x3e09ac6f	0.13444684
60	0xbd8e3a25	-0.06944684
61	0xbdc71b88	-0.09722048
62	0x3d937419	0.07199878
63	0xbd59cca5	-0.05317368

lstm_p.weight_ih_l1 f4 [64, 16]
0	0xbd702318	-0.058627218
1	0x3d9bdcd0	0.07610476
2	0x3e6238b8	0.22091949
3	0x3c246727	0.010034359
4	0xbe2b850a	-0.16749969
5	0x3dc3d00a	0.09561165
6	0x3e60e053	0.21960573
7	0x3e60cae0	0.2195239
8	0x3e549374	0.20759374
9	0xbddc88ed	-0.10768304
10	0xbe1720b8	-0.14758575
11	0x3e0350c4	0.12823778
12	0x3dc1470f	0.094373815
13	0x3e43eabe	0.19132516
14	0xbdbbb735	-0.09165803
15	0xbdd1d839	-0.10246319
16	0xbd59cdeb	-0.053174894
17	0x3e3ca2b5	0.18421443
18	0x3daead4f	0.0852915
19	0x3e712c2b	0.23552005
20	0xbe0188a9	-0.12649788
21	0xbd9e9c6b	-0.07744678
22	0x3e0e1e30	0.13878703
23	0xbd7963af	-0.06088608
24	0x3e46e22a	0.19422212
25	0xbd7672d2	-0.060168095
26	0x3e24b6de	0.16085383
27	0x3e2189f5	0.15775283
28	0x3d5335c5	0.05156495
29	0xbd8105b3	-0.06299915
30	0xbe1f1cff	-0.15538405
31	0xbe0619e6	-0.13095817
32	0xbe075d01	-0.13219072
33	0xbe35974a	-0.17733493
34	0x3e343906	0.17599878
35	0x3dade5e1	0.084911115
36	0xbdc24f62	-0.09487797
37	0x3e5540df	0.20825528
38	0x3d093255	0.033495266
39	0xbc20fa0a	-0.009825239
40	0x3e260ede	0.16216609
41	0x3e76be9e	0.24096152
42	0x3e289b48	0.16465485
43	0xbde16469	-0.1100548
44	0xbe6d6258	-0.23182046
45	0xbdf2e17f	-0.11859416
46	0xbd3cf82b	-0.04613511
47	0x3df0190d	0.11723528
48	0x3e168c39	0.14701928
49	0xbe70859c	-0.23488468
50	0x3e54544a	0.20735279
51	0x3e779ebd	0.24181648
52	0xbda06845	-0.07832388
53	0x3e5479e6	0.20749626
54	0x3e01cda3	0.126761
55	0xbe1f86c8	-0.15578759
56	0xbdb492b1	-0.08817042
57	0xbe460b41	-0.1934023
58	0x3e677167	0.22601853
59	0x3e37aaaf	0.17936204
60	0x3e2f4455	0.1711591
61	0x3e0427a5	0.12905748
62	0x3e224c5c	0.15849441
63	0x3e2d64c8	0.16932976
64	0xbd72fb5c	-0.059321746
65	0xbdb14285	-0.08655266
66	0x3e417c68	0.18895113
67	0xbdb36ed5	-0.08761374
68	0x3df6e63b	0.12055632
69	0xbdce51c8	-0.10074192
70	0xbe56ad78	-0.2096461
71	0xbe4a039a	-0.19727936
72	0x3e68b8d3	0.22726755
73	0x3e61bdc4	0.22045046
74	0xbe6017f8	-0.21884143
75	0x3c4effa9	0.012634196
76	0x3e5f3ab0	0.21799731
77	0xbe1ed2e0	-0.1551013
78	0x3adaaf70	0.0016684365
79	0x3e0344a4	0.12819153
80	0x3e166f16	0.14690813
81	0xbdab5035	-0.08364908
82	0xbd87ca87	-0.06630426
83	0x3d44fceb	0.048092764
84	0x3d364784	0.044501796
85	0xbd507e92	-0.050901957
86	0x3e5e2e92	0.21697453
87	0xbe11f4b2	-0.142535
88	0xbdf79174	-0.1208829
89	0x3e57fb36	0.21091923
90	0xbc943b53	-0.018094694
91	0xbc9394dd	-0.01801532
92	0x3e0c7326	0.137158
93	0x3dcd3ea5	0.10021714
94	0xbbbd6ff5	-0.0057811686
95	0x3ddc3e8c	0.10754117
96	0x3df2e6b2	0.11860408
97	0xbda7cddc	-0.081935614
98	0x3e14b4a1	0.1452203
99	0x3e23b95f	0.15988682
100	0xbe7cc7e7	-0.24685632
101	0xbe1e92b6	-0.15485653
102	0x3e48e6ec	0.1961934
103	0x3c2e889e	0.010652689
104	0x3e06167f	0.13094519
105	0x3dc30049	0.09521539
106	0xbdbe0adc	-0.09279415
107	0xbdc20928	-0.09474403
108	0xbe4f6c3f	-0.20256136
109	0xbe2ddfd8	-0.16979921
110	0x3e5d9719	0.2163967
111	0xbe50ff8f	-0.20409988
112	0x3e03a771	0.12856843
113	0x3dfa427b	0.122197114
114	0x3e5f205b	0.21789686
115	0xbe7c5ade	-0.24644038
116	0x3dda1b86	0.10649781
117	0x3ddcb0c5	0.107759036
118	0x3e2c1a04	0.16806799
119	0x3e6ca2ab	0.23108928
120	0x3e0196f4	0.1265524
121	0x3d8e1db4	0.06939259
122	0xbd1bfb54	-0.038081482
123	0xbe6113f4	-0.21980268
124	0x3db4e1de	0.08832143
125	0xbdd1f62f	-0.10252034
126	0x3e0834f5	0.13301452
127	0xbe528dc0	-0.20561886
128	0xbd06e2a9	-0.032931004
129	0x3e215b92	0.15757588
130	0x3d062e7c	0.032759175
131	0xbd2295fb	-0.039693814
132	0x3da13641	0.07871676
133	0x3d9c5b46	0.076345965
134	0xbe502c3e	-0.20329377
135	0xbc9c9fad	-0.019119108
136	0x3dd5431d	0.104131915
137	0x3e48dbcc	0.19615096
138	0x3e04a83b	0.129548
139	0x3d147187	0.03624108
140	0x3e4c027b	0.19922821
141	0x3e23b03c	0.15985197
142	0xbd714407	-0.058902767
143	0x3ceebf86	0.02914406
144	0xbd969234	-0.07352105
145	0xbdd707f5	-0.104995646
146	0x3e428b13	0.18998365
147	0x3ddb7b7c	0.10716912
148	0x3e65bb1f	0.22434662
149	0x3db4920d	0.088169195
150	0xbdfdb89c	-0.12388727
151	0xbb3ccb77	-0.0028807798
152	0x3cff5ec6	0.031173121
153	0x3ccf8173	0.02533028
154	0xbe5bf80b	-0.2148134
155	0xbd453048	-0.048141748
156	0xbd036b5d	-0.03208481
157	0xbe5cb440	-0.21553135
158	0xbe3cc00e	-0.18432638
159	0x3e472d92	0.19450977
160	0xbe62d361	-0.22150947
161	0x3d4a2955	0.049355824
162	0x3bb40990	0.005494304
163	0xbe61e34d	-0.22059365
164	0xbe4c6188	-0.1995908
165	0xbc652c6d	-0.013987643
166	0xbe7cd5ca	-0.24690929
167	0x3cb3abf8	0.021932587
168	0x3e2038a9	0.15646614
169	0xbdecf5cf	-0.11570322
170	0x3d426e85	0.04746868
171	0xbc95e94d	-0.018299723
172	0x3e63f9b9	0.2226323
173	0xbc967d99	-0.018370437
174	0xbde0f220	-0.10983682
175	0xbc2513a4	-0.0100754835
176	0xbe02af29	-0.12762131
177	0xbe11953e	-0.14217088
178	0xbdb0ebbb	-0.08638712
179	0x3cf9447d	0.030428166
180	0x3e799bfb	0.24375908
181	0xbe3dc9fc	-0.18534082
182	0x3d0cf5c0	0.034414053
183	0x3e072656	0.13198218
184	0x3e6c13f5	0.23054488
185	0x3e2c0426	0.16798458
186	0x3e24da7b	0.16098969
187	0xbe51bd85	-0.20482452
188	0x3e5ae462	0.21376184
189	0xbe4e909b	-0.2017235
190	0x3d95da60	0.07317042
191	0x3d6a826d	0.05725329
192	0x3dcb32fb	0.09921833
193	0xbc27815d	-0.010223714
194	0xbc97a9a3	-0.018513506
195	0xbde3ad76	-0.111170694
196	0x3e435484	0.19075209
197	0xbe097353	-0.13422899
198	0xbe668a58	-0.22513711
199	0x3e784bc9	0.2424766
200	0xbde02984	-0.109454185
201	0xbe3c901f	-0.18414353
202	0xbe25c676	-0.16188988
203	0xbe037f22	-0.12841466
204	0x3e1aa2ec	0.15101212
205	0xbe59cecd	-0.21270294
206	0xbe6a1dc4	-0.22862917
207	0x3e38a3b1	0.18031193
208	0xbe5408ed	-0.2070653
209	0xbe2345cc	-0.15944594
210	0xbcd901cf	-0.02649012
211	0xbe6597a4	-0.22421128
212	0x3e47bd9b	0.19505922
213	0x3e0cc8c1	0.13748457
214	0x3e79ca83	0.24393658
215	0xbe2b9769	-0.16756977
216	0xbe355e8d	-0.1771185
217	0xbde8d531	-0.11368788
218	0x3dfb71fa	0.12277599
219	0x3e4302d3	0.19044046
220	0xbe2ecf90	-0.17071366
221	0x3dc0f272	0.09421243
222	0x3e136443	0.14393716
223	0x3e5fdba6	0.21861133
224	0x3dc0b3c7	0.0940929
225	0x3e69a3cb	0.22816388
226	0xbe12c4a9	-0.14332832
227	0x3e038416	0.12843356
228	0xbe762578	-0.2403773
229	0x3e064bf5	0.13114913
230	0x3c1217af	0.008916779
231	0xbe7194dd	-0.23591943
232	0xb907c0fe	-0.00012946498
233	0x3e4070a6	0.18792972
234	0xbbba8776	-0.0056924177
235	0x3e0807f5	0.13284285
236	0x3dcf85b6	0.10132925
237	0xbe3d1f85	-0.18469055
238	0xbdc90e01	-0.09817124
239	0x3e50b3bd	0.20381065
240	0x3e09826c	0.13428658
241	0x3e212bf8	0.15739429
242	0x3cc31ca6	0.023817372
243	0xbc8cfbc6	-0.017209899
244	0x3d961695	0.07328526
245	0xbc1de1bd	-0.00963634
246	0xbd317520	-0.04332459
247	0xbe65cefa	-0.22442237
248	0xbd94fdfa	-0.07275005
249	0x3c8e7c18	0.017393157
250	0x3d74c4d5	0.059758026
251	0x3e0006f0	0.12502646
252	0x3d73f3da	0.059558727
253	0xbcc46c3b	-0.02397739
254	0x3e1943f4	0.14967328
255	0x3dc44084	0.09582618

lstm_p.weight_hh_l1 f4 [64, 16]
0	0x3e45727f	0.19281958
1	0xbe14e286	-0.14539537
2	0x3e661958	0.22470605
3	0xbde65211	-0.11246122
4	0xbd3ebf55	-0.046569187
5	0xbe40e177	-0.18836008
6	0x3d7b4781	0.06134749
7	0x3e470813	0.19436674
8	0xbda23592	-0.07920374
9	0x3e2506cd	0.16115876
10	0xbc866025	-0.016403267
11	0x3e79ce8f	0.24395202
12	0xbe15f0a5	-0.1464258
13	0x3c4ead61	0.012614579
14	0x3e4cca13	0.1999896
15	0xbe4f3303	-0.20234303
16	0x3df80bb3	0.121116064
17	0xbe7654fc	-0.24055856
18	0x3e4549cd	0.19266434
19	0x3dc0cfeb	0.09414657
20	0x3d54942a	0.051899113
21	0xbe6da09b	-0.23205797
22	0x3e8030f4	0.25037348
23	0x3e3a62af	0.18201707
24	0x3e6e03d2	0.23243645
25	0xbe58b0b3	-0.21161155
26	0x3e6617ee	0.22470066
27	0x3d1ef98b	0.0388122
28	0x3e1ec563	0.15504985
29	0xbe78f6b9	-0.24312867
30	0xbdfae6bb	-0.122510396
31	0x3c8c34f7	0.0171151
32	0x3e1fe298	0.15613782
33	0xbe66544b	-0.22493093
34	0x3e14ed58	0.14543664
35	0x3e075af3	0.13218288
36	0xbe411caa	-0.1885859
37	0x3e62846a	0.22120824
38	0xbde0bce1	-0.10973526
39	0x3d95cbf8	0.073142946
40	0xbe24ee1d	-0.16106458
41	0xbe0ca13a	-0.13733378
42	0xbd7dd0c3	-0.06196667
43	0xbdacdb7a	-0.08440299
44	0x3d04484b	0.032295506
45	0xbd819f92	-0.06329264
46	0xbe149727	-0.14510785
47	0x3e621788	0.22079289
48	0xbbb59bd3	-0.0055422573
49	0xbe52ae0f	-0.2057421
50	0x3e5bc0d4	0.21460277
51	0x3e5b718a	0.2143003
52	0xbe0dc8b0	-0.13846087
53	0x3e34f288	0.17670643
54	0xbdc91222	-0.09817912
55	0xbe4ae88e	-0.19815275
56	0xbe807ff4	-0.2509762
57	0xbe020d38	-0.12700355
58	0x3dee7d56	0.11645
59	0x3e7bc2ab	0.24585979
60	0x3e65ca25	0.22440393
61	0xbd116d42	-0.035504587
62	0xbd72819d	-0.05920564
63	0xba3ebf42	-0.00072764244
64	0x3e613ff6	0.21997055
65	0xbe378cb1	-0.17924763
66	0xbe045cfc	-0.12926096
67	0x3b2bdd68	0.0026224498
68	0xbe6dfa90	-0.23240113
69	0x3e0a6d22	0.13518193
70	0xbe1e427d	-0.15455051
71	0xbd9e4754	-0.077284485
72	0xbe04ed27	-0.12981091
73	0xbc02e560	-0.007989258
74	0x3e5a5543	0.21321587
75	0xbdc65406	-0.09683995
76	0xbdd62957	-0.10457104
77	0x3dec4d97	0.115382366
78	0xbd0d4f99	-0.03449974
79	0xbca83657	-0.020533724
80	0x3e508ad1	0.20365454
81	0x3da0e0b4	0.07855359
82	0xbd41e2e9	-0.04733554
83	0x3e627cc9	0.22117914
84	0xbe7ee5aa	-0.24892297
85	0x3e588895	0.21145852
86	0xbdb1d526	-0.08683233
87	0x3e2e6dd9	0.17034091
88	0xbd9590d7	-0.07303017
89	0xbe5150cf	-0.20440982
90	0xbc0b8eee	-0.008517964
91	0x3e67b265	0.22626646
92	0x3cf2c670	0.029635638
93	0xbe488b67	-0.19584428
94	0x3e355b6e	0.17710659
95	0x3e771ee7	0.24132882
96	0x3e666e4b	0.22503011
97	0xbe030f2d	-0.12798758
98	0xbe334bb1	-0.17509343
99	0xbe7c0ee6	-0.24615058
100	0xbd552c65	-0.05204429
101	0x3d8af55f	0.06785082
102	0xbe7c91b0	-0.2466495
103	0x384aeb5d	4.8379752e-05
104	0x3d170eed	0.03687947
105	0x3e3af917	0.18259083
106	0x3e285615	0.16439088
107	0x3dd148e1	0.10218979
108	0xbcc11e3c	-0.023573987
109	0x3e6e9f28	0.23302901
110	0xbcc17f0a	-0.023620147
111	0xbd6ebadb	-0.058283668
112	0xbe00e318	-0.1258663
113	0x3d898c34	0.06716195
114	0xbe1ad2d4	-0.15119487
115	0x3ddc1583	0.107462905
116	0xbe6627ca	-0.22476116
117	0x3ce814aa	0.028330166
118	0xbbb504c6	-0.0055242507
119	0xbe345898	-0.17611921
120	0x3e519931	0.20468594
121	0x3e4c3379	0.1994151
122	0x3e1ca3b1	0.15296818
123	0x3e3ad46a	0.18245092
124	0xbc887c69	-0.016660886
125	0xbe20544a	-0.15657154
126	0xbd870d8c	-0.06594381
127	0xbe1eb396	-0.15498194
128	0xbe01f7c9	-0.12692179
129	0x3d0f2b56	0.034953438
130	0xbdcb9a6d	-0.09941564
131	0x3e810ed6	0.2520663
132	0x3e264a44	0.16239268
133	0x3e8103d3	0.2519823
134	0x3de76b03	0.11299708
135	0x3e11b7c1	0.14230253
136	0xbe01daf5	-0.12681182
137	0x3e48c2b9	0.19605531
138	0x3e42bf08	0.19018185
139	0x3dab807e	0.08374117
140	0x3da79c59	0.08184118
141	0xbe58f848	-0.21188462
142	0x3ad1be61	0.0016002172
143	0x3e5791d5	0.21051724
144	0xbdcf9359	-0.10135526
145	0x3e43687f	0.19082831
146	0xbe01031f	-0.12598847
147	0xbe29c093	-0.16577367
148	0x3e13a5ea	0.1441876
149	0x3e051207	0.12995158
150	0x3da83525	0.082132615
151	0xbdd6168c	-0.10453519
152	0x3e27c545	0.16383846
153	0xbdd790ec	-0.105256885
154	0x3e0d1e18	0.13781011
155	0x3e667011	0.22503687
156	0xbdefaa7b	-0.117024384
157	0x3e49f3d1	0.19721915
158	0x3e3632ba	0.17792788
159	0x3d95087b	0.07277008
160	0xbdca449a	-0.09876366
161	0xbd6f8995	-0.058480818
162	0x3e1d4eeb	0.15362136
163	0x3dd25fb5	0.10272161
164	0x3a212df7	0.0006148512
165	0xbdbedbb5	-0.093192495
166	0x3cebd051	0.028785856
167	0x3e7b9aa1	0.24570705
168	0x3e48d96b	0.19614188
169	0xbe24d1bf	-0.16095637
170	0x3e7ea81e	0.24868819
171	0x3e1970dd	0.1498446
172	0x3e8167c0	0.25274467
173	0xbd905140	-0.07046747
174	0x3d8748e4	0.066057
175	0xbd4792a7	-0.048723843
176	0xbe0ebfa8	-0.13940299
177	0xbd96bafc	-0.07359883
178	0xbe199f4e	-0.15002176
179	0x3d8f038b	0.06983098
180	0xbd2f3787	-0.042777564
181	0xbe4d6d7e	-0.20061299
182	0xbda354e2	-0.079751745
183	0xbbba193a	-0.005679277
184	0xbdff8df4	-0.12478247
185	0xbe20117a	-0.15631667
186	0xbe74a2e4	-0.23890263
187	0x3e09f186	0.1347104
188	0x3e0d1375	0.13776954
189	0xbe7e980b	-0.24862687
190	0x3e03dc39	0.12876977
191	0xbe44d275	-0.19220908
192	0xbdd34515	-0.10315911
193	0xbe1dd672	-0.15413836
194	0xbd6f64f5	-0.05844589
195	0xbe058a50	-0.13041043
196	0xbc204539	-0.009782129
197	0x3d4376ad	0.0477206
198	0xbdcf6a0e	-0.1012765
199	0x3e1bce2e	0.1521537
200	0xbdbae14a	-0.09125002
201	0xbd80d43d	-0.06290481
202	0x3d782229	0.060579453
203	0x3e004502	0.12526324
204	0x3e320785	0.17385681
205	0x3dcdbb1c	0.10045454
206	0x3c8ba2f6	0.01704548
207	0xbd09b243	-0.03361727
208	0xbe1cc99d	-0.15311284
209	0x3e54fe8d	0.20800228
210	0xbc285342	-0.010273756
211	0x3e414bb7	0.18876539
212	0x3deb981f	0.11503624
213	0x3e2214c1	0.1582823
214	0xbe301cd9	-0.17198505
215	0x3dfa6f00	0.12228203
216	0x3e7b2ab4	0.24528009
217	0xbe60708b	-0.21917932
218	0x3e2ef87a	0.17086974
219	0xbe1528a2	-0.14566281
220	0xbe14047f	-0.1445484
221	0xbe6256c9	-0.22103418
222	0xbe79dd20	-0.24400759
223	0xbe34439d	-0.17603917
224	0xbe370102	-0.17871478
225	0x3af54e64	0.0018715379
226	0xbdf04868	-0.117325604
227	0x3b2a573c	0.0025991937
228	0x3e2575d4	0.16158229
229	0x3e5c8fee	0.2153928
230	0xbe439f50	-0.19103742
231	0x3e3dd927	0.18539868
232	0xbc840d4f	-0.016119627
233	0xbdb428b5	-0.08796827
234	0x3e80d441	0.25161937
235	0xbe5686d0	-0.20949864
236	0xbe1282f5	-0.14307769
237	0x3dd689cf	0.10475504
238	0x3dd8567b	0.1056337
239	0x3de44fc2	0.11148025
240	0xbe5ccd97	-0.21562801
241	0xbe256b81	-0.1615429
242	0xbe291a0b	-0.16513841
243	0x3e32bcff	0.17454909
244	0x3dd5c89a	0.10438652
245	0xbcce6d69	-0.025198655
246	0x3e3241dd	0.17407937
247	0x3c36d2a5	0.01115862
248	0xbe6c3d13	-0.23070173
249	0xbd90240f	-0.07038128
250	0x3e011c65	0.12608488
251	0xbd4d5373	-0.05012841
252	0x3dce1735	0.1006302
253	0x3d7045bf	0.058660265
254	0xbd7d44b4	-0.0618331
255	0xbe48d933	-0.19614105

lstm_p.bias_ih_l1 f4 [64]
0	0xbd91db6d	-0.0712193
1	0x3c0807ad	0.008302611
2	0x3d29a703	0.04141904
3	0xbe6ee99a	-0.233313
4	0xbe7a0d6c	-0.24419183
5	0x3d88d6c9	0.06681592
6	0xbe06ea2a	-0.13175264
7	0x3e421657	0.18953834
8	0x3d7cb24e	0.061693482
9	0x3d65e28e	0.056124263
10	0xbe76e137	-0.2410935
11	0x3dab8226	0.08374433
12	0xbd05a850	-0.03263122
13	0xbd09ce5d	-0.03364407
14	0xbe439371	-0.19099213
15	0xbe7e2174	-0.24817449
16	0x3e30c472	0.17262438
17	0xbe230935	-0.15921481
18	0x3d5313cc	0.05153255
19	0xbe322f56	-0.1740087
20	0xbe416ecf	-0.18889926
21	0x3df318c0	0.11869955
22	0x3d8f6fbb	0.07003733
23	0xbdf07eb3	-0.11742916
24	0x3ddf9c7b	0.10918518
25	0xbe1b2ff3	-0.1515501
26	0xbe2f0b65	-0.1709419
27	0x3cbf898c	0.023381017
28	0x3cccb6a5	0.024989435
29	0xbe469d9d	-0.19396062
30	0xbe0ff9f7	-0.14060198
31	0xbe0ba17d	-0.13635822
32	0xbd8d4991	-0.06898797
33	0x3e057b59	0.13035335
34	0xbe635442	-0.2220011
35	0x3e353934	0.17697603
36	0x3c5c9b0e	0.013464702
37	0xbcaca145	-0.021072993
38	0xbe073dae	-0.13207123
39	0xbe5641fc	-0.20923609
40	0xbdaccb63	-0.084372304
41	0x3dfdb136	0.12387316
42	0xbe4b88f0	-0.19876456
43	0x3e634fed	0.22198458
44	0xbe2a4149	-0.16626467
45	0x3e115748	0.14193451
46	0xbe67bf1c	-0.22631496
47	0xbe739df9	-0.2379073
48	0xbdc39597	-0.095500164
49	0x3e3df0aa	0.18548837
50	0x3df7740c	0.12082681
51	0xbe1485d4	-0.14504176
52	0x3d914162	0.07092549
53	0xbdf9226e	-0.1216477
54	0x3e64b36c	0.22334069
55	0x3e72e081	0.23718454
56	0x3b911c48	0.00442842
57	0x3e29e9fd	0.16593166
58	0xbdb78c68	-0.08962327
59	0x3dada1aa	0.084781006
60	0x3e0a8693	0.13527898
61	0x3df8d4fa	0.12149997
62	0x3da70e31	0.08157004
63	0x3e6ed632	0.23323897

lstm_p.bias_hh_l1 f4 [64]
0	0x3d95b16b	0.073092304
1	0x3e28fcf0	0.16502738
2	0x3e005b5e	0.12534854
3	0x3c8fb0ff	0.017540453
4	0xbd4c7f4e	-0.049926095
5	0x3e458f0b	0.19292848
6	0x3e61b878	0.22043025
7	0x3e5bcf9b	0.21465914
8	0x3d838648	0.064220965
9	0x3e0dc86d	0.13845988
10	0xbe13a2f7	-0.14417635
11	0xbe232a70	-0.15934157
12	0x3d29efd5	0.041488487
13	0xbe4ae3ed	-0.1981351
14	0xbdf4d914	-0.11955467
15	0x3e136370	0.14393401
16	0xbdfafe90	-0.12255585
17	0xbe29aec3	-0.16570573
18	0xbe6064b4	-0.21913415
19	0x3e25395e	0.16135165
20	0x3e2c2b97	0.16813503
21	0x3e3e2fde	0.18572947
22	0xbd23920b	-0.0399342
23	0xbdfda563	-0.12385061
24	0x3e66fdc4	0.22557741
25	0xbe25262b	-0.16127841
26	0x3e51f08f	0.20501922
27	0x3d3dd2e0	0.046343684
28	0xbdd2a42d	-0.1028522
29	0x3ddc0d01	0.10744668
30	0xbe094ba3	-0.1340776
31	0x3cbf6d40	0.023367524
32	0x3e4d008b	0.20019738
33	0xbd6295d8	-0.055318683
34	0x3d8739a6	0.066027924
35	0x3e2e8610	0.17043328
36	0xbd9ff27a	-0.078099206
37	0x3e1ffc48	0.15623581
38	0x3e3ec02e	0.18627998
39	0x3ce2b056	0.027671974
40	0x3e40e000	0.18835449
41	0x3e55d7d8	0.20883119
42	0xbe388304	-0.18018728
43	0x3df06aa4	0.1173909
44	0xbb93e923	-0.004513876
45	0xbdc64939	-0.09681935
46	0x3e46a1ee	0.19397709
47	0x3cb22e51	0.021750601
48	0xbc3e7022	-0.011623414
49	0x3dce2c2e	0.1006702
50	0x3d92e63c	0.0717282
51	0x3cb33f60	0.021880805
52	0x3de1a19a	0.11017151
53	0xbc8d2e8a	-0.017234106
54	0xbe4bb128	-0.19891798
55	0x3dd0ddb1	0.10198534
56	0xbd3ba878	-0.04581496
57	0xbdf8a75e	-0.12141298
58	0xbe19af59	-0.15008296
59	0x3df2e716	0.118604824
60	0x3dc3dd2a	0.09563668
61	0xbe486f17	-0.19573627
62	0xbe2a2898	-0.16617048
63	0xbd1e92cb	-0.03871421

attention_p.attn_1.weight f4 [16, 16]
0	0xbe80f905	-0.25189987
1	0x3e2c5484	0.16829115
2	0x3e7959d3	0.24350671
3	0xbeca23ac	-0.3948034
4	0x3cd51673	0.026011681
5	0xbddb6928	-0.10713416
6	0xbd0aeb73	-0.033915948
7	0xbec93d3f	-0.3930454
8	0xbe9986c0	-0.2998562
9	0xbdedf01a	-0.11618061
10	0x3db817ed	0.089889385
11	0x3ea35649	0.31901768
12	0x3ec0f351	0.37685636
13	0x3d7aa3ef	0.061191496
14	0xbdea29c2	-0.11433746
15	0xbecae895	-0.3963057
16	0xbe9b096c	-0.30280626
17	0x3ea0d8d8	0.3141544
18	0x3e34a0b1	0.17639424
19	0xbeca871c	-0.39556205
20	0xbe6fa935	-0.23404391
21	0xbe8c1ed9	-0.27367285
22	0xbe54e037	-0.20788656
23	0x3e7bd848	0.24594223
24	0xbe2717c3	-0.16317658
25	0x3ea4f3c2	0.32217222
26	0x3eb0fc98	0.34567714
27	0xbe499bfe	-0.19688413
28	0xbdabb2f4	-0.08383742
29	0x3eb2b97f	0.34907147
30	0x3e594cc3	0.21220689
31	0x3d8610f3	0.065462016
32	0xbd58be49	-0.052915845
33	0xbe06aac7	-0.13151084
34	0xbd1ec930	-0.038766086
35	0xbe56e479	-0.20985593
36	0x3df81e4e	0.12115155
37	0x3ec433dd	0.3832082
38	0xbd81bb34	-0.06334534
39	0x3e503bcd	0.20335312
40	0x3ed5c0c1	0.41748622
41	0x3e966d6a	0.2938035
42	0xbe0a2332	-0.13489988
43	0xbeca5385	-0.39516845
44	0xbe720018	-0.23632848
45	0x3db7e444	0.08979085
46	0xbe809a25	-0.25117603
47	0xbe95948f	-0.29214904
48	0x3ece3860	0.40277386
49	0xbe0bb030	-0.13641429
50	0xbe8c0a18	-0.2735145
51	0x3eb2896b	0.34870467
52	0xbe93b90e	-0.28852123
53	0x3ec8fec1	0.39256862
54	0x3e628385	0.22120483
55	0xbea09c1c	-0.31369102
56	0x3e9361b8	0.2878549
57	0x3e85bf98	0.26122737
58	0xbd442ded	-0.04789536
59	0xbedc1897	-0.4298751
60	0xbd9a4bfc	-0.07534024
61	0x3ed40d2b	0.41416296
62	0xbdc876c7	-0.0978828
63	0xbcf4a274	-0.02986262
64	0x3ea1b5fc	0.31584156
65	0xbeb3f06b	-0.35144362
66	0xbe3d5196	-0.18488154
67	0x3ddf0396	0.10889356
68	0xbeb84451	-0.3598962
69	0x3e80c9a7	0.2515385
70	0x3e66caa1	0.22538234
71	0x3e3117e3	0.17294268
72	0xbe25d9fb	-0.16196434
73	0xbeb7c056	-0.35888928
74	0x3e06632e	0.13123772
75	0x3eb497dd	0.35272112
76	0x3e2c93ba	0.16853228
77	0xbea8917a	-0.3292349
78	0x3ebb17d7	0.36541626
79	0xbe4f58ce	-0.2024872
80	0xbedb818b	-0.4287227
81	0x3d5b5fad	0.05355804
82	0x3e9955cd	0.29948273
83	0x3ec41a7b	0.38301453
84	0xbddb9c68	-0.107231915
85	0xbe9bafd2	-0.30407578
86	0x3ca5091d	0.020145947
87	0xbe238bc2	-0.15971282
88	0xbcc89f63	-0.024490064
89	0x3de21da0	0.11040807
90	0x3de45b04	0.11150172
91	0xbe5a5337	-0.21320806
92	0x3d9322ad	0.07184348
93	0x3e08ed22	0.13371709
94	0xbe9e5f53	-0.30932102
95	0x3d9f6b3e	0.07784127
96	0x3eb7aa98	0.3587234
97	0xbe2a0afb	-0.16605751
98	0x3e3d332b	0.1847655
99	0x3e14e6d0	0.14541173
100	0x3eae551a	0.34049302
101	0x3e89b729	0.26897553
102	0xbe970507	-0.29496023
103	0xbe166366	-0.14686355
104	0xbd8477e3	-0.06468179
105	0xbe50a6c0	-0.2037611
106	0x3eaa0bdb	0.3321217
107	0xbd003798	-0.03130302
108	0xbde7b7be	-0.11314343
109	0x3eb1e230	0.3474288
110	0xbe26e2ce	-0.16297457
111	0xbe964673	-0.29350623
112	0x3e540a30	0.20707011
113	0x3eae242c	0.34011972
114	0x3c87d62e	0.016581621
115	0xbea63481	-0.32461932
116	0xbcbf313f	-0.023338912
117	0x3ed22bec	0.41049135
118	0xbd49c6a6	-0.04926171
119	0x3e8bb46b	0.27286085
120	0x3e55246d	0.20814677
121	0xbd7cc56a	-0.061711706
122	0x3d0ac0ee	0.0338754
123	0xbd76c694	-0.060247973
124	0xbe9d3cd1	-0.30710462
125	0xbe6d9e0f	-0.23204826
126	0x3e83dd70	0.2575488
127	0xbe86d234	-0.26332247
128	0xbe60e107	-0.21960841
129	0xbe819fa5	-0.25317112
130	0x3ed80415	0.42190614
131	0xbdfa9b0a	-0.122366026
132	0xbe595b2f	-0.2122619
133	0x3eba5c76	0.36398667
134	0x3e2b3aa0	0.16721582
135	0xbec90dd0	-0.3926835
136	0x3ed95b84	0.42452633
137	0x3e67f090	0.22650361
138	0x3df1825b	0.117924415
139	0xbd2d82c1	-0.042361025
140	0x3dfc3e50	0.12316573
141	0xbe1b75d4	-0.15181667
142	0x3e928e97	0.28624412
143	0x3ddc0e3c	0.107449025
144	0x3ec1c245	0.37843528
145	0x3dedff8c	0.11621007
146	0xbd3b2c12	-0.045696326
147	0x3e4ab83f	0.19796847
148	0xbd92ef69	-0.0717457
149	0x3e0036e0	0.12520933
150	0x3d9f7b07	0.077871375
151	0x3eb2fb55	0.34957376
152	0xbe9dd693	-0.3082777
153	0xbc67d201	-0.01414919
154	0xbe5a17e6	-0.21298179
155	0x3e9e1519	0.3087547
156	0xbe22f015	-0.15911897
157	0x3e693bc8	0.22776711
158	0x3e57701b	0.21038859
159	0xbde2e766	-0.11079292
160	0xbc93970f	-0.018016366
161	0x3e8ddab8	0.27705932
162	0xbe9e4916	-0.30915135
163	0x3ed26370	0.4109149
164	0xbdb605a2	-0.08887793
165	0xbdf3c65c	-0.119030684
166	0x3c9420d3	0.018082058
167	0x3b80bb59	0.0039285836
168	0xbea4911e	-0.32141966
169	0xbc88fd4e	-0.016722348
170	0x3e95f628	0.29289365
171	0xbe44f096	-0.19232401
172	0x3e904409	0.28176907
173	0xbed1ae19	-0.40953138
174	0x3eb97282	0.36220175
175	0xbea86117	-0.32886574
176	0xbe8cceb9	-0.27501467
177	0xbe34f780	-0.17672539
178	0xbe3a4508	-0.18190396
179	0xbdc5b8ad	-0.09654365
180	0xbe929280	-0.28627396
181	0x3e6d000e	0.23144552
182	0xbd8bf088	-0.06832987
183	0x3ecbd8c2	0.3981381
184	0x3eccb52a	0.39981967
185	0xbeba982f	-0.36444232
186	0x3e57c612	0.21071652
187	0x3ea9a20b	0.3313144
188	0x3e220cb5	0.1582516
189	0x3b9d5c82	0.0048022876
190	0xbe92f8d8	-0.28705478
191	0x3edb4802	0.42828375
192	0x3e00cfdd	0.12579294
193	0x3ead7687	0.33879492
194	0xbdd08d52	-0.10183205
195	0x3e2a9568	0.16658556
196	0xbe5395be	-0.20662591
197	0xbecc2bdd	-0.39877215
198	0x3bb713c9	0.0055870754
199	0x3ed179ed	0.40913334
200	0x3d5c22bb	0.05374406
201	0xbede906a	-0.43469554
202	0xbc5dd7cf	-0.013540222
203	0x3e7531ac	0.2394473
204	0xbea552e9	-0.32289818
205	0x3ed8ba84	0.423298
206	0x3e7d1084	0.24713331
207	0xbe35f376	-0.17768654
208	0x3e1fcc2a	0.15605226
209	0x3e8dfdc3	0.27732667
210	0x3e9bdd1e	0.30442137
211	0xbbb4406d	-0.005500844
212	0xbd506573	-0.050878
213	0x3e5e3f69	0.21703877
214	0x3e01edd8	0.12688386
215	0xbe095194	-0.13410026
216	0x3d21e6fd	0.03952693
217	0xbea44d23	-0.320901
218	0xbebe5ab2	-0.3717857
219	0x3eb3c1dd	0.35108843
220	0xbed43757	-0.4144847
221	0xbe8739b9	-0.26411226
222	0xbebdbf8e	-0.37060207
223	0x3e010b06	0.12601861
224	0x3e9aedac	0.30259454
225	0xbd669c70	-0.056301534
226	0x3eb6fc94	0.35739577
227	0x3ed595b0	0.41715765
228	0xbd1760eb	-0.036957663
229	0xbec12a76	-0.37727708
230	0xbe7cca77	-0.24686609
231	0xbbbd1e4f	-0.0057714353
232	0xbe07f127	-0.13275586
233	0xbe97459f	-0.29545304
234	0xbdf1eecf	-0.11813127
235	0xbda8c37c	-0.08240411
236	0xbe907973	-0.28217658
237	0xbeb9fabb	-0.36324105
238	0x3ea59841	0.32342723
239	0xbdb37589	-0.087626524
240	0x3dab725c	0.08371422
241	0xbe46ea0c	-0.1942522
242	0xbeaa4308	-0.33254266
243	0xbd8fa2df	-0.07013487
244	0x3e8874b3	0.26651534
245	0x3eccc7ed	0.3999628
246	0x3d44dcab	0.048062008
247	0xbe8c2a07	-0.27375814
248	0xbe05a5c8	-0.13051522
249	0xbe4c4e97	-0.19951855
250	0xbd986c57	-0.07442539
251	0xba0d76e9	-0.0005396442
252	0xbde24ae4	-0.110494405
253	0xbe362bea	-0.1779019
254	0xbe8e13ec	-0.27749574
255	0xbdb610ba	-0.08889909

attention_p.attn_1.bias f4 [16]
0	0xbaf9a455	-0.0019046167
1	0xbb1ca289	-0.002390059
2	0x3b1ec3c9	0.0024225584
3	0xbb215347	-0.0024616288
4	0xbb198708	-0.0023426432
5	0xb9b007fe	-0.0003357529
6	0x3afe2681	0.0019390137
7	0xbb2b7e63	-0.0026167862
8	0x3b0cf63b	0.002150907
9	0xbb28af57	-0.0025739276
10	0x3aec5a69	0.0018032315
11	0xbb19dd17	-0.0023477727
12	0x3b0a125b	0.002106807
13	0x3b196165	0.0023404
14	0xbb373bde	-0.0027959268
15	0xbb1c2053	-0.0023822978

attention_p.attn_2.weight f4 [1, 16]
0	0xbee09848	-0.4386618
1	0xbebadcc9	-0.3649657
2	0x3df9db74	0.122000605
3	0xbe24adfe	-0.16081998
4	0xbe77639b	-0.2415909
5	0x3c91a6a0	0.017779648
6	0x3eb5b852	0.35492188
7	0xbe836422	-0.25662333
8	0x3e86b089	0.2630656
9	0xbec280e4	-0.3798896
10	0x3e99797c	0.29975498
11	0xbe40a4eb	-0.18812911
12	0x3e818636	0.25297707
13	0x3ed9b4e9	0.42520836
14	0xbe08ef85	-0.1337262
15	0xbe955055	-0.2916285

lstm_t.weight_ih_l0 f4 [64, 7]
0	0xbe291acc	-0.16514128
1	0xbd88bc53	-0.06676545
2	0xbbab1d47	-0.005221996
3	0xbd8dd875	-0.069260515
4	0x3e50d814	0.20394927
5	0xbe4884dd	-0.19581933
6	0x3e4c415a	0.19946805
7	0x3b067d20	0.0020521358
8	0x3e675866	0.22592315
9	0x3d879812	0.06620802
10	0xbe56280c	-0.20913714
11	0x3e6890d4	0.22711498
12	0x3d701bdf	0.05862033
13	0x3ddc5c8d	0.1075984
14	0x3e2e8995	0.17044671
15	0xbd829c16	-0.06377427
16	0x3ce7001f	0.0281983
17	0xbdba3020	-0.0909121
18	0x3e0244cc	0.12721556
19	0x3b4806bd	0.0030521594
20	0x3da5bc18	0.08092517
21	0xbe121e06	-0.14269266
22	0xbde7e26b	-0.11322483
23	0xbde392a0	-0.11111951
24	0xbe1bef8e	-0.15228102
25	0x3e42df98	0.19030607
26	0xbe3b0ce8	-0.18266642
27	0x3e1dabcc	0.15397567
28	0xbe590ee7	-0.21197091
29	0x3e57de4e	0.21080896
30	0xbe7b45a0	-0.24538279
31	0x3e395e6c	0.18102425
32	0x3c425c5e	0.011862842
33	0xbd6ff1fa	-0.058580376
34	0xbdfabfc6	-0.12243609
35	0x3e19df87	0.15026675
36	0x3d889ead	0.0667089
37	0x3de5982d	0.11210666
38	0x3d74dee2	0.05978287
39	0x3cec02c3	0.02880991
40	0x3e480d6b	0.19536369
41	0x3dcd4a05	0.10023884
42	0x3e59770a	0.21236816
43	0xbe39d52b	-0.18147723
44	0xbd29d7c1	-0.041465525
45	0xbd65eb5e	-0.056132667
46	0x3dbc5304	0.091955215
47	0x3d6007ec	0.054695055
48	0xbe1b90d4	-0.15191966
49	0x3df2393b	0.11827322
50	0xbce9d8d8	-0.028545782
51	0xbe2d80ee	-0.16943714
52	0x3e7493a7	0.2388445
53	0xbe347fc9	-0.17626871
54	0xbddb3936	-0.107042715
55	0x3e63db05	0.22251518
56	0xbdad3981	-0.084582336
57	0x3e130790	0.14358354
58	0xbd9dcfc3	-0.07705643
59	0xbdcad642	-0.09904148
60	0x3e68be16	0.22728762
61	0xbe71b8ff	-0.23605727
62	0x3d142d01	0.03617573
63	0x3c45f335	0.012081911
64	0xbe2995cc	-0.16561049
65	0x3d0bba57	0.034113254
66	0xbdb28603	-0.08716967
67	0x3d958fbf	0.07302808
68	0xbe01fb36	-0.12693486
69	0xbe2cb237	-0.16864859
70	0xbe5c5dfc	-0.21520227
71	0x3d654ee0	0.055983424
72	0x3b48474a	0.003056007
73	0xbd77a2e0	-0.060458064
74	0xbe40178a	-0.1875898
75	0x3af70b43	0.0018847961
76	0xbe4e66de	-0.20156428
77	0x3d8be6dd	0.06831143
78	0xbd35c821	-0.04438031
79	0xbe0ca114	-0.13733321
80	0x3db93c4f	0.09044706
81	0xbe372f6a	-0.17889181
82	0xbacfa4ce	-0.0015841962
83	0x3e08bb31	0.13352658
84	0x3e55a6e2	0.20864442
85	0xbdbfce5a	-0.0936553
86	0xbe58224f	-0.21106838
87	0x3e27f1c5	0.16400822
88	0x3d096458	0.03354296
89	0xbe71162f	-0.23543619
90	0xbc27b9d6	-0.010237178
91	0x3c92b309	0.017907636
92	0xbd68303c	-0.056686625
93	0x3e2f4368	0.17115557
94	0x3d5215be	0.051290266
95	0xbe0bd166	-0.13654098
96	0xbcd33c55	-0.025785604
97	0x3bf78a22	0.0075543085
98	0xbdfc7f93	-0.1232902
99	0xbe01402e	-0.12622139
100	0xbd05cf0c	-0.03266816
101	0xbcef8d0f	-0.029242067
102	0xbe25af8d	-0.16180249
103	0x3e560eb3	0.20904045
104	0x3e7bc067	0.24585114
105	0xbe315775	-0.17318518
106	0x3e083281	0.13300516
107	0xbe3f98aa	-0.1871058
108	0x3d830f2c	0.06399378
109	0x3e7bf973	0.24606876
110	0x3d132568	0.035924345
111	0xbe4497ad	-0.19198485
112	0xbbb217f5	-0.005434985
113	0xbe4384b0	-0.19093585
114	0xbe4ead6e	-0.20183346
115	0xbd8de391	-0.069281705
116	0xbe27c750	-0.16384625
117	0x3db2ba39	0.087269254
118	0x3d5d11a2	0.053971894
119	0xbe62e417	-0.22157322
120	0xbd2338ce	-0.039849095
121	0x3e70c6f5	0.23513396
122	0x3e3243e0	0.17408705
123	0x3e104aeb	0.14091079
124	0x3dbdf832	0.09275855
125	0xbe48c3dd	-0.19605966
126	0x3e5e36e5	0.21700628
127	0x3e707477	0.23481928
128	0xbd82f249	-0.063938685
129	0xbe58726d	-0.211374
130	0xbd1ad1d2	-0.037797756
131	0xbb60b2f1	-0.0034286345
132	0x3e345a26	0.17612514
133	0x3e0c4a24	0.13700157
134	0xbe5323ca	-0.20619121
135	0xbe115c6a	-0.1419541
136	0x3d15c7a0	0.03656733
137	0x3e3e331e	0.18574187
138	0xbc6beeb0	-0.014400169
139	0xbe7d937d	-0.24763294
140	0x3de52bb8	0.11189979
141	0xbd56ac05	-0.052410144
142	0x3d8dd5e1	0.0692556
143	0x3de1ef27	0.11031943
144	0x3df8b0a8	0.121430695
145	0x3c8335f6	0.016016942
146	0x3daa4fea	0.08316024
147	0x3da93844	0.08262685
148	0xbdbd595c	-0.092455596
149	0x3d7c77b6	0.061637603
150	0x3e2686e8	0.162624
151	0xbe3df644	-0.18550974
152	0x3d5af46f	0.053455766
153	0x3e48a29c	0.1959328
154	0x3de05b63	0.10954931
155	0xbdefc0d5	-0.11706702
156	0x3d8a711e	0.06759857
157	0xbbac7794	-0.0052632783
158	0x3e55c334	0.20875245
159	0xbe0ddb29	-0.13853134
160	0x3df52b3c	0.11971137
161	0x3ca3175f	0.019908605
162	0x3cad0f60	0.021125495
163	0xba9ddb50	-0.001204351
164	0xbe54d6d7	-0.2078508
165	0x3dc7a8c1	0.09748984
166	0xbe229766	-0.15878066
167	0x3e73ced4	0.23809367
168	0x3da8f49d	0.08249781
169	0xbdfbdd16	-0.12298028
170	0x3e4588ec	0.19290513
171	0x3e34eb88	0.17667973
172	0x3e696328	0.22791731
173	0x3df7ba50	0.12096083
174	0x3d57f2c6	0.05272176
175	0xbe06a679	-0.13149442
176	0x3e6afdbf	0.22948359
177	0x3df76ecf	0.12081682
178	0x3df525b2	0.119700804
179	0x3e6a8266	0.22901306
180	0x3e333d29	0.175038
181	0xbe04a36c	-0.12952965
182	0x3e36b443	0.17842202
183	0x3db79c0e	0.08965312
184	0xbdcca867	-0.09993058
185	0x3e533ccd	0.20628662
186	0xbdc2e8ca	-0.09517057
187	0xbda2a272	-0.0794114
188	0x3c9e6035	0.019332984
189	0x3c5d7ed8	0.013519011
190	0x3e3d611d	0.18494077
191	0xbdeeb80f	-0.116562
192	0xbe6bb700	-0.23019028
193	0x3db8dc59	0.09026403
194	0xbe26db17	-0.16294514
195	0xbe573554	-0.21016437
196	0xbe3cfa3d	-0.18454833
197	0xbe3b74a1	-0.18306209
198	0xbd913767	-0.07090645
199	0xbe2f3ed4	-0.17113811
200	0x3e251832	0.16122511
201	0xbdd5dc61	-0.104424246
202	0x3e226b9f	0.15861367
203	0xbe0fdf6a	-0.1405007
204	0x3e217c2f	0.15770029
205	0x3cea7218	0.028618857
206	0xbe741c4f	-0.23838924
207	0xbdd261d6	-0.10272567
208	0x3e728207	0.23682414
209	0x3e673d87	0.22582065
210	0x3e3c588a	0.1839315
211	0x3e44bf1c	0.19213527
212	0x3d4a0059	0.049316738
213	0xbe51a620	-0.20473528
214	0xbda4bcd6	-0.0804383
215	0xbe434761	-0.19070198
216	0x3dfb6e75	0.122769274
217	0x3e1977a3	0.14987044
218	0x3daef7c1	0.08543349
219	0x3e5a2552	0.21303299
220	0xbd1a6f79	-0.037703965
221	0x3e07568d	0.1321661
222	0xbc8971bf	-0.016777871
223	0xbd35f53c	-0.044423327
224	0xbe2bb3dc	-0.1676783
225	0xbe250421	-0.16114856
226	0x3cde7c4e	0.027158882
227	0xbe09560c	-0.1341173
228	0x3cef42f5	0.029206732
229	0xbdf05987	-0.11735826
230	0xbce98ba0	-0.028508961
231	0xbe385f41	-0.18005086
232	0xbe432b1c	-0.19059414
233	0x3de2d5d4	0.11075941
234	0x3e4073a6	0.18794116
235	0xbcad5d27	-0.021162583
236	0x3d65e6c7	0.05612829
237	0x3d8af804	0.067855865
238	0x3e58c10b	0.2116739
239	0xbcae98a8	-0.021313027
240	0x3e7afeb4	0.24511224
241	0x3ca71691	0.020396503
242	0x3e288226	0.16455898
243	0xbbfe631a	-0.0077632787
244	0xbdda1540	-0.10648584
245	0x3c5984a8	0.013276257
246	0xbe554c53	-0.20829897
247	0x3d587b57	0.052852
248	0xbd4cc66a	-0.04999391
249	0x3db1eb92	0.086875096
250	0xbe63cd8f	-0.22246383
251	0x3e472ea9	0.19451393
252	0xbd5adf78	-0.053435773
253	0xbcbd1aab	-0.023084005
254	0x3d1bdc5d	0.03805195
255	0x3e5b71d2	0.21430138
