Params/301_0.001_7_16_222_model.pt (torch, 45279 bytes, 31 tensors)

lstm_p.weight_ih_l0 f4 [64, 10]
000000 b9 2a ca bd 5f 34 da bd 63 c7 29 bd 0b 28 de ba
       -0.0987143 -0.1065452 -0.041449916 -0.001694919
000010 f2 9d 6d 3e c7 4e ec bd 83 4f b5 3d 9d 04 3e 3e
       0.23204783 -0.11538463 0.08853056 0.18556447
000020 6a 31 8b bd e5 a9 9e bd f6 be e7 3d 59 a6 0f 3d
       -0.06796534 -0.077472486 0.1131572 0.03507075
000030 cf 1b f5 ba 0d d1 7b 3e 9b c6 c1 3b 17 02 fa bd
       -0.0018700304 0.24591465 0.005913568 -0.1220743
000040 d1 35 b6 ba 9d fd 61 3d 85 41 7c 3d 1e 0c c4 3d
       -0.0013901537 0.055173505 0.06158592 0.09572624
000050 68 fb b8 3c c0 84 0b 3d e7 09 50 be 29 95 35 3e
       0.022580817 0.034062147 -0.20316277 0.17732681
000060 f0 ed 1b be 6c 39 c2 bd e3 bb a2 3d bc 41 2f bd
       -0.15227485 -0.094836086 0.07945993 -0.0427873
000070 1e 68 26 3e 21 a1 bd 3d 40 57 58 3e 34 75 8f 3d
       0.16250655 0.092592485 0.21127033 0.070047766
000080 65 a7 62 3d f6 c8 1a 3d 57 d2 29 be 5f ac e3 3c
       0.05533542 0.037789308 -0.16584145 0.027792154
000090 af bb a0 3d bc eb 72 bd 7b 69 0e be 80 9a 1e be
       0.07848298 -0.059306845 -0.13907425 -0.15488625
0000a0 f4 1f 16 3e 1d 8d 1c be 4c 20 7d 3e 1c 1e f4 bc
       0.14660627 -0.15288205 0.24719352 -0.029799514
0000b0 81 7d 91 3d a1 54 31 3e 2b 5e 42 3e ef ce a4 3d
       0.07104016 0.1731744 0.18981235 0.08047282
0000c0 48 27 48 be be 95 2b 3c 0c 26 c9 bd 7d 81 58 be
       -0.19546235 0.010472713 -0.0982171 -0.21143146
0000d0 4c 0f aa bd 1c 29 06 3e 54 fb 22 3d f8 34 6b 3e
       -0.08303699 0.1310162 0.039790466 0.22969425
0000e0 3c 97 07 be 3d ed fe 3d 8e 9b 50 3e 7a 43 21 be
       -0.13241285 0.12447593 0.2037184 -0.15748397
0000f0 34 17 54 3e 9b 90 c7 3d a1 3c f9 bc b6 e7 b3 bd
       0.20711976 0.09744378 -0.030424418 -0.0878443
000100 5f c9 1c be 7b cb 3d 3e 0c 6e 7f 3d 81 ee 25 bd
       -0.15311192 0.18534653 0.06236081 -0.04051066
000110 90 bd 5a 3e 74 9c 1a be 71 ef ef bd a4 05 d6 bd
       0.21361375 -0.15098745 -0.11715592 -0.104502946
000120 03 77 6a 3e 74 32 49 be 60 12 91 3c 65 cc 43 bc
       0.22896962 -0.19648153 0.017708957 -0.011950587
000130 4c 02 f8 bc 51 ea 4f be 1e 08 01 3e 8a ae e0 bc
       -0.030274533 -0.20304228 0.12600753 -0.027426977
000140 a8 51 61 be 40 88 e4 bc 70 12 3e be 12 2e 92 3d
       -0.22003806 -0.027897 -0.18561721 0.071376935
000150 28 2b e3 3d 66 1a f9 bd d1 33 5a 3e a2 b8 08 3d
       0.11092216 -0.12163238 0.21308829 0.033379205
000160 c6 ff 66 be fa 75 85 3c c0 68 86 3b 4f d8 05 3e
       -0.22558507 0.016291607 0.0041018426 0.13070796
000170 b0 c4 61 be 36 3e e5 3c 3a 80 10 be 98 f9 0e 3d
       -0.22047687 0.027983766 -0.14111415 0.034906
000180 92 fe 3c be 61 35 c7 3c 1d 55 5c be d8 58 93 3d
       -0.18456486 0.024317445 -0.21516843 0.0719468
000190 01 24 4c 3d 25 f0 38 3e f6 e9 79 3e c5 ca a7 3d
       0.049839024 0.18060358 0.24405655 0.08192972
0001a0 d3 ee bc bd 40 05 9a bd fd 45 12 3e 9c 28 0c 3e
       -0.092252396 -0.075205326 0.14284511 0.13687366
0001b0 7a 9e fc 3b 3f c2 21 be 5c 57 0a be b2 38 39 3d
       0.0077093216 -0.15796755 -0.13509887 0.045220084
0001c0 18 cb c7 3d 96 28 12 3e 24 f3 19 3e f3 58 3f 3e
       0.09755534 0.14273295 0.15034157 0.18686275
0001d0 d6 e7 5e 3b 16 89 28 3e ab f3 ba 3d 4b 61 80 3e
       0.0034012697 0.16458544 0.09128507 0.2507423
0001e0 f9 35 15 3e f5 d6 85 3c 73 4f b3 3d 57 e4 a3 bd
       0.1457137 0.016337851 0.08755388 -0.08002537
0001f0 11 ed 60 be cc 0e 9e 3d 7c 2e 62 3e 78 f6 d1 3d
       -0.21965434 0.07717666 0.22088045 0.10252088
000200 5b 3f b0 bb 59 03 69 be f7 e8 59 be f4 56 b3 3d
       -0.0053786463 -0.22755183 -0.21280275 0.08756819
000210 87 30 7f 3d 4b 1d 10 3e 08 cd 03 3e 66 5a c6 bc
       0.06230214 0.14073674 0.12871182 -0.024213027
000220 e1 83 65 be 7b 79 c1 3d 8a 2a 51 be 1a 13 4e 3d
       -0.22413589 0.09446999 -0.20426384 0.050311185
000230 cd df 25 3c 5c dc 1e 3e db da 83 3e 35 09 9b 3c
       0.010124159 0.15513748 0.2575291 0.018925289
000240 e1 3b 18 3e c9 c0 23 3d 8f df 1e 3e 7d 43 b9 bd
       0.14866592 0.039978776 0.15514968 -0.090460755
000250 95 c6 53 be 07 69 83 bd a3 87 30 3d fd 4f fd 3d
       -0.20681222 -0.06416517 0.043098103 0.12368772
000260 1a fe 33 3e 70 11 d4 3a 25 b6 c8 3d ab 83 fa 3b
       0.17577401 0.0016179513 0.09800366 0.0076450906
000270 fc 72 65 3e 68 f6 bb 3d ea 72 ae 3c b4 32 a8 bb
       0.22407144 0.09177858 0.02129503 -0.0051329974
000280 07 0d 94 3d 32 4a 6b bd 9a b9 6c 3e ee 9c 13 3e
       0.07229047 -0.057443805 0.23117676 0.14415333
000290 da 3c 98 bd 7f ba d5 3d 93 8f d7 bd fb 44 4c be
       -0.074334815 0.10435962 -0.105254315 -0.19948189
0002a0 61 c5 5f be 26 f6 63 be 08 e8 d7 bd 66 65 ca bd
       -0.21852638 -0.22261867 -0.10542303 -0.098826215
0002b0 13 3c 6c bd ff a6 54 3e 74 f2 31 3d 5a a0 fc 3d
       -0.05767448 0.20766829 0.043444112 0.12335272
0002c0 d4 e7 56 3d ce 47 a2 3d 48 f7 98 bc 90 ae 6c 3b
       0.052467182 0.07923852 -0.0186726 0.003611479
0002d0 6f 2e 80 3e 3b d9 52 3e 9d e8 a7 3b 9e 1f ab 3d
       0.25035426 0.2059068 0.005124165 0.0835564
0002e0 26 52 16 3e 0e e1 0d 3e f2 4f 20 3e a6 d5 91 bd
       0.14679775 0.13855383 0.15655497 -0.07120828
0002f0 91 6f e3 3d 92 c0 c8 3c 7e d1 b1 3d 34 55 66 bd
       0.11105264 0.024505887 0.086825356 -0.0562336
000300 f9 e8 14 3e 3c 72 30 be 5a 09 0d 3e 46 e8 83 3d
       0.14541997 -0.17231077 0.13773099 0.06440787
000310 d1 49 fe 3d e4 31 b4 bb 31 10 f8 bd c6 04 15 bc
       0.12416423 -0.0054991115 -0.12112463 -0.009095376
000320 cd 19 01 3e 22 c2 6c 3d cd fd 69 be f0 f8 4f be
       0.12607498 0.057802327 -0.22850724 -0.20309806
000330 9c d0 7c 3e 6b 00 12 be c4 08 58 bd 1c b3 1c be
       0.24688953 -0.14257972 -0.052742735 -0.153027
000340 37 eb cf 3d ae 11 52 be d6 eb 29 3e 13 5a 1b be
       0.101522855 -0.20514557 0.1659387 -0.1517108
000350 e6 d3 76 be b1 a9 f0 bc a1 12 82 3d d4 0e d2 bd
       -0.2410427 -0.02937779 0.063512094 -0.102567345
000360 51 8e d9 3d 58 e1 5c be cb 20 5f 3e 48 70 51 be
       0.10622848 -0.21570337 0.21789853 -0.20452988
000370 de 69 33 3d fd 04 70 bd 3a fb d2 bd d4 29 3f 3e
       0.043802135 -0.058598507 -0.10301824 0.186683
000380 7d 57 43 3e df 6f 36 3e cf e7 2e be 54 fe 4b be
       0.19076343 0.17816113 -0.17080615 -0.19921237
000390 64 2d 72 be a5 83 de 3d e9 46 74 bc 4d 7a f7 bd
       -0.23650128 0.10864953 -0.014909484 -0.12083874
0003a0 22 2a 05 be 6d 1e fe 3d 33 0b 2d bd f9 22 27 3d
       -0.13004354 0.12408147 -0.04224701 0.040804837
0003b0 25 75 4a be 40 3c 70 3e 92 0e 66 bd 4c c8 ea 3d
       -0.1977125 0.23460484 -0.05616624 0.11463985
0003c0 e8 f1 49 be b8 ea 45 3e b8 d5 43 3e 84 b4 09 be
       -0.19721186 0.1932782 0.19124496 -0.13447767
0003d0 92 10 cd bd 66 af 20 be 7a ef 6c 3e 4e bd 0d 3e
       -0.10012926 -0.15691909 0.23138228 0.13841745
0003e0 46 f1 d0 3d 0f 5a d9 3d 25 d5 49 be 7a f4 f9 bd
       0.10202269 0.106128804 -0.19710214 -0.12204833
0003f0 e8 5d 36 be c3 35 a9 bd a1 b2 98 bd ab 12 12 3e
       -0.1780926 -0.08262207 -0.07455946 0.14264934

lstm_p.weight_hh_l0 f4 [64, 16]
000000 94 24 e3 bc 7f d1 19 3c ac 3c b3 bc 60 7d 86 3e
       -0.027727403 0.009388327 -0.021879517 0.2626753
000010 c0 cd 4f 3e 62 42 2b be ea 07 36 3d ca 56 cd 3c
       0.20293331 -0.16724542 0.04444114 0.025065798
000020 97 4f 0b 3e 7d 82 71 bd 39 48 bb 3d 28 0c d6 3d
       0.1360458 -0.058962334 0.09144635 0.10451537
000030 11 31 d4 3c 51 7a 45 3e 76 e7 a3 3d 5c ad 5c 3e
       0.025902303 0.19284941 0.08003132 0.21550506
000040 86 71 39 3e e0 40 6c be bf 47 06 be ac 7f 0e bd
       0.18109712 -0.23071623 -0.13113306 -0.034789726
000050 4b bb 19 3e 08 79 3b be 26 9e 1d 3e e0 27 cb 3d
       0.15012853 -0.18307889 0.1539236 0.09919715
000060 d8 e4 57 3d 25 ed 54 3e b3 bd 47 3c 4c b6 38 be
       0.052708477 0.20793588 0.012191224 -0.1803829
000070 85 fa ed 3d c9 f0 64 be 7b c9 6d be 56 73 b3 3d
       0.116200484 -0.22357477 -0.2322139 0.08762233
000080 ba 6f 5d 3e 69 46 69 be 8d eb 23 3e 7e 3a 31 3e
       0.21624652 -0.22780766 0.16007824 0.17307469
000090 e1 9c 2b be 3e 9b 4c be b4 53 cc 3c a5 f5 1f 3e
       -0.16759063 -0.19981095 0.024942257 0.1562105
0000a0 86 26 13 3d a4 33 2e be ff af 8a bd d0 93 00 bd
       0.03592541 -0.17011887 -0.0677185 -0.031390965
0000b0 82 d7 7e 3e 59 68 fa bd a5 ab 2a be d2 83 39 bd
       0.24886897 -0.12226934 -0.1666704 -0.04529173
0000c0 79 5d 08 be 73 cc 1e bd fa 99 03 3d 6d e3 d7 bd
       -0.13316907 -0.038769197 0.032129265 -0.10541425
0000d0 93 aa f1 3d d1 cd 63 be 3a 81 24 3e 9e 23 b7 3d
       0.118001126 -0.22246481 0.16064921 0.0894234
0000e0 e8 c7 06 3e 54 76 6b bd 70 31 bb 3d dd bf d3 3d
       0.13162196 -0.057485893 0.09140289 0.103393294
0000f0 1a 23 a2 3c 89 c0 ad bd cc ae 9e bd 8c e2 0f 3e
       0.019792128 -0.08483989 -0.077481836 0.14051265
000100 ef cd 64 3e 19 de 9b 3b 2f 5d 55 be 38 d6 98 3a
       0.22344182 0.0047567007 -0.20836328 0.0011660522
000110 5b 67 6d be 42 3d e6 3d 98 f2 5d bd dd c5 92 3d
       -0.23183958 0.11242153 -0.054186434 0.07166646
000120 b8 c4 fc bd 4a 69 0a 3e 2d 34 1d be e6 0d 2c 3e
       -0.123422086 0.13516727 -0.15351935 0.16802177
000130 d2 e5 30 3e 44 18 53 3e 70 fa d8 3d cd 32 1f be
       0.1727517 0.20614725 0.10594642 -0.15546723
000140 cb 1f b9 bb c1 e8 2b 3e 9f 63 1e be 37 a0 2f be
       -0.005649542 0.16788007 -0.1546769 -0.17150961
000150 62 29 91 3d 76 28 04 be b1 9b 74 be 5e df 1d 3e
       0.07087971 -0.1290606 -0.23887517 0.15417239
000160 e8 e4 1d 3e 87 80 23 be 95 3b ee bd e8 24 f3 3c
       0.15419352 -0.15966998 -0.11632458 0.029680684
000170 ca 45 01 be 4d 7b 62 be fb 56 ce 3d ec f1 aa 3d
       -0.12624279 -0.22117348 0.10075184 0.08346924
000180 1f 6e 46 be 64 d8 e0 bb d0 84 89 3c 29 84 06 be
       -0.19377945 -0.0068617333 0.016786963 -0.13136353
000190 ea 37 6b 3e 3a 36 b0 3d b5 8e 82 3e 17 18 57 3c
       0.22970548 0.08604093 0.25499502 0.013128302
0001a0 a1 98 00 be c9 0e a0 3b b2 29 40 be 06 18 3a 3d
       -0.12558223 0.004884575 -0.18765905 0.045433067
0001b0 ba 47 65 be 8d c6 54 3e a4 a2 7a bd cb 52 ec 3d
       -0.22390643 0.20778866 -0.061190262 0.11539229
0001c0 41 bc 37 3e c6 44 4a be 59 1d 65 3e 5a 7f 55 be
       0.17942907 -0.19752797 0.22374476 -0.20849362
0001d0 ba 01 6c 3e 8b 37 7a bd 21 88 b3 3d 83 b3 97 3d
       0.23047534 -0.061088126 0.08766199 0.07407286
0001e0 53 3b 7f 3e 17 6f 47 3e 24 51 2b 3e 24 34 2e 3d
       0.24924974 0.19475971 0.16730171 0.042530194
0001f0 a9 0a c1 bd fb 8e 01 3c a5 ac 6a 3c 42 62 2e 3e
       -0.094258614 0.007907624 0.014323388 0.1702967
000200 7a e4 38 be 67 ae 29 3e ac 7d 13 3e 30 1d 88 3e
       -0.18055907 0.16570435 0.14403409 0.26584768
000210 dd 89 4e 3d 78 b9 5c 3e 60 c5 40 be ad 3d 43 be
       0.050424445 0.21555126 -0.18825293 -0.19066496
000220 24 6c fb 3c c0 c4 d5 3d b3 06 26 3e f0 c5 52 be
       0.030691214 0.10437918 0.16213493 -0.2058332
000230 64 b8 4a bd fb 2b 1e be af 2c 91 bc a1 40 66 3c
       -0.049492255 -0.15446465 -0.017721502 0.014053495
000240 f4 eb 3e be 81 26 ae bc 43 cf 2b be 8c a2 c6 bd
       -0.18644696 -0.021258594 -0.16778283 -0.09698972
000250 b1 d8 28 3d 01 24 35 3e 0e 28 30 3d 3c e5 08 be
       0.041222278 0.17689516 0.04300695 -0.13368696
000260 d3 43 24 be 2e 34 7f bd 55 1e 41 3d 51 cb 25 be
       -0.16041498 -0.06230562 0.047148068 -0.1619084
000270 79 2a 71 3e 5a 2c ed 3d b0 07 60 3e 95 fb 0a 3d
       0.23551358 0.11580725 0.21877933 0.033931334
000280 34 22 2c be f1 d3 2e 3e e9 62 16 be 95 47 61 3e
       -0.16809922 0.17073037 -0.14686169 0.21999963
000290 5e c3 18 3d 58 ba 35 3e a9 72 7e be 8f 13 d2 bd
       0.03729569 0.17746866 -0.24848427 -0.10257637
0002a0 de e0 04 3e 32 0f 1c be 5c a5 46 3e 39 58 00 bc
       0.12976405 -0.15240172 0.19399017 -0.007833534
0002b0 39 f6 51 be 31 b9 da 3d 12 8c 1f 3d 15 f4 bb bd
       -0.20504083 0.10679854 0.03895194 -0.09177414
0002c0 48 9f 8a bd 9b 42 8b 3b 06 c0 aa bd 15 03 6d 3e
       -0.06768662 0.0042498833 -0.08337407 0.23145707
0002d0 4d 87 4b be bc 29 2d 3c 69 67 10 be 8c 33 d8 bc
       -0.19875832 0.010569032 -0.14101948 -0.026391767
0002e0 43 b1 f3 bd 7e c8 7f 3e 8f 89 ff bd 14 56 51 3e
       -0.11899044 0.24978825 -0.12477409 0.20442992
0002f0 55 0f ca bc b8 54 13 bb 75 5f 55 bd 4c 4d 2f bc
       -0.024665514 -0.0022480916 -0.052092988 -0.010699581
000300 29 cd 6b bd 4b 11 dc bd 84 22 37 be 01 c8 5d bd
       -0.057568703 -0.10745486 -0.1788426 -0.054145817
000310 95 2b 0c be 6a cd 4a 3d 3e bd 08 bd dc 5e 19 be
       -0.136885 0.049512304 -0.0333836 -0.14977592
000320 a5 c7 70 be bf cd f6 bd 4b 2a 4b 3e f8 27 d5 3d
       -0.23513658 -0.12050962 0.19840352 0.10408014
000330 76 04 0c 3e 33 66 76 bd 9a 57 35 3e bb 9e 45 3e
       0.13673577 -0.06015606 0.17709199 0.19298832
000340 d7 c3 f2 bd 59 d4 10 be 8e 79 13 3e 3e b6 1c 3e
       -0.1185376 -0.14143504 0.14401838 0.15303895
000350 dd 42 89 bd f4 36 de 3d 0d 7b b7 3d 00 9d c1 bd
       -0.06702206 0.10850325 0.08959017 -0.094537735
000360 f8 74 39 be 95 28 5c bd 6e c9 2a be e4 d5 67 3e
       -0.18111026 -0.05374964 -0.16678402 0.22640187
000370 93 43 fc 3d ff 85 79 3e bd e4 24 3e c2 0d a7 3d
       0.12317576 0.24367522 0.16102882 0.08156921
000380 33 d7 a1 3c 04 1f 47 3e 16 9f c0 3d 0a c1 18 3d
       0.019755935 0.19445425 0.09405343 0.03729347
000390 80 7c 1e 3e 49 32 3a 3e 57 43 e3 bd 0c f3 83 bd
       0.1547718 0.18183245 -0.110968284 -0.06442842
0003a0 96 ec 69 bd e8 11 49 be 2b 05 39 be df 05 60 be
       -0.05711039 -0.19635737 -0.18068378 -0.2187724
0003b0 d1 79 ad 3c b8 e9 3e bd eb fb 07 3e f2 38 86 3d
       0.02117625 -0.04660961 0.13279693 0.0655383
0003c0 11 c4 14 be 96 0e 45 3d 95 24 56 be 27 b6 d7 3d
       -0.14527918 0.048109613 -0.20912392 0.1053279
0003d0 69 f5 23 3e 45 ad 2f be 52 6f ef 3b 34 a0 08 3c
       0.16011585 -0.17155941 0.0073069716 0.008338977
0003e0 35 7b 4b 3d 40 ff 37 3e a9 99 34 be ab ca 21 be
       0.049678046 0.17968464 -0.17636742 -0.15799968
0003f0 27 ef e1 3c c4 41 51 be c2 53 11 be dd c6 b1 3d
       0.027579857 -0.20435244 -0.14192107 0.08680508

lstm_p.bias_ih_l0 f4 [64]
000000 a8 be 2b bc 9e df 4c be f7 87 39 be 7e f8 c9 bd
       -0.010482468 -0.20007178 -0.18118273 -0.09861849
000010 b7 28 14 3e 49 9a 40 bd a5 e3 a8 bb 83 f3 3f be
       0.14468656 -0.047022138 -0.0051540905 -0.18745236
000020 da ae 44 3e e1 42 84 be a7 b4 e5 3d 89 35 8a 3d
       0.19207326 -0.25832275 0.11216097 0.06748492
000030 a8 1a 6d 3e 32 c0 25 be 70 ac 21 3e 7d 47 0d 3e
       0.231547 -0.16186598 0.15788436 0.13796802
000040 0e 86 15 be d1 de 4e 3e b1 84 1b be 59 f0 39 be
       -0.14601919 0.20202185 -0.15187337 -0.18158092
000050 61 95 5a be 0d f4 51 3e b3 e5 5a 3d 67 6f a5 3b
       -0.21346046 0.20503254 0.053441714 0.0050486806
000060 ae df 2f 3c 04 c4 32 3e 71 c1 8c bc 75 da 31 3d
       0.010734482 0.17457587 -0.017182084 0.043421227
000070 a2 d4 06 be 23 d2 44 be 6f ef 57 be bc 6d 13 3e
       -0.1316705 -0.19220786 -0.2108743 0.14397329
000080 7f 4d bb bd a9 e8 ff bd a1 cc 2e 3e ab 26 69 3e
       -0.091456406 -0.12495548 0.17070247 0.22768657
000090 10 b8 54 3c 1e 3d a0 bd 71 bd 6e be 68 9b 62 be
       0.012983337 -0.07824157 -0.23314454 -0.22129595
0000a0 d1 34 fc 3d 7b f7 1a be 4a ec 5a be 7f 17 57 be
       0.123147614 -0.15133469 -0.213792 -0.21005057
0000b0 de cd 9b bd 5f 23 0d 3e 02 96 2c 3e 65 62 7d bd
       -0.076076254 0.13783024 0.16854098 -0.061861414
0000c0 fe f3 56 3e 74 f5 5a 3e ad 97 01 3e c3 d6 65 3e
       0.20991513 0.21382695 0.12655516 0.22445206
0000d0 82 3b 7d be f2 66 a0 3d 36 9a 58 be 6e bf 89 bb
       -0.24729732 0.07832135 -0.21152577 -0.0042037284
0000e0 85 44 84 3d ca d7 8e 3d 99 31 c2 bc 10 34 75 3d
       0.064583816 0.06974752 -0.02370529 0.059864104
0000f0 01 d7 15 be a6 d7 25 3e 04 8e 9b bd 25 48 14 be
       -0.14632799 0.16195545 -0.07595447 -0.14480646

lstm_p.bias_hh_l0 f4 [64]
000000 c7 3a 6f be c1 13 43 bc a2 59 bb bd d2 3a 9a 3d
       -0.23362266 -0.011906565 -0.091479555 0.0753075
000010 ab 99 9b bc 70 1f 89 3d 9e 50 4c be 31 2d 6e 3e
       -0.018994173 0.06695449 -0.19952628 0.23259427
000020 a1 46 05 bc e5 41 4f be bb 8c 4a 3e ba 67 e4 3c
       -0.008134515 -0.2023998 0.19780247 0.027881492
000030 01 40 68 bc 34 c2 0c be 76 f9 55 bd 27 ec 5c 3d
       -0.014175416 -0.13745958 -0.052239858 0.05393615
000040 62 d2 04 3e 9d e5 73 be ec f0 55 3d 2a 9f 4f 3d
       0.1297088 -0.2381806 0.052231714 0.0506889
000050 dd 0e 08 3e 55 fa c0 3d f3 04 68 3d c2 19 58 3e
       0.1328692 0.09422747 0.056645345 0.21103576
000060 71 4b 92 bd 5c f7 ce 3c 14 1d 99 bd ed 99 65 3d
       -0.071432956 0.025264435 -0.07476249 0.056055
000070 72 c8 e4 bd e7 cc 9d 3d a1 6f 46 3d 89 4e a7 3c
       -0.111710444 0.07705098 0.0484463 0.02042319
000080 4c 1c 6a be 70 9d 2d 3e 49 66 6c be 7a d7 69 3d
       -0.22862357 0.16954589 -0.23085894 0.05709026
000090 63 6b 1a be f7 8b 24 be 99 1e 17 bc 20 70 2e be
       -0.15080027 -0.16069017 -0.009223604 -0.1703496
0000a0 b7 07 f7 bd 97 db 1c be e4 ea 2e 3e a2 76 c4 bd
       -0.12062018 -0.15318142 0.17081791 -0.0959294
0000b0 0e 58 93 3d 8c 64 bf bc 9a 0a 48 be 59 e0 f9 3d
       0.071945295 -0.023363374 -0.19535294 0.12200994
0000c0 90 79 e6 bd 72 6b 15 3e 1d 14 4f be 30 4e 84 be
       -0.11253655 0.14591768 -0.20222516 -0.25840902
0000d0 64 0b 99 3d bc a8 34 bd 8c 8b 25 be 28 7f 77 3e
       0.07472876 -0.04410623 -0.16166514 0.241696
0000e0 99 de 72 3e 25 2b 7f be fb 44 56 3e 43 1f 0e 3e
       0.23717727 -0.24918802 0.20924751 0.13879113
0000f0 fe 7a 9c bd df 6f db bd 44 14 c9 3d 00 c4 32 bd
       -0.076406464 -0.10714697 0.098183185 -0.04364395

lstm_p.weight_ih_l1 f4 [64, 16]
000000 e7 89 75 bd d8 68 8d 3d 65 13 6a 3e 8a a0 d1 3c
       -0.059945967 0.06904763 0.22858961 0.025589246
000010 da 22 2d be 79 08 c4 3d b2 4e 4a 3e 83 a4 63 3e
       -0.16907826 0.095719285 0.19756582 0.22230725
000020 c1 64 56 3e 5a 53 e0 bd 2b 52 1a be 02 3f 09 3e
       0.20936872 -0.10953398 -0.15070407 0.13402942
000030 9f 67 b8 3d 72 09 4b 3e b5 8b d5 bd 7b 98 d1 bd
       0.09004139 0.19827822 -0.104270376 -0.102341615
000040 dc 56 73 bd 3b b7 34 3e bb 69 c0 3d 37 00 81 3e
       -0.059409007 0.17648022 0.093951665 0.25195476
000050 c1 de 03 be 9e cd a4 bd 75 ca ec 3d 5f 84 6d bd
       -0.12877943 -0.08047031 0.11562053 -0.057987567
000060 c8 6e 48 3e ec 2d 80 bd b0 3e 1f 3e 00 0f 29 3e
       0.1957351 -0.06258759 0.15551257 0.16509628
000070 54 4b 46 3d 5f b8 6a bd 98 6a 30 be 7a 1d 09 be
       0.048411682 -0.057304736 -0.17228162 -0.1339015
000080 4e 5f 0b be c3 d9 3a be a4 2d 3b 3e ae 4d cc 3d
       -0.13610575 -0.18247132 0.1827913 0.09975754
000090 4e 79 cf bd 56 6a 50 3e 17 55 24 3c 22 cf 21 bc
       -0.10130559 0.20353064 0.010030053 -0.0098760445
0000a0 cd 68 24 3e 20 01 72 3e bf f0 1f 3e 49 37 d7 bd
       0.16055603 0.23633242 0.15619181 -0.10508592
0000b0 df 01 6f be 9e 49 e6 bd f1 19 81 bd 7b 84 fe 3d
       -0.23340558 -0.1124451 -0.06303776 0.124276124
0000c0 e0 d9 1e 3e c2 27 6b be d1 a2 4d 3e 94 e8 66 3e
       0.155128 -0.22964385 0.20081641 0.22549659
0000d0 ae 7f 93 bd 5d 32 5b 3e c8 88 1b 3e a5 f1 1e be
       -0.07202087 0.21405931 0.15188897 -0.15521868
0000e0 4f f2 af bd 9e 12 40 be 9b 75 71 3e e0 ff 32 3e
       -0.085911386 -0.18757102 0.23580019 0.17480421
0000f0 54 9b 2f 3e e7 4e 00 3e ab dc 35 3e 33 84 29 3e
       0.17149097 0.12530099 0.1775996 0.16554336
000100 a7 60 47 bd f3 b3 9e bd db 08 32 3e c8 30 d1 bd
       -0.04867616 -0.07749166 0.1738619 -0.102143824
000110 9c 68 00 3e e1 31 c2 bd 77 8b 3c be 61 77 4b be
       0.12539905 -0.0948217 -0.18412577 -0.19869758
000120 8f 18 6b 3e c6 17 68 3e d2 50 53 be 39 0b 94 3b
       0.22958587 0.22665319 -0.20636299 0.0045179394
000130 2f 5b 60 3e 2d 1e 26 be 8e b4 e7 3c a8 5f 02 3e
       0.21909784 -0.16222449 0.028284337 0.12731802
000140 d4 8b 12 3e de 6c bc bd e8 d8 61 bd 21 18 86 3d
       0.14311153 -0.09200452 -0.0551385 0.06547571
000150 0f 60 2f 3d d8 8a 58 bd 4f 6c 46 3e 46 ac 0e be
       0.042816218 -0.052866787 0.19377254 -0.13932905
000160 9b 55 f4 bd 59 df 55 3e 0a 8d bc bc fd 64 2f bc
       -0.119303904 0.20885982 -0.023016471 -0.01070523
000170 31 3a 08 3e f2 fb db 3d 1c b7 c1 bc d6 c3 da 3d
       0.13303448 0.10741414 -0.023646884 0.10681884
000180 a7 30 04 3e eb de bb bd cb fe 1c 3e e6 d6 1f 3e
       0.12909184 -0.091733776 0.15331571 0.15609321
000190 3d 21 6f be d6 03 10 be dd b2 55 3e 1c 5d d2 3c
       -0.23352523 -0.14063963 0.20869012 0.025679164
0001a0 46 b4 17 3e 93 d7 e4 3d 4e aa 8c bd 0c 6e ac bd
       0.14814863 0.1117393 -0.068684205 -0.08419427
0001b0 cb 5c 5a be 6f 6e 2a be 9a 05 79 3e d1 ab 6c be
       -0.2132446 -0.1664369 0.24318543 -0.23112418
0001c0 54 7a 0b 3e 36 16 04 3e fb 63 57 3e ad 4d 86 be
       0.13620883 0.12899098 0.21034233 -0.26231137
0001d0 1b fe e1 3d 7f 95 e7 3d d7 14 45 3e fc 54 6b 3e
       0.11034795 0.11307811 0.19246231 0.22981638
0001e0 7c cf 01 3e 7b bb 96 3d 36 6b f7 bc a4 4f 67 be
       0.12676805 0.07359978 -0.03020249 -0.22588974
0001f0 2e 9e b8 3d 6f 67 db bd 69 f1 1b 3e ec 25 53 be
       0.090145454 -0.10713088 0.1522881 -0.20619935
000200 4f 6d 1d bd cc 68 18 3e 89 79 2f 3d 7f 60 b4 bc
       -0.038434323 0.14883727 0.042840514 -0.02201867
000210 17 c7 9d 3d bc f6 96 3d 86 a0 68 be c4 b2 7c bc
       0.07703989 0.073712796 -0.22717485 -0.01542348
000220 bf 4b d9 3d ac b9 46 3e 5b 29 fe 3d 8e 21 37 3d
       0.106101505 0.19406766 0.12410232 0.044709735
000230 f3 19 48 3e cf 46 2b 3e 60 7d 9f bd b4 2c db 3c
       0.19541149 0.1672623 -0.07787585 0.026754715
000240 80 1a a3 bd 64 f3 e6 bd 6a ec 4b 3e 4f ef fe 3d
       -0.07964039 -0.11276892 0.19914404 0.12447988
000250 99 9a 62 3e cc 3b ac 3d e5 f3 17 be 6e 04 0d ba
       0.22129287 0.08409843 -0.14839132 -0.0005379383
000260 c7 fc 02 3d f9 17 b6 3c 5d 22 63 be a8 47 26 bd
       0.03197935 0.022228228 -0.22181077 -0.04059568
000270 b2 8b 0f bd 05 25 56 be f7 21 50 be 4d 4b 47 3e
       -0.035045333 -0.2091256 -0.20325457 0.19462319
000280 16 24 5c be f5 ad 66 3d de be 26 bb af 6e 72 be
       -0.2149814 0.056318242 -0.0025443356 -0.23675035
000290 9a 08 48 be d8 f2 15 bc 79 57 63 be 87 24 a8 3c
       -0.19534531 -0.009152137 -0.22201337 0.02052523
0002a0 84 90 20 3e 72 e1 e4 bd 4c 4d 64 3d 46 7e ca bc
       0.15680128 -0.11175813 0.05573778 -0.024718415
0002b0 fe 14 66 3e af 56 c1 bc 08 c2 b8 bd d0 2e 3c bc
       0.22468945 -0.023600904 -0.090213835 -0.01148577
0002c0 74 2d f3 bd ee 85 0f be 26 c6 b6 bd 80 0b 87 3c
       -0.11873904 -0.14015934 -0.089245126 0.016484976
0002d0 16 58 81 3e ee 5a 35 be 55 bd 72 3d 27 b1 0a 3e
       0.25262517 -0.17710468 0.059262592 0.13544141
0002e0 7b f3 70 3e 06 3f 34 3e 39 01 31 3e a6 ad 52 be
       0.2353038 0.17602167 0.17285623 -0.20574054
0002f0 2b c3 58 3e b2 7e 4e be f3 c3 b9 3d 1d 2b 4f 3d
       0.211682 -0.20165518 0.090705775 0.050578225
000300 8f c3 dc 3d ee 23 24 bb 8c 9a e3 bc 02 e4 02 be
       0.10779487 -0.002504583 -0.027783655 -0.1278229
000310 fd 89 47 3e bd 5c 03 be 87 63 4c be f2 f1 76 3e
       0.19486232 -0.12828346 -0.19959842 0.24115732
000320 75 42 df bd 8b db 37 be d4 f3 1b be 73 ef 0a be
       -0.109013475 -0.17954843 -0.15229732 -0.13567905
000330 55 44 1c 3e fa 98 5f be 80 e2 53 be 28 ec 37 3e
       0.15260442 -0.218357 -0.20691872 0.1796118
000340 3e b8 4d be 90 ed 22 be c0 40 e2 bc dd 0b 6a be
       -0.20089814 -0.15910935 -0.027618766 -0.22856088
000350 66 af 46 3e 8f 2b 13 3e 27 d1 76 3e 8a 71 2b be
       0.19402847 0.14372085 0.24103223 -0.1674253
000360 9e 0b 33 be 50 f5 e5 bd fa 3a 08 3e 94 10 41 3e
       -0.174849 -0.1122843 0.13303748 0.1885398
000370 26 86 30 be 0e 91 bc 3d 61 e2 21 3e 7b de 59 3e
       -0.17238674 0.092073545 0.15809013 0.21276276
000380 42 b8 de 3d 79 d0 6a 3e 64 97 16 be 3c ca f5 3d
       0.10874988 0.22931089 -0.14706188 0.12001464
000390 5b 63 6b be 69 82 11 3e 7d 27 ca 3c fa e3 6a be
       -0.2298712 0.14209904 0.024677033 -0.22938529
0003a0 e0 2c 52 3c bd 63 4e 3e a4 9c 95 3c ae 98 07 3e
       0.012828082 0.20155235 0.018263169 0.13241836
0003b0 c9 aa c4 3d a9 ce 3a be 1b 4c 83 bd c6 ad 3e 3e
       0.09602887 -0.18242897 -0.06411 0.18620977
0003c0 cc ec 1b 3e 26 a9 1d 3e c6 d8 d2 3c ed 5c ae bc
       0.1522705 0.15396556 0.025738131 -0.021284545
0003d0 1d cc af 3d 7a 91 06 3c dc f8 12 bd 01 e4 5d be
       0.085838534 0.008213395 -0.035881862 -0.21669008
0003e0 d3 19 81 bd 5b 06 eb 3c ea da a5 3d b1 fe 02 3e
       -0.06303754 0.028689554 0.08098395 0.1279247
0003f0 37 67 51 3d 80 65 87 bc c5 47 2d 3e fc cd b0 3d
       0.051123824 -0.016527891 0.16921909 0.086330384

lstm_p.weight_hh_l1 f4 [64, 16]
000000 3f 06 41 3e 0b db 18 be 6f 4f 68 3e 66 7f ea bd
       0.18850039 -0.14927308 0.22686552 -0.114500806
000010 54 e0 3c bd 35 58 44 be 7d 69 8e 3d 46 83 4a 3e
       -0.046112373 -0.19174273 0.06953714 0.1977664
000020 82 f7 a8 bd 9a d3 21 3e fe 9a 5d bc 1e 05 77 3e
       -0.08250333 0.15803376 -0.013525723 0.24123046
000030 30 a0 12 be f4 18 60 3b 92 ff 46 3e 38 7e 4b be
       -0.14318919 0.003419456 0.1943343 -0.19872367
000040 9d 98 eb 3d 94 6d 7a be c7 44 46 3e 96 fa bd 3d
       0.11503718 -0.24455863 0.19362174 0.09276311
000050 45 66 5b 3d 6f 01 71 be bf 2e 86 3e 5b b5 3d 3e
       0.05356433 -0.23535703 0.2620754 0.18526213
000060 36 87 6a 3e be 56 5b be 56 8f 68 3e 16 4f 17 3d
       0.22903141 -0.21419808 0.22710928 0.036940657
000070 06 cd 21 3e ea a1 80 be e7 92 03 be c0 a2 a6 3c
       0.15800866 -0.2512353 -0.12849008 0.020341277
000080 ef 60 1e 3e f9 8c 66 be 22 c4 12 3e a6 c7 09 3e
       0.15466665 -0.22514714 0.14332631 0.13455066
000090 09 90 45 be ef 4d 63 3e 7b c2 c6 bd 81 a2 94 3d
       -0.19293226 0.22197698 -0.09705063 0.07257558
0000a0 b2 31 24 be 71 9b 0b be f9 f2 81 bd bc 67 a9 bd
       -0.16034582 -0.13633515 -0.063451715 -0.08271739
0000b0 ad 87 00 3d c1 b2 8b bd 2f fb 20 be 0c b7 61 3e
       0.03137939 -0.06821204 -0.15720819 0.22042483
0000c0 61 9c 6e bb 8b 4e 52 be 52 c0 5e 3e 3a cd 58 3e
       -0.0036409127 -0.20537774 0.21753052 0.21172038
0000d0 bc 7b 0a be 11 61 34 3e ba 2d e2 bd a8 66 4a be
       -0.13523763 0.17615153 -0.11043878 -0.19765723
0000e0 d2 c8 80 be 2b 33 03 be d2 69 f1 3d e7 d6 79 3e
       -0.25153214 -0.12812488 0.11787762 0.24398385
0000f0 da a1 66 3e 85 2f f4 bc 98 1a 48 bd 52 5b 87 b9
       0.22522679 -0.029807815 -0.048853487 -0.00025817245
000100 86 de 68 3e 21 2f 32 be 5f 73 03 be 38 f6 94 3b
       0.22741136 -0.17400791 -0.1283698 0.004545953
000110 b5 6c 71 be f1 35 0f 3e cf a9 28 be 4d 2c a7 bd
       -0.23576625 0.13985421 -0.16471027 -0.081627466
000120 0d 3e 00 be 57 de 98 bb 02 e1 56 3e 1e f8 c0 bd
       -0.1252367 -0.004665177 0.20984271 -0.094223246
000130 dc b0 dd bd ec 9a ff 3d 70 e8 f9 bc 0e 19 cb bc
       -0.10824749 0.12480721 -0.030506343 -0.02479222
000140 1a 41 4b 3e 17 13 99 3d 7b dc 3d bd c0 fa 60 3e
       0.19849053 0.07474344 -0.046352845 0.21970654
000150 2c b7 7d be fe 46 55 3e 47 73 9c bd d4 a8 31 3e
       -0.24776906 0.20827863 -0.07639175 0.17349559
000160 4a 21 9c bd a3 02 54 be a8 1e c7 bb 25 99 65 3e
       -0.07623537 -0.20704131 -0.0060766526 0.22421701
000170 6b 4e 05 3d a6 4f 51 be 29 d1 2f 3e 0b 71 7a 3e
       0.03254549 -0.2044054 0.17169632 0.24457185
000180 71 1e 55 3e 07 2e 15 be 2a 57 1d be d1 65 88 be
       0.20812394 -0.1456834 -0.15365282 -0.2664018
000190 cc 8f fe bc 12 82 4a 3d 19 d3 85 be 02 7f 93 3c
       -0.031074427 0.04944045 -0.26137617 0.018004898
0001a0 20 e8 95 3c 5b af 27 3e 52 09 3c 3e a9 77 a9 3d
       0.018299162 0.16375487 0.1836293 0.082747765
0001b0 c3 66 9a bb f8 75 60 3e cd 4a 15 bc f6 77 25 bd
       -0.004711957 0.21920002 -0.009112072 -0.040397607
0001c0 5b ca f9 bd c4 b8 8d 3d 10 ab 19 be 60 83 da 3d
       -0.12196799 0.06920007 -0.15006661 0.10669589
0001d0 40 88 65 be 84 b1 f2 3c 09 53 90 bc cd 8b 35 be
       -0.22415257 0.029625662 -0.01761772 -0.17729111
0001e0 d7 f5 52 3e 25 bf 4c 3e d3 4d 1c 3e d6 9a 3a 3e
       0.20601593 0.19994791 0.15264063 0.18223128
0001f0 01 d4 8f bc 7e b3 19 be 92 c9 65 bd 90 ed 1f be
       -0.017557146 -0.15009877 -0.056100436 -0.15617967
000200 21 0d 09 be e3 56 f5 3c 4f bd c7 bd d4 81 7f 3e
       -0.13383915 0.029948657 -0.097529046 0.24951869
000210 b8 57 29 3e 98 7e 7d 3e 08 46 fc 3d 8d 3f 16 3e
       0.16537368 0.24755323 0.12318045 0.1467268
000220 85 71 06 be 76 f4 44 3e bc 6e 46 3e 3c 33 a5 3d
       -0.13129242 0.1923388 0.1937818 0.08066413
000230 ae 15 b0 3d 7b 88 62 be 4c cc 68 bb 8b 0e 5c 3e
       0.08597885 -0.22122376 -0.003552216 0.21489923
000240 49 9c d9 bd e8 63 40 3e 46 48 01 be 4d ec 29 be
       -0.10625512 0.18788111 -0.12625226 -0.16594048
000250 53 a6 13 3e db d4 02 3e 8a 8c be 3d db 5b d1 bd
       0.14418916 0.1277651 0.093041494 -0.10222598
000260 39 83 25 3e 85 bd da bd dc 74 0e 3e dd 98 65 3e
       0.16163339 -0.10680679 0.13911766 0.22421594
000270 b1 b3 eb bd e7 fb 41 3e f9 5c 2d 3e f3 a6 99 3d
       -0.11508883 0.1894375 0.16929998 0.07502546
000280 15 39 c2 bd 74 86 66 bd 9e 6d 1e 3e 74 1c d1 3d
       -0.09483544 -0.05628057 0.15471503 0.10210505
000290 57 ed bc 3a b6 00 bc bd 8e c3 8b 3c 52 2e 7a 3e
       0.0014413995 -0.09179823 0.017061021 0.24431732
0002a0 72 4f 4a 3e 49 10 24 be c4 26 7e 3e d0 6f 19 3e
       0.19756868 -0.16021837 0.24819475 0.1498406
0002b0 e9 dc 80 3e 1d 1e 82 bd 35 0b 9a 3d 21 40 4d bd
       0.2516854 -0.063534 0.07521669 -0.050109986
0002c0 5b f7 0f be 50 33 9c bd bd 0b 14 be 52 de 83 3d
       -0.14059202 -0.076269746 -0.14457603 0.064388886
0002d0 4f b2 14 bd c2 2d 51 be 96 ed bf bd b6 b1 f7 ba
       -0.03630286 -0.20427611 -0.09371488 -0.0018897566
0002e0 07 70 03 be d3 51 24 be ea 04 70 be 75 f0 04 3e
       -0.12835704 -0.16046838 -0.23439375 0.12982352
0002f0 fa 2a 11 3e ca 70 7c be 9a 4b 11 3e a5 1e 41 be
       0.1417655 -0.246524 0.14188996 -0.18859346
000300 f2 1d c9 bd 48 a8 1b be 8b cd 68 bd 83 89 06 be
       -0.09820165 -0.15200913 -0.056836646 -0.13138394
000310 66 32 1d bc d7 de 48 3d 12 3e e9 bd 88 7f 1a 3e
       -0.009594535 0.04904064 -0.11388792 0.15087712
000320 24 07 b8 bd 4e f1 7f bd 2e 1f 77 3d 81 b3 ff 3d
       -0.08985737 -0.062485985 0.06033247 0.124854095
000330 2b 14 31 3e 09 f5 da 3d df d8 c6 3c 26 93 0e bd
       0.1729285 0.10691268 0.024273334 -0.0348083
000340 3f b0 1d be 1f 6c 53 3e 43 8a e8 bb c1 8c 40 3e
       -0.15399264 0.20646714 -0.00709656 0.18803693
000350 f3 7d e4 3d 2b 69 21 3e c7 11 2c be ad 22 f9 3d
       0.111568354 0.15762775 -0.16803657 0.12164817
000360 0f 4d 7a 3e db 37 61 be 2e 34 2f 3e 96 9f 15 be
       0.24443458 -0.21993963 0.17109749 -0.14611658
000370 da 3a 14 be 20 e2 63 be c4 78 7e be 1d 28 34 be
       -0.14475575 -0.22254229 -0.24850756 -0.17593427
000380 3c 35 3b be b3 a1 bb bb 76 ff cf bd e0 71 fe bb
       -0.18282026 -0.005726063 -0.10156147 -0.00776504
000390 a7 03 2c 3e 6c ec 53 3e 3a 8c 50 be 0b 04 46 3e
       0.16798268 0.20695657 -0.20365992 0.1933748
0003a0 0c a8 cb bc 42 40 c7 bd 7c 75 85 3e 09 78 60 be
       -0.024860404 -0.09729053 0.26066196 -0.2192079
0003b0 8f 13 0a be b5 e4 d1 3d fb 5a ea 3d 29 05 f5 3d
       -0.13484024 0.102487005 0.114431344 0.11963875
0003c0 ca 97 62 be d7 50 2d be b7 51 1a be a9 6e 28 3e
       -0.22128215 -0.16925369 -0.15070234 0.16448463
0003d0 39 3a e7 3d 82 62 0a bd 4c 5a 27 3e 77 17 9b 3c
       0.11290402 -0.03378535 0.1634304 0.018932087
0003e0 8c 2e 75 be 4e 86 a2 bd a6 5d 0a 3e 0a 32 74 bd
       -0.23943537 -0.07935773 0.13512287 -0.059618033
0003f0 71 3e de 3d 78 e8 58 3d 4e f1 65 bd 68 95 40 be
       0.108517535 0.052956074 -0.05613833 -0.18806994

lstm_p.bias_ih_l1 f4 [64]
000000 3c 90 95 bd 17 ac cd 3b 93 01 2e 3d eb 8c 70 be
       -0.07302901 0.006276618 0.04248197 -0.23491256
000010 6b b0 7a be b2 12 84 3d 7b 13 14 be b6 8f 42 3e
       -0.2448136 0.06448878 -0.14460556 0.19000134
000020 d3 6a 72 3d c4 fa 5f 3d d0 66 76 be 6a cd a2 3d
       0.059183907 0.054682508 -0.24062657 0.07949336
000030 87 2a 04 bd 1e b8 0c bd 5a dd 4c be c9 cd 83 be
       -0.03226712 -0.034355275 -0.20006314 -0.2574294
000040 eb 6b 2f 3e c2 e5 24 be d7 66 57 3d af 2d 34 be
       0.17131011 -0.1610327 0.05258831 -0.17595552
000050 37 9b 42 be d4 ab ee 3d af f6 6e 3d 0f 1e ef bd
       -0.19004522 0.11653867 0.058340725 -0.11675655
000060 60 77 da 3d a7 98 1c be e1 92 2e be 21 9e 9d 3c
       0.106673 -0.15292607 -0.17048217 0.01924044
000070 36 9b cf 3c e0 ec 46 be a7 0d 19 be d0 ef 14 be
       0.025342565 -0.19426298 -0.14946614 -0.14544606
000080 ae a2 8b bd 38 75 05 3e be ce 62 be 88 eb 33 3e
       -0.06818138 0.13032997 -0.22149178 0.17570317
000090 5f 72 5d 3c e7 f7 b9 bc ae 05 07 be 2b f7 55 be
       0.013516038 -0.022701217 -0.1318576 -0.20895068
0000a0 80 db af bd 5b d2 fb 3d 6e 08 4c be c5 7d 5f 3e
       -0.08586788 0.122959815 -0.1992509 0.21825321
0000b0 35 9e 29 be 0d 62 11 3e 0a ad 68 be dd ac 68 be
       -0.16564257 0.1419756 -0.22722259 -0.22722192
0000c0 3b 56 c7 bd 45 ec 3b 3e be 15 fa 3d ec 37 16 be
       -0.09733244 0.18351848 0.12211178 -0.1466977
0000d0 2a 10 90 3d 65 1b fe bd 1f 96 57 3e da 90 73 3e
       0.07034333 -0.12407569 0.2105336 0.23785725
0000e0 a8 16 f1 3a af a6 28 3e 91 01 b7 bd 4c 31 a5 3d
       0.0018393593 0.16469835 -0.08935846 0.08066043
0000f0 69 f1 0a 3e b7 5a f7 3d e9 ee 94 3d 9d 85 65 3e
       0.13568653 0.12077849 0.07272131 0.2241425

lstm_p.bias_hh_l1 f4 [64]
000000 9c fc 91 3d df e9 26 3e 1d 72 01 3e f9 96 82 3c
       0.071282595 0.16300152 0.12641187 0.01594113
000010 37 0b 4f bd 05 2d 43 3e 27 8f 54 3e fa 48 5c 3e
       -0.050547805 0.19060142 0.20757733 0.21512213
000020 12 c5 7c 3d 8e 4e 0c 3e 90 28 13 be d6 84 27 be
       0.06171138 0.13701841 -0.14370942 -0.16359267
000030 a1 6d 2b 3d 45 9e 4b be 69 b6 03 be 46 e9 09 3e
       0.041852597 -0.19884594 -0.12862553 0.13467893
000040 af af fd bd 50 8b 2b be dd 4f 5f be 05 3b 23 3e
       -0.123870246 -0.16752362 -0.21807809 0.15940483
000050 2f ff 2a 3e 75 f9 3b 3e ca 7a 53 bd be 44 fc bd
       0.16698907 0.18356879 -0.051630773 -0.12317799
000060 45 6b 64 3e df 8e 26 be 13 69 52 3e 26 dd 2c 3d
       0.22306545 -0.16265438 0.20547895 0.04220309
000070 14 eb d1 bd 52 6e db 3d 53 5f 12 be 64 f4 69 3c
       -0.10249916 0.10714401 -0.14294176 0.014279459
000080 fe d3 4d 3e 82 ae 62 bd b3 44 88 3d 64 38 2d 3e
       0.201004 -0.055342205 0.06653728 0.16916043
000090 7e d7 9f bd 79 51 1e 3e 2e f8 3e 3e 32 06 e5 3c
       -0.07804774 0.15460767 0.1864936 0.027957056
0000a0 ef 57 3f 3e 6c e8 54 3e 82 02 39 be 74 c6 e8 3d
       0.18685888 0.20791787 -0.18067363 0.11365977
0000b0 18 11 7f bb ba 33 c6 bd 00 b4 45 3e c8 db 04 3d
       -0.00389201 -0.09677835 0.19306946 0.032436162
0000c0 a4 75 5c bc 5a 23 ca 3d ee 87 95 3d 71 af a5 3c
       -0.013455782 0.09870024 0.07301317 0.020225259
0000d0 62 70 e0 3d 96 12 a1 bc 75 ce 58 be 77 3e d2 3d
       0.10958935 -0.019662183 -0.21172507 0.102658205
0000e0 39 43 46 bd 19 2e fb bd 01 6a 19 be b8 76 ea 3d
       -0.048403952 -0.12264652 -0.14981844 0.11448425
0000f0 da b2 c4 3d 22 2c 49 be 3d 38 33 be 37 d5 43 bd
       0.09604426 -0.19645742 -0.17501922 -0.04781076

attention_p.attn_1.weight f4 [16, 16]
000000 f0 ce 84 be 75 b7 35 3e c8 cf 71 3e 8d a2 c4 be
       -0.2593913 0.17745765 0.23614419 -0.38405266
000010 9d b6 46 3d e9 88 c9 bd 7e 18 2d bd 83 09 ce be
       0.048513997 -0.09840567 -0.042259686 -0.40241632
000020 34 bf 95 be b2 65 d7 bd 08 43 a3 3d f3 6c a9 3e
       -0.2924744 -0.10517444 0.079717696 0.33090934
000030 5b a5 bb 3e 9f b0 a2 3d 57 38 d1 bd ec 2a d0 be
       0.36649594 0.07943844 -0.10215824 -0.40657747
000040 fe ed 9e be 1a 91 a5 3e b5 db 2d 3e 74 00 c5 be
       -0.3104095 0.32337266 0.16978343 -0.38476908
000050 29 83 58 be 47 a1 87 be c5 98 5d be 78 38 72 3e
       -0.21143784 -0.26490232 -0.21640308 0.23654354
000060 f7 7f 1f be b0 9a aa 3e 18 c2 ab 3e e6 66 3d be
       -0.15576158 0.33321142 0.3354652 -0.18496284
000070 6f fe c0 bd dc 1e bc 3e a2 db 65 3e 00 f1 61 3d
       -0.09423529 0.36742294 0.22447065 0.055161476
000080 9c 37 3a bd 54 29 10 be 0a 0f 02 bd d2 fa 61 be
       -0.04546319 -0.14078265 -0.031752624 -0.22068337
000090 41 4f ca 3d f5 b0 bf 3e 01 c8 60 bd 39 df 59 3e
       0.09878398 0.37439695 -0.05487824 0.21276559
0000a0 a2 ec d1 3e 2a c5 90 3e d7 4f ff bd 62 6d d0 be
       0.4100085 0.28275424 -0.124664 -0.40708452
0000b0 cf 55 67 be 97 b8 92 3d a3 cd 86 be f9 4c 90 be
       -0.22591327 0.07164114 -0.26328763 -0.28183725
0000c0 2a 42 ca 3e ea 3f 02 be 07 55 8f be 51 13 b8 3e
       0.39503604 -0.12719694 -0.27994558 0.35952237
0000d0 d3 f7 87 be b4 7e cd 3e c4 de 59 3e 5f 73 a5 be
       -0.26556262 0.4013573 0.21276385 -0.32314584
0000e0 cc 2a 97 3e 0b 6f 8b 3e ef 30 6e bd b4 f2 d5 be
       0.2952484 0.27233157 -0.058152135 -0.4178673
0000f0 38 bb af bd b3 95 dd 3e d1 42 af bd 36 c5 24 bd
       -0.08580631 0.43278274 -0.08557666 -0.040227138
000100 e3 e4 9d 3e d4 36 af be f0 a6 44 be 03 1e f5 3d
       0.3083869 -0.34221518 -0.19204307 0.11968615
000110 2b cc ac be f6 47 85 3e e4 2a 5e 3e 1f 79 27 3e
       -0.33749518 0.26031464 0.21696049 0.16354798
000120 6a 3b 1e be d8 1a b2 be fe de f7 3d a1 af ba 3e
       -0.15452352 -0.34786105 0.12103079 0.3646212
000130 21 f0 21 3e 7d 43 9f be 62 4e c1 3e 2d e3 59 be
       0.15814258 -0.31106177 0.37755114 -0.21278067
000140 96 79 d7 be fd 65 37 3d 76 27 9d 3e 53 c8 be 3e
       -0.4208495 0.044774998 0.3069417 0.3726221
000150 be 1e 05 be 18 f4 9f be fe ab e5 3c 69 46 1a be
       -0.13000008 -0.31240916 0.028036114 -0.15065922
000160 7c d9 00 bd d3 30 cc 3d fc 79 f8 3d 93 3a 66 be
       -0.03145741 0.0997025 0.12132642 -0.22483282
000170 99 b4 a7 3d 89 43 ec 3d 6f 91 a4 be 65 d7 b3 3d
       0.08188743 0.11536319 -0.32142207 0.087813176
000180 ac 7d bb 3e 33 74 33 be ca ac 44 3e 7e e1 09 3e
       0.36619318 -0.17524795 0.19206539 0.13464925
000190 90 d5 a2 3e 6e 3d 85 3e 4d ba 92 be 28 cc 0c be
       0.3180356 0.2602343 -0.2865776 -0.13749754
0001a0 a2 9f 93 bd 25 eb 5b be bb 41 af 3e 54 e2 30 bd
       -0.07208182 -0.2147642 0.34229836 -0.043184593
0001b0 58 80 d2 bd 0b 92 a8 3e 4a 59 33 be ca 04 91 be
       -0.10278386 0.32923922 -0.1751453 -0.28323966
0001c0 63 63 4c 3e 0b d7 b2 3e 58 81 17 3c 1b b2 a0 be
       0.19959788 0.3492969 0.009247147 -0.31385884
0001d0 2b c3 54 ba 70 a5 d6 3e 33 dc 6b bd 14 e6 86 3e
       -0.00081162405 0.41923094 -0.057583045 0.2634741
0001e0 75 b5 5c 3e dc a0 4f bd fa 11 c2 3c 2d 01 46 bd
       0.21553595 -0.050690517 0.023690213 -0.048340965
0001f0 11 8d a2 be 11 e7 5a be fc 16 8a 3e d3 16 8c be
       -0.3174825 -0.21377207 0.2697066 -0.27361163
000200 51 35 59 be 03 5a 86 be ee ab db 3e 43 5e 08 be
       -0.21211745 -0.26240548 0.4290461 -0.13317208
000210 7c 57 70 be a6 dc b5 3e 73 da 33 3e 5f 3c c4 be
       -0.23470873 0.35519904 0.175638 -0.3832731
000220 aa 8b d5 3e 23 a1 5c 3e ef 38 03 3e c8 56 5e bd
       0.41708118 0.21545844 0.12814687 -0.05428198
000230 7f c7 08 3e 6b 1c 2e be 4e 58 8c 3e 54 2b f1 3d
       0.13357352 -0.17003028 0.2741112 0.11775842
000240 c5 db bd 3e 33 5e 00 3e ba 0d 57 bd 8e b5 55 3e
       0.37081733 0.12535934 -0.052503325 0.20870039
000250 38 ed 48 bd 27 22 09 3e 7f 35 8e 3d b1 30 ae 3e
       -0.049054354 0.13391934 0.06943797 0.34021524
000260 39 13 9a be 03 92 4e bb d7 7e 64 be 7c 2b a4 3e
       -0.3009279 -0.0031520135 -0.2231401 0.32064426
000270 b9 88 2d be 05 10 7c 3e 5c 0d 64 3e 5f eb f7 bd
       -0.16946687 0.24615486 0.22270721 -0.1210544
000280 5d be 2c bc 26 29 89 3e f8 81 9a be 57 e2 cc 3e
       -0.010543433 0.26789206 -0.30177283 0.40016434
000290 2e 21 e4 bd 4c d3 02 be b8 68 d8 3c f9 e8 59 3c
       -0.11139141 -0.12775916 0.026417121 0.013300174
0002a0 aa 58 a8 be c9 28 e3 bc 8d 2b 9b 3e 44 1e 51 be
       -0.32880145 -0.027729409 0.30306664 -0.20421702
0002b0 14 92 95 3e e1 05 db be 59 35 b3 3e 8b 1e a3 be
       0.2921301 -0.42777923 0.3500164 -0.3185924
0002c0 72 df 90 be 34 75 2b be 6b 4c 40 be c7 7e af bd
       -0.28295475 -0.16743928 -0.18779151 -0.08569103
0002d0 8e e5 86 be 49 0a 76 3e ed a3 9d bd cb ff c6 3e
       -0.2634701 0.24027361 -0.07697282 0.3886703
0002e0 31 86 d0 3e 68 e7 b4 be 83 3f 4d 3e 36 c6 af 3e
       0.4072738 -0.353328 0.20043759 0.3433091
0002f0 a1 50 17 3e 1a ed be 3c ac aa 8c be 7c f8 d5 3e
       0.14776851 0.023306418 -0.27473962 0.4179114
000300 4b 7c 08 3e 57 c6 a8 3e 72 72 c1 bd 5e 95 1f 3e
       0.13328664 0.3296382 -0.09445657 0.15584323
000310 db a6 6a be dc a2 d0 be 40 f5 63 3c b8 45 d6 3e
       -0.22915213 -0.40749252 0.013913453 0.41850066
000320 0b f2 3d 3d 8c 32 e4 be 72 30 5d bb fe 04 69 3e
       0.04637341 -0.44569814 -0.00337508 0.2275581
000330 a7 05 a0 be 33 62 cf 3e 92 95 70 3e a3 6f 2b be
       -0.31254312 0.40504608 0.23494557 -0.16741805
000340 c6 99 27 3e d3 3f 89 3e 87 25 9f 3e 6d e2 85 bc
       0.16367254 0.26806507 0.3108332 -0.01634332
000350 31 cd 96 bd f4 37 55 3e 28 ae 0a 3e 2a 4a ff bd
       -0.07363356 0.20822126 0.13542998 -0.124653175
000360 e9 67 03 3d 49 fb a9 be 22 19 b9 be 61 9f ad 3e
       0.03208152 -0.33199528 -0.36151987 0.3391066
000370 8b dc ce be 18 b2 90 be f2 08 c4 be d5 a4 0b 3e
       -0.40402636 -0.28260875 -0.38288075 0.13637097
000380 f2 2a 97 3e da a3 40 bd f0 60 b3 3e 75 1f db 3e
       0.29524952 -0.04703126 0.35034895 0.42797437
000390 2e c2 71 bc 84 a7 bc be 6d b8 82 be 79 c9 78 bc
       -0.014755769 -0.36846554 -0.2553133 -0.015184754
0003a0 fb 42 00 be 98 9f 91 be b0 70 03 be 03 6b 90 bd
       -0.12525551 -0.28442073 -0.12835956 -0.07051661
0003b0 7b cd 95 be 8c bc b0 be a0 c0 ab 3e ec 90 c8 bd
       -0.29258332 -0.3451885 0.335454 -0.09793267
0003c0 e0 0c 9c 3d 5b 8a 3d be bc fd ad be f3 48 73 bd
       0.07619643 -0.1850981 -0.33982646 -0.05939574
0003d0 d7 00 94 3e 72 3e d1 3e bb b0 22 3d a4 f5 90 be
       0.2890689 0.40867954 0.039719325 -0.2831241
0003e0 aa 35 fc bd a2 0a 41 be b2 3c ad bd 8c f1 39 3c
       -0.12314923 -0.18851712 -0.08458842 0.011349093
0003f0 16 7f f7 bd 20 76 23 be e2 d3 87 be d4 17 cb bd
       -0.120847866 -0.1596303 -0.2652884 -0.09916654

attention_p.attn_1.bias f4 [16]
000000 d7 20 2e bb ad 32 41 bc 96 83 1e 3c 71 ae 22 bc
       -0.0026569867 -0.011791867 0.009674927 -0.009929285
000010 0c 7b 47 bc a2 11 a9 3b 40 2f 03 3c 2a 12 87 bb
       -0.012175333 0.0051595727 0.008006871 -0.0041220384
000020 f7 d6 d8 3b 9e 9a 5a bc 2e e8 bc 3b 3d 82 39 bc
       0.0066174227 -0.013342528 0.0057649827 -0.011322555
000030 77 c6 d8 3b 98 69 29 3c e7 b2 ea bc c0 7d 43 bc
       0.0066154557 0.010340117 -0.02864976 -0.011931837

attention_p.attn_2.weight f4 [1, 16]
000000 b3 7e e6 be e6 03 b6 be 35 01 e9 3d 8d 40 2d be
       -0.4501854 -0.3554985 0.11377183 -0.16919155
000010 3b e1 6b be 77 b2 c0 3c 04 58 b5 3e 58 43 86 be
       -0.23035137 0.023522599 0.35418713 -0.26223254
000020 23 10 83 3e 75 19 c8 be 62 4a 9d 3e 22 6e 36 be
       0.2559825 -0.39081922 0.30720812 -0.1781545
000030 43 c5 85 3e f2 29 d5 3e 58 73 e5 bd 69 80 9a be
       0.2612706 0.41633564 -0.11203641 -0.30176094

lstm_t.weight_ih_l0 f4 [64, 7]
000000 84 1f 14 be a9 dc 92 bd b1 56 a2 bb 13 fd 71 bd
       -0.14465147 -0.07170994 -0.004954182 -0.05907924
000010 ee 20 4f 3e 39 f4 45 be 9f be 52 3e f8 b3 71 bc
       0.20227405 -0.19331445 0.20580529 -0.014752381
000020 ff a0 69 3e 22 81 95 3d a7 7f 46 be 4a f4 69 3e
       0.22815321 0.07300021 -0.19384633 0.22847095
000030 53 da 80 3d b9 54 e9 3d e8 da 40 3e c9 d1 8c bd
       0.06291642 0.11393113 0.18833506 -0.06875951
000040 03 7e af 3c 92 f7 cc bd e5 15 e8 3d cb fa 32 bc
       0.021422392 -0.10008158 0.11332301 -0.0109240515
000050 1e 6b 81 3d 72 87 04 be 55 9f dd bd 0e b5 c1 bd
       0.06319259 -0.12942293 -0.10821406 -0.094583616
000060 a5 60 0d be 5f bd 42 3e 6c d4 39 be 99 9a 21 3e
       -0.13806398 0.19017552 -0.18147439 0.1578163
000070 1b 4f 47 be 36 1f 5a 3e 4f 38 80 be 11 24 33 3e
       -0.1946377 0.21300969 -0.2504296 0.17494227
000080 bc a3 a4 3c 14 6d 63 bd 49 8c fa bd 88 c6 03 3e
       0.020097606 -0.055523947 -0.122337885 0.12868702
000090 51 bb 91 3d c4 56 f6 3d 7c 89 85 3d 68 16 c7 3c
       0.07115806 0.12028268 0.06520364 0.024302676
0000a0 a4 d1 42 3e 69 54 b7 3d 57 e2 67 3e 86 5d 40 be
       0.19025284 0.08951647 0.22644936 -0.18785676
0000b0 d4 64 3b bd f5 99 67 bd 7c ef a3 3d 1a 19 4c 3d
       -0.045750454 -0.05654331 0.080046624 0.049828626
0000c0 a5 3b 1b be 9c fc 13 3e 05 cc 35 bd b0 a8 45 be
       -0.15159471 0.14451832 -0.04438402 -0.1930263
0000d0 f3 e8 6b 3e 05 74 2c be 0e 09 d3 bd 0c f0 67 3e
       0.23038082 -0.16841133 -0.103044614 0.22650164
0000e0 6d 13 cb bd 89 a1 18 3e 20 c0 97 bd 54 80 ca bd
       -0.099158145 0.14905371 -0.07409692 -0.09887758
0000f0 be 8d 73 3e 23 af 6e be a2 97 09 3d db f8 13 3d
       0.23784539 -0.23308997 0.033591874 0.036126
000100 b8 78 27 be bb 99 2d 3d 4f 1d 94 bd 61 36 99 3d
       -0.16354644 0.042382937 -0.07232153 0.07481075
000110 0e 84 fc bd 58 a0 27 be 3f ca 3e be fa 9e 51 3d
       -0.12329875 -0.1636976 -0.18631838 0.051177002
000120 f9 a3 72 bc 5b be 91 bd f8 a8 39 be 5d 96 7c 3b
       -0.014809602 -0.071163855 -0.18130863 0.0038541772
000130 ee 53 4c be 53 63 85 3d b4 f7 45 bd 78 a4 1b be
       -0.19953892 0.06513085 -0.04833193 -0.15199459
000140 fa 25 a3 3d 21 cb 36 be e6 c6 a3 bb 3a ce 05 3e
       0.07966228 -0.17850925 -0.004998076 0.1306695
000150 28 bc 50 3e d3 74 b7 bd ed 38 54 be aa 84 29 3e
       0.20384276 -0.08957829 -0.2072484 0.16554514
000160 60 e0 21 3d 8c 8b 6c be 09 6b 7a bb f0 be 10 bc
       0.03952062 -0.23100108 -0.003821077 -0.008834586
000170 20 91 4d bd b4 aa 34 3e 38 99 51 3d a7 34 0d be
       -0.05018723 0.17643243 0.05117151 -0.13789617
000180 67 59 e4 bc 26 f6 9a 3b 5a f8 e0 bd 6d 89 07 be
       -0.027874662 0.00472905 -0.10984869 -0.13236018
000190 87 60 1c bd b8 b1 0d bd f6 ba 35 be 58 7c 4b 3e
       -0.038177993 -0.034593314 -0.17747101 0.19871652
0001a0 5f 56 78 3e a6 dd 3f be 0a 19 07 3e d9 a1 39 be
       0.24251698 -0.18736896 0.13193145 -0.18128146
0001b0 e0 af 98 3d b5 2c 79 3e 17 5b 18 3d 4a 65 3f be
       0.074554205 0.2433346 0.037196245 -0.18690982
0001c0 2d ca a8 bb 37 e8 4f be e9 28 51 be 28 1c 66 bd
       -0.0051510544 -0.20303427 -0.20425762 -0.056179196
0001d0 31 e3 22 be 71 8c b4 3d b3 b9 7d 3d 31 e8 5e be
       -0.15906979 0.088158496 0.061944675 -0.21768261
0001e0 81 85 85 bd b3 0f 65 3e 8e 3e 3b 3e 2b 36 12 3e
       -0.065196045 0.2236927 0.18285581 0.14278476
0001f0 27 d3 bb 3d 28 2d 45 be 87 5c 4d 3e 46 49 83 3e
       0.091711335 -0.19255507 0.20054828 0.2564184
000200 31 cf 3b bd fb ee 4c be 9e a6 05 bd 05 fa 48 b9
       -0.04585189 -0.20013039 -0.0326296 -0.00019166626
000210 f2 8b 30 3e 5e 66 f5 3d fd 15 55 be 65 55 07 be
       0.17240885 0.119824156 -0.20809169 -0.13216169
000220 25 13 47 3d 04 84 3e 3e fe ec 93 bc 63 0c 7c be
       0.048602242 0.18605047 -0.018057343 -0.246141
000230 c3 9a c8 3d 42 e1 29 bd dc 77 98 3d 12 0c dc 3d
       0.097951435 -0.04147459 0.07444736 0.1074449
000240 34 06 06 3e e6 ab d3 3c 8b 6a ae 3d a7 b9 a9 3d
       0.13088304 0.025838803 0.08516415 0.082873635
000250 ee 89 d8 bd 9b e6 70 3d d3 6f 2b 3e 4c d3 3e be
       -0.10573183 0.058813673 0.16741876 -0.18635291
000260 65 3c 41 3d 98 10 43 3e b8 fe df 3d 7c 56 d8 bd
       0.047176737 0.19049299 0.109372556 -0.105633706
000270 68 c6 92 3d 21 8a d6 3a 82 52 4e 3e db 24 15 be
       0.07166749 0.001636807 0.20148662 -0.1456484
000280 b5 c3 fa 3d 95 20 c3 3c 1b 35 33 3d 8b 95 3a 3c
       0.122443594 0.023819247 0.043751817 0.011388193
000290 f4 82 57 be 62 d5 d0 3d c3 4f 19 be e4 e3 76 3e
       -0.21046048 0.101969495 -0.14971833 0.24110371
0002a0 ff ac aa 3d 8d f7 f9 bd 7d b7 48 3e b8 ed 36 3e
       0.08333778 -0.1220542 0.19601245 0.1786412
0002b0 99 54 76 3e 63 16 05 3e 6b 6b 58 3d f9 0f 12 be
       0.24055709 0.12996821 0.052836817 -0.14263906
0002c0 84 27 82 3e d4 e6 11 3e a0 c8 0e 3e e0 04 73 3e
       0.25420773 0.1424821 0.1394372 0.23732328
0002d0 8d 69 36 3e 35 59 fa bd b3 38 20 3e 6c 67 dc 3d
       0.17813702 -0.12224046 0.15646629 0.10761914
0002e0 94 54 d0 bd da da 47 3e 71 1b bc bd f0 c7 96 bd
       -0.10172382 0.19517079 -0.091849215 -0.07362354
0002f0 dd 91 a9 3c 9f c3 75 3c da f1 3b 3e 2a 13 00 be
       0.020699436 0.015000253 0.18353978 -0.1250731
000300 61 5a 74 be e7 13 b2 3d e5 cc 2a be 10 68 5c be
       -0.23862602 0.08695202 -0.16679724 -0.21524072
000310 b1 66 3b be 29 d2 21 be ea b4 65 bd 4a 79 23 be
       -0.18300892 -0.15802826 -0.056080736 -0.15964237
000320 34 f2 32 3e bb db be bd df 3d 2f 3e c3 62 1a be
       0.17475206 -0.09319254 0.17113446 -0.15076737
000330 b5 03 1b 3e 91 21 fc 3c 30 2b 73 be f8 b1 d5 bd
       0.15138133 0.030777724 -0.23746943 -0.104343355
000340 c7 05 6f 3e 76 ff 64 3e ee 29 2f 3e 91 a3 40 3e
       0.23342048 0.22363076 0.17105839 0.18812396
000350 4e 97 38 3d 69 3e 52 be 95 dc b8 bd a5 f7 4c be
       0.04506617 -0.2053162 -0.09026448 -0.20016344
000360 37 52 fe 3d 81 82 19 3e 43 97 9e 3d 37 af 55 3e
       0.12418025 0.1499119 0.07743695 0.2086762
000370 23 82 fb bc 88 37 06 3e 44 54 b0 bc ca 93 29 bd
       -0.030701702 0.13107121 -0.021524556 -0.04140071
000380 64 bd 33 be a1 3f 21 be f9 25 d4 3c ed 0e 08 be
       -0.17552716 -0.15746929 0.025897013 -0.13286944
000390 74 da 32 3d 90 a9 df bd 69 a3 ca bc 15 2e 35 be
       0.043665364 -0.10921013 -0.024736123 -0.1769336
0003a0 35 4e 45 be fa 65 dd 3d b0 24 40 3e 4c 07 ff bc
       -0.19268115 0.10810466 0.18763995 -0.03113141
0003b0 40 a0 46 3d c4 1f 7e 3d 73 11 5d 3e 20 e7 ec bc
       0.04849267 0.062042013 0.21588688 -0.028918803
0003c0 7b b0 77 3e 09 d9 ba 3c 89 ae 1f 3e 81 72 4a bc
       0.24188416 0.022808569 0.15593924 -0.012356401
0003d0 91 ed d6 bd 79 1f c0 3c e3 00 5c be 4a 8c 53 3d
       -0.10494531 0.023452507 -0.21484713 0.051647462
0003e0 3c 6e 47 bd ec 2b 9a 3d 23 65 69 be e1 34 46 3e
       -0.048689112 0.07527909 -0.22792487 0.19356109
0003f0 b8 49 86 bd 13 cd 92 bc bd d8 2b 3d 71 82 62 3e
       -0.065570295 -0.017920053 0.041954745 0.22120072
