Params/301_0.01_7_16_222_model.pt (torch, 45257 bytes, 31 tensors)

lstm_p.weight_ih_l0 f4 [64, 10]
000000 f8 d5 85 bd cc 90 d3 bc e5 ee d0 bc 0c 81 4b 3c
       -0.06534952 -0.02582588 -0.025504539 0.012420904
000010 8f 7c 83 3e e1 64 bc bd 1c 0c e7 3d 89 e2 57 3e
       0.25680968 -0.091989286 0.112816066 0.2108251
000020 d5 26 26 bd 1e b2 3e bd 9b 6a 09 3e c7 a2 9b 3d
       -0.040564377 -0.046556585 0.13419573 0.07599407
000030 e4 76 ff 3b 61 cf 6d 3e e7 08 be 3c 3e 7e d3 bd
       0.0077961553 0.2322364 0.023197604 -0.10326813
000040 2b ed a9 3c b4 6f a8 3d 67 56 b7 3d c4 10 ff 3d
       0.020742973 0.08224431 0.08952027 0.1245437
000050 fe b9 cb 3d ab 52 03 3e a0 2f 0e be 9b 97 7e 3e
       0.099475846 0.12824504 -0.13885355 0.2486252
000060 1e e5 be bd 5a 8b 21 bd ee e7 0b 3e 3e 7b 9a 3c
       -0.093210444 -0.039439537 0.13662693 0.018857595
000070 71 49 66 3e e3 f5 23 3e af 15 40 3e 5c 3d a9 3c
       0.22488953 0.16011767 0.18758272 0.020659141
000080 c2 ee 26 3d 68 6d fd 3c 1f fd 40 be 59 a3 e4 b9
       0.04075504 0.030935958 -0.18846558 -0.00043609252
000090 a4 c9 54 3d 89 d9 b0 bd 46 0b 2a be 7b 5a 3b be
       0.051950112 -0.086352415 -0.16605863 -0.18296234
0000a0 9a d3 18 3e 83 ce 25 be 88 76 8f 3e a8 6c 99 bc
       0.1492447 -0.16192059 0.2802012 -0.01872857
0000b0 0a 04 73 3d 1f 2a 23 3e 28 86 3c 3e 66 e0 9e 3d
       0.059330024 0.15934037 0.18410552 0.07757644
0000c0 52 93 4b be ea 7f 96 3b 22 5b ce bd 83 12 4c be
       -0.19880417 0.0045928853 -0.10075976 -0.19928937
0000d0 f7 0c df bd 3f bb 0b 3e c8 7d 05 3d 26 3e 62 3e
       -0.10891145 0.13645647 0.032590657 0.2209402
0000e0 0c 86 0f be e4 bb f5 3d 7f 36 4e 3e 9e 13 20 be
       -0.14015979 0.11998728 0.20137976 -0.15632483
0000f0 9e c3 7b 3e 06 dc 25 3e d5 ea 53 3b cd 34 5d bd
       0.24586341 0.16197214 0.0032336016 -0.054005433
000100 90 02 0e be f2 ce 47 3e a0 b4 95 3d 54 94 ef bc
       -0.13868165 0.19512537 0.07309842 -0.029245533
000110 a8 bd 65 3e 2c 86 0b be bf 43 4d be f9 81 5a be
       0.2243563 -0.13625401 -0.20045374 -0.21338643
000120 ff 47 23 3e 48 3e 82 be 02 69 8a bd 2b 2e c5 bd
       0.15945433 -0.25438142 -0.0675831 -0.096279465
000130 0b 7f e4 bd 0c 93 91 be e8 bd 2f 3d dd 1c e5 bd
       -0.11157044 -0.284325 0.042905718 -0.11187146
000140 4c de 70 be 84 92 8a bd f5 04 47 be 3b b9 b0 3d
       -0.235223 -0.06766227 -0.19435485 0.0862908
000150 e7 1e c5 3d 7b 24 0c be 5a f9 49 3e 99 cf 80 3c
       0.09625035 -0.13685791 0.19724026 0.01572399
000160 e8 34 7a be 13 44 07 bb e4 f8 bc bc ef de a9 3d
       -0.24434245 -0.002063994 -0.023067899 0.08294474
000170 d4 7a 78 be 08 a6 7c 3c 23 58 2e be 2a 31 d5 3b
       -0.24265605 0.015420444 -0.17025809 0.006506105
000180 9a 46 5a be 3a f5 c2 bb b5 35 7b be 60 1d 30 3d
       -0.21315995 -0.0059496434 -0.24532206 0.042996764
000190 07 ae 92 3d 06 c9 4e 3e 11 07 84 3e 98 16 e4 3d
       0.07162099 0.20193872 0.2578664 0.11137122
0001a0 21 5f ac bd 15 05 8d bd 43 dd 16 3e 45 6a 13 3e
       -0.08416582 -0.06885735 0.14732842 0.14396007
0001b0 d4 1c 7d 3c 35 e0 16 be 5e 4f 4f be 0e 5b aa bd
       0.015448768 -0.14733966 -0.2024512 -0.083181486
0001c0 70 95 95 3d 70 ce 12 3e 2c 12 90 3d 88 e2 c6 3d
       0.073038936 0.14336562 0.07034716 0.09711176
0001d0 94 2c ab bd 63 31 94 3d 5d ca b3 bb 02 c6 1e 3e
       -0.08358112 0.07235982 -0.00548677 0.15505221
0001e0 ae 16 9b 3d 5e 16 53 bd 20 fb 92 3c d7 e9 15 be
       0.07572685 -0.051535003 0.017942011 -0.14639984
0001f0 44 5b 90 be 2a 03 83 3c 29 0f 23 3e ef a0 29 3d
       -0.2819463 0.01599272 0.15923752 0.041413244
000200 3a 11 86 bd f2 ad 92 be f3 7b 5c be 88 5d bd 3d
       -0.065462545 -0.28648335 -0.21531658 0.09246355
000210 b3 3c 6b 3d 10 e3 c8 3d e1 b5 e6 3d 6f 7e 28 bd
       0.057430934 0.09808934 0.112651594 -0.0411362
000220 df 1c 69 be 5b 9f d4 3d 65 90 46 be 98 10 65 3d
       -0.2276492 0.10381957 -0.1939102 0.05592403
000230 c5 90 bc 3c 5e 99 3f 3e 18 25 84 3e 71 58 5e bc
       0.02301825 0.18710849 0.2580955 -0.013570891
000240 eb 49 1d 3e f5 5b 37 3d ef d3 2b 3e 17 d3 89 bd
       0.15360229 0.04476543 0.16780065 -0.06729715
000250 1c 8c 38 be a3 8c 1e bd f6 8b 83 3c 84 5d f6 3d
       -0.18022197 -0.03870834 0.01605795 0.120295554
000260 98 14 fe 3d 1e d8 1e bd 77 1d 67 3d 48 86 0b bd
       0.12406272 -0.038780324 0.056424584 -0.034063607
000270 b4 a5 3b 3e c8 c8 5c 3d 29 a5 87 bc 0f e1 2c bd
       0.1832493 0.053902417 -0.016558247 -0.04220682
000280 0a a7 b3 3d 49 9a 4a bd b1 75 77 3e 65 8d 26 3e
       0.087720945 -0.049463544 0.2416599 0.16264875
000290 a6 75 5f bd df 03 00 3e 5e 72 af bd 5c f3 35 be
       -0.054555558 0.12501477 -0.08566736 -0.17768615
0002a0 35 27 48 be 26 ce 48 be bd 2a cb bd 6f 00 bd bd
       -0.19546206 -0.1960989 -0.09920261 -0.09228598
0002b0 46 fd 54 bd 60 30 53 3e f0 b1 71 3d 40 24 10 3e
       -0.051999353 0.20623922 0.059007585 0.14076328
0002c0 c7 00 94 3d dd 4c d6 3d f3 5f 04 3c 5a 2d 02 3d
       0.07226711 0.10463879 0.008079517 0.031781532
0002d0 79 d5 b0 3e 25 fc a2 3e 9e 74 c5 3d 10 2e 31 3e
       0.34537867 0.31832996 0.096413836 0.17302728
0002e0 d2 9e 72 3e 46 6b 6b 3e e4 1a 7d 3e b9 2e e3 3c
       0.23693398 0.2299014 0.24717289 0.02773224
0002f0 bc 22 5a 3e 1e bc 05 3e eb e1 ac 3d f7 42 0b bd
       0.21302313 0.13060042 0.08441528 -0.03399941
000300 da ef 06 3e 40 2e 41 be e5 b9 0b 3e 08 35 57 3d
       0.13177434 -0.18865299 0.13645132 0.05254081
000310 0f 96 e5 3d 4a 1b 95 bc e7 56 09 be 0f 9f b7 bc
       0.11210262 -0.018201489 -0.13412057 -0.022414712
000320 b3 8b 01 3e 7c 75 1d 3d d5 02 63 be 41 82 4f be
       0.12650947 0.03844212 -0.22169049 -0.20264532
000330 c7 6a 75 3e 57 2c 21 be c4 9e 81 bd d1 71 24 be
       0.23966514 -0.1573957 -0.0632911 -0.16059043
000340 df af be 3d 19 cf 5c be 17 d7 25 3e fa 42 0e be
       0.093108885 -0.21563376 0.16195332 -0.13892737
000350 c4 51 7f be 36 90 09 bd 43 aa 55 3d dd 0c ef bd
       -0.24933535 -0.033584796 0.052164327 -0.11672375
000360 8a 05 ba 3d 34 11 69 be ea 46 54 3e c0 bc 58 be
       0.09083088 -0.22760469 0.20730177 -0.21165752
000370 0d 5e 8d 3d d7 83 74 bd cc 79 90 bd 45 a0 6c 3e
       0.069027044 -0.059696045 -0.07054481 0.23108013
000380 c5 0f 48 3e e3 b6 37 3e 23 64 2e be f5 bf 47 be
       0.19537266 0.1794086 -0.17030387 -0.1950682
000390 fa aa 6f be 98 2d ea 3d 48 8b b7 bd 62 d0 57 be
       -0.23405066 0.114344776 -0.08962113 -0.21075585
0003a0 86 52 45 be 2f 32 83 3d 35 5e 01 be e1 fa 32 bd
       -0.19269761 0.06406056 -0.12633593 -0.043696288
0003b0 dc 3d 8f be 46 65 1c 3e a6 e5 0e be 98 35 f1 3c
       -0.27976882 0.15273008 -0.13954791 0.0294445
0003c0 6c 35 50 be 0d b1 50 3e ee dc 29 3e 26 e4 0c be
       -0.20332879 0.2038004 0.16588184 -0.13758907
0003d0 40 46 e6 bd a0 e3 2e be c8 e1 5d 3e 04 ba f9 3d
       -0.11243868 -0.1707902 0.2166816 0.12193683
0003e0 50 c2 ac 3d 24 73 b5 3d 10 63 67 be 0e 1a 2d be
       0.084355 0.08859852 -0.22596383 -0.1690447
0003f0 69 b5 4e be 0d cf cd bd cc 43 e4 bd 59 3e db 3d
       -0.2018639 -0.100492574 -0.11145744 0.10705251

lstm_p.weight_hh_l0 f4 [64, 16]
000000 e2 6e 37 3c e3 86 f0 3c 02 84 a2 ba 42 dd 07 3f
       0.01119587 0.029361194 -0.001239896 0.5307199
000010 e1 45 e0 3c 78 68 09 be 21 ab a5 bc 60 ba 12 3d
       0.02737707 -0.13418758 -0.020223202 0.035822272
000020 01 5f 0a 3e 5a bb b3 bd 08 0c 0e 3e 45 58 4e 3e
       0.13512804 -0.08775969 0.13871777 0.2015086
000030 cc 79 83 bc 8f c8 bb 3e 72 78 74 3e f1 36 fb 3d
       -0.016049288 0.36676452 0.23874071 0.122663386
000040 5c 45 9c 3e bb 0a 67 be 4e 7f 40 be 8b ad de bb
       0.30521667 -0.22562687 -0.18798563 -0.0067955903
000050 85 0d 1b 3e 51 21 8a bd b1 bd 3d 3e 0c a7 05 3e
       0.15141876 -0.06744636 0.18529393 0.13052005
000060 7c 79 ae 3d 90 b1 56 3e f2 0d c2 3d e2 ea 47 be
       0.08519265 0.20966172 0.09475316 -0.19523194
000070 93 b3 eb 3d e4 0e 40 be 2c b1 16 be 1e d1 3d bd
       0.115088604 -0.1875568 -0.14716023 -0.046342008
000080 28 e3 8e 3e d7 83 1a be b4 cd e4 3d bf d7 76 3e
       0.2790768 -0.15089355 0.11172047 0.24105738
000090 42 0e 78 be ee 1c 12 be 60 e4 42 3d 33 cd f3 3d
       -0.24224189 -0.14268848 0.047581077 0.11904373
0000a0 90 02 d8 3a 99 a9 39 be ad 9d ff 3c 87 fc 96 3d
       0.0016480256 -0.18131103 0.031203115 0.073723845
0000b0 b4 6c 29 3e 10 4f 7f bd 95 49 e2 bd 68 17 59 bd
       0.16545373 -0.06233126 -0.11049191 -0.053000838
0000c0 5e b9 03 be 55 01 84 bd ca b6 a7 3d fa eb 1f bd
       -0.1286368 -0.064455666 0.08189161 -0.039043404
0000d0 6a 5f e6 3d ba c3 65 be cd ab d0 3d 8e ce e0 3d
       0.112486675 -0.22437945 0.101890184 0.10976897
0000e0 86 77 15 3e 91 8c 77 bd 81 32 c4 3d e7 a4 14 3e
       0.14596376 -0.06043679 0.09579945 0.1451603
0000f0 6d f6 8f bc b5 21 fe bc 30 59 02 bc b7 ec e4 3d
       -0.01757356 -0.031021932 -0.007955834 0.11177962
000100 e7 0a 93 3e 00 b0 36 bd 51 1b 38 be 73 59 43 3d
       0.28719255 -0.04460144 -0.1797917 0.047692727
000110 5a 21 5c be eb da 01 3e 46 bf 57 bd 18 f3 db 3d
       -0.21497098 0.12681167 -0.052672647 0.10739726
000120 41 00 eb bd 7b 15 e4 3d 41 34 53 be b1 d0 07 3e
       -0.11474658 0.111369096 -0.20625402 0.13263203
000130 cc fb 77 3e fd 7a 7b 3e 64 cc a5 3d f9 09 60 be
       0.24217147 0.24558635 0.08095625 -0.21878804
000140 00 a7 5c 3d 06 59 34 3e c3 0c 14 be ad d8 48 3c
       0.0538702 0.17612085 -0.14457993 0.012258691
000150 a5 52 56 bd 8c 8b b1 bd 04 ea 8d be 57 94 31 3e
       -0.05232491 -0.086691946 -0.27717602 0.17341743
000160 a4 85 31 3e 28 62 22 be dd 6e 3e bd 5e b1 d3 3d
       0.17336136 -0.15857756 -0.046492446 0.103365645
000170 f0 de 30 be 1a 05 d7 bd 44 e0 63 3e 3d 72 00 3c
       -0.17272544 -0.1049902 0.2225352 0.0078397365
000180 f8 ce 15 be b9 be 31 bb 11 bc 50 3d 7c 66 44 bb
       -0.14629734 -0.0027121736 0.050960604 -0.0029968312
000190 40 c0 3d 3e 54 2d ee 3d ab a2 6b 3e 0d 0f 8c 3c
       0.18530369 0.116297394 0.23011272 0.01709702
0001a0 de e9 0e be 23 d3 b5 bc 63 67 10 be 13 a6 1b 3e
       -0.13956401 -0.022195404 -0.14101939 0.15200071
0001b0 76 7f 90 be 5d 21 b0 3e 5b 38 3e 3d 61 6a 28 3d
       -0.28222245 0.34400454 0.046440464 0.041117076
0001c0 e5 f6 76 3e 89 eb 8f be e8 73 9e 3e ab 7a 4c be
       0.2411762 -0.28109387 0.30947804 -0.19968669
0001d0 39 a1 96 3e d9 46 81 bc cc c4 c0 3d 62 1c 16 3e
       0.29419878 -0.015780853 0.09412536 0.14659265
0001e0 9f 31 9a 3e 70 6d 63 3e 9b 38 fa 3d e7 4c 1c 3d
       0.30115983 0.22209716 0.12217828 0.038159277
0001f0 57 e8 6a bd 83 56 e4 3b 78 0f 7f bd 40 bf e2 3d
       -0.057350483 0.006968321 -0.06227061 0.11071634
000200 58 3c 24 be e0 66 0f 3e 1c 9c 40 3e 57 4b ae 3e
       -0.16038644 0.14004087 0.18809551 0.34041855
000210 51 ee f5 bb cc f2 72 3e 5d 76 87 be 19 04 2e be
       -0.007505216 0.23725432 -0.26457492 -0.1699375
000220 dd 2e 3f 3d 3b 81 d3 3d b2 f9 38 3e b6 c7 26 be
       0.04667555 0.10327383 0.18064001 -0.16287121
000230 19 23 a3 bd 27 48 b5 bd ef 30 23 3d be 6a 6b bc
       -0.07965679 -0.088516526 0.03984159 -0.014368711
000240 fb 93 5d be db bb 9b bc b9 48 0d be d3 70 e6 bd
       -0.21638481 -0.019010475 -0.13797273 -0.11251988
000250 df e0 55 3d 70 ab e6 3d 27 62 84 3d 19 ea ec bd
       0.052216407 0.11263168 0.064640336 -0.11568088
000260 9e 05 18 be 75 ef 0e bd bd 7c ff bb 2f 9f da bd
       -0.14845893 -0.034896333 -0.0077968524 -0.10674893
000270 7d 90 55 3e 83 0d c7 3d dc 9a 55 3e 38 41 a0 3d
       0.20855899 0.09719374 0.20859855 0.078249395
000280 d8 0d f3 bd c1 a1 12 3e 56 fa e8 bd 58 9f 91 3e
       -0.11867875 0.14319517 -0.11375873 0.28441882
000290 4d 07 be 3d 06 7c 6b 3e 6a 43 8e be 78 fa 6d bd
       0.09278736 0.2299653 -0.27785808 -0.058100194
0002a0 a5 01 30 3e 57 06 e9 bd 26 94 7a 3e 77 29 02 3d
       0.17188127 -0.11378162 0.24470577 0.031777825
0002b0 f5 93 7e be 0f 75 12 3e 49 a6 e4 3d b6 62 1e be
       -0.24861129 0.14302467 0.11164529 -0.15467343
0002c0 66 90 1d be 56 bc e6 bd d3 98 07 3e 93 e5 a4 3e
       -0.15387115 -0.11266391 0.13241892 0.322064
0002d0 22 9e 11 be 6e f5 11 be 3d fa a1 be 0f 69 1d 3d
       -0.14220479 -0.1425378 -0.3163623 0.03843027
0002e0 34 80 c2 bd 6c aa 8a 3e 16 32 83 be c6 b0 b0 3e
       -0.09497109 0.27083147 -0.2562415 0.34509867
0002f0 17 dc b8 bd 23 ca 98 3d fd 61 61 bd cb 63 58 3c
       -0.09026354 0.074604295 -0.05502509 0.013207386
000300 d1 ca bb 3c 2a 7b 1d be b8 95 0f be 71 fe 24 bd
       0.022923859 -0.15379015 -0.14021957 -0.040281717
000310 a9 14 ac bd 54 cb d1 3d ce bf 07 bd c5 7f 9e bd
       -0.08402378 0.1024386 -0.033141904 -0.07739214
000320 02 3e 32 be 56 2c 5a bd 35 79 71 3e e7 78 1e 3e
       -0.17406467 -0.05326494 0.23581393 0.15475808
000330 62 88 b0 3d 15 1a 30 bd 7d 57 8c 3e 53 fb fd 3d
       0.08619763 -0.042993624 0.27410498 0.12401452
000340 9e 43 bd bb b0 00 ec bd c2 e4 14 3e 47 e5 87 3e
       -0.005775883 -0.11523569 0.14540389 0.26542112
000350 14 14 d4 bd 40 bc 34 3e cb a8 df 3d d1 62 90 bd
       -0.10355392 0.17649937 0.109208666 -0.07050098
000360 8a 36 11 be eb b2 ea bc 41 dd a4 39 2c 7a 8f 3e
       -0.14180961 -0.028649768 0.00031445365 0.28022897
000370 14 35 1e 3d 04 59 b3 3e 20 d6 81 3e d6 2b 99 3c
       0.038624838 0.3502885 0.25358677 0.01869766
000380 ab d9 f4 3d d2 44 64 3e 67 ef 93 3d 5e 66 05 3e
       0.11955579 0.22291878 0.07223397 0.13027331
000390 11 7e d4 3d 2d 48 8a 3e 6a 5f a3 bd c9 53 32 bd
       0.10375608 0.2700819 -0.07977183 -0.043536935
0003a0 98 14 33 bc 43 55 2f be d5 30 5e bc 75 0c 3d be
       -0.010930203 -0.17122369 -0.013561447 -0.18461783
0003b0 bb 75 20 bd ac 1b 71 3d a1 ff 5a 3e c7 ff c1 bc
       -0.039174777 0.05886428 0.21386577 -0.023681534
0003c0 d4 75 bc bd 2a a4 ee bc 90 d6 1f be ed 42 83 3d
       -0.092021614 -0.029131014 -0.15609193 0.064092495
0003d0 0c 75 77 3e 16 1d f6 bd 54 5c 8a bb 52 88 91 3d
       0.24165744 -0.120172665 -0.004222432 0.07106079
0003e0 88 e4 e1 3d 53 8e 65 3e 43 55 18 be 5a 67 16 be
       0.11029917 0.22417574 -0.14876275 -0.14687863
0003f0 c0 d3 1c bc 44 1f 70 be 28 1a 10 be ea be 22 3d
       -0.0095719695 -0.23449427 -0.14072478 0.03973285

lstm_p.bias_ih_l0 f4 [64]
000000 ca ae 2a 3c e8 ac 47 be 88 85 ec bd 89 f8 d1 bd
       0.0104176495 -0.19499552 -0.115489066 -0.102524824
000010 ab 76 1c 3e 67 14 3f bd e9 d7 dd 3c ee fc 84 be
       0.15279643 -0.046650317 0.027080493 -0.2597422
000020 42 11 42 3e 51 3f 8f be 03 2f 07 3e ae 50 06 3d
       0.18951896 -0.27977994 0.13201527 0.032791786
000030 d0 19 28 3e a6 aa 34 be 61 d0 1b 3e 5c ec cc 3d
       0.16416097 -0.17643222 0.15216209 0.100060195
000040 9b 2f 01 be 92 eb 53 3e 71 d1 6e bd 7d 25 3e be
       -0.12615816 0.20695332 -0.058305208 -0.18568988
000050 f9 11 59 be b0 85 4e 3e 97 b5 af 3d bd 75 82 bd
       -0.21198262 0.20168185 0.085795574 -0.06370113
000060 6e f4 97 3b 96 27 19 3e 0b c5 3a bb 0f c6 d5 ba
       0.0046372926 0.14956507 -0.0028498794 -0.0016309636
000070 31 77 49 be d6 23 55 be 3b d8 69 be c7 d4 c9 3d
       -0.19674374 -0.20814452 -0.22836392 0.09855037
000080 7f 09 b5 bd 01 45 0c be 72 94 5c 3e b5 6a 88 3e
       -0.08839702 -0.13698198 0.21541002 0.2664391
000090 ac 77 ba bc 1c c9 a3 bd de 03 79 be 17 e9 1a be
       -0.022762142 -0.07997343 -0.24317881 -0.15127979
0000a0 49 5c 02 3e 34 b3 09 be e8 68 5d be fd ca f3 bd
       0.12730516 -0.13447267 -0.2162205 -0.11903951
0000b0 34 af bc bd 3d 22 4e 3e 68 6f 4a 3e 61 02 92 bd
       -0.09213105 0.20130248 0.1976906 -0.0712936
0000c0 64 f0 6c 3e 01 f5 60 3e de c9 44 3e cb e5 62 3e
       0.23138577 0.21968462 0.19217631 0.22157972
0000d0 c4 92 7a be b7 3a a0 3d a1 07 38 be 20 ad 9b bd
       -0.24470049 0.07823699 -0.1797166 -0.0760138
0000e0 28 b1 80 3d 79 b3 49 3d f8 8f d7 bb 0d 0e 9d 3c
       0.0628379 0.049243424 -0.0065784417 0.019171739
0000f0 77 22 5b be 35 18 16 3e 34 31 a5 bd da f7 39 be
       -0.21399866 0.14657672 -0.080660254 -0.18160954

lstm_p.bias_hh_l0 f4 [64]
000000 f5 d3 59 be f6 cf df bb dc 3c d3 bc c1 3a 92 3d
       -0.21272261 -0.006830211 -0.025785856 0.07140113
000010 dc 54 32 bc 69 e2 89 3d 8b 4e 2b be ce 26 24 3e
       -0.01088449 0.067326374 -0.1672918 0.16030428
000020 1a 20 2f bc c1 3a 65 be 67 e1 5e 3e 16 34 df bb
       -0.010688806 -0.22385694 0.21765672 -0.006811629
000030 a5 09 a7 bd a8 ac 1b be a3 69 6d bd dd 4d 83 3c
       -0.081561364 -0.15202582 -0.05796207 0.016028339
000040 d5 28 19 3e d3 d8 6e be 84 4c 15 3e 96 ca 3e 3d
       0.14956982 -0.233249 0.1457997 0.04657992
000050 46 92 09 3e 8c 1d ba 3d 38 45 b6 3d 64 b3 11 3e
       0.13434705 0.09087667 0.08899921 0.14228588
000060 15 c8 9e bd ee e8 84 39 bc 85 77 bd 02 45 34 3c
       -0.07753006 0.00025350548 -0.060430273 0.011002781
000070 cd 06 35 be 0d 53 7a 3d eb 98 fd 3c 0d cc cc bc
       -0.17678376 0.06111436 0.030956706 -0.024999643
000080 45 fa 66 be c0 4c 21 3e 78 9e 3e be 14 49 c4 3d
       -0.22556408 0.15751934 -0.18615139 0.09584251
000090 dd 05 3f be f3 51 26 be 6e c2 9d bc a5 7b cd bd
       -0.1865458 -0.16242199 -0.01925775 -0.10033349
0000a0 04 84 ee bd 50 97 0b be 46 6e 2c 3e d8 2b a1 bb
       -0.11646274 -0.1363194 0.16838941 -0.0049185567
0000b0 86 ed 64 3d 43 49 24 3d 34 31 2a be 26 8f e6 3d
       0.055890583 0.04010893 -0.16620332 0.11257772
0000c0 c9 80 ba bd fd 6a 1b 3e ed e1 0b be b0 c6 85 be
       -0.09106595 0.15177532 -0.13660403 -0.2612815
0000d0 e8 5c 9e 3d 4a 01 35 bd f5 f8 04 be 99 f6 2d 3e
       0.07732564 -0.044190682 -0.12985595 0.16988601
0000e0 eb 14 71 3e 1b 15 8a be ad ce 67 3e 01 e8 c8 3d
       0.23543136 -0.26969227 0.22637434 0.09809876
0000f0 f5 88 13 be d5 ee fa bd 17 71 bf 3d 7f c1 a4 bd
       -0.14407714 -0.12252585 0.09347742 -0.08044719

lstm_p.weight_ih_l1 f4 [64, 16]
000000 75 97 2d 3d 79 3a c0 3d fa 02 45 3e 81 02 b1 3d
       0.04238077 0.09386153 0.19239417 0.08643056
000010 0e 3a 34 be 11 a7 42 3e c7 f6 5c 3e fd 6c 85 3e
       -0.17600271 0.19009043 0.21578513 0.26059714
000020 c7 1f 89 3e a0 28 68 bd 2c 00 00 bd e1 28 1c 3e
       0.26782057 -0.056679368 -0.031250164 0.15249969
000030 7b 85 0d 3d 41 3c 80 3e 09 f5 dd 3c 09 38 5d be
       0.034551125 0.2504597 0.02709438 -0.21603407
000040 c3 4a e2 bc b9 db 08 3e d2 a9 07 3e 46 32 8b 3e
       -0.02762354 0.13365068 0.13248375 0.27186793
000050 c1 7a e9 bd cc 40 4a bd 2d 58 83 3d 97 0b c2 bc
       -0.114003666 -0.0493782 0.064133026 -0.023687167
000060 f0 90 64 3e 63 27 63 bd f4 87 37 3e 3b eb 41 3e
       0.22320914 -0.055457484 0.17922956 0.1893739
000070 29 51 d0 3c 14 c4 25 bd ef a8 0d be ae 1b 2d be
       0.025429325 -0.040470198 -0.13833974 -0.1690509
000080 61 4c e9 bd 7d 93 58 be e6 19 70 3e 88 fe 30 3e
       -0.11391521 -0.21150012 0.2344738 0.17284596
000090 c0 18 1e be 90 5a 68 3e 31 68 71 bd 3d 7e 7d 3c
       -0.15439129 0.22690797 -0.058937255 0.015471992
0000a0 39 22 35 3e 7e 5c 71 3e 7a bd 31 3e b8 8d 59 bd
       0.17688836 0.23570439 0.17357436 -0.05311367
0000b0 5c 8d 88 be 78 77 21 bd 25 ae 85 bb 61 da be 3d
       -0.2667035 -0.039420575 -0.0040795975 0.09318996
0000c0 48 9b 55 3e cc de 83 be ed 29 42 3e e7 2c 14 3e
       0.20860016 -0.25755918 0.18961306 0.14470254
0000d0 35 d5 e8 3c 16 32 74 3e f2 d3 95 3e a4 3d c5 bd
       0.028421978 0.23847231 0.29263264 -0.09630898
0000e0 c5 2e 03 bd 68 44 f9 bd f5 c1 83 3e 9a 1d 27 3e
       -0.032027025 -0.121712506 0.25733915 0.16319886
0000f0 89 8a 24 3e d6 83 98 3d 82 09 1c 3e 82 5b cd 3d
       0.16068472 0.07447021 0.15238002 0.10027219
000100 64 60 c8 3d dc 42 1d be 43 73 53 3e 1f f3 d3 bd
       0.0978401 -0.15357536 0.20649438 -0.10349106
000110 89 34 47 3e c3 81 00 3d eb 6b b6 bd 52 c6 c5 bd
       0.19453634 0.03137375 -0.089073025 -0.09656967
000120 62 ae ac 3e 97 4c a4 3e d3 17 45 be a5 ce 1a bd
       0.33726794 0.32089683 -0.1924737 -0.037794728
000130 07 92 6b 3e ec 88 25 be dd 81 9b 3c 77 c9 98 bc
       0.23004924 -0.16165513 0.018982822 -0.018650753
000140 23 ce 44 3e 55 c2 17 be 92 1c 32 3a 6e a5 2a 3d
       0.1921926 -0.14820226 0.00067944184 0.041661672
000150 9d 1e af 3d 1e 50 19 bc fa a8 2e 3e 86 7a b3 bd
       0.08550761 -0.00935748 0.17056647 -0.08763604
000160 ff c3 a0 bd e7 24 68 3e 1b b0 94 bc aa 31 a3 bb
       -0.07849883 0.22670327 -0.01815038 -0.0049802857
000170 33 0e 01 3e eb f0 b4 3d 78 76 47 bc 58 95 50 3d
       0.12603073 0.08835014 -0.012174241 0.050923675
000180 4b eb 0e 3e 11 59 48 be 90 92 8b 3e 71 70 3c 3e
       0.13956945 -0.19565226 0.27260256 0.18402268
000190 c5 c0 2c be d5 83 1a be 75 c6 0c 3e 52 99 e6 3d
       -0.1687041 -0.15089352 0.1374758 0.11259712
0001a0 d8 af 4d 3e 43 81 25 3e a7 97 01 be a7 46 96 bc
       0.2008661 0.1616259 -0.12655507 -0.018344237
0001b0 88 9a 7c be 6b fc 17 be 32 5b 5d 3e bb 0c 86 be
       -0.24668324 -0.14842384 0.2161682 -0.26181588
0001c0 42 bc eb 3d 58 a1 0b 3e cb 44 4f 3e 35 1b a3 be
       0.11510517 0.13635767 0.20241086 -0.31856695
0001d0 a8 05 31 3e c1 f6 a0 3d a6 35 84 3e f9 8d 73 3e
       0.17287314 0.078595646 0.2582218 0.23784627
0001e0 89 1c 07 3e de af dd 3d 58 ad 44 bd 59 25 74 be
       0.13194479 0.1082456 -0.048016876 -0.23842372
0001f0 d6 d9 cd 3d 42 09 0d be 91 aa da 3d 68 9b 42 be
       0.100513145 -0.13773063 0.10677064 -0.19004595
000200 6d 15 64 3c 39 23 ee 3d 0f 90 90 3d 0d d4 b3 bb
       0.013921124 0.11627812 0.07058727 -0.005487925
000210 5b d2 0d 3e b1 8d fa 3d e9 1c 7d be c4 a1 fc 3c
       0.13849775 0.12234057 -0.2471806 0.030838855
000220 0f f3 21 3e 22 41 83 3e 3e c6 41 3e 2b 1b 99 3d
       0.15815376 0.2563563 0.1892328 0.07475885
000230 ba 97 1a 3e c0 ae 40 3e 55 bd 18 bc 12 08 a0 bc
       0.15096942 0.18816662 -0.009322484 -0.019535098
000240 b5 78 7c bd 73 31 28 be cc a7 84 3e fa 78 19 3e
       -0.061638553 -0.16425113 0.2590927 0.14987555
000250 d2 1c 81 3e 5d a3 ce 3d 88 91 5e be 92 22 1a 3d
       0.252173 0.10089753 -0.21735203 0.037630625
000260 9b e1 80 3d 9a be 36 3d 59 c7 52 be c7 cd 48 b9
       0.06293031 0.044615366 -0.20583858 -0.00019150144
000270 9b 87 8d bd 47 25 41 be 0f ab 2e be 5b 10 2f 3e
       -0.0691063 -0.18861876 -0.17057441 0.17096083
000280 c3 8f 2e be db ca d5 3d df de 93 bd dc cf 84 be
       -0.17047028 0.10439082 -0.07220244 -0.25939834
000290 6d 9d 3a be 2e 5a b6 3c 07 a7 c4 bd ac f6 b0 3c
       -0.18224116 0.022259798 -0.096021704 0.021601997
0002a0 4c ab 39 3e 87 39 80 bd f9 b6 05 3e 05 1f 55 bd
       0.18131751 -0.062609725 0.1305808 -0.052031536
0002b0 a1 84 5b 3e 26 30 09 bd 49 e7 9a bd 89 50 15 bd
       0.21437313 -0.033493184 -0.075636454 -0.036453757
0002c0 70 b5 ed bc 88 1b 58 be 9a 29 8d bc 83 1f 88 bc
       -0.02901718 -0.21104252 -0.017231751 -0.016616588
0002d0 ac 58 a4 3e fb ba d7 bd 4c 22 08 3e f9 e1 55 3e
       0.320989 -0.105337106 0.13294333 0.20886983
0002e0 f0 b4 a4 3e fb a1 84 3e 39 eb 8d 3e ba 7e 06 be
       0.32169294 0.2590483 0.27718523 -0.1313428
0002f0 6f 32 fb 3d bf 80 64 be 66 28 f2 3d b4 15 8b bc
       0.12265479 -0.22314738 0.11824112 -0.016978122
000300 ef 84 e9 3d a9 78 8d bb 08 d7 c8 bc 33 4e 3d be
       0.11402308 -0.0043173623 -0.024516597 -0.18486862
000310 4a 1e 84 3e 98 be 14 be 4d 95 ca bd d6 1b 8a 3e
       0.2580436 -0.14525831 -0.09891758 0.26974362
000320 90 21 a8 bd 8c 4c 03 be d4 2a 20 be 05 22 18 be
       -0.082095265 -0.12822169 -0.15641338 -0.14856727
000330 f1 ef 19 3e ca bd 80 be 46 47 7b be cb d4 3b 3e
       0.15032937 -0.25144798 -0.24538907 0.18342893
000340 ce 7f 6c be 9b ed 5b be ea e9 51 3d e0 96 77 be
       -0.23095629 -0.21477358 0.05124847 -0.24178648
000350 90 88 5b 3e d2 c8 d9 3d d9 2d 64 3e 7c f5 01 be
       0.21438813 0.106340066 0.22283114 -0.12691301
000360 2b e1 06 be 93 5b aa bd 2d c1 16 3e 61 41 20 3e
       -0.13171832 -0.08318248 0.14722128 0.1564994
000370 53 12 23 be c1 0a 90 3d 69 9d 02 3e a9 c8 8b 3e
       -0.15924959 0.07033301 0.1275536 0.2730153
000380 93 d6 79 3e 63 87 65 3e 17 b8 26 be 3c 08 07 3e
       0.2439826 0.22414927 -0.16281162 0.13186735
000390 b3 55 4d be 6b 4b 8d 3e 3b 3f 6c 3d e4 c0 33 be
       -0.20052223 0.27596602 0.05767749 -0.1755405
0003a0 8c 6c e0 3d 39 16 a2 3e c7 ba 2a 3e f1 b0 11 3e
       0.10958204 0.3165758 0.16672812 0.14227654
0003b0 ab e5 22 3d 1e d9 27 be 96 0e 1a 3b 9a 54 ae 3d
       0.03976981 -0.16391417 0.002350723 0.0851223
0003c0 e3 a5 8a 3e 90 1e 24 3e 60 62 6f 3c be c6 da 3a
       0.27079687 0.16027284 0.014610857 0.001669131
0003d0 9f d6 ab 3d 33 c5 d2 3d 01 0c 37 3c 88 03 36 be
       0.08390545 0.10291519 0.011172296 -0.17774785
0003e0 a3 98 fd 3a 39 d6 b8 3d 7d 3b 6e 3e 2c d8 2f 3e
       0.0019347857 0.09025235 0.2326488 0.17172307
0003f0 1d f2 af bc ba f3 b1 bb 1a c9 94 3e 71 64 63 bc
       -0.021477753 -0.005430666 0.29059678 -0.013878928

lstm_p.weight_hh_l1 f4 [64, 16]
000000 4c 03 4d 3e 89 da 26 be 51 2c 87 3e 94 53 06 be
       0.20020789 -0.16294302 0.26400998 -0.1311782
000010 27 ed aa bd 03 8f 63 be d2 11 09 3e cc 85 62 3e
       -0.083460145 -0.22222523 0.13385704 0.22121352
000020 c8 24 ca bd 4d 76 12 3e 1e df 33 bc 8f 9b 65 3e
       -0.09870297 0.1430294 -0.010978488 0.22422622
000030 cf 6c ff bd e9 97 6c bb 5c a5 17 3e 79 c2 45 be
       -0.124719255 -0.0036101288 0.14809173 -0.19312467
000040 ff 6c b6 3d 16 e1 90 be d2 04 67 3e 1d 4b 88 3d
       0.08907508 -0.28296727 0.22560433 0.06654952
000050 92 c5 16 3d 83 51 8b be 8f bd 95 3e 69 09 54 3e
       0.03680951 -0.27210626 0.29246184 0.20706715
000060 6e 08 50 3e 22 79 78 be 82 81 82 3e 32 13 15 3c
       0.20315716 -0.24264959 0.25489432 0.009098815
000070 56 7a 3c 3e be 4d 98 be b8 d1 10 be e7 0f 41 3d
       0.18406042 -0.29746813 -0.14142501 0.047134306
000080 74 53 07 3e 83 92 82 be 53 ac 29 3e 12 cd e5 3d
       0.13215429 -0.25502405 0.16569643 0.11220755
000090 29 f2 91 be fb 58 44 3e 71 de 82 ba a0 19 cd 3d
       -0.28505066 0.19174568 -0.0009984506 0.10014653
0000a0 f9 f3 44 be e5 ed 25 be 97 bd 4d bd 72 db e4 bd
       -0.19233693 -0.16204031 -0.050229635 -0.11174668
0000b0 3c d6 69 3d 51 33 bc bd 68 98 80 be d9 34 7c 3e
       0.057089075 -0.09189475 -0.25116277 0.24629535
0000c0 ac f8 c0 bc 7e 76 7d be 3c e8 86 3e 99 f8 1a 3e
       -0.023556076 -0.24752232 0.26349056 0.15133895
0000d0 4c ec 87 bc 5a da ec 3d 46 68 61 be 5b 83 08 be
       -0.016592167 0.11565085 -0.22012433 -0.13331358
0000e0 47 53 8f be 77 4e 37 be d8 93 39 3e b9 e1 45 3e
       -0.27993223 -0.17901026 0.18122804 0.19324388
0000f0 f4 73 92 3e 24 0a 9a bd 9f 13 7f 3d 62 6e 2b 3d
       0.2860409 -0.075214654 0.06227457 0.041853316
000100 23 76 3e 3e fb 49 89 be 51 07 e4 bc 38 6d ab bd
       0.18599753 -0.26814255 -0.02783552 -0.08370441
000110 be 61 38 be a5 c8 1b 3d a2 f0 4d be a8 cd 9b 3c
       -0.18006036 0.038033146 -0.20111325 0.019018963
000120 cc 64 32 be 4e dc c3 bd 11 c5 97 3e 5b 0e 41 be
       -0.17421263 -0.09563504 0.29642537 -0.18853132
000130 37 e8 82 bc 68 46 48 3c 1a cd 36 3a 0f 68 5a 3d
       -0.01597987 0.012223817 0.00069733115 0.053321894
000140 04 e8 35 3e 95 c6 98 3c e6 93 86 ba 24 e4 38 3e
       0.17764288 0.018649379 -0.0010267466 0.18055779
000150 18 ba 75 be ca 71 1c 3e 1d aa aa bd be 5c 54 3e
       -0.2399677 0.15277782 -0.08333228 0.20738503
000160 33 fe c4 bd 4b 4c 7d be d8 39 1e 3d 5e 2c 3f 3e
       -0.09618797 -0.24736135 0.038629383 0.18669268
000170 4d 38 94 3d 33 99 8e be 77 e7 48 3e c5 11 8e 3e
       0.07237301 -0.27851257 0.19619547 0.27747932
000180 31 ae 25 3e 9d f4 5f be 77 30 e9 bd bc 63 ae be
       0.1617973 -0.21870656 -0.11386197 -0.34060466
000190 49 2e 16 3c bf 94 d9 bc 2b fa 8d be e7 ea c4 3d
       0.009166309 -0.026560185 -0.27729926 0.096151166
0001a0 93 91 f7 bc f1 b1 c9 3d 19 63 83 3e 77 f9 8b 3c
       -0.030220782 0.09848393 0.25661543 0.017086728
0001b0 34 fa 9d 3d 1f 3b 14 3e 06 6e 23 3b 1c e5 b7 3c
       0.07713738 0.14475678 0.0024937405 0.022448115
0001c0 94 39 08 be 6b dd 98 3d 3f bd 21 be be 87 ac 3d
       -0.13303214 0.07464107 -0.15794848 0.08424328
0001d0 55 f1 0c be 01 9f eb 3c d0 84 d1 bd 69 29 17 be
       -0.13763936 0.028762342 -0.1023041 -0.1476189
0001e0 84 8a 4e 3e 35 6b 41 3e 2f 98 39 3e e8 8c 2d 3e
       0.20170027 0.18888552 0.1812446 0.16948283
0001f0 29 bb 18 3c e1 5f 1c be 32 41 09 3d 0b 5d 13 be
       0.009321966 -0.1527095 0.03350944 -0.14390962
000200 d7 51 29 be 6c 5b 2a bc fd fe 4d bd 1f b8 4f 3e
       -0.16535126 -0.010397773 -0.050292004 0.2028508
000210 7a cc 1d 3e 3b bf 52 3e 9b 9e 18 3e 1b 10 46 3e
       0.15410033 0.20580761 0.14904253 0.19342081
000220 a6 e6 32 be b4 67 17 3e ad 21 73 3e 46 7f 11 3d
       -0.17470798 0.14785653 0.23743315 0.035521768
000230 bb f6 06 3e 1f 1f 84 be 4a 99 ad bc e3 bb 82 3e
       0.13180058 -0.25804994 -0.021191258 0.2553397
000240 9c 49 14 be 92 41 16 3e 91 60 c1 bd d4 db 4f be
       -0.14481205 0.1467345 -0.09442247 -0.20298702
000250 11 27 f7 3d 7b dc b7 3d 09 c7 06 3e 60 1d 8a bd
       0.12067998 0.089776 0.13161863 -0.06743884
000260 6e 10 fd 3d 68 e2 12 be 38 56 33 3e 64 99 3f 3e
       0.12356649 -0.1434418 0.17513359 0.18710858
000270 da 4f 9c bd 80 79 1d 3e 38 6a 04 3e 46 5b e7 3d
       -0.07632418 0.1537838 0.12931144 0.11296706
000280 89 c6 b0 bd 45 df 10 bd 20 36 2b 3e 58 a5 b9 3d
       -0.086316176 -0.035369176 0.16719866 0.0906474
000290 f2 cb f3 3c e9 b5 ad bd 4f b5 c0 bc ca 85 86 3e
       0.029760335 -0.08481962 -0.023523955 0.26273948
0002a0 6e 57 48 3e c7 3b 2a be c0 60 83 3e 4c de 11 3e
       0.19564602 -0.16624366 0.25659752 0.14244956
0002b0 5b 47 85 3e d8 ca 0b bd cc 99 e9 3d 6f aa 49 bd
       0.26031002 -0.034128994 0.114062876 -0.049234804
0002c0 36 6a 74 be 0a bb 17 be 1d bf 6a bd 3b ad 39 bc
       -0.23868641 -0.14817443 -0.057311166 -0.011332805
0002d0 a7 bd 53 3c 3e 2d 8c be d0 b0 1d be ac 06 9d 3d
       0.012923635 -0.27378267 -0.1539948 0.07667288
0002e0 e6 bc 59 be 10 29 76 be 5b 9b 1c be 11 b9 49 3d
       -0.21263465 -0.24039102 -0.15293638 0.04924876
0002f0 a9 01 5e 3e f1 eb a3 be 78 34 54 3e 71 74 d8 bd
       0.21680321 -0.32015947 0.2072314 -0.105690844
000300 85 c4 f2 bd f7 86 23 be 4d 35 34 bd b3 fb 2c be
       -0.118538894 -0.15969454 -0.043996144 -0.1689289
000310 03 68 92 3d 34 1c 02 3d 0c fd 45 be 21 74 4a 3e
       0.07148745 0.031765178 -0.19334811 0.19770862
000320 ab 24 dc bd b9 91 ba bd da 65 d2 3d d3 02 c0 3d
       -0.10749181 -0.09109826 0.10273333 0.09375539
000330 f4 1a 5d 3e cf 00 b8 3d b0 b1 b2 3d 85 35 13 bc
       0.21592313 0.08984529 0.087252975 -0.008984928
000340 ca 32 69 be f2 4e 21 3e c4 4c 3a 3d f6 8a 20 3e
       -0.2277328 0.15752771 0.045483366 0.1567801
000350 fa ef b9 3d 80 58 10 3e 61 7e 1b be e2 a9 1f 3e
       0.09078975 0.1409626 -0.15184928 0.15592149
000360 70 d1 39 3e 7a 44 88 be 9b eb 58 3e f1 d3 45 be
       0.181463 -0.26614743 0.21183626 -0.1931913
000370 1f e2 da bd 11 f5 96 be 89 32 85 be cc f8 02 be
       -0.106876604 -0.29483846 -0.26015118 -0.12790221
000380 3c 86 5f be a9 f8 18 bd 80 e7 c3 bc 5d 84 65 bd
       -0.2182855 -0.037346516 -0.023914099 -0.056034435
000390 55 59 0e 3e 65 2b 28 3e f1 14 44 be 5e 3b 7b 3e
       0.13901265 0.16422804 -0.19148614 0.24534366
0003a0 a1 4a 82 bd 95 7f 12 be 67 15 9d 3e cd 1a 88 be
       -0.063618906 -0.14306481 0.3068039 -0.26582947
0003b0 34 22 bb bd 4d 8b 8c 3d c7 05 d7 3d f9 d0 22 3e
       -0.09137383 0.06862507 0.10499149 0.15900029
0003c0 34 f9 81 be 08 08 48 be 5e 0f 9e bd f9 28 03 3e
       -0.2538544 -0.19534314 -0.07717775 0.12808599
0003d0 03 1e 9d 3d c1 a7 8b bd 53 87 43 3e 69 bb 7c 3d
       0.0767174 -0.06819106 0.19094591 0.061702166
0003e0 f2 f2 93 be a0 27 f5 bd 23 c9 26 3e c8 eb d0 bd
       -0.2889629 -0.119704485 0.16287665 -0.10201222
0003f0 4d 67 12 3e bd d4 55 3d a6 e3 ae bd ef 87 1a be
       0.14297219 0.052204836 -0.08539514 -0.15090917

lstm_p.bias_ih_l1 f4 [64]
000000 be 84 a2 bd d1 9d b3 bc 92 75 0c 3d 58 4d 96 be
       -0.07935475 -0.021925839 0.03429181 -0.29355884
000010 28 d2 aa be fe d7 9e 3c 3d 8c 69 be 5b 52 2d 3e
       -0.33363461 0.019390102 -0.22807403 0.16925947
000020 d6 eb 28 3c 2a 99 92 3c 00 bb 7c be 3c 15 99 bb
       0.010310134 0.0178953 -0.2468071 -0.004671721
000030 a3 f8 91 bd c7 27 ab bd 98 34 8b be 6f ab 91 be
       -0.07127502 -0.08357196 -0.27188563 -0.28451106
000040 92 0a 25 3e be e6 41 be 1d fc 36 3d f1 78 76 be
       0.16117314 -0.18935677 0.044674028 -0.24069573
000050 75 2e 8e be 52 88 95 3d e3 e2 ef bc 78 3d 0d be
       -0.2776982 0.07301392 -0.029282993 -0.1379298
000060 e1 54 6e 3d 0c bb 41 be fa 78 35 be 7d c2 80 bd
       0.058186416 -0.18919009 -0.1772193 -0.06287096
000070 dc 61 47 bc 69 9c 79 be 46 38 62 be 3d 6e 31 be
       -0.012169328 -0.24376072 -0.22091779 -0.17327209
000080 d4 d3 85 bd 15 0d fd 3d 55 75 5c be 1e ed ea 3d
       -0.06534544 0.12356011 -0.21529134 0.11471008
000090 4f c1 fa 3c 9e a7 53 bd 2a 11 ee bd 59 10 40 be
       0.030609755 -0.051673524 -0.116243675 -0.18756236
0000a0 70 f3 f8 bd 63 57 b2 3d 46 cb 45 be cf 08 03 3e
       -0.12155807 0.08708074 -0.19315824 0.12796329
0000b0 3f 2e 00 be 0c b5 23 3e 3a cf 73 be de d3 57 be
       -0.12517641 0.15987033 -0.2380952 -0.21076915
0000c0 13 62 d1 bd bd c2 1e 3e 8c e5 ec 3d d2 0f 53 be
       -0.10223784 0.15503974 0.1156722 -0.20611504
0000d0 1f ba 9a bc 1b 25 2e be e2 88 01 3e 28 fb 5d 3e
       -0.018887578 -0.17006342 0.12649873 0.2167784
0000e0 15 ed 3f bd 83 e4 03 3e ce 72 c4 bd f0 8b 58 bb
       -0.04685696 0.12880139 -0.0959221 -0.0033042394
0000f0 8b 7b c7 3d 55 86 92 3d 28 1a 40 3b af d2 49 3e
       0.09740361 0.07154528 0.0029312465 0.19709276

lstm_p.bias_hh_l1 f4 [64]
000000 19 08 85 3d cb 08 0a 3e 32 1e f2 3d 91 eb 2e bd
       0.06495685 0.13479917 0.118221655 -0.042705122
000010 a5 b6 0e be be fe 14 3e d0 2c fe 3d 9f 0b 47 3e
       -0.13936861 0.14550301 0.12410891 0.19438027
000020 d9 54 52 3c 06 46 cd 3d c3 7c 19 be 32 b4 7d be
       0.012837612 0.100231215 -0.14988999 -0.2477577
000030 c2 6e 3a 3b 30 04 7e be 44 42 4d be e4 5b dc 3d
       0.0028447364 -0.24806285 -0.2004481 0.10759714
000040 2b 39 09 be 4c 8c 48 be 94 6a 67 be a4 df c1 3d
       -0.13400714 -0.19584769 -0.2259925 0.09466484
000050 33 7b a2 3d b3 67 0f 3e bc 98 0e be d2 d0 13 be
       0.07933655 0.14004402 -0.13925451 -0.14435127
000060 c7 c4 32 3e 44 b1 4b be fa 82 4b 3e fc 76 23 bd
       0.17457877 -0.1989184 0.19874182 -0.039908394
000070 0a 5f 0f be 88 1e 6c 3d f2 89 5b be df f2 5d bc
       -0.14001098 0.057646304 -0.2143934 -0.0135466745
000080 48 bb 50 3e 20 69 7e bd 9e f7 94 3d d5 86 dd 3d
       0.20383942 -0.062111974 0.07273792 0.10816733
000090 f1 aa 79 bd 8b a6 00 3e 41 f5 4e 3e 56 1e 4a 3d
       -0.060954038 0.12563531 0.20210744 0.049345337
0000a0 ef cb 1a 3e e6 2a 30 3e 5a c5 32 be 2d 72 bf 3c
       0.15116857 0.17203864 -0.17458096 0.023369873
0000b0 eb ce 15 3d c8 8d a1 bd d0 91 3a 3e fd 3f 48 3d
       0.036574285 -0.07888371 0.18219686 0.04888915
0000c0 63 6a 96 bc 2d d0 8f 3d bb 57 88 3d fa 87 20 bd
       -0.018361276 0.07022128 0.06657358 -0.039192177
0000d0 c1 c6 a6 3c 88 73 86 bd d2 6d 97 be 1d 13 a7 3d
       0.020358445 -0.065650046 -0.29575974 0.081579424
0000e0 87 dc c6 bd 36 59 22 be 92 22 20 be 37 04 fa 3c
       -0.09710031 -0.15854344 -0.15638188 0.030519588
0000f0 44 97 6c 3d 55 96 7b be 4b af 7a be 6d 50 99 bd
       0.057761446 -0.24569066 -0.24480931 -0.07486043

attention_p.attn_1.weight f4 [16, 16]
000000 1c eb 75 be 28 c4 73 3e 7a 3e 4a 3e 84 5c 9c be
       -0.24015468 0.23805296 0.19750395 -0.30539334
000010 b1 45 b5 3d ac af f8 bb 1c f1 6b bd bf 68 00 bf
       0.08851183 -0.007589301 -0.057602987 -0.5015983
000020 2a 6f 76 be 0b 31 bd bc 9f 99 2e bb 72 f9 d5 3e
       -0.24065843 -0.023094675 -0.0026641858 0.41791874
000030 a4 e4 91 3e cf c9 41 3e 8c 07 9d bd f4 60 f1 be
       0.2849475 0.1892464 -0.07667455 -0.47144282
000040 34 d6 92 be fc da c4 3e 3e eb 09 3e a2 af 9c be
       -0.2867905 0.38448322 0.13468644 -0.30602747
000050 f8 b5 2f be 26 7c 39 be 97 68 73 be 74 aa 10 3e
       -0.1715926 -0.18113765 -0.23770367 0.14127523
000060 7f bd cd bd 25 0d d3 3e 7b 96 82 3e 36 9b d2 bd
       -0.10045909 0.41220966 0.25505432 -0.102835104
000070 ab 7a 34 be 48 f9 f1 3e 72 26 82 3e 00 ab 2f bc
       -0.17624919 0.472605 0.25419956 -0.010721922
000080 8e 1b 9f bd 24 1a 50 be ee 95 5b bb ab 91 99 be
       -0.077689275 -0.20322472 -0.0033506113 -0.29993948
000090 bf 89 79 3d e0 45 98 3e e4 89 e6 bc 91 50 9b 3e
       0.06092238 0.2974081 -0.028141923 0.30334905
0000a0 6e d9 b2 3e b1 8b 53 3e cf f8 33 bd d7 2a f8 be
       0.3493151 0.20658757 -0.043938454 -0.48470184
0000b0 d4 02 12 be 48 37 d0 bc 50 07 97 be db 12 5a be
       -0.14258891 -0.025416985 -0.29497766 -0.21296255
0000c0 ea 0b d3 3e 0c b6 88 bd fc bc a3 be 8d 62 e0 3e
       0.41220027 -0.06675348 -0.3198012 0.43825188
0000d0 c0 cc 66 be bd 16 fe 3e d5 75 4d 3e a9 5a d9 be
       -0.22539043 0.49626723 0.2006448 -0.4245198
0000e0 78 b5 b0 3e 24 70 b6 3e 53 d7 11 be 01 d9 a7 be
       0.3451345 0.35632432 -0.14242296 -0.32782748
0000f0 43 87 2b be 2d 73 0b 3f 60 af 80 bd 22 e9 d6 bd
       -0.16750817 0.5447262 -0.0628345 -0.10493685
000100 08 dc ab 3e 02 28 8f be b4 d7 63 be 5b 4e 4c 3e
       0.33566308 -0.2796021 -0.22250253 0.19951765
000110 f9 b7 99 be 0d 7d ae 3e 74 2d 46 3e 1a 00 90 3d
       -0.30023172 0.3407978 0.19353276 0.07031269
000120 3c 95 c4 bd bd 22 8a be ad 49 22 3d cf bd e3 3e
       -0.09598777 -0.26979628 0.039621044 0.4448075
000130 6d 45 97 3d 84 8c 54 be 73 81 d0 3e 72 d4 8f be
       0.07386289 -0.20756727 0.40723762 -0.2809177
000140 c8 6e e2 be c1 33 09 bd 8b 62 a7 3e c5 c9 93 3e
       -0.44225144 -0.033496622 0.3269237 0.28864875
000150 dc 0a 19 be f2 95 e5 be 31 9d 30 bc 00 b9 05 bd
       -0.14945549 -0.44840962 -0.010779665 -0.032647133
000160 c0 cd a7 bd cc 2f c5 bb 65 13 61 3e 09 fa b0 be
       -0.081935406 -0.0060176607 0.21980055 -0.34565762
000170 85 44 2e 3e d4 ea 29 bc 6b d8 98 be b0 13 29 3e
       0.17018326 -0.010370929 -0.29852614 0.16511416
000180 80 01 b1 3e 17 c5 70 be cc 91 6b 3e d4 c3 68 3d
       0.34571457 -0.23512684 0.23004836 0.05682738
000190 24 78 8d 3e 81 25 32 3e f4 85 88 be 94 0a 26 bd
       0.27630723 0.17397119 -0.26664698 -0.04053743
0001a0 f9 f3 ff bd 9e b8 96 be c7 2b d8 3e e3 f3 01 be
       -0.12497706 -0.29437727 0.422209 -0.12690692
0001b0 c2 99 b5 bc 59 81 64 3e af ef 51 be ba 2a 60 be
       -0.022168044 0.22314967 -0.20501588 -0.21891299
0001c0 63 59 60 3e 8e 37 d2 3e e6 c8 ea bc 9f 21 70 be
       0.21909098 0.4105801 -0.028660249 -0.23450325
0001d0 16 8b 1c 3d 91 b5 02 3f 99 b4 93 bd 62 d2 27 3e
       0.03821858 0.510583 -0.07212181 0.16388848
0001e0 a0 19 89 3e 9b 59 03 3d d8 1f 74 bd d4 d5 20 3d
       0.26777363 0.032067876 -0.05960068 0.039266422
0001f0 a4 d6 cc be 04 11 d3 bd 02 98 96 3e da a5 ad be
       -0.40007508 -0.1030598 0.29412848 -0.33915597
000200 06 5b 6e be ee 49 a5 be c5 a3 ee 3e 53 8b 58 be
       -0.2327691 -0.32282966 0.4660932 -0.21146898
000210 91 7e 8d be e0 1d 8a 3e a4 a7 48 3e 45 be 92 be
       -0.27635625 0.26975918 0.195952 -0.2866079
000220 e2 08 ba 3e c9 29 0b 3e 91 a0 54 3e 31 f6 0c be
       0.36334902 0.13590159 0.20764376 -0.1376579
000230 25 e0 5b 3e 9c 02 8d be e1 ed 79 3e 0e 21 3b 3e
       0.21472223 -0.27541053 0.2440715 0.18274328
000240 40 cd c7 3e 9e d5 3e 3e b1 cf b9 bd 52 60 93 3e
       0.3902378 0.18636176 -0.09072817 0.28784424
000250 48 b3 17 bc e1 3f 66 3e 9a e6 5d 3d d9 95 76 3e
       -0.009259053 0.22485305 0.054174997 0.240806
000260 05 c3 7e be 1f 7b a2 3d cb bb 9c be 13 e2 d0 3e
       -0.24879082 0.0793364 -0.30612025 0.4079748
000270 3f e2 80 be ed 93 b6 3e a9 e0 7d 3e f0 da 3e be
       -0.25172612 0.35659733 0.24792732 -0.18638206
000280 d0 1f f7 bc be 31 55 3e 3f c5 86 be e4 1e a5 3e
       -0.030166537 0.20819756 -0.26322362 0.3225013
000290 51 c2 1c be 45 a3 5b be 8b f9 3b 3d 78 3b e2 3d
       -0.15308501 -0.21449001 0.04589228 0.11046499
0002a0 a4 0f c3 be fc fe db bd b8 1d c4 3e 98 8c 93 be
       -0.3809787 -0.10741994 0.38303924 -0.28818202
0002b0 49 cc be 3e 65 c6 08 bf 4c 24 a4 3e 79 5e 82 be
       0.37265232 -0.53427726 0.32058942 -0.25462702
0002c0 cf eb 82 be 27 69 d8 bd 5f 2b 61 be 5b 3d d6 bb
       -0.25570533 -0.10566931 -0.21989201 -0.006538076
0002d0 05 c6 65 be 91 55 a4 3e 80 a7 ce bd fa 32 97 3e
       -0.2243882 0.32096532 -0.10090542 0.2953108
0002e0 53 0f ee 3e 95 0d 8d be bf 8d f5 3d ac ce d8 3e
       0.46496066 -0.27549425 0.119899265 0.42345178
0002f0 97 0a 85 3d 0d 03 01 3e 6e c4 79 be 28 8d b3 3e
       0.064961605 0.1259882 -0.24391338 0.3506863
000300 f7 0d e9 3d a9 19 8a 3e bf a5 62 bd 09 68 9f 3d
       0.11379617 0.26972702 -0.05533385 0.07783515
000310 a8 f9 89 be 80 60 fe be 28 35 fc 3c 04 4f 04 3f
       -0.26948285 -0.49683 0.030787066 0.5168307
000320 6f 39 a8 bb 6f d5 06 bf 82 83 a0 3d 29 36 11 3e
       -0.0051337997 -0.52669424 0.07837583 0.14180817
000330 98 28 6d be 0a b0 97 3e 4d e7 54 3e 91 93 d3 bd
       -0.23160017 0.29626495 0.20791359 -0.103308804
000340 a3 f6 0e 3e 43 c6 53 3e aa f1 b0 3e fd e7 c2 bd
       0.13961272 0.206811 0.34559375 -0.095169045
000350 7b dd e7 bd 38 6c ff 3d 24 70 20 3e 5f a4 f3 bc
       -0.11321541 0.12471813 0.15667778 -0.029741464
000360 bb 5a c0 bc 5a 68 d2 be 1d d5 8f be 1c ab 83 3e
       -0.023480764 -0.4109524 -0.2809228 0.25716484
000370 cd d1 a4 be b2 9b c6 be cf 22 d3 be 5b 4c 4f 3e
       -0.32191315 -0.3879066 -0.41237494 0.20243971
000380 00 c4 a0 3e 4f 7a 54 3c fe 8b 9f 3e 27 9b 01 3f
       0.31399536 0.012968614 0.31161493 0.5062737
000390 13 57 d1 3c b7 aa 90 be ea ca 8c be cb ff e6 bd
       0.025554216 -0.28255245 -0.2749856 -0.112792574
0003a0 75 41 96 bd 72 a1 51 be 72 e2 56 be 08 5e 5a 3c
       -0.07336704 -0.20471743 -0.2098482 0.013328083
0003b0 94 21 c0 be 0a f5 72 be fc f2 ba 3e 67 19 26 be
       -0.37525618 -0.23726287 0.36513507 -0.16220628
0003c0 9c 62 c2 3d a1 f9 fe bd 6b 00 c2 be 8e 63 9e 3c
       0.094914645 -0.12449957 -0.37890944 0.01933458
0003d0 a1 56 a8 3e 93 21 00 3f 48 06 cf 3c a5 0f c4 be
       0.32878593 0.5005123 0.02527155 -0.38293186
0003e0 44 14 93 bd 48 02 d9 bd bc 84 2b be 65 f4 ca 3d
       -0.071816 -0.10596138 -0.16749853 0.09909896
0003f0 65 70 4f be 11 a4 49 bd d7 63 76 be 7e ea 27 be
       -0.20257719 -0.04922873 -0.24061523 -0.16398045

attention_p.attn_1.bias f4 [16]
000000 92 2d 0d bd db 3d a1 bd b5 4c 94 3d 34 9a b9 bd
       -0.034467287 -0.07873126 0.07241193 -0.09062615
000010 4e 68 1d be 87 25 c3 3b 46 b6 28 3d 56 e5 35 bd
       -0.1537182 0.0059554013 0.041189454 -0.044408165
000020 aa 16 e5 3c c1 43 91 bd 7b 68 d3 3d 5f bf a1 bd
       0.027964909 -0.07093001 0.103226624 -0.07897829
000030 d2 80 0e 3c 75 8e bb 3d f6 79 1b 3c e1 9a c6 bd
       0.008697705 0.09158031 0.009489527 -0.096975096

attention_p.attn_2.weight f4 [1, 16]
000000 23 27 11 bf 5f 43 95 be 80 15 46 3d 20 ab 7b be
       -0.5670034 -0.29152963 0.048360348 -0.24576998
000010 a4 1c e3 bd 22 39 35 3d fa 08 b9 3e 69 c7 a0 be
       -0.11089447 0.04424394 0.3613966 -0.31402138
000020 6a a1 63 3e 92 76 eb be 78 9c 9e 3e 7b 1f e5 bd
       0.22229543 -0.459889 0.3097875 -0.11187645
000030 b2 05 a9 3e 94 42 ad 3e 18 10 d3 bd 00 e4 c8 be
       0.33012158 0.33839858 -0.10305804 -0.3923645

lstm_t.weight_ih_l0 f4 [64, 7]
000000 1c 08 79 be cc b3 00 be d7 6c 74 bd 80 30 fc bd
       -0.243195 -0.12568587 -0.05967411 -0.12313938
000010 6e 6c 16 3e fd f5 83 be 9c 20 fc 3d c4 7f 68 3d
       0.146898 -0.25773612 0.12310907 0.05676247
000020 96 ea 77 3e 29 79 47 3d c5 cb 76 be 12 06 2d 3e
       0.24210581 0.04869953 -0.2410117 0.16896847
000030 03 fc f6 b9 0b f6 53 3d 30 81 93 3e 4f 1d c3 bd
       -0.0004710854 0.051748317 0.288095 -0.095270745
000040 fe e0 1a be 13 de 84 be 03 d1 b9 3d 45 59 77 bd
       -0.1512489 -0.2595068 0.09073069 -0.06038787
000050 92 39 23 bb 00 50 8c bc f0 b0 ab bd f8 f0 57 bd
       -0.002490614 -0.01712799 -0.083833575 -0.05272004
000060 b3 3d 57 bd 65 9a 44 3e 68 5d 34 be 2c 2b 52 3e
       -0.052549075 0.19199522 -0.17613757 0.20524281
000070 2b d5 5d bd 2a 38 43 3e 67 19 9a be 61 c3 5f 3d
       -0.05415837 0.19064394 -0.30097505 0.054629687
000080 14 54 f8 3c c9 b3 86 bd d9 c2 10 be 49 70 36 3e
       0.03031353 -0.0657726 -0.14136828 0.17816271
000090 67 ae 80 3d 9d 41 f6 3d d5 03 c1 3d 93 87 22 3c
       0.062832646 0.120242335 0.09424559 0.009920019
0000a0 9c 3c 59 3e 73 ce 49 3e f5 2f 86 3e 2e 05 69 be
       0.21214527 0.1970766 0.26208463 -0.22755882
0000b0 3d 06 b4 bd ae 24 ec bd 7b 5f c7 bc 04 bb 9d 39
       -0.08790252 -0.115304336 -0.02433752 0.0003008471
0000c0 1e 46 1e be 0d 18 61 3e 5f 63 29 be 8b bd cd be
       -0.15456435 0.21981831 -0.16541813 -0.40183672
0000d0 18 90 02 3e 3a d8 0e be b8 09 ea bd 54 3b 64 3e
       0.1275028 -0.13949671 -0.11427635 0.22288257
0000e0 28 a5 f9 bd b9 c0 fa 3d 86 3f b0 bd 9b 22 b4 bd
       -0.12189704 0.1224379 -0.08605866 -0.08795663
0000f0 72 af 3f 3e ac 79 5f be a2 2f 93 3d 22 c2 46 3d
       0.18719271 -0.21823758 0.071868196 0.048524983
000100 80 b2 59 be a8 04 f7 bb 89 56 ff bd 9c 94 ea 3b
       -0.21259499 -0.007538397 -0.12467677 0.007158829
000110 b9 50 3d be e1 85 54 be d3 58 2b 3d db dc d9 3c
       -0.18487824 -0.20754196 0.041832756 0.02659457
000120 d4 92 23 be 21 12 50 be 1a f8 26 be 6b 69 74 bb
       -0.15973979 -0.20319416 -0.1630558 -0.003729428
000130 ab 19 43 be 5f 00 82 3e dc 41 cb 3a ec cb f8 bd
       -0.1905276 0.25390908 0.0015507299 -0.1214827
000140 4d 60 23 3e 7c e8 09 be 6f ac 38 3d df c6 55 3e
       0.15954705 -0.13467592 0.04508632 0.20876645
000150 bd 31 4f 3e fb 98 fc bc 44 48 4e be 99 b6 18 3e
       0.20233817 -0.030834666 -0.20144755 0.14913405
000160 e0 db e0 3d ff 38 63 be 82 0d ea bb db d5 1e 3e
       0.10979438 -0.22189711 -0.0071427235 0.15511267
000170 71 f5 4d bd 3f 65 1e 3e 63 32 ed ba 32 58 7a be
       -0.0502829 0.1546831 -0.0018096681 -0.24447706
000180 c2 ca eb bd 09 8c 13 bd c4 fb 2d be d9 2a 42 be
       -0.11513282 -0.03602222 -0.16990572 -0.18961658
000190 fe 90 ea bd 58 44 ef bd 77 b5 77 be 1d 2b 01 3e
       -0.11453436 -0.116829574 -0.24190317 0.12614103
0001a0 32 25 2a 3e 2d 8a 88 be 3e c3 d9 3d ea a5 37 be
       0.16615751 -0.2666792 0.106329426 -0.17934385
0001b0 5e 6b 2e 3e b8 84 8a 3e 67 25 5a 3d 49 cb 0e be
       0.17033145 0.2705438 0.053258326 -0.13944735
0001c0 10 3e cf bd d8 44 71 be 5b 43 87 be b4 ff 0d be
       -0.10119259 -0.23561418 -0.26418576 -0.13867074
0001d0 21 16 75 be bd 68 a8 3c 5d fc 1b bd 98 1f 91 be
       -0.23934223 0.020557756 -0.03808247 -0.28344417
0001e0 68 23 d2 3c b0 1b 7d 3e 58 10 17 3e c4 31 00 3e
       0.025651649 0.24717593 0.14752328 0.12518984
0001f0 1b d8 5e 3d 07 41 61 be 3a d2 0e 3c 22 84 fd 3e
       0.054405313 -0.21997462 0.008717114 0.49514872
000200 93 2d b5 3c 39 d7 ab be a4 8c 8d bd 7c ee ab bc
       0.022116458 -0.3356264 -0.06911591 -0.020987742
000210 9d 1f d8 3d db 1a 5a bd 6a b4 1e be 04 b6 ac bd
       0.10552905 -0.053248268 -0.1549851 -0.08433154
000220 70 d5 0a 3e 60 3c 5e 3e 13 2e e0 bc a9 f5 49 be
       0.13557982 0.21702719 -0.02736572 -0.19722618
000230 7b 5d 00 3c b4 a2 a2 bc af 9d 4a 3d a1 5f 23 3d
       0.0078347875 -0.019852974 0.049466785 0.03988612
000240 01 d7 f0 3d d5 fe 14 3d b6 58 7d 3d 83 67 3f 3c
       0.11759759 0.03637584 0.06185218 0.011682394
000250 0c 0b c0 bd 0e cf d5 3d 58 4c 72 3e 79 75 fe bd
       -0.09377107 0.10439883 0.23661935 -0.1242475
000260 de b9 d0 3d 78 7f a6 3e 53 7d ad 3d 23 39 5c bd
       0.10191701 0.32519126 0.08471169 -0.053765427
000270 c5 01 84 3d dd 09 8c bc 0b 06 06 3e 39 f4 44 be
       0.0644565 -0.017094547 0.13088243 -0.19233789
000280 05 01 13 3e 80 37 ae bd bd 8a 35 3e 80 be 54 3d
       0.14355858 -0.085066795 0.17728706 0.051939487
000290 85 ae 83 be 19 fe f3 3d 8d 2f cd bd ed 95 76 3e
       -0.25719085 0.119137 -0.10018835 0.2408063
0002a0 b3 e7 84 3d 48 e0 16 be ba a2 35 3e 09 be 17 3e
       0.064895056 -0.14733994 0.17737857 0.14818586
0002b0 6c be 2d 3e ed 71 d1 3d 58 4b b3 3d e0 0e 57 be
       0.16967171 0.10226808 0.08754605 -0.21001768
0002c0 bc 8f 74 3e 08 3d e8 3d 34 e4 bb 3d 30 8e 3f 3e
       0.23882955 0.11339766 0.09174386 0.18706584
0002d0 64 20 fb 3d 30 6c 1c be b3 4e 19 bd 11 f5 79 3e
       0.122620374 -0.15275645 -0.03742857 0.24409892
0002e0 fa 32 bd bd 0d 5f 9e 3d ae af e9 bd 5d 0e 89 bd
       -0.09238239 0.07732973 -0.11410461 -0.06692193
0002f0 0b 5d 5d 3c ce f3 10 be b2 d5 08 3f 89 92 19 3e
       0.013510953 -0.14155504 0.53451073 0.14997305
000300 c2 cb 5a 3c 44 54 86 3e 43 83 54 bd a3 35 7f bd
       0.013354244 0.26236165 -0.051882993 -0.06230701
000310 a3 97 6d be 3e 4f 0c 3d 3a f4 16 3d ce 1b 1a be
       -0.23202376 0.03425526 0.036854006 -0.15049669
000320 d2 bc 7a 3e 4b 3f 18 bd f7 06 2a 3e 3b af 15 be
       0.24486092 -0.037169736 0.1660422 -0.14617626
000330 e9 21 56 3e e0 93 af 3d 2f 47 4c be ca dd 09 be
       0.20911373 0.08573127 -0.1994903 -0.13463512
000340 1d 64 4f 3e ed 66 6c 3e e8 0f 9d 3d 0e 2b 0f 3e
       0.20253034 0.23086138 0.076690495 0.13981268
000350 df cc b5 bc 4f 9b 95 be 11 7d 15 be c0 a0 86 be
       -0.022192417 -0.29220054 -0.1459849 -0.26294518
000360 ff 7d 69 3d f8 5c f8 3d 83 9b 20 3d 3b 39 37 3e
       0.057004925 0.121271074 0.039210808 0.17892925
000370 95 bf 26 bc 32 70 2e 3e 3e e6 49 bc 6c 13 90 3b
       -0.010177513 0.17034987 -0.01232296 0.0043968465
000380 ca 26 8c bd e5 7c 30 be a2 8b 41 3d d2 27 ca bd
       -0.06843336 -0.17235143 0.047252305 -0.09870876
000390 65 d1 51 3d a7 08 9f bd 92 bf b6 3c 5a f7 24 be
       0.051225085 -0.07765322 0.022308145 -0.16109982
0003a0 fe 06 32 be 0d 9e d4 3d bb ea 40 3e b5 e9 7b bc
       -0.1738548 0.10381708 0.18839543 -0.015375544
0003b0 a2 70 25 3d c2 d7 d0 3c eb b9 47 3e ef 2e 33 be
       0.04039062 0.025493506 0.19504516 -0.17498372
0003c0 9e e7 02 3e 79 6f 00 be 8f ab c7 3b 7f 9a de bd
       0.12783667 -0.12542523 0.0060934494 -0.108693115
0003d0 91 46 1c be 19 72 87 3d fe 27 77 be 9e 3f a7 3d
       -0.15261294 0.06613559 -0.2413635 0.08166431
0003e0 ee 47 46 3c 87 9a d9 3b 21 7f 80 be 25 fb 53 3e
       0.01210211 0.0066407355 -0.25096992 0.20701273
0003f0 40 32 c7 bd b0 fe 42 bd dd 57 bb 3b 2b 06 59 3e
       -0.09726381 -0.04760617 0.005717261 0.21193759
