Params/301_0.001_5_16_222_model.pt (torch, 45279 bytes, 31 tensors)

lstm_p.weight_ih_l0 f4 [64, 10]
-0.088023126 -0.093999095 -0.032841444 0.0014139116 0.23964725 -0.10634927 0.098598495 0.19658126
-0.05659829 -0.06567602 0.114618964 0.0405988 -0.0030629628 0.2423181 0.0068547274 -0.12173998
-0.0015733484 0.054713435 0.061077695 0.09550222 0.016316975 0.026069403 -0.21071516 0.16974136
-0.1607773 -0.1040816 0.069893934 -0.052229453 0.15317367 0.083295226 0.2079488 0.06374301
0.053117245 0.047887415 -0.16371396 0.031946596 0.08262792 -0.05511467 -0.13479136 -0.15217143
0.14358407 -0.16507842 0.24666743 -0.023697343 0.067644425 0.17079724 0.18682477 0.0773521
-0.19683048 0.00965335 -0.089720726 -0.19352534 -0.07553763 0.12456074 0.047358524 0.23496178
-0.12748846 0.1282126 0.20652062 -0.15520813 0.20737235 0.09624944 -0.031132309 -0.07940714
-0.15316117 0.1857625 0.06262372 -0.039601184 0.2153213 -0.14860034 -0.11916732 -0.10973857
0.23030691 -0.19295408 0.01613156 -0.01311611 -0.031574734 -0.20450626 0.12484463 -0.028620861
-0.21892129 -0.022716979 -0.18730764 0.068004616 0.11174365 -0.12123678 0.21345618 0.033819802
-0.22578162 0.015839672 0.0074122753 0.13145354 -0.21553068 0.035267096 -0.13684428 0.0395601
-0.17951447 0.029627549 -0.20942523 0.07778289 0.04383999 0.1688037 0.23465428 0.073597446
-0.09471844 -0.07658256 0.14281859 0.1358806 0.0054880567 -0.1614321 -0.13685462 0.038879883
0.09511586 0.14517355 0.1485339 0.18517601 0.00092712016 0.16143781 0.08818149 0.24747628
0.15216483 0.023226544 0.093658164 -0.072870135 -0.21263072 0.083253115 0.22635412 0.1076937
-0.00014543811 -0.22233059 -0.2058444 0.091991015 0.07240208 0.15097144 0.1364719 -0.016955297
-0.21679421 0.10243315 -0.19619614 0.05800534 0.007235807 0.14278322 0.26036236 0.021100331
0.14588669 0.0377602 0.1521445 -0.09377787 -0.2112553 -0.06868694 0.0335985 0.11235216
0.16970648 -0.008504059 0.09867709 0.008500052 0.22669666 0.0931582 0.020604538 -0.007625206
0.08549944 -0.03711036 0.24453422 0.15162037 -0.06520249 0.11497455 -0.09358104 -0.18657994
-0.20549639 -0.2090713 -0.10515932 -0.09703577 -0.057466783 0.2052152 0.044368032 0.12400087
0.052457523 0.07887972 -0.019321471 0.003146285 0.24121138 0.19949152 -0.0046681254 0.06495026
0.13686122 0.12797444 0.14600703 -0.08147367 0.10085596 0.013972567 0.085191794 -0.059833772
0.14561006 -0.16702558 0.13375695 0.062113203 0.12263794 -0.006418587 -0.12139393 -0.0087737525
0.12461715 0.05175752 -0.22779532 -0.19370021 0.23924926 -0.1495005 -0.059509028 -0.15917075
0.09646178 -0.20963846 0.16862404 -0.14612964 -0.23956317 -0.03045433 0.070460625 -0.09585144
0.11251997 -0.21006806 0.22242624 -0.20048477 0.04275247 -0.063664824 -0.10254636 0.19177887
0.18661964 0.1743347 -0.17463076 -0.20228615 -0.23881043 0.10699358 -0.017120399 -0.12426668
-0.1337039 0.12641884 -0.045546096 0.03798691 -0.20031409 0.23184739 -0.058580827 0.1121725
-0.19592588 0.19453217 0.19676127 -0.1373057 -0.098112345 -0.15514651 0.23290083 0.1399637
0.10294853 0.1068373 -0.19426279 -0.11885494 -0.1763159 -0.075725496 -0.071808375 0.14582169
00000000: 7845 b4bd 9982 c0bd c084 06bd 0053 b93a
00000010: 1766 753e a5cd d9bd 02ee c93d 994c 493e
00000020: 9cd3 67bd 2681 86bd 59bd ea3d ed4a 263d
00000030: fdbb 48bb 3c22 783e 9f9d e03b d052 f9bd
00000040: d038 ceba 321b 603d 9b2c 7a3d ab96 c33d
00000050: 2dab 853c 808f d53c b7c5 57be aed0 2d3e
00000060: cea2 24be bc28 d5bd 8d24 8f3d 8dee 55bd
00000070: 8fd9 1c3e b096 aa3d 88f0 543e b28b 823d
00000080: 7891 593d 9825 443d a2a4 27be 6fda 023d
00000090: d438 a93d ecbf 61bd bf06 0abe d4d2 1bbe
000000a0: b407 133e 510a 29be 6396 7c3e ee20 c2bc
000000b0: 2989 8a3d 79e5 2e3e fe4e 3f3e c76a 9e3d
000000c0: ee8d 49be 1629 1e3c 80bf b7bd 822b 46be
000000d0: 79b3 9abd b419 ff3d 03fb 413d d299 703e
000000e0: 568c 02be 2a4a 033e 247a 533e e1ee 1ebe
000000f0: 6b59 543e 6d1e c53d 2f09 ffbc 36a0 a2bd
00000100: 48d6 1cbe 8638 3e3e dd40 803d da34 22bd
00000110: 307d 5c3e b02a 18be ff0d f4bd 9ebe e0bd
00000120: 93d5 6b3e c195 45be 5526 843c f4e4 56bc
00000130: 8254 01bd 176a 51be 8bae ff3d 4c76 eabc
00000140: e72c 60be f518 babc 93cd 3fbe 0146 8b3d
00000150: dbd9 e43d fd4a f8bd 4294 5a3e a286 0a3d
00000160: 4c33 67be 33c2 813c ace2 f23b c29b 063e
00000170: 13b4 5cbe 3b74 103d e820 0cbe c509 223d
00000180: a4d2 37be 79b5 f23c 9173 56be a34c 9f3d
00000190: 9091 333d e1da 2c3e 3649 703e 42ba 963d
000001a0: befb c1bd 51d7 9cbd 093f 123e 4924 0b3e
000001b0: 28d5 b33b 754e 25be 9e23 0cbe 8340 1f3d
000001c0: 1bcc c23d 60a8 143e 4519 183e c89e 3d3e
000001d0: fb09 733a f44f 253e 7f98 b43d 6c6a 7d3e
000001e0: 19d1 1b3e 9845 be3c dacf bf3d f03c 95bd
000001f0: debb 59be 9c80 aa3d 60c9 673e 848e dc3d
00000200: bf80 18b9 a1aa 63be e0c8 52be c965 bc3d
00000210: 8b47 943d 4298 1a3e 4abf 0b3e d6e5 8abc
00000220: 4dff 5dbe 79c8 d13d a4e7 48be 0297 6d3d
00000230: 591a ed3b c435 123e 374e 853e 9ada ac3c
00000240: 5263 153e 71aa 1a3d c5cb 1b3e 9d0e c0bd
00000250: 4f53 58be bdab 8cbd 959e 093d e418 e63d
00000260: 89c7 2d3e 9c54 0bbc 3717 ca3d cd43 0b3c
00000270: 2b23 683e bac9 be3d d9ca a83c dddc f9bb
00000280: 551a af3d 0801 18bd 2e67 7a3e 5f42 1b3e
00000290: e288 85bd c777 eb3d 6ba7 bfbd d00e 3fbe
000002a0: a56d 52be c916 56be c55d d7bd b1ba c6bd
000002b0: 4a62 6bbd ef23 523e 41bb 353d 2bf4 fd3d
000002c0: b3dd 563d b18b a13d 1048 9ebc e731 4e3b
000002d0: 1e00 773e 8147 4c3e 13f7 98bb a404 853d
000002e0: 5925 0c3e bb0b 033e de82 153e abdb a6bd
000002f0: 928d ce3d 32ed 643c 0979 ae3d 4214 75bd
00000300: ce1a 153e c108 2bbe 95f7 083e 6a6a 7e3d
00000310: 9a29 fb3d 0353 d2bb 619d f8bd c9bf 0fbc
00000320: 4737 ff3d b1ff 533d 2d43 69be 5959 46be
00000330: c2fd 743e a916 19be bdbf 73bd a8fd 22be
00000340: c18d c53d 77ab 56be c8ab 2c3e 02a3 15be
00000350: 0c50 75be 5c7b f9bc a94d 903d c34d c4bd
00000360: df70 e63d 151c 57be b4c3 633e e14b 4dbe
00000370: 371d 2f3d b462 82bd d303 d2bd ae61 443e
00000380: 3819 3f3e cc84 323e 68d2 32be 1a24 4fbe
00000390: b98a 74be 731f db3d 1440 8cbc 877f febd
000003a0: ade9 08be f173 013e 8b8e 3abd 2a98 1b3d
000003b0: 231f 4dbe 6769 6d3e 73f2 6fbd b2ba e53d
000003c0: cba0 48be 7133 473e c97b 493e de99 0cbe
000003d0: 20ef c8bd bade 1ebe 8e7d 6e3e a552 0f3e
000003e0: aed6 d23d 84cd da3d d3ec 46be 386a f3bd
000003f0: 288c 34be f815 9bbd 4510 93bd 4852 153e

lstm_p.weight_hh_l0 f4 [64, 16]
-0.027261954 0.012613372 -0.024296576 0.25851277 0.20753215 -0.1631068 0.05047563 0.025884558
0.13598841 -0.057912767 0.1008847 0.102513984 0.030172223 0.18766667 0.07585852 0.1898007
0.17213246 -0.23135504 -0.13005655 -0.035084635 0.15271276 -0.18501052 0.15505107 0.100765206
0.05411613 0.21085793 0.014378781 -0.180535 0.115996234 -0.2263803 -0.22612049 0.08389109
0.22737482 -0.23447727 0.16981152 0.18682897 -0.16782402 -0.2104938 0.015190781 0.16171739
0.040654592 -0.1676256 -0.06656754 -0.022757286 0.24490997 -0.11230386 -0.17249988 -0.049487755
-0.1367618 -0.027157353 0.023580998 -0.10378745 0.09123066 -0.23555462 0.15753356 0.07853655
0.1207575 -0.068725355 0.06088193 0.09218156 0.024368498 -0.09235457 -0.056354307 0.17484084
0.229487 0.009460853 -0.21087325 0.010276184 -0.24516994 0.1107303 -0.06367032 0.06625673
-0.13057637 0.12549998 -0.17538582 0.16294529 0.17362706 0.20672658 0.11909396 -0.14646852
-0.01044583 0.15700044 -0.14583704 -0.18394761 0.089045405 -0.12410407 -0.22318365 0.16282395
0.16299608 -0.14997171 -0.09213534 0.042489316 -0.12719712 -0.21858399 0.078940265 0.06588498
-0.20615545 0.015823375 -0.0033469324 -0.12890387 0.20160812 0.07258257 0.2517071 -0.004398631
-0.1403498 -0.010636297 -0.22777213 0.020502865 -0.21682467 0.18997607 -0.031209257 0.15628552
0.1885154 -0.20002985 0.22654928 -0.20792532 0.22916993 -0.058486972 0.08784811 0.07467667
0.24942665 0.1931748 0.16373017 0.046346676 -0.09487946 0.012433841 0.010627144 0.16891328
-0.19130163 0.16952625 0.13984567 0.26432285 0.051567033 0.2115924 -0.18883221 -0.19337666
0.027928138 0.10277429 0.16495857 -0.2109566 -0.04564544 -0.16164804 -0.018665042 0.012526771
-0.18381251 -0.020986386 -0.16716596 -0.094576076 0.033859868 0.17444016 0.038765613 -0.1370069
-0.16339426 -0.06586485 0.037789498 -0.16439337 0.23563032 0.11583387 0.22335263 0.045212775
-0.16312043 0.16840804 -0.14770807 0.20000637 0.053779453 0.16860998 -0.24083336 -0.09914615
0.1337307 -0.14549182 0.21327119 -0.0014483443 -0.20352025 0.10771212 0.020179832 -0.09269328
-0.06114557 0.002212205 -0.081204355 0.22896823 -0.19755553 0.014101804 -0.13865189 -0.027469262
-0.120343916 0.24604101 -0.12679474 0.20723338 -0.022552945 0.000986474 -0.06477973 -0.011321558
-0.07097006 -0.10145577 -0.18425624 -0.05575615 -0.14102632 0.04605625 -0.0315832 -0.15581891
-0.24184754 -0.12605225 0.19322911 0.09642651 0.14298953 -0.06748396 0.17554803 0.1968102
-0.11945072 -0.1308316 0.13185072 0.13042182 -0.07031852 0.10837562 0.11790744 -0.10430631
-0.19063193 -0.062382564 -0.1694292 0.21888338 0.1353608 0.23905215 0.15138277 0.08472449
0.007907367 0.19524555 0.09220705 0.035686035 0.16228826 0.17718084 -0.108890384 -0.06957951
-0.06454099 -0.20518984 -0.17305532 -0.21685484 0.034019135 -0.049487494 0.102496006 0.054860175
-0.13917221 0.04641859 -0.20856844 0.09534927 0.17206682 -0.16445988 0.022764735 0.014367886
0.05581029 0.18896109 -0.15468362 -0.15343103 0.028402094 -0.19905975 -0.15292239 0.07717506
00000000: 7654 dfbc 51a8 4e3c 9d09 c7bc c95b 843e
00000010: 4f83 543e 7805 27be 89bf 4e3d da0b d43c
00000020: 8c40 0b3e f035 6dbd a39c ce3d daf2 d13d
00000030: bd2b f73c b12b 403e b65b 9b3d 1d5b 423e
00000040: 7e43 303e 56e8 6cbe 8b2d 05be e8b4 0fbd
00000050: bc60 1c3e 6673 3dbe b5c5 1e3e fd5d ce3d
00000060: e0a8 5d3d 24eb 573e fb94 6b3c 2bde 38be
00000070: 6f8f ed3d 3dd0 67be 218c 67be 17cf ab3d
00000080: f2d4 683e cf1a 70be 12e3 2d3e 1850 3f3e
00000090: 0fda 2bbe b08b 57be c1e2 783c 3e99 253e
000000a0: 6e85 263d 0ca6 2bbe 9054 88bd 7d6d babc
000000b0: aec9 7a3e 91ff e5bd cfa3 30be acb3 4abd
000000c0: 490b 0cbe 1979 debc f02c c13c 848e d4bd
000000d0: 24d7 ba3d 3b35 71be 7a50 213e c5d7 a03d
000000e0: b54f f73d e1bf 8cbd 555f 793d b0c9 bc3d
000000f0: 72a0 c73c 6524 bdbd c6d3 66bd 7a09 333e
00000100: a4fe 6a3e b201 1b3c 28ef 57be 715d 283c
00000110: d40d 7bbe 91c6 e23d 9665 82bd 9cb1 873d
00000120: d0b5 05be 1183 003e 5798 33be 21db 263e
00000130: 4bcb 313e 22b0 533e 89e7 f33d d8fb 15be
00000140: fd24 2bbc b9c4 203e 4e56 15be c35c 3cbe
00000150: 705d b63d 462a febd 418a 64be 52bb 263e
00000160: 72e8 263e 2f92 19be 74b1 bcbd 4709 2e3d
00000170: f63f 02be 7bd4 5fbe 6fab a13d b4ee 863d
00000180: 6a1a 53be 06a0 813c 3558 5bbb 60ff 03be
00000190: 5c72 4e3e 2ca6 943d c1df 803e 6422 90bb
000001a0: dcb7 0fbe dd43 2ebc 193d 69be a0f5 a73c
000001b0: 4907 5ebe 1689 423e 8eaa ffbc 5009 203e
000001c0: 2e0a 413e a0d4 4cbe 89fc 673e 60ea 54be
000001d0: 86ab 6a3e 0990 6fbd b6e9 b33d 15f0 983d
000001e0: b369 7f3e 9dcf 453e e2a8 273e 03d6 3d3d
000001f0: 2a50 c2bd 4fb7 4b3c 791d 2e3c 9af7 2c3e
00000200: 93e4 43be 4a98 2d3e b433 0f3e 5355 873e
00000210: f437 533d aeab 583e 3b5d 41be 8804 46be
00000220: 8dc9 e43c 547b d23d e6ea 283e 0205 58be
00000230: b7f6 3abd 1087 25be 6ee7 98bc 163d 4d3c
00000240: 5939 3cbe a4eb abbc 8e2d 2bbe 1ab1 c1bd
00000250: a5b0 0a3d 71a0 323e b1c8 1e3d 894b 0cbe
00000260: d350 27be 27e4 86bd 29c9 1a3d bc56 28be
00000270: 1349 713e 4f3a ed3d 8db6 643e 0831 393d
00000280: 0b09 27be 2873 2c3e c940 17be 78ce 4c3e
00000290: d847 5c3d 18a8 2c3e 059d 76be 230d cbbd
000002a0: b3f0 083e cffb 14be c363 5a3e 5fd6 bdba
000002b0: 9d67 50be 2c98 dc3d 2d50 a53c f9d5 bdbd
000002c0: c773 7abd a4fa 103b 784e a6bd a676 6a3e
000002d0: ff4b 4abe 410b 673c c3fa 0dbe 3807 e1bc
000002e0: df76 f6bd 2df2 7b3e 7bd6 01be fd34 543e
000002f0: f4c0 b8bc 934c 813a 3cab 84bd 0e7e 39bc
00000300: c058 91bd 0bc8 cfbd abad 3cbe 9060 64bd
00000310: 3469 10be 7aa5 3c3d 635d 01bd fe8e 1fbe
00000320: e2a6 77be d713 01be dadd 453e 437b c53d
00000330: d96b 123e 0835 8abd ddc2 333e 9d88 493e
00000340: 94a2 f4bd b8f8 05be e003 073e 4c8d 053e
00000350: 2803 90bd 09f4 dd3d 7579 f13d 8c9e d5bd
00000360: 0435 43be dc84 7fbd d97e 2dbe f722 603e
00000370: 069c 0a3e 16ca 743e 1604 1b3e 0984 ad3d
00000380: e78d 013c 73ee 473e 0dd7 bc3d 852b 123d
00000390: e52e 263e e56e 353e ec01 dfbd b47f 8ebd
000003a0: 112e 84bd 491d 52be 6a35 31be 320f 5ebe
000003b0: a657 0b3d 66b3 4abd 6de9 d13d 10b5 603d
000003c0: 2983 0ebe 6b21 3e3d f792 55be 7a46 c33d
000003d0: 4932 303e 2c68 28be 1c7d ba3c 4867 6b3c
000003e0: 5599 643d 047f 413e 6265 1ebe 061d 1dbe
000003f0: 82ab e83c 52d6 4bbe b097 1cbe f50d 9e3d

lstm_p.bias_ih_l0 f4 [64]
-0.0032572574 -0.20107841 -0.18789303 -0.09737611 0.146881 -0.046840243 -0.0022438047 -0.18677998
0.19117342 -0.25319982 0.105654284 0.067663826 0.23814821 -0.15288126 0.15628764 0.12979066
-0.13759398 0.20036256 -0.1631918 -0.18059982 -0.21055618 0.20528388 0.055007815 0.0052918633
0.009706457 0.17976564 -0.024829434 0.042623606 -0.12733437 -0.18119943 -0.21183884 0.13244723
-0.09039284 -0.12743683 0.17197676 0.22649968 0.0137579525 -0.077036604 -0.23494206 -0.22283682
0.124008015 -0.15492618 -0.21298555 -0.21394981 -0.06916018 0.121675715 0.1618457 -0.06392053
0.21687114 0.21277562 0.12001781 0.22504695 -0.24592331 0.0777289 -0.20853075 -0.003203368
0.06394348 0.0748105 -0.030438982 0.059264764 -0.1399512 0.17080835 -0.077456854 -0.15273713
00000000: b677 55bb 80e7 4dbe 0867 40be 206d c7bd
00000010: f967 163e 8edb 3fbd cc0c 13bb 4043 3fbe
00000020: f7c2 433e 68a3 81be 4661 d83d 5593 8a3d
00000030: 20dd 733e e88c 1cbe de09 203e d8e7 043e
00000040: 70e5 0cbe d82b 4d3e c01b 27be 29ef 38be
00000050: 0a9c 57be f035 523e e04f 613d 5e67 ad3b
00000060: d507 1f3c 7c14 383e 1967 cbbc 1796 2e3d
00000070: f163 02be 588c 39be 48ec 58be 3fa0 073e
00000080: e21f b9bd cd7e 02be ad1a 303e 88ef 673e
00000090: 0969 613c 5ec5 9dbd a794 70be 562f 64be
000000a0: eaf7 fd3d f8a4 1ebe e218 5abe a915 5bbe
000000b0: daa3 8dbd 1e31 f93d e1ba 253e c4e8 82bd
000000c0: 7813 5e3e dae1 593e e6cb f53d b572 663e
000000d0: 52d3 7bbe 5430 9f3d 1689 55be 99ef 51bb
000000e0: cdf4 823d 3f36 993d 2c5b f9bc 9cbf 723d
000000f0: 5e4f 0fbe 62e8 2e3e b3a1 9ebd 1f67 1cbe

lstm_p.bias_hh_l0 f4 [64]
-0.22639757 -0.012913039 -0.09818975 0.07654989 -0.016799644 0.06713644 -0.19661574 0.23326665
-0.00903411 -0.19727705 0.19129562 0.028060414 -0.0075740027 -0.12847486 -0.053836443 0.04575901
0.13813399 -0.23983988 0.040913444 0.05166978 0.13577348 0.09447866 0.058211446 0.21127898
-0.072460994 0.030454075 -0.08240994 0.055257376 -0.10737444 0.08805959 0.04748203 0.00889729
-0.22756003 0.16706453 -0.22958465 0.05590322 -0.15002595 -0.1594851 -0.011021122 -0.17189047
-0.11975978 -0.15677291 0.17162436 -0.099828854 0.07886137 -0.03951792 -0.20204823 0.1199508
-0.1055805 0.14486635 -0.20876272 -0.25781408 0.07610263 -0.04469863 -0.15867013 0.24269627
0.23653695 -0.24412529 0.20251372 0.13819176 -0.07002932 -0.09829376 0.0966808 -0.051574208
00000000: c4d4 67be 3691 53bc b517 c9bd 30c6 9c3d
00000010: 689f 89bc d47e 893d a355 49be 74dd 6e3e
00000020: ce03 14bc ff02 4abe 00e3 433e f4de e53c
00000030: 572f f8bb ea8e 03be 9a83 5cbd cd6d 3b3d
00000040: ff72 0d3e 9698 75be db94 273d b1a3 533d
00000050: 3408 0b3e 077e c13d 206f 6e3d 8459 583e
00000060: 6e66 94bd d37a f93c 8bc6 a8bd 8f55 623d
00000070: 21e7 dbbd 9658 b43d 847c 423d f0c5 113c
00000080: 7f05 69be f712 2b3e 3d18 6bbe c6fa 643d
00000090: 67a0 19be 1050 23be f091 34bc 0e04 30be
000000a0: 9e44 f5bd 1489 20be 4cbe 2f3e 1273 ccbd
000000b0: 1282 a13d 8bdd 21bd bbe5 4ebe c4a8 f53d
000000c0: 973a d8bd d857 143e e5c5 55be 3500 84be
000000d0: b2db 9b3d e915 37bd 6c7a 22be 5f85 783e
000000e0: be36 723e fbfb 79be c25f 4f3e 2482 0d3e
000000f0: 886b 8fbd 3d4e c9bd 9500 c63d 7a3f 53bd

lstm_p.weight_ih_l1 f4 [64, 16]
-0.067749165 0.06661105 0.23107311 0.02265048 -0.16430193 0.0944042 0.19684021 0.22598329
0.21266216 -0.104324475 -0.1472161 0.13606597 0.08740596 0.19740023 -0.10513529 -0.10321564
-0.06556594 0.1770563 0.092798576 0.2467005 -0.12527145 -0.08013716 0.12018445 -0.057743695
0.19569056 -0.060412016 0.15945451 0.16358326 0.049104497 -0.060225442 -0.17401826 -0.133448
-0.14415562 -0.18262626 0.1826834 0.098143116 -0.09791247 0.1995907 0.009022792 -0.009365233
0.16134867 0.23809 0.16192171 -0.10590085 -0.23179364 -0.117013395 -0.067496926 0.120743334
0.1602229 -0.22892432 0.2005081 0.22966798 -0.077666186 0.2124785 0.14697246 -0.15715674
-0.08792027 -0.19127192 0.2277139 0.17473918 0.17159058 0.12751749 0.17927083 0.1708196
-0.04429991 -0.07845847 0.1797389 -0.09333224 0.11924328 -0.10135392 -0.19161005 -0.20141934
0.22542901 0.22003783 -0.21640654 0.0068553546 0.22192495 -0.15889193 0.019289123 0.1306738
0.13605504 -0.09138764 -0.05796188 0.059821308 0.045879792 -0.053185403 0.19752161 -0.1385873
-0.11861842 0.21152547 -0.019278664 -0.011633153 0.13367628 0.104048595 -0.024368644 0.10590622
0.13250874 -0.077186644 0.13828109 0.14997123 -0.24359837 -0.14636259 0.21783833 0.011684302
0.1334859 0.09989208 -0.089222394 -0.098249435 -0.20454924 -0.17019427 0.24440886 -0.20809615
0.14169997 0.1285068 0.21112615 -0.25890514 0.10661682 0.1128325 0.18836123 0.22891249
0.12588158 0.070589274 -0.0358946 -0.22471823 0.08996741 -0.10442273 0.15259519 -0.20516758
-0.046346433 0.1497972 0.0409169 -0.028712533 0.08041718 0.07360692 -0.22390856 -0.015359242
0.10618066 0.19642805 0.12841934 0.04253794 0.19599932 0.16344334 -0.07921078 0.027700149
-0.08775104 -0.11170767 0.19733782 0.11978797 0.22447594 0.08292654 -0.14449413 -0.0007375333
0.031756897 0.023837106 -0.2164572 -0.042745464 -0.03339228 -0.2134091 -0.20492688 0.19312505
-0.2090878 0.055764012 -0.0015938022 -0.2326321 -0.19931321 -0.009481628 -0.22703007 0.019858386
0.1559725 -0.114359096 0.049366985 -0.023343159 0.22403689 -0.020394098 -0.09022189 -0.008995974
-0.11708176 -0.13663077 -0.09267548 0.017426798 0.24503674 -0.18009841 0.05515673 0.1305604
0.2305748 0.16973032 0.16325112 -0.20917507 0.21465446 -0.20323321 0.092345044 0.05720512
0.11375335 -0.0039460817 -0.02530087 -0.12378395 0.19139124 -0.12849128 -0.20447129 0.24070667
-0.1096061 -0.1822466 -0.1587747 -0.13333699 0.15213832 -0.21443094 -0.20743518 0.18056905
-0.20318629 -0.1655017 -0.020425577 -0.219498 0.19843899 0.13979512 0.23379216 -0.1622903
-0.17185587 -0.10908688 0.12867528 0.19643085 -0.17607157 0.09877912 0.14162819 0.2162483
0.10942385 0.23538847 -0.15264717 0.12374503 -0.23997863 0.13453697 0.02197603 -0.23666994
0.0017057655 0.19144648 -0.0030742537 0.12682611 0.09998114 -0.18650787 -0.06862377 0.2077776
0.15083174 0.15853785 0.021906514 -0.028236309 0.07752415 0.0004711933 -0.024011426 -0.22133292
-0.06803384 0.023233734 0.06369903 0.12442459 0.05429848 -0.021375034 0.17211713 0.09650714
00000000: 13c0 8abd 606b 883d 6e9e 6c3e 808d b93c
00000010: c43e 28be fd56 c13d 7b90 493e 2a68 673e
00000020: 1cc4 593e 12a8 d5bd d1bf 16be e154 0b3e
00000030: e501 b33d 4923 4a3e 2c51 d7bd b962 d3bd
00000040: 7047 86bd 3f4e 353e 2e0d be3d 0e9f 7c3e
00000050: 2947 00be f41e a4bd 4423 f63d a784 6cbd
00000060: 1b63 483e 9772 77bd 0b48 233e 5f82 273e
00000070: cc21 493d f4ae 76bd d831 32be 98a6 08be
00000080: 889d 13be 6102 3bbe 5b11 3b3e 42ff c83d
00000090: 5586 c8bd 8161 4c3e 55d4 133c a270 19bc
000000a0: 9638 253e ddcd 733e cece 253e 8be2 d8bd
000000b0: 505b 6dbe b8a4 efbd d43b 8abd 4848 f73d
000000c0: 7911 243e 236b 6abe ff51 4d3e 152e 6b3e
000000d0: 730f 9fbd f793 593e f37f 163e b2ed 20be
000000e0: 8b0f b4bd c9dc 43be d52d 693e d4ee 323e
000000f0: 71b5 2f3e f293 023e c692 373e 55eb 2e3e
00000100: d373 35bd d6ae a0bd 790d 383e f924 bfbd
00000110: d235 f43d a592 cfbd 6d35 44be df40 4ebe
00000120: ddd6 663e 9951 613e ad99 5dbe e2a2 e03b
00000130: 4b40 633e 91b4 22be 3904 9e3c 5acf 053e
00000140: 0352 0b3e 7129 bbbd 7069 6dbd 3007 753d
00000150: 73ec 3b3d f0d8 59bd 1b43 4a3e d4e9 0dbe
00000160: 37ee f2bd 229a 583e 4aee 9dbc fb98 3ebc
00000170: 6fe2 083e 6e17 d53d c0a0 c7bc 5ce5 d83d
00000180: 5fb0 073e 0814 9ebd 8f99 0d3e 0f92 193e
00000190: da71 79be 13e0 15be 0311 5f3e 846f 3f3c
000001a0: 87b0 083e 3894 cc3d 3bba b6bd 0037 c9bd
000001b0: 5b75 51be 6847 2ebe 5146 7a3e 2817 55be
000001c0: cc19 113e 4997 033e 7431 583e 378f 84be
000001d0: eb59 da3d ba14 e73d c4e1 403e 0968 6a3e
000001e0: 1ae7 003e 1c91 903d 3706 13bd 891c 66be
000001f0: d540 b83d 96db d5bd ea41 1c3e 7317 52be
00000200: c2d5 3dbd 7064 193e 7b98 273d 8c36 ebbc
00000210: c3b1 a43d 3abf 963d 4948 65be 55a5 7bbc
00000220: 3f75 d93d 6f24 493e 5c80 033e 433c 2e3d
00000230: 0cb4 483e b15d 273e 4339 a2bd 6ceb e23c
00000240: d1b6 b3bd fec6 e4bd ed12 4a3e 6553 f53d
00000250: 05dd 653e 64d5 a93d 45f6 13be 0657 41ba
00000260: 8513 023d 0946 c33c f5a6 5dbe de15 2fbd
00000270: 58c6 08bd ea87 5abe 5ad8 51be 93c2 453e
00000280: 1d1b 56be ce68 643d 21e7 d0ba 1c37 6ebe
00000290: c318 4cbe d558 1bbc 927a 68be 0eae a23c
000002a0: 41b7 1f3e 1a35 eabd 0935 4a3d 273a bfbc
000002b0: ed69 653e 8611 a7bc 41c6 b8bd da63 13bc
000002c0: 90c8 efbd f0e8 0bbe a4cc bdbd a5c2 8e3c
000002d0: e9ea 7a3e b86b 38be 06ec 613d a0b1 053e
000002e0: cd1b 6c3e c9cd 2d3e 4d2b 273e fd31 56be
000002f0: 61ce 5b3e 5e1c 50be 661f bd3d ea4f 6a3d
00000300: 84f7 e83d 224e 81bb c543 cfbc 7182 fdbd
00000310: 11fc 433e 3893 03be ec60 51be cf7b 763e
00000320: 2a79 e0bd da9e 3abe d695 22be 7e89 08be
00000330: 26ca 1b3e c993 5bbe e369 54be 18e7 383e
00000340: 1110 50be 4779 29be 8a53 a7bc 15c4 60be
00000350: 9733 4b3e 7426 0f3e 3667 6f3e 6e2f 26be
00000360: fcfa 2fbe f168 dfbd 74c3 033e 2b25 493e
00000370: 1b4c 34be b54c ca3d fb06 113e 3270 5d3e
00000380: 9d19 e03d ad09 713e 8a4f 1cbe 096e fd3d
00000390: f5bc 75be 0fc4 093e 1307 b43c 9b59 72be
000003a0: fe93 df3a 8c0a 443e 6b79 49bb b4de 013e
000003b0: e9c2 cc3d ebfb 3ebe 9e8a 8cbd a7c3 543e
000003c0: a373 1a3e bf57 223e 4a75 b33c d54f e7bc
000003d0: fbc4 9e3d 7f0a f739 9cb3 c4bc 19a5 62be
000003e0: 5355 8bbd ac54 be3c a374 823d 52d2 fe3d
000003f0: 1568 5e3d b21a afbc 793f 303e 89a5 c53d

lstm_p.weight_hh_l1 f4 [64, 16]
0.18514119 -0.15317383 0.2303222 -0.118775964 -0.041386362 -0.19509406 0.05705266 0.2017388
-0.08661485 0.15403706 -0.009545453 0.23709527 -0.13908227 0.0033858956 0.20510697 -0.19484967
0.11618224 -0.2442152 0.19370545 0.09209014 0.055664204 -0.23504332 0.2510183 0.18498214
0.22889987 -0.21411707 0.22731249 0.03656686 0.15800577 -0.24714972 -0.12096601 0.020129938
0.15449563 -0.2248842 0.14307159 0.1339248 -0.18815915 0.22175358 -0.105301045 0.07254486
-0.16107991 -0.13607797 -0.06305619 -0.08280725 0.03149997 -0.062793866 -0.14816311 0.22006433
-0.0017767384 -0.20335808 0.21498652 0.2148384 -0.14093271 0.17842007 -0.10042033 -0.19989762
-0.24864234 -0.1259071 0.11522999 0.2466199 0.22279851 -0.03329393 -0.058713924 -0.0024013445
0.22965394 -0.17031598 -0.13649805 0.010460883 -0.24157003 0.14354195 -0.14786525 -0.085606866
-0.121126756 0.00014529693 0.20496368 -0.088770084 -0.11314357 0.12591122 -0.042984195 -0.028999118
0.19787128 0.07383576 -0.04523881 0.21800408 -0.24440557 0.20741896 -0.08755524 0.17446181
-0.077626996 -0.20807756 -0.0047711283 0.2228427 0.033720676 -0.20118347 0.17969824 0.2454832
0.22658293 -0.12884246 -0.17180446 -0.24864858 -0.053873133 0.066836864 -0.2505993 0.0014980761
0.03623197 0.18029054 0.16613911 0.09972895 -0.022142747 0.23154812 -0.021715743 -0.056698423
-0.12235904 0.069538094 -0.15078087 0.108093806 -0.22663948 0.02989248 -0.007741191 -0.17778653
0.20690182 0.2006024 0.15175289 0.1833275 -0.01826521 -0.15388668 -0.065769255 -0.15670393
-0.13233127 0.030782834 -0.09750896 0.24936633 0.16670437 0.24850962 0.11239482 0.14583273
-0.1308009 0.19293095 0.19340928 0.08082795 0.085492164 -0.21691549 0.004327344 0.21415174
-0.10521703 0.18831694 -0.12644313 -0.16644502 0.14668804 0.12816697 0.0843967 -0.10269851
0.1614067 -0.1064783 0.13913399 0.22414547 -0.1152949 0.19483136 0.17777044 0.074615896
-0.09471883 -0.05574684 0.15365188 0.103714496 -0.002077874 -0.09115906 0.02697687 0.2436646
0.19877872 -0.15945025 0.24708574 0.15104572 0.2507876 -0.06764696 0.06585585 -0.050770286
-0.13624577 -0.071733825 -0.1493454 0.06997924 -0.044380676 -0.19945423 -0.082257114 -0.00688127
-0.12303228 -0.15562719 -0.23965643 0.13508005 0.13667442 -0.24666166 0.1296787 -0.19337393
-0.09967896 -0.15208744 -0.057522 -0.13015005 -0.011943934 0.04906835 -0.103927 0.15082504
-0.08930836 -0.062132966 0.0597003 0.12572262 0.1726064 0.10262293 0.017458681 -0.034975875
-0.15780702 0.2034706 -0.006415846 0.18534878 0.11677234 0.15446994 -0.17358127 0.12622255
0.24120794 -0.22314142 0.17456396 -0.14931896 -0.14068937 -0.22636278 -0.24317227 -0.17223904
-0.17142268 0.005637469 -0.11827967 0.004679658 0.15312718 0.21950239 -0.19074509 0.18228808
-0.011963571 -0.08591471 0.24869932 -0.20758717 -0.14617905 0.10730669 0.10283572 0.108681895
-0.21663015 -0.1643369 -0.15984145 0.17030449 0.105302036 -0.028250996 0.1679096 0.01424462
-0.23331521 -0.07433216 0.12971748 -0.054349672 0.10402063 0.053096388 -0.057363447 -0.19277237
00000000: a795 3d3e 9ad9 1cbe 95d9 6b3e d040 f3bd
00000010: bf84 29bd bdc6 47be 0db0 693d 9e94 4e3e
00000020: 2063 b1bd e4bb 1d3e 8864 1cbc 1ac9 723e
00000030: 956b 0ebe e7e5 5d3b 9007 523e ac86 47be
00000040: f4f0 ed3d 8d13 7abe b95a 463e c199 bc3d
00000050: 2600 643d 32af 70be 7885 803e f56b 3d3e
00000060: ba64 6a3e 8141 5bbe 9bc4 683e 22c7 153d
00000070: 44cc 213e d114 7dbe 07bd f7bd 8ae7 a43c
00000080: 1a34 1e3e 0b48 66be 5c81 123e 9523 093e
00000090: cbac 40be 5f13 633e 13a8 d7bd 6692 943d
000000a0: 22f2 24be 0658 0bbe 9b23 81bd d996 a9bd
000000b0: 1d06 013d 129a 80bd 12b8 17be 8b58 613e
000000c0: 73e1 e8ba 1a3d 50be 6d25 5c3e 99fe 5b3e
000000d0: aa50 10be c0b3 363e 2da9 cdbd f6b1 4cbe
000000e0: 199c 7ebe caed 00be b3fd eb3d ed89 7c3e
000000f0: 4b25 643e 375f 08bd 037e 70bd e05f 1dbb
00000100: 672a 6b3e 5067 2ebe 25c6 0bbe 2064 2b3c
00000110: 225e 77be a9fc 123e fd69 17be a752 afbd
00000120: 4e11 f8bd d95a 1839 00e2 513e 17cd b5bd
00000130: d1b7 e7bd dfee 003e 3210 30bd 8f8f edbc
00000140: c59e 4a3e 3437 973d 554c 39bd 763c 5f3e
00000150: 7445 7abe a365 543e 2950 b3bd 1ea6 323e
00000160: e7fa 9ebd 4912 55be 2057 9cbb e030 643e
00000170: b11e 0a3d 0a03 4ebe d102 383e f35f 7b3e
00000180: 5b05 683e 47ef 03be 82ed 2fbe bc9d 7ebe
00000190: 13aa 5cbd c4e1 883d 8d4e 80be 185b c43a
000001a0: f967 143d 159e 383e 5f20 2a3e b13e cc3d
000001b0: b564 b5bc f31a 6d3e 37e5 b1bc 9b3c 68bd
000001c0: 6097 fabd fd69 8e3d 4d66 1abe 4960 dd3d
000001d0: 2e14 68be 13e1 f43c d1a9 fdbb ac0d 36be
000001e0: 12de 533e b76a 4d3e 1c65 1b3e 34ba 3b3e
000001f0: eca0 95bc 7894 1dbe 08b2 86bd ff76 20be
00000200: d981 07be 482c fc3c c7b2 c7bd e359 7f3e
00000210: 8db4 2a3e 4e79 7e3e 412f e63d 2d55 153e
00000220: acf0 05be b18f 453e 150d 463e 2089 a53d
00000230: 8416 af3d 181f 5ebe 64cc 8d3b 984a 5b3e
00000240: 077c d7bd 28d6 403e 4f7a 01be 9070 2abe
00000250: 6435 163e 343e 033e 2dd8 ac3d 9953 d2bd
00000260: cc47 253e 4c11 dabd 2479 0e3e 6486 653e
00000270: bc1f ecbd df81 473e 7409 363e 38d0 983d
00000280: f2fb c1bd cc56 64bd eb56 1d3e 4468 d43d
00000290: f12c 08bb 9ab1 babd 99fe dc3c 3783 793e
000002a0: a68c 4b3e ed46 23be 0b04 7d3e bbab 1a3e
000002b0: 3b67 803e 7d8a 8abd 6fdf 863d 81f4 4fbd
000002c0: 0384 0bbe 2fe9 92bd 00ee 18be 4751 8f3d
000002d0: 83c8 35bd bb3d 4cbe 6b76 a8bd 477c e1bb
000002e0: 59f8 fbbd bc5c 1fbe 7f68 75be 6d52 0a3e
000002f0: 61f4 0b3e e094 7cbe 7eca 043e d103 46be
00000300: 7c24 ccbd cfbc 1bbe 309c 6bbd 0e46 05be
00000310: 7db0 43bc e5fb 483d aed7 d4bd e171 1a3e
00000320: 4de7 b6bd 237f 7ebd 4d88 743d 6ebd 003e
00000330: bbbf 303e f92b d23d 8205 8f3c dd42 0fbd
00000340: 2a98 21be 995a 503e 043c d2bb 12cc 3d3e
00000350: 5626 ef3d 5e2d 1e3e 4abf 31be 7c40 013e
00000360: 37ff 763e 2f7f 64be e5c0 323e 12e7 18be
00000370: e010 10be a5cb 67be 2702 79be 6e5f 30be
00000380: 6d89 2fbe 84ba b83b 9d3c f2bd d157 993b
00000390: 5fcd 1c3e 3cc5 603e ae52 43be baa9 3a3e
000003a0: db02 44bc 0df4 afbd 09ab 7e3e bb91 54be
000003b0: f6af 15be 9cc3 db3d 899b d23d 9d94 de3d
000003c0: 4bd4 5dbe ef47 28be 7aad 23be 4d64 2e3e
000003d0: 98a8 d73d a26e e7bc 7ff0 2b3e 4462 693c
000003e0: 2fea 6ebe 763b 98bd a9d4 043e c39d 5ebd
000003f0: c508 d53d 997b 593d eff5 6abd 1f66 45be

lstm_p.bias_ih_l1 f4 [64]
-0.07643737 0.00563825 0.041750304 -0.23263676 -0.24188489 0.063643806 -0.13363561 0.19120567
0.058583964 0.054523353 -0.23967297 0.08453011 -0.031416863 -0.03905527 -0.19128089 -0.25151163
0.1676397 -0.16174196 0.05176592 -0.17347737 -0.18691233 0.11572008 0.06839993 -0.11569557
0.10597968 -0.15308802 -0.16962858 0.024237916 0.02621939 -0.19978136 -0.14057615 -0.13984619
-0.07184238 0.1290457 -0.22057325 0.17783187 0.012756068 -0.02369085 -0.13035381 -0.21049967
-0.08644381 0.12231052 -0.20008925 0.22313504 -0.16688265 0.13785936 -0.22759402 -0.23409665
-0.10072077 0.18277977 0.12130496 -0.1443819 0.07331196 -0.12493955 0.2214557 0.2389543
0.0012420972 0.16454591 -0.08831926 0.08564096 0.13648428 0.11605982 0.08147545 0.22996593
00000000: 328b 9cbd 12c1 b83b 5e02 2b3d 5538 6ebe
00000010: acb0 77be af57 823d c6d7 08be 6bcb 433e
00000020: bdf5 6f3d e153 5f3d d56c 75be 1f1e ad3d
00000030: f8ae 00bd 6bf8 1fbd 23df 43be 22c6 80be
00000040: bea9 2b3e af9f 25be 8008 543d 0da4 31be
00000050: f265 3fbe a6fe ec3d 4315 8c3d cdf1 ecbd
00000060: e00b d93d 1bc3 1cbe 1db3 2dbe 988e c63c
00000070: 0cca d63c 7c93 4cbe 32f3 0fbe d733 0fbe
00000080: 1922 93bd 8e24 043e f4dd 61be 8f19 363e
00000090: d4fe 503c 5013 c2bc 787b 05be 3a8d 57be
000000a0: 7409 b1bd f07d fa3d 32e4 4cbe 837d 643e
000000b0: 49e3 2abe 012b 0d3e 680e 69be 08b7 6fbe
000000c0: b146 cebd 9f2a 3b3e bc6e f83d d9d8 13be
000000d0: 9524 963d 4fe0 ffbd 48c5 623e 70b0 743e
000000e0: decd a23a b97e 283e bae0 b4bd 8764 af3d
000000f0: 89c2 0b3e c5b0 ed3d 9adc a63d 307c 6b3e

lstm_p.bias_hh_l1 f4 [64]
0.06787424 0.162363 0.12568004 0.018216982 -0.047619093 0.18975636 0.21854728 0.21632646
0.061111435 0.13685903 -0.14275582 -0.15855572 0.04270287 -0.20354591 -0.11984349 0.14059706
-0.1275406 -0.16823287 -0.21890043 0.16188298 0.17012197 0.18275006 -0.041571602 -0.12211702
0.22237211 -0.16281633 0.20633255 0.04720055 -0.10162234 0.10162561 -0.13405177 0.019879341
0.1973431 -0.056626454 0.06745581 0.17128913 -0.07880775 0.15361814 0.1879974 0.026408033
0.18628289 0.20726854 -0.18151197 0.11854174 -0.0051320535 -0.10089476 0.19269803 0.025561392
-0.016844222 0.09796155 0.07220635 0.022540987 0.112557985 -0.020526096 -0.20080298 0.10375515
-0.04900121 -0.12279865 -0.148779 0.11946478 0.096841864 -0.20117608 -0.16626517 -0.041987393
00000000: a601 8b3d 7c42 263e 45b2 003e c83b 953c
00000010: 3d0c 43bd 7e4f 423e dcca 5f3e af84 5d3e
00000020: fc4f 7a3d c624 0c3e 952e 12be 6e5c 22be
00000030: 34e9 2e3d 576e 50be 8170 f5bd adf8 0f3e
00000040: 019a 02be 3d45 2cbe 6f27 60be a7c4 253e
00000050: 7434 2e3e d522 3b3e fc46 2abd 7d18 fabd
00000060: 84b5 633e 53b9 26be d748 533e 5d55 413d
00000070: 601f d0bd 1621 d03d de44 09be 00da a23c
00000080: 4f14 4a3e 24f1 67bd 4626 8a3d 6b66 2f3e
00000090: f565 a1bd 134e 1d3e 6482 403e a955 d83c
000000a0: f1c0 3e3e 343e 543e 46de 39be 03c6 f23d
000000b0: c92a a8bb e9a1 cebd a252 453e 2066 d13c
000000c0: e5fc 89bc 11a0 c83d ece0 933d e0a7 b83c
000000d0: cd84 e63d 5826 a8bc 4c9f 4dbe 957d d43d
000000e0: 7eb5 48bd dc7d fbbd 8659 18be f3a9 f43d
000000f0: 0755 c63d 1a01 4ebe 6b41 2abe f9fa 2bbd

attention_p.attn_1.weight f4 [16, 16]
-0.26264712 0.16665134 0.2326162 -0.3965822 0.059977 -0.11008703 -0.031803582 -0.39319557
-0.3018921 -0.116040766 0.0913225 0.31882668 0.37632948 0.06602931 -0.10375164 -0.3965516
-0.31362227 0.3125679 0.16583847 -0.39730456 -0.199856 -0.2765888 -0.20590879 0.24572703
-0.16517231 0.32237586 0.3470598 -0.19701746 -0.08444105 0.3541219 0.22284475 0.06515103
-0.042208057 -0.12995271 -0.028014913 -0.20815995 0.087156065 0.38608018 -0.06541163 0.20358095
0.41944346 0.29358333 -0.13625029 -0.39505935 -0.23572153 0.084873274 -0.26171222 -0.29182383
0.39185506 -0.1380188 -0.28398204 0.34693927 -0.2541469 0.38962045 0.22320099 -0.31390134
0.2858297 0.2614245 -0.04649425 -0.4300162 -0.07595293 0.4192833 -0.08725096 -0.030166915
0.30515778 -0.3530318 -0.19567506 0.10716826 -0.32600278 0.24864279 0.22748463 0.17274791
-0.16394815 -0.35870448 0.13261813 0.35257682 0.16796333 -0.32437035 0.37593433 -0.20277731
-0.4185703 0.05498788 0.3096972 0.38448635 -0.139981 -0.30145264 0.017493473 -0.159444
-0.022700211 0.11015285 0.1103287 -0.21318309 0.0724546 0.12897736 -0.3188032 0.07820405
0.36942735 -0.16445455 0.1956448 0.14715028 0.30655882 0.27188712 -0.297072 -0.14668135
-0.06268368 -0.2039343 0.33072743 -0.031146772 -0.112585224 0.34257883 -0.17352389 -0.29322752
0.1963288 0.33848318 0.0057114162 -0.32639188 0.010617335 0.40754366 -0.047117624 0.27271026
0.20611215 -0.06157078 0.035303578 -0.060436085 -0.30763367 -0.22720425 0.26808476 -0.26356956
-0.20886664 -0.25158104 0.4326895 -0.12063678 -0.24629061 0.36689284 0.16513473 -0.39248517
0.42651808 0.22631414 0.11654099 -0.04222043 0.12374278 -0.15672159 0.2756855 0.10774313
0.36766437 0.114592634 -0.056392636 0.19619812 -0.037686016 0.12227138 0.079919524 0.34939355
-0.31029525 -0.01398384 -0.21156874 0.30858555 -0.1596834 0.23272792 0.2209987 -0.111067645
-0.007290152 0.27870193 -0.29826823 0.41269544 -0.122786745 -0.1160781 0.015944922 0.0040710997
-0.31938186 -0.016854858 0.2914588 -0.19212693 0.28228793 -0.4143501 0.35165486 -0.32862684
-0.28602675 -0.17828001 -0.19181688 -0.09828715 -0.25178987 0.22852561 -0.066620104 0.3978685
0.3978347 -0.36419424 0.21208532 0.33121485 0.15759212 0.010022227 -0.27626365 0.42792308
0.13655335 0.34044835 -0.09093673 0.16837928 -0.24059494 -0.3958046 0.0034671086 0.40926903
0.055795442 -0.43482175 -0.014988322 0.23965287 -0.32238603 0.41847482 0.23654409 -0.17745508
0.16690092 0.27887896 0.31488463 -0.003787365 -0.08520452 0.21993053 0.124920405 -0.13384418
0.041497663 -0.32114485 -0.373134 0.35118252 -0.41382885 -0.26927507 -0.38123292 0.12637085
0.29199752 -0.05786 0.34664872 0.41547284 -0.003235649 -0.38012892 -0.24472468 -0.0059868055
-0.13470474 -0.29524752 -0.11678602 -0.08252276 -0.282762 -0.35838506 0.3338235 -0.08793668
0.072946146 -0.1959022 -0.34337145 -0.071926944 0.30050343 0.39699823 0.050160047 -0.27389887
-0.13256313 -0.19938876 -0.07298072 -0.00074171467 -0.111011334 -0.17306083 -0.26690152 -0.08913523
00000000: af79 86be a6a6 2a3e f132 6e3e d20c cbbe
00000010: 71aa 753d 4f75 e1bd 7944 02bd ee50 c9be
00000020: 9a91 9abe c8a6 edbd 4a07 bb3d 403d a33e
00000030: 42ae c03e 603a 873d bd7b d4bd d008 cbbe
00000040: 1993 a0be e608 a03e 8fd1 293e 816b cbbe
00000050: 0da7 4cbe 0c9d 8dbe c1d9 52be de9f 7b3e
00000060: ee22 29be 730e a53e d2b1 b13e f2be 49be
00000070: 6eef acbd 774f b53e 6a31 643e e76d 853d
00000080: 5be2 2cbd 5312 05be 887f e5bc e227 55be
00000090: e17e b23d 4dac c53e 88f6 85bd 8677 503e
000000a0: 4bc1 d63e 8e50 963e 3285 0bbe 3845 cabe
000000b0: fc60 71be 0ad2 ad3d 25ff 85be ef69 95be
000000c0: 3aa1 c83e cd54 0dbe 1866 91be 06a2 b13e
000000d0: 8b1f 82be 557c c73e cd8e 643e adb7 a0be
000000e0: 4558 923e 6fd9 853e c170 3ebd 152b dcbe
000000f0: 368d 9bbd 4dac d63e a2b0 b2bd 9b20 f7bc
00000100: a43d 9c3e 96c0 b4be 0b5f 48be 087b db3d
00000110: d6e9 a6be 379c 7e3e bbf1 683e d4e4 303e
00000120: 06e2 27be 1da8 b7be 0ccd 073e f384 b43e
00000130: 94fe 2b3e df13 a6be 777a c03e dba4 4fbe
00000140: d94e d6be f93a 613d a290 9e3e 65db c43e
00000150: 2e57 0fbe 0058 9abe 794e 8f3c 4a45 23be
00000160: cbf5 b9bc d197 e13d 03f4 e13d ab4c 5abe
00000170: 1463 943d a412 043e 2c3a a3be 7229 a03d
00000180: 9525 bd3e c666 28be 1c57 483e 90ae 163e
00000190: 47f5 9c3e ca34 8b3e d219 98be a333 16be
000001a0: 4d60 80bd 27d4 50be 1b55 a93e 8427 ffbc
000001b0: 1593 e6bd 7e66 af3e 3fb0 31be eb21 96be
000001c0: 6b0a 493e ab4d ad3e d526 bb3b d61c a7be
000001d0: 55f4 2d3c 90a9 d03e 69fe 40bd aea0 8b3e
000001e0: 100f 533e a431 7cbd 7c9a 103d d48b 77bd
000001f0: 2982 9dbe 3ba8 68be 6842 893e 97f2 86be
00000200: 23e1 55be 3bcf 80be 7a89 dd3e 6b10 f7bd
00000210: 9b33 7cbe 61d9 bb3e 1419 293e d1f3 c8be
00000220: 9460 da3e e5be 673e 0bad ee3d 54ef 2cbd
00000230: db6c fd3d a07b 20be a626 8d3e 6ea8 dc3d
00000240: 813e bc3e 8baf ea3d f7fb 66bd 29e8 483e
00000250: a75c 1abd 6b69 fa3d d9ac a33d b6e3 b23e
00000260: 05df 9ebe 7a1c 65bc 7aa5 58be edfe 9d3e
00000270: 0c84 23be 3a50 6e3e 7c4d 623e 6f77 e3bd
00000280: 3ae2 eebb 05b2 8e3e 9db6 98be d14c d33e
00000290: 9e77 fbbd 5bba edbd ed9e 823c dc66 853b
000002a0: 0586 a3be 3313 8abc 163a 953e ecbc 44be
000002b0: 0b88 903e b225 d4be 1b0c b43e c741 a8be
000002c0: 1972 92be 098f 36be a56b 44be c64a c9bd
000002d0: 9aea 80be 9e02 6a3e 1f70 88bd 6cb5 cb3e
000002e0: fdb0 cb3e ab77 babe e52c 593e fe94 a93e
000002f0: d45f 213e 4434 243c 6e72 8dbe bc18 db3e
00000300: a4d4 0b3e 3f4f ae3e 093d babd 9e6b 2c3e
00000310: 855e 76be e7a6 cabe 6e38 633b b68b d13e
00000320: c389 643d f5a0 debe 9491 75bc 9067 753e
00000330: c80f a5be 5542 d63e 9d38 723e c9b6 35be
00000340: 13e8 2a3e 39c9 8e3e 8f38 a13e 7135 78bb
00000350: b57f aebd 7835 613e 45d6 ff3d 730e 09be
00000360: 74f9 293d 196d a4be 6b0b bfbe 32ce b33e
00000370: 60e1 d3be 6cde 89be f630 c3be 5c67 013e
00000380: b380 953e 9bfe 6cbd f17b b13e dbb8 d43e
00000390: 2f0d 54bb 42a0 c2be 1b99 7abe f72c c4bb
000003a0: 0af0 09be af2a 97be 822d efbd b101 a9bd
000003b0: 2ec6 90be 3f7e b7be eaea aa3e 2518 b4bd
000003c0: ca64 953d 969a 48be 62ce afbe 6f4e 93bd
000003d0: 96db 993e 5a43 cb3e 9f74 4d3d 793c 8cbe
000003e0: a1be 07be 912c 4cbe ea76 95bd a16f 42ba
000003f0: e959 e3bd dc36 31be 51a7 88be 888c b6bd

attention_p.attn_1.bias f4 [16]
0.0010887439 -0.00047020748 0.0011608523 0.00042758937 -0.0027996248 -0.003347171 -0.0069591757 0.0024155069
0.00053456903 2.0879617e-05 -0.0038395796 -0.0017976571 0.0025384661 -0.00042467407 -0.010326513 -0.002659836
00000000: 2fb4 8e3a 2e86 f6b9 bd27 983a 132e e039
00000010: e979 37bb 365c 5bbb cc09 e4bb 7b4d 1e3b
00000020: 5222 0c3a a326 af37 75a1 7bbb 5d9f ebba
00000030: 655c 263b caa6 deb9 8930 29bc a550 2ebb

attention_p.attn_2.weight f4 [1, 16]
-0.4419298 -0.3669688 0.12257167 -0.15845141 -0.2382863 0.012313592 0.35633227 -0.25288165
0.2639085 -0.37756768 0.29777402 -0.18767203 0.2545205 0.42731372 -0.127043 -0.29194131
00000000: 9f44 e2be 56e3 bbbe db06 fb3d 1641 22be
00000010: 5301 74be f3be 493c 2f71 b63e b479 81be
00000020: 041f 873e 8d50 c1be d675 983e 192d 40be
00000030: 8350 823e ddc8 da3e 8f17 02be 5579 95be

lstm_t.weight_ih_l0 f4 [64, 7]
-0.17464082 -0.062261082 0.00398675 -0.06128163 0.20288067 -0.19557539 0.20321195 -0.002158931
0.22761545 0.061890457 -0.20702471 0.22665088 0.06140445 0.11148468 0.16949315 -0.05134734
0.036565885 -0.094607085 0.112189636 -0.008723727 0.06857885 -0.13983132 -0.12598315 -0.11957279
-0.14822973 0.19827557 -0.17294405 0.1603539 -0.19956638 0.20527133 -0.24966235 0.17583984
0.013546396 -0.05832214 -0.12535521 0.15734743 0.05650318 0.10518252 0.06218987 0.03242615
0.19928455 0.10006186 0.19468728 -0.18621849 -0.04534586 -0.056695435 0.08514551 0.05043696
-0.1515583 0.10681436 -0.03075296 -0.1733179 0.23561557 -0.17611583 -0.10773508 0.22255382
-0.07154725 0.14084782 -0.08041618 -0.10170159 0.2354181 -0.23138037 0.033565085 0.020415645
-0.17378798 0.037166 -0.0816537 0.07781643 -0.121404134 -0.16354923 -0.2132897 0.07970178
0.017448224 -0.0650092 -0.18794656 0.00028626437 -0.20401964 0.035255205 -0.050970573 -0.14578986
0.08602466 -0.18805148 -0.0147227 0.124539636 0.19308981 -0.09455787 -0.21552563 0.16987206
0.022447187 -0.2408779 -0.007815039 0.018140282 -0.06599861 0.16496335 0.050958768 -0.13488202
-0.026369823 0.0058450503 -0.13029893 -0.11794836 -0.025011018 -0.022717379 -0.1716502 0.1989564
0.24730976 -0.18205205 0.14319345 -0.18159604 0.068643615 0.250846 0.04455979 -0.18571138
-0.024194239 -0.18438521 -0.19341627 -0.053053826 -0.1605128 0.08454519 0.060113937 -0.25156963
-0.044662904 0.22759181 0.18726966 0.14566195 0.09051456 -0.18943548 0.20890746 0.24981973
-0.05001641 -0.20696051 -0.05258291 -0.020579379 0.16159487 0.13354404 -0.22473456 -0.14305507
0.04710941 0.19343653 -0.008570402 -0.24026904 0.12640943 -0.062798716 0.06838118 0.10109523
0.124288835 0.026956487 0.08170242 0.10155375 -0.109261245 0.055596553 0.17274338 -0.17450526
0.05830672 0.20375392 0.09377268 -0.1232799 0.06343041 -0.0014002231 0.20241165 -0.15229316
0.11956239 0.014624327 0.023242097 -0.0057090167 -0.21438642 0.09602361 -0.15620707 0.23730814
0.10401021 -0.12772354 0.1890369 0.16791512 0.23667689 0.13970022 0.050261974 -0.117040165
0.22605565 0.13371477 0.13424781 0.23609433 0.17783757 -0.12114534 0.19890486 0.119656555
-0.08429027 0.19466323 -0.100044504 -0.07582763 0.014322588 0.011081349 0.17201793 -0.13831188
-0.24577318 0.08121328 -0.17107446 -0.22057447 -0.214423 -0.18933307 -0.08222214 -0.16001473
0.17193238 -0.1096078 0.17303523 -0.12249036 0.1438189 0.025005838 -0.2382152 -0.096622966
0.2389275 0.22831377 0.173342 0.20559476 0.05647803 -0.1928249 -0.08402029 -0.20458773
0.12498073 0.1314579 0.101114914 0.2185376 -0.023699488 0.13893233 -0.0145956455 -0.036681652
-0.15401751 -0.16029699 0.031190127 -0.13239782 0.034447648 -0.11331709 -0.030061396 -0.20002078
-0.18348649 0.11295514 0.19173308 -0.033715483 0.043488458 0.064190134 0.18843913 -0.016696911
0.24549496 0.02537737 0.1610776 -0.012485306 -0.104116224 -0.0077071046 -0.21041842 0.048726257
-0.047172297 0.08043273 -0.226652 0.19634597 -0.033578195 -0.023779867 0.041679874 0.2178467
00000000: 0bd5 32be 7a05 7fbd 48a3 823b 7202 7bbd
00000010: f3bf 4f3e ea44 48be cb16 503e da7c 0dbb
00000020: 0614 693e d980 7d3d 49fe 53be 2b17 683e
00000030: 3c83 7b3d 1452 e43d 9d8f 2d3e 9751 52bd
00000040: 1cc6 153d 5cc1 c1bd aec3 e53d f7ed 0ebc
00000050: 1173 8c3d f12f 0fbe ba01 01be 94e2 f4bd
00000060: 89c9 17be c008 4b3e 3f18 31be d033 243e
00000070: 215b 4cbe a632 523e 7da7 7fbe 5c0f 343e
00000080: b4f1 5d3c 32e3 6ebd 1e5d 00be af1f 213e
00000090: e16f 673d ef69 d73d ceba 7e3d 48d1 043d
000000a0: 4011 4c3e 3ced cc3d 1a5c 473e 0fb0 3ebe
000000b0: 95bc 39bd 7939 68bd c560 ae3d fc96 4e3d
000000c0: 1932 1bbe 7dc1 da3d a2ed fbbc 3f7a 31be
000000d0: 3545 713e b557 34be 36a4 dcbd 26e5 633e
000000e0: 5d87 92bd 693a 103e 3db1 a4bd ec48 d0bd
000000f0: 7111 713e faee 6cbe 8b7b 093d b63e a73c
00000100: 7af5 31be 603b 183d 0e3a a7bd 385e 9f3d
00000110: bba2 f8bd 7379 27be 9d68 5abe b03a a33d
00000120: 94ef 8e3c 8b23 85bd 1075 40be c115 9639
00000130: 86ea 50be c367 103d 85c6 50bd f049 15be
00000140: b22d b03d 9190 40be 7b37 71bc a30e ff3d
00000150: 56b9 453e 8ea7 c1bd c0b2 5cbe f1f2 2d3e
00000160: 2ae3 b73c b2a8 76be a60a 00bc ee9a 943c
00000170: 472a 87bd 27ec 283e 24ba 503d 831e 0abe
00000180: 8705 d8bc d687 bf3b 156d 05be e98e f1bd
00000190: e8e3 ccbc cc19 babc 12c5 2fbe 3abb 4b3e
000001a0: c53e 7d3e da6b 3abe 4ea1 123e 50f4 39be
000001b0: 0695 8c3d e36e 803e 5484 363d 202b 3ebe
000001c0: ff32 c6bc 7acf 3cbe ea0e 46be f84e 59bd
000001d0: 785d 24be 0726 ad3d 083a 763d bccd 80be
000001e0: 73f0 36bd d40d 693e 9ec3 3f3e 6828 153e
000001f0: b35f b93d 60fb 41be d6eb 553e bed0 7f3e
00000200: 02de 4cbd 75ed 53be 2d61 57bd 1696 a8bc
00000210: 2079 253e c5bf 083e d120 66be 077d 12be
00000220: ccf5 403d 3a14 463e df6a 0cbc 1609 76be
00000230: 7971 013e 9d9c 80bd 6f0b 8c3d 040b cf3d
00000240: 258b fe3d dad3 dc3c 9953 a73d 6afb cf3d
00000250: 5cc4 dfbd 36b9 633d a4e3 303e 82b1 32be
00000260: 07d3 6e3d dea4 503e e40b c03d 2c7a fcbd
00000270: cee7 813d b187 b7ba 0045 4f3e bdf2 1bbe
00000280: 20dd f43d e09a 6f3c 3666 be3c b412 bbbb
00000290: 1d88 5bbe 07a8 c43d bff4 1fbe e800 733e
000002a0: 4e03 d53d f6c9 02be e492 413e f1f1 2b3e
000002b0: 6d5b 723e 930d 0f3e 80df 4d3d c1b2 efbd
000002c0: 227b 673e 86ec 083e 4278 093e b6c2 713e
000002d0: 0d1b 363e 0c1b f8bd b7ad 4b3e 7f0e f53d
000002e0: 61a0 acbd cc55 473e 22e4 ccbd 844b 9bbd
000002f0: 4aa9 6a3c 8c8e 353c 7825 303e a1a1 0dbe
00000300: f7ab 7bbe 2653 a63d 252e 2fbe 46de 61be
00000310: b491 5bbe 87e0 41be 1564 a8bd e7da 23be
00000320: 0b0f 303e 0e7a e0bd 2630 313e 3adc fabd
00000330: 4345 133e 0bd9 cc3c afee 73be 43e2 c5bd
00000340: 69a9 743e 16cb 693e 9180 313e 6f87 523e
00000350: 8255 673d e473 45be d412 acbd 727f 51be
00000360: e6f5 ff3d e69c 063e 5615 cf3d 52c8 5f3e
00000370: 6e25 c2bc 4744 0e3e 9322 6fbc 803f 16bd
00000380: c4b6 1dbe e524 24be 7082 ff3c 4b93 07be
00000390: fa18 0d3d ca12 e8bd 5143 f6bc 3fd2 4cbe
000003a0: e2e3 3bbe 0655 e73d ad55 443e 3f19 0abd
000003b0: f420 323d 1e76 833d 30f6 403e f6c7 88bc
000003c0: 0863 7b3e 34e4 cf3c 87f1 243e 2b8f 4cbc
000003d0: e33a d5bd e18b fcbb ed77 57be 2f95 473d
000003e0: bd37 41bd eab9 a43d 7617 68be eb0e 493e
000003f0: 4a89 09bd ffcd c2bc 84b8 2a3d 3513 5f3e
