Params/303_0.001_5_16_222_model.pt (torch, 45279 bytes, 31 tensors)

lstm_p.weight_ih_l0 f4 [64, 10]
000000 78 45 b4 bd 99 82 c0 bd c0 84 06 bd ed 52 b9 3a
       -0.088023126 -0.093999095 -0.032841444 0.0014139094
000010 17 66 75 3e a3 cd d9 bd 02 ee c9 3d 99 4c 49 3e
       0.23964725 -0.10634925 0.098598495 0.19658126
000020 9a d3 67 bd 26 81 86 bd 58 bd ea 3d ed 4a 26 3d
       -0.056598283 -0.06567602 0.11461896 0.0405988
000030 f8 bb 48 bb 3b 22 78 3e a1 9d e0 3b d0 52 f9 bd
       -0.0030629616 0.24231808 0.0068547283 -0.12173998
000040 d6 38 ce ba 32 1b 60 3d 9b 2c 7a 3d ad 96 c3 3d
       -0.0015733491 0.054713435 0.061077695 0.095502235
000050 2e ab 85 3c 87 8f d5 3c b7 c5 57 be ae d0 2d 3e
       0.016316976 0.026069416 -0.21071516 0.16974136
000060 ce a2 24 be bb 28 d5 bd 8d 24 8f 3d 8c ee 55 bd
       -0.1607773 -0.10408159 0.069893934 -0.05222945
000070 8f d9 1c 3e b1 96 aa 3d 88 f0 54 3e b2 8b 82 3d
       0.15317367 0.08329523 0.2079488 0.06374301
000080 79 91 59 3d 98 25 44 3d a2 a4 27 be 6f da 02 3d
       0.05311725 0.047887415 -0.16371396 0.031946596
000090 d4 38 a9 3d eb bf 61 bd bf 06 0a be d4 d2 1b be
       0.08262792 -0.055114668 -0.13479136 -0.15217143
0000a0 b4 07 13 3e 51 0a 29 be 63 96 7c 3e ee 20 c2 bc
       0.14358407 -0.16507842 0.24666743 -0.023697343
0000b0 29 89 8a 3d 79 e5 2e 3e fe 4e 3f 3e c7 6a 9e 3d
       0.067644425 0.17079724 0.18682477 0.0773521
0000c0 ee 8d 49 be 16 29 1e 3c 7f bf b7 bd 82 2b 46 be
       -0.19683048 0.00965335 -0.08972072 -0.19352534
0000d0 79 b3 9a bd b6 19 ff 3d 03 fb 41 3d d2 99 70 3e
       -0.07553763 0.12456076 0.047358524 0.23496178
0000e0 56 8c 02 be 2a 4a 03 3e 24 7a 53 3e e1 ee 1e be
       -0.12748846 0.1282126 0.20652062 -0.15520813
0000f0 6b 59 54 3e 6d 1e c5 3d 30 09 ff bc 36 a0 a2 bd
       0.20737235 0.09624944 -0.03113231 -0.07940714
000100 48 d6 1c be 85 38 3e 3e dd 40 80 3d d9 34 22 bd
       -0.15316117 0.18576248 0.06262372 -0.03960118
000110 31 7d 5c 3e b0 2a 18 be 00 0e f4 bd 9e be e0 bd
       0.21532132 -0.14860034 -0.11916733 -0.10973857
000120 93 d5 6b 3e c1 95 45 be 55 26 84 3c f4 e4 56 bc
       0.23030691 -0.19295408 0.01613156 -0.01311611
000130 82 54 01 bd 18 6a 51 be 8b ae ff 3d 4c 76 ea bc
       -0.031574734 -0.20450628 0.12484463 -0.028620861
000140 e7 2c 60 be f5 18 ba bc 93 cd 3f be 01 46 8b 3d
       -0.21892129 -0.022716979 -0.18730764 0.068004616
000150 db d9 e4 3d fd 4a f8 bd 42 94 5a 3e a2 86 0a 3d
       0.11174365 -0.12123678 0.21345618 0.033819802
000160 4c 33 67 be 33 c2 81 3c ad e2 f2 3b c2 9b 06 3e
       -0.22578162 0.015839672 0.0074122758 0.13145354
000170 13 b4 5c be 3b 74 10 3d e8 20 0c be c5 09 22 3d
       -0.21553068 0.035267096 -0.13684428 0.0395601
000180 a4 d2 37 be 78 b5 f2 3c 91 73 56 be a2 4c 9f 3d
       -0.17951447 0.029627547 -0.20942523 0.077782884
000190 90 91 33 3d e1 da 2c 3e 36 49 70 3e 43 ba 96 3d
       0.04383999 0.1688037 0.23465428 0.07359745
0001a0 be fb c1 bd 51 d7 9c bd 09 3f 12 3e 4a 24 0b 3e
       -0.09471844 -0.07658256 0.14281859 0.13588062
0001b0 26 d5 b3 3b 75 4e 25 be 9e 23 0c be 83 40 1f 3d
       0.0054880558 -0.1614321 -0.13685462 0.038879883
0001c0 1b cc c2 3d 5f a8 14 3e 45 19 18 3e c8 9e 3d 3e
       0.09511586 0.14517353 0.1485339 0.18517601
0001d0 f7 09 73 3a f4 4f 25 3e 7f 98 b4 3d 6c 6a 7d 3e
       0.0009271199 0.16143781 0.08818149 0.24747628
0001e0 19 d1 1b 3e 96 45 be 3c da cf bf 3d f0 3c 95 bd
       0.15216483 0.02322654 0.093658164 -0.072870135
0001f0 df bb 59 be 9b 80 aa 3d 60 c9 67 3e 85 8e dc 3d
       -0.21263073 0.08325311 0.22635412 0.10769371
000200 08 81 18 b9 a0 aa 63 be e0 c8 52 be ca 65 bc 3d
       -0.00014543917 -0.22233057 -0.2058444 0.09199102
000210 88 47 94 3d 40 98 1a 3e 48 bf 0b 3e d9 e5 8a bc
       0.07240206 0.15097141 0.13647187 -0.016955303
000220 4c ff 5d be 79 c8 d1 3d a3 e7 48 be 04 97 6d 3d
       -0.2167942 0.10243315 -0.19619612 0.058005348
000230 51 1a ed 3b c4 35 12 3e 37 4e 85 3e 99 da ac 3c
       0.007235803 0.14278322 0.26036236 0.02110033
000240 51 63 15 3e 70 aa 1a 3d c5 cb 1b 3e 9d 0e c0 bd
       0.14588667 0.037760198 0.1521445 -0.09377787
000250 4f 53 58 be be ab 8c bd 96 9e 09 3d e4 18 e6 3d
       -0.2112553 -0.06868695 0.033598505 0.11235216
000260 89 c7 2d 3e 9b 54 0b bc 37 17 ca 3d cc 43 0b 3c
       0.16970648 -0.008504058 0.09867709 0.008500051
000270 2b 23 68 3e ba c9 be 3d da ca a8 3c d9 dc f9 bb
       0.22669666 0.0931582 0.02060454 -0.007625204
000280 54 1a af 3d 08 01 18 bd 2f 67 7a 3e 5f 42 1b 3e
       0.085499436 -0.03711036 0.24453424 0.15162037
000290 e2 88 85 bd c6 77 eb 3d 6b a7 bf bd d0 0e 3f be
       -0.06520249 0.11497454 -0.09358104 -0.18657994
0002a0 a5 6d 52 be c9 16 56 be c5 5d d7 bd b1 ba c6 bd
       -0.20549639 -0.2090713 -0.10515932 -0.09703577
0002b0 4a 62 6b bd ef 23 52 3e 42 bb 35 3d 2c f4 fd 3d
       -0.057466783 0.2052152 0.044368036 0.12400088
0002c0 b6 dd 56 3d b3 8b a1 3d 0e 48 9e bc db 31 4e 3b
       0.052457534 0.07887974 -0.019321468 0.0031462822
0002d0 1d 00 77 3e 82 47 4c 3e 14 f7 98 bb a5 04 85 3d
       0.24121137 0.19949153 -0.004668126 0.064950265
0002e0 59 25 0c 3e bb 0b 03 3e de 82 15 3e ac db a6 bd
       0.13686122 0.12797444 0.14600703 -0.08147368
0002f0 92 8d ce 3d 34 ed 64 3c 0a 79 ae 3d 42 14 75 bd
       0.10085596 0.013972569 0.0851918 -0.059833772
000300 ce 1a 15 3e c1 08 2b be 95 f7 08 3e 6a 6a 7e 3d
       0.14561006 -0.16702558 0.13375695 0.062113203
000310 9a 29 fb 3d 02 53 d2 bb 61 9d f8 bd c9 bf 0f bc
       0.12263794 -0.0064185867 -0.12139393 -0.0087737525
000320 47 37 ff 3d b2 ff 53 3d 2d 43 69 be 59 59 46 be
       0.12461715 0.051757522 -0.22779532 -0.19370021
000330 c2 fd 74 3e a9 16 19 be bd bf 73 bd a8 fd 22 be
       0.23924926 -0.1495005 -0.059509028 -0.15917075
000340 c1 8d c5 3d 77 ab 56 be c8 ab 2c 3e 02 a3 15 be
       0.09646178 -0.20963846 0.16862404 -0.14612964
000350 0c 50 75 be 5b 7b f9 bc a9 4d 90 3d c3 4d c4 bd
       -0.23956317 -0.030454328 0.070460625 -0.09585144
000360 df 70 e6 3d 15 1c 57 be b4 c3 63 3e e1 4b 4d be
       0.11251997 -0.21006806 0.22242624 -0.20048477
000370 37 1d 2f 3d b5 62 82 bd d3 03 d2 bd ae 61 44 3e
       0.04275247 -0.06366483 -0.10254636 0.19177887
000380 37 19 3f 3e cd 84 32 3e 67 d2 32 be 1a 24 4f be
       0.18661962 0.17433472 -0.17463075 -0.20228615
000390 b9 8a 74 be 73 1f db 3d 15 40 8c bc 87 7f fe bd
       -0.23881043 0.10699358 -0.0171204 -0.12426668
0003a0 ad e9 08 be f1 73 01 3e 8b 8e 3a bd 29 98 1b 3d
       -0.1337039 0.12641884 -0.045546096 0.037986908
0003b0 23 1f 4d be 67 69 6d 3e 72 f2 6f bd b3 ba e5 3d
       -0.20031409 0.23184739 -0.058580823 0.11217251
0003c0 cb a0 48 be 71 33 47 3e c9 7b 49 3e de 99 0c be
       -0.19592588 0.19453217 0.19676127 -0.1373057
0003d0 20 ef c8 bd ba de 1e be 8e 7d 6e 3e a5 52 0f 3e
       -0.098112345 -0.15514651 0.23290083 0.1399637
0003e0 ae d6 d2 3d 84 cd da 3d d3 ec 46 be 38 6a f3 bd
       0.10294853 0.1068373 -0.19426279 -0.11885494
0003f0 28 8c 34 be f8 15 9b bd 45 10 93 bd 48 52 15 3e
       -0.1763159 -0.075725496 -0.071808375 0.14582169

lstm_p.weight_hh_l0 f4 [64, 16]
000000 77 54 df bc 53 a8 4e 3c 9d 09 c7 bc c9 5b 84 3e
       -0.027261956 0.012613374 -0.024296576 0.25851277
000010 4f 83 54 3e 78 05 27 be 89 bf 4e 3d da 0b d4 3c
       0.20753215 -0.1631068 0.05047563 0.025884558
000020 8d 40 0b 3e f1 35 6d bd a3 9c ce 3d da f2 d1 3d
       0.13598843 -0.05791277 0.1008847 0.102513984
000030 bc 2b f7 3c b1 2b 40 3e b7 5b 9b 3d 1e 5b 42 3e
       0.030172221 0.18766667 0.075858526 0.18980071
000040 7e 43 30 3e 56 e8 6c be 8b 2d 05 be e8 b4 0f bd
       0.17213246 -0.23135504 -0.13005655 -0.035084635
000050 be 60 1c 3e 66 73 3d be b5 c5 1e 3e fd 5d ce 3d
       0.15271279 -0.18501052 0.15505107 0.100765206
000060 df a8 5d 3d 24 eb 57 3e fd 94 6b 3c 2c de 38 be
       0.054116126 0.21085793 0.014378783 -0.18053502
000070 6f 8f ed 3d 3d d0 67 be 22 8c 67 be 16 cf ab 3d
       0.115996234 -0.2263803 -0.2261205 0.08389108
000080 f3 d4 68 3e cf 1a 70 be 12 e3 2d 3e 18 50 3f 3e
       0.22737484 -0.23447727 0.16981152 0.18682897
000090 0e da 2b be b0 8b 57 be be e2 78 3c 3c 99 25 3e
       -0.167824 -0.2104938 0.015190778 0.16171736
0000a0 6e 85 26 3d 0c a6 2b be 90 54 88 bd 7e 6d ba bc
       0.040654592 -0.1676256 -0.06656754 -0.022757288
0000b0 ae c9 7a 3e 92 ff e5 bd cf a3 30 be ac b3 4a bd
       0.24490997 -0.11230387 -0.17249988 -0.049487755
0000c0 49 0b 0c be 19 79 de bc ee 2c c1 3c 84 8e d4 bd
       -0.1367618 -0.027157353 0.023580994 -0.10378745
0000d0 24 d7 ba 3d 3b 35 71 be 7a 50 21 3e c5 d7 a0 3d
       0.09123066 -0.23555462 0.15753356 0.07853655
0000e0 b4 4f f7 3d e0 bf 8c bd 55 5f 79 3d b1 c9 bc 3d
       0.12075749 -0.06872535 0.06088193 0.09218157
0000f0 73 a0 c7 3c 65 24 bd bd c6 d3 66 bd 7a 09 33 3e
       0.0243685 -0.09235457 -0.056354307 0.17484084
000100 a4 fe 6a 3e b3 01 1b 3c 28 ef 57 be 72 5d 28 3c
       0.229487 0.009460854 -0.21087325 0.010276185
000110 d4 0d 7b be 92 c6 e2 3d 97 65 82 bd 9c b1 87 3d
       -0.24516994 0.110730305 -0.06367033 0.06625673
000120 d0 b5 05 be 11 83 00 3e 57 98 33 be 21 db 26 3e
       -0.13057637 0.12549998 -0.17538582 0.16294529
000130 4b cb 31 3e 22 b0 53 3e 88 e7 f3 3d d8 fb 15 be
       0.17362706 0.20672658 0.119093955 -0.14646852
000140 fb 24 2b bc b9 c4 20 3e 4e 56 15 be c3 5c 3c be
       -0.010445829 0.15700044 -0.14583704 -0.18394761
000150 6f 5d b6 3d 46 2a fe bd 41 8a 64 be 51 bb 26 3e
       0.0890454 -0.12410407 -0.22318365 0.16282393
000160 72 e8 26 3e 2f 92 19 be 74 b1 bc bd 47 09 2e 3d
       0.16299608 -0.14997171 -0.09213534 0.042489316
000170 f6 3f 02 be 7b d4 5f be 6f ab a1 3d b4 ee 86 3d
       -0.12719712 -0.21858399 0.078940265 0.06588498
000180 6a 1a 53 be 06 a0 81 3c 3b 58 5b bb 60 ff 03 be
       -0.20615545 0.015823375 -0.0033469338 -0.12890387
000190 5b 72 4e 3e 2c a6 94 3d c1 df 80 3e 66 22 90 bb
       0.2016081 0.07258257 0.2517071 -0.004398632
0001a0 dc b7 0f be dc 43 2e bc 1a 3d 69 be a0 f5 a7 3c
       -0.1403498 -0.010636296 -0.22777215 0.020502865
0001b0 49 07 5e be 16 89 42 3e 8e aa ff bc 50 09 20 3e
       -0.21682467 0.18997607 -0.031209257 0.15628552
0001c0 2e 0a 41 3e a0 d4 4c be 89 fc 67 3e 60 ea 54 be
       0.1885154 -0.20002985 0.22654928 -0.20792532
0001d0 86 ab 6a 3e 09 90 6f bd b6 e9 b3 3d 15 f0 98 3d
       0.22916993 -0.058486972 0.08784811 0.07467667
0001e0 b3 69 7f 3e 9c cf 45 3e e2 a8 27 3e 02 d6 3d 3d
       0.24942665 0.19317478 0.16373017 0.046346672
0001f0 2a 50 c2 bd 4c b7 4b 3c 7d 1d 2e 3c 98 f7 2c 3e
       -0.09487946 0.012433838 0.010627148 0.16891325
000200 93 e4 43 be 4a 98 2d 3e b5 33 0f 3e 53 55 87 3e
       -0.19130163 0.16952625 0.13984568 0.26432285
000210 f2 37 53 3d af ab 58 3e 3b 5d 41 be 88 04 46 be
       0.051567025 0.21159242 -0.18883221 -0.19337666
000220 8c c9 e4 3c 53 7b d2 3d e6 ea 28 3e 02 05 58 be
       0.027928136 0.102774285 0.16495857 -0.2109566
000230 b7 f6 3a bd 11 87 25 be 6c e7 98 bc 15 3d 4d 3c
       -0.04564544 -0.16164805 -0.018665038 0.01252677
000240 59 39 3c be a4 eb ab bc 8e 2d 2b be 1a b1 c1 bd
       -0.18381251 -0.020986386 -0.16716596 -0.094576076
000250 a4 b0 0a 3d 71 a0 32 3e b4 c8 1e 3d 89 4b 0c be
       0.033859864 0.17444016 0.038765624 -0.1370069
000260 d3 50 27 be 28 e4 86 bd 29 c9 1a 3d bc 56 28 be
       -0.16339426 -0.06586486 0.037789498 -0.16439337
000270 13 49 71 3e 4f 3a ed 3d 8d b6 64 3e 08 31 39 3d
       0.23563032 0.11583387 0.22335263 0.045212775
000280 0a 09 27 be 28 73 2c 3e c9 40 17 be 78 ce 4c 3e
       -0.16312042 0.16840804 -0.14770807 0.20000637
000290 d8 47 5c 3d 18 a8 2c 3e 05 9d 76 be 23 0d cb bd
       0.053779453 0.16860998 -0.24083336 -0.09914615
0002a0 b3 f0 08 3e cf fb 14 be c3 63 5a 3e 69 d6 bd ba
       0.1337307 -0.14549182 0.21327119 -0.0014483455
0002b0 9d 67 50 be 2c 98 dc 3d 2d 50 a5 3c f8 d5 bd bd
       -0.20352025 0.10771212 0.020179832 -0.09269327
0002c0 c7 73 7a bd ae fa 10 3b 78 4e a6 bd a6 76 6a 3e
       -0.06114557 0.0022122073 -0.081204355 0.22896823
0002d0 ff 4b 4a be 42 0b 67 3c c3 fa 0d be 38 07 e1 bc
       -0.19755553 0.014101805 -0.13865189 -0.027469262
0002e0 de 76 f6 bd 2d f2 7b 3e 7b d6 01 be fc 34 54 3e
       -0.12034391 0.24604101 -0.12679474 0.20723337
0002f0 f3 c0 b8 bc 89 4c 81 3a 3c ab 84 bd 0c 7e 39 bc
       -0.022552943 0.0009864728 -0.06477973 -0.011321556
000300 c0 58 91 bd 0b c8 cf bd ab ad 3c be 91 60 64 bd
       -0.07097006 -0.10145577 -0.18425624 -0.055756155
000310 34 69 10 be 7b a5 3c 3d 63 5d 01 bd fe 8e 1f be
       -0.14102632 0.046056252 -0.0315832 -0.15581891
000320 e2 a6 77 be d7 13 01 be da dd 45 3e 43 7b c5 3d
       -0.24184754 -0.12605225 0.19322911 0.09642651
000330 d9 6b 12 3e 07 35 8a bd dd c2 33 3e 9d 88 49 3e
       0.14298953 -0.067483954 0.17554803 0.1968102
000340 93 a2 f4 bd ba f8 05 be e0 03 07 3e 4a 8d 05 3e
       -0.11945071 -0.13083163 0.13185072 0.13042179
000350 28 03 90 bd 08 f4 dd 3d 79 79 f1 3d 8d 9e d5 bd
       -0.07031852 0.10837561 0.11790747 -0.10430632
000360 04 35 43 be dc 84 7f bd d9 7e 2d be f5 22 60 3e
       -0.19063193 -0.062382564 -0.1694292 0.21888335
000370 06 9c 0a 3e 16 ca 74 3e 16 04 1b 3e 08 84 ad 3d
       0.1353608 0.23905215 0.15138277 0.084724486
000380 e9 8d 01 3c 73 ee 47 3e 0d d7 bc 3d 85 2b 12 3d
       0.007907369 0.19524555 0.09220705 0.035686035
000390 e4 2e 26 3e e5 6e 35 3e eb 01 df bd b4 7f 8e bd
       0.16228825 0.17718084 -0.10889038 -0.06957951
0003a0 11 2e 84 bd 49 1d 52 be 69 35 31 be 32 0f 5e be
       -0.06454099 -0.20518984 -0.1730553 -0.21685484
0003b0 a6 57 0b 3d 64 b3 4a bd 6d e9 d1 3d 10 b5 60 3d
       0.034019135 -0.049487486 0.102496006 0.054860175
0003c0 29 83 0e be 6c 21 3e 3d f7 92 55 be 7b 46 c3 3d
       -0.13917221 0.046418592 -0.20856844 0.095349275
0003d0 49 32 30 3e 2c 68 28 be 1d 7d ba 3c 46 67 6b 3c
       0.17206682 -0.16445988 0.022764737 0.014367884
0003e0 55 99 64 3d 03 7f 41 3e 62 65 1e be 06 1d 1d be
       0.05581029 0.18896107 -0.15468362 -0.15343103
0003f0 81 ab e8 3c 52 d6 4b be b0 97 1c be f5 0d 9e 3d
       0.028402092 -0.19905975 -0.15292239 0.07717506

lstm_p.bias_ih_l0 f4 [64]
000000 be 77 55 bb 80 e7 4d be 07 67 40 be 20 6d c7 bd
       -0.0032572593 -0.20107841 -0.18789302 -0.09737611
000010 fa 67 16 3e 8e db 3f bd c2 0c 13 bb 40 43 3f be
       0.14688101 -0.046840243 -0.0022438024 -0.18677998
000020 f7 c2 43 3e 68 a3 81 be 46 61 d8 3d 55 93 8a 3d
       0.19117342 -0.25319982 0.105654284 0.067663826
000030 20 dd 73 3e e9 8c 1c be df 09 20 3e d9 e7 04 3e
       0.23814821 -0.15288128 0.15628766 0.12979068
000040 71 e5 0c be d8 2b 4d 3e c0 1b 27 be 29 ef 38 be
       -0.137594 0.20036256 -0.1631918 -0.18059982
000050 0a 9c 57 be f0 35 52 3e e0 4f 61 3d 5c 67 ad 3b
       -0.21055618 0.20528388 0.055007815 0.0052918624
000060 d5 07 1f 3c 7c 14 38 3e 1a 67 cb bc 17 96 2e 3d
       0.009706457 0.17976564 -0.024829436 0.042623606
000070 f1 63 02 be 59 8c 39 be 48 ec 58 be 3f a0 07 3e
       -0.12733437 -0.18119945 -0.21183884 0.13244723
000080 e1 1f b9 bd cd 7e 02 be ad 1a 30 3e 88 ef 67 3e
       -0.090392835 -0.12743683 0.17197676 0.22649968
000090 08 69 61 3c 5d c5 9d bd a7 94 70 be 57 2f 64 be
       0.013757952 -0.0770366 -0.23494206 -0.22283684
0000a0 ea f7 fd 3d f8 a4 1e be e2 18 5a be a9 15 5b be
       0.124008015 -0.15492618 -0.21298555 -0.21394981
0000b0 da a3 8d bd 1d 31 f9 3d e1 ba 25 3e c4 e8 82 bd
       -0.06916018 0.12167571 0.1618457 -0.06392053
0000c0 78 13 5e 3e da e1 59 3e e9 cb f5 3d b5 72 66 3e
       0.21687114 0.21277562 0.120017834 0.22504695
0000d0 52 d3 7b be 54 30 9f 3d 16 89 55 be 99 ef 51 bb
       -0.24592331 0.0777289 -0.20853075 -0.003203368
0000e0 cd f4 82 3d 3f 36 99 3d 2a 5b f9 bc 9c bf 72 3d
       0.06394348 0.0748105 -0.030438978 0.059264764
0000f0 5e 4f 0f be 61 e8 2e 3e b3 a1 9e bd 1f 67 1c be
       -0.1399512 0.17080833 -0.077456854 -0.15273713

lstm_p.bias_hh_l0 f4 [64]
000000 c3 d4 67 be 37 91 53 bc b6 17 c9 bd 30 c6 9c 3d
       -0.22639756 -0.01291304 -0.098189756 0.07654989
000010 67 9f 89 bc d4 7e 89 3d a3 55 49 be 74 dd 6e 3e
       -0.016799642 0.06713644 -0.19661574 0.23326665
000020 cc 03 14 bc fe 02 4a be ff e2 43 3e f4 de e5 3c
       -0.009034108 -0.19727704 0.19129561 0.028060414
000030 61 2f f8 bb eb 8e 03 be 9a 83 5c bd cc 6d 3b 3d
       -0.0075740074 -0.12847488 -0.053836443 0.045759007
000040 fe 72 0d 3e 96 98 75 be da 94 27 3d b1 a3 53 3d
       0.13813397 -0.23983988 0.04091344 0.05166978
000050 34 08 0b 3e 07 7e c1 3d 20 6f 6e 3d 84 59 58 3e
       0.13577348 0.09447866 0.058211446 0.21127898
000060 6e 66 94 bd d2 7a f9 3c 8b c6 a8 bd 8f 55 62 3d
       -0.072460994 0.030454073 -0.08240994 0.055257376
000070 21 e7 db bd 95 58 b4 3d 83 7c 42 3d f0 c5 11 3c
       -0.10737444 0.08805958 0.047482025 0.00889729
000080 7f 05 69 be f7 12 2b 3e 3d 18 6b be c6 fa 64 3d
       -0.22756003 0.16706453 -0.22958465 0.05590322
000090 67 a0 19 be 10 50 23 be f0 91 34 bc 0f 04 30 be
       -0.15002595 -0.1594851 -0.011021122 -0.17189048
0000a0 9e 44 f5 bd 14 89 20 be 4c be 2f 3e 12 73 cc bd
       -0.11975978 -0.15677291 0.17162436 -0.099828854
0000b0 12 82 a1 3d 89 dd 21 bd bb e5 4e be c4 a8 f5 3d
       0.07886137 -0.039517913 -0.20204823 0.1199508
0000c0 97 3a d8 bd d8 57 14 3e e5 c5 55 be 35 00 84 be
       -0.1055805 0.14486635 -0.20876272 -0.25781408
0000d0 b2 db 9b 3d e9 15 37 bd 6c 7a 22 be 5f 85 78 3e
       0.07610263 -0.04469863 -0.15867013 0.24269627
0000e0 be 36 72 3e fb fb 79 be c2 5f 4f 3e 24 82 0d 3e
       0.23653695 -0.24412529 0.20251372 0.13819176
0000f0 88 6b 8f bd 3d 4e c9 bd 95 00 c6 3d 79 3f 53 bd
       -0.07002932 -0.09829376 0.0966808 -0.051574204

lstm_p.weight_ih_l1 f4 [64, 16]
000000 12 c0 8a bd 63 6b 88 3d 6e 9e 6c 3e 81 8d b9 3c
       -0.06774916 0.066611074 0.23107311 0.022650482
000010 c4 3e 28 be fc 56 c1 3d 7b 90 49 3e 2a 68 67 3e
       -0.16430193 0.09440419 0.19684021 0.22598329
000020 1c c4 59 3e 13 a8 d5 bd d1 bf 16 be e0 54 0b 3e
       0.21266216 -0.10432448 -0.1472161 0.13606596
000030 e5 01 b3 3d 49 23 4a 3e 2d 51 d7 bd b9 62 d3 bd
       0.08740596 0.19740023 -0.1051353 -0.10321564
000040 70 47 86 bd 3f 4e 35 3e 2e 0d be 3d 0e 9f 7c 3e
       -0.06556594 0.1770563 0.092798576 0.2467005
000050 29 47 00 be f3 1e a4 bd 44 23 f6 3d a7 84 6c bd
       -0.12527145 -0.080137156 0.12018445 -0.057743695
000060 1a 63 48 3e 97 72 77 bd 0b 48 23 3e 5f 82 27 3e
       0.19569054 -0.060412016 0.15945451 0.16358326
000070 cc 21 49 3d f4 ae 76 bd d8 31 32 be 98 a6 08 be
       0.049104497 -0.060225442 -0.17401826 -0.133448
000080 89 9d 13 be 61 02 3b be 5b 11 3b 3e 42 ff c8 3d
       -0.14415564 -0.18262626 0.1826834 0.098143116
000090 55 86 c8 bd 81 61 4c 3e 59 d4 13 3c a3 70 19 bc
       -0.09791247 0.1995907 0.009022796 -0.009365234
0000a0 96 38 25 3e df cd 73 3e ce ce 25 3e 8b e2 d8 bd
       0.16134867 0.23809002 0.16192171 -0.10590085
0000b0 50 5b 6d be b8 a4 ef bd d4 3b 8a bd 47 48 f7 3d
       -0.23179364 -0.117013395 -0.067496926 0.12074333
0000c0 79 11 24 3e 23 6b 6a be 00 52 4d 3e 15 2e 6b 3e
       0.1602229 -0.22892432 0.20050812 0.22966798
0000d0 73 0f 9f bd f7 93 59 3e f3 7f 16 3e b2 ed 20 be
       -0.077666186 0.2124785 0.14697246 -0.15715674
0000e0 8b 0f b4 bd c9 dc 43 be d5 2d 69 3e d4 ee 32 3e
       -0.08792027 -0.19127192 0.2277139 0.17473918
0000f0 71 b5 2f 3e f2 93 02 3e c6 92 37 3e 55 eb 2e 3e
       0.17159058 0.12751749 0.17927083 0.1708196
000100 d3 73 35 bd d7 ae a0 bd 79 0d 38 3e f9 24 bf bd
       -0.04429991 -0.07845848 0.1797389 -0.09333224
000110 d2 35 f4 3d a5 92 cf bd 6d 35 44 be df 40 4e be
       0.11924328 -0.10135392 -0.19161005 -0.20141934
000120 dd d6 66 3e 99 51 61 3e ac 99 5d be e4 a2 e0 3b
       0.22542901 0.22003783 -0.21640652 0.0068553556
000130 4a 40 63 3e 91 b4 22 be 3a 04 9e 3c 5a cf 05 3e
       0.22192493 -0.15889193 0.019289125 0.1306738
000140 03 52 0b 3e 71 29 bb bd 71 69 6d bd 30 07 75 3d
       0.13605504 -0.09138764 -0.057961885 0.059821308
000150 72 ec 3b 3d ef d8 59 bd 1b 43 4a 3e d4 e9 0d be
       0.04587979 -0.0531854 0.19752161 -0.1385873
000160 37 ee f2 bd 22 9a 58 3e 4a ee 9d bc fc 98 3e bc
       -0.11861842 0.21152547 -0.019278664 -0.011633154
000170 6e e2 08 3e 6e 17 d5 3d c0 a0 c7 bc 5c e5 d8 3d
       0.13367626 0.104048595 -0.024368644 0.10590622
000180 5f b0 07 3e 08 14 9e bd 8f 99 0d 3e 0f 92 19 3e
       0.13250874 -0.077186644 0.13828109 0.14997123
000190 da 71 79 be 13 e0 15 be 03 11 5f 3e 85 6f 3f 3c
       -0.24359837 -0.14636259 0.21783833 0.011684303
0001a0 87 b0 08 3e 38 94 cc 3d 3b ba b6 bd 00 37 c9 bd
       0.1334859 0.09989208 -0.089222394 -0.098249435
0001b0 5b 75 51 be 68 47 2e be 51 46 7a 3e 28 17 55 be
       -0.20454924 -0.17019427 0.24440886 -0.20809615
0001c0 cc 19 11 3e 49 97 03 3e 74 31 58 3e 37 8f 84 be
       0.14169997 0.1285068 0.21112615 -0.25890514
0001d0 eb 59 da 3d ba 14 e7 3d c4 e1 40 3e 09 68 6a 3e
       0.10661682 0.1128325 0.18836123 0.22891249
0001e0 1a e7 00 3e 1c 91 90 3d 37 06 13 bd 89 1c 66 be
       0.12588158 0.070589274 -0.0358946 -0.22471823
0001f0 d5 40 b8 3d 96 db d5 bd e9 41 1c 3e 73 17 52 be
       0.08996741 -0.10442273 0.15259518 -0.20516758
000200 c2 d5 3d bd 70 64 19 3e 7b 98 27 3d 8c 36 eb bc
       -0.046346433 0.1497972 0.0409169 -0.028712533
000210 c3 b1 a4 3d 3c bf 96 3d 49 48 65 be 55 a5 7b bc
       0.08041718 0.07360694 -0.22390856 -0.015359242
000220 3f 75 d9 3d 6f 24 49 3e 5c 80 03 3e 43 3c 2e 3d
       0.10618066 0.19642805 0.12841934 0.04253794
000230 0c b4 48 3e b1 5d 27 3e 43 39 a2 bd 6c eb e2 3c
       0.19599932 0.16344334 -0.07921078 0.027700149
000240 d1 b6 b3 bd fe c6 e4 bd ed 12 4a 3e 65 53 f5 3d
       -0.08775104 -0.11170767 0.19733782 0.11978797
000250 05 dd 65 3e 64 d5 a9 3d 45 f6 13 be f0 56 41 ba
       0.22447594 0.08292654 -0.14449413 -0.00073753204
000260 85 13 02 3d 09 46 c3 3c f5 a6 5d be de 15 2f bd
       0.031756897 0.023837106 -0.2164572 -0.042745464
000270 59 c6 08 bd ea 87 5a be 5a d8 51 be 93 c2 45 3e
       -0.033392284 -0.2134091 -0.20492688 0.19312505
000280 1d 1b 56 be cf 68 64 3d 26 e7 d0 ba 1c 37 6e be
       -0.2090878 0.055764016 -0.0015938028 -0.2326321
000290 c3 18 4c be d5 58 1b bc 92 7a 68 be 0f ae a2 3c
       -0.19931321 -0.009481628 -0.22703007 0.019858388
0002a0 41 b7 1f 3e 1a 35 ea bd 09 35 4a 3d 27 3a bf bc
       0.1559725 -0.114359096 0.049366985 -0.023343159
0002b0 ed 69 65 3e 87 11 a7 bc 41 c6 b8 bd dc 63 13 bc
       0.22403689 -0.0203941 -0.09022189 -0.008995976
0002c0 91 c8 ef bd f0 e8 0b be a4 cc bd bd a4 c2 8e 3c
       -0.11708177 -0.13663077 -0.09267548 0.017426796
0002d0 ea ea 7a 3e b8 6b 38 be 06 ec 61 3d a0 b1 05 3e
       0.24503675 -0.18009841 0.05515673 0.1305604
0002e0 cd 1b 6c 3e c9 cd 2d 3e 4c 2b 27 3e fd 31 56 be
       0.2305748 0.16973032 0.1632511 -0.20917507
0002f0 61 ce 5b 3e 5e 1c 50 be 67 1f bd 3d ea 4f 6a 3d
       0.21465446 -0.20323321 0.09234505 0.05720512
000300 84 f7 e8 3d 20 4e 81 bb c5 43 cf bc 70 82 fd bd
       0.11375335 -0.003946081 -0.02530087 -0.123783946
000310 11 fc 43 3e 38 93 03 be eb 60 51 be cf 7b 76 3e
       0.19139124 -0.12849128 -0.20447128 0.24070667
000320 2a 79 e0 bd d9 9e 3a be d6 95 22 be 7e 89 08 be
       -0.1096061 -0.18224658 -0.1587747 -0.13333699
000330 26 ca 1b 3e c9 93 5b be e3 69 54 be 18 e7 38 3e
       0.15213832 -0.21443094 -0.20743518 0.18056905
000340 11 10 50 be 48 79 29 be 8a 53 a7 bc 16 c4 60 be
       -0.20318629 -0.16550171 -0.020425577 -0.21949801
000350 96 33 4b 3e 74 26 0f 3e 36 67 6f 3e 6d 2f 26 be
       0.19843897 0.13979512 0.23379216 -0.16229029
000360 fc fa 2f be ee 68 df bd 74 c3 03 3e 29 25 49 3e
       -0.17185587 -0.109086856 0.12867528 0.19643082
000370 1b 4c 34 be b4 4c ca 3d fc 06 11 3e 32 70 5d 3e
       -0.17607157 0.09877911 0.1416282 0.2162483
000380 9c 19 e0 3d ad 09 71 3e 8a 4f 1c be 09 6e fd 3d
       0.109423846 0.23538847 -0.15264717 0.12374503
000390 f5 bc 75 be 0f c4 09 3e 11 07 b4 3c 9b 59 72 be
       -0.23997863 0.13453697 0.021976026 -0.23666994
0003a0 f7 93 df 3a 8c 0a 44 3e 6e 79 49 bb b6 de 01 3e
       0.0017057647 0.19144648 -0.0030742544 0.12682614
0003b0 e9 c2 cc 3d eb fb 3e be 9d 8a 8c bd a7 c3 54 3e
       0.09998114 -0.18650787 -0.06862376 0.2077776
0003c0 a2 73 1a 3e bf 57 22 3e 49 75 b3 3c d3 4f e7 bc
       0.15083173 0.15853785 0.021906512 -0.028236305
0003d0 fa c4 9e 3d d0 0a f7 39 9c b3 c4 bc 18 a5 62 be
       0.07752414 0.00047119567 -0.024011426 -0.22133291
0003e0 53 55 8b bd aa 54 be 3c a4 74 82 3d 52 d2 fe 3d
       -0.06803384 0.02323373 0.06369904 0.12442459
0003f0 14 68 5e 3d b2 1a af bc 78 3f 30 3e 89 a5 c5 3d
       0.054298475 -0.021375034 0.17211711 0.09650714

lstm_p.weight_hh_l1 f4 [64, 16]
000000 a7 95 3d 3e 9a d9 1c be 95 d9 6b 3e d0 40 f3 bd
       0.18514119 -0.15317383 0.2303222 -0.118775964
000010 c0 84 29 bd bc c6 47 be 0d b0 69 3d 9d 94 4e 3e
       -0.041386366 -0.19509405 0.05705266 0.20173879
000020 20 63 b1 bd e4 bb 1d 3e 8d 64 1c bc 1b c9 72 3e
       -0.08661485 0.15403706 -0.009545458 0.23709528
000030 95 6b 0e be e4 e5 5d 3b 90 07 52 3e ab 86 47 be
       -0.13908227 0.003385895 0.20510697 -0.19484966
000040 f4 f0 ed 3d 8d 13 7a be b9 5a 46 3e c1 99 bc 3d
       0.11618224 -0.2442152 0.19370545 0.09209014
000050 26 00 64 3d 32 af 70 be 78 85 80 3e f5 6b 3d 3e
       0.055664204 -0.23504332 0.2510183 0.18498214
000060 ba 64 6a 3e 81 41 5b be 9a c4 68 3e 22 c7 15 3d
       0.22889987 -0.21411707 0.22731248 0.03656686
000070 44 cc 21 3e d0 14 7d be 07 bd f7 bd 8a e7 a4 3c
       0.15800577 -0.2471497 -0.12096601 0.020129938
000080 1a 34 1e 3e 0b 48 66 be 5c 81 12 3e 95 23 09 3e
       0.15449563 -0.2248842 0.14307159 0.1339248
000090 cb ac 40 be 5f 13 63 3e 13 a8 d7 bd 67 92 94 3d
       -0.18815915 0.22175358 -0.105301045 0.072544865
0000a0 22 f2 24 be 06 58 0b be 9b 23 81 bd d9 96 a9 bd
       -0.16107991 -0.13607797 -0.06305619 -0.08280725
0000b0 1d 06 01 3d 12 9a 80 bd 12 b8 17 be 8b 58 61 3e
       0.03149997 -0.062793866 -0.14816311 0.22006433
0000c0 77 e1 e8 ba 1a 3d 50 be 6d 25 5c 3e 9a fe 5b 3e
       -0.0017767389 -0.20335808 0.21498652 0.21483842
0000d0 aa 50 10 be c1 b3 36 3e 2d a9 cd bd f6 b1 4c be
       -0.14093271 0.17842008 -0.10042033 -0.19989762
0000e0 19 9c 7e be cb ed 00 be b3 fd eb 3d ec 89 7c 3e
       -0.24864234 -0.12590711 0.11522999 0.24661988
0000f0 4b 25 64 3e 39 5f 08 bd 02 7e 70 bd e1 5f 1d bb
       0.22279851 -0.033293936 -0.05871392 -0.0024013447
000100 67 2a 6b 3e 50 67 2e be 25 c6 0b be 1b 64 2b 3c
       0.22965394 -0.17031598 -0.13649805 0.010460879
000110 23 5e 77 be a9 fc 12 3e fd 69 17 be a7 52 af bd
       -0.24157004 0.14354195 -0.14786525 -0.085606866
000120 4e 11 f8 bd d7 5a 18 39 00 e2 51 3e 18 cd b5 bd
       -0.121126756 0.0001452969 0.20496368 -0.08877009
000130 d1 b7 e7 bd df ee 00 3e 32 10 30 bd 91 8f ed bc
       -0.11314357 0.12591122 -0.042984195 -0.028999122
000140 c5 9e 4a 3e 34 37 97 3d 55 4c 39 bd 76 3c 5f 3e
       0.19787128 0.07383576 -0.04523881 0.21800408
000150 74 45 7a be a2 65 54 3e 29 50 b3 bd 1e a6 32 3e
       -0.24440557 0.20741895 -0.08755524 0.17446181
000160 e7 fa 9e bd 49 12 55 be 22 57 9c bb e0 30 64 3e
       -0.077626996 -0.20807756 -0.004771129 0.2228427
000170 b1 1e 0a 3d 0a 03 4e be d1 02 38 3e f3 5f 7b 3e
       0.033720676 -0.20118347 0.17969824 0.2454832
000180 5b 05 68 3e 47 ef 03 be 82 ed 2f be bc 9d 7e be
       0.22658293 -0.12884246 -0.17180446 -0.24864858
000190 13 aa 5c bd c4 e1 88 3d 8d 4e 80 be 2c 5b c4 3a
       -0.053873133 0.066836864 -0.2505993 0.0014980785
0001a0 f9 67 14 3d 15 9e 38 3e 5f 20 2a 3e b1 3e cc 3d
       0.03623197 0.18029054 0.16613911 0.09972895
0001b0 b2 64 b5 bc f2 1a 6d 3e 37 e5 b1 bc 9b 3c 68 bd
       -0.022142742 0.2315481 -0.021715743 -0.056698423
0001c0 60 97 fa bd fe 69 8e 3d 4d 66 1a be 49 60 dd 3d
       -0.12235904 0.0695381 -0.15078087 0.108093806
0001d0 2e 14 68 be 13 e1 f4 3c d0 a9 fd bb ac 0d 36 be
       -0.22663948 0.02989248 -0.0077411905 -0.17778653
0001e0 12 de 53 3e b7 6a 4d 3e 1c 65 1b 3e 34 ba 3b 3e
       0.20690182 0.2006024 0.15175289 0.1833275
0001f0 ec a0 95 bc 78 94 1d be 08 b2 86 bd fe 76 20 be
       -0.01826521 -0.15388668 -0.065769255 -0.15670392
000200 d9 81 07 be 48 2c fc 3c c7 b2 c7 bd e3 59 7f 3e
       -0.13233127 0.030782834 -0.09750896 0.24936633
000210 8d b4 2a 3e 4e 79 7e 3e 40 2f e6 3d 2d 55 15 3e
       0.16670437 0.24850962 0.11239481 0.14583273
000220 ac f0 05 be b1 8f 45 3e 15 0d 46 3e 20 89 a5 3d
       -0.1308009 0.19293095 0.19340928 0.08082795
000230 84 16 af 3d 18 1f 5e be 61 cc 8d 3b 98 4a 5b 3e
       0.085492164 -0.21691549 0.0043273424 0.21415174
000240 07 7c d7 bd 28 d6 40 3e 4f 7a 01 be 90 70 2a be
       -0.10521703 0.18831694 -0.12644313 -0.16644502
000250 64 35 16 3e 34 3e 03 3e 2d d8 ac 3d 99 53 d2 bd
       0.14668804 0.12816697 0.0843967 -0.10269851
000260 cd 47 25 3e 4c 11 da bd 22 79 0e 3e 64 86 65 3e
       0.16140671 -0.1064783 0.13913396 0.22414547
000270 bc 1f ec bd df 81 47 3e 74 09 36 3e 38 d0 98 3d
       -0.1152949 0.19483136 0.17777044 0.074615896
000280 f3 fb c1 bd cd 56 64 bd eb 56 1d 3e 44 68 d4 3d
       -0.094718836 -0.055746842 0.15365188 0.103714496
000290 f9 2c 08 bb 9a b1 ba bd 99 fe dc 3c 37 83 79 3e
       -0.002077876 -0.09115906 0.02697687 0.2436646
0002a0 a6 8c 4b 3e ed 46 23 be 0b 04 7d 3e bb ab 1a 3e
       0.19877872 -0.15945025 0.24708574 0.15104572
0002b0 3b 67 80 3e 7c 8a 8a bd 6f df 86 3d 81 f4 4f bd
       0.2507876 -0.06764695 0.06585585 -0.050770286
0002c0 03 84 0b be 2f e9 92 bd 00 ee 18 be 47 51 8f 3d
       -0.13624577 -0.071733825 -0.1493454 0.06997924
0002d0 82 c8 35 bd bb 3d 4c be 6b 76 a8 bd 47 7c e1 bb
       -0.044380672 -0.19945423 -0.082257114 -0.00688127
0002e0 59 f8 fb bd bc 5c 1f be 7e 68 75 be 6d 52 0a 3e
       -0.12303228 -0.15562719 -0.23965642 0.13508005
0002f0 61 f4 0b 3e e0 94 7c be 7d ca 04 3e d1 03 46 be
       0.13667442 -0.24666166 0.12967868 -0.19337393
000300 7c 24 cc bd ce bc 1b be 30 9c 6b bd 0d 46 05 be
       -0.09967896 -0.15208742 -0.057522 -0.13015004
000310 7d b0 43 bc e6 fb 48 3d ad d7 d4 bd e1 71 1a 3e
       -0.011943934 0.049068354 -0.103926994 0.15082504
000320 4d e7 b6 bd 23 7f 7e bd 4e 88 74 3d 6e bd 00 3e
       -0.08930836 -0.062132966 0.059700303 0.12572262
000330 ba bf 30 3e fa 2b d2 3d 81 05 8f 3c de 42 0f bd
       0.17260638 0.10262294 0.01745868 -0.03497588
000340 2a 98 21 be 99 5a 50 3e ff 3b d2 bb 12 cc 3d 3e
       -0.15780702 0.2034706 -0.0064158435 0.18534878
000350 56 26 ef 3d 5d 2d 1e 3e 4a bf 31 be 7b 40 01 3e
       0.11677234 0.15446992 -0.17358127 0.12622254
000360 37 ff 76 3e 2f 7f 64 be e5 c0 32 3e 12 e7 18 be
       0.24120794 -0.22314142 0.17456396 -0.14931896
000370 df 10 10 be a6 cb 67 be 26 02 79 be 6e 5f 30 be
       -0.14068936 -0.2263628 -0.24317226 -0.17223904
000380 6d 89 2f be 80 ba b8 3b 9d 3c f2 bd d2 57 99 3b
       -0.17142268 0.005637467 -0.11827967 0.0046796585
000390 5f cd 1c 3e 3c c5 60 3e ad 52 43 be ba a9 3a 3e
       0.15312718 0.21950239 -0.19074507 0.18228808
0003a0 d9 02 44 bc 0d f4 af bd 09 ab 7e 3e bb 91 54 be
       -0.01196357 -0.08591471 0.24869932 -0.20758717
0003b0 f5 af 15 be 9e c3 db 3d 89 9b d2 3d 9d 94 de 3d
       -0.14617904 0.107306704 0.10283572 0.108681895
0003c0 4b d4 5d be ee 47 28 be 7b ad 23 be 4d 64 2e 3e
       -0.21663015 -0.16433689 -0.15984146 0.17030449
0003d0 99 a8 d7 3d a1 6e e7 bc 7f f0 2b 3e 46 62 69 3c
       0.10530204 -0.028250994 0.1679096 0.014244622
0003e0 2e ea 6e be 76 3b 98 bd aa d4 04 3e c3 9d 5e bd
       -0.2333152 -0.07433216 0.1297175 -0.054349672
0003f0 c5 08 d5 3d 9a 7b 59 3d ef f5 6a bd 20 66 45 be
       0.10402063 0.05309639 -0.057363447 -0.19277239

lstm_p.bias_ih_l1 f4 [64]
000000 32 8b 9c bd 14 c1 b8 3b 5f 02 2b 3d 54 38 6e be
       -0.07643737 0.005638251 0.041750308 -0.23263675
000010 ac b0 77 be af 57 82 3d c6 d7 08 be 6b cb 43 3e
       -0.24188489 0.063643806 -0.13363561 0.19120567
000020 bc f5 6f 3d e1 53 5f 3d d5 6c 75 be 20 1e ad 3d
       0.05858396 0.054523353 -0.23967297 0.084530115
000030 f7 ae 00 bd 6a f8 1f bd 23 df 43 be 21 c6 80 be
       -0.03141686 -0.039055265 -0.19128089 -0.2515116
000040 bf a9 2b 3e af 9f 25 be 80 08 54 3d 0d a4 31 be
       0.16763972 -0.16174196 0.05176592 -0.17347737
000050 f2 65 3f be a6 fe ec 3d 43 15 8c 3d cd f1 ec bd
       -0.18691233 0.11572008 0.06839993 -0.11569557
000060 e0 0b d9 3d 1b c3 1c be 1d b3 2d be 97 8e c6 3c
       0.10597968 -0.15308802 -0.16962858 0.024237914
000070 0c ca d6 3c 7c 93 4c be 32 f3 0f be d7 33 0f be
       0.02621939 -0.19978136 -0.14057615 -0.13984619
000080 19 22 93 bd 8e 24 04 3e f4 dd 61 be 8f 19 36 3e
       -0.07184238 0.1290457 -0.22057325 0.17783187
000090 d5 fe 50 3c 4f 13 c2 bc 78 7b 05 be 3a 8d 57 be
       0.012756069 -0.023690848 -0.13035381 -0.21049967
0000a0 74 09 b1 bd f1 7d fa 3d 32 e4 4c be 83 7d 64 3e
       -0.08644381 0.12231053 -0.20008925 0.22313504
0000b0 49 e3 2a be 02 2b 0d 3e 68 0e 69 be 07 b7 6f be
       -0.16688265 0.13785937 -0.22759402 -0.23409663
0000c0 b1 46 ce bd 9f 2a 3b 3e bc 6e f8 3d d9 d8 13 be
       -0.10072077 0.18277977 0.12130496 -0.1443819
0000d0 95 24 96 3d 4f e0 ff bd 47 c5 62 3e 70 b0 74 3e
       0.07331196 -0.12493955 0.22145568 0.2389543
0000e0 e9 cd a2 3a b9 7e 28 3e b9 e0 b4 bd 88 64 af 3d
       0.0012420985 0.16454591 -0.08831925 0.08564097
0000f0 89 c2 0b 3e c7 b0 ed 3d 9a dc a6 3d 30 7c 6b 3e
       0.13648428 0.11605983 0.08147545 0.22996593

lstm_p.bias_hh_l1 f4 [64]
000000 a6 01 8b 3d 7d 42 26 3e 45 b2 00 3e ca 3b 95 3c
       0.06787424 0.16236301 0.12568004 0.018216986
000010 3e 0c 43 bd 7e 4f 42 3e dc ca 5f 3e af 84 5d 3e
       -0.047619097 0.18975636 0.21854728 0.21632646
000020 fb 4f 7a 3d c6 24 0c 3e 95 2e 12 be 6e 5c 22 be
       0.06111143 0.13685903 -0.14275582 -0.15855572
000030 34 e9 2e 3d 57 6e 50 be 81 70 f5 bd ad f8 0f 3e
       0.04270287 -0.20354591 -0.11984349 0.14059706
000040 00 9a 02 be 3d 45 2c be 6f 27 60 be a7 c4 25 3e
       -0.12754059 -0.16823287 -0.21890043 0.16188298
000050 74 34 2e 3e d5 22 3b 3e fc 46 2a bd 7d 18 fa bd
       0.17012197 0.18275006 -0.041571602 -0.12211702
000060 84 b5 63 3e 53 b9 26 be d7 48 53 3e 5d 55 41 3d
       0.22237211 -0.16281633 0.20633255 0.04720055
000070 61 1f d0 bd 17 21 d0 3d de 44 09 be 00 da a2 3c
       -0.10162235 0.101625614 -0.13405177 0.019879341
000080 4f 14 4a 3e 24 f1 67 bd 46 26 8a 3d 6b 66 2f 3e
       0.1973431 -0.056626454 0.06745581 0.17128913
000090 f5 65 a1 bd 13 4e 1d 3e 64 82 40 3e a9 55 d8 3c
       -0.07880775 0.15361814 0.1879974 0.026408033
0000a0 f1 c0 3e 3e 34 3e 54 3e 46 de 39 be 02 c6 f2 3d
       0.18628289 0.20726854 -0.18151197 0.11854173
0000b0 c9 2a a8 bb e7 a1 ce bd a2 52 45 3e 21 66 d1 3c
       -0.0051320535 -0.10089474 0.19269803 0.025561394
0000c0 e5 fc 89 bc 11 a0 c8 3d ec e0 93 3d e0 a7 b8 3c
       -0.016844222 0.09796155 0.07220635 0.022540987
0000d0 cd 84 e6 3d 57 26 a8 bc 4d 9f 4d be 95 7d d4 3d
       0.112557985 -0.020526094 -0.200803 0.10375515
0000e0 7e b5 48 bd dc 7d fb bd 86 59 18 be f4 a9 f4 3d
       -0.04900121 -0.12279865 -0.148779 0.119464785
0000f0 07 55 c6 3d 1a 01 4e be 6b 41 2a be fc fa 2b bd
       0.096841864 -0.20117608 -0.16626517 -0.041987404

attention_p.attn_1.weight f4 [16, 16]
000000 af 79 86 be a6 a6 2a 3e f2 32 6e 3e d2 0c cb be
       -0.26264712 0.16665134 0.23261622 -0.3965822
000010 72 aa 75 3d 4f 75 e1 bd 79 44 02 bd ed 50 c9 be
       0.059977002 -0.11008703 -0.031803582 -0.39319554
000020 9a 91 9a be c8 a6 ed bd 4a 07 bb 3d 40 3d a3 3e
       -0.3018921 -0.116040766 0.0913225 0.31882668
000030 42 ae c0 3e 60 3a 87 3d bd 7b d4 bd d0 08 cb be
       0.37632948 0.06602931 -0.10375164 -0.3965516
000040 19 93 a0 be e6 08 a0 3e 8f d1 29 3e 81 6b cb be
       -0.31362227 0.3125679 0.16583847 -0.39730456
000050 0d a7 4c be 0c 9d 8d be c1 d9 52 be df 9f 7b 3e
       -0.199856 -0.2765888 -0.20590879 0.24572705
000060 ee 22 29 be 73 0e a5 3e d2 b1 b1 3e f2 be 49 be
       -0.16517231 0.32237586 0.3470598 -0.19701746
000070 6e ef ac bd 77 4f b5 3e 6a 31 64 3e e6 6d 85 3d
       -0.08444105 0.3541219 0.22284475 0.06515102
000080 5b e2 2c bd 53 12 05 be 8a 7f e5 bc e2 27 55 be
       -0.042208057 -0.12995271 -0.028014917 -0.20815995
000090 e2 7e b2 3d 4d ac c5 3e 88 f6 85 bd 86 77 50 3e
       0.08715607 0.38608018 -0.06541163 0.20358095
0000a0 4b c1 d6 3e 8e 50 96 3e 32 85 0b be 38 45 ca be
       0.41944346 0.29358333 -0.13625029 -0.39505935
0000b0 fc 60 71 be 0b d2 ad 3d 25 ff 85 be ef 69 95 be
       -0.23572153 0.08487328 -0.26171222 -0.29182383
0000c0 3a a1 c8 3e cd 54 0d be 18 66 91 be 06 a2 b1 3e
       0.39185506 -0.1380188 -0.28398204 0.34693927
0000d0 8b 1f 82 be 55 7c c7 3e cd 8e 64 3e ad b7 a0 be
       -0.2541469 0.38962045 0.22320099 -0.31390134
0000e0 45 58 92 3e 6f d9 85 3e c0 70 3e bd 15 2b dc be
       0.2858297 0.2614245 -0.046494246 -0.4300162
0000f0 36 8d 9b bd 4d ac d6 3e a2 b0 b2 bd 9d 20 f7 bc
       -0.07595293 0.4192833 -0.08725096 -0.030166918
000100 a4 3d 9c 3e 97 c0 b4 be 0b 5f 48 be 08 7b db 3d
       0.30515778 -0.35303184 -0.19567506 0.10716826
000110 d6 e9 a6 be 37 9c 7e 3e ba f1 68 3e d5 e4 30 3e
       -0.32600278 0.24864279 0.22748461 0.17274792
000120 06 e2 27 be 1d a8 b7 be 0c cd 07 3e f3 84 b4 3e
       -0.16394815 -0.35870448 0.13261813 0.35257682
000130 95 fe 2b 3e e0 13 a6 be 77 7a c0 3e db a4 4f be
       0.16796334 -0.32437038 0.37593433 -0.20277731
000140 d9 4e d6 be f9 3a 61 3d a2 90 9e 3e 65 db c4 3e
       -0.4185703 0.05498788 0.3096972 0.38448635
000150 2d 57 0f be 00 58 9a be 79 4e 8f 3c 4a 45 23 be
       -0.13998099 -0.30145264 0.017493473 -0.159444
000160 cb f5 b9 bc d2 97 e1 3d 03 f4 e1 3d ab 4c 5a be
       -0.022700211 0.110152856 0.1103287 -0.21318309
000170 14 63 94 3d a3 12 04 3e 2c 3a a3 be 72 29 a0 3d
       0.0724546 0.12897734 -0.3188032 0.07820405
000180 95 25 bd 3e c6 66 28 be 1c 57 48 3e 90 ae 16 3e
       0.36942735 -0.16445455 0.1956448 0.14715028
000190 48 f5 9c 3e ca 34 8b 3e d2 19 98 be a3 33 16 be
       0.30655885 0.27188712 -0.297072 -0.14668135
0001a0 4e 60 80 bd 27 d4 50 be 1b 55 a9 3e 84 27 ff bc
       -0.06268369 -0.2039343 0.33072743 -0.031146772
0001b0 15 93 e6 bd 7e 66 af 3e 3e b0 31 be eb 21 96 be
       -0.112585224 0.34257883 -0.17352387 -0.29322752
0001c0 6b 0a 49 3e ab 4d ad 3e d8 26 bb 3b d6 1c a7 be
       0.1963288 0.33848318 0.0057114176 -0.32639188
0001d0 55 f4 2d 3c 90 a9 d0 3e 6a fe 40 bd ae a0 8b 3e
       0.010617335 0.40754366 -0.04711763 0.27271026
0001e0 10 0f 53 3e a5 31 7c bd 7d 9a 10 3d d4 8b 77 bd
       0.20611215 -0.061570782 0.03530358 -0.060436085
0001f0 29 82 9d be 3b a8 68 be 68 42 89 3e 97 f2 86 be
       -0.30763367 -0.22720425 0.26808476 -0.26356956
000200 23 e1 55 be 3b cf 80 be 7a 89 dd 3e 6c 10 f7 bd
       -0.20886664 -0.25158104 0.4326895 -0.12063679
000210 9b 33 7c be 61 d9 bb 3e 14 19 29 3e d1 f3 c8 be
       -0.24629061 0.36689284 0.16513473 -0.39248517
000220 94 60 da 3e e5 be 67 3e 0b ad ee 3d 53 ef 2c bd
       0.42651808 0.22631414 0.11654099 -0.042220425
000230 da 6c fd 3d 9f 7b 20 be a6 26 8d 3e 6e a8 dc 3d
       0.123742774 -0.15672158 0.2756855 0.10774313
000240 81 3e bc 3e 8b af ea 3d f7 fb 66 bd 29 e8 48 3e
       0.36766437 0.114592634 -0.056392636 0.19619812
000250 a7 5c 1a bd 6b 69 fa 3d da ac a3 3d b6 e3 b2 3e
       -0.037686016 0.12227138 0.07991953 0.34939355
000260 05 df 9e be 78 1c 65 bc 7a a5 58 be ed fe 9d 3e
       -0.31029525 -0.013983838 -0.21156874 0.30858555
000270 0c 84 23 be 3a 50 6e 3e 7c 4d 62 3e 6f 77 e3 bd
       -0.1596834 0.23272792 0.2209987 -0.111067645
000280 39 e2 ee bb 05 b2 8e 3e 9d b6 98 be d1 4c d3 3e
       -0.0072901514 0.27870193 -0.29826823 0.41269544
000290 9e 77 fb bd 5a ba ed bd ee 9e 82 3c dd 66 85 3b
       -0.122786745 -0.11607809 0.015944924 0.0040711
0002a0 05 86 a3 be 33 13 8a bc 16 3a 95 3e ec bc 44 be
       -0.31938186 -0.016854858 0.2914588 -0.19212693
0002b0 0b 88 90 3e b2 25 d4 be 1b 0c b4 3e c7 41 a8 be
       0.28228793 -0.4143501 0.35165486 -0.32862684
0002c0 19 72 92 be 09 8f 36 be a3 6b 44 be c6 4a c9 bd
       -0.28602675 -0.17828001 -0.19181685 -0.09828715
0002d0 9a ea 80 be 9e 02 6a 3e 1f 70 88 bd 6c b5 cb 3e
       -0.25178987 0.22852561 -0.066620104 0.3978685
0002e0 fc b0 cb 3e ab 77 ba be e5 2c 59 3e fe 94 a9 3e
       0.39783466 -0.36419424 0.21208532 0.33121485
0002f0 d4 5f 21 3e 43 34 24 3c 6e 72 8d be bc 18 db 3e
       0.15759212 0.010022226 -0.27626365 0.42792308
000300 a4 d4 0b 3e 3f 4f ae 3e 0a 3d ba bd 9e 6b 2c 3e
       0.13655335 0.34044835 -0.090936735 0.16837928
000310 85 5e 76 be e7 a6 ca be 74 38 63 3b b6 8b d1 3e
       -0.24059494 -0.3958046 0.00346711 0.40926903
000320 c3 89 64 3d f5 a0 de be 96 91 75 bc 90 67 75 3e
       0.055795442 -0.43482175 -0.014988324 0.23965287
000330 c8 0f a5 be 55 42 d6 3e 9d 38 72 3e ca b6 35 be
       -0.32238603 0.41847482 0.23654409 -0.1774551
000340 13 e8 2a 3e 3a c9 8e 3e 8f 38 a1 3e 70 35 78 bb
       0.16690092 0.278879 0.31488463 -0.0037873648
000350 b5 7f ae bd 78 35 61 3e 44 d6 ff 3d 73 0e 09 be
       -0.08520452 0.21993053 0.1249204 -0.13384418
000360 75 f9 29 3d 19 6d a4 be 6b 0b bf be 32 ce b3 3e
       0.041497666 -0.32114485 -0.373134 0.35118252
000370 60 e1 d3 be 6c de 89 be f6 30 c3 be 5c 67 01 3e
       -0.41382885 -0.26927507 -0.38123292 0.12637085
000380 b3 80 95 3e 9c fe 6c bd f1 7b b1 3e db b8 d4 3e
       0.29199752 -0.057860002 0.34664872 0.41547284
000390 31 0d 54 bb 41 a0 c2 be 1a 99 7a be ed 2c c4 bb
       -0.0032356496 -0.3801289 -0.24472466 -0.005986801
0003a0 0a f0 09 be af 2a 97 be 81 2d ef bd b1 01 a9 bd
       -0.13470474 -0.29524752 -0.11678601 -0.08252276
0003b0 2e c6 90 be 3e 7e b7 be ea ea aa 3e 25 18 b4 bd
       -0.282762 -0.35838503 0.3338235 -0.08793668
0003c0 ca 64 95 3d 96 9a 48 be 62 ce af be 6e 4e 93 bd
       0.072946146 -0.1959022 -0.34337145 -0.07192694
0003d0 96 db 99 3e 5a 43 cb 3e 9e 74 4d 3d 78 3c 8c be
       0.30050343 0.39699823 0.050160043 -0.27389884
0003e0 a1 be 07 be 91 2c 4c be e9 76 95 bd af 6f 42 ba
       -0.13256313 -0.19938876 -0.07298071 -0.0007417155
0003f0 e8 59 e3 bd dc 36 31 be 51 a7 88 be 89 8c b6 bd
       -0.11101133 -0.17306083 -0.26690152 -0.08913524

attention_p.attn_1.bias f4 [16]
000000 2e a9 8e 3a a2 87 f6 b9 e4 28 98 3a b5 2d e0 39
       0.001088416 -0.0004702183 0.0011608866 0.00042758664
000010 8c 7b 37 bb bc 41 5b bb ed f0 e3 bb 15 4a 1e 3b
       -0.0027997224 -0.0033455929 -0.006956211 0.0024153043
000020 8d 27 0c 3a d2 f8 ae 37 87 92 7b bb a5 9f eb ba
       0.00053464697 2.0858282e-05 -0.0038386898 -0.0017976655
000030 0e 61 26 3b f5 a6 de b9 7d 30 29 bc 5e 50 2e bb
       0.002538744 -0.00042467532 -0.010326502 -0.0026598196

attention_p.attn_2.weight f4 [1, 16]
000000 9f 44 e2 be 56 e3 bb be dd 06 fb 3d 16 41 22 be
       -0.4419298 -0.3669688 0.122571684 -0.15845141
000010 53 01 74 be f2 be 49 3c 2f 71 b6 3e b4 79 81 be
       -0.2382863 0.012313591 0.35633227 -0.25288165
000020 04 1f 87 3e 8c 50 c1 be d6 75 98 3e 19 2d 40 be
       0.2639085 -0.37756765 0.29777402 -0.18767203
000030 83 50 82 3e dd c8 da 3e 8f 17 02 be 55 79 95 be
       0.2545205 0.42731372 -0.127043 -0.29194131

lstm_t.weight_ih_l0 f4 [64, 7]
000000 0c d5 32 be 76 05 7f bd 48 a3 82 3b 72 02 7b bd
       -0.17464083 -0.062261067 0.00398675 -0.06128163
000010 f3 bf 4f 3e ea 44 48 be cb 16 50 3e e1 7c 0d bb
       0.20288067 -0.19557539 0.20321195 -0.0021589326
000020 06 14 69 3e d8 80 7d 3d 49 fe 53 be 2b 17 68 3e
       0.22761545 0.061890453 -0.20702471 0.22665088
000030 3d 83 7b 3d 14 52 e4 3d 9c 8f 2d 3e 95 51 52 bd
       0.061404455 0.11148468 0.16949314 -0.051347334
000040 1c c6 15 3d 5c c1 c1 bd ae c3 e5 3d fb ed 0e bc
       0.036565885 -0.094607085 0.112189636 -0.008723731
000050 10 73 8c 3d f1 2f 0f be ba 01 01 be 94 e2 f4 bd
       0.06857884 -0.13983132 -0.12598315 -0.11957279
000060 8a c9 17 be c0 08 4b 3e 3f 18 31 be d0 33 24 3e
       -0.14822975 0.19827557 -0.17294405 0.1603539
000070 21 5b 4c be a6 32 52 3e 7d a7 7f be 5c 0f 34 3e
       -0.19956638 0.20527133 -0.24966235 0.17583984
000080 b2 f1 5d 3c 32 e3 6e bd 1e 5d 00 be b2 1f 21 3e
       0.013546394 -0.05832214 -0.12535521 0.15734747
000090 e1 6f 67 3d ef 69 d7 3d ce ba 7e 3d 48 d1 04 3d
       0.05650318 0.10518252 0.06218987 0.03242615
0000a0 40 11 4c 3e 3c ed cc 3d 19 5c 47 3e 0f b0 3e be
       0.19928455 0.10006186 0.19468726 -0.18621849
0000b0 95 bc 39 bd 78 39 68 bd c5 60 ae 3d fb 96 4e 3d
       -0.04534586 -0.05669543 0.08514551 0.050436955
0000c0 19 32 1b be 7d c1 da 3d a4 ed fb bc 3e 7a 31 be
       -0.1515583 0.10681436 -0.030752964 -0.17331788
0000d0 36 45 71 3e b5 57 34 be 35 a4 dc bd 26 e5 63 3e
       0.23561558 -0.17611583 -0.107735075 0.22255382
0000e0 5c 87 92 bd 69 3a 10 3e 3d b1 a4 bd ee 48 d0 bd
       -0.07154724 0.14084782 -0.08041618 -0.1017016
0000f0 72 11 71 3e fa ee 6c be 8b 7b 09 3d b6 3e a7 3c
       0.23541811 -0.23138037 0.033565085 0.020415645
000100 7a f5 31 be 60 3b 18 3d 0e 3a a7 bd 37 5e 9f 3d
       -0.17378798 0.037166 -0.0816537 0.07781642
000110 be a2 f8 bd 73 79 27 be 9d 68 5a be b0 3a a3 3d
       -0.121404156 -0.16354923 -0.2132897 0.07970178
000120 92 ef 8e 3c 8b 23 85 bd 10 75 40 be b5 15 96 39
       0.01744822 -0.0650092 -0.18794656 0.00028626402
000130 86 ea 50 be c3 67 10 3d 84 c6 50 bd f0 49 15 be
       -0.20401964 0.035255205 -0.05097057 -0.14578986
000140 b1 2d b0 3d 91 90 40 be 7b 37 71 bc a3 0e ff 3d
       0.08602465 -0.18805148 -0.0147227 0.124539636
000150 53 b9 45 3e 8e a7 c1 bd c0 b2 5c be f1 f2 2d 3e
       0.19308977 -0.09455787 -0.21552563 0.16987206
000160 2a e3 b7 3c b3 a8 76 be ac 0a 00 bc f0 9a 94 3c
       0.022447187 -0.24087791 -0.007815044 0.018140286
000170 47 2a 87 bd 27 ec 28 3e 23 ba 50 3d 83 1e 0a be
       -0.06599861 0.16496335 0.050958764 -0.13488202
000180 87 05 d8 bc d7 87 bf 3b 14 6d 05 be e9 8e f1 bd
       -0.026369823 0.005845051 -0.13029891 -0.11794836
000190 e7 e3 cc bc cd 19 ba bc 12 c5 2f be 3a bb 4b 3e
       -0.025011016 -0.02271738 -0.1716502 0.1989564
0001a0 c5 3e 7d 3e da 6b 3a be 4e a1 12 3e 50 f4 39 be
       0.24730976 -0.18205205 0.14319345 -0.18159604
0001b0 06 95 8c 3d e3 6e 80 3e 54 84 36 3d 20 2b 3e be
       0.068643615 0.250846 0.04455979 -0.18571138
0001c0 00 33 c6 bc 7b cf 3c be ea 0e 46 be f5 4e 59 bd
       -0.02419424 -0.18438523 -0.19341627 -0.053053815
0001d0 78 5d 24 be 07 26 ad 3d 08 3a 76 3d bc cd 80 be
       -0.1605128 0.08454519 0.060113937 -0.25156963
0001e0 73 f0 36 bd d4 0d 69 3e 9e c3 3f 3e 68 28 15 3e
       -0.044662904 0.22759181 0.18726966 0.14566195
0001f0 b3 5f b9 3d 60 fb 41 be d6 eb 55 3e bd d0 7f 3e
       0.09051456 -0.18943548 0.20890746 0.24981971
000200 03 de 4c bd 75 ed 53 be 2d 61 57 bd 17 96 a8 bc
       -0.050016414 -0.20696051 -0.05258291 -0.02057938
000210 20 79 25 3e c5 bf 08 3e d1 20 66 be 07 7d 12 be
       0.16159487 0.13354404 -0.22473456 -0.14305507
000220 cb f5 40 3d 3a 14 46 3e df 6a 0c bc 16 09 76 be
       0.047109406 0.19343653 -0.008570402 -0.24026904
000230 79 71 01 3e 9d 9c 80 bd 6f 0b 8c 3d 03 0b cf 3d
       0.12640943 -0.062798716 0.06838118 0.10109522
000240 25 8b fe 3d d9 d3 dc 3c 99 53 a7 3d 6a fb cf 3d
       0.124288835 0.026956486 0.08170242 0.10155375
000250 5c c4 df bd 37 b9 63 3d a4 e3 30 3e 82 b1 32 be
       -0.109261245 0.055596557 0.17274338 -0.17450526
000260 07 d3 6e 3d de a4 50 3e e4 0b c0 3d 2c 7a fc bd
       0.05830672 0.20375392 0.09377268 -0.1232799
000270 ce e7 81 3d b1 87 b7 ba ff 44 4f 3e bd f2 1b be
       0.06343041 -0.0014002231 0.20241164 -0.15229316
000280 20 dd f4 3d ea 9a 6f 3c 33 66 be 3c b4 12 bb bb
       0.11956239 0.014624337 0.023242092 -0.0057090167
000290 1d 88 5b be 06 a8 c4 3d bf f4 1f be e9 00 73 3e
       -0.21438642 0.096023604 -0.15620707 0.23730816
0002a0 4e 03 d5 3d f6 c9 02 be e4 92 41 3e f1 f1 2b 3e
       0.10401021 -0.12772354 0.1890369 0.16791512
0002b0 6d 5b 72 3e 93 0d 0f 3e 81 df 4d 3d c1 b2 ef bd
       0.23667689 0.13970022 0.050261978 -0.117040165
0002c0 22 7b 67 3e 86 ec 08 3e 42 78 09 3e b6 c2 71 3e
       0.22605565 0.13371477 0.13424781 0.23609433
0002d0 0d 1b 36 3e 0c 1b f8 bd b7 ad 4b 3e 7f 0e f5 3d
       0.17783757 -0.12114534 0.19890486 0.119656555
0002e0 63 a0 ac bd cc 55 47 3e 22 e4 cc bd 85 4b 9b bd
       -0.08429029 0.19466323 -0.100044504 -0.075827636
0002f0 4a a9 6a 3c 89 8e 35 3c 78 25 30 3e a1 a1 0d be
       0.014322588 0.011081346 0.17201793 -0.13831188
000300 f8 ab 7b be 26 53 a6 3d 25 2e 2f be 46 de 61 be
       -0.2457732 0.08121328 -0.17107446 -0.22057447
000310 b5 91 5b be 87 e0 41 be 16 64 a8 bd e6 da 23 be
       -0.21442302 -0.18933307 -0.08222215 -0.16001472
000320 0b 0f 30 3e 11 7a e0 bd 25 30 31 3e 3a dc fa bd
       0.17193238 -0.10960782 0.17303522 -0.12249036
000330 43 45 13 3e 0b d9 cc 3c af ee 73 be 43 e2 c5 bd
       0.1438189 0.025005838 -0.2382152 -0.096622966
000340 69 a9 74 3e 16 cb 69 3e 91 80 31 3e 6f 87 52 3e
       0.2389275 0.22831377 0.173342 0.20559476
000350 82 55 67 3d e3 73 45 be d4 12 ac bd 72 7f 51 be
       0.05647803 -0.19282489 -0.08402029 -0.20458773
000360 e5 f5 ff 3d e6 9c 06 3e 56 15 cf 3d 52 c8 5f 3e
       0.124980725 0.1314579 0.101114914 0.2185376
000370 6a 25 c2 bc 47 44 0e 3e 8e 22 6f bc 7f 3f 16 bd
       -0.023699481 0.13893233 -0.014595641 -0.03668165
000380 c3 b6 1d be e5 24 24 be 6e 82 ff 3c 4b 93 07 be
       -0.1540175 -0.16029699 0.031190123 -0.13239782
000390 fa 18 0d 3d ca 12 e8 bd 51 43 f6 bc 3f d2 4c be
       0.034447648 -0.11331709 -0.030061396 -0.20002078
0003a0 e2 e3 3b be 06 55 e7 3d ad 55 44 3e 40 19 0a bd
       -0.18348649 0.11295514 0.19173308 -0.033715487
0003b0 f4 20 32 3d 1d 76 83 3d 30 f6 40 3e f5 c7 88 bc
       0.043488458 0.06419013 0.18843913 -0.01669691
0003c0 08 63 7b 3e 37 e4 cf 3c 87 f1 24 3e 2a 8f 4c bc
       0.24549496 0.025377376 0.1610776 -0.012485305
0003d0 e3 3a d5 bd de 8b fc bb ed 77 57 be 2f 95 47 3d
       -0.104116224 -0.007707103 -0.21041842 0.048726257
0003e0 be 37 41 bd ec b9 a4 3d 76 17 68 be eb 0e 49 3e
       -0.0471723 0.08043274 -0.226652 0.19634597
0003f0 49 89 09 bd 01 ce c2 bc 84 b8 2a 3d 35 13 5f 3e
       -0.03357819 -0.023779871 0.041679874 0.2178467
