Params/5_0.001_10_16_222_model.pt (torch, 45257 bytes, 31 tensors)

lstm_p.weight_ih_l0 f4 [64, 10]
-0.100421354 -0.10498157 -0.0451264 -0.012625301 0.2282569 -0.11918957 0.08417209 0.18210292
-0.07149851 -0.0811974 0.115954414 0.040065866 -0.0007100553 0.24469166 0.008210666 -0.1196923
0.0008956921 0.058193322 0.06466835 0.09906758 0.02270866 0.03244637 -0.2033175 0.17785473
-0.15306254 -0.09637574 0.07697034 -0.04578061 0.15910497 0.08891484 0.216468 0.06904842
0.06230065 0.04648014 -0.15931721 0.03395584 0.084911294 -0.05270822 -0.13249214 -0.14809938
0.14089742 -0.17516625 0.2439691 -0.025261922 0.0658992 0.1669781 0.18279362 0.07137748
-0.20354818 0.0023049852 -0.09880178 -0.20762154 -0.08384668 0.12408953 0.036441293 0.22719537
-0.13481754 0.12348037 0.20311084 -0.15811516 0.21727051 0.10009658 -0.020539287 -0.074933134
-0.1407892 0.19785954 0.07484302 -0.028300403 0.22556269 -0.13892892 -0.123796746 -0.11532106
0.2250923 -0.1956348 0.011546161 -0.018765472 -0.037758764 -0.21197447 0.11712992 -0.036450114
-0.21679592 -0.018721122 -0.18482 0.06735675 0.114161626 -0.11794998 0.21721148 0.03884166
-0.22045356 0.021214733 0.00479311 0.12729725 -0.2183021 0.035452817 -0.1401288 0.035707977
-0.1835698 0.024297105 -0.21515603 0.07198827 0.04128054 0.18556291 0.23324847 0.070796795
-0.0977457 -0.07974297 0.13847053 0.1330509 0.003727049 -0.1623498 -0.14188272 0.0345603
0.0889347 0.14139943 0.14427638 0.17975233 -0.005205451 0.1539764 0.08055522 0.23957717
0.15657151 0.02796666 0.098466635 -0.071085766 -0.20856169 0.08810983 0.23192172 0.114284515
0.0065633617 -0.21584943 -0.2094269 0.09049897 0.06683555 0.14335448 0.1318872 -0.021268524
-0.22165096 0.096307024 -0.20232137 0.051982235 -0.014559286 0.13637853 0.23574352 -0.0048066094
0.13048129 0.021008937 0.1355813 -0.10988988 -0.22594799 -0.08422376 0.032148656 0.11888908
0.16896932 -0.0089126155 0.09088157 0.0013460706 0.21802075 0.08625547 0.015966354 -0.010981443
0.06893207 -0.05915423 0.22818483 0.13789234 -0.07779902 0.10057681 -0.109239966 -0.2029188
-0.22186716 -0.22613633 -0.10372726 -0.097787105 -0.055897024 0.20805168 0.045414984 0.12564057
0.05468883 0.082173035 -0.015568242 0.0069566015 0.24354525 0.19646153 -0.00092752185 0.07789929
0.14130867 0.1322796 0.149394 -0.079101235 0.10286945 0.015914304 0.091826245 -0.051390734
0.15018786 -0.16757739 0.14465697 0.07101262 0.13079496 0.0014530221 -0.11429104 -0.0021917885
0.12553748 0.05821874 -0.22868234 -0.20131616 0.24257094 -0.14845257 -0.059379082 -0.16113932
0.093391694 -0.21339071 0.16127832 -0.15604332 -0.24568206 -0.035216138 0.060801663 -0.10464274
0.10428519 -0.21680483 0.21738324 -0.20504844 0.053706486 -0.05211656 -0.09281273 0.1989887
0.19749455 0.18590996 -0.16083458 -0.18896218 -0.2265251 0.11854972 -0.018294128 -0.12164771
-0.13525522 0.121274166 -0.046623245 0.035707965 -0.2033596 0.2274186 -0.06361883 0.10705967
-0.19654593 0.19137973 0.19623296 -0.13494289 -0.09827812 -0.15441804 0.23424935 0.14259674
0.10626597 0.11022168 -0.1938891 -0.11622311 -0.17592841 -0.07828144 -0.072701015 0.14430988
00000000: b6a9 cdbd 9400 d7bd 76d6 38bd 5ada 4ebc
00000010: 2dbc 693e a919 f4bd 6b62 ac3d 3079 3a3e
00000020: d06d 92bd d34a a6bd 8279 ed3d 1b1c 243d
00000030: 0123 3aba 7390 7a3e 0786 063c 3d21 f5bd
00000040: e1cc 6a3a 1f5c 6e3d d770 843d f2e3 ca3d
00000050: 8307 ba3c 7ce6 043d 7632 50be 8d1f 363e
00000060: 6dbc 1cbe a560 c5bd a0a2 9d3d 7384 3bbd
00000070: 6aec 223e fc18 b63d caa9 5d3e 4269 8d3d
00000080: f72e 7f3d f661 3e3d 0d24 23be 4715 0b3d
00000090: f9e5 ad3d 93e4 57bd 05ac 07be 5da7 17be
000000a0: 6a47 103e c85e 33be 09d3 793e 17f2 cebc
000000b0: 29f6 863d 4ffc 2a3e 402e 3b3e 5b2e 923d
000000c0: ef6e 50be 3c0f 173b 9658 cabd be9a 54be
000000d0: cfb7 abbd a722 fe3d 7743 153d e7a5 683e
000000e0: 9c0d 0abe 47e3 fc3d 4afc 4f3e f1e8 21be
000000f0: 297c 5e3e 70ff cc3d 0242 a8bc 8b76 99bd
00000100: 0b2b 10be b19b 4a3e 4c47 993d 3fd6 e7bc
00000110: e8f9 663e 6243 0ebe 2689 fdbd 732d ecbd
00000120: 997e 663e 7d54 48be 1c2c 3d3c 0cba 99bc
00000130: efa8 1abd d60f 59be d0e1 ef3d b74c 15bd
00000140: c0ff 5dbe 0a5d 99bc 7441 3dbe 56f2 893d
00000150: 92cd e93d c28f f1bd b06c 5e3e 6f18 1f3d
00000160: 94be 61be 85ca ad3c 850f 9d3b 365a 023e
00000170: 968a 5fbe f936 113d ed7d 0fbe 8742 123d
00000180: b9f9 3bbe b90a c73c dd51 5cbe 966e 933d
00000190: c915 293d 3404 3e3e b0d8 6e3e e9fd 903d
000001a0: e62e c8bd 4850 a3bd 38cb 0d3e 7f3e 083e
000001b0: 8241 743b 073f 26be b449 11be 1a8f 0d3d
000001c0: 6523 b63d 03cb 103e 30bd 133e ff10 383e
000001d0: 7d92 aabb fdab 1d3e 23fa a43d b853 753e
000001e0: 4854 203e 561a e53c e0a8 c93d 6a95 91bd
000001f0: 3291 55be ed72 b43d e37c 6d3e 000e ea3d
00000200: 7811 d73b a207 5dbe 0174 56be 8657 b93d
00000210: 14e1 883d 84cb 123e 700d 073e 543b aebc
00000220: 78f8 62be 9e3c c53d 552d 4fbe 53eb 543d
00000230: 128a 6ebc d0a6 0b3e c066 713e c380 9dbb
00000240: e39c 053e ef1a ac3c d3d5 0a3e f20d e1bd
00000250: e95e 67be 827d acbd 4fae 033d 1e7c f33d
00000260: 4b06 2d3e 3806 12bc 1e20 ba3d a26e b03a
00000270: d540 5f3e b5a6 b03d dfcb 823c 83eb 33bc
00000280: 422c 8d3d b54b 72bd 49a9 693e a633 0d3e
00000290: 1855 9fbd 37fb cd3d 34b9 dfbd f2c9 4fbe
000002a0: 2531 63be 4890 67be f56e d4bd 9b44 c8bd
000002b0: 47f4 64bd 800b 553e 1005 3a3d eca7 003e
000002c0: 6501 603d 564a a83d f111 7fbc 34f4 e33b
000002d0: ed63 793e 362d 493e f024 73ba aa89 9f3d
000002e0: 38b3 103e 4e74 073e befa 183e d4ff a1bd
000002f0: 38ad d23d b75e 823c 660f bc3d 177f 52bd
00000300: d9ca 193e 6899 2bbe f520 143e 116f 913d
00000310: 1def 053e 5573 be3a 6c11 eabd 1ca4 0fbb
00000320: e68c 003e c676 6e3d b42b 6abe d325 4ebe
00000330: 8464 783e f303 18be 7b37 73bd b501 25be
00000340: 2544 bf3d 1883 5abe 2526 253e d2c9 1fbe
00000350: 1494 7bbe cc3e 10bd 2a0b 793d ef4e d6bd
00000360: 7993 d53d 1602 5ebe b699 5e3e 38f8 51be
00000370: 55fb 5b3d 2d78 55bd 9a14 bebd b2c3 4b3e
00000380: 033c 4a3e 2e5f 3e3e d2b1 24be 4d7f 41be
00000390: 32f6 67be 32ca f23d 91dd 95bc 6f22 f9bd
000003a0: 5880 0abe 975e f83d 04f8 3ebd 8442 123d
000003b0: 803d 50be 6ce0 683e 974a 82bd 1a42 db3d
000003c0: 5643 49be 0cf9 433e 4bf1 483e 782e 0abe
000003d0: 0a46 c9bd c31f 1ebe 10df 6f3e e104 123e
000003e0: f9a1 d93d e7bb e13d dd8a 46be 6206 eebd
000003f0: 9426 34be 0552 a0bd 45e4 94bd f8c5 133e

lstm_p.weight_hh_l0 f4 [64, 16]
-0.019649383 -0.0038576226 -0.011794539 0.25321883 0.21951966 -0.15830903 0.0524383 0.03772019
0.14907704 -0.046898898 0.10857246 0.119078405 0.016847074 0.19931243 0.07348856 0.20290802
0.18373933 -0.2281593 -0.13441002 -0.039612092 0.1513063 -0.18115987 0.16216841 0.09878343
0.05337626 0.20997022 0.017741352 -0.18321227 0.117024325 -0.22745028 -0.22086997 0.08537604
0.2031914 -0.2368761 0.16866772 0.18816566 -0.16560535 -0.20486403 0.0047254968 0.1613267
0.039839953 -0.16991128 -0.07299094 -0.023120381 0.24420778 -0.115579404 -0.18465646 -0.042121463
-0.13517755 -0.032693096 0.027704837 -0.10427643 0.10692699 -0.22832221 0.16065225 0.081112035
0.122343786 -0.068736635 0.08396119 0.09723189 0.026318543 -0.08867367 -0.080565445 0.15145616
0.21645044 -0.0034469487 -0.19810608 0.011819446 -0.23531722 0.1070856 -0.07494305 0.07363037
-0.12479331 0.12979831 -0.1674315 0.17599678 0.1695225 0.21495742 0.08836757 -0.14594923
0.003927097 0.166633 -0.15682696 -0.18419127 0.081902914 -0.12132711 -0.21927683 0.15971619
0.16218814 -0.1500252 -0.09871698 0.031884026 -0.12958151 -0.22433272 0.1101255 0.07415055
-0.20767057 0.0025532707 0.008805496 -0.12605537 0.21038997 0.074231215 0.25000814 0.0010177059
-0.13773705 -0.009128454 -0.2030696 0.034800813 -0.21462049 0.2014535 -0.051075175 0.12819314
0.17617945 -0.20515639 0.23276557 -0.2009198 0.23084326 -0.06398368 0.07405809 0.0775052
0.2509892 0.19397524 0.160856 0.050559163 -0.097278245 0.014799621 0.0006195149 0.17211464
-0.17852913 0.17037083 0.1379435 0.258276 0.052914456 0.22049168 -0.17564037 -0.19211128
0.030223545 0.1054419 0.16974194 -0.21130824 -0.04752897 -0.16035672 -0.002569895 0.0057237335
-0.19102724 -0.024232907 -0.16246478 -0.09236257 0.033874303 0.17084424 0.028712558 -0.13608292
-0.16376792 -0.066691905 0.036870614 -0.16138457 0.23593432 0.117427856 0.21015574 0.04224114
-0.16340423 0.16717023 -0.14296432 0.21271187 0.045219377 0.18645304 -0.2400985 -0.09773589
0.13395977 -0.147202 0.20186271 -0.0019199544 -0.20663178 0.10706828 0.039715447 -0.10830966
-0.076801024 -0.003724087 -0.07409981 0.2405234 -0.19623008 0.0070750215 -0.1540413 -0.023293927
-0.1176568 0.24797262 -0.13258336 0.21217138 -0.026550546 0.0045310096 -0.068307936 -0.011419123
-0.057101943 -0.09931688 -0.18735158 -0.06399273 -0.14528091 0.048501488 -0.017226772 -0.15671988
-0.24170482 -0.12645039 0.19681579 0.09505602 0.1429576 -0.066817835 0.18512182 0.19668864
-0.12308041 -0.13484405 0.13773999 0.14475882 -0.07316911 0.10194794 0.09485641 -0.101603284
-0.18828285 -0.061337337 -0.1730596 0.22123934 0.13009039 0.24126899 0.1607655 0.08864832
0.023926435 0.18832107 0.09910996 0.028445568 0.17126893 0.19291608 -0.091966726 -0.05649857
-0.05122619 -0.19153488 -0.17023094 -0.21200901 0.018243087 -0.039510272 0.12536374 0.05127784
-0.13641973 0.054998234 -0.21579427 0.09579363 0.1569261 -0.16559714 0.020841744 0.006925418
0.049188383 0.1813483 -0.16908458 -0.16283025 0.032457765 -0.20696642 -0.12982932 0.08127276
00000000: bef7 a0bc 2bd0 7cbb e23d 41bc e6a5 813e
00000010: c3c9 603e c31b 22be 8bc9 563d 7c80 1a3d
00000020: a7a7 183e 0f19 40bd 3d5b de3d 61df f33d
00000030: e002 8a3c 8f18 4c3e 2c81 963d 1fc7 4f3e
00000040: 2a26 3c3e 97a2 69be c8a2 09be 4a40 22bd
00000050: 0af0 1a3e f981 39be 7a0f 263e f84e ca3d
00000060: 11a1 5a3d 6f02 573e 5056 913c ff9b 3bbe
00000070: 73aa ef3d bae8 68be bd2b 62be a2d9 ae3d
00000080: 6811 503e a68f 72be 3bb7 2c3e 80ae 403e
00000090: 7394 29be e0c7 51be 57d8 9a3b d432 253e
000000a0: 382f 233d 39fd 2dbe 467c 95bd f466 bdbc
000000b0: 9b11 7a3e e5b4 ecbd 9516 3dbe 8e87 2cbd
000000c0: fc6b 0abe 32e9 05bd 41f5 e23c e28e d5bd
000000d0: 8afc da3d 4ccd 69be 0682 243e 111e a63d
000000e0: 618f fa3d cbc5 8cbd d8f3 ab3d 8321 c73d
000000f0: fc99 d73c 8b9a b5bd 7fff a4bd 5317 1b3e
00000100: 2fa5 5d3e 34e6 61bb 52dc 4abe 5aa6 413c
00000110: fff6 70be b24f db3d be7b 99bd 85cb 963d
00000120: a393 ffbd d9e9 043e 2a73 2bbe 8038 343e
00000130: 4e97 2d3e cc1d 5c3e 0efa b43d b773 15be
00000140: e1ae 803b d7a1 2a3e 3f97 20be a39c 3cbe
00000150: b7bc a73d 597a f8bd 1b8a 60be a48c 233e
00000160: a614 263e 35a0 19be 212c cabd d398 023d
00000170: 04b1 04be 7ab7 65be 7a89 e13d 3edc 973d
00000180: 98a7 54be c654 273b ed44 103c a914 01be
00000190: 7870 573e 8906 983d 1101 803e 8b64 853a
000001a0: f10a 0dbe 838f 15bc 7af1 4fbe 4c8b 0e3d
000001b0: 79c5 5bbe d449 4e3e 3434 51bd 1045 033e
000001c0: 6368 343e 8414 52be 195a 6e3e ecbd 4dbe
000001d0: 2d62 6c3e e009 83bd c5ab 973d 0cbb 9e3d
000001e0: a881 803e 72a1 463e 6fb7 243e 2017 4f3d
000001f0: d139 c7bd 1c7a 723c f166 223a d23e 303e
00000200: 57d0 36be b175 2e3e 1041 0d3e c03c 843e
00000210: d4bc 583d 92c8 613e 12db 33be d2b8 44be
00000220: 5e97 f73c ecf1 d73d d5d0 2d3e 3061 58be
00000230: bdad 42bd 8d34 24be af6b 28bb 288e bb3b
00000240: a59c 43be 1784 c6bc 2b5d 26be 9628 bdbd
00000250: c8bf 0a3d cbf1 2e3e 9936 eb3c 5259 0bbe
00000260: c7b2 27be c495 88bd a405 173d ff41 25be
00000270: c498 713e 047e f03d 1133 573e 0c05 2d3d
00000280: 7053 27be ac2e 2b3e 3d65 12be 24d1 593e
00000290: f437 393d 8ced 3e3e 62dc 75be c129 c8bd
000002a0: c02c 093e 1fbc 16be 19b5 4e3e fba6 fbba
000002b0: 4897 53be 9d46 db3d aaac 223d 74d1 ddbd
000002c0: db49 9dbd d00f 74bb a4c1 97bd c44b 763e
000002d0: 8af0 48be 95d5 e73b 01bd 1dbe e8d2 bebc
000002e0: 0cf6 f0bd 89ec 7d3e efc3 07be 7443 593e
000002f0: 8880 d9bc dd78 943b 08e5 8bbd 4617 3bbc
00000300: bae3 69bd a666 cbbd 18d9 3fbe 9f0e 83bd
00000310: 85c4 14be 7fa9 463d 291f 8dbc 2d7b 20be
00000320: 7881 77be 367c 01be 148a 493e bbac c23d
00000330: 7a63 123e cad7 88bd 9390 3d3e bf68 493e
00000340: 9511 fcbd 8f14 0abe b60b 0d3e a83b 143e
00000350: b0d9 95bd 15ca d03d 1444 c23d 6215 d0bd
00000360: 38cd 40be dc3c 7bbd 8936 31be 918c 623e
00000370: 6a36 053e 380f 773e b69f 243e 408d b53d
00000380: 5f01 c43c 3dd7 403e 2afa ca3d ae06 e93c
00000390: 1f61 2f3e cb8b 453e 0d59 bcbd 0b6b 67bd
000003a0: 8ed2 51bd b821 44be 0551 2ebe e418 59be
000003b0: 8772 953c 86d5 21bd 5a5f 003e b608 523d
000003c0: 9db1 0bbe d445 613d 2cf9 5cbe 732f c43d
000003d0: 3cb1 203e 4c92 29be 4ebc aa3c 9eee e23b
000003e0: c279 493d 5eb3 393e 8224 2dbe f9bc 26be
000003f0: 6ff2 043d 01ef 53be faf1 04be 5572 a63d

lstm_p.bias_ih_l0 f4 [64]
-0.01608248 -0.19930145 -0.18128853 -0.093875356 0.14548072 -0.05165771 0.0061422675 -0.19042335
0.1919607 -0.25460806 0.102010414 0.06349867 0.24177833 -0.15783927 0.13442498 0.12659843
-0.15179953 0.20287582 -0.15825482 -0.17660429 -0.21308385 0.1999866 0.064019695 0.0020607316
0.010713091 0.17840679 -0.027189787 0.037959445 -0.12455776 -0.18969381 -0.23052797 0.13146453
-0.09170306 -0.12758574 0.16531025 0.22598945 0.01454455 -0.078575715 -0.2328606 -0.22060266
0.122470185 -0.15296575 -0.2141151 -0.21194698 -0.06455477 0.12835436 0.16632913 -0.063393794
0.20415922 0.21475145 0.12595288 0.2288362 -0.2475634 0.073416255 -0.2003091 -0.0067118793
0.06408178 0.0737263 -0.033705052 0.055024527 -0.13644469 0.16605665 -0.098875076 -0.1560046
00000000: 68bf 83bc ae15 4cbe b3a3 39be b941 c0bd
00000010: e6f8 143e 0997 53bd 1345 c93b 57fe 42be
00000020: 5991 443e fd5b 82be d6ea d03d 970b 823d
00000030: bd94 773e 9ea0 21be b4a6 093e 05a3 013e
00000040: 5671 1bbe aebe 4f3e 8d0d 22be c1d7 34be
00000050: a732 5abe 4ac9 4c3e c21c 833d 570d 073b
00000060: f685 2f3c 45b0 363e 1ebd debc 5d7b 1b3d
00000070: 2418 ffbd 183f 42be 860f 6cbe a39e 063e
00000080: d0ce bbbd d6a5 02be 1747 293e c769 673e
00000090: 444c 6e3c 4eec a0bd 0273 6ebe aae5 61be
000000a0: a6d1 fa3d 0ea3 1cbe fd40 5bbe a108 59be
000000b0: 4b35 84bd 536f 033e 2f52 2a3e 9bd4 81bd
000000c0: 1d0f 513e cee7 5b3e cbf9 003e 0954 6a3e
000000d0: 4381 7dbe 435b 963d d41d 4dbe 53ef dbbb
000000e0: 4f3d 833d d0fd 963d 4f0e 0abd 6661 613d
000000f0: 28b8 0bbe c10a 2a3e 047f cabd abbf 1fbe

lstm_p.bias_hh_l0 f4 [64]
-0.23922266 -0.011136214 -0.0915854 0.08005064 -0.018200044 0.062318947 -0.18822993 0.22962327
-0.008247057 -0.1986851 0.1876519 0.023895266 -0.003944093 -0.13343287 -0.075699106 0.042566553
0.12392847 -0.23732662 0.04585022 0.05566553 0.13324581 0.08918143 0.067223325 0.2080478
-0.07145435 0.029095387 -0.0847702 0.050593216 -0.10459781 0.07956505 0.028792657 0.007914441
-0.22887032 0.16691563 -0.23625116 0.055393156 -0.14923915 -0.16102426 -0.008939549 -0.1696563
-0.12129761 -0.15481248 0.17049481 -0.09782594 0.083466776 -0.03283919 -0.1975648 0.120477535
-0.11829242 0.14684218 -0.2028275 -0.25402507 0.07446256 -0.049011357 -0.15044847 0.23918791
0.23667535 -0.24520929 0.19924778 0.13395156 -0.06652316 -0.103045724 0.07526258 -0.054842032
00000000: c9f6 74be ab74 36bc 2091 bbbd 97f1 a33d
00000010: 4218 95bc 2742 7f3d 59bf 40be 5d22 6b3e
00000020: aa1e 07bc 1b74 4bbe d227 403e 01c0 c33c
00000030: 733d 81bb a0a2 08be 2208 9bbd 445a 2e3d
00000040: 36ce fd3d c005 73be 71cd 3b3d 8a01 643d
00000050: 9771 083e c1a4 b63d 62ac 893d 7c0a 553e
00000060: a956 92bd 7359 ee3c 009c adbd d53a 4f3d
00000070: 6037 d6bd 00f3 a23d 94de eb3c 92ab 013c
00000080: fb5c 6abe eeeb 2a3e d3eb 71be efe3 623d
00000090: 26d2 18be 8be3 24be 3077 12bc 62ba 2dbe
000000a0: e26a f8bd 2a87 1ebe 3196 2e3e f758 c8bd
000000b0: a1f0 aa3d 6382 06bd 6d4e 4abe edbc f63d
000000c0: 4c43 f2bd cc5d 163e 03b2 4fbe 930f 82be
000000d0: d47f 983d 22c0 48bd 2a0f 1abe aded 743e
000000e0: 065b 723e 2518 7bbe 9c07 4c3e 992a 093e
000000f0: 4b3d 88bd a309 d3bd 4423 9a3d 0aa2 60bd

lstm_p.weight_ih_l1 f4 [64, 16]
-0.05763437 0.07178326 0.22536243 0.016513461 -0.16838957 0.097618036 0.20983791 0.22205335
0.21004331 -0.107542716 -0.14516138 0.13175821 0.09112304 0.19401129 -0.09522466 -0.10571207
-0.053261068 0.18095121 0.08843125 0.24117504 -0.12829968 -0.076684706 0.12850656 -0.059771754
0.19541526 -0.06117625 0.1629601 0.1600227 0.049535077 -0.06178942 -0.15865764 -0.13289243
-0.13242672 -0.18051969 0.1794023 0.09332444 -0.09699503 0.20823853 0.022232877 -0.008881581
0.1630797 0.240101 0.16574384 -0.10768744 -0.23348512 -0.11717912 -0.04931632 0.11585731
0.14893475 -0.2340531 0.2065716 0.23290393 -0.07525426 0.20902932 0.13681333 -0.15463482
-0.087163635 -0.1908475 0.22599214 0.1794766 0.17081471 0.13008174 0.16291639 0.1687302
-0.05645387 -0.08749451 0.18965052 -0.094919086 0.12412442 -0.09847729 -0.19838862 -0.19510531
0.2296534 0.2235513 -0.21698326 0.014197405 0.2160979 -0.15273623 0.008251057 0.12724978
0.14790311 -0.08850725 -0.061400935 0.057361845 0.043989643 -0.049393613 0.20498478 -0.13975704
-0.118223764 0.21147653 -0.0152796265 -0.013858468 0.13383123 0.1033513 -0.0091426475 0.10423916
0.12331419 -0.08845868 0.15242292 0.15924034 -0.24241768 -0.14933193 0.19826323 0.016335405
0.13663465 0.10001959 -0.08807884 -0.08850938 -0.20877273 -0.16416363 0.22388431 -0.21252277
0.12983006 0.123877995 0.21635129 -0.25416613 0.1093056 0.108527035 0.17846872 0.23148671
0.12677617 0.07147613 -0.03887767 -0.22045192 0.08888314 -0.10220006 0.1373465 -0.20553456
-0.031025223 0.15260811 0.037710227 -0.031146832 0.078732 0.07899874 -0.21460816 -0.016006896
0.107232265 0.19713768 0.13305278 0.040372964 0.19534771 0.16309655 -0.06153868 0.025614733
-0.07344561 -0.10828707 0.1932335 0.11644253 0.22262774 0.08863101 -0.13455921 -0.0017702943
0.03239735 0.02452098 -0.21256016 -0.045774795 -0.03407953 -0.21413319 -0.18792821 0.19288345
-0.21978514 0.05075925 0.0041384315 -0.22954464 -0.19649851 -0.012672763 -0.23622456 0.022680232
0.15711486 -0.11331112 0.04724536 -0.018734764 0.22270411 -0.017811563 -0.10527959 -0.010214588
-0.12368999 -0.14305955 -0.08542564 0.021704799 0.24812782 -0.18200873 0.044942215 0.13475958
0.23324442 0.17204995 0.16328172 -0.20303282 0.21167307 -0.19905524 0.07875456 0.054827515
0.099821225 -0.008464634 -0.020169746 -0.11981893 0.19335803 -0.13368762 -0.21475491 0.24268198
-0.10943654 -0.18240754 -0.16308044 -0.12919305 0.15180212 -0.21260656 -0.2244946 0.18050237
-0.21058714 -0.16096865 -0.025025627 -0.21661638 0.19153534 0.13484299 0.23282595 -0.16880448
-0.17813148 -0.11723034 0.12270134 0.1909789 -0.17034474 0.093545385 0.13739619 0.22033286
0.09877762 0.22243942 -0.13743454 0.12778752 -0.23623952 0.13539639 0.010716198 -0.23081064
0.0055087768 0.19255114 -0.0008751415 0.138476 0.09543675 -0.17933965 -0.09228132 0.19886711
0.13954811 0.14990509 0.031223191 -0.012441769 0.07844368 -0.003552082 -0.04790029 -0.21805654
-0.06600156 0.02245831 0.06563507 0.13189909 0.05202024 -0.017352799 0.15438554 0.09032339
00000000: 0412 6cbd 1a03 933d 69c5 663e 3d47 873c
00000010: 516e 2cbe f7eb c73d c0df 563e f461 633e
00000020: 9815 573e 5b3f dcbd 2fa5 14be a0eb 063e
00000030: b79e ba3d e5aa 463e 2605 c3bd 927f d8bd
00000040: 4728 5abd 464b 393e 711b b53d 97f6 763e
00000050: fe60 03be df0c 9dbd 3997 033e 3ad3 74bd
00000060: f01a 483e f393 7abd 03df 263e fedc 233e
00000070: 4be5 4a3d e716 7dbd 2677 22be f414 08be
00000080: df9a 07be 27da 38be 3db5 373e e220 bf3d
00000090: 55a5 c6bd 7b3c 553e b921 b63c 0d84 11bc
000000a0: 5dfe 263e 09dd 753e c1b8 293e 3c8b dcbd
000000b0: b916 6fbe 9bfb efbd e9ff 49bd 9946 ed3d
000000c0: 5a82 183e 9eab 6fbe 8187 533e 5e7e 6e3e
000000d0: e81e 9abd c80b 563e cb18 0c3e 9758 1ebe
000000e0: d982 b2bd 876d 43be 7c6a 673e b7c8 373e
000000f0: 0dea 2e3e 2634 053e 8ed3 263e 9cc7 2c3e
00000100: 2c3c 67bd 5230 b3bd bf33 423e f064 c2bd
00000110: f234 fe3d 76ae c9bd 6326 4bbe b0c9 47be
00000120: 432a 6b3e a2ea 643e dc30 5ebe 3c9c 683c
00000130: c548 5d3e e366 1cbe 712f 073c c44d 023e
00000140: ea73 173e 4a43 b5bd 8c7f 7bbd 41f4 6a3d
00000150: 7c2e 343d f550 4abd 88e7 513e 781c 0fbe
00000160: 4d1f f2bd 4e8d 583e 6657 7abc a10e 63bc
00000170: 0e0b 093e d9a9 d33d 0bcb 15bc 577b d53d
00000180: 268c fc3d d329 b5bd c114 1c3e e60f 233e
00000190: 573c 78be 78ea 18be 8405 4b3e d4d1 853c
000001a0: f4e9 0b3e 12d7 cc3d ae62 b4bd 6844 b5bd
000001b0: 85c8 55be 831a 28be ee41 653e 929f 59be
000001c0: 2cf2 043e bfb3 fd3d 318b 5d3e 1022 82be
000001d0: 9ddb df3d 6c43 de3d 81c0 363e da0a 6d3e
000001e0: 9dd1 013e 1462 923d 313e 1fbd 26be 61be
000001f0: 5d08 b63d 444e d1bd 90a4 0c3e a777 52be
00000200: 9c28 febc 4d45 1c3e 0a76 1a3d a427 ffbc
00000210: 3e3e a13d 17ca a13d 3ec2 5bbe e520 83bc
00000220: 979c db3d 76de 493e fd3e 083e 1f5e 253d
00000230: 3b09 483e c802 273e fc0f 7cbd fdd5 d13c
00000240: a76a 96bd 9dc5 ddbd 01df 453e 6c79 ee3d
00000250: 87f8 633e 2d84 b53d e4c9 09be 3809 e8ba
00000260: 15b3 043d 39e0 c83c 5fa9 59be 5a7e 3bbd
00000270: fa96 0bbd bb45 5bbe 4170 40be 3d83 453e
00000280: 5b0f 61be eee8 4f3d ae9b 873b c00d 6bbe
00000290: e836 49be 6ca1 4fbc dae4 71be e5cb b93c
000002a0: b8e2 203e a90f e8bd 5a84 413d a679 99bc
000002b0: 8c0c 643e 8ee9 91bc d39c d7bd 165b 27bc
000002c0: 2d51 fdbd 347e 12be a3f3 aebd 43ce b13c
000002d0: 3815 7e3e 7f60 3abe 5415 383d 6afe 093e
000002e0: a0d7 6e3e dd2d 303e 5333 273e d6e7 4fbe
000002f0: d3c0 583e 23d5 4bbe 124a a13d d192 603d
00000300: 126f cc3d 40af 0abc 063b a5bc a163 f5bd
00000310: a6ff 453e 68e5 08be b6e8 5bbe a081 783e
00000320: 4420 e0bd 0bc9 3abe 8ffe 26be 2f4b 04be
00000330: 0472 1b3e 89b5 59be eae1 65be 9dd5 383e
00000340: 28a4 57be f7d4 24be 8b02 cdbc afd0 5dbe
00000350: d721 443e 4814 0a3e ed69 6e3e 15db 2cbe
00000360: 1968 36be 7616 f0bd d74a fb3d f98f 433e
00000370: da6e 2ebe b994 bf3d 96b1 0c3e f09e 613e
00000380: ec4b ca3d 29c7 633e a4bb 0cbe bbda 023e
00000390: c6e8 71be 5aa5 0a3e fe92 2f3c a059 6cbe
000003a0: f882 b43b 202c 453e c069 65ba a7cc 0d3e
000003b0: 5874 c33d d0a4 37be fdfd bcbd d2a3 4b3e
000003c0: b3e5 0e3e b880 193e c7c7 ff3c 90d8 4bbc
000003d0: 15a7 a03d 0cca 68bb 1833 44bd 374a 5fbe
000003e0: d32b 87bd 7dfa b73c ae6b 863d 8e10 073e
000003f0: 2d13 553d 7527 8ebc 3e17 1e3e 78fb b83d

lstm_p.weight_hh_l1 f4 [64, 16]
0.18857338 -0.14919339 0.22772335 -0.11509543 -0.045769688 -0.19162527 0.06772674 0.19724481
-0.08276947 0.15808338 -0.013538498 0.2412208 -0.14352964 0.0075392798 0.19288945 -0.19928393
0.11812975 -0.24268915 0.19420835 0.093363695 0.05141394 -0.23357266 0.25603867 0.18302585
0.2305193 -0.21285038 0.2257277 0.037987407 0.15610641 -0.24647129 -0.12808271 0.018298758
0.15330017 -0.22687647 0.14648883 0.13156767 -0.18911707 0.21979946 -0.10491699 0.07415092
-0.16284719 -0.13841653 -0.0610823 -0.085077725 0.03322003 -0.06571616 -0.15015993 0.22190991
-0.0051520765 -0.2060685 0.21540679 0.21281393 -0.13620758 0.17579675 -0.1030153 -0.19685091
-0.25151682 -0.12811597 0.117748395 0.24441172 0.22567417 -0.03455839 -0.054492746 0.00044102423
0.21947174 -0.18018177 -0.12772316 0.0008243414 -0.23016584 0.13379875 -0.15898527 -0.075561434
-0.13098097 -0.009548399 0.21489371 -0.09863326 -0.10282834 0.116639555 -0.030549461 -0.018869296
0.19912292 0.0749346 -0.04449704 0.21885952 -0.24763176 0.20835079 -0.081582054 0.17303093
-0.076502845 -0.20720176 -0.0058929757 0.22388175 0.03231788 -0.20020676 0.17168584 0.24414338
0.2164857 -0.13613419 -0.16733047 -0.25316295 -0.046668723 0.060359664 -0.25051403 0.0074036177
0.028989015 0.17509545 0.17159513 0.09509133 -0.016237227 0.2231459 -0.020216223 -0.05094265
-0.12462353 0.067628585 -0.15118478 0.106664956 -0.22295244 0.028162645 -0.0106585445 -0.17550635
0.20491375 0.19903167 0.15356097 0.18169178 -0.016102439 -0.15468225 -0.06086962 -0.15452893
-0.13173595 0.030890968 -0.09585034 0.24922065 0.16375028 0.24846442 0.11795545 0.14537114
-0.13068357 0.19276273 0.19328424 0.080829166 0.084980674 -0.21714546 -0.0038722565 0.21375614
-0.104175895 0.1888107 -0.12456685 -0.16641533 0.14352402 0.1285801 0.08689822 -0.10361342
0.16203596 -0.10638484 0.1387048 0.22433454 -0.11609509 0.19407903 0.17301911 0.07382765
-0.09778738 -0.058342364 0.1540662 0.101601124 0.0025163307 -0.09365179 0.023553822 0.24659991
0.19606796 -0.1616696 0.24959195 0.14875956 0.25361773 -0.069203906 0.07112394 -0.047973473
-0.14080559 -0.07572528 -0.14733608 0.06672894 -0.039349984 -0.20320576 -0.08540639 -0.0027573404
-0.12709233 -0.15912755 -0.2359621 0.13163555 0.14065728 -0.24979714 0.13412337 -0.1894347
-0.1017296 -0.1534788 -0.058750313 -0.13100533 -0.008150046 0.047725357 -0.105937995 0.15257278
-0.09082139 -0.06308101 0.060977347 0.12470619 0.17423336 0.10265948 0.021685274 -0.033330664
-0.15347213 0.2086626 -0.011852456 0.19087805 0.1121575 0.15959851 -0.16604787 0.12062854
0.24611136 -0.21758607 0.16907342 -0.14364874 -0.14617437 -0.22052512 -0.24988931 -0.17749345
-0.18448111 -0.0038749254 -0.11127873 -0.0025643976 0.1654814 0.2100982 -0.19504444 0.1907958
-0.021677068 -0.09346389 0.25688836 -0.21475975 -0.13759223 0.09792848 0.10902707 0.11687964
-0.22245684 -0.16830283 -0.15858257 0.16854316 0.10880906 -0.031470217 0.17053351 0.01734906
-0.23727876 -0.07674518 0.13221729 -0.05625421 0.10691668 0.05041737 -0.05899523 -0.18980412
00000000: 6119 413e 27c6 18be 4f30 693e 27b7 ebbd
00000010: ff78 3bbd 6a39 44be 51b4 8a3d 8bfa 493e
00000020: 0a83 a9bd 9ce0 213e 94d0 5dbc 9602 773e
00000030: 6ff9 12be 100c f73b d084 453e 1611 4cbe
00000040: 03ee f13d 8183 78be 8ede 463e 7735 bf3d
00000050: 6c97 523d ac2d 6fbe 8017 833e 216b 3b3e
00000060: 400d 6c3e 73f5 59be 2a25 673e af98 1b3d
00000070: 5cda 1f3e f862 7cbe 1d28 03be 47e7 953c
00000080: b8fa 1c3e 4e52 68be 2b01 163e adb9 063e
00000090: e8a7 41be 1c13 613e b8de d6bd 70dc 973d
000000a0: 6ac1 26be 10bd 0dbe 6f31 7abd 3b3d aebd
000000b0: ba11 083d 3296 86bd 86c3 19be 5a3c 633e
000000c0: c0d2 a8bb 9f03 53be 9993 5c3e e5eb 593e
000000d0: 007a 0bbe 1004 343e b0f9 d2bd 4993 49be
000000e0: d0c6 80be d530 03be 1226 f13d 1147 7a3e
000000f0: 2117 673e 198d 0dbd c933 5fbd 4539 e739
00000100: 33bd 603e 9281 38be dcc9 02be 9d18 583a
00000110: 98b0 6bbe 8a02 093e 09cd 22be f4bf 9abd
00000120: e01f 06be e370 1cbc 190d 5c3e 3c00 cabd
00000130: aa97 d2bd b8e0 ee3d dd42 fabc c893 9abc
00000140: e1e6 4b3e 5077 993d 8742 36bd b61c 603e
00000150: 2e93 7dbe e959 553e 7e14 a7bd 052f 313e
00000160: 86ad 9cbd b32c 54be dd19 c1bb 4241 653e
00000170: c15f 043d 0003 4dbe 6ace 2f3e b900 7a3e
00000180: 6dae 5d3e c366 0bbe ae58 2bbe 939e 81be
00000190: b427 3fbd b23b 773d 6043 80be 0c9a f23b
000001a0: 5f7a ed3c 394c 333e a2b6 2f3e 3ebf c23d
000001b0: ef03 85bc 5c80 643e 7e9c a5bc 3da9 50bd
000001c0: 9f3a ffbd db80 8a3d 2fd0 1abe 2873 da3d
000001d0: a54d 64be 59b5 e63c 2da1 2ebc f0b7 33be
000001e0: e9d4 513e f5ce 4b3e 163f 1d3e 690d 3a3e
000001f0: 43e9 83bc 0665 1ebe 6c52 79bd d53c 1ebe
00000200: cae5 06be 0e0f fd3c 2f4d c4bd b333 7f3e
00000210: 27ae 273e 756d 7e3e a192 f13d 2cdc 143e
00000220: ead1 05be 9863 453e 4eec 453e c389 a53d
00000230: 590a ae3d 615b 5ebe afc5 7dbb e4e2 5a3e
00000240: 2c5a d5bd 9857 413e e81c ffbd c868 2abe
00000250: f6f7 123e 80aa 033e b2f7 b13d 4633 d4bd
00000260: c1ec 253e 4ce0 d9bd a208 0e3e f4b7 653e
00000270: 43c3 edbd a7bc 463e ec2b 313e f332 973d
00000280: c044 c8bd 67f8 6ebd 88c3 1d3e 4014 d03d
00000290: 06e9 243b 82cc bfbd f2f3 c03c b084 7c3e
000002a0: 0ac6 483e b78c 25be 0895 7f3e 6d54 183e
000002b0: 2fda 813e c7ba 8dbd 6ea9 913d d57f 44bd
000002c0: 572f 10be db15 9bbd 45df 16be 2fa9 883d
000002d0: 732d 21bd 2c15 50be 8ce9 aebd 7fb4 34bb
000002e0: 7e24 02be 55f2 22be 0ca0 71be 78cb 063e
000002f0: 7608 103e d2ca 7fbe a357 093e 2cfb 41be
00000300: 9c57 d0bd 8c29 1dbe 2ba4 70bd 4326 06be
00000310: c587 05bc aa7b 433d 05f6 d8bd 0a3c 1c3e
00000320: 9100 babd 9e30 81bd 62c3 793d f565 ff3d
00000330: 3b6a 323e 223f d23d 51a5 b13c bc85 08bd
00000340: cc27 1dbe a6ab 553e ce30 42bc 8975 433e
00000350: d5b2 e53d cb6d 233e 7408 2abe 190c f73d
00000360: 9e04 7c3e e2ce 5ebe 9521 2d3e a818 13be
00000370: bcae 15be 56d1 61be fce2 7fbe d8c0 35be
00000380: 9ee8 3cbe 76f2 7dbb 1ae6 e3bd 740f 28bb
00000390: f573 293e fc23 573e bbb9 47be f95f 433e
000003a0: 1b94 b1bc ff69 bfbd df86 833e fbe9 5bbe
000003b0: fae4 0cbe ba8e c83d 9649 df3d 985e ef3d
000003c0: bacb 63be 9457 2cbe 7863 22be 9496 2c3e
000003d0: 49d7 de3d eae6 00bd 56a0 2e3e 9e1f 8e3c
000003e0: 34f9 72be 942c 9dbd f863 073e d16a 66bd
000003f0: 22f7 da3d 7282 4e3d fba4 71bd 035c 42be

lstm_p.bias_ih_l1 f4 [64]
-0.07343939 0.0072157434 0.04068633 -0.2344881 -0.24654284 0.06415283 -0.13679665 0.18914588
0.05869258 0.055035487 -0.24188636 0.0808962 -0.032822825 -0.03231165 -0.19584554 -0.25444573
0.17054503 -0.16023187 0.050841935 -0.17533176 -0.19134375 0.11609606 0.06508702 -0.11780012
0.10614073 -0.15265912 -0.17177534 0.020534573 0.024752116 -0.1925786 -0.14555496 -0.14260153
-0.06922861 0.13034327 -0.22171745 0.17587274 0.014991749 -0.023390938 -0.13185684 -0.20899615
-0.0866916 0.12289378 -0.19806302 0.21934228 -0.16614968 0.14514537 -0.22630654 -0.23178287
-0.09775661 0.18439452 0.12020284 -0.14627136 0.06858268 -0.12440064 0.2183082 0.23681791
0.0013902782 0.16488802 -0.09047543 0.08194956 0.13507065 0.12280892 0.07670392 0.22693725
00000000: 6467 96bd 0b72 ec3b b6a6 263d a61d 70be
00000010: ba75 7cbe 8f62 833d 6c14 0cbe 75af 413e
00000020: a167 703d e46c 613d 0fb1 77be e8ac a53d
00000030: 3a71 06bd 3959 04bd bc8b 48be b646 82be
00000040: 5ba3 2e3e d313 24be a23f 503d 2b8a 33be
00000050: 9eef 43be c5c3 ed3d 584c 853d 3041 f1bd
00000060: 5060 d93d ac52 1cbe e0e5 2fbe 1f38 a83c
00000070: f3c4 ca3c 5333 45be 5c0c 15be 2306 12be
00000080: bbc7 8dbd b578 053e e609 63be fc17 343e
00000090: f49f 753c 5a9e bfbc 7b05 07be 1603 56be
000000a0: 5e8b b1bd bcaf fb3d 08d1 4abe 439b 603e
000000b0: 2423 2abe fda0 143e e7bc 67be 7d58 6dbe
000000c0: 9e34 c8bd ebd1 3c3e e82c f63d 29c8 15be
000000d0: 1375 8c3d c3c5 febd 2f8c 5f3e 6580 723e
000000e0: ff39 b63a 68d8 283e 2f4b b9bd 2cd5 a73d
000000f0: f64f 0a3e 3e83 fb3d f216 9d3d 3d62 683e

lstm_p.bias_hh_l1 f4 [64]
0.07087222 0.16394062 0.12461619 0.016365651 -0.05227712 0.19026548 0.21538624 0.21426667
0.061220046 0.13737135 -0.14496921 -0.16218983 0.041296896 -0.19680233 -0.12440792 0.13766271
-0.12463525 -0.16672279 -0.21982455 0.16002859 0.16569054 0.18312617 -0.044884507 -0.12422156
0.22253317 -0.16238743 0.20418578 0.043497235 -0.103089616 0.10882846 -0.13903058 0.017123954
0.19995667 -0.055328887 0.06631169 0.16933 -0.07657205 0.1539181 0.18649437 0.02791157
0.1860353 0.20785184 -0.17948574 0.114748865 -0.004399093 -0.09360863 0.1939855 0.027875248
-0.013879975 0.09957625 0.07110423 0.020651545 0.1078287 -0.019987125 -0.20395048 0.10161887
-0.048853036 -0.1224568 -0.15093534 0.11577338 0.0954284 -0.1944271 -0.17103669 -0.045015965
00000000: 7425 913d 0de0 273e c636 ff3d 4211 863c
00000010: 8920 56bd f4d4 423e 368e 5c3e b968 5b3e
00000020: dfc1 7a3d 13ab 0c3e cf72 14be 1715 26be
00000030: ef26 293d 8d86 49be 94c9 febd 74f7 0c3e
00000040: c440 ffbd 61b9 2abe b019 61be 89de 233e
00000050: c8aa 293e 6d85 3b3e d1d8 37bd e067 febd
00000060: bcdf 633e e448 26be 1416 513e 282a 323d
00000070: a620 d3bd 75e1 de3d 085e 0ebe 8947 8c3c
00000080: 71c1 4c3e 8ba0 62bd 6cce 873d d864 2d3e
00000090: cfd1 9cbd b59c 1d3e 61f8 3e3e cea6 e43c
000000a0: 0a80 3e3e 1dd7 543e 1ccb 37be 7401 eb3d
000000b0: 4426 90bb e2b5 bfbd 23a4 463e a25a e43c
000000c0: d668 63bc a2ee cb3d 189f 913d 6e2d a93c
000000d0: 4bd5 dc3d 0abc a3bc 65d8 50be 8e1d d03d
000000e0: 1f1a 48bd a1ca fabd cb8e 1abe 981a ed3d
000000f0: f76f c33d e617 47be 3e24 2fbe a962 38bd

attention_p.attn_1.weight f4 [16, 16]
-0.2493275 0.17294031 0.24658501 -0.39033043 0.02905869 -0.10284684 -0.04056399 -0.39767706
-0.2953159 -0.11143261 0.08537129 0.32371682 0.37204587 0.07169891 -0.11621043 -0.40095028
-0.30024275 0.31880546 0.17955096 -0.3910937 -0.23071374 -0.2693849 -0.21448247 0.2413131
-0.1586346 0.32691714 0.34116107 -0.19219048 -0.08864823 0.35967502 0.21036398 0.060819555
-0.05555034 -0.13614021 -0.04191631 -0.21430258 0.118280366 0.3789329 -0.056683328 0.20795888
0.41296107 0.2890878 -0.13040657 -0.39983317 -0.23155063 0.07932069 -0.24923567 -0.28753123
0.4052822 -0.13173819 -0.27038845 0.35319817 -0.28488073 0.39687222 0.21460333 -0.31834587
0.2924174 0.26600364 -0.052436125 -0.42514944 -0.08018427 0.4247726 -0.09965938 -0.034531772
0.3184528 -0.34680888 -0.18175648 0.11334758 -0.3569935 0.25581634 0.21872094 0.1683294
-0.15743646 -0.35416368 0.12673752 0.35739604 0.16374542 -0.31874943 0.36349797 -0.2071127
-0.43150276 0.04905797 0.29616717 0.37869674 -0.10927699 -0.30826333 0.02674565 -0.15523115
-0.028904675 0.105846 0.115869015 -0.21771802 0.07646705 0.1234774 -0.3071282 0.08232828
0.35611567 -0.17069666 0.18166034 0.14095162 0.3375715 0.264694 -0.28830007 -0.14224494
-0.069213904 -0.20849293 0.33662793 -0.035984717 -0.10834973 0.33694288 -0.1610639 -0.28887495
0.20963806 0.34477526 0.019647012 -0.32014036 -0.020254333 0.41478324 -0.055911805 0.26822352
0.21269147 -0.056956746 0.02935139 -0.055542134 -0.3119224 -0.22154096 0.25568682 -0.26797354
-0.22220452 -0.25781012 0.41878343 -0.12682435 -0.21527919 0.35970625 0.17386611 -0.38806567
0.41999432 0.22177322 0.12242876 -0.04704095 0.12795874 -0.16229837 0.28814957 0.11207883
0.38099352 0.1208651 -0.042577922 0.20244414 -0.06852582 0.12950002 0.07124879 0.34493756
-0.30373257 -0.009396117 -0.21750396 0.3134586 -0.16393618 0.23837526 0.20855395 -0.11544243
-0.020588562 0.2724072 -0.31222174 0.40643945 -0.09191971 -0.12331994 0.024731943 0.0085622175
-0.32596195 -0.021473182 0.29741493 -0.19702601 0.2865824 -0.4200399 0.364071 -0.32421845
-0.27250925 -0.17208557 -0.17865229 -0.09209173 -0.28261393 0.2357193 -0.0749089 0.3935219
0.40434948 -0.3597128 0.20621675 0.33599183 0.15345526 0.01538016 -0.28887936 0.42365488
0.123229735 0.33414152 -0.10490004 0.16210836 -0.20970587 -0.40306234 0.012233696 0.41376936
0.049201347 -0.43944937 -0.009017947 0.23474284 -0.31808242 0.41279143 0.2489957 -0.17303726
0.15350562 0.27266932 0.3012518 -0.009972881 -0.054387975 0.21274765 0.13346887 -0.1294663
0.034979645 -0.32565153 -0.36726502 0.34638953 -0.4096662 -0.27474234 -0.36878443 0.13066605
0.30523226 -0.05167443 0.36053604 0.4216033 -0.034156375 -0.37300304 -0.2535321 -0.010376109
-0.12823285 -0.2907386 -0.12262306 -0.07774094 -0.28695297 -0.35276684 0.32148245 -0.09224292
0.086276606 -0.18959983 -0.32946542 -0.06565875 0.26961592 0.4042523 0.041419156 -0.27839324
-0.12597297 -0.19476618 -0.07894685 0.004163518 -0.11530921 -0.16738538 -0.27935547 -0.093547426
00000000: b54f 7fbe 4417 313e c880 7c3e 64d9 c7be
00000010: 7d0c ee3c 5da1 d2bd 6d26 26bd 549c cbbe
00000020: a533 97be c836 e4bd 25d7 ae3d 36be a53e
00000030: cc7c be3e e1d6 923d bcff edbd 5b49 cdbe
00000040: 6bb9 99be 783a a33e 35dc 373e 6f3d c8be
00000050: 3940 6cbe d1ec 89be 4ba1 5bbe c81a 773e
00000060: 1c71 22be af61 a73e aaac ae3e 95cd 44be
00000070: 348d b5bd 5327 b83e a869 573e ed1d 793d
00000080: c188 63bd 5768 0bbe 70b0 2bbd 2372 5bbe
00000090: fa3c f23d 7e03 c23e c72c 68bd 2cf3 543e
000000a0: a26f d33e 5103 943e 4d89 05be efb6 ccbe
000000b0: 9c1b 6dbe e372 a23d a337 7fbe 4b37 93be
000000c0: 2681 cf3e 60e6 06be 5b70 8abe 64d6 b43e
000000d0: e3db 91be d632 cb3e fac0 5b3e 3bfe a2be
000000e0: bcb7 953e a131 883e 43c7 56bd 30ad d9be
000000f0: a737 a4bd cb7b d93e 381a ccbd 3071 0dbd
00000100: 3f0c a33e ef90 b1be 5f1e 3abe c722 e83d
00000110: dac7 b6be 5cfa 823e 62f8 5f3e 8b5e 2c3e
00000120: 0637 21be f154 b5be 7bc7 013e 9dfc b63e
00000130: e1ac 273e 2033 a3be 681c ba3e 5a15 54be
00000140: eeed dcbe 03f1 483d 39a3 973e 8ae4 c13e
00000150: 9dcc dfbd b1d4 9dbe b219 db3c eaf4 1ebe
00000160: 7fc9 ecbc cac5 d83d bc4c ed3d 79f1 5ebe
00000170: c29a 9c3d b8e1 fc3d e83f 9dbe bb9b a83d
00000180: cb54 b63e 1bcb 2ebe 2b05 3a3e 9f55 103e
00000190: 2cd6 ac3e f985 873e 119c 93be a8a8 11be
000001a0: 05c0 8dbd 2c7f 55be 7f5a ac3e b664 13bd
000001b0: 77e6 ddbd c783 ac3e efed 24be 6be7 93be
000001c0: 5cab 563e 6286 b03e c5f2 a03c 70e9 a3be
000001d0: 6aec a5bc 785e d43e c703 65bd 9854 893e
000001e0: cbcb 593e 7a4b 69bd 5472 f03c 2680 63bd
000001f0: 4bb4 9fbe a2db 62be 62e9 823e d433 89be
00000200: 9589 63be b0ff 83be c86a d63e 3ede 01be
00000210: 2672 5cbe 6b2b b83e f509 323e 8bb0 c6be
00000220: 7f09 d73e 8518 633e eebb fa3d 03ae 40bd
00000230: 9e07 033e 8b31 26be 5788 933e 9689 e53d
00000240: 9511 c33e 1f88 f73d 3066 2ebd 844d 4f3e
00000250: 4457 8cbd a79b 043e e3ea 913d a89b b03e
00000260: d682 9bbe 2cf2 19bc 5cb9 5ebe a57d a03e
00000270: e3de 27be a518 743e 2b8f 553e 156d ecbd
00000280: 58a9 a8bc f578 8b3e 87db 9fbe d518 d03e
00000290: 6740 bcbd 2a8f fcbd a59a ca3c 8b48 0c3c
000002a0: 7ce4 a6be 87e8 afbc c546 983e 30c1 49be
000002b0: eeba 923e 780f d7be 8467 ba3e f6ff a5be
000002c0: 5586 8bbe 3337 30be a0f0 36be 979a bcbd
000002d0: c6b2 90be 6660 713e d669 99bd b47b c93e
000002e0: e506 cf3e 472c b8be 7c2a 533e 1f07 ac3e
000002f0: 6023 1d3e 11fd 7b3c ffe7 93be 4be9 d83e
00000300: df5f fc3d 9914 ab3e d5d5 d6bd bcff 253e
00000310: 23bd 56be 305e cebe d76f 483c 94d9 d33e
00000320: 5a87 493d 82ff e0be 03c0 13bc 6d60 703e
00000330: b3db a2be 6659 d33e bbf8 7e3e ae30 31be
00000340: 9430 1d3e 509b 8b3e ad3d 9a3e 4b65 23bc
00000350: edc5 5ebd 85da 593e 10ac 083e d092 04be
00000360: d146 0f3d ccbb a6be 290a bcbe f859 b13e
00000370: c5bf d1be 07ab 8cbe 50d1 bcbe 52cd 053e
00000380: 6747 9c3e 91a8 53bd 2e98 b83e 63dc d73e
00000390: 8ee7 0bbd 41fa bebe f6ce 81be 8e00 2abc
000003a0: 794f 03be b1db 94be cd21 fbbd a436 9fbd
000003b0: 80eb 92be db9d b4be 5999 a43e dbe9 bcbd
000003c0: cab1 b03d 7526 42be b1af a8be 1878 86bd
000003d0: 190b 8a3e 28fa ce3e 22a7 293d 8f89 8ebe
000003e0: 0fff 00be c970 47be e3ae a1bd 1f6e 883b
000003f0: 3c27 ecbd 1367 2bbe ae07 8fbe cb95 bfbd

attention_p.attn_1.bias f4 [16]
-0.0063381386 -0.0065843044 0.0068581784 -0.006699465 -0.007958809 -0.003720561 0.005696992 -0.0058938726
0.0064610112 -0.006993304 0.005598568 -0.0069580423 0.0064904806 0.0065476657 -0.008954897 -0.006822449
00000000: 29b0 cfbb 26c1 d7bb 92ba e03b 3087 dbbb
00000010: aa65 02bc a8d4 73bb d5ad ba3b 6321 c1bb
00000020: e4b6 d33b 1628 e5bb 3174 b73b 4a00 e4bb
00000030: 19ae d43b cd8d d63b 8fb7 12bc da8e dfbb

attention_p.attn_2.weight f4 [1, 16]
-0.44354305 -0.36067936 0.11747819 -0.16520034 -0.23633254 0.014220969 0.35084662 -0.26097545
0.25868163 -0.3844209 0.30457008 -0.1834395 0.25745192 0.42085955 -0.1277235 -0.29615113
00000000: 1318 e3be f7aa b8be 6898 f03d 472a 29be
00000010: 2801 72be 11ff 683c 2ba2 b33e 939e 85be
00000020: eb71 843e d1d2 c4be 9cf0 9b3e 90d7 3bbe
00000030: bdd0 833e e77a d73e f3c9 02be 1fa1 97be

lstm_t.weight_ih_l0 f4 [64, 7]
-0.17337549 -0.06435997 -0.006381495 -0.075731695 0.19927122 -0.19841203 0.1960396 0.011994978
0.22279686 0.06239987 -0.21711373 0.2214933 0.054667205 0.103277676 0.16356966 -0.06255464
0.026540559 -0.09134025 0.1287186 0.0034121766 0.0830407 -0.15213275 -0.11470355 -0.116965204
-0.1602933 0.18305469 -0.19040143 0.14663471 -0.21337005 0.21104047 -0.24293281 0.18851024
0.017090362 -0.05506594 -0.1183991 0.15613683 0.06593196 0.110254265 0.054960288 0.024084155
0.18907304 0.093081236 0.20838505 -0.18172744 -0.04236003 -0.062011786 0.087419786 0.052702356
-0.15419865 0.11189928 -0.02760885 -0.16560394 0.24638177 -0.16976908 -0.10006913 0.23012072
-0.07794419 0.14243044 -0.07704591 -0.092992105 0.23328815 -0.23449619 0.03788948 0.004104488
-0.1640605 0.033238746 -0.09450803 0.06580817 -0.13383646 -0.1759766 -0.22621688 0.062716566
0.010356545 -0.054932747 -0.1834893 0.0053426395 -0.19708627 0.07330783 -0.043590445 -0.13351108
0.0993935 -0.17134987 0.006090605 0.14126153 0.2134279 -0.09336729 -0.20976345 0.16387752
0.03257684 -0.23517215 -0.009486368 0.017618982 -0.059562664 0.1691159 0.048286002 -0.14120223
-0.029975435 0.0033417472 -0.12825821 -0.12450037 -0.032488853 -0.031917248 -0.1660018 0.20705664
0.24383499 -0.17297366 0.13227193 -0.19003068 0.05635333 0.23959775 0.02928365 -0.19772205
-0.012601298 -0.18989499 -0.20313601 -0.07508293 -0.16865316 0.08393614 0.050459877 -0.2305025
-0.041155584 0.23331271 0.16782282 0.13583043 0.08889698 -0.20016022 0.21706195 0.23244427
-0.06714818 -0.21352012 -0.037329882 -0.003658211 0.17791423 0.13460127 -0.20786314 -0.14571878
0.028446127 0.17859657 -0.021079578 -0.2544223 0.11530201 -0.051109757 0.070094146 0.115813516
0.12844782 0.02003657 0.08671992 0.08277257 -0.09152453 0.06076546 0.15763117 -0.1916238
0.04734565 0.18858857 0.10281162 -0.11887286 0.06713543 -0.009216005 0.20205733 -0.1422934
0.1178103 0.019271318 0.019279199 -0.0011863515 -0.20147115 0.10509006 -0.15171039 0.2460255
0.08701675 -0.12221136 0.19271839 0.17901799 0.23390596 0.12334037 0.052450042 -0.12990314
0.23059756 0.12004081 0.113357 0.22141391 0.16832748 -0.13663311 0.18737538 0.095148385
-0.097878404 0.21099827 -0.09048372 -0.07653141 0.023083678 0.008632614 0.18411168 -0.11282073
-0.22131564 0.09940091 -0.15520346 -0.20208937 -0.19502579 -0.18141437 -0.06850694 -0.1704352
0.16034421 -0.10351252 0.1604046 -0.13681996 0.15610483 0.026841931 -0.24101177 -0.106983826
0.23283376 0.22203639 0.17849483 0.19185278 0.049134802 -0.20808099 -0.087086156 -0.19414824
0.12131102 0.14276627 0.08410613 0.21124329 -0.044277735 0.12494345 -0.023931302 -0.050438397
-0.1684435 -0.15903567 0.029315835 -0.1276358 0.035254948 -0.11363925 -0.025239337 -0.18185966
-0.19084187 0.1102715 0.1839903 -0.026680866 0.05292092 0.06481472 0.20482409 -0.023582533
0.24213214 0.011648947 0.15746872 -0.011380571 -0.110001 0.011544382 -0.21016657 0.050994188
-0.05660324 0.08089638 -0.22543682 0.19147474 -0.051633675 -0.022096274 0.03855167 0.21606527
00000000: 5889 31be 29cf 83bd dc1b d1bb 3819 9bbd
00000010: c10d 4c3e 862c 4bbe 9bbe 483e 9686 443c
00000020: dc24 643e 0297 7f3d 1053 5ebe 24cf 623e
00000030: b8ea 5f3d 3f83 d33d ce7e 273e a61c 80bd
00000040: 966b d93c 9910 bbbd cfce 033e d39e 5f3b
00000050: 3e11 aa3d b0c8 1bbe b2e9 eabd 748b efbd
00000060: ed23 24be b072 3b3e 98f8 42be 6927 163e
00000070: ae7d 5abe fe1a 583e 61c3 78be d408 413e
00000080: 1601 8c3c d38c 61bd 3a7b f2bd 55e2 1f3e
00000090: 5607 873d fdcc e13d 0a1e 613d 224c c53c
000000a0: 5d9c 413e 60a1 be3d e462 553e c216 3abe
000000b0: b681 2dbd 1200 7ebd 2509 b33d 6dde 573d
000000c0: 40e6 1dbe 732b e53d f42b e2bc 1494 29be
000000d0: 814b 7c3e f2d7 2dbe 0bf1 ccbd c4a4 6b3e
000000e0: 34a1 9fbd 49d9 113e 3fca 9dbd a572 bebd
000000f0: 17e3 6e3e c51f 70be 0032 1b3d f17e 863b
00000100: 7aff 27be 5a25 083d 6d8d c1bd 6fc6 863d
00000110: 6d0c 09be 3633 34be 66a5 67be 8b71 803d
00000120: 80ae 293c 2901 61bd 9ee4 3bbe 4f11 af3b
00000130: fcd0 49be 6a22 963d e58b 32bd 21b7 08be
00000140: d28e cb3d 5776 2fbe b393 c73b dda6 103e
00000150: d88c 5a3e 5a37 bfbd 3bcc 56be 82cf 273e
00000160: 4b6f 053d f8d0 70be b66c 1bbc af55 903c
00000170: fbf7 73bd b82c 2d3e 8bc7 453d 5197 10be
00000180: 0b8f f5bc 3701 5b3b 1f56 03be 0dfa febd
00000190: 0813 05bd a9bb 02bd 60fc 29be a806 543e
000001a0: e1af 793e 0220 31be 4b72 073e 6797 42be
000001b0: c0d2 663d 1d59 753e 44e4 ef3c a677 4abe
000001c0: ad75 4ebc d573 42be e302 50be 14c5 99bd
000001d0: 6ab3 2cbe b6e6 ab3d 04af 4e3d d908 6cbe
000001e0: c292 28bd 87e9 6e3e bfd9 2b3e 2217 0b3e
000001f0: 9f0f b63d cdf6 4cbe 7d45 5e3e df05 6e3e
00000200: fc84 89bd 05a5 5abe 38e7 18bd 99be 6fbb
00000210: 262f 363e ead4 093e 13da 54be 4e37 15be
00000220: da07 e93c 05e2 363e 14af acbc a443 82be
00000230: 7623 ec3d 7758 51bd 858d 8f3d a32f ed3d
00000240: d387 033e bc23 a43c 379a b13d aa84 a93d
00000250: 3671 bbbd 34e5 783d 116a 213e 0839 44be
00000260: 83ed 413d 5d1d 413e e68e d23d 9d73 f3bd
00000270: 4d7e 893d bafe 16bc 1ee8 4e3e 5cb5 11be
00000280: 8746 f13d e2de 9d3c 69ef 9d3c 5a7f 9bba
00000290: 744e 4ebe 7539 d73d f859 1bbe 1cee 7b3e
000002a0: d635 b23d f349 fabd f857 453e 7e50 373e
000002b0: 0b85 6f3e e099 fc3d dbd5 563d 5405 05be
000002c0: c421 6c3e f5d7 f53d b727 e83d 54ba 623e
000002d0: 0a5e 2c3e 8de9 0bbe 55df 3f3e 28dd c23d
000002e0: 7974 c8bd ee0f 583e 874f b9bd 80bc 9cbd
000002f0: fb19 bd3c cf6f 0d3c c687 3c3e 8e0e e7bd
00000300: 91a0 62be b492 cb3d a8ed 1ebe 84f0 4ebe
00000310: d7b4 47be b0c4 39be 5e4d 8cbd 9186 2ebe
00000320: 4631 243e 5ffe d3bd 1a41 243e 881a 0cbe
00000330: f2d9 1f3e 9ce3 db3c cacb 76be 561a dbbd
00000340: f96b 6e3e 825d 633e 59c7 363e 0e75 443e
00000350: 9341 493d 2f13 55be 3a5a b2bd ccce 46be
00000360: e971 f83d 5231 123e d63f ac3d 2950 583e
00000370: 925c 35bd 5ae2 ff3d 940b c4bc 7e98 4ebd
00000380: 747c 2cbe 3fda 22be c327 f03c f6b2 02be
00000390: 7e67 103d b2bb e8bd bac2 cebc 6b39 3abe
000003a0: 0d6c 43be 06d6 e13d f467 3c3e d591 dabc
000003b0: 9bc3 583d 94bd 843d 68bd 513e 2830 c1bc
000003c0: 7df1 773e 3adb 3e3c 7b3f 213e 9375 3abc
000003d0: 3448 e1bd a624 3d3c e835 57be 48df 503d
000003e0: cdd8 67bd 00ad a53d e9d8 66be f411 443e
000003f0: d57d 53bd 3f03 b5bc 5be8 1d3d 3740 5d3e
