Params/dataset1_100_0.001_10_16_222_model.pt (torch, 46587 bytes, 31 tensors)

lstm_p.weight_ih_l0 f4 [64, 10]
000000 f6 f1 c7 bd 51 ca ee bd f1 e2 1f bd 49 44 cd bc
       -0.09762947 -0.116596825 -0.039034788 -0.025056975
000010 eb be 5c 3e ef 81 06 be ba ea 94 3d 04 04 2f 3e
       0.21557204 -0.13135503 0.07271333 0.17091376
000020 77 32 a9 bd a9 bf bc bd b5 58 f4 3d 79 4f eb 3c
       -0.082615785 -0.09216244 0.11930982 0.028724419
000030 3c a5 07 3c cc d4 6f 3e 2f d1 86 bb b9 f5 06 be
       0.008279141 0.2342102 -0.004114292 -0.13179673
000040 e3 24 2f bc 7e a0 3f 3d af 77 5a 3d db d8 b3 3d
       -0.010689947 0.046783917 0.053336795 0.08781596
000050 11 90 a0 3c ab 1b 0e 3d d6 0d 56 be f2 bc 33 3e
       0.019599946 0.034694355 -0.20903715 0.17552546
000060 49 09 19 be eb d3 bd bd 57 38 a6 3d ff 1d 2a bd
       -0.14944948 -0.09268936 0.08116215 -0.041532513
000070 c9 50 27 3e 70 11 bf 3d 26 c0 5a 3e 63 64 9a 3d
       0.16339411 0.09329498 0.21362361 0.075386785
000080 1d 28 85 3d 7a a4 78 3d 7f 8a 20 be ab 27 14 3d
       0.065017916 0.060703732 -0.15677832 0.036170643
000090 d8 b8 b2 3d 74 4c 4d bd 73 d4 04 be e3 81 14 be
       0.087266624 -0.05012174 -0.12971668 -0.14502673
0000a0 57 af 1c 3e 9b 25 3c be 9b ed 85 3e a6 c7 eb bc
       0.15301262 -0.1837372 0.2615784 -0.028781723
0000b0 c8 51 6c 3d 21 95 22 3e 3c 71 32 3e 65 aa 80 3d
       0.05769518 0.158772 0.17426008 0.062825
0000c0 1e 69 59 be 36 1f d3 bb 1c 17 c4 bd e7 a6 60 be
       -0.21231505 -0.0064429296 -0.0957472 -0.21938668
0000d0 1f 36 9c bd db 6f e7 3d fa 1f c1 3c c0 0c 5c 3e
       -0.0762751 0.113006316 0.023574818 0.21489239
0000e0 93 06 16 be 6b 7f e5 3d 6a 7a 44 3e 5a 6a 2d be
       -0.14650945 0.11205944 0.19187322 -0.16935101
0000f0 65 fd 63 3e 91 a5 ed 3d 2b a1 83 bc 85 3b 60 bd
       0.22264631 0.11603845 -0.016068062 -0.054744262
000100 d0 64 02 be f5 7f 57 3e 9d 47 b2 3d cd 13 84 bc
       -0.1273377 0.21044905 0.087050654 -0.016122723
000110 49 d0 73 3e bd ee 00 be 4c ce ec bd c4 5e 00 be
       0.23809923 -0.12591071 -0.115627855 -0.1253615
000120 2f d5 76 3e e6 69 47 be a6 d8 5e 3b be dd dd bc
       0.2410476 -0.19473991 0.0034003644 -0.027083274
000130 90 6c 3e bd 57 17 62 be 71 9b dd 3d 24 4d 3a bd
       -0.046490252 -0.22079216 0.10820664 -0.045483723
000140 13 b5 5c be 58 fe d2 bc 91 10 38 be 8b a0 77 3d
       -0.2155345 -0.025756046 -0.1797507 0.06045584
000150 76 a8 d7 3d 29 a5 01 be 99 11 56 3e c8 7c fc 3c
       0.10530178 -0.1266066 0.2090515 0.03082122
000160 18 c5 69 be ba 91 5d 3c 62 e0 1c 3c 2f f9 fc 3d
       -0.22829092 0.013523513 0.009574981 0.123522155
000170 44 4d 55 be 74 a8 2a 3d cd c0 11 be 09 0e 08 3d
       -0.20830256 0.041664556 -0.14233704 0.03321651
000180 b9 0b 3f be c3 98 ad 3c 48 9a 5f be c4 a4 8c 3d
       -0.18656816 0.021191007 -0.21836197 0.06867364
000190 7a 37 38 3d 61 5a 31 3e c6 7a 79 3e 04 49 7b 3d
       0.04497478 0.17319633 0.2436324 0.06134893
0001a0 58 25 e4 bd 24 6d bf bd 31 61 00 3e 3a f5 f5 3d
       -0.11139935 -0.09346989 0.12537076 0.12009664
0001b0 6f 1a 13 bc 7d 31 33 be 28 d8 05 be e7 c6 ab 3c
       -0.00897847 -0.17499347 -0.13070738 0.020968867
0001c0 d8 e9 dc 3d 8f 92 08 3e f6 9f 02 3e 27 ef 26 3e
       0.1078679 0.13337158 0.12756333 0.16302167
0001d0 67 f5 b5 bc e2 22 0c 3e 69 a6 81 3d 63 96 63 3e
       -0.022211744 0.13685182 0.06330568 0.22225337
0001e0 bc b6 1d 3e ae 1f 40 3c 15 50 d4 3d b0 7c 9d bd
       0.15401739 0.011726303 0.10366837 -0.07689798
0001f0 1b db 65 be d6 e7 94 3d 42 41 5e 3e 84 74 cc 3d
       -0.22446863 0.07270782 0.21704581 0.09983161
000200 46 57 f8 bb 68 39 6b be 1c 6c 4f be 3d 37 c4 3d
       -0.007578763 -0.22971117 -0.20256084 0.09580848
000210 a3 4e 9c 3d 29 ba 1c 3e e3 2f 0e 3e 8f ab 6e bc
       0.07632186 0.1530539 0.13885455 -0.01456727
000220 fb 71 5c be 20 3b d2 3d 44 a1 48 be c3 d6 6e 3d
       -0.21527855 0.102651834 -0.19592768 0.05831028
000230 3a b3 9c bc 78 61 00 3e 09 5b 6e 3e 2a 89 d4 bb
       -0.01912843 0.12537181 0.23276915 -0.006486078
000240 c3 12 f9 3d 07 55 46 3c fc 20 01 3e 87 4b f5 bd
       0.12161782 0.012105233 0.12610239 -0.11977296
000250 d7 fd 71 be ce c1 c1 bd 59 c9 bd 3c 2c e4 f0 3d
       -0.23631988 -0.094607934 0.0231673 0.1176227
000260 c3 f8 21 3e 5c b4 fc 3a f7 6f c4 3d 4f d8 db 3b
       0.15817551 0.0019279826 0.09591668 0.0067091356
000270 6b 54 65 3e f4 5c bd 3d 18 49 b7 3c d4 bd 96 bb
       0.22395484 0.09246245 0.022373721 -0.004600266
000280 ee 94 84 3d 0a bb 7e bd 45 88 65 3e 92 7f 08 3e
       0.064737186 -0.062190093 0.22415264 0.13329914
000290 41 c8 ba bd 53 95 b2 3d 49 3f fa bd ca ab 5c be
       -0.09120227 0.087198876 -0.12219102 -0.21549907
0002a0 90 f9 6f be 34 43 74 be 6a 53 cf bd 00 dc d8 bd
       -0.23435044 -0.23853761 -0.10123332 -0.10588837
0002b0 cc 49 4f bd 8b 0b 4d 3e 41 4e 13 3d 0c aa ee 3d
       -0.050607488 0.20023935 0.0359633 0.116535276
0002c0 43 b1 3c 3d bd 5c 97 3d 3b 36 c2 bc c3 2f 90 ba
       0.046067487 0.07390735 -0.0237075 -0.0011000562
0002d0 2e 1c 77 3e 46 b9 40 3e 66 15 40 bb 62 aa 8b 3d
       0.24131843 0.18820676 -0.002930963 0.06819607
0002e0 2c d4 04 3e 60 64 f7 3d 49 90 0d 3e 89 0b b9 bd
       0.12971562 0.12079692 0.13824572 -0.09035403
0002f0 a5 45 bb 3d 29 32 92 3b 9f 75 c3 3d 0c 32 2e bd
       0.09144143 0.004461546 0.09543919 -0.042528197
000300 6f 50 20 3e b2 16 25 be 2c 93 18 3e 04 92 98 3d
       0.15655683 -0.16121939 0.14899892 0.07449725
000310 e3 78 09 3e d5 e1 a6 3b ff 4d e2 bd a7 af f9 3a
       0.13425021 0.0050928392 -0.11050033 0.0019049541
000320 99 40 09 3e 92 be 61 3d 16 34 5d be 1b 25 4e be
       0.13403548 0.055113383 -0.216019 -0.20131342
000330 52 5f 72 3e 96 30 1e be a9 8a 86 bd 21 97 2b be
       0.23669174 -0.15448222 -0.06569416 -0.1675687
000340 5b aa b1 3d 6b 57 61 be 95 3f 28 3e f7 dc 2d be
       0.08675071 -0.22006004 0.16430505 -0.16978823
000350 56 86 73 be da 91 3c bd eb 10 3e 3d 97 74 f2 bd
       -0.23781714 -0.046037532 0.046402853 -0.11838644
000360 41 7e ba 3d ea 1f 6b be e8 b5 51 3e 02 db 5e be
       0.09106112 -0.22961393 0.20479548 -0.21763232
000370 94 12 80 3d c7 8c 1e bd 9d 27 a5 bd a1 de 59 3e
       0.062535435 -0.038708474 -0.08064196 0.21276332
000380 a8 69 56 3e d7 a5 48 3e e7 40 1d be 7e 6b 3a be
       0.20938742 0.19594513 -0.1535679 -0.18205068
000390 d4 ae 60 be 52 3a 01 3e 83 1e 1a bc 86 3a 07 be
       -0.21941692 0.12619904 -0.009406689 -0.13205919
0003a0 30 60 f1 bd 67 10 f9 3d ab d3 63 bd 5b 7f d8 3c
       -0.117859244 0.121613316 -0.055621784 0.026427915
0003b0 a7 27 5a be d5 bc 5e 3e da c6 96 bd 14 8a c6 3d
       -0.21304189 0.21751721 -0.07362147 0.09694305
0003c0 86 79 43 be 90 68 3f 3e ee b3 4a 3e 76 f6 11 be
       -0.19089326 0.18692231 0.197952 -0.14254174
0003d0 b0 c6 d5 bd 65 0d 24 be 0f 69 6a 3e b3 d8 0c 3e
       -0.10438287 -0.16020735 0.22891639 0.13754539
0003e0 77 a6 cf 3d c4 0a d8 3d 4f 78 3f be 98 82 f9 bd
       0.101391725 0.105489284 -0.18698238 -0.12183112
0003f0 b7 b1 25 be bc 6d 9f bd 94 62 a2 bd 80 b7 0c 3e
       -0.16181074 -0.07784602 -0.079289585 0.13741875

lstm_p.weight_hh_l0 f4 [64, 16]
000000 f1 b2 c7 bc 94 4e 8f bc db 57 c4 3a 7c af 80 3e
       -0.024377318 -0.017493524 0.0014979796 0.25133884
000010 a6 f8 71 3e 93 5f 27 be d2 c5 50 3d ed db 59 3d
       0.23630008 -0.16345052 0.050969906 0.053188253
000020 da 8b 12 3e 90 ba 47 bd 7f 61 d0 3d d9 a3 07 3e
       0.14311162 -0.048761904 0.10174846 0.13246097
000030 3f 25 ba 3c 59 e5 57 3e b9 7d 9d 3d fb 11 43 3e
       0.022722838 0.21083583 0.07689995 0.19049828
000040 b7 74 35 3e df 0a 74 be b9 cb fd bd 2d 8c 33 bd
       0.17720304 -0.23832272 -0.12392373 -0.043834854
000050 50 9a 2a 3e d0 f9 3f be 39 cf 2b 3e ab b2 e3 3d
       0.16660428 -0.1874764 0.16778268 0.111180626
000060 b2 34 3c 3d cf be 55 3e ec c6 1e 3c c3 1a 32 be
       0.04594869 0.20873569 0.009690981 -0.17393021
000070 d6 6a 00 3e c8 7a 61 be 09 c4 5b be 10 df 98 3d
       0.12540755 -0.22019494 -0.214615 0.07464421
000080 c4 c7 4b 3e 9d 2d 80 be 09 f7 3a 3e 12 d6 3e 3e
       0.19900423 -0.250348 0.18258299 0.18636349
000090 47 38 22 be c9 49 54 be 95 99 b1 3b ab 97 34 3e
       -0.1584178 -0.20731272 0.0054199197 0.17635982
0000a0 08 16 13 3d 3c 3b 2b be 0c 8c 97 bd f4 fc 33 bc
       0.035909683 -0.16721815 -0.07399759 -0.010985602
0000b0 4f 1d 7e 3e 79 89 d9 bd 25 66 35 be 8d dc 7b bd
       0.24815868 -0.10621924 -0.17714746 -0.06148963
0000c0 94 63 0c be 47 a9 e2 bc 7a 4b b6 3c 3c e6 cf bd
       -0.13709861 -0.027668608 0.022252787 -0.101513356
0000d0 e6 d3 af 3d 72 01 70 be 09 ab 25 3e 40 c6 99 3d
       0.08585338 -0.23438051 0.16178526 0.07508516
0000e0 94 fa fd 3d 6c 70 8e bd 0f 5c bf 3d bd 37 c3 3d
       0.124013096 -0.069550365 0.09343731 0.095321156
0000f0 69 d4 ca 3c a8 17 b4 bd 6a bf 9e bd fc 01 1c 3e
       0.024759488 -0.087935746 -0.07751353 0.15235132
000100 57 c6 4d 3e 9a 83 3e bc 97 14 43 be 1e 1d 10 3d
       0.20095192 -0.011628056 -0.19050823 0.03518402
000110 93 37 6d be d1 be b7 3d 85 fe c6 bd 82 10 a3 3d
       -0.23165731 0.08971942 -0.097165145 0.07962133
000120 5e 9e 10 be 72 72 e3 3d 37 b9 38 be 61 5d 3d 3e
       -0.14122912 0.11105813 -0.18039404 0.18492652
000130 91 5e 3d 3e c8 eb 67 3e 4d 72 9f 3d fd 37 1b be
       0.18493105 0.22648537 0.07785473 -0.15158077
000140 86 89 60 bb 71 a4 1d 3e ad 51 13 be f6 99 3e be
       -0.0034261658 0.1539476 -0.14386626 -0.18613419
000150 a6 60 c9 3d bd 2c 04 be 8c 59 60 be a1 79 32 3e
       0.09832887 -0.12907691 -0.2190916 0.1742921
000160 70 dc 1c 3e 34 58 1d be ae 42 dd bd 3e 0b 34 3d
       0.15318465 -0.15365678 -0.10803734 0.043956034
000170 dc 5e f6 bd cf 98 5b be a0 e4 e7 3d eb ee 7a 3d
       -0.12029812 -0.2144501 0.11322904 0.061263006
000180 88 4f 54 be 23 84 b3 3c 0a 72 25 bc 50 18 01 be
       -0.20733464 0.021913594 -0.01009799 -0.1260693
000190 39 e1 42 3e b8 a2 97 3d 50 32 82 3e 7c b8 a6 bc
       0.19031228 0.07404083 0.2542901 -0.02035164
0001a0 5e 16 0f be e8 c9 79 bc 85 c7 4e be d7 6d 9e 3c
       -0.13973376 -0.015245892 -0.20193298 0.019339485
0001b0 d8 40 59 be d7 d3 3f 3e 54 8d 67 bd 6f dc 13 3e
       -0.21216142 0.18733154 -0.056531265 0.14439557
0001c0 8c 66 23 3e e4 ef 5a be 6d f2 76 3e b3 35 39 be
       0.15957087 -0.21380574 0.24115916 -0.18086891
0001d0 18 01 70 3e be 3d a6 bd 71 4f 4f 3d 44 8e ab 3d
       0.23437917 -0.08117245 0.05061287 0.083767444
0001e0 12 88 70 3e 68 8f 34 3e 1e 3f 16 3e 40 0f 72 3d
       0.23489407 0.1763283 0.14672515 0.059096575
0001f0 0d 75 a8 bd da 8f c0 3c 99 56 67 bc fc a2 28 3e
       -0.08225451 0.023506094 -0.014119768 0.16468424
000200 f6 15 3d be 36 58 24 3e 78 2e 18 3e f0 c3 80 3e
       -0.18465409 0.16049275 0.14861476 0.25149488
000210 5d 81 90 3d 23 4a 5d 3e da a4 2c be e6 ec 37 be
       0.07055924 0.21610312 -0.16859761 -0.17961463
000220 35 3e c9 3c e0 e5 d8 3d cd bc 23 3e 88 fe 4f be
       0.024565795 0.1059072 0.1598999 -0.2031194
000230 af f3 25 bd a9 87 1e be 48 23 07 3b d2 95 72 bb
       -0.040515598 -0.15481438 0.0020620394 -0.003701557
000240 d2 ab 53 be cb 96 fc bc b2 2a 20 be 55 6d 92 bd
       -0.20671013 -0.030833622 -0.15641287 -0.0714976
000250 79 44 e8 3c f9 5c 1e 3e fe b5 b2 3b e3 ab 06 be
       0.028352963 0.15465154 0.005453824 -0.13151507
000260 57 86 37 be 6d 29 ac bd 8d 43 06 3d 8e a8 1e be
       -0.1792234 -0.08406339 0.032779265 -0.15493986
000270 c3 9d 80 3e cb ae fc 3d 3c e7 4f 3e c3 8d 13 3d
       0.25120363 0.123380266 0.20303053 0.036023866
000280 91 63 30 be 3f a3 20 3e d4 f7 07 be ad de 64 3e
       -0.17225482 0.15687273 -0.13278133 0.22350569
000290 b4 ff 6e 3d 5b 70 30 3e be 97 7a be 26 c6 ae bd
       0.058349326 0.1723036 -0.24471948 -0.085338876
0002a0 40 72 fb 3d c3 b8 20 be 8b 10 45 3e 1f f3 16 3c
       0.12277651 -0.15695481 0.19244592 0.009213238
0002b0 e5 f2 47 be 55 c6 f6 3d 85 e2 45 3d 1b 74 f5 bd
       -0.1952625 0.120495476 0.04831173 -0.11985036
0002c0 c0 46 bd bd 4e d2 96 bc 88 6d 81 bd 90 31 7f 3e
       -0.0924201 -0.018410828 -0.063197196 0.2492125
0002d0 a3 f1 4c be 01 c8 76 bc ae 4e 3c be b5 a1 59 bc
       -0.20014052 -0.015062333 -0.18389389 -0.013283183
0002e0 2b 77 0e be 4d 38 70 3e 22 d1 10 be b0 74 6b 3e
       -0.13912646 0.23458977 -0.14142278 0.22993731
0002f0 2d e7 09 bc f7 89 b0 3c 01 82 9c bd 5d 38 ed bc
       -0.008416933 0.021550162 -0.07641984 -0.02895754
000300 5f bc 81 bd e5 fa e3 bd b3 3d 33 be 68 ac 6d bd
       -0.06334757 -0.11131839 -0.17504005 -0.058025748
000310 38 7a 01 be 1e a4 28 3d 91 37 b1 bc 08 c5 11 be
       -0.12644279 0.04117214 -0.021632941 -0.14235318
000320 4b e5 7e be 89 b5 03 be f8 06 42 3e 81 2a dc 3d
       -0.24892156 -0.12862219 0.18947971 0.107502945
000330 8b f6 1a 3e f7 08 65 bd 87 2f 3e 3e 7d 24 3d 3e
       0.15133111 -0.055916753 0.18572818 0.1847095
000340 af e6 05 be 36 e6 01 be 2d c8 03 3e 19 70 1b 3e
       -0.1307628 -0.12685475 0.1286933 0.1517948
000350 51 b5 c6 bd 11 59 bd 3d 0c d6 ad 3d e6 4d df bd
       -0.09702552 0.09245504 0.08488092 -0.1090353
000360 72 65 4c be 03 dc 94 bd 32 f9 2b be e4 a9 5b 3e
       -0.19960573 -0.072685264 -0.16794279 0.21451527
000370 01 a6 0d 3e d6 82 71 3e ca 75 15 3e 5f 02 c7 3d
       0.13832857 0.23585066 0.14595714 0.09717249
000380 f4 8f cd 3c 4e 7b 3b 3e 6f b1 d4 3d 68 e1 db 3c
       0.025093056 0.18308756 0.10385405 0.02684088
000390 02 eb 31 3e c0 ef 45 3e 8e fe b6 bd d1 04 68 bd
       0.17374805 0.19329739 -0.08935271 -0.05664522
0003a0 a0 72 4a bd a0 f0 42 be db e9 2d be 92 97 52 be
       -0.04942572 -0.19037104 -0.1698374 -0.20565632
0003b0 e1 55 89 3c 7d 6b 07 bd ec 25 00 3e d2 8a 4d 3d
       0.016764583 -0.033061493 0.12514466 0.050181217
0003c0 ec c1 fc bd fc d8 87 3d 49 62 69 be 79 81 b5 3d
       -0.12341675 0.06633183 -0.22791399 0.088625856
0003d0 aa fb 17 3e 75 70 1f be 2d 9c 1a 3d 29 84 31 bb
       0.14842096 -0.15570243 0.037746597 -0.002708683
0003e0 f0 e7 70 3d 49 31 40 3e 7f b6 20 be 73 fe 2e be
       0.058814943 0.18768801 -0.15694617 -0.17089252
0003f0 3b 2f c1 3c d0 37 58 be 13 f8 f8 bd ce a0 b4 3d
       0.023582092 -0.21115041 -0.121566914 0.088197336

lstm_p.bias_ih_l0 f4 [64]
000000 0a e3 f5 bc 1f 83 59 be 53 ae 36 be c2 6d af bd
       -0.030015487 -0.21241425 -0.17839937 -0.085658565
000010 4a 6f 0d 3e fd 4a 87 bd b2 55 d2 3c c7 6e 4a be
       0.13811985 -0.066061 0.025675628 -0.1976882
000020 bc 5c 3a 3e 05 1d 83 be a9 b6 b2 3d 47 75 42 3d
       0.18199438 -0.25608078 0.08726246 0.047475126
000030 e2 1e 67 3e c8 86 1a be de 06 04 3e af d4 06 3e
       0.22570375 -0.15090477 0.12893245 0.1316707
000040 4f ae 27 be 6e 9b 45 3e df 79 2d be 7c 12 2b be
       -0.16375087 0.19297573 -0.16941021 -0.1670627
000050 ec c7 5f be 8e 16 3d 3e 46 6f 9e 3d 2e 50 d0 bb
       -0.21853608 0.18465635 0.077360675 -0.0063572144
000060 4b d9 80 3b a6 77 30 3e 35 ef 2f bd b8 31 e4 3c
       0.0039321533 0.17233142 -0.042952735 0.027855739
000070 85 61 0e be 96 e2 3c be 50 41 73 be 8d 80 0b 3e
       -0.13904388 -0.1844581 -0.23755383 0.13623257
000080 e6 90 c2 bd ff 69 07 be 56 66 2e 3e 1b 8e 63 3e
       -0.095002934 -0.13224028 0.17031226 0.22222178
000090 34 58 af 3c 83 c7 a8 bd 3d a4 68 be c8 46 59 be
       0.021404363 -0.08241179 -0.22718902 -0.21218407
0000a0 03 c0 fa 3d 76 45 1e be e7 73 62 be 50 e4 40 be
       0.122436546 -0.15456185 -0.22114526 -0.18837094
0000b0 40 56 80 bd 25 5e ec 3d b2 28 27 3e a8 17 64 bd
       -0.06266451 0.11541394 0.16324118 -0.055686623
0000c0 26 39 42 3e f3 06 50 3e 13 6a ec 3d 45 32 76 3e
       0.18967113 0.20315151 0.115436696 0.24042614
0000d0 c3 16 82 be d5 41 69 3d 3c 7c 3a be a0 06 66 bc
       -0.2540799 0.056947548 -0.18211454 -0.014039665
0000e0 16 91 5c 3d 76 c2 94 3d 5f d7 41 bd d3 68 20 3d
       0.053849302 0.07263653 -0.047324535 0.03916247
0000f0 eb 96 1b be f9 6a 34 3e 31 fd d5 bd 3e 51 1b be
       -0.1519429 0.17618932 -0.10448683 -0.1516771

lstm_p.bias_hh_l0 f4 [64]
000000 9d 9d 81 be d0 a5 c6 bc 59 a6 b5 bd 8e c5 b4 3d
       -0.25315562 -0.024248987 -0.08869619 0.08826743
000010 3b 65 d1 bc 33 43 44 3d cc be 2c be ed b1 63 3e
       -0.025560966 0.04791565 -0.16869658 0.22235842
000020 27 34 95 bc 2f f6 4c be bd 0d 31 3e 4e f8 00 3c
       -0.018213345 -0.20015787 0.17290397 0.0078717
000030 36 fe a3 bc cc 88 01 be d7 47 a6 bd f1 20 43 3d
       -0.020018678 -0.1264984 -0.08119171 0.047638837
000040 3e 54 e5 3d 00 29 7d be 3b 1c 0e 3d 49 8b 85 3d
       0.111977085 -0.24722672 0.03469489 0.06520707
000050 52 dc 02 3e 55 3f 97 3d e6 fe a4 3d c6 6b 4c 3e
       0.12779358 0.073851265 0.080564305 0.19962987
000060 d5 39 a0 bd 7b 94 bc 3c 57 e4 cd bd 51 d8 25 3d
       -0.078235306 0.02302002 -0.10053318 0.0404895
000070 39 e2 f3 bd f8 ab ad 3d 5c 50 b2 3c 38 ca 4f 3c
       -0.11908383 0.08480066 0.021766834 0.01268249
000080 05 be 6d be c5 27 26 3e 94 cc 6c be 42 75 53 3d
       -0.23217018 0.16226108 -0.23124915 0.051625498
000090 e2 cb 11 be 28 d1 28 be ca 2c 56 bb 80 1b 25 be
       -0.14237931 -0.16486037 -0.0032680505 -0.16123772
0000a0 83 7c f8 bd 92 29 20 be 47 63 27 3e 57 10 98 bd
       -0.12133124 -0.15640858 0.16346465 -0.074249916
0000b0 ac cf ae 3d 79 83 3b bd ea 77 4d be d8 42 03 3e
       0.08535704 -0.04577968 -0.20065275 0.12818468
0000c0 9c f7 07 be f1 7c 0a 3e c2 76 5a be e9 40 78 be
       -0.13278049 0.13524224 -0.21334365 -0.24243511
0000d0 48 27 8b 3d 67 1a 86 bd 92 6d 07 be bd 6c 6d 3e
       0.06794602 -0.065480046 -0.13225392 0.23186012
0000e0 a2 e0 67 3e d6 35 7c be 57 15 3e 3e e9 d8 f1 3d
       0.22644284 -0.24629912 0.18562828 0.118089505
0000f0 cc fa a7 bd 2d 49 be bd 17 a5 8e 3d 6d e8 4e bd
       -0.082021326 -0.09291301 0.06965082 -0.050514627

lstm_p.weight_ih_l1 f4 [64, 16]
000000 b0 78 3d bd 32 39 a3 3d 02 58 5d 3e 91 3d 43 3c
       -0.046257675 0.079698935 0.21615604 0.011916534
000010 86 95 35 be 25 68 d6 3d bb 83 61 3e 20 70 5b 3e
       -0.1773282 0.10469083 0.22022907 0.21429491
000020 5f 41 5e 3e 2f 4f d2 bd 66 a9 06 be 1b 99 02 3e
       0.21704625 -0.10269009 -0.13150558 0.12753718
000030 e8 32 ac 3d 7d ef 45 3e 75 8d b4 bd 1e ce d0 bd
       0.08408147 0.19329639 -0.08816043 -0.10195564
000040 32 06 25 bd 19 28 41 3e 1e 06 a3 3d 5c 39 72 3e
       -0.04028911 0.18862952 0.07960151 0.23654693
000050 3c 67 0b be 0a 54 8a bd 69 8e 13 3e 7d 93 88 bd
       -0.136136 -0.067543104 0.14409794 -0.06668756
000060 c8 89 51 3e 2d 27 60 bd 98 08 35 3e 82 db 1f 3e
       0.20462716 -0.05472486 0.1767906 0.1561108
000070 e1 2e 26 3d c7 78 7c bd ab 94 1a be 0c b3 04 be
       0.04057205 -0.06163862 -0.15095775 -0.12958926
000080 c9 c6 0f be 7c b0 45 be 9f ff 43 3e 1c d5 bd 3d
       -0.14040674 -0.19305605 0.1914048 0.09269163
000090 97 74 a7 bd 6d c1 4a 3e cc db af 3c 01 07 9b 3b
       -0.081765346 0.19800349 0.021467112 0.0047310595
0000a0 05 b9 1c 3e 75 eb 6c 3e a4 14 21 3e 1d 05 be bd
       0.15304954 0.23136695 0.1573053 -0.09278319
0000b0 57 06 64 be 21 51 d6 bd 00 d5 53 bd fd ef cc 3d
       -0.22268043 -0.10464693 -0.051716805 0.10006712
0000c0 c4 db 07 3e ae d3 78 be f6 01 5d 3e 0b 2d 7e 3e
       0.13267428 -0.242995 0.2158278 0.2482187
0000d0 1a 60 90 bd df ee 45 3e b0 ff ea 3d 6c 55 17 be
       -0.0704958 0.19329403 0.1147455 -0.1477868
0000e0 40 ed d1 bd 95 1d 51 be d3 28 59 3e 19 0f 3f 3e
       -0.1025033 -0.20421441 0.2120698 0.18658103
0000f0 53 93 3d 3e 83 f1 08 3e 10 6e 19 3e b0 2f 26 3e
       0.18513231 0.1337338 0.14983392 0.16229129
000100 6a d5 96 bd 67 ad c2 bd 70 87 4a 3e 6d fe a4 bd
       -0.07364924 -0.0950573 0.19778228 -0.0805634
000110 ff c8 03 3e 27 85 eb bd c7 01 61 be fe 8d 41 be
       0.12869643 -0.11500006 -0.21973334 -0.18901822
000120 f2 53 5a 3e 58 7c 56 3e 3b 14 6e be ab 9f a8 3c
       0.21321085 0.20945871 -0.23249905 0.020583948
000130 95 73 6d 3e cf bb 19 be bc f3 e1 bb 6c ad f6 3d
       0.23188622 -0.1501305 -0.0068955105 0.12044796
000140 ec 58 22 3e 34 5e a7 bd c0 cd 8e bd 74 93 4c 3d
       0.15854234 -0.08172265 -0.069728374 0.04994531
000150 f8 0f 0d 3d b3 50 2f bd c1 0d 61 3e 83 ce 15 be
       0.034439057 -0.04280157 0.21977903 -0.14629559
000160 c9 31 e5 bd 76 4b 5c 3e 9c 96 79 ba b1 b7 8b bc
       -0.111911364 0.21513161 -0.0009521039 -0.017055364
000170 e5 e5 02 3e 23 0a d4 3d ac 47 28 bb 61 0a da 3d
       0.1278301 0.10353496 -0.0025677485 0.10646511
000180 0c 43 d6 3d f7 74 b8 bd 8d b7 1d 3e 50 0b 2c 3e
       0.10462007 -0.09006684 0.1540205 0.1680119
000190 06 f2 73 be fb 2c 2c be 6c 4e 3d 3e b4 b4 9a 3c
       -0.23822793 -0.16814034 0.18486947 0.018884994
0001a0 1a bd f0 3d 76 80 af 3d 22 80 da bd b1 f4 b3 bd
       0.11754818 0.08569424 -0.10668971 -0.087869056
0001b0 3e b2 41 be 2f 10 2a be 46 e6 56 3e 5d 22 58 be
       -0.1891565 -0.16607736 0.2098628 -0.21106859
0001c0 1e c2 ea 3d d4 6f ec 3d 56 e4 66 3e c6 eb 7a be
       0.11462806 0.11544767 0.22548041 -0.24504003
0001d0 18 46 ec 3d 32 7c c3 3d 5a 83 23 3e e2 20 74 3e
       0.11536807 0.09545173 0.15968075 0.23840669
0001e0 b4 6c e9 3d da 92 7b 3d c9 97 58 bd 01 4d 5c be
       0.113976866 0.061419345 -0.05287913 -0.2151375
0001f0 87 25 cf 3d 82 2f cf bd 66 8f 01 3e a6 12 57 be
       0.1011458 -0.10116483 0.12652358 -0.21003208
000200 61 bd b1 bc 39 6d 23 3e af 47 f1 3c c1 f1 17 bd
       -0.021696748 0.15959634 0.029453127 -0.03709579
000210 1e 35 8b 3d c5 fb ab 3d a8 a3 4e be 4d 1c bc bc
       0.06797241 0.083976306 -0.20179617 -0.022962714
000220 ef 3b e5 3d 0d c5 4c 3e 14 36 16 3e 9c 1f 17 3d
       0.11193072 0.19997044 0.14669067 0.03689538
000230 4b e6 42 3e 0a f3 26 3e 83 c0 69 bd a0 38 e7 3c
       0.19033162 0.1630365 -0.05706836 0.028225243
000240 d5 9c 79 bd 46 a8 ce bd 0a 03 3d 3e 75 ab db 3d
       -0.060940582 -0.10090689 0.1845819 0.10726062
000250 73 a5 5b 3e ef 35 c8 3d b3 85 f1 bd 0a a9 0b bc
       0.21449833 0.09775912 -0.11793079 -0.008524189
000260 fa 3b 29 3d ab 76 f9 3c 9b a4 4b be b1 d9 4a bd
       0.041316964 0.030452093 -0.19887011 -0.049524013
000270 61 6e 2f bd b4 0e 5b be 97 2f 39 be 1b 5b 48 3e
       -0.042829875 -0.21392328 -0.1808456 0.19566004
000280 2f de 70 be a8 41 31 3d e5 78 4e 3c 48 31 60 be
       -0.23522256 0.043275505 0.012602066 -0.218938
000290 a4 37 43 be 55 3f d2 bc e5 9e 82 be 9b 1b ec 3c
       -0.19064194 -0.025664965 -0.25511852 0.028821757
0002a0 45 cb 13 3e a7 8b fb bd 48 e9 04 3d cc 47 6f bc
       0.1443301 -0.12282496 0.032449037 -0.01460452
0002b0 62 b7 70 3e 60 76 93 bc e2 db ec bd f6 9a 5d bc
       0.23507455 -0.018000782 -0.11565377 -0.013525715
0002c0 6a 09 f9 bd 79 64 07 be c8 ce c7 bd 03 30 e9 3c
       -0.12159999 -0.13221921 -0.09756237 0.028465277
0002d0 04 86 69 3e fe 6d 3a be 29 a0 13 3d 1e f1 f6 3d
       0.22805029 -0.18206021 0.036041413 0.12057708
0002e0 cd 4c 70 3e b6 69 2b 3e 23 b0 2e 3e 4f e5 58 be
       0.23466797 0.16739544 0.17059378 -0.21181224
0002f0 12 eb 55 3e c5 b1 52 be 73 e4 90 3d 8e 9b 83 3d
       0.20890453 -0.20575626 0.07074823 0.06426154
000300 78 81 ad 3d 57 63 98 bc c2 a8 1d bc 67 22 d3 bd
       0.0847196 -0.018602056 -0.0096227545 -0.10309296
000310 a8 da 4b 3e e0 b5 17 be 48 9d 71 be ac 8b 80 3e
       0.1990763 -0.14815474 -0.23595154 0.2510656
000320 77 ab ff bd 14 40 47 be 32 b0 33 be b4 e0 f8 bd
       -0.12483876 -0.19458038 -0.17547682 -0.12152234
000330 a0 e1 28 3e b0 d1 52 be df 40 74 be c5 88 31 3e
       0.16492319 -0.20587802 -0.23852871 0.1733733
000340 14 21 5b be d9 cf 31 be 26 9d 4e bc 38 a0 5c be
       -0.21399337 -0.17364444 -0.012610709 -0.21545494
000350 08 fa 4a 3e 28 75 04 3e 56 49 70 3e 6f f6 1d be
       0.19821942 0.12935317 0.23465475 -0.15426038
000360 5d b5 3d be 17 c1 fa bd c1 85 00 3e ac 29 52 3e
       -0.18526216 -0.1224386 0.12551023 0.20523709
000370 7d ed 26 be 69 68 de 3d d2 31 0e 3e 87 a6 50 3e
       -0.16301532 0.108597584 0.13886192 0.20376025
000380 a6 5c a2 3d 4a 51 5f 3e 4a b1 08 be 1c df 12 3e
       0.079278275 0.21808353 -0.1334888 0.14342922
000390 93 82 6e be 17 87 ea 3d a5 43 07 bc 66 87 68 be
       -0.23291998 0.114515476 -0.008255874 -0.227079
0003a0 f6 cd 7f bc cb 81 30 3e fb 61 9d bc 4e 07 14 3e
       -0.01561307 0.17237012 -0.01921176 0.14455912
0003b0 8b ac ee 3d fd ea 32 be 77 8d e3 bd 11 0c 45 3e
       0.11654004 -0.17472453 -0.11110967 0.19242884
0003c0 09 22 fa 3d e7 90 19 3e 82 ae 05 3d 5c 56 54 bc
       0.12213523 0.14996682 0.032637127 -0.012960043
0003d0 d2 e6 aa 3d 97 db a0 bc 8e f2 51 bd 3c dc 5d be
       0.08344807 -0.019635959 -0.05125671 -0.21666044
0003e0 c7 6d aa bd 5e 77 46 3c a1 75 3d 3d 6f c7 04 3e
       -0.083217196 0.01211342 0.046254758 0.12966703
0003f0 6d d1 8f 3d 66 49 ba bc ad bc 16 3e c7 20 bc 3d
       0.07022367 -0.022740077 0.14720412 0.09185939

lstm_p.weight_hh_l1 f4 [64, 16]
000000 76 9b 45 3e ed 12 15 be 4a de 79 3e a1 03 e4 bd
       0.19297585 -0.14558001 0.24401203 -0.11133505
000010 d1 8e 4b bd 97 10 41 be a6 de 83 3d d6 d9 45 3e
       -0.049696747 -0.18853985 0.06438951 0.19321379
000020 1a cb a2 bd 82 16 25 3e 98 03 90 bc 69 2c 74 3e
       -0.07948895 0.16121867 -0.017579839 0.23845066
000030 e0 60 19 be 7c f5 bc 3b 73 a5 3f 3e 0d 46 50 be
       -0.14978361 0.0057665687 0.18715458 -0.20339222
000040 92 5f fa 3d de 8a 75 be cb 55 58 3e cf 59 c5 3d
       0.1222526 -0.23978755 0.21126477 0.0963627
000050 44 b7 43 3d fc d4 6c be aa 5e 82 3e 11 20 38 3e
       0.047782198 -0.23128122 0.25462848 0.17980982
000060 7e b0 6e 3e 58 92 57 be b1 c6 63 3e 29 b6 04 3d
       0.23309514 -0.2105192 0.22243764 0.032400284
000070 23 25 1a 3e e5 70 80 be c9 62 0a be 55 75 75 3c
       0.15053229 -0.25086132 -0.13514246 0.014981587
000080 1a e8 0f 3e 5b 4e 76 be 16 53 0c 3e 64 01 f0 3d
       0.14053383 -0.24053328 0.1370357 0.11719015
000090 80 10 32 be f9 02 53 3e 14 f8 ff bd 9a 56 b5 3d
       -0.17389107 0.20606603 -0.12498489 0.088544086
0000a0 02 4a 34 be 66 3e 1c be 4b e6 3e bd 43 c8 9b bd
       -0.17606357 -0.15258178 -0.046606343 -0.07606556
0000b0 75 28 49 3d 21 55 62 bd 19 0f 05 be 46 15 72 3e
       0.04911085 -0.055256967 -0.1299404 0.23640928
0000c0 85 b0 4e bc 00 a6 59 be 10 9b 4b 3e 66 ac 53 3e
       -0.012615328 -0.2125473 0.1988337 0.20671234
0000d0 69 22 05 be ea ed 2d 3e db 11 db bd b5 08 43 be
       -0.13001408 0.16985288 -0.10696765 -0.1904629
0000e0 14 00 84 be 3e 58 09 be 66 35 fe 3d 32 3f 84 3e
       -0.2578131 -0.13412568 0.12412529 0.25829464
0000f0 a1 7d 6e 3e 00 dd b6 bc a9 7d 48 bd 66 36 e3 3b
       0.23290111 -0.022322178 -0.048947964 0.006933975
000100 9e b3 59 3e bb de 3e be 0a 2f 14 be 28 76 a8 bb
       0.21259925 -0.18639652 -0.14471069 -0.0051410384
000110 aa 4b 65 be cf 26 03 3e c5 7e 27 be 73 fe 8d bd
       -0.22392145 0.12807773 -0.16356952 -0.06933298
000120 34 1b 0c be fd 4e 7b bc 1c 73 62 3e cf ad ad bd
       -0.13682252 -0.0153386565 0.22114223 -0.08480417
000130 f2 a5 c3 bd 3b 38 03 3e bd 46 c4 bc 14 ba 4d bc
       -0.09553136 0.12814419 -0.023959512 -0.0125565715
000140 08 68 4f 3e c8 c2 9d 3d ba 34 d3 bc 4c 5e 62 3e
       0.20254529 0.07703167 -0.025781978 0.22106284
000150 df 73 80 be 2f 05 57 3e bf 77 ae bd be 9e 2e 3e
       -0.25088403 0.20998071 -0.085189335 0.17052743
000160 0f ab 98 bd ed 89 52 be 02 72 09 bc b6 6c 62 3e
       -0.07454502 -0.20560427 -0.008388998 0.22111782
000170 74 77 e4 3c d1 15 4f be 4b 07 27 3e ed 64 77 3e
       0.027888991 -0.20223166 0.16311376 0.24159594
000180 3c ac 5f 3e 56 9e 09 be f6 2f 43 be 03 c3 81 be
       0.21843046 -0.13439307 -0.19061264 -0.25344095
000190 99 26 34 bd 76 fb 7b 3d 4c 8b 82 be 60 54 f5 3b
       -0.043982122 0.06151911 -0.254969 0.007486865
0001a0 36 f1 fa 3c cd 2c 34 3e 78 eb 2f 3e bf 06 e7 3d
       0.030632596 0.17595215 0.17179668 0.112805836
0001b0 20 33 71 bc e2 67 7a 3e 19 ab 51 bc 23 5a 50 bd
       -0.014721662 0.2445369 -0.0127971405 -0.05086721
0001c0 f5 20 05 be 17 c2 81 3d e8 2c 2c be 06 a8 d1 3d
       -0.13000853 0.06335848 -0.16814005 0.10237126
0001d0 10 61 5f be 2a ee c8 3c d1 a4 4a bc 52 17 2f be
       -0.2181437 0.024527628 -0.012368397 -0.1709874
0001e0 fa d4 4d 3e b8 fd 47 3e d9 ed 21 3e c0 26 44 3e
       0.20100775 0.1953038 0.15813388 0.19155407
0001f0 ea 15 1f bc f9 b8 15 be 4c 49 5f bd da 7e 19 be
       -0.009709815 -0.14621343 -0.05451326 -0.14989796
000200 a6 72 03 be 7f f9 07 3d dc b8 a2 bd e5 c6 80 3e
       -0.12836704 0.033196922 -0.079454154 0.25151744
000210 a4 f2 24 3e e1 1d 80 3e aa 27 ea 3d 22 41 12 3e
       0.16108185 0.25022796 0.114333466 0.14282659
000220 1c c7 03 be 88 33 47 3e 27 41 43 3e 2d 2e a3 3d
       -0.12868923 0.19453251 0.19067822 0.07967792
000230 4b 07 a4 3d 80 67 5e be b5 d9 41 bc 1b 36 58 3e
       0.080092035 -0.2171917 -0.011831691 0.2111439
000240 24 94 cd bd 72 0a 44 3e 0a 2d dd bd 30 8f 27 be
       -0.10038021 0.1914461 -0.10799606 -0.16363215
000250 f1 a7 0f 3e ae b8 05 3e 0b 8e b0 3d b9 4d da bd
       0.14028908 0.13058731 0.086208425 -0.10659356
000260 cf 4a 28 3e 2f 97 d5 bd ea ea 0a 3e e9 01 60 3e
       0.16434787 -0.104292266 0.13566175 0.21875729
000270 ba f7 f8 bd 1f 36 42 3e 6c 92 29 3e 91 f3 90 3d
       -0.12156625 0.18965958 0.16559762 0.070777066
000280 ae 02 d1 bd e2 8b 7b bd de ab 0b 3e 45 6f c9 3d
       -0.10205589 -0.0614127 0.13639781 0.09835676
000290 0c d6 d7 3b f7 de c4 bd 4a cd b8 3c a5 07 80 3e
       0.0065867957 -0.0961284 0.022558827 0.25005832
0002a0 c9 fa 45 3e f4 2c 28 be 7d 97 81 3e e9 16 22 3e
       0.19333948 -0.16423398 0.2531089 0.15829052
0002b0 5e bb 84 3e d0 d8 78 bd cd 1c 9f 3d 10 f7 35 bd
       0.259242 -0.060753644 0.07769165 -0.04442507
0002c0 e0 ea 07 be 33 96 89 bd e8 8b 0c be c4 b9 9e 3d
       -0.13273191 -0.06718101 -0.13725245 0.07750276
0002d0 f0 ec 53 bd ae 04 47 be 34 22 91 bd fa d2 58 bc
       -0.051739633 -0.19435379 -0.07086602 -0.0132338945
0002e0 0f ce f2 bd 92 4b 19 be dd 86 7c be 97 aa 09 3e
       -0.11855709 -0.14970234 -0.24660821 0.13443981
0002f0 87 c2 02 3e 96 8a 7f be ae 7d e2 3d 24 91 4c be
       0.12769519 -0.2495521 0.11059128 -0.19977242
000300 68 eb e5 bd 56 c8 26 be 41 5f 99 bd 9a ef 0f be
       -0.11226541 -0.1628736 -0.07488871 -0.14056244
000310 e6 52 87 3a ee e4 1c 3d 31 88 e4 bd 97 ad 25 3e
       0.0010324388 0.038304262 -0.11158789 0.161795
000320 1a 70 cf bd 67 b6 94 bd 85 d5 8f 3d 3c 4d 10 3e
       -0.101288036 -0.07261353 0.070231475 0.14091963
000330 08 6d 3a 3e 4d eb ed 3d 11 74 e2 3c d1 d8 c4 bc
       0.18205655 0.11617146 0.027643235 -0.024029167
000340 16 1d 2c be 33 bb 45 3e 43 26 d8 bb 2c d4 31 3e
       -0.1680797 0.19309692 -0.006596358 0.17366093
000350 ff 5f 04 3e f7 ce 12 3e 70 7f 3e be 22 4b 0c 3e
       0.12927245 0.14336763 -0.18603301 0.13700536
000360 c1 f6 6b 3e 72 ad 6f be cb 35 3e 3e a1 42 0c be
       0.23043348 -0.23406008 0.18575208 -0.13697292
000370 6d db 05 be 6e 62 59 be 52 5c 77 be c2 1d 25 be
       -0.13071986 -0.21228954 -0.24156311 -0.16124633
000380 f5 e1 41 be d1 62 0f bc 28 f3 06 be a9 a6 eb bb
       -0.18933852 -0.008751587 -0.13178694 -0.0071914983
000390 60 69 2f 3e 33 fd 51 3e 3c 61 4e be 0a 85 48 3e
       0.17130041 0.20506744 -0.2015428 0.19582
0003a0 f4 1c d8 bc dd 68 c9 bd 04 0d 86 3e fb 8f 46 be
       -0.026380993 -0.09834454 0.26181805 -0.19390862
0003b0 08 1c 07 be e7 f5 f5 3d 10 8c eb 3d ab f3 f9 3d
       -0.13194287 0.12009793 0.11501324 0.12204679
0003c0 ba c2 60 be bb 0e 29 be d9 a6 3b be f7 05 2e 3e
       -0.21949282 -0.16509525 -0.18325366 0.16994463
0003d0 4e 4d e2 3d 5e 00 ea bc ad a0 2b 3e 62 76 83 3c
       0.11049901 -0.028564628 0.16760512 0.01604766
0003e0 24 b0 6f be c7 f0 97 bd 0d 1e 06 3e 85 63 33 bd
       -0.23407036 -0.074189715 0.13097401 -0.04379608
0003f0 e9 76 dd 3d 1b d0 85 3d 7d 9c 41 bd 4c df 43 be
       0.10813696 0.065338336 -0.04726838 -0.1912815

lstm_p.bias_ih_l1 f4 [64]
000000 ce fc 90 bd 3f 63 1e 3c 68 ab c3 3c 3a 15 76 be
       -0.07079469 0.009667217 0.023885444 -0.24031535
000010 f0 01 81 be 5b 3c 86 3d c8 9d 0d be c3 8f 3d 3e
       -0.2519679 0.06554481 -0.1382972 0.18511872
000020 1b e8 78 3d 86 70 6a 3d 0d 67 7a be b2 fb b9 3d
       0.060768228 0.057236217 -0.24453373 0.0908121
000030 11 fa 20 bd ab 06 47 bd 1c 65 4f be 76 45 81 be
       -0.039300982 -0.048590343 -0.20253414 -0.25248307
000040 4f fb 30 3e ca e9 21 be 0a ea 0b 3d 44 8e 39 be
       0.17283367 -0.1581184 0.034158744 -0.18120676
000050 c5 5d 49 be 0f 69 f0 3d 11 da 81 3d fb f1 f9 bd
       -0.19664676 0.11738788 0.06340421 -0.12204357
000060 c0 8c dd 3d 60 31 1a be 8a ae 32 be 76 50 f7 3c
       0.108178616 -0.15057898 -0.17449394 0.030189734
000070 23 6f 96 3c 8d f3 55 be 80 f6 1b be 09 16 10 be
       0.018363541 -0.20893688 -0.15230751 -0.14070906
000080 aa 03 8c bd dc 81 07 3e 64 e7 66 be 27 6f 2e 3e
       -0.06836636 0.13233131 -0.22549206 0.17034589
000090 27 cb 9f 3c 28 26 b7 bc 8f 9a 0b be 62 97 52 be
       0.01950605 -0.022357062 -0.13633178 -0.2056556
0000a0 25 37 ad bd 68 ad ff 3d 3f d1 48 be cc 1b 61 3e
       -0.084577836 0.124842465 -0.19611071 0.2198326
0000b0 02 de 26 be 1c 9e 1a 3e 55 ec 64 be 9a cf 6f be
       -0.16295627 0.15099376 -0.22355779 -0.23419037
0000c0 60 a3 c2 bd fb 47 3f 3e e7 f4 d3 3d e5 bf 1b be
       -0.095038176 0.18679802 0.10349446 -0.1520992
0000d0 b5 46 81 3d a9 80 fc bd bc 0d 5e 3e 5b 1f 6e 3e
       0.063123144 -0.123292275 0.21684927 0.23254149
0000e0 db 3a 62 3b 2f 0f 2b 3e 0b c6 be bd a2 95 bb 3d
       0.0034519944 0.16705011 -0.093151174 0.091593996
0000f0 e8 e0 03 3e a2 3e da 3d dc 70 8f 3d 83 6f 6a 3e
       0.12878764 0.106564775 0.07003948 0.22894101

lstm_p.bias_hh_l1 f4 [64]
000000 0a 90 96 3d b3 62 2a 3e 43 ce dc 3d 53 a9 2c 3c
       0.07351692 0.16639213 0.10781529 0.010538417
000010 18 59 6c bd db 41 44 3e da 04 5b 3e 07 49 57 3e
       -0.057702154 0.19165747 0.2138857 0.21023951
000020 2a a1 81 3d fe eb 0e 3e cd 28 17 be b2 ed 1b be
       0.06329568 0.13957211 -0.14761658 -0.15227392
000030 17 9e 0e 3d eb 31 5a be 2c 3e 06 be f7 f9 0e 3e
       0.034818735 -0.21308105 -0.13109654 0.13962542
000040 dd 90 fa bd 58 8f 28 be 15 2f 72 be 70 da 1d 3e
       -0.12234662 -0.16460931 -0.23650773 0.15415359
000050 a1 3c 24 3e 0a d8 3c 3e 55 bd 3e bd 52 8c 03 be
       0.16038753 0.18441787 -0.04656728 -0.12846497
000060 ef f5 65 3e 98 27 24 be 6a 4d 4e 3e 52 b6 59 3d
       0.22457097 -0.16030729 0.20146719 0.05315239
000070 19 36 e0 bd 03 61 bd 3d 2c 48 15 be 52 c8 9b 3c
       -0.10947818 0.09247019 -0.14578313 0.019016419
000080 79 a3 4d 3e e1 7b 5a bd 76 13 80 3d 03 bc 27 3e
       0.20081891 -0.053340796 0.06253712 0.16380315
000090 02 93 93 bd b7 ab 1e 3e 4d 63 3a 3e 3e 02 00 3d
       -0.07205774 0.15495192 0.18201943 0.03125214
0000a0 1f aa 40 3e f2 d5 56 3e 53 cb 35 be 7f 02 ec 3d
       0.18814896 0.20980051 -0.17753343 0.115239136
0000b0 09 07 9e ba 9c bb b3 bd b5 74 49 3e d6 a1 d0 3c
       -0.001205654 -0.08776018 0.19673426 0.025467794
0000c0 ea de 36 bc ba da d0 3d 2c ce 5e 3d f5 de 72 3c
       -0.011161545 0.10197969 0.05439584 0.014823665
0000d0 ed a6 d1 3d 9b a7 9a bc d8 56 52 be 88 5b c7 3d
       0.10236917 -0.018878749 -0.20540941 0.09734255
0000e0 42 a8 3f bd 13 5d f6 bd 3d 4c 1d be 88 6d 00 3e
       -0.046791323 -0.12029471 -0.15361114 0.12541783
0000f0 d9 91 b6 3d 31 ba 57 be 4a f7 35 be 98 2d 30 bd
       0.08914537 -0.2106712 -0.17770115 -0.04301223

attention_p.attn_1.weight f4 [16, 16]
000000 41 cf 74 be ad 9f 39 3e aa 3b 82 3e f1 8a c4 be
       -0.23907186 0.18127318 0.25436145 -0.38387254
000010 a1 f2 72 3c ba 09 c3 bd d0 c3 8e bc 84 27 cf be
       0.014828355 -0.095233396 -0.017427355 -0.40459836
000020 44 2e 93 be 48 5a d6 bd 43 4e a1 3d bb 97 9a 3e
       -0.28746235 -0.104664385 0.07876255 0.30193886
000030 8a ae c8 3e e1 b6 46 3d 6a 60 ff bd 04 11 d1 be
       0.39195663 0.04851425 -0.124695614 -0.40833294
000040 d2 53 94 be 1e b8 a7 3e 75 b4 3f 3e 31 ee c4 be
       -0.289702 0.32757658 0.18721183 -0.38462976
000050 da 23 7b be de fc 85 be 6b 03 44 be 36 f7 6f 3e
       -0.24525395 -0.26169485 -0.19141929 0.23434147
000060 12 50 1a be 52 dd aa 3e e4 48 ab 3e 57 28 5b be
       -0.15069607 0.3337198 0.3345405 -0.21402107
000070 e7 a5 8c bd 93 42 ac 3e 5c b2 4e 3e 92 85 5a 3d
       -0.06867581 0.33644542 0.20185226 0.05335004
000080 3b 17 86 bd 0b aa 13 be 63 b1 4a bd 96 e9 61 be
       -0.065473996 -0.14420335 -0.049485575 -0.22061762
000090 b7 58 07 3e 37 37 be 3e 45 11 a3 bd 96 d8 5b 3e
       0.13217436 0.371515 -0.07962278 0.2146934
0000a0 17 82 cf 3e 90 a0 90 3e cd e3 fd bd 64 af c1 be
       0.40528938 0.282475 -0.12396965 -0.37829125
0000b0 e7 b7 80 be 98 77 d1 3d 42 b9 76 be 8a 8d 8f be
       -0.25140306 0.10227889 -0.24094108 -0.28037673
0000c0 67 f7 d4 3e 07 ed fb bd e4 79 86 be 49 2b b8 3e
       0.41595003 -0.12301069 -0.2626487 0.35970524
0000d0 33 81 99 be 22 28 cf 3e 85 64 73 3e fa 8d a6 be
       -0.29981384 0.40460306 0.23768814 -0.32530195
0000e0 ae d5 99 3e af ad 8b 3e c6 e5 71 bd ea ed e4 be
       0.30045837 0.27280948 -0.05905702 -0.44712764
0000f0 02 9d 75 bd d0 8d cd 3e 9b b8 dd bd 93 01 2c bd
       -0.059964187 0.40147257 -0.10826226 -0.04199369
000100 d7 50 a8 3e 81 40 ad be 8a 2d 32 be fc 7c f5 3d
       0.32874176 -0.33838275 -0.17400184 0.119867295
000110 24 03 be be bf e8 86 3e 01 b5 77 3e fa 35 25 3e
       -0.3711177 0.26349446 0.24190141 0.16133872
000120 f8 19 19 be 66 d4 b1 be c1 e3 f5 3d 57 d4 ab 3e
       -0.14951313 -0.3473236 0.12006331 0.3356044
000130 9b 0a 3c 3e 48 14 af be 0d c7 b5 3e 9f b9 5b be
       0.1836342 -0.3419516 0.35503426 -0.21457528
000140 f8 40 e1 be a8 32 2d 3d 6e 20 94 3e 2e fa be 3e
       -0.4399488 0.042284638 0.28930992 0.37300247
000150 b8 82 c6 bd 7d 2e a1 be d7 29 99 3b bb da 18 be
       -0.096929014 -0.3148078 0.004674177 -0.14927189
000160 4f 1d 12 bd e3 a0 cc 3d df 0d f9 3d 5d 07 4a be
       -0.035672482 0.09991624 0.12160849 -0.19729371
000170 a7 f6 69 3d 2d e6 14 3e 6d 62 99 be ea 48 b5 3d
       0.05711999 0.1454093 -0.29957905 0.08851798
000180 94 14 b1 3e 6c 60 37 be 68 13 32 3e 69 b0 09 3e
       0.34586012 -0.17907876 0.17390215 0.13446201
000190 e2 10 b4 3e a6 9b 83 3e 59 77 9f be de 88 0a be
       0.3516913 0.25704688 -0.31145743 -0.13528773
0001a0 48 e9 9d bd 08 78 5c be 10 c1 af 3e 45 c5 68 bc
       -0.077105105 -0.21530163 0.34326982 -0.014207189
0001b0 51 51 03 be fa 62 b8 3e dd 45 1c be 88 1a 90 be
       -0.12823988 0.36013013 -0.15261026 -0.28145242
0001c0 2e 28 61 3e b9 c1 b4 3e 33 fc e0 3c fe 98 a0 be
       0.21987984 0.3530405 0.027464008 -0.31366724
0001d0 53 82 0d bd a6 43 d8 3e 76 37 06 bd 40 cb 85 3e
       -0.034548115 0.42239112 -0.032767735 0.2613163
0001e0 45 db 61 3e ba 97 4d bd 94 55 ba 3c db 68 9e bd
       0.22056301 -0.050193526 0.022745885 -0.07734843
0001f0 d1 73 95 be 28 9d 7a be 07 1b 7d 3e 2a f9 8c be
       -0.29189923 -0.24474013 0.24717341 -0.27533847
000200 d1 d8 6e be dd ec 88 be 5b 74 d2 3e 31 91 08 be
       -0.23324896 -0.26743212 0.41104397 -0.13336636
000210 52 d4 4d be ff 1d b4 3e 6c 45 1a 3e b4 06 c3 be
       -0.20100525 0.35179135 0.15065545 -0.38091052
000220 b7 db d2 3e 34 f7 5b 3e ed 43 04 3e 67 17 cd bc
       0.41183254 0.2148102 0.12916537 -0.025035573
000230 30 2e dd 3d 2a 51 0e be ec da 97 3e 73 55 f5 3d
       0.10799825 -0.13898149 0.29659212 0.11979189
000240 a9 4a c8 3e 85 3a 04 3e 4b 05 0f bd ee d8 55 3e
       0.3911946 0.12912948 -0.034917157 0.20883533
000250 f0 bd a9 bd 22 56 0c 3e 1d 1a c1 3d e2 19 ad 3e
       -0.08288181 0.13704732 0.09428809 0.3380881
000260 0e 86 97 be 9f 6d 30 bb f5 6a 65 be ce 5d 95 3e
       -0.29594463 -0.0026920808 -0.22404082 0.2917313
000270 b4 7e 13 be 84 61 5c 3e 7e df 4c 3e 89 5e fb bd
       -0.14403802 0.21521574 0.2000713 -0.122738905
000280 03 40 fb bc 90 4e 87 3e 1f ce a3 be f2 d7 cc 3e
       -0.030670172 0.26427126 -0.31993195 0.40008503
000290 55 50 9f bd d5 f1 05 be dc d8 de 3a bd 95 7b 3c
       -0.07778994 -0.13080533 0.0017001885 0.015355525
0002a0 75 d9 aa be 33 6c e6 bc 93 99 9b 3e cf 8f 33 be
       -0.33369032 -0.028127765 0.30390605 -0.17535327
0002b0 c3 8a 88 3e c0 3d cb be fb b6 be 3e ca 4c a2 be
       0.26668367 -0.3969555 0.37248978 -0.3169921
0002c0 7d 31 86 be f5 72 27 be 55 43 2f be 81 7a af bd
       -0.26209632 -0.16352446 -0.17115529 -0.08568288
0002d0 30 49 98 be f9 25 79 3e 6e cf 54 bd 24 f5 c5 3e
       -0.29743338 0.24330892 -0.051955633 0.3866359
0002e0 89 09 d3 3e 4e bb b4 be af 74 4c 3e 86 ea a0 3e
       0.41218212 -0.35299152 0.19966386 0.31428927
0002f0 b7 89 31 3e e5 fb fb bb 74 41 98 be e1 23 d5 3e
       0.1733769 -0.0076899403 -0.29737437 0.41628936
000300 85 ab e5 3d 74 3b a6 3e 0c ef e6 bd 97 3c 1f 3e
       0.112143554 0.32467234 -0.11276063 0.15550457
000310 40 fb 47 be 15 74 d2 be 7a eb 34 bc a6 87 d7 3e
       -0.19529438 -0.4110419 -0.01104247 0.4209568
000320 e4 b6 27 3d de 96 e4 be 47 71 12 bb 2b 87 83 3e
       0.040945902 -0.44646353 -0.002234535 0.25689062
000330 33 26 ad be 81 58 df 3e db d9 83 3e 43 44 29 be
       -0.33818206 0.4362221 0.25752148 -0.16529946
000340 ba fe 11 3e 03 cf 86 3e 47 4b 96 3e 0f 65 87 bc
       0.14257327 0.26329812 0.29354307 -0.01652768
000350 fe 10 22 bd 0b ce 51 3e 6d d8 e1 3d 08 7c fa bd
       -0.039566986 0.20488755 0.11027608 -0.12230688
000360 b0 88 dc 3c 07 48 aa be e9 93 b8 be ae 95 bc 3e
       0.026920646 -0.33258078 -0.36050346 0.36832947
000370 f5 f1 db be f5 b4 80 be 6a 67 b8 be a5 b5 0d 3e
       -0.42958036 -0.2513806 -0.360164 0.13838823
000380 19 a0 a1 3e 50 2f 30 bd ce 95 bc 3e 19 3e db 3e
       0.31567457 -0.04301387 0.36833042 0.42820814
000390 e9 a1 45 bd 0b fd ba be c5 cb 6b be c9 34 8f bc
       -0.048250113 -0.3652118 -0.2302695 -0.017481225
0003a0 1f 2c f6 bd f7 4d 91 be 74 80 04 be 64 fb cb bd
       -0.12020134 -0.28379795 -0.12939626 -0.09960058
0003b0 ad bc 88 be f1 88 c0 be c3 40 a0 3e 12 7d cc bd
       -0.26706448 -0.37604478 0.3129941 -0.09984793
0003c0 a5 be c5 3d cb a0 39 be b0 b1 a4 be 00 69 72 bd
       0.09655503 -0.18127744 -0.32166815 -0.059182167
0003d0 83 b7 82 3e a2 e1 d2 3e c7 39 84 3d 61 15 92 be
       0.25530633 0.4118777 0.06456333 -0.28531936
0003e0 07 db f1 bd 4a 80 40 be b9 3c af bd 1a 8c 90 bc
       -0.11809354 -0.18798938 -0.08556504 -0.01764493
0003f0 c4 3b c3 bd 70 2a 43 be b8 63 93 be e8 b7 ce bd
       -0.09532884 -0.19059157 -0.28787017 -0.10093671

attention_p.attn_1.bias f4 [16]
000000 a9 ca 03 bc ac 07 5a bc 65 71 6e 3c 97 37 71 bc
       -0.008043923 -0.013307493 0.014553403 -0.014722726
000010 bd 14 8f 3b 03 26 1d b9 ef d9 76 bb 5f 72 9b bc
       0.004366486 -0.00014986847 -0.003766652 -0.018975435
000020 b7 86 52 3c 5c 6e 45 bc 36 88 85 3c 56 78 5d bc
       0.012849501 -0.0120502375 0.016300302 -0.01351746
000030 c0 23 5a 3c 44 9d 4b 3c 4d 37 49 bc c8 c0 93 bc
       0.0133141875 0.012427632 -0.012281251 -0.018036261

attention_p.attn_2.weight f4 [1, 16]
000000 81 04 e5 be 93 06 b5 be eb 95 e0 3d 69 44 31 be
       -0.4473 -0.35356578 0.109660946 -0.17311253
000010 ff cb 85 be ed 8c ee 3b af be bd 3e 69 7d 8b be
       -0.261322 0.0072799833 0.37059543 -0.27244118
000020 58 f2 80 3e 51 89 ba be bd 28 90 3e 54 d9 34 be
       0.25184894 -0.3643289 0.2815608 -0.17661029
000030 dc 6c 87 3e 0e 34 d4 3e 2a 4f 19 be fd 25 9d be
       0.2645024 0.41445965 -0.14971605 -0.30693045

lstm_t.weight_ih_l0 f4 [64, 7]
000000 5f d5 1e be 82 4f 5f bd 0d b3 12 3c aa 73 50 bd
       -0.15511082 -0.054519184 0.008953822 -0.050891556
000010 24 0c 66 3e 45 22 33 be 7a e6 61 3e 59 bf 74 3c
       0.22465569 -0.17493542 0.22060576 0.014938199
000020 97 dd 5e 3e e8 fa 3d 3d e4 c2 65 be b6 05 5b 3e
       0.21764217 0.04638186 -0.22437626 0.21388897
000030 96 a8 3e 3d 40 70 c5 3d d0 92 2d 3e 7e b9 89 bd
       0.046547495 0.096405506 0.16950536 -0.06724833
000040 51 18 c9 3c 42 a5 c3 bd d5 ac f9 3d 9a 53 0d bb
       0.024547728 -0.09553005 0.12191168 -0.0021564723
000050 0c de 9a 3d 09 4b 13 be fe 0f bd bd b5 77 cc bd
       0.07561883 -0.14384092 -0.09231566 -0.0998377
000060 17 90 09 be 7e 35 52 3e 4f 31 27 be 3a 86 2b 3e
       -0.13433872 0.20528218 -0.16327403 0.16750422
000070 ba aa 50 be bd dc 63 3e ac 56 70 be 2d 77 41 3e
       -0.20377627 0.22252174 -0.23470563 0.18893118
000080 c8 6d 8d 3c 9a f5 58 bd 65 43 f0 bd 55 25 1b 3e
       0.017264262 -0.0529686 -0.117316045 0.1515096
000090 c3 bc 81 3d 0b 60 cc 3d 1b f7 41 3d bf c1 87 3c
       0.063348316 0.09979256 0.0473548 0.016571878
0000a0 02 19 3c 3e 9c b1 b1 3d a7 00 58 3e 84 17 3d be
       0.18368915 0.086764544 0.21093999 -0.18466002
0000b0 fb 22 30 bd e2 9a 64 bd 9d 6e c3 3d 8c 9d 6e 3d
       -0.04300211 -0.05581177 0.09542582 0.058255717
0000c0 c9 62 17 be d4 d3 dc 3d 1e 6b 1a bd b8 25 31 be
       -0.14783777 0.107825905 -0.03769981 -0.17299545
0000d0 4c 10 71 3e 59 bd 39 be 6d ad e5 bd 94 38 5f 3e
       0.23541373 -0.18138637 -0.11214719 0.21798927
0000e0 50 2e a5 bd d4 70 1c 3e 44 98 90 bd 3e 39 c0 bd
       -0.08065474 0.15277416 -0.07060292 -0.09385918
0000f0 36 06 6c 3e 58 bf 71 be ef d4 0c 3d 50 8f 45 ba
       0.23049244 -0.23608148 0.034382757 -0.0007536309
000100 71 c9 23 be 57 e8 20 3d 54 9b af bd d9 e8 98 3d
       -0.15994813 0.039284077 -0.08574548 0.07466287
000110 89 3d 01 be 10 96 2c be 7d 70 6b be 2c 8f 52 3d
       -0.1262113 -0.1685412 -0.2299213 0.05140607
000120 7e 73 9d ba 18 a9 85 bd e3 12 46 be 14 b6 4a bb
       -0.0012012569 -0.06526393 -0.19343142 -0.003093128
000130 60 5f 53 be 19 af 73 3d 7a 16 67 bd 1b cd 16 be
       -0.20641851 0.059493158 -0.05641792 -0.14726679
000140 48 6b a7 3d 5b 4d 40 be 91 49 30 bc 4c 7c fe 3d
       0.08174759 -0.18779509 -0.010759727 0.124260515
000150 38 7c 4f 3e b3 78 d7 bd 4f df 5f be 18 b4 1b 3e
       0.2026223 -0.105210684 -0.21862529 0.15205419
000160 1c 25 93 3c bd 96 7f be c2 f3 bf bc ff 3d c7 3c
       0.017962031 -0.24959846 -0.023431662 0.024321554
000170 c3 8a 55 bd 5f 9c 32 3e 2d 94 5a 3d 67 34 0b be
       -0.052134287 0.17442463 0.053363968 -0.13594209
000180 f9 72 c5 bc f7 e7 16 3c a4 0c fb bd 06 f1 f5 bd
       -0.024102675 0.009210578 -0.122582704 -0.12008862
000190 1e 15 d0 bc 14 1f b5 bc 39 b1 1d be 3b b2 5e 3e
       -0.025400694 -0.022109546 -0.15399636 0.21747677
0001a0 17 22 83 3e 2a 92 3c be 07 50 fa 3d 9f 61 49 be
       0.25611946 -0.18415132 0.12222295 -0.19666146
0001b0 8c dc 68 3d 47 bf 77 3e eb 01 01 3d f6 b8 47 be
       0.056850955 0.2419406 0.03149597 -0.19504151
0001c0 16 8f ce 3b 87 01 37 be de 5f 42 be 98 35 55 bd
       0.0063036783 -0.17871676 -0.18981883 -0.052053064
0001d0 cd 0d 13 be 1e e9 dc 3d 88 7f 99 3d e9 aa 6c be
       -0.14360733 0.10786651 0.07495028 -0.23112072
0001e0 2c 0e 05 bd bd d4 77 3e 76 04 32 3e 88 ec 0e 3e
       -0.03248422 0.24202247 0.17384514 0.13957417
0001f0 58 68 b7 3d a4 c7 4b be cf 96 57 3e c0 cc 68 3e
       0.08955449 -0.19900376 0.21053623 0.22734356
000200 a5 9c 92 bd c4 4e 5d be af a1 3d bd 31 54 43 bc
       -0.07158784 -0.21612078 -0.04629677 -0.011921928
000210 d2 d5 2b 3e c9 79 11 3e c9 5a 3e be 7b 57 0a be
       0.16780785 0.14206614 -0.1858932 -0.13509934
000220 fe 26 46 3d 3f 36 49 3e 34 da af 38 4d c0 74 be
       0.04837703 0.196496 8.385294e-05 -0.23901482
000230 e3 70 fa 3d 74 0f 2b bd 5b ad a5 3d 2b f8 f6 3d
       0.12228563 -0.041762784 0.080897056 0.12059053
000240 5d 69 03 3e 2f 42 b0 3c e0 90 b3 3d 7b 1d 9e 3d
       0.12833162 0.021515934 0.08767867 0.07720467
000250 3b 26 a5 bd b4 80 8a 3d d2 41 1f 3e 1e db 4a be
       -0.080639325 0.067628294 0.15552452 -0.19810149
000260 cd c1 25 3d e6 03 3c 3e 53 bd d0 3d 6c c9 01 be
       0.040468026 0.18360862 0.10192361 -0.12674493
000270 5a b9 72 3d 98 b7 29 bc 1e b6 53 3e ea ce 0e be
       0.059258796 -0.010358714 0.20674941 -0.13946119
000280 e1 a7 f7 3d 79 3d 99 3c 60 a3 32 3c 9f f6 6f bc
       0.12092567 0.01870607 0.010903209 -0.014646201
000290 ea 06 5f be 6c 3e b8 3d 31 44 2a be f7 7e 6c 3e
       -0.21779981 0.08996281 -0.16627575 0.23095308
0002a0 58 2b b6 3d 23 3c e6 bd bb bc 51 3e da 03 43 3e
       0.08894986 -0.11241939 0.20482151 0.19044438
0002b0 c5 27 77 3e e4 f7 00 3e ac ec 57 3d 37 70 0e be
       0.24136265 0.12594563 0.052715942 -0.13909994
0002c0 11 8a 61 3e 11 80 f4 3d e9 87 ee 3d 4c a2 68 3e
       0.22025324 0.11938489 0.116470166 0.22718161
0002d0 19 84 30 3e 6b c6 07 be a9 c9 3a 3e e4 00 bc 3d
       0.17237891 -0.13259284 0.1824099 0.091798574
0002e0 d0 11 cc bd 59 34 50 3e f2 0d cc bd 04 44 aa bd
       -0.09964335 0.20332469 -0.09963597 -0.08313754
0002f0 de 1c 7e 3c 0a 33 01 3b 5f b2 30 3e b6 02 04 be
       0.015509812 0.001971426 0.17255543 -0.12891659
000300 68 97 77 be a0 34 a2 3d 75 6d 32 be 35 a8 62 be
       -0.2417885 0.07920194 -0.17424567 -0.22134478
000310 3f d9 40 be 96 77 43 be 37 28 a0 bd 63 fe 38 be
       -0.18832873 -0.19088587 -0.078201704 -0.18065791
000320 32 a5 15 3e 2d 67 f5 bd 7f c7 15 3e 32 91 09 be
       0.14613798 -0.1198257 0.14626883 -0.13434294
000330 85 fe 24 3e da 67 07 3d 61 4c 70 be 5b 48 ce bd
       0.16112716 0.033058025 -0.23466636 -0.100723945
000340 e2 99 74 3e f9 34 69 3e bc 19 41 3e 10 3d 4c 3e
       0.23886827 0.22774114 0.18857473 0.19945168
000350 b0 74 6a 3d 8a c7 49 be 2e 52 93 bd 39 53 39 be
       0.057240188 -0.19705024 -0.07193409 -0.18098153
000360 3c 28 0a 3e cf bc 0e 3e e5 bc 9d 3d 1c c9 4e 3e
       0.1349191 0.13939212 0.077020444 0.20193905
000370 72 ac 3b bd e8 2c 03 3e 88 93 aa bc 69 7b 3e bd
       -0.045818754 0.12810099 -0.020822302 -0.04650441
000380 df 83 18 be da 07 11 be 84 e1 3e 3d 15 40 ef bd
       -0.14894055 -0.14163151 0.046601787 -0.116821446
000390 3a ea 21 3d d7 40 e7 bd c8 ac 15 bd 73 19 36 be
       0.039530016 -0.11291664 -0.03654173 -0.17783146
0003a0 09 b1 55 be 10 a1 b8 3d 5f 3b 2c 3e 50 f4 17 bd
       -0.20868315 0.09015095 0.16819523 -0.03709823
0003b0 13 b1 2c 3d 17 23 67 3d be b1 52 3e c6 d5 ff bc
       0.04216106 0.05642995 0.20575616 -0.031229865
0003c0 5f d9 72 3e 80 9a 6d 3c 3f 0b 23 3e 25 e9 30 bc
       0.23715733 0.014502168 0.15922259 -0.0107977735
0003d0 5c 5c dd bd c1 a9 92 3c 19 e1 63 be 93 29 0a 3d
       -0.10808632 0.01790321 -0.22253837 0.033731055
0003e0 92 74 8f bd 4f 99 88 3d 96 06 78 be b0 53 34 3e
       -0.07004656 0.06669866 -0.24221262 0.17610049
0003f0 b7 a8 70 bd 86 2a de bc 73 2a 0b 3d fd 30 56 3e
       -0.05875465 -0.027119886 0.03397603 0.20917125
