Params/dataset1_100_0.001_20_16_222_model.pt (torch, 46587 bytes, 31 tensors)

lstm_p.weight_ih_l0 f4 [64, 10]
000000 52 e3 bb bd 8f 72 ef bd 5c 16 17 bd 62 3f 00 bd
       -0.09174217 -0.11691772 -0.036886558 -0.031310447
000010 05 e4 59 3e 23 4f 09 be 00 7b 8f 3d cc 61 2c 3e
       0.21278389 -0.13409095 0.07005882 0.16834182
000020 be 49 ae bd 45 ae c1 bd 2d 11 f4 3d c1 23 fb 3c
       -0.08510159 -0.094570674 0.119173385 0.030656697
000030 4f 39 ea 3b 36 21 78 3e 56 29 52 bb 8e 05 06 be
       0.007147945 0.24231419 -0.0032068095 -0.13088056
000040 d6 33 20 bc 9c 44 43 3d 75 07 5e 3d 11 96 b5 3d
       -0.009777984 0.047672853 0.05420633 0.088665135
000050 d7 25 ce 3c 94 8d 0e 3d d0 d9 54 be 9e 51 2d 3e
       0.025164528 0.03480299 -0.20786214 0.16925666
000060 e6 6d 1d be 2a a3 c6 bd e9 63 9d 3d 17 d1 3b bd
       -0.15373954 -0.0969909 0.07685072 -0.0458537
000070 18 e5 22 3e 25 33 b6 3d 25 f4 55 3e 70 29 a5 3d
       0.15907705 0.08896474 0.20893915 0.08064544
000080 bf ff 6d 3d 34 dd 86 3d ba 6b 18 be 07 7e 34 3d
       0.058105227 0.0658516 -0.14884844 0.0440655
000090 78 be c2 3d bc 93 2d bd 53 02 fa bd 96 c9 0c be
       0.09508985 -0.04237722 -0.122074746 -0.13748774
0000a0 50 d6 1c 3e 16 74 3d be 83 99 86 3e 17 77 0e bd
       0.15316129 -0.18501315 0.26288995 -0.03478154
0000b0 80 ed 67 3d 63 7a 21 3e 94 4b 31 3e 2e 75 7c 3d
       0.056622982 0.15769343 0.17313987 0.06163519
0000c0 41 ba 5a be 88 5d 00 bc 00 61 a3 bd c8 0f 5c be
       -0.21360113 -0.0078348 -0.07977486 -0.21490395
0000d0 33 65 9d bd 39 4a ca 3d dc f1 bb 3c 70 93 5b 3e
       -0.07685318 0.09877438 0.022942476 0.21442962
0000e0 f8 39 16 be 11 a2 e5 3d ba ca 44 3e 9e e7 2c be
       -0.14670551 0.11212552 0.19217959 -0.1688523
0000f0 71 0b 5d 3e 8e 78 ea 3d 70 87 8c bc 67 ee 3c bd
       0.21586396 0.11448775 -0.017154425 -0.046125796
000100 90 0b ff bd 75 43 5a 3e 5d 81 b7 3d b2 f4 60 bc
       -0.12453377 0.21314795 0.08960221 -0.013730215
000110 b0 1a 76 3e 61 8f fd bd 80 dc e6 bd fc 01 03 be
       0.24033618 -0.12380863 -0.11272526 -0.12793726
000120 44 37 7a 3e 7f 07 47 be 5f 1d 73 39 b7 a4 f7 bc
       0.24435145 -0.19436453 0.00023185227 -0.03022991
000130 a3 3c 4b bd 2e 48 65 be 65 3e d7 3d 43 02 47 bd
       -0.049618375 -0.22390816 0.10509948 -0.04858614
000140 62 89 4e be d7 a4 99 bc 9a f5 3a be 0c dd 4e 3d
       -0.20169595 -0.01875536 -0.18257752 0.050503775
000150 33 8c d9 3d 0d 80 00 be 04 83 57 3e 1f 0f 05 3d
       0.10622444 -0.12548847 0.21046072 0.032485124
000160 a2 d8 67 be 14 d7 7e 3c 42 61 51 ba 69 74 00 3e
       -0.22641233 0.015554208 -0.000798721 0.12544407
000170 d5 2c 5b be 8f fe 4b 3d 32 3d 0a be d8 81 25 3d
       -0.21403821 0.049803313 -0.13499907 0.04040703
000180 4e e1 37 be e6 3b e5 3c cf de 58 be 02 b5 99 3d
       -0.1795704 0.027982663 -0.21178745 0.075052276
000190 fb 19 4d 3d ec 99 31 3e 4c 48 7a 3e 1d 05 6f 3d
       0.050073605 0.17343873 0.24441642 0.058354486
0001a0 03 7f e4 bd 1f c4 bf bd d3 38 00 3e 5b a8 f5 3d
       -0.11157038 -0.09363579 0.12521677 0.11995002
0001b0 d1 68 15 bc 15 54 33 be 9d 90 0d be ca 76 b4 3c
       -0.009119228 -0.17512543 -0.13824697 0.0220293
0001c0 46 eb d4 3d 00 6f 11 3e 9b fd 01 3e 09 35 26 3e
       0.10396437 0.142025 0.12694399 0.16231169
0001d0 5d ed bc bc e3 1a 0b 3e 99 41 7e 3d 38 12 62 3e
       -0.023062402 0.13584475 0.062074278 0.22077262
0001e0 00 b9 26 3e a4 90 3d 3c 42 7f d8 3d e7 31 a2 bd
       0.1628151 0.01157013 0.105711475 -0.07919674
0001f0 24 f8 67 be d6 c6 90 3d 08 49 5c 3e f8 b4 c8 3d
       -0.22653252 0.07069175 0.21512234 0.09800142
000200 9e 9d 18 bc 52 eb 6c be ff 0a 51 be 14 0b b8 3d
       -0.009314923 -0.23136643 -0.20414351 0.08986488
000210 ba 5e a5 3d e4 03 1a 3e 8b 22 0b 3e 45 4f 90 bc
       0.08074708 0.15040547 0.13587396 -0.017615924
000220 e4 b0 5f be 9d 7d cb 3d 92 20 4c be 49 6d 60 3d
       -0.21844822 0.09936068 -0.199343 0.054791722
000230 4a 31 9c bc c5 ff ff 3d 17 80 6e 3e d9 5e dc bb
       -0.019066472 0.12499956 0.2329105 -0.006725174
000240 35 5a 01 3e 42 ef 8c 3c b4 84 06 3e db 56 ea bd
       0.12632068 0.01720393 0.1313656 -0.114423476
000250 04 7a 6c be 37 b7 b6 bd 19 19 d3 3c bb 89 eb 3d
       -0.2309342 -0.08921664 0.025768803 0.115008794
000260 c0 6d 21 3e 2a b4 95 3b 48 a8 cc 3d 3b 4d 2d 3c
       0.15764523 0.0045685964 0.099930346 0.010577495
000270 48 2c 69 3e 1a c6 c4 3d 3d 15 d4 3c 57 47 98 ba
       0.22770798 0.096080974 0.025889033 -0.0011617941
000280 1f 7c 84 3d d4 50 7e bd 6b 60 65 3e 79 97 08 3e
       0.06468987 -0.062088802 0.22400062 0.13339032
000290 ba a2 bc bd 69 b1 ae 3d ea 15 ff bd 10 62 5f be
       -0.09210725 0.08529932 -0.12455352 -0.21814752
0002a0 af e2 72 be bb 4f 77 be 81 d2 c2 bd e9 b9 d7 bd
       -0.23719285 -0.24151509 -0.09512807 -0.105335064
0002b0 48 e1 48 bd 30 6f 55 3e 74 c5 07 3d 39 00 e9 3d
       -0.04904297 0.20843196 0.03314729 0.113769956
0002c0 54 ae 31 3d b3 f4 91 3d b6 68 d7 bc da 20 6f bb
       0.043379143 0.07126751 -0.026295047 -0.0036488087
0002d0 7a 6a 7a 3e cd 9b 42 3e d9 4f 66 bb 13 69 96 3d
       0.2445468 0.19004746 -0.0035142808 0.0734426
0002e0 b8 a2 01 3e 4f 03 f1 3d ed 68 0a 3e 46 4e bf bd
       0.12659729 0.11768209 0.13516589 -0.09341101
0002f0 74 13 b5 3d 69 a3 be 3a 32 5b b2 3d 52 a2 18 bd
       0.08841601 0.001454455 0.087088004 -0.037264176
000300 52 a2 18 3e 4d 85 1c be f5 2f 20 3e c4 c5 a7 3d
       0.1490567 -0.15285225 0.15643294 0.08192018
000310 fe 03 11 3e a2 0a 4b 3c e8 88 d3 bd 63 c5 13 3c
       0.14161679 0.012392672 -0.10328847 0.009019229
000320 ba 67 06 3e db 59 72 3d e5 42 61 be bb 3d 4a be
       0.13125506 0.059167724 -0.21998174 -0.19750111
000330 4e e1 6e 3e b8 c4 21 be 7d c2 8d bd c9 39 2f be
       0.23328134 -0.15797698 -0.06921861 -0.17111887
000340 81 55 aa 3d 26 09 65 be c9 5a 35 3e 12 18 30 be
       0.0831709 -0.22366771 0.17710413 -0.17196682
000350 97 8b 6f be 70 96 53 bd c4 28 2f 3d 22 d2 f9 bd
       -0.23393093 -0.05165714 0.042763487 -0.12198283
000360 cc 42 b3 3d 64 ad 6e be 26 3a 4e 3e 7a 46 62 be
       0.08752975 -0.23308331 0.2013937 -0.22097197
000370 6e 2f 54 3d 92 89 13 bd 2d f9 ae bd 37 00 5e 3e
       0.051803045 -0.03601987 -0.0854362 0.2167977
000380 be ff 5b 3e f8 2b 4e 3e 2d de 17 be ea 2e 35 be
       0.21484277 0.2013396 -0.14830847 -0.17693678
000390 34 9e 5b be ab 21 06 3e f5 7c 44 bc 53 11 0a be
       -0.21447068 0.13098781 -0.011992683 -0.13483171
0003a0 ca 1b ec bd 6d f3 f8 3d a3 c0 6d bd 5c a2 c4 3c
       -0.11528738 0.12155805 -0.05804504 0.0240032
0003b0 9d a6 5c be a2 37 5c 3e e5 e1 9b bd 17 5c c1 3d
       -0.21547933 0.21505597 -0.07611445 0.09441393
0003c0 f7 f1 3f be b7 6c 3c 3e b7 27 4f 3e 0d c6 17 be
       -0.18744646 0.18400846 0.20229994 -0.14821644
0003d0 16 14 e0 bd 7f 30 29 be dd 59 65 3e 6b e0 07 3e
       -0.10941331 -0.16522406 0.22397561 0.13269202
0003e0 f7 f6 c5 3d ec 9e ce 3d bf 09 4d be 2f c5 de bd
       0.096662454 0.10088906 -0.20023249 -0.108774535
0003f0 89 4c 36 be 99 7d 92 bd f7 37 82 bd 52 c2 1c 3e
       -0.17802633 -0.07152862 -0.06358331 0.15308502

lstm_p.weight_hh_l0 f4 [64, 16]
000000 70 27 e4 bc 2c 74 ad bc 4b 13 b3 3b 15 94 83 3e
       -0.027850837 -0.02117356 0.0054649464 0.25698915
000010 77 5d 74 3e cc 6b 2a be 1d 65 45 3d 06 4e 5e 3d
       0.23863779 -0.16642684 0.048192132 0.054273628
000020 b5 82 0f 3e 5b 19 55 bd 0b 77 ca 3d d9 65 0a 3e
       0.14014705 -0.052026134 0.09885987 0.13515414
000030 9e 75 d0 3c fc 24 5a 3e 5b 9f 9c 3d 68 4a 40 3e
       0.02544671 0.21303171 0.07647582 0.18778384
000040 b0 f3 33 3e 84 f1 76 be 6e f3 f8 bd 59 d8 21 bd
       0.17573428 -0.24115568 -0.121558055 -0.039512966
000050 56 c6 26 3e 23 fa 43 be d4 91 27 3e 12 b0 e2 3d
       0.16286597 -0.19138388 0.16364223 0.11068739
000060 f1 66 2a 3d 5f 57 53 3e 4a 43 4a 3c c9 fb 2d be
       0.04160208 0.20638798 0.0123451445 -0.1699058
000070 ee 76 02 3e a6 3b 5e be 13 c4 5b be 21 57 90 3d
       0.1274068 -0.21702442 -0.21461515 0.070478685
000080 b5 ba 4d 3e 78 1f 80 be 7f 0e 39 3e 86 07 3f 3e
       0.20090754 -0.2502401 0.18071936 0.18655214
000090 04 85 23 be 6f f5 54 be 95 2a 87 3b e9 d7 32 3e
       -0.1596871 -0.2079675 0.004124949 0.17465176
0000a0 a7 7f 10 3d 18 8b 29 be 94 e2 91 bd 86 67 21 bc
       0.03527799 -0.16556966 -0.071232945 -0.009851342
0000b0 4e ef 7d 3e c4 54 d9 bd 23 66 35 be 08 6e 80 bd
       0.24798319 -0.10611871 -0.17714743 -0.06270987
0000c0 d9 3e 07 be 4f ce a5 bc 70 31 7a 3c 62 e0 e3 bd
       -0.13207568 -0.020239977 0.015270576 -0.11126782
0000d0 16 fc b5 3d 4d 0b 68 be 72 b7 2d 3e cb a0 95 3d
       0.08885972 -0.22660561 0.1696451 0.073060594
0000e0 cd 7b 06 3e d3 67 7d bd f0 79 b8 3d cd 87 b3 3d
       0.13133164 -0.061866593 0.09007633 0.08766136
0000f0 0a cf 9c 3c 90 02 c0 bd 41 76 9d bd 73 ea 23 3e
       0.019141693 -0.09375489 -0.07688571 0.16007404
000100 ec 86 4b 3e 42 47 4a bc 50 14 42 be 0a 56 f0 3c
       0.19875687 -0.012346091 -0.18953061 0.029337902
000110 6f d1 6d be 21 bf b6 3d 8f 7c c7 bd ce 02 ac 3d
       -0.23224424 0.08923174 -0.097405545 0.083989725
000120 53 b0 11 be 7c d9 e2 3d 2b 71 3c be d9 08 3e 3e
       -0.14227419 0.11076638 -0.18402545 0.18558063
000130 83 57 3f 3e d9 21 68 3e 18 78 9f 3d b9 cb 1b be
       0.18685727 0.22669162 0.07786578 -0.15214433
000140 4f 49 fc bb df 88 19 3e de 86 0e be 21 02 36 be
       -0.0076991688 0.14993618 -0.13918635 -0.1777425
000150 a8 50 ca 3d a9 6e 05 be 78 09 61 be 88 9b 33 3e
       0.09878665 -0.13030495 -0.21976268 0.17539799
000160 2c d4 1a 3e f7 f4 21 be 3c 4e e0 bd 2f 84 36 3d
       0.1512 -0.15816103 -0.10952422 0.044559654
000170 61 8f f0 bd 76 f6 58 be a2 72 e1 3d 66 a6 78 3d
       -0.11746097 -0.21187767 0.110081926 0.060705565
000180 e2 01 51 be b1 e9 d2 3c 42 fb 64 bc bd 73 09 be
       -0.20410874 0.025746198 -0.01397592 -0.13423057
000190 17 eb 41 3e 9f f6 9c 3d 6f aa 83 3e f9 28 ac bc
       0.18937336 0.07664227 0.25715968 -0.021015631
0001a0 27 9e 0c be b3 69 28 bc 17 a5 4d be ad fc 88 3c
       -0.13732205 -0.010279107 -0.20082508 0.016722048
0001b0 ef f6 5b be 9a 41 3c 3e aa 2e 64 bd 8b 8e 16 3e
       -0.21480916 0.183844 -0.055708565 0.14702813
0001c0 71 19 1f 3e b0 e2 5e be 78 2b 7b 3e cb 71 36 be
       0.15537049 -0.21766162 0.24528301 -0.17816846
0001d0 c2 53 73 3e 1d d6 ac bd ba 07 42 3d 53 54 b4 3d
       0.2376242 -0.08439276 0.04737065 0.08805146
0001e0 ca b3 6c 3e 22 8e 2f 3e bb 43 12 3e f1 e2 7f 3d
       0.23115459 0.17144063 0.1428365 0.062472288
0001f0 44 a2 a0 bd df fb e2 3c 1e 8e 7b bc 52 34 25 3e
       -0.0784345 0.027707992 -0.015353708 0.1613324
000200 4e f3 3e be 51 c6 22 3e 00 6e 1a 3e c2 14 84 3e
       -0.18647501 0.15895964 0.15081024 0.25797087
000210 8a 0d 93 3d 89 4b 5e 3e b1 a1 2b be f6 9c 38 be
       0.07180317 0.21708502 -0.16760899 -0.18028626
000220 90 ee d0 3c ad 94 d2 3d e6 92 23 3e b1 27 51 be
       0.02550438 0.10282264 0.15974006 -0.20425297
000230 81 6d 23 bd a9 c6 1c be ae a4 69 ba 86 06 21 bb
       -0.039899353 -0.15310158 -0.0008912784 -0.0024570539
000240 96 ca 46 be 30 dd 8d bc 5a 98 2e be 10 a2 af bd
       -0.19413218 -0.017317384 -0.17050305 -0.08575833
000250 93 82 cf 3c f0 2b 2a 3e 27 20 80 3c 04 e5 0f be
       0.025330817 0.16618323 0.015640331 -0.14052206
000260 5a bc 2a be a8 7f 94 bd dc 88 07 3d 89 37 29 be
       -0.16673413 -0.07250911 0.033089504 -0.16525091
000270 3a 3a 75 3e 1d b0 eb 3d b7 36 50 3e ea 1b 3e 3d
       0.23947993 0.115082 0.20333372 0.04641334
000280 98 d5 32 be 3a 2d 1f 3e 2b 2a 06 be 20 bc 61 3e
       -0.17464292 0.15544596 -0.13102023 0.2204442
000290 3d 77 7d 3d 18 d0 2f 3e cd 79 7a be 42 bc ab bd
       0.061881293 0.17169225 -0.24460526 -0.08385517
0002a0 cd 70 fa 3d d8 87 20 be 58 76 41 3e ec 98 19 3c
       0.12228546 -0.1567682 0.18892801 0.009374838
0002b0 45 3e 46 be 83 9d f3 3d 61 3f 45 3d e5 80 f5 bd
       -0.19359691 0.11895277 0.048156146 -0.11987475
0002c0 b3 4b b5 bd 4e 4c 49 bc 17 0e 8f bd 82 df 78 3e
       -0.08852329 -0.012286259 -0.06985109 0.24304011
0002d0 c3 ba 4d be 3b 13 1a bc 83 7c 36 be 7e be 63 bc
       -0.20090775 -0.009403999 -0.17820935 -0.013900397
0002e0 1c a0 06 be fb ba 74 3e 6b 98 10 be 19 42 66 3e
       -0.13147014 0.23899452 -0.14120643 0.22486152
0002f0 64 53 41 bc be 16 5d 3c e9 81 9c bd b0 50 bd bc
       -0.011799667 0.013494192 -0.07641966 -0.023109764
000300 c6 02 89 bd 4b 37 eb bd fd 37 2f be 6a 3f 58 bd
       -0.06689982 -0.11485156 -0.17111202 -0.05279485
000310 65 fd fd bd b0 59 1e 3d 3b 13 c3 bc 53 6a 10 be
       -0.12401847 0.03865975 -0.02381288 -0.1410306
000320 f7 d4 80 be ee ae 06 be e6 0a 3f 3e 58 97 e0 3d
       -0.2516248 -0.13152668 0.18656501 0.109663665
000330 f0 bc 1d 3e 03 d7 5c bd 0a 4e 3d 3e b7 ec 3a 3e
       0.15404105 -0.05391599 0.18486801 0.18254362
000340 8d 92 09 be cf 52 04 be 5c 6e 06 3e 0e 17 1a 3e
       -0.13434811 -0.12922214 0.13128036 0.15047857
000350 7a 06 b7 bd bf 41 b7 3d 21 d0 a7 3d b3 36 d9 bd
       -0.08936782 0.08948087 0.08193994 -0.10606136
000360 7e b7 4d be fe f5 99 bd 60 10 37 be 42 d0 5e 3e
       -0.20089528 -0.075176224 -0.1787734 0.21759132
000370 1f f8 10 3e c9 f5 74 3e 05 d1 17 3e 20 b5 c0 3d
       0.1415715 0.23921885 0.14825828 0.09409547
000380 45 8e cd 3c b1 c6 3c 3e a6 a6 d4 3d f8 64 df 3c
       0.025092253 0.1843517 0.10383348 0.027269825
000390 f8 e8 31 3e 89 4f 49 3e 60 9a af bd 1d 67 67 bd
       0.17374027 0.19659247 -0.085743666 -0.05649482
0003a0 64 67 3f bd 3a 3a 43 be 85 aa 2d be f3 23 56 be
       -0.04672946 -0.1906518 -0.1695958 -0.20912151
0003b0 44 a6 80 3c 7a b1 0a bd ec 25 00 3e 1c 2a 5c 3d
       0.015704282 -0.03386066 0.12514466 0.053751096
0003c0 53 d9 f6 bd a2 26 90 3d 60 5a 6d be da 5a a7 3d
       -0.1205317 0.070386186 -0.23179007 0.081716254
0003d0 93 1d 1a 3e a1 c6 1b be 5b f4 2a 3d a2 f3 6b bb
       0.15050344 -0.1521249 0.04173694 -0.003600337
0003e0 a5 6a 81 3d d4 82 45 3e 06 f4 23 be 65 e9 32 be
       0.06319169 0.19288188 -0.16011056 -0.17471845
0003f0 31 84 a9 3c 6c 52 5d be b5 f5 f8 bd 18 92 bc 3d
       0.020692917 -0.21613473 -0.1215624 0.09207553

lstm_p.bias_ih_l0 f4 [64]
000000 ef 85 06 bd 86 8a 58 be b9 0c 3b be 03 29 9f bd
       -0.032842573 -0.21146592 -0.18266572 -0.07771494
000010 15 4d 0c 3e 38 ef 88 bd b4 db e9 3c 5d b8 4d be
       0.1370128 -0.06686252 0.028547145 -0.2008986
000020 20 19 3b 3e c0 98 7e be 84 4b b2 3d e4 c5 40 3d
       0.18271303 -0.24862957 0.0870581 0.047063723
000030 26 f3 64 3e 4d 87 1d be 45 33 08 3e 81 05 0b 3e
       0.22358379 -0.15383644 0.13300808 0.13576318
000040 4e d5 26 be b6 c0 42 3e f8 90 30 be 3f 69 23 be
       -0.16292307 0.19018826 -0.17242801 -0.15958117
000050 fc db 62 be 74 4d 39 3e ad af a9 3d a5 35 10 bc
       -0.2215423 0.18095952 0.082854606 -0.008801852
000060 df 41 90 ba 19 a8 40 3e b2 6d 21 bd a2 3c c7 3c
       -0.0011005959 0.18814124 -0.039411254 0.024320904
000070 81 65 11 be 30 7b 3e be e5 05 70 be 93 a5 0f 3e
       -0.14198877 -0.1860168 -0.23439749 0.14028005
000080 ca 40 d4 bd 1c 6b 07 be 56 66 2e 3e c8 60 60 3e
       -0.1036392 -0.13224453 0.17031226 0.21911919
000090 0e 63 b8 3c 0e cf a7 bd 1e 59 66 be a3 ba 56 be
       0.02250817 -0.081937894 -0.22494933 -0.20969634
0000a0 97 e4 df 3d 6a 8d 18 be 5b 33 63 be c2 8f 38 be
       0.10932272 -0.14897695 -0.2218756 -0.18023589
0000b0 ed db 52 bd 11 f5 f2 3d b2 28 27 3e 41 92 57 bd
       -0.05147927 0.11863149 0.16324118 -0.052629713
0000c0 fd 4d 3f 3e c4 38 4f 3e 2a 04 e8 3d a7 90 7d 3e
       0.18682094 0.20236498 0.11328919 0.24762212
0000d0 10 55 83 be d6 c3 48 3d d1 78 39 be 40 e8 8c bc
       -0.25650835 0.04901489 -0.18112494 -0.01720059
0000e0 7c 8d 3b 3d fd 5d a3 3d 99 b6 48 bd 3f ac 14 3d
       0.045789227 0.07976911 -0.049002264 0.03629708
0000f0 63 3a 1f be 4b d7 32 3e 24 a5 cd bd 83 8c 16 be
       -0.15549617 0.1746494 -0.10041264 -0.14702038

lstm_p.bias_hh_l0 f4 [64]
000000 29 10 83 be 2e e1 be bc 2b 63 be bd 4d 0a c5 3d
       -0.25598267 -0.023300733 -0.092962585 0.09621105
000010 d0 76 da bc c0 fa 40 3d 0b ce 29 be 57 68 60 3e
       -0.026667982 0.047114134 -0.16582505 0.21914802
000020 22 51 8f bc e5 54 45 be 2d d8 30 3e aa 75 f4 3b
       -0.017494742 -0.19270666 0.17269965 0.0074603157
000030 15 5c b5 bc 50 89 04 be fe ee 9d bd 30 e4 53 3d
       -0.022138635 -0.12943006 -0.077116 0.05173129
000040 45 06 e7 3d dc 01 80 be c7 bf 01 3d c7 dd 94 3d
       0.11280493 -0.2500142 0.031677034 0.07268863
000050 82 90 ff 3d 0f ad 8f 3d 4d 3f b0 3d ec ea 49 3e
       0.124787346 0.0701543 0.08605824 0.19718522
000060 72 88 aa bd 14 0c 1f 3d 99 a3 c6 bd cb 5d 17 3d
       -0.08326806 0.038829878 -0.096991725 0.036954682
000070 2b ea f9 bd c4 7a aa 3d ad 2b cc 3c 3d 0d 89 3c
       -0.12202867 0.08324197 0.02492317 0.016729945
000080 00 96 76 be a8 26 26 3e 94 cc 6c be fa bf 46 3d
       -0.24080658 0.16225684 -0.23124915 0.048522927
000090 8a aa 10 be ef 54 28 be 8a c7 86 ba 5b 8f 22 be
       -0.14127555 -0.1643865 -0.0010282856 -0.15874998
0000a0 f5 ab 09 be 86 71 1a be d3 a3 26 3e 2f 67 87 bd
       -0.13444503 -0.15082368 0.16273431 -0.066114776
0000b0 f5 b7 c5 3d 98 55 2e bd ea 77 4d be 33 64 06 3e
       0.09654228 -0.042562097 -0.20065275 0.1312416
0000c0 c5 e2 0a be c2 ae 09 3e b9 a9 5c be 87 e2 70 be
       -0.13563068 0.13445571 -0.21549119 -0.23523913
0000d0 1d 2e 86 3d 66 59 96 bd 27 6a 06 be 22 30 6a 3e
       0.06551764 -0.0734127 -0.13126431 0.22869924
0000e0 c2 9f 5f 3e 0a e8 74 be 84 5d 3c 3e a3 fa eb 3d
       0.21838287 -0.23916641 0.18395048 0.115224145
0000f0 bf 41 af bd 93 70 c1 bd 24 fd 96 3d 77 d5 3b bd
       -0.08557462 -0.094453 0.073725015 -0.045857873

lstm_p.weight_ih_l1 f4 [64, 16]
000000 20 14 30 bd 2f 49 ab 3d 39 da 58 3e 97 40 43 3b
       -0.042987943 0.08363568 0.21176995 0.0029793137
000010 0a 7f 36 be 14 46 da 3d 7f 82 63 3e 0c 79 5a 3e
       -0.17821899 0.106578976 0.22217749 0.21335238
000020 a7 b7 60 3e 50 de c7 bd ab b9 06 be 79 ce 00 3e
       0.21945058 -0.097591996 -0.13156764 0.12578763
000030 4b db a6 3d da 32 42 3e 0e a8 ab bd de 31 cd bd
       0.081472956 0.18964711 -0.08381663 -0.10019277
000040 be 7c 18 bd f5 d9 44 3e 22 f6 9a 3d e9 53 69 3e
       -0.03722834 0.19223769 0.07566477 0.22785915
000050 ef 0f 0c be 6e 27 87 bd 06 50 15 3e b1 f2 89 bd
       -0.13677953 -0.065993175 0.14581308 -0.06735743
000060 f4 93 53 3e 42 af 4b bd 52 3f 35 3e c1 51 1e 3e
       0.20661908 -0.049727686 0.17699936 0.15460874
000070 c1 a9 1c 3d b8 67 85 bd 4a d5 15 be d8 25 03 be
       0.038247827 -0.065139234 -0.14632145 -0.12807405
000080 04 e6 13 be b1 aa 49 be a6 71 48 3e 3c 17 c5 3d
       -0.14443213 -0.1969402 0.19574603 0.09623572
000090 c5 22 a4 bd 88 83 48 3e d5 16 ac 3c 54 5a b2 3b
       -0.08014444 0.19581425 0.02100698 0.005442897
0000a0 21 df 1a 3e 91 2f 6c 3e 56 67 1e 3e 08 3b bc bd
       0.1512418 0.2306502 0.15469107 -0.09190947
0000b0 dc 05 61 be 81 5a d8 bd cf 92 51 bd 64 60 cb 3d
       -0.21974891 -0.10564137 -0.0511654 0.099304944
0000c0 a5 47 03 3e 3b d8 7c be 5f ec 61 3e ce 9f 82 3e
       0.12820299 -0.2469186 0.22062825 0.25512546
0000d0 2b a1 8d bd 7c 83 44 3e 16 aa e9 3d 11 e6 15 be
       -0.06915506 0.19190782 0.114093944 -0.14638545
0000e0 c3 c2 d5 bd fd 85 54 be d9 92 56 3e 33 ae 3f 3e
       -0.104375385 -0.20754237 0.20954455 0.18718795
0000f0 c3 8e 40 3e e5 5c 0a 3e d8 a8 16 3e 22 9f 25 3e
       0.1880446 0.13511999 0.14712846 0.16173986
000100 ee ff a0 bd 49 83 cc bd 13 27 50 3e ce f2 94 bd
       -0.07861315 -0.09985978 0.20327406 -0.07272874
000110 a8 d2 04 3e ac 04 f1 bd 56 07 63 be 26 c4 3f be
       0.12970984 -0.11768469 -0.22170767 -0.18727168
000120 68 06 57 3e 53 23 52 3e 5c b1 70 be 2e 9d b8 3c
       0.20998538 0.20521288 -0.23505157 0.022535887
000130 ff 31 71 3e 07 19 17 be 6c c2 25 bc f3 b9 f2 3d
       0.23554228 -0.14755641 -0.010117155 0.11851873
000140 56 d6 23 3e 19 a3 a2 bd ec 06 94 bd ac 2b 2f 3d
       0.15999731 -0.07941265 -0.07227883 0.042766258
000150 78 72 19 3d 96 89 26 bd fa 45 63 3e 1f cb 16 be
       0.03746268 -0.040658556 0.22194663 -0.14725922
000160 98 e7 df bd c4 e2 5f 3e 86 1c a0 bb b7 21 9c bc
       -0.10932845 0.21863848 -0.0048862128 -0.019059045
000170 c0 ee 01 3e 4c 4e cc 3d d9 d6 11 3b fe 21 de 3d
       0.12688732 0.099758714 0.0022253303 0.10846327
000180 59 78 ce 3d e5 f3 bf bd f3 3e 22 3e 89 1a 34 3e
       0.10081548 -0.09372691 0.15844326 0.17588247
000190 db 60 72 be 9c 7e 2d be 2f 7b 3c 3e bf 4c a3 3c
       -0.2366976 -0.16942829 0.18406366 0.019934056
0001a0 d0 9e ec 3d 01 86 a7 3d d4 bb de bd f2 7f b2 bd
       0.115537286 0.08179856 -0.10875669 -0.0871581
0001b0 a3 2e 3f be 32 d2 27 be 85 19 54 3e 64 db 58 be
       -0.18670134 -0.16388777 0.2071286 -0.21177441
0001c0 a0 68 e4 3d 7f 52 e6 3d 2f 9d 6a 3e f5 f0 72 be
       0.11152768 0.11246204 0.22911523 -0.2372473
0001d0 ef af ef 3d bf 04 c2 3d 2f e5 22 3e b8 d4 74 3e
       0.117034785 0.094735615 0.15907739 0.23909271
0001e0 10 bb e6 3d ca b7 6b 3d 06 67 5f bd f7 db 5b be
       0.11266148 0.05754832 -0.05454161 -0.21470629
0001f0 5b ff d2 3d 45 12 ca bd 7c a3 fa 3d a7 84 57 be
       0.103026114 -0.09866766 0.122382134 -0.21046697
000200 6d 0c 9e bc 8c 0e 27 3e 89 0c d4 3c 0f 48 36 bd
       -0.019293034 0.16314143 0.025884883 -0.044502314
000210 4b 50 88 3d 36 5d b0 3d 04 34 4c be 30 e2 c4 bc
       0.0665594 0.086115286 -0.19941717 -0.024033636
000220 0b 40 ea 3d b0 84 51 3e f3 d2 15 3e fc 1c 0e 3d
       0.114379965 0.20460773 0.14631252 0.03469561
000230 d0 75 40 3e 67 34 23 3e f3 56 5e bd 39 6a f9 3c
       0.18794942 0.15937959 -0.05428214 0.030446159
000240 26 09 71 bd b1 07 c9 bd a9 11 3a 3e 6b 8c d0 3d
       -0.058846615 -0.0981592 0.181708 0.101830326
000250 11 cc 5a 3e ac 5a ca 3d 75 cf ee bd ac d2 0a bc
       0.21366908 0.098805755 -0.11660663 -0.00847308
000260 4e 2c 2e 3d d9 4c 0d 3d 72 a6 4b be 42 4f 4f bd
       0.04252272 0.034497116 -0.19887713 -0.050612696
000270 90 d6 35 bd 45 e3 5d be be f6 35 be 5e 7c 49 3e
       -0.044394076 -0.21668728 -0.17769906 0.19676349
000280 1e 20 74 be e1 fe 23 3d 55 bd 85 3c b6 b0 57 be
       -0.23840377 0.040037993 0.016325632 -0.21063504
000290 8e 2f 42 be 91 05 db bc c9 32 83 be d6 8e f0 3c
       -0.18963453 -0.026736053 -0.25624683 0.029364984
0002a0 03 49 12 3e 2f 40 02 be 5e 76 00 3d 82 6a 60 bc
       0.14285664 -0.12719797 0.031362884 -0.013697268
0002b0 59 d5 72 3e ce b5 77 bc 01 be f5 bd d4 93 6c bc
       0.23714198 -0.015119029 -0.11999131 -0.014439542
0002c0 a7 c7 f2 bd c4 b2 03 be 14 f5 cf bd 3e 7c a0 3c
       -0.11854487 -0.12861162 -0.10154167 0.019590493
0002d0 8a 6f 69 3e 45 0b 39 be cd bc 19 3d bf 99 f5 3d
       0.22796455 -0.18070705 0.03753357 0.11992215
0002e0 d4 48 72 3e 4e 7a 30 3e 78 4e 2e 3e 8e 35 5a be
       0.23660594 0.17234156 0.17022121 -0.21309492
0002f0 1f 90 53 3e b4 3d 56 be 07 28 9a 3d e6 47 86 3d
       0.20660447 -0.20921975 0.07527166 0.06556682
000300 6d 35 a4 3d d0 dd ba bc d4 55 6c bb fa af b4 bd
       0.08018003 -0.022810847 -0.00360619 -0.08822627
000310 64 a2 4c 3e 38 bd 18 be 37 fd 71 be 31 1f 83 3e
       0.19983822 -0.14915931 -0.2363175 0.25609735
000320 9b a4 07 be db 92 4c be 67 e4 35 be a5 f4 f7 bd
       -0.13246386 -0.19977896 -0.1776291 -0.12107209
000330 c7 a7 2b 3e 5f f4 4b be 96 ac 79 be 18 fb 30 3e
       0.1676322 -0.19917439 -0.24382243 0.17283285
000340 68 99 4b be ac 05 23 be 4a e2 e2 bc e0 69 69 be
       -0.19882739 -0.15920132 -0.027695794 -0.22794294
000350 0c 72 38 3e cb 23 12 3e 2c 02 7d 3e 0d b9 2d be
       0.18012255 0.14271466 0.2470786 -0.16965123
000360 37 96 2f be 06 9d e0 bd 90 b6 0f 3e 96 32 45 3e
       -0.17147146 -0.1096745 0.14034486 0.19257578
000370 cd be 35 be f7 33 c6 3d 59 a3 14 3e 27 89 5d 3e
       -0.17748566 0.0967788 0.14515437 0.2163435
000380 4a fa 99 3d 21 7c 5b 3e 63 26 04 be 8e bb 14 3e
       0.07518442 0.2143407 -0.12905268 0.14524671
000390 61 90 6c be f1 3c e7 3d 41 d5 03 bc 20 b5 67 be
       -0.23101951 0.112909205 -0.008046449 -0.22627687
0003a0 6f b0 8c bc 83 b2 2f 3e 8c 22 b4 bc c4 3f 14 3e
       -0.017173974 0.1715794 -0.02198913 0.1447745
0003b0 ba 56 f4 3d 96 3a 35 be a1 d3 df bd 40 f6 44 3e
       0.11930604 -0.1769813 -0.10929037 0.19234562
0003c0 db 2e fc 3d 64 58 1a 3e 6a 61 03 3d 22 2a e9 bb
       0.123136245 0.15072781 0.032075323 -0.0071156183
0003d0 9d 14 97 3d ec 70 84 bc be 49 44 bd 23 1b 62 be
       0.073769785 -0.016167127 -0.04792189 -0.22080664
0003e0 bd dd a4 bd 5e 1a 34 3c b2 bd 5d 3d 86 16 01 3e
       -0.08050106 0.010992615 0.054135986 0.12606248
0003f0 a2 8b 8b 3d 37 e5 c1 bc 7b 07 10 3e 4b 71 c3 3d
       0.06813742 -0.023668868 0.14065354 0.09543093

lstm_p.weight_hh_l1 f4 [64, 16]
000000 40 7d 47 3e 1f 06 13 be 24 57 78 3e 66 63 e1 bd
       0.19481373 -0.14357804 0.24251992 -0.11005287
000010 1d 85 51 bd e5 2f 3f be 8a 40 87 3d 8b 21 44 3e
       -0.051152337 -0.18670614 0.06604107 0.1915342
000020 ec 23 9f bd 25 1f 27 3e 9c d2 9d bc 16 fb 71 3e
       -0.077705234 0.16320474 -0.019265465 0.23630938
000030 db cc 1a be e7 8f 8b 3b 8b 1c 41 3e 40 5a 51 be
       -0.15117209 0.004259098 0.18858545 -0.20444584
000040 5b 94 fd 3d 72 c1 73 be ef a2 57 3e ee 61 c7 3d
       0.12381812 -0.23804262 0.21058248 0.097354755
000050 e7 fb 3e 3d 84 31 6b be d3 09 83 3e 7c b7 36 3e
       0.04662695 -0.22968107 0.25593433 0.17843431
000060 77 44 70 3e 5f d5 55 be 33 62 62 3e 0b e2 f9 3c
       0.23463617 -0.20882176 0.22107773 0.030503293
000070 a8 14 19 3e 5c 18 81 be 52 6c 09 be 0b 00 69 3c
       0.14949286 -0.25213897 -0.13420227 0.014221202
000080 a4 2d 0f 3e 1a 0a 77 be 9c 29 09 3e 32 89 ee 3d
       0.13982254 -0.24124947 0.13394779 0.11647262
000090 93 aa 30 be 57 7c 52 3e 91 15 02 be 47 a9 b7 3d
       -0.17252569 0.20555244 -0.1270354 0.08967834
0000a0 fc af 34 be a7 e0 1c be ae 5e 3a bd 6d f1 9a bd
       -0.17645258 -0.15320073 -0.04550045 -0.075655796
0000b0 cb 20 6a 3d 77 20 60 bd f2 a8 01 be 73 c9 72 3e
       0.05716018 -0.05471846 -0.12662104 0.2370966
0000c0 92 bc 54 bc f8 22 5a be db d5 47 3e 1c 5c 53 3e
       -0.012984412 -0.21302402 0.19515173 0.20640606
0000d0 dd fe 03 be 2c aa 2d 3e 16 ad dd bd 86 6f 42 be
       -0.12890191 0.16959447 -0.10824029 -0.18987855
0000e0 df 09 84 be 0e c4 09 be f3 87 ff 3d 28 69 84 3e
       -0.2578878 -0.13453695 0.12477102 0.25861478
0000f0 46 87 70 3e 0a 76 b5 bc 55 1a 3a bd 1a 3c e2 3b
       0.23489103 -0.022151012 -0.04543527 0.0069041373
000100 c7 bc 57 3e ba e8 40 be 28 d7 18 be 7c c5 e3 bb
       0.21068107 -0.18838778 -0.14925826 -0.006951032
000110 ac ce 62 be 7f 44 01 3e f7 34 2a be 10 c1 89 bd
       -0.22149152 0.12623785 -0.16621767 -0.06726277
000120 7c db 0d be 74 cf 8d bc f9 9b 64 3e 80 9e a9 bd
       -0.13853258 -0.017310835 0.22325124 -0.082821846
000130 0b 5b bd bd 9d fb 04 3e 9d a1 a0 bc 2b 6f 35 bc
       -0.09245881 0.12986608 -0.019608313 -0.011073868
000140 f7 68 51 3e 70 1d a2 3d eb 14 ef bc 4f ce 63 3e
       0.20450197 0.07915771 -0.02918478 0.22246669
000150 14 3f 81 be a4 03 59 3e e7 f0 aa bd 5b c4 2c 3e
       -0.25243437 0.21192795 -0.0834673 0.16871779
000160 79 d3 94 bd 87 6a 50 be f8 f2 26 bc aa 27 60 3e
       -0.07266898 -0.20353137 -0.010189764 0.2189013
000170 e0 60 da 3c e8 d0 50 be 12 80 2a 3e 8e 30 76 3e
       0.026657522 -0.20392191 0.16650417 0.2404196
000180 78 eb 5e 3e d4 7d 0a be b4 58 46 be 46 04 82 be
       0.21769512 -0.13524562 -0.19369775 -0.25393885
000190 e1 72 2f bd 93 16 79 3d f7 33 83 be 8e 01 08 3c
       -0.042834166 0.060812544 -0.25625584 0.008301152
0001a0 91 03 f6 3c ea 50 33 3e 9e c7 30 3e ea e8 e8 3d
       0.030030997 0.17511335 0.17263648 0.1137255
0001b0 6f 71 59 bc a6 ec 7a 3e 62 ec 23 bc fc ae 4f bd
       -0.013271674 0.24504337 -0.0100050885 -0.050703987
0001c0 29 9e 05 be b0 6e 80 3d b1 d7 2d be 16 89 d1 3d
       -0.13048615 0.06271112 -0.16976811 0.10231225
0001d0 b0 df 5e be 5d be c4 3c 8d 74 54 bc 6f b0 2e be
       -0.21765018 0.024016554 -0.012967241 -0.17059492
0001e0 3c 63 4d 3e c2 5d 47 3e f9 56 22 3e 21 f3 44 3e
       0.20057386 0.1946936 0.1585349 0.19233371
0001f0 2c da 15 bc f9 81 15 be 01 04 5a bd 7a bb 19 be
       -0.0091462545 -0.14600362 -0.053226475 -0.15012923
000200 d0 11 01 be 3d 27 12 3d b8 49 ab bd ce aa 81 3e
       -0.12604451 0.03568195 -0.0836367 0.25325626
000210 3b 1d 23 3e 8b 50 81 3e 43 44 ee 3d cc 0b 10 3e
       0.1592912 0.25256762 0.11634114 0.14067
000220 cd 72 01 be f3 ac 49 3e cc 14 41 3e c7 f2 9d 3d
       -0.1264145 0.19694881 0.1885559 0.07712322
000230 f4 fc 9f 3d d5 78 60 be cc 7b 01 bc 7c 8a 56 3e
       0.07811919 -0.21921094 -0.007903051 0.20951265
000240 e0 48 cb bd 97 5c 45 3e 29 04 e1 bd e1 0d 27 be
       -0.09926009 0.19273601 -0.109871216 -0.16313888
000250 e1 19 0f 3e 51 e7 06 3e b1 25 b2 3d 5a 1e dc bd
       0.13974716 0.13174178 0.08698595 -0.107479766
000260 db 6d 29 3e fa 13 d3 bd e5 0c 0a 3e a8 84 5e 3e
       0.16545813 -0.103065446 0.13481481 0.21730292
000270 74 e8 fa bd 23 5d 41 3e 1d b8 2b 3e 7c 35 90 3d
       -0.12251368 0.18883185 0.16769452 0.07041451
000280 b2 e2 d2 bd d7 03 80 bd 15 92 0a 3e 39 a8 c8 3d
       -0.10297145 -0.062507324 0.13532288 0.09797711
000290 47 f0 ee 3b 76 cf c6 bd 2d bc b1 3c 0c 6b 80 3e
       0.007291827 -0.09707539 0.021696175 0.2508167
0002a0 cb 11 45 3e 63 3c 29 be 7b f8 81 3e 69 60 23 3e
       0.19245069 -0.16526942 0.25384888 0.15954746
0002b0 d9 33 85 3e 60 3e 76 bd 2a a9 a0 3d 5d 57 35 bd
       0.2601612 -0.06011808 0.078447655 -0.04427277
0002c0 41 71 06 be e1 48 86 bd 8e dd 0d be 78 af a0 3d
       -0.1312914 -0.06556869 -0.13854048 0.07845968
0002d0 ed ae 58 bd 2f 80 45 be cb a3 8e bd 4c c2 6d bc
       -0.052901197 -0.1928718 -0.06964835 -0.014511656
0002e0 01 e6 ef bd 9b aa 17 be f7 d7 7d be 35 da 07 3e
       -0.11713792 -0.14811175 -0.24789415 0.13266833
0002f0 4b ed 01 3e 80 60 80 be 0f b5 e5 3d 84 37 4d be
       0.12688176 -0.25073624 0.11216175 -0.20040709
000300 38 97 ea bd 64 f2 28 be cb 58 9d bd a5 dc 13 be
       -0.11454624 -0.16498715 -0.076829515 -0.14439638
000310 e1 08 b5 3b 44 73 10 3d 68 dc e9 bd 0a aa 28 3e
       0.00552474 0.035266176 -0.11418992 0.16471115
000320 ab 40 d5 bd fb 7d 9b bd 05 fe 96 3d d2 83 13 3e
       -0.10412725 -0.07592388 0.07372669 0.14405754
000330 8a bc 38 3e 63 68 f5 3d e0 80 02 3d 27 aa b4 bc
       0.18040672 0.11982801 0.031861186 -0.022053791
000340 c6 59 1f be 71 72 52 3e bc ac ba b9 0c 63 3f 3e
       -0.1556159 0.20551468 -0.00035605382 0.18690127
000350 40 93 ec 3d b7 8d 1f 3e 94 7a 30 be 35 fa fd 3d
       0.11551523 0.15581404 -0.1723426 0.12401239
000360 d6 7f 78 3e 74 bd 62 be 52 b4 30 3e f6 b2 18 be
       0.24267516 -0.22142583 0.17256287 -0.14912018
000370 ae 7e 14 be c7 4c 66 be ae 4c 7e be df 28 32 be
       -0.1450145 -0.22490226 -0.24833938 -0.17398404
000380 f6 ad 41 be 5a 49 0b bc b4 6d 0a be 0f 72 f2 bb
       -0.18914017 -0.008501375 -0.13518411 -0.0073988508
000390 08 76 30 3e e3 70 52 3e de 05 50 be e8 ff 48 3e
       0.17232525 0.20550875 -0.20314738 0.1962887
0003a0 16 6b d2 bc 89 d8 c8 bd 5b 52 86 3e 6e 5c 47 be
       -0.025685828 -0.09806926 0.26234707 -0.19468853
0003b0 a0 fb ff bd b5 71 f5 3d 4f f9 f2 3d c4 f0 f9 3d
       -0.124991655 0.119845785 0.11863958 0.122041255
0003c0 8d 50 5d be 1c cf 25 be 9b e2 36 be 15 dc 31 3e
       -0.21612759 -0.16192287 -0.1785988 0.17369111
0003d0 63 2a db 3d e6 01 cf bc 62 58 2f 3e f9 a3 4c 3c
       0.10701444 -0.02526946 0.17123559 0.012490266
0003e0 5e 4e 6c be 5e 77 91 bd df 7f 02 3e de 1b 3f bd
       -0.2307677 -0.071028456 0.12744091 -0.046657436
0003f0 ce ea d3 3d bf 7b 7d 3d ab 82 57 bd 66 41 48 be
       0.1034752 0.06188559 -0.05261485 -0.19556198

lstm_p.bias_ih_l1 f4 [64]
000000 0c 6b 8d bd e9 fc 36 3c ce 47 bd 3c 2d ac 76 be
       -0.06905183 0.011168697 0.023105528 -0.24089117
000010 86 fe 81 be 8c 53 8a 3d 3e 53 0e be 6a 21 3d 3e
       -0.25389498 0.067542166 -0.13898942 0.18469778
000020 be f2 80 3d 31 ef 6e 3d 6e 55 7b be 2c 99 bc 3d
       0.062962994 0.05833358 -0.24544308 0.09208903
000030 0c ad 22 bd 62 6d 13 bd 33 85 4f be e1 d9 7e be
       -0.03971581 -0.035992987 -0.20265655 -0.24887802
000040 48 e9 32 3e 9e 45 20 be 0f ad 08 3d a2 e6 39 be
       0.17471802 -0.15651557 0.033368167 -0.18154386
000050 1b 54 4b be dc 11 f4 3d 60 51 80 3d 36 c3 fa bd
       -0.19856302 0.11917469 0.06265521 -0.12244265
000060 b3 f0 e1 3d ed fc 18 be c6 a1 33 be f8 6b 01 3d
       0.11032238 -0.14940234 -0.1754218 0.031597108
000070 94 b3 93 3c 13 f8 48 be c3 10 1c be 22 4f 0c be
       0.018029965 -0.19625883 -0.15240769 -0.13702062
000080 d3 9e 88 bd 8b f0 08 3e 42 d2 67 be 3a a2 2d 3e
       -0.06670918 0.1337301 -0.226388 0.16956416
000090 59 b0 ab 3c e1 32 aa bc 68 24 0c be cd 2e 52 be
       0.020958113 -0.020776214 -0.13685763 -0.20525666
0000a0 70 a9 a8 bd 34 f6 00 3e de ee 47 be a1 e2 5f 3e
       -0.08235443 0.12593919 -0.19524714 0.21863796
0000b0 51 77 26 be 3a bd 0d 3e 03 33 64 be a2 bc 72 be
       -0.16256453 0.13841715 -0.22285084 -0.2370477
0000c0 18 85 be bd 1c ff 40 3e 4c f4 d1 3d bd 47 1c be
       -0.09302729 0.18847317 0.10251674 -0.15261741
0000d0 06 44 7a 3d b9 75 f8 bd da 41 5d 3e 6d 8a 6d 3e
       0.06110003 -0.12131829 0.21607152 0.23197336
0000e0 08 9a b9 3b 4a 31 2c 3e 3d da c0 bd 2d 48 be 3d
       0.005664114 0.16815677 -0.09416626 0.0929111
0000f0 31 b0 03 3e 81 fd f3 3d 0d cb 8e 3d d2 48 6e 3e
       0.1286018 0.119135864 0.069723226 0.23269966

lstm_p.bias_hh_l1 f4 [64]
000000 cc 21 9a 3d 51 ec 2b 3e 59 35 db 3d 48 3a 23 3c
       0.075259775 0.16789366 0.10703535 0.009962626
000010 cb 3d 74 bd 76 4d 46 3e 64 4f 5a 3e ae da 56 3e
       -0.059629243 0.19365487 0.21319348 0.20981857
000020 de 1f 86 3d a7 0b 10 3e 2e 17 18 be f7 9e 1a be
       0.06549047 0.14066945 -0.14852592 -0.15099703
000030 1c eb 0c 3d 97 4b 4d be 41 5e 06 be 03 ab 12 3e
       0.034403905 -0.20048366 -0.13121893 0.14323048
000040 e8 b4 f6 bd 2c eb 26 be 50 fe 72 be 12 82 1d 3e
       -0.12046224 -0.16300648 -0.23729825 0.15381649
000050 4b 46 22 3e 74 ac 3e 3e cb ce 41 bd fa f4 03 be
       0.15847127 0.18620473 -0.047316354 -0.1288642
000060 ec 27 68 3e 25 f3 22 be 2e 5a 4d 3e 10 7a 5f 3d
       0.22671479 -0.15913065 0.20053932 0.054559767
000070 fb e4 e0 bd f5 57 d7 3d 6f 62 15 be 79 ff b9 3c
       -0.109811746 0.10514823 -0.1458833 0.022704827
000080 e9 55 4f 3e 1f c1 54 bd 81 7b 7c 3d 16 ef 26 3e
       0.20247616 -0.051941987 0.06164122 0.16302142
000090 b3 99 90 bd 1f 4a 20 3e 74 d9 39 3e 7a a4 01 3d
       -0.07060566 0.15653275 0.18149358 0.031650998
0000a0 fe f0 42 3e 73 f5 57 3e f2 e8 34 be 29 90 e9 3d
       0.19037244 0.21089725 -0.17666987 0.114044495
0000b0 8f 5a 55 ba 6d 7d cd bd 07 2e 4a 3e bd 39 b9 3c
       -0.00081387995 -0.10033689 0.1974412 0.02261054
0000c0 a2 ec 15 bc 0c 49 d4 3d fa cc 5a 3d 5b 61 6a 3c
       -0.009150656 0.10365495 0.053418137 0.014305438
0000d0 3a 82 cd 3d fe 7b 8a bc ba 22 53 be 96 31 c6 3d
       0.10034604 -0.016904827 -0.20618716 0.096774265
0000e0 ad 98 36 bd dd 18 f4 bd 50 56 1e be d3 c6 01 3e
       -0.044579197 -0.11918805 -0.15462613 0.12673502
0000f0 6e 30 b6 3d c0 da 4a be 2e 4a 36 be 5e c8 20 bd
       0.08895956 -0.19810009 -0.17801735 -0.039253585

attention_p.attn_1.weight f4 [16, 16]
000000 e3 1d 71 be bb f9 3f 3e 91 33 83 3e a0 71 c3 be
       -0.23546557 0.18747608 0.2562528 -0.38172626
000010 9a e3 55 3c bd b4 bd bd 0d 55 6c bc 95 ae d0 be
       0.013054753 -0.09262989 -0.014424575 -0.40758196
000020 40 4c 91 be be 68 d2 bd cb eb 9b 3d fd bc 99 3e
       -0.28378487 -0.10273884 0.07613333 0.30027
000030 f1 ef c8 3e a1 75 3c 3d 31 ad 01 be d2 bd d3 be
       0.3924556 0.046010617 -0.12663724 -0.4135576
000040 6d 35 92 be 8d d2 ab 3e a6 aa 41 3e 86 c7 c3 be
       -0.28556386 0.33559075 0.18912753 -0.38238162
000050 28 03 7d be c8 8c 84 be 74 de 40 be 01 bf 6c 3e
       -0.24708235 -0.25888658 -0.18834859 0.23119737
000060 00 39 16 be 2c e7 ab 3e 25 e2 a9 3e 91 fd 5c be
       -0.14670181 0.33574808 0.33180347 -0.21581103
000070 be 49 8b bd b7 e8 aa 3e fc b4 4c 3e 83 07 43 3d
       -0.068011746 0.33380672 0.19990915 0.047614586
000080 1f be 8d bd 4a 11 1a be ea df 52 bd 58 3a 64 be
       -0.06921028 -0.15045658 -0.051483072 -0.22287881
000090 30 47 09 3e 28 d7 bc 3e 6d 5d a9 bd a1 fa 5e 3e
       0.13406062 0.368829 -0.08269773 0.21775295
0000a0 ce 9e cd 3e a9 98 8f 3e be 4e f8 bd de c9 c0 be
       0.4016022 0.28046158 -0.12124394 -0.37654012
0000b0 8d 05 81 be bb bc d6 3d 05 a1 74 be 32 de 8c be
       -0.25199547 0.10485216 -0.23889549 -0.27513272
0000c0 49 48 d7 3e eb 49 e9 bd 98 83 85 be fe 53 b9 3e
       0.42047337 -0.11391052 -0.2607696 0.36196893
0000d0 13 6f 9a be ce a7 d0 3e b3 95 76 3e eb 38 a8 be
       -0.30162868 0.40753025 0.24080543 -0.32855925
0000e0 8c fb 9b 3e d5 be 8c 3e 81 58 7d bd db dd e5 be
       0.30465353 0.27489343 -0.061851982 -0.44895825
0000f0 03 48 73 bd c1 29 cc 3e 39 a3 e1 bd 10 1e 45 bd
       -0.059394848 0.39875606 -0.110174604 -0.048124373
000100 ef 30 aa 3e a5 fe a9 be 29 3e 30 be e9 e4 f9 3d
       0.33240458 -0.3320209 -0.17211212 0.12201864
000110 f3 eb be be f5 41 88 3e 4b cd 7a 3e e5 1f 22 3e
       -0.3728939 0.2661282 0.24492376 0.1583248
000120 ed 48 15 be 8e d5 b0 be d6 78 f0 3d 1c f7 aa 3e
       -0.145786 -0.3453793 0.117417976 0.33391654
000130 45 8d 3c 3e 98 5f b0 be a8 c8 b4 3e d2 24 61 be
       0.18413265 -0.34447932 0.3530934 -0.21986702
000140 7e 2e e3 be 86 66 19 3d ca cc 92 3e 7f 8e bd 3e
       -0.44371408 0.03745129 0.28671867 0.37022778
000150 50 76 c1 bd e0 ae a2 be b9 8a ab 3a 2a 81 15 be
       -0.094463944 -0.31774044 0.0013087607 -0.14600053
000160 98 6f 20 bd 9d a0 c7 3d 4f 67 ff 3d d9 c3 47 be
       -0.039168924 0.097474314 0.124708764 -0.19508304
000170 5b d5 64 3d af d3 17 3e 11 09 98 be ff e9 be 3d
       0.055867534 0.14826845 -0.29694417 0.09321975
000180 79 30 af 3e ec e7 3d be 99 23 30 3e 93 7a 07 3e
       0.3421667 -0.18545502 0.1720108 0.13230352
000190 80 fa b4 3e ee 40 82 3e dd 03 a1 be 6e 70 07 be
       0.35347366 0.25440162 -0.3144826 -0.13226482
0001a0 da 8b a5 bd b7 77 5e be b2 1c b1 3e bb fb 4c bc
       -0.08083315 -0.21725355 0.34592205 -0.012511189
0001b0 ae d3 03 be ee ae b9 3e b6 48 1a be fc 64 8d be
       -0.12873718 0.36266273 -0.150668 -0.27616107
0001c0 6e d8 64 3e 65 fa b7 3e bc 1d f1 3c 43 78 9f be
       0.22348186 0.35933223 0.029433124 -0.3114644
0001d0 db 04 15 bd dd 9b d9 3e 0d 74 f3 bc 4d 40 84 3e
       -0.036381584 0.42501727 -0.029718423 0.25830308
0001e0 e9 ab 65 3e 36 8a 45 bd 09 6a a4 3c 8d e9 a1 bd
       0.2242886 -0.04822751 0.020070093 -0.079058744
0001f0 b8 29 95 be b2 3b 7d be f8 0a 7b 3e e6 ad 8f be
       -0.2913339 -0.24729803 0.24515903 -0.2806236
000200 5f ef 73 be 9f 6e 8e be f1 7f d1 3e a0 ea 0a be
       -0.23821782 -0.27818772 0.40917924 -0.13566065
000210 f3 f3 4b be 43 8a b2 3e 9b 0a 17 3e 56 4b c1 be
       -0.19917278 0.3487111 0.1475014 -0.3775279
000220 0f 9a d0 3e fa c5 59 3e b0 2d 07 3e 1c 80 bd bc
       0.40742537 0.21266928 0.13201022 -0.023132376
000230 9e c3 db 3d b7 75 0b be b3 d1 98 3e 47 3b 01 3e
       0.107306704 -0.13619123 0.29847488 0.12620269
000240 32 3b ca 3e ef d9 0a 3e 4b 01 07 bd f2 21 58 3e
       0.39498287 0.13559698 -0.032960217 0.21106699
000250 0a 8a ad bd 7e 1d 0f 3e 38 6b c7 3d 2a 85 ab 3e
       -0.084735945 0.13976094 0.09737247 0.33500034
000260 69 97 95 be 20 89 30 ba 4d 34 68 be c0 76 94 3e
       -0.2921708 -0.00067343004 -0.22676201 0.2899685
000270 20 ec 12 be b9 b9 59 3e ee d1 4a 3e de 26 03 be
       -0.14347887 0.21262254 0.19806644 -0.12807795
000280 eb 07 0d bd 4c 15 84 3e df d2 a4 be 55 b0 cb 3e
       -0.03443138 0.25797498 -0.32192132 0.39782968
000290 15 76 9b bd 78 b8 08 be 1a c8 b6 ba cf 10 97 3c
       -0.07590882 -0.13351619 -0.0013945133 0.018440632
0002a0 54 c4 ac be e3 0f f7 bc ef ff 9c 3e a7 bd 31 be
       -0.33743536 -0.030158943 0.30664012 -0.17357503
0002b0 4b 3e 88 3e 50 e9 c9 be e3 c1 bf 3e dc 97 9f be
       0.26610026 -0.39435816 0.3745261 -0.31170547
0002c0 be 35 84 be d1 04 20 be 4a 50 2d be 2f f5 aa bd
       -0.25822252 -0.15626837 -0.16925159 -0.08347546
0002d0 65 35 99 be 1a e8 7b 3e 1a 84 48 bd a2 67 c4 3e
       -0.2992355 0.24600258 -0.048954107 0.38360316
0002e0 9f 00 d5 3e 4e ba b3 be d1 b8 49 3e a9 08 a0 3e
       0.41602036 -0.35103077 0.19699408 0.31256607
0002f0 65 32 32 3e 87 e4 27 bc 77 3e 99 be 73 53 d2 3e
       0.17402036 -0.010247356 -0.2993047 0.41079292
000300 04 28 d9 3d ae 43 a0 3e 58 ba ea bd b1 ca 1c 3e
       0.106033355 0.31301636 -0.114613235 0.15311696
000310 17 0d 46 be 57 38 d4 be e1 da 6a bc 81 6c d9 3e
       -0.19340931 -0.41449234 -0.014334411 0.42465594
000320 fb b6 13 3d a7 c9 e5 be 56 a1 4b 3a 5c 9f 84 3e
       0.036063176 -0.4488041 0.00077678764 0.25902832
000330 eb 7e ad be fd e3 e0 3e 04 ce 84 3e 73 02 22 be
       -0.33885893 0.4392394 0.25938427 -0.15821247
000340 e0 3a 0e 3e 13 e3 82 3e 33 65 95 3e 99 46 98 bc
       0.13889647 0.2556387 0.2917877 -0.018588351
000350 31 55 1b bd e0 2e 4f 3e 98 00 dc 3d 2c 93 f4 bd
       -0.03792304 0.20232725 0.10742301 -0.11942133
000360 a9 4e bd 3c f4 34 ab be 7d 4a b7 be 1d 65 bd 3e
       0.023108797 -0.33438838 -0.35799018 0.36991206
000370 76 43 dc be d0 ec 7e be 23 7f b7 be 1b 54 13 3e
       -0.4302022 -0.24895024 -0.35839185 0.14387552
000380 81 84 a3 3e 79 ac 14 bd ce 82 bd 3e 96 4f dc 3e
       0.3193703 -0.036297295 0.3701386 0.4302947
000390 e5 97 4c bd 7d a7 b9 be 3a c5 68 be c7 8a a7 bc
       -0.049949545 -0.36260596 -0.22731486 -0.020451916
0003a0 1b 76 ee bd d0 56 90 be 88 25 07 be 97 57 cf bd
       -0.116436206 -0.28191233 -0.13197911 -0.10124128
0003b0 d1 7d 88 be e2 ce c1 be 12 4e 9f 3e 17 7b d7 bd
       -0.2665849 -0.37853152 0.3111425 -0.105215244
0003c0 94 36 cd 3d 12 23 33 be 69 b3 a3 be 3b 6f 69 bd
       0.100201756 -0.17493847 -0.31972817 -0.056990843
0003d0 6e c9 81 3e 0a 3c d4 3e 2c 77 8a 3d e1 a1 93 be
       0.2534899 0.41452056 0.067610115 -0.2883444
0003e0 bb 32 ea bd 82 7c 3e be 40 b6 b4 bd ae 93 9e bc
       -0.11435457 -0.18602183 -0.08823824 -0.019357529
0003f0 88 1f c2 bd 17 c8 45 be 2d 68 94 be 7e 94 d9 bd
       -0.0947867 -0.1931461 -0.2898573 -0.10624026

attention_p.attn_1.bias f4 [16]
000000 dd d3 e7 bb 8a c1 83 bc 61 af 93 3c 06 2c 8a bc
       -0.0070748166 -0.016083498 0.018027963 -0.016866695
000010 f6 a1 d9 bb 61 62 54 bb 27 15 e8 3b 98 e2 d9 bc
       -0.0066416217 -0.0032407271 0.0070825997 -0.026597306
000020 94 7e 73 3c 8f 08 5c bc d0 a1 88 3c 86 63 8b bc
       0.014861722 -0.013429775 0.01667872 -0.01701523
000030 ea 05 72 3c 26 62 82 3c cf 7a 80 bc 9e d8 cc bc
       0.014771918 0.015915941 -0.01568356 -0.025005635

attention_p.attn_2.weight f4 [1, 16]
000000 a1 12 e6 be f9 66 b3 be 0c 12 d8 3d 22 28 34 be
       -0.44936088 -0.350395 0.10550317 -0.17593434
000010 90 b1 84 be 51 2a c8 3b 21 4a be 3e d6 19 8f be
       -0.2591672 0.00610856 0.3716593 -0.279494
000020 b1 9b 7f 3e 4d 88 b9 be 90 23 8f 3e 52 1d 31 be
       0.24961735 -0.36236802 0.2795682 -0.17296341
000030 f6 79 88 3e 7a 98 d2 3e 85 22 1c be 8a a0 a0 be
       0.2665555 0.41131955 -0.15247543 -0.31372482

lstm_t.weight_ih_l0 f4 [64, 7]
000000 23 d2 1e be b2 a1 71 bd 2d 0a dd 3b 9b 44 55 bd
       -0.15509848 -0.058992095 0.006745598 -0.05206738
000010 9c 10 66 3e 47 36 31 be e0 f3 62 3e 27 94 9c 3c
       0.22467273 -0.17305861 0.22163343 0.019113613
000020 50 8f 6e 3e eb 56 68 3d 1f e5 62 be 03 d4 5f 3e
       0.23296857 0.056723516 -0.22157715 0.2185822
000030 c8 0d 54 3d 1c 06 d0 3d 28 4c 2f 3e f3 7c 81 bd
       0.051770955 0.10157415 0.17118895 -0.0632266
000040 e5 7c da 3c a0 f4 c0 bd 72 f2 fa 3d 35 a1 cf ba
       0.026670882 -0.094216585 0.12253274 -0.001584089
000050 b3 0e 9c 3d 73 8c 18 be b8 cc e4 bd b9 21 f1 bd
       0.07619991 -0.14897327 -0.111718595 -0.1177401
000060 cd 24 23 be bd c3 3b 3e c7 7a 40 be 98 37 17 3e
       -0.15932007 0.18336387 -0.18796836 0.14767301
000070 0e 70 56 be 6e 38 5d 3e 6d ee 79 be bb cc 38 3e
       -0.20941183 0.21603557 -0.24407358 0.18046848
000080 99 13 f5 3b bb 86 7c bd 87 40 fb bd 47 d3 13 3e
       0.007479143 -0.061651926 -0.12268167 0.14436065
000090 71 aa 8b 3d ec 91 ec 3d ff ae 7c 3d 13 3d 09 3d
       0.068196185 0.1155127 0.061690327 0.03350551
0000a0 ec 59 4d 3e ba 70 cc 3d f4 5a 56 3e 37 69 2f be
       0.20053834 0.099824384 0.20933133 -0.1712998
0000b0 77 8b fb bc fa 50 48 bd 31 a3 d1 3d 67 b2 82 3d
       -0.03070615 -0.04890535 0.102362044 0.06381684
0000c0 63 89 14 be a2 8e df 3d 4a 62 07 bd 69 7d 33 be
       -0.14505534 0.10915877 -0.03305272 -0.17528309
0000d0 d7 a4 6f 3e 46 ed 3c be 0f 33 ec bd 1b ec 5c 3e
       0.23402725 -0.18449888 -0.11533176 0.21574442
0000e0 34 b4 bb bd 4b 8a 13 3e 8f 72 9c bd e6 42 c8 bd
       -0.091652304 0.14408223 -0.07639038 -0.09778385
0000f0 2e 23 68 3e 25 6d 75 be 3c 13 f2 3c 29 6b 3b bb
       0.2266967 -0.23967417 0.029550187 -0.0028597808
000100 92 b3 10 be e7 5c 1a 3d e0 9a a0 bd 26 54 a7 3d
       -0.14131 0.037686255 -0.0784204 0.08170347
000110 bd 28 f0 bd eb 27 24 be cb 19 71 be cd 34 37 3d
       -0.1172652 -0.16030852 -0.23544995 0.04472809
000120 cb a4 89 bc 4a 2a 9a bd 29 bb 4e be 89 67 2d bc
       -0.016802212 -0.07527597 -0.20188583 -0.010583767
000130 3d 1d 5b be 2d 04 78 3d 55 68 27 bd 26 14 10 be
       -0.21397872 0.060550857 -0.040870983 -0.14070186
000140 65 93 b1 3d a3 5b 3b be c6 48 bf bb 33 54 02 3e
       0.086706914 -0.18296675 -0.0058375327 0.12727432
000150 ed f3 4a 3e e9 91 e2 bd 40 c6 5d be 8c b1 1f 3e
       0.19819613 -0.110629864 -0.21657658 0.15595073
000160 5b 52 42 3c f7 21 82 be 18 5f f4 bc e2 dd d5 3c
       0.011860455 -0.25416538 -0.0298305 0.026106779
000170 9a ea 48 bd 09 0d 33 3e 71 5f 5a 3d d2 9d 0d be
       -0.04905186 0.17485441 0.053313676 -0.13829735
000180 37 e9 c7 bc ef 21 33 3c eb c1 fa bd ae 60 f7 bd
       -0.024403198 0.010933383 -0.12244018 -0.12078987
000190 bd 9c c8 bc a9 6b b5 bc 91 14 1d be a2 12 5f 3e
       -0.024488801 -0.022146063 -0.15339877 0.21784452
0001a0 48 80 83 3e 37 34 30 be 6f f5 f9 3d 00 38 46 be
       0.25683808 -0.17207418 0.12205016 -0.193573
0001b0 69 16 70 3d d6 ae 7b 3e 50 50 11 3d 89 a5 44 be
       0.058615122 0.24578413 0.035476983 -0.19203772
0001c0 15 f9 84 ba c8 3f 39 be 15 3d 44 be 3d 02 60 bd
       -0.0010145033 -0.18090737 -0.19163926 -0.054689635
0001d0 5a f2 13 be fc da e2 3d 63 53 9f 3d 39 0a 5f be
       -0.14447919 0.11076924 0.07779577 -0.21781243
0001e0 8c 92 12 bd 2a 21 76 3e 7b f5 34 3e e7 50 14 3e
       -0.03578429 0.24036089 0.17671768 0.14483987
0001f0 0d 79 c8 3d 60 c3 43 be 71 f5 5c 3e 04 c4 70 3e
       0.097887136 -0.19117498 0.21578003 0.23512274
000200 71 0d 89 bd 4b b9 5d be ba 5d 3d bd 0e 5f 47 bc
       -0.06692017 -0.21652715 -0.046231963 -0.012168659
000210 19 71 2b 3e 7d bb 06 3e 8e 4e 5c be 41 d1 17 be
       0.16742362 0.13157459 -0.21514341 -0.14825918
000220 f6 39 ee 3c 4e 20 36 3e a6 73 b4 bc c3 ab 82 be
       0.029080372 0.17785761 -0.022027802 -0.2552167
000230 ed d5 00 3e 28 67 26 bd f1 6f a0 3d 39 39 f2 3d
       0.12581606 -0.04062572 0.07833851 0.118273206
000240 e1 3e fa 3d 99 95 6e 3c f0 a5 a8 3d 3c 97 b7 3d
       0.122190244 0.014562034 0.08234775 0.089643925
000250 8c fc bb bd 17 7d 82 3d 4b 38 27 3e 35 c3 3c be
       -0.09179029 0.06371515 0.16330068 -0.1843384
000260 af 13 65 3d c5 4b 49 3e 26 f1 e9 3d 8a b5 02 be
       0.055926975 0.1965781 0.114229485 -0.12764564
000270 e5 d4 75 3d ce 1c 09 bc 48 5f 58 3e df d6 09 be
       0.060017485 -0.008368684 0.21130097 -0.13460873
000280 ec a0 fe 3d 6f 92 c4 3c b6 92 dc 3a b3 4a a2 bc
       0.12433037 0.023995606 0.0016828391 -0.01981101
000290 88 7f 60 be 97 e0 b3 3d 69 de 2b be 14 3a 6c 3e
       -0.2192365 0.087830715 -0.16784061 0.2306903
0002a0 ba ef ac 3d 8f 79 00 be 0f 99 42 3e e6 de 32 3e
       0.08444162 -0.12546371 0.190037 0.17467842
0002b0 21 8a 67 3e 0f 04 f3 3d 71 85 40 3d c7 77 03 be
       0.22611286 0.118660085 0.04700226 -0.1283866
0002c0 4f 8e 68 3e 26 13 f6 3d 86 f7 f3 3d 44 78 6b 3e
       0.22710536 0.12015371 0.11912446 0.22995096
0002d0 60 9e 36 3e 3b cb 00 be c2 58 37 3e 66 0c a2 3d
       0.17833853 -0.12577526 0.17904952 0.07912521
0002e0 41 b7 f2 bd ac b4 47 3e dd 8a da bd f6 a0 b6 bd
       -0.11851359 0.19502515 -0.10671017 -0.089174196
0002f0 a8 d1 22 3c 22 da 8e bb 1a c7 2c 3e fd 1e 07 be
       0.009937681 -0.0043594996 0.16872826 -0.13195415
000300 66 2a 79 be 3b 06 a1 3d 86 ee 33 be c6 e3 64 be
       -0.2433258 0.078625165 -0.17571458 -0.22352514
000310 98 cb 49 be 3b 1e 4a be 84 2f a9 bd 92 c5 3c be
       -0.19706571 -0.19738095 -0.08261016 -0.18434742
000320 a6 77 10 3e b6 ba fe bd 74 28 11 3e 2e 9e fc bd
       0.14108142 -0.12437956 0.14175588 -0.12334858
000330 dc 98 2a 3e da 39 08 3d a8 a4 6f be b3 de d2 bd
       0.16659874 0.033258297 -0.23402655 -0.10296383
000340 bc 17 73 3e 8c 93 68 3e cd e5 41 3e 1d 36 4c 3e
       0.23739523 0.22712535 0.18935318 0.19942518
000350 d6 e4 65 3d 0f b6 4b be 2d c4 93 bd 12 58 39 be
       0.056126438 -0.19893669 -0.07215152 -0.18100002
000360 7c aa 0a 3e 0f 87 08 3e 74 f8 90 3d 26 56 4a 3e
       0.13541597 0.13332771 0.07078639 0.19759426
000370 89 e1 4e bd bd be 01 3e e9 74 b1 bc 2d a3 42 bd
       -0.050508056 0.12670417 -0.021662192 -0.047518898
000380 ef d5 25 be 94 51 23 be 76 27 ec 3c ec 52 06 be
       -0.1619489 -0.15949088 0.02882741 -0.1311757
000390 28 7c bb 3c d3 ec 01 be 70 ad 15 bd be 25 30 be
       0.02288635 -0.12687998 -0.036542356 -0.17201898
0003a0 f5 e0 4b be 83 3f d1 3d f6 c3 38 3e d5 16 c7 bc
       -0.19910033 0.10217192 0.18043503 -0.02430288
0003b0 3e fc 58 3d ca 58 85 3d d0 cb 4c 3e eb ab cf bc
       0.052974932 0.06511076 0.19999623 -0.025350532
0003c0 83 6b 78 3e c2 76 77 3c 07 81 20 3e 86 0f 58 bc
       0.24259762 0.015103998 0.1567422 -0.013187295
0003d0 bd fb dc bd 72 1e 95 3c 79 be 5b be 71 3d 2c 3d
       -0.10790203 0.018202994 -0.21459378 0.042050783
0003e0 64 1f 7e bd 82 8c 99 3d 1d 94 6e be a2 32 3e 3e
       -0.062041655 0.07497503 -0.23298688 0.18574002
0003f0 2d ff 77 bd 70 e4 fe bc 4f f7 07 3d c4 e5 55 3e
       -0.06054609 -0.031114787 0.033194836 0.2088843
