Params/dataset3_50_0.001_20_16_222_model.pt (torch, 46565 bytes, 31 tensors)

lstm_p.weight_ih_l0 f4 [64, 10]
000000 95 06 ef bd dd 49 f4 bd 04 73 19 bd 9f 27 2a bc
       -0.11671177 -0.11928151 -0.037463203 -0.010385423
000010 8a bc 5b 3e 98 7c 07 be 01 11 93 3d db 23 2e 3e
       0.2145864 -0.13231122 0.071809776 0.17005865
000020 cb df aa bd 82 5c be bd c7 97 eb 3d b8 7d d5 3c
       -0.08343466 -0.09294988 0.115035586 0.026060924
000030 ec 8a 25 3c bf 81 7a 3e 90 3c cc bb 88 0e 09 be
       0.010103922 0.24463557 -0.0062328056 -0.1338445
000040 75 a2 4f bc a1 a5 37 3d 00 93 52 3d f5 f4 af 3d
       -0.01267301 0.04483569 0.05140972 0.08591644
000050 14 ab ce 3c 20 98 5e 3d 80 4b 66 be 2a 4b 38 3e
       0.02522806 0.054344296 -0.22489738 0.17997423
000060 b0 f9 06 be 11 34 9a bd f8 67 c9 3d 13 f1 c8 bc
       -0.13181186 -0.07529462 0.098342836 -0.024529016
000070 3e 8e 38 3e 75 31 e1 3d 2c 77 68 3e 51 39 a8 3d
       0.18023011 0.10995761 0.2270171 0.08214057
000080 6e e5 73 3d eb 3f 54 3d 4c 9b 1b be 26 cf 27 3d
       0.059544973 0.05181877 -0.1519596 0.040969037
000090 14 70 bc 3d 6d 13 3a bd 7d 11 00 be ee c8 0f be
       0.09201065 -0.045428682 -0.12506671 -0.14041492
0000a0 dc 05 0f 3e 8b 94 3c be 8b 48 86 3e 02 e5 b3 bc
       0.13967079 -0.1841604 0.2622722 -0.021959785
0000b0 81 95 64 3d 13 a5 20 3e 41 7c 30 3e 2c 5a 79 3d
       0.05580664 0.15687971 0.17234899 0.06087701
0000c0 2a 71 5b be be 87 0a bc 99 a2 ee bd 03 66 63 be
       -0.21429887 -0.008455215 -0.11652107 -0.22206883
0000d0 01 c1 9a bd d5 75 00 3e 93 2a c5 3c d4 98 5c 3e
       -0.07556344 0.1254495 0.024068153 0.21542674
0000e0 a0 67 15 be 9b e1 e6 3d f9 36 45 3e 3c a4 2c be
       -0.14590311 0.112734996 0.19259252 -0.16859525
0000f0 74 91 71 3e 99 31 f6 3d a8 6a 92 bc a1 81 89 bd
       0.23590642 0.12021179 -0.017873123 -0.06714178
000100 70 e8 00 be c2 f1 58 3e 0d 08 b5 3d dd 19 73 bc
       -0.12588668 0.21185973 0.08839426 -0.014837709
000110 06 17 75 3e e5 60 ff bd 3a 89 07 be 83 ee 02 be
       0.23934564 -0.12469653 -0.13235942 -0.12786298
000120 09 9c 79 3e 9b 2b 3b be e1 35 26 3a ae 7e f4 bc
       0.24375929 -0.18278353 0.0006340426 -0.029845562
000130 ea ba 49 bd bb ec 64 be 3d ee d7 3d c2 a6 45 bd
       -0.04925052 -0.2235593 0.10543487 -0.048254736
000140 27 87 6a be ff 5c e5 bc 24 e7 37 be cc ce 89 3d
       -0.22903119 -0.027998446 -0.17959267 0.067288965
000150 f2 10 d9 3d 3d dd 00 be bc f4 56 3e 1e 21 02 3d
       0.10598935 -0.12584396 0.20991796 0.031769864
000160 fc c0 68 be c1 69 6e 3c 60 5e 2d 3c 09 03 06 3e
       -0.22729868 0.014551581 0.010581583 0.13087095
000170 28 8d 5a be e9 61 19 3d 6e 08 0d be 43 b9 1a 3d
       -0.2134291 0.03744689 -0.13772747 0.037774336
000180 22 73 3a be 22 dc d1 3c 29 1f 5b be e1 83 95 3d
       -0.18207982 0.025617663 -0.21398605 0.073005445
000190 b1 2a fb 3c 68 f8 30 3e 91 de 7a 3e d8 49 8b 3d
       0.030660005 0.1728226 0.24498965 0.06801194
0001a0 80 96 e5 bd c6 de c0 bd b5 53 ff 3d 75 89 f4 3d
       -0.11210346 -0.09417491 0.12467138 0.1194028
0001b0 33 5d 1e bc d4 e3 33 be 60 d2 05 be dc 70 0e 3d
       -0.009665775 -0.17567378 -0.13068533 0.0347756
0001c0 2d e6 c6 3d 85 99 14 3e 9f 66 03 3e 33 6b 27 3e
       0.09711871 0.14511688 0.12832116 0.16349487
0001d0 f2 35 b4 bc 34 1d 0c 3e 6e 25 81 3d b7 25 63 3e
       -0.02199838 0.13683015 0.06305967 0.22182356
0001e0 5e da 0b 3e 13 78 1a 3c f3 0c d8 3d 1b 45 7f bd
       0.13657519 0.009428042 0.10549345 -0.062321763
0001f0 fe aa 66 be ad 53 93 3d 81 83 5d 3e 15 13 cb 3d
       -0.22526166 0.07193694 0.21632196 0.09915749
000200 87 95 06 bc 6f d7 6b be 1b cc 45 be 67 ce bf 3d
       -0.008214361 -0.230314 -0.19316141 0.0936554
000210 49 30 a3 3d a4 4a 10 3e 1b 4d 0a 3e 6d 7f 96 bc
       0.07968194 0.14090973 0.13505976 -0.018371308
000220 18 62 60 be d6 44 ca 3d cc a4 4c be 9e ac 5e 3d
       -0.2191242 0.09876411 -0.1998474 0.05436384
000230 73 b3 a0 bc 3b 8e fb 3d f2 d4 6f 3e 9e cf f2 bb
       -0.019616818 0.12282988 0.23421076 -0.007410004
000240 4f f8 f6 3d 8b 46 41 3c b5 47 01 3e f3 5b f4 bd
       0.1205908 0.011796604 0.1262501 -0.119316004
000250 82 44 71 be c2 d3 bf bd c1 fa 03 3d dd fe fb 3d
       -0.2356129 -0.093665615 0.03222156 0.12304471
000260 d7 5e 21 3e 16 4b 4f bc aa ac c9 3d 7d 8c 16 3c
       0.15758835 -0.012652179 0.09847386 0.009188768
000270 79 c9 67 3e f5 2d c2 3d 08 59 ca 3c 52 68 16 bb
       0.2263545 0.09481422 0.024700657 -0.0022950363
000280 08 6c 84 3d 7b ba 7e bd e5 67 65 3e 8e 94 08 3e
       0.06465918 -0.06218956 0.22402914 0.13337919
000290 25 9b ba bd 5f 82 b0 3d 84 40 fd bd d5 6f 5e be
       -0.09111623 0.08618616 -0.12365821 -0.21722348
0002a0 a2 e6 71 be 19 46 76 be a5 89 cb bd 85 67 de bd
       -0.23623136 -0.24050178 -0.09938363 -0.108595885
0002b0 50 85 42 bd 7f 14 49 3e 3a 88 0a 3d 24 68 ea 3d
       -0.047490418 0.19636725 0.033821322 0.114456445
0002c0 99 82 34 3d 78 60 93 3d 3f f3 d1 bc e4 e2 43 bb
       0.04406986 0.07196134 -0.025628684 -0.0029889876
0002d0 14 03 7b 3e 52 88 41 3e 45 c8 cd ba fc 05 87 3d
       0.24512893 0.18899658 -0.0015699944 0.06592938
0002e0 7b 2f 01 3e a9 b3 ef 3d e3 a8 09 3e 89 ec c0 bd
       0.12615769 0.11704189 0.13443331 -0.094201155
0002f0 ad 51 b3 3d 6d fa 15 3a b6 b2 df 3d 62 07 14 bd
       0.08755813 0.0005721215 0.10922758 -0.036139853
000300 3a 9f 1a 3e 0e 43 34 be 48 15 1d 3e 7e 9a a1 3d
       0.15099803 -0.17603704 0.1534015 0.07890795
000310 63 f3 0d 3e 1e 4a 1a 3c 08 8b d9 bd f8 4c c9 3b
       0.13862376 0.009417085 -0.10622221 0.0061432086
000320 38 c9 06 3e 68 14 72 3d 5c e2 60 be 71 35 4a be
       0.13162696 0.059101492 -0.21961349 -0.19746949
000330 7a 23 6f 3e c1 89 21 be 23 4e 8d bd d1 00 2f be
       0.23353377 -0.15775205 -0.06899669 -0.17090155
000340 7e ca aa 3d a1 ca 64 be a4 63 1e 3e 38 36 30 be
       0.083394036 -0.22342922 0.15467697 -0.17208183
000350 56 eb 70 be 75 d4 32 bd b3 ae 37 3d 32 97 f5 bd
       -0.23527274 -0.043659646 0.04484434 -0.11991729
000360 35 70 b7 3d 8e 9d 6c be 79 3f 50 3e 94 4a 60 be
       0.08956949 -0.23106977 0.20336713 -0.2190345
000370 fa b9 8a 3d 28 70 04 bd eb 23 b1 bd 81 45 56 3e
       0.067737535 -0.032333523 -0.08649429 0.20924951
000380 74 ac 5a 3e bf e3 4c 3e 44 13 19 be 76 4e 36 be
       0.21354848 0.20008753 -0.14948756 -0.17803368
000390 bf 9e 5c be c3 3e 05 3e a8 a3 dd bc 2b 77 08 be
       -0.21544932 0.13012223 -0.027055576 -0.13326709
0003a0 76 e3 ec bd 13 79 04 3e 0d 97 6e bd 4e ec c2 3c
       -0.11566822 0.12936811 -0.058249522 0.02379432
0003b0 f6 df 5c be 1d fc 5b 3e c1 58 9c bd fb ec c0 3d
       -0.2156981 0.21482892 -0.07634116 0.094202004
0003c0 20 fe 49 be 7e 88 3a 3e 43 b9 4e 3e 50 20 0e be
       -0.19725847 0.1821613 0.20187859 -0.13879514
0003d0 20 e0 da bd 23 95 26 be ce f2 67 3e bf 73 0a 3e
       -0.1068728 -0.16267829 0.22651216 0.13520716
0003e0 bd f9 ca 3d c4 76 d3 3d 40 8d 46 be c1 61 e5 bd
       0.09910915 0.10325387 -0.1938982 -0.11200286
0003f0 7a 5d 30 be 7f f8 95 bd 93 a3 90 bd 49 86 15 3e
       -0.17223158 -0.073227875 -0.07062449 0.14602007

lstm_p.weight_hh_l0 f4 [64, 16]
000000 44 1a d8 bc ee ff 9c bc b0 27 58 3b d5 45 82 3e
       -0.026379712 -0.019165006 0.003298264 0.25443903
000010 19 c0 74 3e eb 63 28 be b4 b2 4c 3d 6c 04 5c 3d
       0.23901404 -0.16444366 0.049975112 0.053715155
000020 25 b3 11 3e cb 7b 4c bd 7d ec ca 3d 8a 93 08 3e
       0.14228494 -0.049922746 0.09908388 0.13337532
000030 43 61 c4 3c 8b 03 59 3e 48 e7 9d 3d c7 21 42 3e
       0.02397216 0.21192758 0.07710129 0.18958198
000040 2c 88 32 3e ce ec 77 be 5b 99 f6 bd 0c f1 1d bd
       0.17434758 -0.24211428 -0.12040969 -0.03855996
000050 03 0f 27 3e 7c 57 43 be 8f fb 27 3e 24 9e e4 3d
       0.1631432 -0.19076341 0.16404556 0.111629754
000060 c4 78 2b 3d 06 0e 53 3e 23 d7 6f 3c 18 69 2e be
       0.041863218 0.20610818 0.014638695 -0.17032278
000070 37 1b 03 3e 09 99 5d be a9 c3 5b be 31 58 91 3d
       0.1280335 -0.2164041 -0.21461357 0.07096899
000080 ff 94 52 3e bc ad 7d be 15 5b 33 3e 77 bb 3c 3e
       0.2056465 -0.24773306 0.17515214 0.18430887
000090 76 73 24 be 29 3c 55 be 7d 75 5c 3b 6a de 30 3e
       -0.1605967 -0.2082373 0.0033639364 0.17272344
0000a0 e8 da 15 3d f9 e5 27 be 3c 74 8f bd e2 d2 18 bc
       0.03658572 -0.16396321 -0.07004592 -0.009327622
0000b0 a8 82 7d 3e ae 67 db bd c8 61 35 be 5d e7 81 bd
       0.24756873 -0.10713135 -0.17713082 -0.06342957
0000c0 9e 5d 09 be 5e 53 bf bc 41 bc 97 3c 6a 27 db bd
       -0.13414618 -0.023355182 0.018522384 -0.10700877
0000d0 6a 4c b1 3d de 8d 6b be af 96 2a 3e f7 4d 97 3d
       0.08657153 -0.23003337 0.16659044 0.073879175
0000e0 f8 bf 02 3e 14 95 85 bd 90 b2 ba 3d 97 c1 b9 3d
       0.12768543 -0.06522575 0.09116089 0.090701275
0000f0 ad da ae 3c 0f 70 bc bd ed f0 9d bd 25 c3 20 3e
       0.021344507 -0.09201061 -0.077119686 0.15699442
000100 f8 e3 4a 3e 03 6f 62 bc 96 99 40 be c5 2e 03 3d
       0.19813526 -0.013820413 -0.18808588 0.032027025
000110 1b 0f 6e be 3e b8 b3 3d 91 2a ca bd 15 ad ab 3d
       -0.2324795 0.08775376 -0.098714 0.08382622
000120 39 6c 13 be 00 c6 df 3d 5b 0c 3c be 1a 4b 3f 3e
       -0.14396752 0.109264374 -0.18364088 0.18680993
000130 89 1f 40 3e 38 f6 68 3e c7 83 9f 3d 0b 18 1d be
       0.1876203 0.22750175 0.077888064 -0.15341203
000140 40 01 a2 bb 5d c7 1c 3e 65 4d 12 be 2c 39 3b be
       -0.0049439967 0.15310426 -0.14287336 -0.18283528
000150 b1 af cc 3d 43 b3 03 be 01 ed 5f be 96 91 32 3e
       0.09994448 -0.12861352 -0.21867754 0.17438349
000160 3d 2d 1d 3e 75 5e 1e be 14 50 e1 bd 5f fd 31 3d
       0.15349288 -0.1546572 -0.11001602 0.043454524
000170 a6 68 f5 bd 61 9a 5a be 6a 3c e5 3d 0e e9 7c 3d
       -0.11982851 -0.21347953 0.11193164 0.061745696
000180 09 05 53 be 3a 07 bf 3c c3 27 38 bc 2f bb 05 be
       -0.2060739 0.023318876 -0.011239949 -0.13059686
000190 1f 56 41 3e 42 46 99 3d 60 fe 82 3e 8d 2f a5 bc
       0.18880509 0.07484104 0.25584698 -0.020164276
0001a0 61 e9 0e be 63 9c 4f bc 74 67 4d be 75 c7 93 3c
       -0.13956214 -0.012671563 -0.20058995 0.018039444
0001b0 fc 1c 5a be db 69 3d 3e 63 a3 68 bd 8c 35 15 3e
       -0.21300119 0.18497412 -0.056796443 0.14571208
0001c0 90 b5 1f 3e 97 69 5e be f0 94 7a 3e 21 90 36 be
       0.15596604 -0.21719967 0.24470878 -0.17828418
0001d0 3d 20 73 3e b2 52 ac bd 8a 29 43 3d 4b 5f b3 3d
       0.23742767 -0.084142104 0.047647037 0.0875841
0001e0 f6 dc 6c 3e 73 2c 30 3e 16 88 12 3e 4f b7 7e 3d
       0.23131165 0.17204456 0.14309725 0.062186535
0001f0 60 a2 a1 bd 77 ef df 3c 84 6b 3c bc c6 75 25 3e
       -0.07892299 0.027335865 -0.011500243 0.16158208
000200 24 5e 3d be 7e 56 24 3e f2 58 18 3e 1c b9 82 3e
       -0.18492943 0.16048619 0.1487768 0.25531852
000210 94 4c 93 3d a2 57 5e 3e 06 3c 2c be 55 16 39 be
       0.071923405 0.21713117 -0.16819772 -0.18074925
000220 aa 96 d4 3c ba c5 d5 3d d9 8a 22 3e 14 9b 50 be
       0.025950748 0.10438104 0.15873279 -0.20371658
000230 92 f1 27 bd 0e f8 1c be e9 55 d9 3a 0d 80 4c bb
       -0.041001864 -0.15329 0.0016581389 -0.0031204254
000240 b7 63 4a be 9b 11 b2 bc ad 93 29 be a8 a0 a2 bd
       -0.197646 -0.02173691 -0.1656024 -0.07940799
000250 91 7d 9f 3c 98 af 26 3e 6c c3 55 3c 49 90 0e be
       0.019469054 0.16277921 0.0130470805 -0.13922228
000260 c4 ee 2e be 12 6c 9d bd 38 de 1c 3d 39 8d 26 be
       -0.1708327 -0.076866284 0.03829786 -0.1626481
000270 73 81 78 3e c4 5d f0 3d 7f df 4f 3e 15 55 33 3d
       0.24268131 0.117366344 0.203001 0.043782312
000280 42 55 32 be f1 67 1f 3e f0 86 06 be e8 fd 61 3e
       -0.17415336 0.15566994 -0.13137412 0.22069514
000290 ae 7e 7a 3d 29 b6 2f 3e ed 9f 7a be de b4 ac bd
       0.061155967 0.17159332 -0.2447507 -0.08432935
0002a0 22 7c fa 3d 0f 8f 20 be fa 32 42 3e 81 52 1b 3c
       0.12230708 -0.15679573 0.18964759 0.00948012
0002b0 cc 98 46 be 72 4c f3 3d a7 10 46 3d 0a b9 f5 bd
       -0.19394225 0.11879815 0.048355725 -0.11998184
0002c0 16 34 af bd 58 90 43 bc b9 76 94 bd c7 c0 78 3e
       -0.085548565 -0.01193627 -0.07249207 0.24292289
0002d0 19 ca 4d be ea a0 2f bc 82 3e 37 be bc a8 66 bc
       -0.20096625 -0.010719517 -0.17894939 -0.014078315
0002e0 ec e0 08 be d3 d6 75 3e 91 af 0f be a1 d1 66 3e
       -0.13367051 0.2400773 -0.14031817 0.22540905
0002f0 ae ea 39 bc 1e b1 5f 3c 46 7a 9c bd 84 b9 c4 bc
       -0.011347456 0.013653068 -0.07640509 -0.024014242
000300 d2 2a 86 bd 98 9d e7 bd d7 3c 31 be 12 1e 61 bd
       -0.06551136 -0.113093555 -0.17308365 -0.054960318
000310 68 66 fd bd 95 7f 24 3d 0c 67 b8 bc a8 e8 10 be
       -0.12373048 0.040160734 -0.022510074 -0.14151251
000320 6e f3 7f be 96 dc 04 be f2 5a 3f 3e 6c e9 dd 3d
       -0.24995205 -0.12974772 0.18687037 0.10835537
000330 8f 69 1c 3e b4 57 60 bd a2 c0 3f 3e 6b 43 3c 3e
       0.15274642 -0.05477114 0.18725827 0.18385093
000340 44 f3 0a be 4e ed 05 be 9e 3e 08 3e 03 2d 1c 3e
       -0.13569361 -0.13078806 0.13305137 0.15251546
000350 fc a0 b6 bd 0a 14 b5 3d 83 4b a6 3d 24 1c d8 bd
       -0.08917424 0.08841713 0.081198715 -0.105522424
000360 13 e8 4e be c7 e2 9c bd 82 f5 36 be 4b 92 5f 3e
       -0.20205717 -0.07660442 -0.17867091 0.2183315
000370 9b 27 12 3e 71 ad 75 3e 29 d1 16 3e cb 40 bf 3d
       0.14272921 0.23991944 0.14728226 0.0933853
000380 bb b4 ca 3c 23 84 39 3e 39 14 d6 3d 29 e5 e0 3c
       0.024744382 0.18116812 0.10453076 0.027453022
000390 9a da 31 3e 66 de 44 3e 7a 3d b8 bd 8b 56 63 bd
       0.17368546 0.19225463 -0.08996101 -0.055502456
0003a0 05 00 51 bd b1 3f 43 be f5 d1 2d be 76 94 51 be
       -0.05102541 -0.19067265 -0.16974624 -0.2046679
0003b0 de f4 96 3c 37 22 07 bd f5 25 00 3e f0 8f 4a 3d
       0.018427309 -0.032991614 0.1251448 0.049453676
0003c0 d1 83 f8 bd 89 e7 8d 3d c7 e9 6b be b7 69 ab 3d
       -0.12134517 0.069289275 -0.23038398 0.08369773
0003d0 55 fc 1a 3e 72 f6 1c be 63 0e 28 3d 23 f7 53 bb
       0.1513532 -0.15328386 0.041029345 -0.003234335
0003e0 c1 4e 7c 3d 27 c0 43 3e 32 5c 24 be 29 28 32 be
       0.061598543 0.19116269 -0.16050795 -0.17398132
0003f0 a1 55 b0 3c 9e 92 5c be b0 b9 f8 bd d4 0b bb 3d
       0.021525206 -0.21540305 -0.12144792 0.091331154

lstm_p.bias_ih_l0 f4 [64]
000000 2a 09 fe bc 5c c5 5b be d4 10 24 be b6 97 a5 bd
       -0.03101023 -0.21462005 -0.16022044 -0.08085577
000010 cc 7a 0b 3e 4c 56 86 bd a6 55 de 3c 6b 4a 4d be
       0.13621062 -0.065594286 0.02714045 -0.2004792
000020 a2 fe 3a 3e b0 bc 80 be c5 40 b1 3d b9 e3 48 3d
       0.18261197 -0.25143957 0.08654932 0.0490453
000030 3b 4d 66 3e ab 6c 1e be fd 01 02 3e d6 85 09 3e
       0.22490399 -0.15471141 0.12696071 0.1342996
000040 97 b6 25 be 80 57 43 3e 26 ba 30 be c2 96 26 be
       -0.16182934 0.19076347 -0.1725851 -0.16268447
000050 13 7c 62 be 4c 77 3b 3e ec f2 a6 3d f8 f5 13 bc
       -0.22117643 0.18307227 0.081518024 -0.0090308115
000060 ac 92 c2 3a 59 96 39 3e ae 3f 2c bd 1f 4f cb 3c
       0.0014844737 0.1812376 -0.042052917 0.024818001
000070 0f fe 0f be 1d 39 3f be b9 df 73 be 3f 92 0e 3e
       -0.1406176 -0.1867413 -0.23815812 0.13922976
000080 59 5e ce bd 53 16 07 be 1b 3d 2e 3e 32 04 62 3e
       -0.10076589 -0.1319211 0.17015497 0.22071913
000090 73 44 b0 3c 16 77 a9 bd 5f bc 67 be 7b 3d 56 be
       0.021517014 -0.08274667 -0.22630452 -0.2092189
0000a0 46 90 ed 3d 40 b8 19 be df a7 61 be 52 e5 3f be
       0.115997836 -0.15011692 -0.22036694 -0.18739823
0000b0 6f 53 69 bd 4b a6 f7 3d 11 1d 27 3e bf 15 5e bd
       -0.056964334 0.12092265 0.16319682 -0.054219957
0000c0 71 1f 41 3e ca 0e 50 3e 85 f9 e8 3d 15 ac 7a 3e
       0.1885965 0.20318142 0.11375717 0.24479707
0000d0 60 7b 83 be 73 ed 62 3d c1 4d 39 be 31 09 8a bc
       -0.25680065 0.05540223 -0.18096067 -0.016850086
0000e0 9f 5f 50 3d fd e1 9e 3d 75 63 49 bd 2f 2e 20 3d
       0.05087244 0.077579476 -0.049167115 0.039106544
0000f0 7b 0f 1d be 45 7c 30 3e 24 1d da bd 33 3f 18 be
       -0.15337937 0.17234905 -0.106500894 -0.14867859

lstm_p.bias_hh_l0 f4 [64]
000000 03 20 82 be bb b7 d8 bc 5f 6b 90 bd 9a 9b be 3d
       -0.25415048 -0.026454797 -0.070517294 0.093070224
000010 1d 09 e1 bc 9b 2c 46 3d ce 3e 2b be 49 d6 60 3e
       -0.027470166 0.048382383 -0.16723177 0.21956743
000020 08 25 90 bc 84 35 48 be cd 52 30 3e 27 b2 1a 3c
       -0.017595783 -0.19551665 0.17219086 0.009441889
000030 4e 8b aa bc ad 6e 05 be 8f 51 aa bd 73 e5 4d 3d
       -0.020818379 -0.130305 -0.08316337 0.050267648
000040 a7 43 e9 3d ee 6c 7f be 1a 1b 01 3d bb 82 8e 3d
       0.11389857 -0.24943897 0.031519987 0.069585286
000050 2b 28 00 3e c1 00 94 3d 8c 82 ad 3d e6 ae 49 3e
       0.12515323 0.07226706 0.084721655 0.19695625
000060 1c 3d a5 bd 03 c5 02 3d 8e 0c cc bd 09 67 19 3d
       -0.08068296 0.031926166 -0.09963332 0.037451778
000070 53 1b f7 bd eb fe a8 3d f1 5c ad 3c aa 72 80 3c
       -0.120657586 0.08251747 0.021162482 0.015679676
000080 bc a4 73 be 71 7b 26 3e cf f5 6c be a3 4d 4d 3d
       -0.2379331 0.16258027 -0.23140644 0.05012287
000090 5e ae 11 be f1 28 29 be 0c 34 1c bb 33 12 22 be
       -0.14226672 -0.16519524 -0.0023834733 -0.15827255
0000a0 22 d6 02 be 5c 9c 1b be 4f 2f 28 3e 5c 12 96 bd
       -0.12776998 -0.15196365 0.16424297 -0.073277205
0000b0 2f 7c ba 3d 20 f3 24 bd 8b 83 4d be 54 c3 04 3e
       0.091057174 -0.040270925 -0.20069711 0.12965137
0000c0 50 11 09 be c8 84 0a 3e 0d 2f 5c be 19 c7 73 be
       -0.1338551 0.13527215 -0.21502323 -0.23806418
0000d0 dc 94 85 3d 97 44 89 bd 17 3f 06 be 05 8c 6a 3e
       0.06522533 -0.067025356 -0.13110004 0.22904976
0000e0 44 d4 64 3e 0e 26 77 be 56 32 3c 3e 9b bb f1 3d
       0.22346598 -0.2413561 0.18378577 0.11803361
0000f0 e9 eb aa bd a2 26 c6 bd 24 85 8a 3d 3f a0 42 bd
       -0.083457775 -0.096753374 0.06763676 -0.047516104

lstm_p.weight_ih_l1 f4 [64, 16]
000000 26 9f 38 bd 92 c2 a6 3d 24 bf 5b 3e e3 39 e0 3b
       -0.04507365 0.0814258 0.21459633 0.006842838
000010 e1 6e 37 be 76 11 d9 3d 68 a0 63 3e 81 3e 5b 3e
       -0.1791339 0.105990335 0.22229159 0.21410562
000020 13 40 5f 3e 59 4e cc bd c7 f9 05 be e8 b9 00 3e
       0.21801786 -0.09975881 -0.13083564 0.12570918
000030 70 01 aa 3d 8b e1 42 3e c1 87 b2 bd 26 f2 cc bd
       0.083010554 0.1903135 -0.08717299 -0.10007124
000040 ee 8d 20 bd 98 b7 42 3e 9c 77 a0 3d b4 17 6d 3e
       -0.039197855 0.19015348 0.07835314 0.23153573
000050 55 24 0d be 3c 4e 88 bd 26 68 15 3e b5 9b 88 bd
       -0.13783391 -0.06655547 0.1459051 -0.06670324
000060 74 32 52 3e a4 3f 54 bd f9 ec 35 3e cc 43 1e 3e
       0.20527059 -0.051818505 0.17766179 0.1545555
000070 2e 92 22 3d a6 23 84 bd f1 d2 18 be 84 0e 03 be
       0.03969019 -0.06452112 -0.14924218 -0.12798506
000080 1c db 11 be a2 dc 46 be 22 69 45 3e 1b 6e bd 3d
       -0.1424374 -0.19420102 0.19278386 0.092495166
000090 c4 4f a0 bd d3 18 4b 3e f4 83 c0 3c 22 b8 9d 3b
       -0.07827714 0.19833688 0.02350042 0.00481321
0000a0 01 20 1d 3e 2c 5c 6f 3e 98 65 1e 3e 64 3f c1 bd
       0.1534424 0.23375005 0.15468442 -0.09435919
0000b0 c1 f9 62 be ab f7 da bd 4a d9 43 bd 8c 2e d0 3d
       -0.22165586 -0.1069177 -0.047814645 0.10165128
0000c0 4c 23 06 3e 57 97 79 be a8 26 5e 3e 89 09 80 3e
       0.13099402 -0.24374138 0.21694434 0.25007275
0000d0 6c df 89 bd 9b 5c 46 3e 2f 45 ec 3d e6 26 17 be
       -0.067320675 0.19371264 0.11536633 -0.14760932
0000e0 ea cb d0 bd e8 1d 51 be af 52 56 3e ff 5f 3e 3e
       -0.101951435 -0.20421565 0.20929979 0.18591307
0000f0 ce 19 3e 3e 2e 98 08 3e bd 23 1b 3e 0d e7 26 3e
       0.18564531 0.13339302 0.15150352 0.16299076
000100 16 30 9b bd 26 76 c5 bd 6e 43 4c 3e 93 41 9f bd
       -0.07577531 -0.09641676 0.19947597 -0.07776179
000110 40 9a 06 3e 98 d6 eb bd ae d5 60 be c4 0d 41 be
       0.13144779 -0.1151554 -0.21956512 -0.18852907
000120 10 19 5a 3e 61 f1 55 3e 70 d0 70 be 1e 31 a7 3c
       0.21298623 0.2089286 -0.23517013 0.020409163
000130 76 7f 6e 3e a4 4b 19 be f6 2e aa bb 94 08 f7 3d
       0.2329081 -0.14970261 -0.0051935865 0.12062183
000140 07 55 24 3e 8a c4 a1 bd 62 97 93 bd 83 c3 34 3d
       0.1604806 -0.07898815 -0.07206608 0.044131767
000150 7f 01 0c 3d e7 67 26 bd cf fc 63 3e 0b 82 16 be
       0.034181114 -0.040626433 0.22264408 -0.14698045
000160 96 ae e1 bd 63 46 60 3e 59 ba c6 ba 0f 8c a1 bc
       -0.11019628 0.2190185 -0.0015161737 -0.019720105
000170 a6 d8 00 3e d3 a8 cc 3d 5d a5 ce 39 04 8c df 3d
       0.12582645 0.09993138 0.00039414587 0.10915378
000180 a8 dc d2 3d 0a b0 ba bd 4a 0f 1f 3e 78 9d 2f 3e
       0.10295993 -0.09115608 0.15533176 0.17149913
000190 56 2d 71 be be 35 2c be 76 2d 3d 3e 3e 6e 9d 3c
       -0.2355245 -0.16817376 0.18474373 0.019217607
0001a0 e0 99 f0 3d 4d 48 ad 3d 79 7f df bd d5 f1 b3 bd
       0.11748099 0.08461056 -0.10912985 -0.0878636
0001b0 07 f9 40 be 60 ea 28 be a8 4a 57 3e e4 28 58 be
       -0.18844996 -0.16495657 0.21024573 -0.21109349
0001c0 ec 73 e8 3d 83 c6 ea 3d 29 cd 67 3e 73 cc 76 be
       0.11350235 0.11463644 0.22636856 -0.24101429
0001d0 12 51 f1 3d d0 92 c3 3d a6 09 23 3e 38 1d 74 3e
       0.11783041 0.09549487 0.1592165 0.23839271
0001e0 8b c9 e9 3d 35 e6 74 3d 17 dd 60 bd b7 0a 5c be
       0.114153944 0.059789855 -0.054898348 -0.21488462
0001f0 a4 e4 cf 3d 6a 9c cb bd 6b 2d 01 3e 6a 5f 57 be
       0.101510316 -0.09941943 0.12614982 -0.21032491
000200 cb 63 aa bc 0c 4b 25 3e e4 97 e5 3c 23 da 2a bd
       -0.020799538 0.1614191 0.028026529 -0.041711938
000210 6d 6f 87 3d 0e 12 af 3d 61 55 4c be a4 e0 bf bc
       0.0661305 0.085483655 -0.19954444 -0.023422547
000220 82 c6 e7 3d 89 ce 4f 3e e9 10 16 3e 54 bb 0e 3d
       0.11317159 0.2029363 0.14654888 0.03484662
000230 7b ad 41 3e df b8 23 3e 28 f0 6e bd 77 88 f8 3c
       0.18913834 0.15988491 -0.0583345 0.030338509
000240 06 8d 76 bd 6d f8 cb bd 91 17 3c 3e c2 5e d2 3d
       -0.060193084 -0.09959493 0.18368365 0.1027198
000250 ee e2 59 3e 99 06 ca 3d fc 01 ee bd 1e 0b 07 bc
       0.21277973 0.0986454 -0.11621472 -0.008242397
000260 5e 01 2b 3d 80 99 07 3d fb 1f 4b be 1e c8 50 bd
       0.04174935 0.033105373 -0.19836418 -0.050972097
000270 e9 40 32 bd 5a bf 5d be ac 7b 38 be e8 e1 49 3e
       -0.043518934 -0.21655026 -0.18015927 0.19715083
000280 30 0f 72 be c5 d6 2c 3d e1 92 5e 3c 73 87 5b be
       -0.23638606 0.042197008 0.013584823 -0.21438389
000290 a1 fe 40 be 5d 16 d5 bc 47 26 83 be 54 27 eb 3c
       -0.18847133 -0.02601164 -0.2561514 0.028705277
0002a0 92 bc 13 3e 87 05 00 be c9 64 fc 3c 87 89 62 bc
       0.14427403 -0.12502109 0.030809777 -0.013826734
0002b0 c2 47 71 3e eb 73 81 bc 77 b8 ef bd 99 f4 6a bc
       0.2356253 -0.015802344 -0.11705106 -0.014340543
0002c0 c6 b0 f6 bd 94 a8 05 be 1c af ca bd 70 9e bd 3c
       -0.120454356 -0.13052589 -0.09896681 0.023146838
0002d0 8e 43 68 3e f2 4f 39 be f0 4a 1b 3d f0 e2 f6 3d
       0.2268202 -0.18096903 0.037913263 0.12055004
0002e0 84 32 71 3e 09 7f 2e 3e cc 0f 2f 3e 87 8d 5a be
       0.23554426 0.17040648 0.1709587 -0.21343051
0002f0 39 e8 54 3e 7e c4 55 be a6 7c 93 3d de 0d 87 3d
       0.20791711 -0.20875737 0.07201509 0.06594442
000300 cf f8 a7 3d af 44 aa bc 8f b7 d1 bb 91 94 bf bd
       0.08201753 -0.020784704 -0.0064000557 -0.09354509
000310 c1 b7 4c 3e cc 5b 18 be 21 5d 72 be 72 a3 82 3e
       0.19991972 -0.14878768 -0.23668338 0.25515324
000320 58 5c 05 be 8e 0d 4a be 67 65 36 be 7d 6e f7 bd
       -0.13023508 -0.19731733 -0.1781212 -0.12081621
000330 d6 3f 2a 3e be fe 4d be 5f 18 75 be 5a aa 30 3e
       0.16625914 -0.20116708 -0.23935078 0.17252484
000340 6c f1 4b be ff 24 23 be 86 a6 df bc 77 19 69 be
       -0.19916314 -0.15932082 -0.027301084 -0.2276362
000350 c2 4f 38 3e b2 73 12 3e 5c 8e 7d 3e b3 75 2d be
       0.17999175 0.14301947 0.24761337 -0.1693943
000360 39 7c 2f be f3 76 e0 bd f3 2e 0f 3e 19 b0 44 3e
       -0.17137231 -0.10960188 0.13982753 0.19207801
000370 00 ae 35 be cd 67 c5 3d 6c 7d 12 3e 36 11 5e 3e
       -0.17742157 0.09638939 0.14305657 0.21686253
000380 a6 15 9e 3d 5f 3a 5e 3e 0f 37 07 be 87 c4 10 3e
       0.07718973 0.21701954 -0.13204597 0.14137469
000390 cf e8 6a be d7 91 eb 3d cb aa c8 bb 87 50 68 be
       -0.22940372 0.11502426 -0.0061238757 -0.22686969
0003a0 86 0a 77 bc 79 dd 32 3e bc a6 b4 bc 92 4b 12 3e
       -0.015078193 0.17467298 -0.022052161 0.1428664
0003b0 d7 97 f0 3d 51 77 36 be 69 0d d9 bd 99 de 46 3e
       0.11747711 -0.17818953 -0.10598261 0.19420852
0003c0 e4 13 ff 3d 70 94 1b 3e 13 5d f4 3c d2 9b 3f bc
       0.12454966 0.15193343 0.029829537 -0.011694865
0003d0 7e aa a3 3d 8c cc 8c bc 0b d8 4b bd 48 66 61 be
       0.07991503 -0.01718738 -0.04976658 -0.22011673
0003e0 f9 06 a5 bd 7a 80 51 3c 01 0d 4a 3d cf ec 02 3e
       -0.080579706 0.012786979 0.049328808 0.12785648
0003f0 39 bc 8a 3d 6a 7c be bc 65 2b 15 3e d4 a1 bf 3d
       0.06774182 -0.023252685 0.14567335 0.09357038

lstm_p.weight_hh_l1 f4 [64, 16]
000000 6a a5 47 3e 74 e8 12 be 41 75 75 3e e4 fe e0 bd
       0.19496694 -0.14346486 0.2397051 -0.109861165
000010 1b 14 4f bd 79 e7 3e be ba 99 86 3d 90 28 44 3e
       -0.050556283 -0.18642987 0.0657229 0.19156098
000020 57 8f 9e bd 76 37 27 3e 7a 52 9d bc 7a ca 71 3e
       -0.07742184 0.1632975 -0.019204367 0.23612395
000030 75 0e 1b be 6c 1c 86 3b 31 76 43 3e a8 c3 51 be
       -0.15142234 0.0040927436 0.19088055 -0.20484793
000040 fb c8 fd 3d 72 ae 73 be 1e 03 55 3e 82 9e c7 3d
       0.123918496 -0.23797014 0.2080197 0.0974703
000050 07 69 41 3d e6 f7 6a be 6f db 82 3e 6a ca 36 3e
       0.047219303 -0.22946128 0.2555804 0.17850652
000060 d8 81 70 3e 06 c9 55 be 8f 7f 62 3e 71 b3 f8 3c
       0.23487031 -0.20877466 0.22118972 0.030359002
000070 1b e7 18 3e 74 28 81 be 0b 3c 07 be b5 b6 63 3c
       0.1493191 -0.25226176 -0.13206498 0.013898541
000080 97 1a 11 3e ae 14 75 be 74 2a 0b 3e 45 89 f1 3d
       0.141703 -0.2393367 0.13590413 0.1179376
000090 44 59 32 be ee 2b 54 3e c4 0e 00 be 8d de b3 3d
       -0.17416865 0.20719883 -0.12505633 0.087826826
0000a0 5f 07 33 be 49 1b 1b be 8d bd 41 bd db 5c 9e bd
       -0.1748328 -0.15147127 -0.04729991 -0.077325545
0000b0 00 ec 5b 3d 39 92 66 bd 74 c5 03 be 53 1f 71 3e
       0.053691864 -0.056291793 -0.12868291 0.23547105
0000c0 a9 ee 3f bc 97 cd 58 be fb d1 4a 3e f5 94 54 3e
       -0.011714616 -0.21172176 0.19806664 0.20759948
0000d0 a3 cc 05 be 3c d3 2e 3e 09 65 da bd 6c dd 43 be
       -0.13066344 0.17072767 -0.10663802 -0.19127434
0000e0 95 74 83 be 4f 6d 08 be a8 9b fc 3d 13 c6 83 3e
       -0.25674883 -0.13322948 0.123343766 0.25737056
0000f0 59 b9 6f 3e c5 85 bf bc cd d6 44 bd de 14 c1 3b
       0.23410548 -0.023379216 -0.048056412 0.00589238
000100 b5 d8 59 3e 9b c9 3e be b9 89 15 be 23 cc a5 bb
       0.21274073 -0.18631594 -0.14603318 -0.0050597354
000110 3f 2d 65 be 83 38 03 3e 33 da 27 be 90 1e 8e bd
       -0.22380541 0.12814526 -0.1639183 -0.06939423
000120 bf e5 0b be 94 eb 79 bc a4 6a 62 3e 60 c3 ad bd
       -0.1366186 -0.01525392 0.22110993 -0.084845304
000130 1f 06 c1 bd 37 fb 02 3e b5 6f b9 bc 13 f5 52 bc
       -0.09424996 0.12791143 -0.022636274 -0.012875813
000140 02 17 52 3e ec 6b a3 3d 57 7f 01 bd 1f 7e 64 3e
       0.2051659 0.07979569 -0.03161558 0.22313736
000150 1f 34 81 be a8 cf 59 3e 1c 82 aa bd 28 43 2c 3e
       -0.25235078 0.21270621 -0.08325598 0.16822493
000160 99 3b 93 bd 1c ce 4f be 0c 50 2e bc 8b 75 5f 3e
       -0.07189102 -0.20293468 -0.010639202 0.21822183
000170 b2 49 d3 3c be 7f 51 be 65 6a 2c 3e 07 47 75 3e
       0.025791977 -0.20458886 0.16837461 0.23952876
000180 81 9e 5f 3e f6 c4 09 be 6a d4 43 be 30 b8 81 be
       0.21837808 -0.13454041 -0.19123998 -0.25335836
000190 a0 33 34 bd 76 4a 7b 3d e4 a8 82 be ef 32 f5 3b
       -0.043994546 0.06135031 -0.25519478 0.0074828784
0001a0 5a 46 fa 3c 2a 0b 34 3e 9d ea 2f 3e ca 9e e7 3d
       0.030551124 0.17582384 0.17179342 0.113095835
0001b0 81 54 62 bc 29 4f 7a 3e b7 0b 48 bc f9 62 51 bd
       -0.013814093 0.2444426 -0.012209824 -0.05111978
0001c0 7f 7e 05 be 1a bc 80 3d 5e 59 2b be b4 bc d1 3d
       -0.13036536 0.062858775 -0.1673331 0.102410704
0001d0 80 a6 5f be 98 c1 c4 3c 09 63 4b bc c4 fb 2e be
       -0.21840858 0.024018094 -0.012413749 -0.17088228
0001e0 b0 5e 4d 3e 7d 89 47 3e f4 01 22 3e 8f e1 44 3e
       0.20055652 0.19486041 0.15821058 0.19226669
0001f0 ee 31 17 bc 35 99 15 be 17 7c 62 bd 21 a2 19 be
       -0.009228213 -0.14609225 -0.055294123 -0.15003254
000200 36 17 01 be 87 e8 11 3d 4e 72 af bd d2 b2 81 3e
       -0.1260651 0.035622146 -0.08566724 0.25331742
000210 c9 a4 23 3e f0 5a 81 3e e2 85 ed 3d 05 33 10 3e
       0.1598083 0.25264692 0.11597802 0.14081962
000220 05 55 01 be 83 a0 49 3e 62 41 41 3e 23 e1 9d 3d
       -0.12630089 0.19690137 0.18872598 0.07708957
000230 ef 48 a0 3d 3e 80 60 be 40 c2 c9 bb 60 58 56 3e
       0.07826411 -0.2192392 -0.0061571896 0.2093215
000240 eb 7c ca bd 93 bd 45 3e d6 7a e4 bd 84 a6 26 be
       -0.098871075 0.19310598 -0.111562416 -0.16274458
000250 ed 46 0f 3e 23 6a 07 3e 7c 1f b2 3d d4 9d dc bd
       0.139919 0.13224082 0.086974114 -0.10772291
000260 e0 f3 29 3e e9 5e d2 bd 0e d7 09 3e b4 12 5e 3e
       0.16596937 -0.10272009 0.13460943 0.21686822
000270 38 bd fb bd 8d ef 40 3e 95 34 2d 3e 68 0b 8f 3d
       -0.1229195 0.18841381 0.1691459 0.069845974
000280 55 ae d2 bd a6 86 7f bd 72 0b 0d 3e 32 d1 c8 3d
       -0.102871574 -0.06238427 0.13773897 0.09805526
000290 b6 17 d7 3b b4 dd c6 bd c2 36 b6 3c 54 48 80 3e
       0.006564106 -0.09710255 0.022242907 0.25055182
0002a0 09 08 45 3e 0d 16 29 be ca d0 81 3e 2f 53 23 3e
       0.19241346 -0.16512318 0.25354606 0.15949701
0002b0 f5 2c 85 3e bf 83 76 bd 06 5d 9c 3d 76 e3 34 bd
       0.26010862 -0.060184237 0.0763493 -0.044162236
0002c0 51 06 06 be 83 83 85 bd ee 4d 10 be ea 79 a1 3d
       -0.13088347 -0.065192245 -0.14092228 0.078845814
0002d0 06 4c 57 bd 91 f7 44 be 23 bf 8e bd ff 7e 71 bc
       -0.052562736 -0.19235064 -0.0697005 -0.014739751
0002e0 4a c4 ee bd c0 4d 17 be 2f 06 7e be 83 5f 07 3e
       -0.11658533 -0.14775753 -0.24807046 0.13220029
0002f0 3a 6c 01 3e ea 97 80 be 26 a3 e9 3d 06 dc 4d be
       0.12638941 -0.251159 0.11408071 -0.20103464
000300 90 a4 eb bd 10 65 29 be 00 9a 9b bd 02 fd 14 be
       -0.11505997 -0.16542459 -0.075977325 -0.1454964
000310 fe 56 b9 3b 8c e0 0d 3d 7a b3 ea bd 69 14 29 3e
       0.005656122 0.034637973 -0.11460014 0.16511692
000320 6d d7 d6 bd 2e e4 9c bd 98 1d 98 3d 03 74 14 3e
       -0.10490308 -0.07660709 0.074275196 0.1449738
000330 ee fd 38 3e 26 da f6 3d 37 98 fe 3c 7b e7 ae bc
       0.18065616 0.12053327 0.031078441 -0.021350613
000340 ce c9 1e be 4c fe 52 3e 1c cb 42 ba 22 e3 3f 3e
       -0.1550667 0.20604819 -0.00074307784 0.18738988
000350 46 18 ec 3d 6f 24 20 3e 59 22 30 be d0 0a fd 3d
       0.11528067 0.15638898 -0.17200603 0.12355578
000360 b5 1e 79 3e d4 34 62 be ed 42 30 3e d4 51 19 be
       0.2432812 -0.22090465 0.1721303 -0.14972621
000370 38 c4 14 be a5 de 66 be 89 f6 7d be 54 be 32 be
       -0.14527977 -0.2254587 -0.24801077 -0.17455417
000380 d5 02 40 be a3 62 e0 bb 86 77 08 be 84 55 c8 bb
       -0.1875108 -0.006847696 -0.13326845 -0.00611371
000390 04 eb 2e 3e 5c e4 53 3e 9e 37 4e be 92 55 47 3e
       0.17081839 0.20692581 -0.20138404 0.19466236
0003a0 cb fd c6 bc 31 c0 c5 bd a9 81 85 3e 44 d9 48 be
       -0.02429094 -0.09655798 0.26075485 -0.1961413
0003b0 9b c2 02 be bf a4 f2 3d 26 f1 ee 3d 49 22 f7 3d
       -0.12769549 0.11847829 0.11667089 0.12067086
0003c0 95 4c 5f be 68 ba 27 be d1 3b 35 be f3 d1 2f 3e
       -0.21806557 -0.16379702 -0.176986 0.17169933
0003d0 77 42 dd 3d 19 05 e0 bc e4 e4 2d 3e 09 e0 68 3c
       0.10803693 -0.02734618 0.16981846 0.01421357
0003e0 7f 79 6e be 0f 3e 95 bd 32 37 04 3e b4 fe 36 bd
       -0.23288535 -0.07287227 0.1291168 -0.044676498
0003f0 0f b9 d8 3d 0e bb 82 3d 7d 68 5b bd b1 ea 45 be
       0.10582172 0.06383334 -0.053566445 -0.19327809

lstm_p.bias_ih_l1 f4 [64]
000000 6e 32 8d bd c6 52 38 3c fd 89 d1 3c 00 65 75 be
       -0.06894384 0.0112502035 0.025578493 -0.2396431
000010 16 e9 80 be 53 bc 8b 3d 46 a0 0d be 11 49 3d 3e
       -0.2517783 0.06823029 -0.1383067 0.18484904
000020 0c af 80 3d 77 82 70 3d ab 3a 7b be 19 5a bd 3d
       0.062833875 0.05871817 -0.24534099 0.092457004
000030 45 ce 23 bd e9 51 11 bd 4e 8f 4d be 6e 5d 80 be
       -0.039991636 -0.035478506 -0.20074198 -0.2507128
000040 ff 00 33 3e 57 2f 20 be 50 28 12 3d 7f bd 38 be
       0.17480849 -0.15643059 0.035682976 -0.18041037
000050 8c 33 49 be fe af f5 3d ed c0 81 3d 2f 65 fa bd
       -0.1964857 0.119964585 0.06335626 -0.122263305
000060 e5 be e1 3d 88 a0 18 be cb 83 33 be 88 d5 02 3d
       0.11022738 -0.14904988 -0.17530744 0.03194192
000070 71 91 90 3c 1f 6a 48 be a0 24 1a be 42 52 0e be
       0.017647477 -0.19571732 -0.15053034 -0.13898566
000080 1a 64 88 bd cd f2 08 3e ad b0 67 be bd eb 2e 3e
       -0.06659718 0.13373871 -0.2262599 0.17082115
000090 cf 34 9f 3c c7 a3 a2 bc d3 dd 0b be aa 1d 52 be
       0.01943436 -0.019853486 -0.13658838 -0.20519128
0000a0 85 67 a9 bd 95 5f 01 3e 70 bc 47 be 41 af 5f 3e
       -0.08271698 0.12634118 -0.19505477 0.21844198
0000b0 4e 13 26 be 7c 35 0d 3e 53 05 64 be d7 47 71 be
       -0.16218302 0.13789934 -0.22267656 -0.23562561
0000c0 e3 ad be bd 0b f7 40 3e 4c ed d6 3d 6e 10 1b be
       -0.0931051 0.1884424 0.104944795 -0.15142986
0000d0 e0 88 81 3d 37 e9 f6 bd ab 00 5e 3e 86 d6 6d 3e
       0.06324935 -0.12056201 0.21679942 0.23226365
0000e0 77 23 b5 3b 09 95 2c 3e d2 71 c0 bd 08 1d bf 3d
       0.0055279094 0.16853727 -0.093967095 0.09331709
0000f0 30 4d 03 3e 7e 12 f5 3d 3e ce 92 3d 65 4f 6c 3e
       0.12822413 0.11966418 0.07168244 0.23077162

lstm_p.bias_hh_l1 f4 [64]
000000 6a 5a 9a 3d a7 01 2c 3e eb 45 e0 3d 81 ac 37 3c
       0.07536776 0.16797505 0.10950836 0.011210562
000010 32 92 6b bd da 01 47 3e 5c 02 5b 3e 55 02 57 3e
       -0.05751247 0.194343 0.21387619 0.20996983
000020 2a dc 85 3d 7e 70 10 3e 6b fc 17 be 81 3e 1a be
       0.065361336 0.14105412 -0.14842384 -0.15062906
000030 e3 c9 0b 3d b4 c4 4c be 5d 68 04 be 08 ca 10 3e
       0.03412808 -0.19996911 -0.12930436 0.14139569
000040 79 85 f6 bd e5 d4 26 be 82 9f 70 be 35 ab 1e 3e
       -0.12037177 -0.1629215 -0.23498347 0.15494998
000050 da 66 24 3e 7e 7b 3f 3e af ef 3e bd f2 c5 03 be
       0.1605486 0.18699452 -0.0466153 -0.12868479
000060 04 0f 68 3e c0 96 22 be 29 78 4d 3e a1 e3 60 3d
       0.22661978 -0.15877819 0.20065369 0.054904584
000070 83 ad e1 bd d7 73 d8 3d 4c 76 13 be a5 e6 a9 3c
       -0.11019423 0.1056897 -0.14400595 0.020739863
000080 43 73 4f 3e 20 b8 54 bd c3 01 7d 3d 99 38 28 3e
       0.20258813 -0.051933408 0.06176926 0.1642784
000090 98 b8 93 bd 05 3c 21 3e 09 20 3a 3e 11 e9 01 3d
       -0.07212943 0.15745552 0.18176283 0.03171641
0000a0 f1 91 42 3e d3 5e 58 3e 84 b6 34 be 75 29 e9 3d
       0.19000985 0.21129923 -0.17647749 0.113848604
0000b0 fb b6 e2 b9 ec 8c ce bd b7 5b 4a 3e c9 df c4 3c
       -0.0004324241 -0.100854725 0.19761549 0.02403249
0000c0 d8 32 17 bc d8 38 d4 3d 08 bf 64 3d a2 d6 7d 3c
       -0.009228431 0.103624046 0.055846244 0.015493067
0000d0 18 e9 d1 3d e6 49 84 bc e9 63 52 be cc c9 c6 3d
       0.10249537 -0.016148519 -0.20545925 0.097064584
0000e0 7e 27 37 bd 60 51 f3 bd 1e 22 1e be 3b 31 02 3e
       -0.044715397 -0.118807554 -0.15442702 0.12714092
0000f0 5b 6a b5 3d 46 50 4a be 95 48 34 be 07 ae 28 bd
       0.08858176 -0.19757184 -0.17605813 -0.04118159

attention_p.attn_1.weight f4 [16, 16]
000000 ae ce 74 be 96 47 3b 3e 51 29 82 3e 58 b5 c4 be
       -0.23906967 0.18289027 0.25422147 -0.38419604
000010 26 64 7b 3c 4a c2 c3 bd 3f 42 8a bc 6b 39 cf be
       0.0153437015 -0.09558542 -0.016877292 -0.40473494
000020 73 23 93 be 78 e0 d7 bd 9e 58 a1 3d f5 3b 9b 3e
       -0.28737983 -0.10540861 0.078782305 0.3031918
000030 b6 e0 c7 3e a8 c9 47 3d 16 a4 ff bd 53 2e d2 be
       0.39038628 0.0487763 -0.12482469 -0.41050968
000040 4a 2b 94 be 14 1f a9 3e ab 98 3f 3e 6c 0d c5 be
       -0.28939277 0.33031523 0.18710582 -0.38486803
000050 6e aa 7a be 1e 19 86 be 47 62 43 be 30 b6 6f 3e
       -0.24479076 -0.26191038 -0.19080459 0.23409343
000060 d0 01 1a be 36 86 aa 3e f3 3f ab 3e 0b f6 59 be
       -0.15039754 0.3330552 0.33447227 -0.21285264
000070 d3 90 8f bd 4e 57 ac 3e ee 8b 4e 3e 4f c6 4f 3d
       -0.07010045 0.33660358 0.20170566 0.05072623
000080 2e a6 86 bd 77 96 15 be 6e e8 4a bd d4 ce 61 be
       -0.06574665 -0.14608179 -0.04953807 -0.22051555
000090 36 0a 07 3e 51 48 be 3e a0 95 a4 bd 7f 34 5c 3e
       0.13187489 0.37164548 -0.08036351 0.215044
0000a0 ab 60 cf 3e d1 e5 90 3e 14 7a fd bd b8 38 c2 be
       0.4050344 0.28300336 -0.123768 -0.37933898
0000b0 b6 fc 7f be d4 56 d1 3d 09 67 76 be f8 56 8e be
       -0.24998745 0.10221639 -0.24062742 -0.27800727
0000c0 70 40 d5 3e 1c b2 f4 bd 07 94 86 be c0 03 b8 3e
       0.41650724 -0.11948034 -0.2628481 0.3594036
0000d0 0d 3a 99 be 24 10 cf 3e 48 07 74 3e db b4 a6 be
       -0.29927102 0.40442002 0.23830903 -0.32559857
0000e0 53 04 9a 3e 35 55 8b 3e 62 25 72 bd 5e 4f e4 be
       0.30081424 0.27213445 -0.059117682 -0.44591802
0000f0 af 35 7c bd 40 a3 cd 3e 8a e0 dd bd af f5 37 bd
       -0.061574634 0.40163612 -0.10833843 -0.044912037
000100 72 50 a8 3e e0 65 ac be f0 59 32 be 44 c3 f4 3d
       0.32873875 -0.33671474 -0.17417121 0.119513065
000110 85 bb bd be 21 b8 86 3e 07 40 78 3e c2 16 25 3e
       -0.3705713 0.26312354 0.24243174 0.16121963
000120 99 06 19 be 2e 39 b2 be 5c fb f5 3d e6 7b ac 3e
       -0.14943923 -0.3480925 0.120108336 0.33688277
000130 a0 68 3a 3e 50 ef ae be 9c b9 b5 3e 85 f6 5d be
       0.18203974 -0.34166956 0.3549317 -0.21676071
000140 2e e0 e1 be ec 16 25 3d f6 93 93 3e e0 7a be 3e
       -0.44116348 0.040305063 0.28823823 0.3720312
000150 7e e1 c4 bd 34 9e a1 be 2d 3e 49 3b 2a 8e 17 be
       -0.09613322 -0.31566012 0.0030707226 -0.14800325
000160 c1 15 16 bd b2 89 cb 3d ff 85 fb 3d 89 f9 49 be
       -0.03664184 0.09938373 0.12281417 -0.19724096
000170 91 95 6b 3d 08 cd 15 3e 44 ba 98 be 50 cd ba 3d
       0.057515685 0.14628994 -0.2982961 0.091211915
000180 dc 0b b1 3e 24 2b 39 be 57 39 32 3e 64 04 0a 3e
       0.3457936 -0.18082863 0.17404686 0.13478237
000190 80 cd b3 3e 5d c6 83 3e 29 c1 9f be 77 5e 0a be
       0.35117722 0.25737277 -0.31202057 -0.13512598
0001a0 1b 25 9e bd a5 b8 5b be 17 c0 af 3e bd 13 7d bc
       -0.07721921 -0.21457155 0.3432624 -0.0154466005
0001b0 4c b4 01 be c1 42 b8 3e e5 24 1c be 34 f6 8e be
       -0.12666434 0.3598843 -0.15248449 -0.27922213
0001c0 95 25 61 3e 55 9a b5 3e 4b 13 e0 3c 4f c1 a0 be
       0.21986993 0.35469308 0.02735295 -0.31397483
0001d0 0a 78 0b bd 89 15 d8 3e 7a e1 03 bd 44 b8 85 3e
       -0.034050025 0.4220393 -0.032197453 0.26117146
0001e0 ec f1 61 3e ee 97 50 bd 26 5f ba 3c 7a db 9b bd
       0.22064942 -0.05092614 0.022750448 -0.07610221
0001f0 07 42 96 be 45 5d 7a be b0 f0 7c 3e 31 1a 8e be
       -0.2934725 -0.24449642 0.2470119 -0.27754357
000200 e5 ad 6f be 09 4a 8b be be 87 d2 3e a3 56 08 be
       -0.23406179 -0.27204922 0.41119188 -0.133143
000210 cd 51 4e be aa 27 b4 3e 51 98 19 3e 76 d5 c2 be
       -0.20148392 0.3518651 0.1499951 -0.38053483
000220 38 94 d2 3e 4e 9a 5c 3e 4a 63 04 3e 07 60 d6 bc
       0.41128707 0.21543238 0.12928501 -0.026168836
000230 fe 02 e0 3d 91 66 0e be ff e7 97 3e 70 de fb 3d
       0.10938071 -0.13906313 0.29669186 0.12298286
000240 a9 64 c8 3e 26 2a 06 3e 7d 38 0f bd c2 a1 55 3e
       0.39139298 0.13102016 -0.03496598 0.20862487
000250 68 e8 a8 bd c8 1d 0c 3e c0 73 c2 3d b0 f6 ac 3e
       -0.08247453 0.13683236 0.09494734 0.33781958
000260 50 6a 97 be 3c 4a 59 bb 90 85 65 be 7f f2 95 3e
       -0.29573298 -0.003315582 -0.22414231 0.29286572
000270 f1 04 15 be 2c 87 5c 3e e7 a6 4c 3e 1f 13 00 be
       -0.14552666 0.21535939 0.19985543 -0.12507294
000280 1a 1e fd bc 6f 5e 86 3e 5e cd a3 be d3 ed cc 3e
       -0.030898143 0.26243922 -0.3199262 0.40025195
000290 28 0e a0 bd e4 c2 05 be fe d1 83 3a b9 44 80 3c
       -0.078152 -0.13062626 0.0010057089 0.01565777
0002a0 83 f7 aa be 76 aa e1 bc 2b ac 9b 3e 30 ad 34 be
       -0.3339196 -0.027547102 0.3040479 -0.17644191
0002b0 64 4a 89 3e f2 4b cb be b8 d8 be 3e 13 1c a1 be
       0.26814568 -0.3970638 0.37274718 -0.3146673
0002c0 f8 1b 86 be 55 29 25 be 67 58 2f be d3 f0 af bd
       -0.26193213 -0.16129048 -0.17123567 -0.085908554
0002d0 46 0f 98 be ed e4 78 3e 0e 55 52 bd ed d8 c5 3e
       -0.29699153 0.24306078 -0.051350646 0.38642064
0002e0 15 28 d3 3e 73 12 b5 be 98 63 4c 3e a4 83 a1 3e
       0.41241518 -0.35365638 0.19959867 0.31545746
0002f0 86 16 30 3e 83 4e f6 bb c1 57 98 be 33 e1 d3 3e
       0.17196092 -0.0075166835 -0.2975445 0.4138275
000300 bd 1a e2 3d df 55 a3 3e 8e 86 e6 bd 55 72 1f 3e
       0.11040256 0.31901452 -0.11256133 0.15570958
000310 9f 79 48 be 7a 8c d2 be ec 4f 41 bc 78 d7 d7 3e
       -0.19577645 -0.411228 -0.01179884 0.42156577
000320 10 32 24 3d 90 55 e4 be 53 32 04 bb dc 04 83 3e
       0.040086806 -0.4459653 -0.0020171597 0.25589645
000330 fb 65 ac be d8 5f df 3e 0e e1 83 3e 37 68 25 be
       -0.33671555 0.4362781 0.2575764 -0.16153036
000340 f6 2f 12 3e cc aa 85 3e 39 6d 96 3e 23 ea 83 bc
       0.14276108 0.2610687 0.29380205 -0.016102856
000350 c5 b9 24 bd b9 4d 52 3e c1 0d e1 3d b0 8e fa bd
       -0.040216226 0.20537461 0.109889515 -0.12234247
000360 34 c6 db 3c 33 d2 a9 be e0 a9 b8 be a4 e0 bb 3e
       0.026827909 -0.33168182 -0.36067104 0.36694825
000370 3c 35 db be af e6 80 be ec 69 b8 be d7 1b 10 3e
       -0.42814052 -0.25175998 -0.36018312 0.1407312
000380 f2 98 a1 3e f2 c9 28 bd bf 73 bc 3e 34 04 db 3e
       0.31562 -0.041208215 0.36807057 0.42776644
000390 ec 01 43 bd 45 37 bb be 61 57 6b be 7c 83 8f bc
       -0.047609255 -0.36565605 -0.22982551 -0.017518751
0003a0 d4 12 f6 bd 37 be 91 be 1a 5d 04 be 81 34 c9 bd
       -0.1201531 -0.28465435 -0.1292614 -0.098244675
0003b0 8c 91 89 be 40 5a c0 be af 3f a0 3e cf 00 d1 bd
       -0.26868856 -0.37568855 0.31298587 -0.10205232
0003c0 c5 c1 c5 3d c9 e9 37 be f8 c2 a4 be 30 b8 73 bd
       0.09656099 -0.17960276 -0.3218 -0.059501827
0003d0 ae fa 82 3e bd b3 d2 3e 9a 5f 85 3d 1d 28 92 be
       0.25581878 0.41152754 0.06512375 -0.2854623
0003e0 a9 aa f1 bd 22 42 41 be 8e 35 af bd 86 4e 86 bc
       -0.11800129 -0.18872884 -0.085551366 -0.016394865
0003f0 28 77 c6 bd 4a e8 42 be 07 76 93 be b1 3e d3 bd
       -0.09690696 -0.19033924 -0.28800985 -0.10314692

attention_p.attn_1.bias f4 [16]
000000 ec df 29 bb a9 8c 5f bc 19 f1 77 3c 9b 3a 62 bc
       -0.0025920821 -0.013644376 0.015133166 -0.013807918
000010 68 aa 7d bb 41 95 32 bb 61 ec b1 3b 24 1a ac bc
       -0.0038706306 -0.0027249607 0.00542979 -0.021008559
000020 77 9c 50 3c 01 7a 3f bc c3 20 59 3c 4c 36 6c bc
       0.012732617 -0.011686803 0.01325244 -0.014417242
000030 d0 41 4a 3c 0a c4 61 3c d8 db 57 bc f1 bd a1 bc
       0.0123447925 0.0137796495 -0.013174973 -0.019743891

attention_p.attn_2.weight f4 [1, 16]
000000 e5 23 e5 be df d6 b4 be 60 b5 de 3d fa e0 30 be
       -0.44753948 -0.35320184 0.10874438 -0.17273322
000010 4d c0 82 be a2 eb ef 3b d7 f6 bc 3e ec 59 8c be
       -0.2553734 0.007321791 0.36907074 -0.27412355
000020 32 13 81 3e 95 ac ba be 33 f9 90 3e d9 0d 34 be
       0.25209957 -0.36459795 0.28315124 -0.17583407
000030 87 1c 87 3e 08 d4 d3 3e 7c 63 19 be 2d fc 9d be
       0.26388952 0.41372705 -0.14979357 -0.30856457

lstm_t.weight_ih_l0 f4 [64, 7]
000000 a1 27 45 be 2e b9 b6 bd f4 f3 95 bc 67 c5 9c bd
       -0.19253398 -0.08922039 -0.018304802 -0.07654839
000010 4d e5 4c 3e 31 6f 4b be 0e ef 49 3e 07 37 93 3c
       0.20009346 -0.19866635 0.19720098 0.017970575
000020 a0 57 6a 3e 06 45 95 3d ee 35 4d be 84 15 74 3e
       0.22884989 0.07288556 -0.20040104 0.23836333
000030 8e c0 90 3d 19 b3 f5 3d 6a 8e 41 3e f4 c6 60 bd
       0.07067977 0.11997051 0.18901983 -0.054877236
000040 cf f7 12 3d c8 1e ac bd cd 74 09 3e 2c fb 2b 3c
       0.03588086 -0.084043086 0.13423462 0.010496896
000050 0d 74 b3 3d 89 fe 20 be 68 d8 c2 bd 03 61 d9 bd
       0.08762369 -0.15722097 -0.095139325 -0.10614207
000060 3e 4d 1a be 11 a8 42 3e 36 2a 3a be 9c 26 1d 3e
       -0.15068528 0.19009425 -0.18180165 0.1534676
000070 cb 35 68 be 94 1e 4b 3e fe cd 84 be 56 13 28 3e
       -0.2267677 0.19835883 -0.2593841 0.16413626
000080 99 06 ed bb dd 0a a0 bd e4 ac 11 be c2 9b 11 3e
       -0.0072334525 -0.07814572 -0.14226109 0.14219573
000090 99 06 8f 3d db 80 f1 3d 47 d4 88 3d d5 20 15 3d
       0.0698368 0.11792155 0.06681114 0.036408264
0000a0 b3 10 50 3e 52 bf dc 3d b0 b8 54 3e b2 f8 38 be
       0.2031887 0.10778679 0.20773578 -0.1806362
0000b0 a1 9d 1b bd 20 58 52 bd 8e 92 ca 3d 43 c0 80 3d
       -0.037992124 -0.051353574 0.09891234 0.06286671
0000c0 e5 88 12 be 70 33 d7 3d 06 b9 dd bc cb f6 29 be
       -0.14310034 0.10507858 -0.027065765 -0.1659805
0000d0 14 6a 79 3e 34 13 2f be a0 ca cf bd b8 87 69 3e
       0.24356872 -0.17097169 -0.101460695 0.22805679
0000e0 ea 9c b9 bd bb 28 1a 3e 34 2e 8c bd b6 28 b8 bd
       -0.09063132 0.150546 -0.0684475 -0.0899214
0000f0 4c b7 71 3e 28 13 6a be cf 9d 2c 3d d1 d9 62 bb
       0.23605078 -0.2285887 0.042142686 -0.0034614692
000100 b4 9f 2b be 8a 41 e3 3c b7 8a bf bd ae ba 86 3d
       -0.1676014 0.027741212 -0.0935263 0.06578575
000110 80 ab 09 be 94 e0 33 be 14 5e 72 be 9e d2 44 3d
       -0.13444328 -0.17566139 -0.236687 0.048052423
000120 30 7f cb 3a ea 52 7d bd 81 24 41 be 4a 05 ae 3a
       0.0015525576 -0.06184665 -0.18861581 0.0013276723
000130 6c 6f 4e be 6b 12 69 3d 9f 75 5a bd 1f 4d 18 be
       -0.20159692 0.05690233 -0.05333483 -0.1487317
000140 30 e1 a0 3d d2 2d 44 be a4 0b 71 bc 3e 58 f7 3d
       0.07855451 -0.19158104 -0.014712248 0.12077378
000150 0b 97 4c 3e 91 c3 ca bd ac 37 60 be 92 00 1f 3e
       0.19979493 -0.099005826 -0.21896237 0.15527561
000160 03 f2 ca 3c 0f af 79 be 62 fb 8e bc 78 94 29 3d
       0.024773603 -0.24383186 -0.017453853 0.041401356
000170 00 de 2f bd 95 ce 34 3e 8d ec 5c 3d 7a 13 0b be
       -0.042936325 0.1765693 0.05393653 -0.13581648
000180 1f 4b cd bc 90 36 06 3c 16 2c 1a be 73 94 18 be
       -0.025060235 0.00819172 -0.1505588 -0.14900379
000190 97 c2 59 bd ae 63 47 bd f2 3e 38 be 96 02 44 3e
       -0.05316409 -0.048679046 -0.17992762 0.19141611
0001a0 93 7a 6b 3e c7 21 2f be f2 09 07 3e bf e7 3c be
       0.22995977 -0.17102729 0.13187388 -0.18447779
0001b0 d9 27 8d 3d 38 b5 81 3e aa de 31 3d 10 8d 3b be
       0.06892366 0.2533357 0.04342524 -0.1831553
0001c0 d4 03 8f bc 6d 7b 5f be eb 29 61 be 64 5b a2 bd
       -0.01745788 -0.21824427 -0.21988647 -0.07927588
0001d0 47 ca 2c be 16 db aa 3d cf fa 4f 3d ab a6 5f be
       -0.16874038 0.083425686 0.0507763 -0.21840923
0001e0 24 d6 0c bd bf 4a 77 3e 18 42 3c 3e 21 ba 1c 3e
       -0.034383908 0.24149607 0.18384588 0.15305378
0001f0 d0 03 d8 3d 18 8d 3b be c2 90 61 3e 87 e5 7e 3e
       0.10547602 -0.18315542 0.22027877 0.24892245
000200 7f e5 57 bd 5f 3f 4e be a3 2a ec bc 3f 24 ca 3b
       -0.0527091 -0.20141362 -0.028828925 0.0061688717
000210 bb 92 3d 3e 02 e0 00 3e c0 3e 3f be de f9 03 be
       0.18513004 0.12585452 -0.18676281 -0.12888286
000220 4c 76 34 3d 8a 15 44 3e ba cf 01 bc 94 a7 77 be
       0.04405813 0.19148842 -0.007923061 -0.2418502
000230 eb f7 cc 3d 19 16 85 bd 3b 53 66 3d 0f d9 c3 3d
       0.10008224 -0.064983554 0.05623172 0.09562885
000240 74 b0 d5 3d cb 7c 16 bb da 17 83 3d 8a bf b2 3d
       0.104340464 -0.0022962566 0.06401034 0.087279394
000250 6f f3 bd bd 25 29 86 3d 62 a5 2c 3e d1 f1 36 be
       -0.09274947 0.065508164 0.16859964 -0.17865683
000260 06 81 78 3d 40 f9 4f 3e 20 7d e0 3d cb ff f2 bd
       0.06066992 0.20309925 0.10961366 -0.11865195
000270 6f e3 8c 3d 21 77 1a bb 95 1f 5a 3e 04 f2 07 be
       0.06879317 -0.0023569542 0.2130111 -0.13275915
000280 62 3f 02 3e 6d d4 a9 3c a6 dc 97 3c c4 ce a8 38
       0.12719491 0.020731175 0.01853783 8.049377e-05
000290 05 a8 51 be c6 67 d0 3d f6 b6 1d be 22 b8 78 3e
       -0.2047425 0.10176043 -0.15401825 0.24288991
0002a0 32 a5 b7 3d 46 f1 f1 bd 5e 04 4d 3e 12 d4 3d 3e
       0.089670554 -0.118135974 0.20021197 0.1853793
0002b0 5a b6 72 3e 2c ad 04 3e b1 c3 72 3d 05 bc 06 be
       0.23702374 0.12956685 0.059268657 -0.13157661
0002c0 45 16 67 3e b7 19 ed 3d b0 52 e9 3d bc c6 63 3e
       0.22567089 0.1157717 0.113927245 0.2224378
0002d0 a6 cb 2b 3e 64 b4 0b be 7f ee 29 3e ba 48 8d 3d
       0.16776904 -0.13643032 0.16594885 0.06898637
0002e0 57 3f f5 bd b1 75 46 3e 58 07 ce bd f6 c8 a9 bd
       -0.11974972 0.19380833 -0.100599945 -0.082902834
0002f0 68 07 89 3c 4e 7e e6 3b b4 e7 33 3e 68 68 02 be
       0.016727164 0.0070340997 0.17568856 -0.1273514
000300 cc b4 77 be ba b4 9f 3d 7a fe 33 be 9d 2b 64 be
       -0.24190062 0.07798143 -0.17577544 -0.22282262
000310 0c 29 42 be 44 7f 42 be 16 92 a1 bd 01 33 38 be
       -0.1896097 -0.1899386 -0.07889192 -0.17988206
000320 b9 f3 1b 3e 09 8e e7 bd 7b f5 1a 3e 5b c8 09 be
       0.15229692 -0.11306388 0.15132706 -0.13455336
000330 3d 02 38 3e d3 44 28 3d d4 dd 6c be 3d fb ca bd
       0.17969604 0.04108126 -0.23131496 -0.09911201
000340 23 5b 75 3e 2f ce 69 3e 00 38 28 3e 93 09 2b 3e
       0.23960547 0.22832559 0.16427612 0.16702871
000350 db 13 d8 3c 6c 10 67 be c2 b8 cb bd d5 6f 55 be
       0.026376655 -0.22564858 -0.09947349 -0.20843442
000360 3e fa db 3d f3 67 1a 3e ab 02 ad 3d 7c 2a 5b 3e
       0.10741089 0.15078716 0.084477745 0.21402925
000370 13 47 0c bd cb 6b 0d 3e 67 3d 2d bc cf d5 14 bd
       -0.03424747 0.13810651 -0.0105737215 -0.036336716
000380 ee e8 22 be 68 eb 1b be ca a0 0a 3d 56 70 03 be
       -0.15909168 -0.15226519 0.033844747 -0.12835822
000390 4a 9c 09 3d e0 9f e9 bd f4 b9 da bc 23 6e 38 be
       0.033596314 -0.11407447 -0.026699997 -0.18010764
0003a0 61 db 40 be 70 00 ee 3d 62 69 47 3e b3 0c 54 bc
       -0.18833686 0.11621177 0.19473794 -0.012942481
0003b0 84 54 85 3d a2 e0 9f 3d 12 d8 53 3e 28 76 f3 bc
       0.06510261 0.07806517 0.20687893 -0.029719427
0003c0 17 60 6f 3e 73 17 10 3c 81 12 1e 3e 58 25 90 bc
       0.23376499 0.008794653 0.15436746 -0.017595932
0003d0 81 8b eb bd 9e cc d2 3c 77 cd 48 be 8c d4 85 3d
       -0.11501218 0.025732335 -0.19609629 0.06534681
0003e0 7c 20 15 bd f7 ef cf 3d f7 31 53 be 27 31 59 3e
       -0.036407933 0.101531915 -0.20624529 0.21210156
0003f0 94 90 84 bd f8 33 14 bd a2 e8 c1 3c 04 e9 4b 3e
       -0.064728886 -0.036182374 0.023670498 0.19913107
