Params/dataset3_100_0.0001_20_16_222_model.pt (torch, 46609 bytes, 31 tensors)

lstm_p.weight_ih_l0 f4 [64, 10]
-0.10855781 -0.113952756 -0.042180154 -0.016884146 0.21841401 -0.12853588 0.07551901 0.1737051
-0.079837814 -0.089396305 0.114186786 0.033451103 0.003455697 0.2416551 4.6940462e-05 -0.12764679
-0.0065426277 0.05092801 0.057478987 0.09195474 0.020483483 0.036134183 -0.20926926 0.17507756
-0.14882205 -0.092090905 0.081743546 -0.04096879 0.16394532 0.09383327 0.22368056 0.0821669
0.05918113 0.058196023 -0.15039988 0.042585697 0.09369835 -0.043673433 -0.123258844 -0.1385592
0.14524461 -0.17634375 0.25515127 -0.022532884 0.06421765 0.1653089 0.18080847 0.06938392
-0.2057442 0.0001418861 -0.10713782 -0.21615845 -0.080452785 0.122085996 0.02751157 0.2187713
-0.14267737 0.11584665 0.1956157 -0.16564362 0.23182032 0.11657954 -0.0154225025 -0.063778915
-0.12725043 0.21058191 0.08722248 -0.015910774 0.23835048 -0.1256242 -0.12365129 -0.1192282
0.23554441 -0.18870117 0.009067388 -0.021411678 -0.040812887 -0.21511324 0.113887 -0.03980111
-0.22294609 -0.025945963 -0.18034954 0.06645507 0.10556242 -0.12639743 0.20922773 0.0309651
-0.22818103 0.013606162 0.010784849 0.13305981 -0.21671005 0.039703473 -0.1333958 0.04218824
-0.17757374 0.030208357 -0.2093282 0.07772285 0.03596367 0.17994146 0.23792641 0.0678935
-0.10525243 -0.08731693 0.13152769 0.12625265 -0.0028229696 -0.16883661 -0.13749835 0.032347582
0.09591661 0.14275368 0.14038497 0.17583223 -0.009397709 0.14967066 0.07613689 0.2350943
0.14503568 0.015692065 0.09967858 -0.07137054 -0.22037269 0.07678402 0.22111087 0.103886075
-0.0035348237 -0.22567499 -0.19708993 0.099204645 0.07351285 0.14714628 0.14201511 -0.011367512
-0.21205512 0.10589578 -0.19266814 0.06158197 -0.019202199 0.12733908 0.23094058 -0.005559809
0.1287575 0.019726835 0.13398279 -0.111727245 -0.2281597 -0.086358845 0.029425018 0.11802967
0.15989181 -0.0098888185 0.09618969 0.00701619 0.22430032 0.09284294 0.02278357 -0.0041579916
0.0646699 -0.06202418 0.22391303 0.13343428 -0.08530261 0.09279595 -0.116840445 -0.2103342
-0.22932819 -0.2336275 -0.10605291 -0.10526382 -0.051566765 0.20513192 0.03663125 0.1171731
0.04669818 0.07452591 -0.023098923 -0.0005002627 0.23780516 0.18841569 -0.0036514928 0.071183614
0.1280439 0.11897976 0.13636094 -0.09229509 0.08946118 0.002446592 0.10654239 -0.03673268
0.15104942 -0.1647153 0.15458985 0.0801291 0.13990626 0.010770514 -0.10480752 0.0076080463
0.13079247 0.060953263 -0.22206047 -0.19666658 0.24144925 -0.14979158 -0.06102281 -0.1629106
0.091397926 -0.21541859 0.15454006 -0.16451229 -0.24275902 -0.042475145 0.051564466 -0.11322926
0.096217066 -0.2244625 0.20994212 -0.21248853 0.0707943 -0.03169788 -0.087212324 0.21223906
0.21585384 0.20246063 -0.14702567 -0.17547935 -0.21281996 0.13281667 -0.01915886 -0.12468741
-0.12449462 0.12647367 -0.048681874 0.033375073 -0.20608982 0.22447142 -0.06666548 0.103902265
-0.19892831 0.1832105 0.20076075 -0.14337893 -0.10746058 -0.16332681 0.22577883 0.1343849
0.09821434 0.102297194 -0.1886575 -0.10951551 -0.17434978 -0.07289253 -0.06624983 0.15045294
00000000: 8f53 debd 1060 e9bd 19c5 2cbd 9f50 8abc
00000010: eca7 5f3e e99e 03be b6a9 9a3d c0df 313e
00000020: 0282 a3bd 6915 b7bd c3da e93d 0604 093d
00000030: fa78 623b 6f74 773e f0e1 4438 d7b5 02be
00000040: 8a63 d6bb e499 503d 166f 6b3d c452 bc3d
00000050: facc a73c 7001 143d ae4a 56be 8847 333e
00000060: cf64 18be 289a bcbd 2969 a73d e4ce 27bd
00000070: 48e1 273e a82b c03d 840c 653e 1f47 a83d
00000080: ea67 723d f45e 6e3d 6d02 1abe 576e 2e3d
00000090: ece4 bf3d eae2 32bd 226f fcbd 77e2 0dbe
000000a0: 01bb 143e 7593 34be 30a3 823e e296 b8bc
000000b0: 8b84 833d bc46 293e db25 393e 2819 8e3d
000000c0: 9cae 52be 43c7 1439 136b dbbd a458 5dbe
000000d0: 6ec4 a4bd 3908 fa3d f25f e13c 9505 603e
000000e0: 041a 12be 0241 ed3d 7b4f 483e 7b9e 29be
000000f0: 4e62 6d3e 41c1 ee3d aaae 7cbc 859e 82bd
00000100: f04d 02be c9a2 573e b3a1 b23d 5057 82bc
00000110: 2612 743e a1a3 00be e33c fdbd ea2d f4bd
00000120: 8e32 713e e13a 41be 628f 143c 8b67 afbc
00000130: 6a2b 27bd a546 5cbe 963d e93d 7d06 23bd
00000140: fb4b 64be a18c d4bc 8dad 38be 9919 883d
00000150: 1c31 d83d 546e 01be cb3f 563e 85aa fd3c
00000160: 4aa8 69be 61ec 5e3c efb2 303c d540 083e
00000170: 3de9 5dbe 1ca0 223d e998 08be 93cd 2c3d
00000180: e4d5 35be 8477 f73c 225a 56be 282d 9f3d
00000190: a44e 133d 9342 383e fba2 733e bf0b 8b3d
000001a0: 968e d7bd 38d3 b2bd 32af 063e 6048 013e
000001b0: 9201 39bb 81e3 2cbe 5ecc 0cbe e67e 043d
000001c0: ed6f c43d 052e 123e 14c1 0f3e 5d0d 343e
000001d0: d9f8 19bc 4443 193e a8ed 9b3d 8fbc 703e
000001e0: 3c84 143e a58c 803c 4924 cc3d b82a 92bd
000001f0: 61a9 61be f140 9d3d e36a 623e 39c2 d43d
00000200: 80a8 67bb 5817 67be f1d1 49be ce2b cb3d
00000210: e88d 963d 84ad 163e 696c 113e cd3e 3abc
00000220: fa24 59be e3df d83d cc4a 45be 603d 7c3d
00000230: ee4d 9dbc 2d65 023e b07b 6c3e 0f2f b6bb
00000240: 02d9 033e 2c9a a13c c932 093e 41d1 e4bd
00000250: b2a2 69be e8dc b0bd bc0c f13c 8ab9 f13d
00000260: aeba 233e b604 22bc 1aff c43d 11e8 e53b
00000270: fcae 653e 7024 be3d 9ca4 ba3c c33f 88bb
00000280: a771 843d 110d 7ebd 7549 653e ffa2 083e
00000290: 23b3 aebd ce0b be3d 0b4a efbd d961 57be
000002a0: 02d5 6abe 0c3c 6fbe 4532 d9bd 8f94 d7bd
000002b0: ac37 53bd 1a0e 523e a60a 163d 73f8 ef3d
000002c0: 9746 3f3d 0aa1 983d f439 bdbc 1024 03ba
000002d0: 3283 733e 0bf0 403e e24d 6fbb b7c8 913d
000002e0: f11d 033e a9ab f33d 34a2 0b3e 3505 bdbd
000002f0: 6c37 b73d 0157 203b e632 da3d 0275 16bd
00000300: b3ac 1a3e 21ab 28be cd4c 1e3e ba1a a43d
00000310: 9643 0f3e cf76 303c 53a5 d6bd eb4c f93b
00000320: 76ee 053e 21aa 793d d263 63be f762 49be
00000330: 793e 773e f762 19be 0ef3 79bd 09d2 26be
00000340: d62e bb3d b196 5cbe c03f 1e3e e975 28be
00000350: d295 78be 6bfa 2dbd 4335 533d bee4 e7bd
00000360: 740d c53d 7fd9 65be 11fb 563e 9896 59be
00000370: 9afc 903d a3d5 01bd 609c b2bd 3255 593e
00000380: ca08 5d3e d751 4f3e e68d 16be dcb0 33be
00000390: 7aed 59be 1801 083e 0bf3 9cbc 1d5c ffbd
000003a0: 09f7 febd 5082 013e a566 47bd 4db4 083d
000003b0: 3609 53be d6db 653e e987 88bd b6ca d43d
000003c0: ddb3 4bbe 899b 3b3e 3a94 4d3e edd1 12be
000003d0: 4b14 dcbd 253f 27be 9132 673e 329c 093e
000003e0: 9a24 c93d 3181 d13d 6f2f 41be ab49 e0bd
000003f0: c088 32be ae48 95bd fead 87bd 5610 1a3e

lstm_p.weight_hh_l0 f4 [64, 16]
-0.02018105 -0.0136409905 -0.002658269 0.2529597 0.23135246 -0.15958075 0.053487513 0.049212627
0.14707159 -0.048280902 0.106293134 0.12962277 0.01869763 0.21108939 0.077218175 0.19326206
0.18157245 -0.23516919 -0.12814152 -0.042664338 0.15942632 -0.18477793 0.16863602 0.107650705
0.049024682 0.2087404 0.017675662 -0.17518587 0.122178935 -0.21869867 -0.21457425 0.07572306
0.20556423 -0.24599703 0.17657864 0.18658894 -0.16061765 -0.20472747 0.005919133 0.17079072
0.039745327 -0.16546549 -0.068975694 -0.01188135 0.24421598 -0.10668422 -0.17714871 -0.060735147
-0.13514234 -0.023472348 0.01916043 -0.11038429 0.09460511 -0.22952747 0.16844806 0.07273449
0.12828547 -0.061666176 0.08476202 0.08904566 0.02111458 -0.09637231 -0.075161986 0.15871887
0.20601356 -0.005873013 -0.19585055 0.023599703 -0.23723586 0.09603609 -0.08988739 0.07435959
-0.13511379 0.11854962 -0.17633204 0.17801099 0.17930606 0.2168321 0.07788534 -0.14453816
0.0020705105 0.15914498 -0.14969653 -0.18572035 0.09278406 -0.12384192 -0.21550247 0.16948241
0.15850005 -0.15225145 -0.102913156 0.040007994 -0.12554434 -0.21483698 0.11407086 0.06510244
-0.2110392 0.019544896 -0.0067314357 -0.1305434 0.19630677 0.072191365 0.2549215 -0.017197099
-0.14224431 -0.012343748 -0.20758724 0.019236064 -0.20945439 0.18368697 -0.0558771 0.14461745
0.16439691 -0.20851266 0.23611435 -0.18819924 0.23005514 -0.0754294 0.056650437 0.078794904
0.2404798 0.18162283 0.15084738 0.05322219 -0.08750718 0.016804388 -0.009577383 0.17063667
-0.18107495 0.16260217 0.14561439 0.25672707 0.06468291 0.21773525 -0.16941842 -0.18227805
0.026283773 0.10292127 0.16610071 -0.20280626 -0.04305556 -0.15066609 -0.00063801906 -0.0042534773
-0.19539063 -0.018565163 -0.16816041 -0.084725045 0.025461633 0.16670258 0.018221147 -0.1434628
-0.16696401 -0.0706424 0.034224167 -0.16768457 0.23910248 0.11017149 0.20340748 0.048906878
-0.16734757 0.16226831 -0.13795888 0.21621831 0.053728912 0.17807634 -0.23858348 -0.090458386
0.12840475 -0.15120895 0.19665515 0.0032453528 -0.2006075 0.11379806 0.048872545 -0.11381477
-0.0837962 -0.0072874925 -0.072807275 0.24399556 -0.20118104 -0.0022224488 -0.16912481 -0.021233672
-0.12698455 0.241309 -0.1368491 0.21589664 -0.018426917 0.005915547 -0.0764239 -0.014595997
-0.058760677 -0.10691938 -0.17964365 -0.057399593 -0.13152076 0.045719936 -0.018149564 -0.14672258
-0.24445203 -0.12705465 0.19417433 0.10377869 0.1467815 -0.0566547 0.18758236 0.1883506
-0.1310254 -0.12518544 0.1278921 0.14500459 -0.08236453 0.09461911 0.08848457 -0.11157565
-0.19561006 -0.06851757 -0.18176457 0.21117423 0.13709056 0.23115955 0.15100476 0.1006278
0.02566232 0.18581098 0.10309254 0.026097517 0.17373951 0.19789933 -0.08332142 -0.057887
-0.04588925 -0.18972078 -0.17004474 -0.21133818 0.014025663 -0.037969697 0.12514682 0.05589673
-0.12723637 0.06399332 -0.22439568 0.086097606 0.15551 -0.15720497 0.038723268 0.00017409457
0.05624891 0.19002602 -0.16669862 -0.17138852 0.025951894 -0.21437207 -0.121530175 0.0888204
00000000: bb52 a5bc 767e 5fbc 5a36 2ebb ef83 813e
00000010: a9e7 6c3e 2369 23be b915 5b3d 2e93 493d
00000020: ef99 163e 32c2 45bd 37b0 d93d d5bb 043e
00000030: c62b 993c d127 583e 9024 9e3d 7de6 453e
00000040: 21ee 393e 31d0 70be 8837 03be cdc0 2ebd
00000050: a740 233e 6d36 3dbe ecae 2c3e f977 dc3d
00000060: 1bce 483d 0bc0 553e 8dcc 903c ed63 33be
00000070: f338 fa3d 8bf2 5fbe 5ab9 5bbe b114 9b3d
00000080: 6e7f 523e a5e6 7bbe 08d1 343e 2c11 3f3e
00000090: f478 24be 14a4 51be 49f5 c13b c3e3 2e3e
000000a0: ffcb 223d c96f 29be 2143 8dbd fea9 42bc
000000b0: c113 7a3e 427d dabd 7966 35be 6bc5 78bd
000000c0: c162 0abe 1549 c0bc 56f6 9c3c 2911 e2bd
000000d0: 53c0 c13d 4009 6bbe a67d 2c3e d2f5 943d
000000e0: 445d 033e ac95 7cbd b697 ad3d 925d b63d
000000f0: 7cf8 ac3c d85e c5bd 87ee 99bd 3387 223e
00000100: 38f5 523e 6772 c0bb 0c8d 48be 2a54 c13c
00000110: f5ed 72be 92ae c43d e116 b8bd d749 983d
00000120: 455b 0abe 25ca f23d 6390 34be 8348 363e
00000130: 029c 373e 3c09 5e3e 5982 9f3d d001 14be
00000140: 67b1 073b e7f6 223e 0c4a 19be 7a2d 3ebe
00000150: 9205 be3d d5a0 fdbd aeac 5cbe cc8c 2d3e
00000160: d64d 223e cee7 1bbe 22c4 d2bd 6cdf 233d
00000170: b28e 00be 3afe 5bbe fc9d e93d 6e54 853d
00000180: a91a 58be 9e1c a03c 6093 dcbb 2bad 05be
00000190: a404 493e 11d9 933d 1285 823e eee0 8cbc
000001a0: 7ea8 11be 6e3d 4abc c091 54be f394 9d3c
000001b0: 367b 56be 7018 3c3e 63df 64bd 9916 143e
000001c0: aa57 283e 5884 55be f6c7 713e 4db7 40be
000001d0: 9393 6b3e bb7a 9abd 4a0a 683d 395f a13d
000001e0: 5640 763e 56fb 393e bc77 1a3e 83ff 593d
000001f0: f736 b3bd 5ba9 893c 75ea 1cbc 61bb 2e3e
00000200: b66b 39be 2f81 263e f01b 153e bb71 833e
00000210: 7978 843d fdf5 5e3e 067c 2dbe 19a7 3abe
00000220: 1151 d73c 63c8 d23d 4e16 2a3e 72ac 4fbe
00000230: 075b 30bd 3648 1abe bc40 27ba c160 8bbb
00000240: 7b14 48be f815 98bc 3e32 2cbe 5384 adbd
00000250: ea94 d03c 15b4 2a3e 8444 953c eae7 12be
00000260: 9df8 2abe f6ac 90bd a42e 0c3d 81b5 2bbe
00000270: 48d7 743e 97a1 e13d 0d4a 503e 9452 483d
00000280: 295d 2bbe aa29 263e 1845 0dbe 5568 5d3e
00000290: d912 5c3d a559 363e 3a4f 74be 3f42 b9bd
000002a0: 897c 033e 85d6 1abe f85f 493e fcaf 543b
000002b0: 0d6c 4dbe f50e e93d 942e 483d b817 e9bd
000002c0: 589d abbd ebcb eebb fb1b 95bd f9d9 793e
000002d0: 6702 4ebe 81a6 11bb 0e2f 2dbe 3df2 adbc
000002e0: 3d08 02be b519 773e 2c22 0cbe 0214 5d3e
000002f0: 0cf4 96bc 34d7 c13b 2284 9cbd 0c24 6fbc
00000300: 09af 70bd 8cf8 dabd 81f4 37be d61b 6bbd
00000310: 61ad 06be d444 3b3d 65ae 94bc 723e 16be
00000320: a251 7abe 9d1a 02be a3d5 463e ec89 d43d
00000330: e44d 163e c20e 68bd 9715 403e fbde 403e
00000340: 862b 06be 9d30 00be 26f6 023e 157c 143e
00000350: bcae a8bd aac7 c13d 6637 b53d c681 e4bd
00000360: 014e 48be f152 8cbd 7e20 3abe 0f3e 583e
00000370: 7861 0c3e 17b5 6c3e fea0 1a3e f315 ce3d
00000380: c939 d23c 3c45 3e3e 2e22 d33d 76ca d53c
00000390: c5e8 313e 1fa6 4a3e 6ca4 aabd eb1a 6dbd
000003a0: 5ef6 3bbd 2a46 42be 3520 2ebe 0969 58be
000003b0: e5cb 653c 1d86 1bbd 7d26 003e f8f3 643d
000003c0: 404a 02be ee0e 833d fbc7 65be f153 b03d
000003d0: 033e 1f3e 57fa 20be 4a9c 1e3d 288d 3639
000003e0: 4265 663d 2e96 423e 0bb3 2abe 7980 2fbe
000003f0: 1199 d43c 5a84 5bbe d0e4 f8bd 78e7 b53d

lstm_p.bias_ih_l0 f4 [64]
-0.027159685 -0.20823559 -0.17778733 -0.079312034 0.14461094 -0.062077682 0.025712246 -0.19204758
0.18229127 -0.24717076 0.09337687 0.06036691 0.2297912 -0.14777622 0.13547938 0.13185544
-0.15833348 0.19367205 -0.1707578 -0.16146493 -0.21348275 0.18979871 0.0838056 0.0005525203
0.0008804495 0.18551712 -0.03570786 0.034884755 -0.13458906 -0.17966248 -0.23232317 0.13714404
-0.09522379 -0.13178037 0.17031102 0.22144265 0.018437745 -0.0828064 -0.22965777 -0.21920443
0.117838815 -0.15233682 -0.21852526 -0.20967853 -0.063050434 0.118013635 0.16327897 -0.057926007
0.19320156 0.20580274 0.116673864 0.24370211 -0.24852039 0.06292782 -0.1808261 -0.0081706345
0.05404237 0.08112816 -0.04201269 0.051506955 -0.14828469 0.17581275 -0.09794792 -0.15041183
00000000: fd7d debc b63b 55be e20d 36be 596e a2bd
00000010: e414 143e 2b45 7ebd 7da2 d23c 1fa8 44be
00000020: 90aa 3a3e 551a 7dbe 5f3c bf3d 4b43 773d
00000030: 624e 6b3e a652 17be 1bbb 0a3e 1d05 073e
00000040: 2c22 22be f751 463e 22db 2ebe 1057 25be
00000050: 399b 5abe 985a 423e 45a2 ab3d 02d7 103a
00000060: f7cd 663a 33f8 3d3e 6842 12bd 51e3 0e3d
00000070: b7d1 09be 71f9 37be 20e6 6dbe 7d6f 0c3e
00000080: b104 c3bd 6ff1 06be 0366 2e3e ddc1 623e
00000090: c10a 973c 6796 a9bd 682b 6bbe 2077 60be
000000a0: 7a55 f13d 2ffe 1bbe 16c5 5fbe f8b5 56be
000000b0: 9620 81bd 22b1 f13d 9a32 273e d243 6dbd
000000c0: a1d6 453e f4bd 523e b5f2 ee3d 0c8d 793e
000000d0: 217c 7ebe 4de0 803d 7a2a 39be 20de 05bc
000000e0: 885b 5d3d 8526 a63d 8015 2cbd f5f8 523d
000000f0: f1d7 17be 4208 343e eb98 c8bd 8f05 1abe

lstm_p.bias_hh_l0 f4 [64]
-0.2502999 -0.02007039 -0.08808417 0.09461396 -0.019069754 0.051898975 -0.16865994 0.22799905
-0.017916424 -0.1912478 0.17901833 0.020763468 -0.015931172 -0.12336974 -0.074644744 0.047823634
0.11739458 -0.2465304 0.03334731 0.0708049 0.1328469 0.07899351 0.08700923 0.20653957
-0.081286974 0.036205787 -0.09328826 0.047518525 -0.11462894 0.08959632 0.026997404 0.013593907
-0.23239124 0.162721 -0.23125039 0.050846383 -0.1453459 -0.16525498 -0.005736788 -0.16825807
-0.12592895 -0.15418355 0.16608465 -0.09555751 0.084971115 -0.04317994 -0.20061496 0.12594533
-0.12925006 0.13789347 -0.2121065 -0.23915914 0.07350556 -0.05949977 -0.13096547 0.23772919
0.22663586 -0.23780742 0.1909401 0.1304339 -0.078363195 -0.09328969 0.076189734 -0.049249385
00000000: 4f27 80be a96a a4bc 7965 b4bd f7c4 c13d
00000010: 2c38 9cbc 0594 543d 31b5 2cbe 9578 693e
00000020: 77c5 92bc 77d6 43be 9550 373e 2618 aa3c
00000030: 1782 82bc 46a9 fcbd 58df 98bd b7e2 433d
00000040: 926c f03d 7772 7cbe 3097 083d 2902 913d
00000050: 0509 083e 59c7 a13d e531 b23d 1c7f 533e
00000060: c979 a6bd 854c 143d ea0d bfbd c9a2 423d
00000070: 94c2 eabd 477e b73d a929 dd3c fab8 5e3c
00000080: f8f7 6dbe 55a0 263e e7cc 6cbe 4c44 503d
00000090: 8ed5 14be 9a38 29be aafb bbbb d84b 2cbe
000000a0: 85f3 00be 4be2 1dbe 1812 2a3e a8b3 c3bd
000000b0: 5605 ae3d 73dd 30bd 026e 4dbe d0f7 003e
000000c0: 215a 04be f233 0d3e 7232 59be 22e6 74be
000000d0: 158a 963d 08b6 73bd d01b 06be 486f 733e
000000e0: 3b13 683e ca83 73be cd85 433e 7790 053e
000000f0: e27c a0bd aa0e bfbd 5d09 9c3d b9b9 49bd

lstm_p.weight_ih_l1 f4 [64, 16]
-0.048120204 0.080033146 0.21696614 0.0049614026 -0.17081307 0.10603078 0.22413903 0.21574795
0.21764168 -0.09735187 -0.13788368 0.12415451 0.084352575 0.18712345 -0.08408577 -0.098439604
-0.04280548 0.18811622 0.08135357 0.23027307 -0.12974612 -0.06718614 0.14707872 -0.06466793
0.20421052 -0.04994651 0.17075622 0.1536716 0.04162396 -0.0672241 -0.14710297 -0.12703389
-0.1351071 -0.18712173 0.18575731 0.09006789 -0.086616024 0.2051426 0.029364675 -8.477688e-05
0.15873568 0.23725688 0.1618096 -0.10033513 -0.2286049 -0.1084942 -0.047579307 0.10733874
0.13715765 -0.23868304 0.21117502 0.24851583 -0.07534952 0.19766612 0.11764917 -0.15208799
-0.09778856 -0.20324588 0.21651717 0.18336552 0.18072134 0.13325189 0.15181406 0.16548806
-0.06902327 -0.090556294 0.19298315 -0.080102906 0.12375384 -0.110280864 -0.21623522 -0.19335316
0.21792568 0.21088727 -0.22793934 0.016831132 0.22727656 -0.15067072 -0.0047787004 0.12411341
0.15758167 -0.08022213 -0.06967685 0.04286074 0.041822687 -0.040235557 0.2248495 -0.14582443
-0.11049471 0.22147657 -0.008391813 -0.021644888 0.1268301 0.09653743 0.0020986032 0.1111288
0.10910391 -0.08610156 0.14954102 0.17001623 -0.24352047 -0.16432282 0.18692932 0.0147187505
0.121658765 0.08568462 -0.10178042 -0.09033328 -0.19331183 -0.16519351 0.21031417 -0.20867348
0.11853645 0.11828116 0.22184497 -0.24112184 0.10979923 0.097788505 0.1597224 0.23489618
0.116834894 0.059439786 -0.047681067 -0.21569152 0.09798765 -0.09823707 0.12450121 -0.20959114
-0.022309162 0.16155952 0.028742617 -0.045205127 0.07542808 0.08686426 -0.19650523 -0.022981802
0.1143188 0.20655395 0.13942814 0.03208251 0.18907692 0.15559307 -0.052010197 0.033202212
-0.06384553 -0.10145773 0.18676615 0.10166146 0.2217709 0.09820053 -0.11490156 -0.0063379244
0.040921655 0.034888923 -0.20573796 -0.052005608 -0.041749988 -0.21942484 -0.17732204 0.19824599
-0.23162219 0.045531135 0.009350589 -0.21432903 -0.19639479 -0.0240371 -0.25598428 0.025658175
0.14662455 -0.12575921 0.037779387 -0.014281228 0.23242877 -0.014183902 -0.11793729 -0.013943485
-0.12403607 -0.13251361 -0.096004024 0.021914082 0.2349707 -0.18154657 0.03915195 0.12240219
0.23457791 0.17233106 0.16413802 -0.21438605 0.20980735 -0.21157862 0.07438502 0.066976316
0.08951126 -0.013962374 -0.014763735 -0.1058286 0.19434431 -0.1438773 -0.23343436 0.24560513
-0.118423454 -0.1938327 -0.1701458 -0.124444015 0.16038199 -0.20876054 -0.23428631 0.17648976
-0.19676073 -0.15539339 -0.030575372 -0.2340358 0.19157559 0.14782998 0.25367156 -0.1715776
-0.16677763 -0.103273295 0.13315511 0.1862327 -0.18100111 0.08986026 0.15080023 0.22275421
0.084613085 0.22419423 -0.13927652 0.13851273 -0.23749821 0.12165524 -0.0005041038 -0.2320252
-0.009464106 0.17839406 -0.014919411 0.13709618 0.11055048 -0.18022124 -0.105187 0.19982257
0.12897146 0.15493685 0.02598798 -0.01165875 0.07442926 -0.015572743 -0.04995245 -0.22223292
-0.07850241 0.011646868 0.054895002 0.12780736 0.064899765 -0.02109476 0.14767335 0.09355917
00000000: b119 45bd 6be8 a33d 5f2c 5e3e 4393 a23b
00000010: 9fe9 2ebe aa26 d93d b484 653e 08ed 5c3e
00000020: 76dd 5e3e 6b60 c7bd 6131 0dbe b844 fe3d
00000030: 0bc1 ac3d 4a9d 3f3e 2935 acbd b49a c9bd
00000040: cd54 2fbd 8aa1 403e b39c a63d b4cc 6b3e
00000050: 2bdc 04be e398 89bd ce9b 163e 9f70 84bd
00000060: 901c 513e b694 4cbd b8da 2e3e 175c 1d3e
00000070: e37d 2a3d caac 89bd 29a2 16be 2c15 02be
00000080: 8459 0abe d79c 3fbe 2a37 3e3e 8475 b83d
00000090: be63 b1bd e710 523e 308e f03c 3eca b1b8
000000a0: 9b8b 223e 78f3 723e 6ab1 253e 817c cdbd
000000b0: 6717 6abe 3532 debd 85e2 42bd 6ad4 db3d
000000c0: 0e73 0c3e 5469 74be 443e 583e ef7a 7e3e
000000d0: d950 9abd fd68 4a3e 0cf2 f03d f4bc 1bbe
000000e0: 5e45 c8bd b01f 50be adb6 5d3e 2cc4 3b3e
000000f0: 040f 393e 2f73 083e 2575 1b3e b475 293e
00000100: 125c 8dbd 9475 b9bd 609d 453e fe0c a4bd
00000110: a772 fd3d efda e1bd c46c 5dbe 5ffe 45be
00000120: e927 5f3e d5f2 573e ee68 69be 71e1 893c
00000130: 30bb 683e 6d49 1abe a596 9cbb 2c2f fe3d
00000140: 175d 213e 804b a4bd bdb2 8ebd be8e 2f3d
00000150: 444e 2b3d 0ace 24bd f33e 663e 0053 15be
00000160: 0d4b e2bd c1ca 623e d17d 09bc 9f50 b1bc
00000170: c0df 013e 6bb5 c53d b888 093b 7f97 e33d
00000180: df71 df3d 0456 b0bd 4821 193e bc18 2e3e
00000190: 6e5d 79be 3e44 28be 666a 3f3e ea26 713c
000001a0: 3b28 f93d 6b7b af3d 4172 d0bd a800 b9bd
000001b0: 89f3 45be 7d28 29be 995c 573e 80ae 55be
000001c0: 3dc3 f23d 653d f23d 542b 633e a5e8 76be
000001d0: 6bde e03d 5745 c83d 458e 233e a088 703e
000001e0: 2247 ef3d 2277 733d 394d 43bd 3dde 5cbe
000001f0: c0ad c83d 8430 c9bd 7efa fe3d 0f9f 56be
00000200: b4c1 b6bc dc6f 253e a375 eb3c 0329 39bd
00000210: 0a7a 9a3d e4e5 b13d ab38 49be 5544 bcbc
00000220: fa1f ea3d e182 533e 40c6 0e3e f368 033d
00000230: 619d 413e ca53 1f3e a508 55bd 0bff 073d
00000240: 72c1 82bd 12c9 cfbd a03f 3f3e e233 d03d
00000250: e917 633e 5c1d c93d 8251 ebbd 5dae cfbb
00000260: 779d 273d b0e7 0e3d f9ac 52be d503 55bd
00000270: 0902 2bbd e8b0 60be e993 35be ff00 4b3e
00000280: 5e2e 6dbe db7e 3a3d 3633 193c 1279 5bbe
00000290: b71b 49be 74e9 c4bc 5f10 83be 1831 d23c
000002a0: bf24 163e 06c7 00be 8fbe 1a3d d0fb 69bc
000002b0: cf01 6e3e 9963 68bc 1b89 f1bd 3773 64bc
000002c0: a006 febd a6b1 07be c29d c4bd 2985 b33c
000002d0: 299c 703e 58e7 39be cc5d 203d 00ae fa3d
000002e0: 3135 703e 8e77 303e cc13 283e 0488 5bbe
000002f0: bdd7 563e 11a8 58be 2c57 983d e12a 893d
00000300: ae51 b73d 71c2 64bc 98e3 71bc aabc d8bd
00000310: 3202 473e 9254 13be 6b09 6fbe e97f 7b3e
00000320: ff87 f2bd 147c 46be b33a 2ebe 81dc febd
00000330: 2d3b 243e 53c5 55be c0e8 6fbe bbb9 343e
00000340: a57b 49be 721f 1fbe 3479 fabc 15a7 6fbe
00000350: 642c 443e be60 173e 3de1 813e 0ab2 2fbe
00000360: c1c7 2abe f380 d3bd d059 083e c9b3 3e3e
00000370: 5b58 39be a808 b83d 606b 1a3e ae19 643e
00000380: a049 ad3d 2c93 653e 819e 0ebe 48d6 0d3e
00000390: bb32 73be 6226 f93d d525 04ba 0498 6dbe
000003a0: 560f 1bbc efac 363e 8c70 74bc f162 0c3e
000003b0: 4a68 e23d eb8b 38be 486c d7bd 4a9e 4c3e
000003c0: 1811 043e c4a7 1e3e bfe4 d43c 5704 3fbc
000003d0: 5e6e 983d d124 7fbc f19a 4cbd 0791 63be
000003e0: dfc5 a0bd 81d2 3e3c 95d9 603d efdf 023e
000003f0: 2bea 843d ebce acbc af37 173e f39b bf3d

lstm_p.weight_hh_l1 f4 [64, 16]
0.19679268 -0.14148806 0.23472443 -0.10860934 -0.050704576 -0.18439142 0.06548494 0.19041018
-0.07526659 0.16506651 -0.020294173 0.2338761 -0.15018146 0.0021912588 0.19601032 -0.20624591
0.1250342 -0.2366898 0.20264123 0.09799203 0.047758535 -0.22812667 0.25462517 0.1780653
0.2363366 -0.20771511 0.22081827 0.028816866 0.15130566 -0.25346693 -0.12650311 0.013222667
0.14611454 -0.23501037 0.14229694 0.12222437 -0.17894141 0.21118914 -0.11919482 0.08304956
-0.17115097 -0.14736348 -0.05202628 -0.08091138 0.041725364 -0.060110968 -0.13565029 0.23071
-0.00936985 -0.20955127 0.20500384 0.21050356 -0.13441786 0.17283592 -0.102335036 -0.19426091
-0.2548213 -0.13085368 0.120275654 0.25550416 0.22799928 -0.025572445 -0.055284522 0.0031086984
0.21589833 -0.18332599 -0.13854119 -0.0014447465 -0.22823203 0.13104494 -0.15892781 -0.073143944
-0.13391727 -0.012110469 0.21730305 -0.08749421 -0.10068854 0.12496758 -0.030382486 -0.016438032
0.20719172 0.08198397 -0.036982972 0.22455004 -0.25262848 0.21494088 -0.08328331 0.16686732
-0.06956536 -0.2009877 -0.011923212 0.21583329 0.026357481 -0.20666312 0.17372233 0.23790891
0.22066694 -0.13242412 -0.18413965 -0.25051036 -0.047726464 0.063409194 -0.25096315 0.0045476668
0.032428045 0.17813663 0.16878444 0.11129323 -0.019362804 0.24230695 -0.019532753 -0.053851772
-0.1298221 0.06323631 -0.16087319 0.10355694 -0.22059058 0.024341578 -0.009808902 -0.1721144
0.2007259 0.19545504 0.15690699 0.19218473 -0.012872456 -0.14653175 -0.06191032 -0.15103042
-0.12289806 0.038912144 -0.08922664 0.2559912 0.15817462 0.25600183 0.11724778 0.13826986
-0.12281951 0.20002937 0.18622161 0.073515445 0.0780044 -0.22248515 -0.0024104242 0.20654175
-0.09765056 0.19446895 -0.11628704 -0.1621316 0.14030501 0.13366073 0.08614297 -0.108269945
0.16754314 -0.10156561 0.1341547 0.21521883 -0.12056171 0.18711203 0.17420389 0.0690614
-0.10261372 -0.06229944 0.14380698 0.09891051 0.0047053583 -0.09707653 0.024585918 0.24961376
0.19228922 -0.16481498 0.25253138 0.15968972 0.25641966 -0.060328666 0.070026234 -0.04487359
-0.12964052 -0.063784726 -0.14627704 0.07952117 -0.052164964 -0.19087465 -0.07053215 -0.015316295
-0.114981614 -0.14656152 -0.24858162 0.13052936 0.1282826 -0.2525058 0.11962613 -0.20185846
-0.10667766 -0.15765996 -0.065377496 -0.13335888 -0.0066632736 0.044262204 -0.10495711 0.15563314
-0.09463328 -0.06626484 0.06389986 0.13420458 0.17769574 0.10968461 0.019385997 -0.030129379
-0.14913003 0.21204628 -2.3472367e-05 0.19287618 0.11059991 0.16240539 -0.16755058 0.118124135
0.24934526 -0.21505833 0.16674428 -0.15591376 -0.14856522 -0.23134714 -0.24836309 -0.18016419
-0.18272765 -0.0021571198 -0.12664469 -0.0014142735 0.16566925 0.21131992 -0.19523987 0.18952785
-0.020187885 -0.09205567 0.25566095 -0.20014732 -0.13949649 0.114242814 0.10955052 0.11554112
-0.21823998 -0.16414842 -0.17072903 0.17208269 0.10661408 -0.027780393 0.17168218 0.013751397
-0.23340957 -0.073001824 0.12857968 -0.0441289 0.10304366 0.06410887 -0.05996159 -0.1935084
00000000: 0584 493e 3fe2 10be 9a5b 703e 936e debd
00000010: 9aaf 4fbd 1bd1 3cbe f81c 863d e3fa 423e
00000020: 5f25 9abd 3207 293e f73f a6bc 377d 6f3e
00000030: 2bc9 19be 399b 0f3b eeb6 483e 2132 53be
00000040: f708 003e d05e 72be 2f81 4f3e 0cb0 c83d
00000050: 749e 433d 0a9a 69be 3b5e 823e c056 363e
00000060: 3902 723e 45b3 54be 2f1e 623e 5911 ec3c
00000070: dfef 1a3e 6bc6 81be 088a 01be e3a3 583c
00000080: 0d9f 153e 8fa6 70be 4ab6 113e c550 fa3d
00000090: 6b3c 37be f741 583e 6a1c f4bd e315 aa3d
000000a0: 3342 2fbe 74e6 16be 8219 55bd deb4 a5bd
000000b0: 37e8 2a3d eb36 76bd e9e7 0abe 3e3f 6c3e
000000c0: 0084 19bc 9c94 56be 87ec 513e 3f8e 573e
000000d0: d6a4 09be e6fb 303e 0895 d1bd 55ec 46be
000000e0: f077 82be 82fe 05be 1553 f63d 71d1 823e
000000f0: a578 693e 4e7d d1bc 0672 62bd 4ebb 4b3b
00000100: 7414 5d3e cfb9 3bbe bedd 0dbe a65d bdba
00000110: a8b5 69be a530 063e f9bd 22be 7ecc 95bd
00000120: 9c21 09be fd6a 46bc b184 5e3e 2a30 b3bd
00000130: cb35 cebd 01ef ff3d b1e4 f8bc 0da9 86bc
00000140: 112a 543e 36e7 a73d 757b 17bd 72f0 653e
00000150: 8558 81be 7619 5c3e 7190 aabd 44df 2a3e
00000160: 4978 8ebd b8cf 4dbe 9359 43bc 6703 5d3e
00000170: a5eb d73c 7f9f 53be 44e4 313e 659e 733e
00000180: 84f6 613e 309a 07be 1b8f 3cbe e542 80be
00000190: d37c 43bd aedc 813d 3e7e 80be 9804 953b
000001a0: 45d3 043d 7369 363e d4d5 2c3e b4ed e33d
000001b0: be9e 9ebc 501f 783e 2703 a0bc ad93 5cbd
000001c0: 16f0 04be 0a82 813d f1bb 24be a915 d43d
000001d0: 7fe2 61be fd67 c73c 84b5 20bc c23e 30be
000001e0: 178b 4d3e 5e25 483e 3aac 203e 13cc 443e
000001f0: fee6 52bc 6b0c 16be ad95 7dbd b8a7 1abe
00000200: fab1 fbbd 5762 1f3d 75bc b6bd 4711 833e
00000210: 87f8 213e ac12 833e 9b1f f03d 9d96 0d3e
00000220: cc88 fbbd 80d4 4c3e e1b0 3e3e 448f 963d
00000230: c5c0 9f3d 26d3 63be 35f8 1dbb ae7f 533e
00000240: 04fd c7bd de22 473e e627 eebd d305 26be
00000250: 1eac 0f3e 5cde 083e ba6b b03d a2bc ddbd
00000260: 6e90 2b3e a101 d0bd da5f 093e 5362 5c3e
00000270: 0fe9 f6bd 4c9a 3f3e 8162 323e 1070 8d3d
00000280: 2427 d2bd b32d 7fbd 2342 133e 9891 ca3d
00000290: 682f 9a3b 0fd0 c6bd 6868 c93c c09a 7f3e
000002a0: 77e7 443e 42c5 28be cb4b 813e b485 233e
000002b0: 7049 833e 311b 77bd ea69 8f3d 5fcd 37bd
000002c0: 7cc0 04be 91a1 82bd a6c9 15be ffdb a23d
000002d0: eeaa 55bd a574 43be 2973 90bd 33f1 7abc
000002e0: 7b7b ebbd 3914 16be 2e8c 7ebe 7da9 053e
000002f0: 845c 033e 7148 81be 8bfe f43d fcb3 4ebe
00000300: d179 dabd 9d71 21be a3e4 85bd 3b8f 08be
00000310: 9757 dabb 494c 353d c1f3 d6bd 4b5e 1f3e
00000320: 18cf c1bd dcb5 87bd eedd 823d ed6c 093e
00000330: dff5 353e 53a2 e03d 62cf 9e3c e3d1 f6bc
00000340: 8bb5 18be a922 593e 86e6 c4b7 5581 453e
00000350: 3582 e23d 994d 263e 6192 2bbe 11eb f13d
00000360: 5d54 7f3e 4038 5cbe 03bf 2a3e dba7 1fbe
00000370: 7b21 18be 44e6 6cbe e552 7ebe f67c 38be
00000380: f51c 3bbe 775e 0dbb 25af 01be 255f b9ba
00000390: 33a5 293e 4064 583e f6ec 47be 9713 423e
000003a0: 1061 a5bc af87 bcbd fee5 823e 6bf3 4cbe
000003b0: 2bd8 0ebe 23f8 e93d 065c e03d d3a0 ec3d
000003c0: 4d7a 5fbe 8616 28be 97d3 2ebe 7236 303e
000003d0: 7c58 da3d b593 e3bc 74cd 2f3e 8a4d 613c
000003e0: eb02 6fbe fb81 95bd 64aa 033e 81c0 34bd
000003f0: 8e08 d33d 834b 833d 499a 75bd 1127 46be

lstm_p.bias_ih_l1 f4 [64]
-0.06733625 0.012185936 0.031571142 -0.23714988 -0.248241 0.070205145 -0.13588814 0.18560228
0.06564862 0.059811287 -0.24493974 0.093464255 -0.036441147 -0.029576322 -0.1949738 -0.25070652
0.17648916 -0.15533103 0.04171101 -0.17783663 -0.19294849 0.12212042 0.065907836 -0.12136767
0.11313318 -0.14787431 -0.17478554 0.033109494 0.02117315 -0.18988866 -0.14457855 -0.13892579
-0.06518191 0.13425128 -0.22586156 0.17311773 0.017274253 -0.017733077 -0.13589166 -0.20535041
-0.080456406 0.12755398 -0.19490932 0.2178907 -0.16227256 0.13190617 -0.22242033 -0.23548763
-0.09160864 0.18937373 0.11099717 -0.14887488 0.066882074 -0.11823485 0.2191994 0.23323749
0.008390573 0.16962066 -0.09346122 0.09450663 0.1314425 0.12557335 0.07759307 0.23070921
00000000: 96e7 89bd 85a7 473c be50 013d 6bd7 72be
00000010: e432 7ebe b7c7 8f3d 4326 0bbe 860e 3e3e
00000020: c972 863d aefc 743d 7cd1 7abe 306a bf3d
00000030: 5043 15bd 0b4a f2bc 36a7 47be 9b5c 80be
00000040: 93b9 343e 190f 1fbe 2ad9 2a3d ce1a 36be
00000050: 4a94 45be 451a fa3d b0fa 863d 9d8f f8bd
00000060: 5eb2 e73d 5d6c 17be fbfa 32be d29d 073d
00000070: 5073 ad3c 2c72 42be 660c 14be 9042 0ebe
00000080: 187e 85bd 2b79 093e 4148 67be c645 313e
00000090: bc82 8d3c f544 91bc 2f27 0bbe 6147 52be
000000a0: 54c6 a4bd 839d 023e 4f96 47be bd1e 5f3e
000000b0: c72a 26be 6912 073e 28c2 63be ab23 71be
000000c0: 509d bbbd 30eb 413e 7c52 e33d a872 18be
000000d0: 78f9 883d 1d25 f2bd cf75 603e cfd5 6e3e
000000e0: 9d78 093c 0ab1 2d3e 9968 bfbd b18c c13d
000000f0: dd98 063e 4d96 003e 1ee9 9e3d 093f 6c3e

lstm_p.bias_hh_l1 f4 [64]
0.07697536 0.16891094 0.11550102 0.013703881 -0.05397539 0.19631779 0.21629475 0.21072307
0.068176106 0.14214715 -0.14802259 -0.14962164 0.037678573 -0.19406708 -0.12353617 0.14140207
-0.11869106 -0.16182195 -0.22895558 0.15752372 0.1640858 0.1891506 -0.044063658 -0.12778912
0.22952561 -0.15760262 0.20117559 0.05607216 -0.106668554 0.11151841 -0.13805416 0.020799693
0.20400342 -0.051420894 0.062167544 0.16657498 -0.074289516 0.15957595 0.18245955 0.031557333
0.19227041 0.21251196 -0.17633204 0.113297455 -0.00052186934 -0.10684782 0.19787171 0.024170516
-0.007731988 0.10455544 0.061898563 0.018047906 0.1061281 -0.013821311 -0.20305927 0.098038435
-0.041852728 -0.117724106 -0.15392111 0.12833053 0.091800205 -0.19166267 -0.17014761 -0.041243944
00000000: 42a5 9d3d fdf6 2c3e cc8b ec3d 3e86 603c
00000010: 4c15 5dbd 8807 493e 5f7c 5d3e cac7 573e
00000020: ea9f 8b3d 068f 113e 3c93 17be 6a36 19be
00000030: d954 1a3d 85b9 46be 8800 fdbd b4cb 103e
00000040: 4c14 f3bd a7b4 25be 5573 6abe e64d 213e
00000050: 1c06 283e b2b0 413e 187c 34bd 27db 02be
00000060: c308 6b3e 9562 21be f900 4e3e ecab 653d
00000070: 0b75 dabd c463 e43d 125e 0dbe 1e64 aa3c
00000080: 46e6 503e b79e 52bd 65a3 7e3d a292 2a3e
00000090: 1a25 98bd e167 233e add6 3a3e 4342 013d
000000a0: 89e2 443e bc9c 593e 6390 34be 7f08 e83d
000000b0: 0fce 08ba 08d3 dabd e29e 4a3e 3f01 c63c
000000c0: 9e5c fdbb 2a21 d63d 5989 7d3d 34d9 933c
000000d0: b059 d93d c872 62bc c5ee 4fbe 60c8 c83d
000000e0: c46d 2bbd 5619 f1bd 7f9d 1dbe 1469 033e
000000f0: bf01 bc3d 3843 44be 2d3b 2ebe 69ef 28bd

attention_p.attn_1.weight f4 [16, 16]
-0.24792002 0.17228588 0.24834411 -0.39074332 0.021517145 -0.10302243 -0.024336327 -0.39722633
-0.29576552 -0.112032026 0.085796684 0.30987227 0.38596934 0.055625144 -0.11901908 -0.40032634
-0.29884166 0.3181201 0.18119837 -0.3915054 -0.23855612 -0.26956642 -0.19833124 0.24176492
-0.15908988 0.32631955 0.34158805 -0.20602189 -0.07474579 0.34359252 0.20751183 0.061461017
-0.056885652 -0.13549359 -0.043586954 -0.21391176 0.12564033 0.37910193 -0.072895706 0.20752756
0.41339964 0.28965905 -0.13081229 -0.38605097 -0.2454127 0.09534039 -0.24650331 -0.28813756
0.4067162 -0.13249396 -0.26871902 0.35275802 -0.29304755 0.39666548 0.23076776 -0.31786048
0.29193348 0.26536864 -0.05197822 -0.43902415 -0.06623409 0.40868187 -0.10258606 -0.033845305
0.31982917 -0.34744042 -0.18004003 0.11296368 -0.3643984 0.2556601 0.23495798 0.16875295
-0.15786453 -0.35473043 0.12713493 0.34358108 0.17764069 -0.33480412 0.3607283 -0.20651677
-0.43264347 0.049615934 0.29472533 0.37901428 -0.10281282 -0.30812982 0.01069704 -0.1555925
-0.028524702 0.106318206 0.11553355 -0.20420091 0.06287043 0.13921075 -0.30472243 0.08180443
0.35474262 -0.17005147 0.17992522 0.14134607 0.34499067 0.2648596 -0.30453464 -0.14267929
-0.068776265 -0.2079145 0.33621955 -0.02216454 -0.12225147 0.35300136 -0.15829067 -0.2894832
0.21104226 0.3441028 0.02141481 -0.32056293 -0.027833115 0.4145981 -0.039683435 0.2686852
0.21223222 -0.057567623 0.029787263 -0.06939156 -0.2979929 -0.23761828 0.25286928 -0.26733598
-0.22353953 -0.2570521 0.41707534 -0.1264192 -0.2077702 0.35989305 0.15765907 -0.3885172
0.42044914 0.2223639 0.12200554 -0.033229843 0.11408178 -0.1462664 0.29092795 0.11141639
0.38240343 0.12018811 -0.040888123 0.20202145 -0.0762468 0.12931238 0.087436385 0.34540144
-0.304195 -0.010008149 -0.21706684 0.2996197 -0.15001573 0.22227515 0.20570363 -0.11480176
-0.021980729 0.27308393 -0.3139781 0.40686598 -0.08439462 -0.12312939 0.008513594 0.008095711
-0.32549834 -0.020858822 0.2969748 -0.18318984 0.2726656 -0.4039722 0.366872 -0.32486027
-0.2710481 -0.17274351 -0.17712413 -0.092488 -0.29080144 0.23555362 -0.05879089 0.39395785
0.40390676 -0.36029452 0.20662732 0.322176 0.16734394 -0.0006294529 -0.291752 0.42427504
0.12192285 0.33506858 -0.10666591 0.16254367 -0.20214407 -0.40283936 -0.0039675087 0.41327262
0.049690545 -0.4388167 -0.009477455 0.24857472 -0.33199376 0.42884514 0.25181323 -0.17376553
0.15206009 0.2733122 0.2996135 -0.009567089 -0.046348285 0.21291515 0.1173147 -0.12990363
0.035425406 -0.32506254 -0.3676823 0.360245 -0.42358208 -0.25864005 -0.3658921 0.13004245
0.30659023 -0.05229242 0.36224523 0.42123756 -0.04146666 -0.37314653 -0.23728766 -0.009970382
-0.12864673 -0.29128468 -0.12224314 -0.09154491 -0.27307117 -0.3688197 0.31873184 -0.09166257
0.087690964 -0.1902626 -0.32770944 -0.066076145 0.26201868 0.4040729 0.057641592 -0.27793723
-0.12642674 -0.1953714 -0.07851652 -0.009686033 -0.10138083 -0.1834638 -0.28217828 -0.09291645
00000000: bfde 7dbe b66b 303e eb4d 7e3e 820f c8be
00000010: b944 b03c 6cfd d2bd fa5c c7bc 4061 cbbe
00000020: 946e 97be 0c71 e5bd 2cb6 af3d 94a7 9e3e
00000030: c69d c53e 31d7 633d 47c0 f3bd 93f7 ccbe
00000040: c601 99be a3e0 a23e 118c 393e 6573 c8be
00000050: 0e48 74be 9c04 8abe 5817 4bbe 3991 773e
00000060: 75e8 22be 5b13 a73e a1e4 ae3e 67f7 52be
00000070: 5214 99bd 5ceb af3e fb7d 543e 8cbe 7b3d
00000080: ee00 69bd d5be 0abe 3c88 32bd af0b 5bbe
00000090: dca7 003e a619 c23e 584a 95bd 1b82 543e
000000a0: 1ea9 d33e 314e 943e a8f3 05be 79a8 c5be
000000b0: 784d 7bbe d341 c33d 5d6b 7cbe c486 93be
000000c0: 1b3d d03e 7fac 07be 8a95 89be b39c b43e
000000d0: 540a 96be bd17 cb3e 624e 6c3e 9cbe a2be
000000e0: 4e78 953e 66de 873e 1de7 54bd c6c7 e0be
000000f0: bda5 87bd c03e d13e a418 d2bd 60a1 0abd
00000100: a6c0 a33e b6e3 b1be 6a5c 38be 8059 e73d
00000110: 6d92 babe e1e5 823e d398 703e 93cd 2c3e
00000120: 3da7 21be 3a9f b5be a92f 023e dce9 af3e
00000130: 71e7 353e 726b abbe 61b1 b83e 2279 53be
00000140: 7283 ddbe 143a 4b3d 3de6 963e 290e c23e
00000150: 878f d2bd 31c3 9dbe a342 2f3c a453 1fbe
00000160: a3ac e9bc 5cbd d93d db9c ec3d 0b1a 51be
00000170: 36c2 803d 438d 0e3e 9404 9cbe 1589 a73d
00000180: d3a0 b53e f921 2ebe 513e 383e 06bd 103e
00000190: 9ea2 b03e ad9b 873e f7eb 9bbe 851a 12be
000001a0: 92da 8cbd 8ae7 54be f824 ac3e 6992 b5bc
000001b0: fb5e fabd 98bc b43e f316 22be 2437 94be
000001c0: 761b 583e 3e2e b03e 1d6e af3c d320 a4be
000001d0: 4602 e4bc 3446 d43e 198b 22bd 1b91 893e
000001e0: 6753 593e 07cc 6bbd 6b04 f43c 2a1d 8ebd
000001f0: 8692 98be 3552 73be 1578 813e 43e0 88be
00000200: 8ce7 64be 559c 83be e68a d53e 0974 01be
00000210: b6c1 54be e743 b83e 6171 213e baeb c6be
00000220: 1c45 d73e 5db3 633e 0ade f93d 041c 08bd
00000230: b5a3 e93d dcc6 15be 82f4 943e 472e e43d
00000240: 62ca c33e 2f25 f63d 4e7a 27bd b6de 4e3e
00000250: 4827 9cbd 776a 043e d911 b33d 75d8 b03e
00000260: 72bf 9bbe 38f9 23bc c546 5ebe c167 993e
00000270: b99d 19be 199c 633e f9a3 523e 2f1d ebbd
00000280: ee10 b4bc a8d1 8b3e bdc1 a0be bd50 d03e
00000290: 16d7 acbd 432b fcbd 9a7c 0b3c dfa3 043c
000002a0: b8a7 a6be 1fe0 aabc 150d 983e 1e96 3bbe
000002b0: d39a 8b3e 72d5 cebe a6d6 bb3e 1654 a6be
000002c0: d1c6 8abe ade3 30be 0760 35be 596a bdbd
000002d0: ede3 94be f834 713e b7ce 70bd d8b4 c93e
000002e0: decc ce3e 8678 b8be 1d96 533e 41f4 a43e
000002f0: 365c 2b3e de01 25ba 8560 95be 943a d93e
00000300: b0b2 f93d 1c8e ab3e a873 dabd d971 263e
00000310: dbfe 4ebe f640 cebe e001 82bb 7898 d33e
00000320: 5088 4b3d 95ac e0be 5447 1bbc 5f8a 7e3e
00000330: 16fb a9be 9791 db3e aaed 803e 97ef 31be
00000340: a4b5 1b3e 94ef 8b3e f166 993e 48bf 1cbc
00000350: b3d7 3dbd 6e06 5a3e b042 f03d 7505 05be
00000360: 3b1a 113d 996e a6be db40 bcbe 0872 b83e
00000370: c0df d8be 786c 84be 3656 bbbe d929 053e
00000380: 65f9 9c3e 9430 56bd 3578 b93e 73ac d73e
00000390: f2d8 29bd 100d bfbe 89fb 72be d05a 23bc
000003a0: f8bb 03be 4423 95be 9d5a fabd e67b bbbd
000003b0: fccf 8bbe f0d5 bcbe d230 a33e 96b9 bbbd
000003c0: 5297 b33d 33d4 42be 88c9 a7be ee52 87bd
000003d0: 5027 863e a5e2 ce3e 9719 6c3d ca4d 8ebe
000003e0: 0376 01be 710f 48be 45cd a0bd 2bb2 1ebc
000003f0: c1a0 cfbd efdd 3bbe ac79 90be fb4a bebd

attention_p.attn_1.bias f4 [16]
0.0015034577 -0.0065449183 0.0065836986 -0.0066079507 -0.0029344172 -0.0024271784 0.0061270604 -0.0066961762
0.0065855295 -0.0067100474 0.0068064136 -0.0064976886 0.006666104 0.0064392122 -0.006550696 -0.0066289073
00000000: ab0f c53a c176 d6bb 11bc d73b 8287 d8bb
00000010: 5a4f 40bb 4c11 1fbb 82c5 c83b 996b dbbb
00000020: 6dcb d73b f5df dbbb 5608 df3b 90ea d4bb
00000030: 556f da3b 0700 d33b 39a7 d6bb 4e37 d9bb

attention_p.attn_2.weight f4 [1, 16]
-0.44288006 -0.36085153 0.11787221 -0.16492663 -0.24967934 0.012099435 0.3638381 -0.26061273
0.25878122 -0.37069243 0.29129973 -0.18400474 0.2572979 0.42111754 -0.14299639 -0.29580262
00000000: 2dc1 e2be 88c1 b8be fc66 f13d 87e2 28be
00000010: f1ab 7fbe b53c 463c fd48 ba3e 086f 85be
00000020: f97e 843e 66cb bdbe 3d25 953e bd6b 3cbe
00000030: 8dbc 833e b89c d73e a56d 12be 7173 97be

lstm_t.weight_ih_l0 f4 [64, 7]
-0.16983934 -0.0685334 -0.006348804 -0.06812263 0.20674336 -0.19254781 0.20323978 0.009926974
0.22962472 0.070301756 -0.20389995 0.23430517 0.06621889 0.11593191 0.17326535 -0.05973786
0.03225735 -0.08702444 0.13094708 0.0068389643 0.08453792 -0.14510427 -0.10892159 -0.11276628
-0.15532057 0.18710016 -0.18592024 0.15091297 -0.2159468 0.20720151 -0.24909124 0.17556952
0.0046505285 -0.066224195 -0.13061886 0.15691276 0.07596908 0.12179148 0.0696807 0.038719237
0.20525168 0.109834366 0.215249 -0.177261 -0.03702087 -0.051032867 0.09875711 0.062415604
-0.14327322 0.12026229 -0.02425642 -0.16532288 0.24317297 -0.17180482 -0.10265783 0.22704372
-0.077660814 0.15312892 -0.06744139 -0.089729 0.23589107 -0.22897094 0.04184777 0.0037639618
-0.17008689 0.02962774 -0.09153477 0.06861618 -0.13129015 -0.17309111 -0.22264549 0.058223445
0.008771181 -0.057117045 -0.18415876 0.005425989 -0.1982006 0.06067167 -0.05302232 -0.14648286
0.0814284 -0.18796453 -0.010696454 0.124534026 0.1994088 -0.10301963 -0.22062929 0.15441549
0.024585893 -0.243713 -0.017546287 0.018817525 -0.057954147 0.16937932 0.049585912 -0.1382987
-0.027677558 0.005705848 -0.12898217 -0.1331301 -0.040455323 -0.03724547 -0.16969621 0.20143718
0.23992941 -0.16914819 0.13724297 -0.1826889 0.069404796 0.25289515 0.0426528 -0.18375579
-0.0067141117 -0.19419447 -0.20350745 -0.06806714 -0.1607939 0.09050626 0.057646517 -0.21745953
-0.036103804 0.23922086 0.18047012 0.1491929 0.1010614 -0.18726633 0.22089879 0.23914292
-0.05977343 -0.20739883 -0.034023866 0.00037160973 0.17987567 0.13499992 -0.20282106 -0.1431247
0.033999696 0.18289775 -0.017312648 -0.2503879 0.10853256 -0.055918448 0.065668605 0.106337614
0.11570069 0.009256025 0.075376 0.09185284 -0.08369435 0.071024716 0.17241196 -0.17571321
0.063239366 0.205569 0.11388722 -0.11302959 0.07184175 -0.0007542386 0.2138753 -0.13235642
0.12765512 0.024382647 0.025132012 0.0029541876 -0.20372407 0.10187778 -0.15434709 0.24252371
0.091760024 -0.11371417 0.20243625 0.18626654 0.23727383 0.12951015 0.059207074 -0.13570984
0.22519085 0.11637576 0.115430824 0.22466785 0.17069553 -0.13385347 0.17664173 0.085804105
-0.09965809 0.20591033 -0.09397583 -0.0768767 0.021879897 0.005235152 0.17602232 -0.12563014
-0.23943071 0.08113388 -0.17213045 -0.21927886 -0.19338737 -0.19280744 -0.08059838 -0.18074183
0.15200199 -0.112947054 0.15131369 -0.14185655 0.15746884 0.027509859 -0.23969014 -0.10407852
0.23526731 0.22424278 0.1755743 0.18538308 0.041659698 -0.21264736 -0.088018656 -0.19753197
0.11811586 0.15400185 0.08950941 0.21729493 -0.03281459 0.13845238 -0.010805845 -0.036537938
-0.16653284 -0.15977387 0.028371714 -0.13309768 0.029401707 -0.117926724 -0.03075621 -0.17673902
-0.18671502 0.11467609 0.19194224 -0.016521903 0.061144378 0.07438832 0.2027421 -0.03093082
0.23537345 0.01131115 0.15750623 -0.014091474 -0.11176938 0.0142390495 -0.20739578 0.05382241
-0.048638944 0.08933088 -0.21882811 0.1993868 -0.05667973 -0.026685413 0.034437176 0.21076052
00000000: 5dea 2dbe 3d5b 8cbd a109 d0bb e183 8bbd
00000010: 88b4 533e 412b 45be 171e 503e bfa4 223c
00000020: be22 6b3e 5efa 8f3d 26cb 50be b2ed 6f3e
00000030: c59d 873d b66d ed3d 796c 313e b0af 74bd
00000040: 4820 043d df39 b2bd fe16 063e 6419 e03b
00000050: 3822 ad3d 3796 14be 4812 dfbd 02f2 e6bd
00000060: 5b0c 1fbe 2f97 3f3e e061 3ebe ee88 1a3e
00000070: 2821 5dbe a22c 543e c611 7fbe 7fc8 333e
00000080: 7663 983b 8da0 87bd f3c0 05be bdad 203e
00000090: ad95 9b3d d06d f93d c1b4 8e3d 1098 1e3d
000000a0: 7f2d 523e d7f0 e03d 3c6a 5c3e e883 35be
000000b0: 32a3 17bd d707 51bd 2b41 ca3d 81a7 7f3d
000000c0: 37b6 12be 134c f63d 66b5 c6bc 674a 29be
000000d0: 5602 793e 9aed 2fbe 453e d2bd 267e 683e
000000e0: a20c 9fbd d4cd 1c3e b61e 8abd d7c3 b7bd
000000f0: 6e8d 713e 5c77 6abe 9168 2b3d cdac 763b
00000100: 422b 2ebe e0b5 f23c 9576 bbbd a486 8c3d
00000110: ed70 06be cc3e 31be 2efd 63be b57b 6e3d
00000120: 00b5 0f3c 90f3 69bd 1d94 3cbe 7fcc b13b
00000130: 19f5 4abe db82 783d ef2d 59bd 9aff 15be
00000140: efc3 a63d c679 40be 2e40 2fbc b20b ff3d
00000150: d231 4c3e f5fb d2bd a5ec 61be 181f 1e3e
00000160: 5b68 c93c e78f 79be 3bbd 8fbc 3627 9a3c
00000170: 5461 6dbd c671 2d3e 991a 4b3d 2d9e 0dbe
00000180: 0cbc e2bc 1ff8 ba3b e713 04be 4253 08be
00000190: 7bb4 25bd b58e 18bd d8c4 2dbe 8c45 4e3e
000001a0: 0eb0 753e 2f35 2dbe 6c89 0c3e cd12 3bbe
000001b0: 1a24 8e3d 797b 813e b4b4 2e3d 7a2a 3cbe
000001c0: 0d02 dcbb eada 46be 4264 50be c966 8bbd
000001d0: 28a7 24be 595b b93d c11e 6c3d b6ad 5ebe
000001e0: 95e1 13bd 50f6 743e 29cd 383e 06c6 183e
000001f0: 47f9 ce3d bfc2 3fbe 4b33 623e e2e1 743e
00000200: fcd4 74bd 5c60 54be 9c5c 0bbd 9dd4 c239
00000210: 5431 383e 6b3d 0a3e 53b0 4fbe 488f 12be
00000220: 4443 0b3d 8c49 3b3e 41d3 8dbc d832 80be
00000230: 5246 de3d be0a 65bd 437d 863d 89c7 d93d
00000240: 7cf4 ec3d 95a6 173c bb5e 9a3d 571d bc3d
00000250: f267 abbd 6875 913d c38c 303e 2aee 33be
00000260: a483 813d ae80 523e b43d e93d 0f7c e7bd
00000270: c421 933d 18b8 45ba 2002 5b3e 7188 07be
00000280: 06b8 023e 1ebe c73c a6e1 cd3c 0b9b 413b
00000290: 0b9d 50be 4ca5 d03d 2a0d 1ebe 2358 783e
000002a0: aeec bb3d fae2 e8bd 734b 4f3e a8bc 3e3e
000002b0: e9f7 723e 4f9e 043e 1e83 723d 85f7 0abe
000002c0: 6e98 663e 6a56 ee3d ff66 ec3d 540f 663e
000002d0: cfca 2e3e e210 09be 92e1 343e 10ba af3d
000002e0: 8a19 ccbd 28da 523e 6676 c0bd 8871 9dbd
000002f0: 783d b33c a38b ab3b 323f 343e 30a5 00be
00000300: 532d 75be 8529 a63d f742 30be a38a 60be
00000310: 5707 46be 506f 45be c310 a5bd 6314 39be
00000320: 69a6 1b3e c950 e7bd faf1 1a3e d842 11be
00000330: 833f 213e 5b5c e13c 5571 75be 1e27 d5bd
00000340: eae9 703e e69f 653e c0c9 333e 10d5 3d3e
00000350: 5ca3 2a3d 3bc0 59be 2043 b4bd d245 4abe
00000360: bae6 f13d a9b2 1d3e b650 b73d 9082 5e3e
00000370: 9768 06bd 76c6 0d3e 000b 31bc cea8 15bd
00000380: 9687 2abe c39b 23be cc6b e83c c24a 08be
00000390: d9db f03c 9183 f1bd 73f4 fbbc 13fb 34be
000003a0: 3932 3fbe 4cdb ea3d 828c 443e f158 87bc
000003b0: 8772 7a3d e758 983d a09b 4f3e a262 fdbc
000003c0: bd05 713e 6752 393c 5049 213e eddf 66bc
000003d0: 58e7 e4bd e74a 693c 8f5f 54be e374 5c3d
000003e0: a139 47bd 1cf3 b63d 7a14 60be 0e2c 4c3e
000003f0: 0129 68bd 5e9b dabc ff0d 0d3d 9bd1 573e
