Params/dataset1_150_0.001_10_16_222_model.pt (torch, 46587 bytes, 31 tensors)

lstm_p.weight_ih_l0 f4 [64, 10]
-0.09779675 -0.11654741 -0.039066665 -0.025550079 0.21556784 -0.13136117 0.07270652 0.17090608
-0.08262413 -0.09217134 0.11911334 0.028768362 0.008204499 0.23397739 -0.004117661 -0.131803
-0.010697248 0.046774935 0.053326655 0.08780487 0.019521488 0.034616355 -0.20903984 0.17545463
-0.14937925 -0.092620894 0.08122955 -0.041466206 0.16345932 0.093359336 0.2139694 0.07517771
0.06524198 0.061230462 -0.15692513 0.036026187 0.08712289 -0.050264996 -0.12985969 -0.14516924
0.15312982 -0.18376829 0.2616966 -0.029281668 0.05761113 0.15868782 0.1741757 0.06274001
-0.21240075 -0.0065289126 -0.09628902 -0.21940516 -0.07629379 0.11266976 0.023563795 0.21487667
-0.14652823 0.11203907 0.19185244 -0.16937207 0.22347966 0.11598194 -0.015859993 -0.054561045
-0.127405 0.21038474 0.086987056 -0.016185788 0.23803619 -0.12597333 -0.11575379 -0.1253423
0.2411408 -0.19498953 0.0033394292 -0.027144892 -0.04655201 -0.22085439 0.10814391 -0.04554659
-0.21632974 -0.025729017 -0.17986834 0.06050958 0.10532953 -0.12658314 0.20907357 0.030842477
-0.22826962 0.0135442745 0.010256844 0.123401955 -0.20797844 0.041536022 -0.14242998 0.03312617
-0.18665856 0.021101044 -0.21845207 0.06858392 0.045160055 0.17324814 0.24378373 0.0608934
-0.1114596 -0.09353012 0.12531039 0.120035745 -0.009039761 -0.17505457 -0.13076614 0.020906894
0.1078885 0.13302003 0.12750062 0.16295578 -0.022280468 0.13678077 0.06323263 0.22217992
0.15395686 0.0117833195 0.10371188 -0.077139854 -0.22449163 0.07268306 0.21702003 0.09980489
-0.007605945 -0.22973873 -0.20220882 0.095665246 0.076523684 0.15337673 0.13871211 -0.0147066675
-0.21541701 0.10251364 -0.19606629 0.058172118 -0.01912938 0.12537855 0.23276071 -0.0064822473
0.12150109 0.011988089 0.1259851 -0.11989074 -0.23643774 -0.09472581 0.024224235 0.117673494
0.15856522 0.0023882743 0.09582119 0.0066174986 0.22386423 0.09237219 0.022283763 -0.0046895365
0.06473481 -0.062185246 0.22414744 0.13330477 -0.09129479 0.087089464 -0.122305796 -0.21561728
-0.23447171 -0.2386609 -0.101018146 -0.10571305 -0.050618928 0.20017304 0.035991214 0.116560586
0.046092704 0.07393143 -0.023684088 -0.0010777729 0.24139601 0.18835568 -0.0030111463 0.06826573
0.12979265 0.12087148 0.13832001 -0.090280645 0.091514155 0.0045331637 0.09454006 -0.042823948
0.15666732 -0.16083944 0.14884841 0.074348226 0.13410252 0.0049459003 -0.11064687 0.0017589442
0.13399144 0.055131335 -0.2159784 -0.20133406 0.23656352 -0.15461087 -0.06582281 -0.16769822
0.08662011 -0.22019136 0.16456129 -0.16977094 -0.23772132 -0.046621487 0.046342514 -0.11844716
0.091000184 -0.2296757 0.20473297 -0.21769536 0.06198373 -0.03894399 -0.080510184 0.21316327
0.20924199 0.19580221 -0.15371023 -0.1821925 -0.21955891 0.12605736 -0.009142257 -0.13205057
-0.11774532 0.12094137 -0.055685382 0.026364414 -0.21310583 0.2174526 -0.07368676 0.09687771
-0.19049402 0.18717766 0.19786274 -0.14315069 -0.10428089 -0.1601066 0.22901665 0.1376449
0.10149032 0.10558684 -0.18732837 -0.12201032 -0.16167963 -0.07778269 -0.079447694 0.1372619
00000000: aa49 c8bd 69b0 eebd 5e04 20bd 664e d1bc
00000010: d1bd 5c3e 8b83 06be 28e7 943d 0102 2f3e
00000020: d736 a9bd 54c4 bcbd b2f1 f33d a1ab eb3c
00000030: 2a6c 063c c597 6f3e 72ed 86bb 5ef7 06be
00000040: 8343 2fbc 1397 3f3d 0d6d 5a3d 0ad3 b33d
00000050: 87eb 9f3c e1c9 0d3d 8a0e 56be 61aa 333e
00000060: e0f6 18be 06b0 bdbd ae5b a63d 78d8 29bd
00000070: e161 273e 2e33 bf3d cb1a 5b3e c5f6 993d
00000080: 969d 853d cbcc 7a3d fbb0 20be 3290 133d
00000090: 7c6d b23d abe2 4dbd f0f9 04be 3fa7 14be
000000a0: 10ce 1c3e c12d 3cbe 19fd 853e 1ce0 efbc
000000b0: a6f9 6b3d 0f7f 223e 1d5b 323e d67d 803d
000000c0: 957f 59be 7df0 d5bb 2d33 c5bd bfab 60be
000000d0: eb3f 9cbd 67bf e63d dc08 c13c a108 5c3e
000000e0: 7f0b 16be bd74 e53d f774 443e df6f 2dbe
000000f0: dad7 643e f087 ed3d d1ec 81bc 677b 5fbd
00000100: 7576 02be 196f 573e 4526 b23d 0f98 84bc
00000110: c2bf 733e 27ff 00be 5310 edbd bb59 00be
00000120: 9ded 763e 56ab 47be 53da 5a3b f75e debc
00000130: 52ad 3ebd a727 62be 8e7a dd3d 108f 3abd
00000140: 8b85 5dbe a9c5 d2bc 682f 38be e5d8 773d
00000150: 02b7 d73d 039f 01be 6217 563e 5da9 fc3c
00000160: 83bf 69be cee8 5d3c 520c 283c 2aba fc3d
00000170: 4df8 54be ad21 2a3d 2ad9 11be 4faf 073d
00000180: 6c23 3fbe 19dc ac3c e6b1 5fbe ba75 8c3d
00000190: c0f9 383d f667 313e 71a2 793e 5c6b 793d
000001a0: ee44 e4bd b88c bfbd 5e51 003e 4dd5 f53d
000001b0: 811b 14bc 8141 33be 8fe7 05be ef44 ab3c
000001c0: a5f4 dc3d 6736 083e 868f 023e e1dd 263e
000001d0: 8785 b6bc 4210 0c3e 1c80 813d 2283 633e
000001e0: dea6 1d3e d30e 413c e566 d43d 80fb 9dbd
000001f0: 22e1 65be dbda 943d 803a 5e3e 8266 cc3d
00000200: 4b3b f9bb a140 6bbe d40f 4fbe 24ec c33d
00000210: 73b8 9c3d ca0e 1d3e 8c0a 0e3e 3cf4 70bc
00000220: 4796 5cbe acf2 d13d 9ac5 48be e345 6e3d
00000230: 38b5 9cbc 3c63 003e d358 6e3e 0869 d4bb
00000240: 90d5 f83d b169 443c 3d02 013e 4789 f5bd
00000250: bc1c 72be 9bff c1bd e771 c63c cdfe f03d
00000260: ec5e 223e 9884 1c3b e63d c43d 9ad7 d83b
00000270: aa3c 653e a12d bd3d 708c b63c afaa 99bb
00000280: af93 843d f5b5 7ebd e886 653e 0c81 083e
00000290: c3f8 babd f65b b23d 767b fabd c7ca 5cbe
000002a0: 5a19 70be 8663 74be 9ae2 cebd 1580 d8bd
000002b0: cb55 4fbd 29fa 4c3e 866b 133d 51b7 ee3d
000002c0: b4cb 3c3d 5d69 973d 2205 c2bc 0f44 8dba
000002d0: 8430 773e 50e0 403e a756 45bb e7ce 8b3d
000002e0: 5de8 043e 778b f73d c3a3 0d3e 0fe5 b8bd
000002f0: c66b bb3d ef8a 943b 389e c13d 2a68 2fbd
00000300: 666d 203e 18b3 24be b86b 183e e243 983d
00000310: 2c52 093e 3811 a23b d49a e2bd 608c e63a
00000320: 0d35 093e 65d1 613d 7129 5dbe 842a 4ebe
00000330: b53d 723e 5052 1ebe 1cce 86bd 15b9 2bbe
00000340: e265 b13d d879 61be c182 283e 6fd8 2dbe
00000350: 386d 73be 2cf6 3ebd a6d1 3d3d 6d94 f2bd
00000360: 4e5e ba3d 1b30 6bbe 85a5 513e 88eb 5ebe
00000370: a7e2 7d3d bc83 1fbd 86e2 a4bd 7947 5a3e
00000380: 8843 563e 6080 483e 3766 1dbe ac90 3abe
00000390: 0dd4 60be 2e15 013e 68c9 15bc 4438 07be
000003a0: 7524 f1bd 1cb0 f73d 5b16 64bd 2ffa d73c
000003b0: 6a38 5abe e5ab 5e3e 16e9 96bd d267 c63d
000003c0: dd10 43be 80ab 3f3e 889c 4a3e 1896 12be
000003d0: 3891 d5bd fcf2 23be 5783 6a3e c9f2 0c3e
000003e0: 28da cf3d ea3d d83d 02d3 3fbe 8ce0 f9bd
000003f0: 588f 25be 884c 9fbd 79b5 a2bd 628e 0c3e

lstm_p.weight_hh_l0 f4 [64, 16]
-0.024449458 -0.01753457 0.0015588225 0.2513183 0.23640954 -0.16347362 0.05096637 0.053262375
0.14307904 -0.04879667 0.101621166 0.13247348 0.022769762 0.21085672 0.07688894 0.19048761
0.17720468 -0.23829922 -0.12395716 -0.043953836 0.16662146 -0.18743694 0.16783436 0.11119542
0.04598429 0.20876959 0.009604226 -0.17397541 0.12539482 -0.22026038 -0.21461506 0.07469246
0.19901735 -0.25031757 0.18254396 0.18632777 -0.15844578 -0.20725614 0.0054966547 0.1763725
0.035945058 -0.16716327 -0.07397075 -0.011053791 0.24813646 -0.10629676 -0.17714746 -0.061420236
-0.13711758 -0.027746253 0.022320325 -0.10132264 0.08584498 -0.23448613 0.16163884 0.075060286
0.12392891 -0.06971106 0.09345151 0.095457 0.024814615 -0.08777393 -0.07748385 0.15221418
0.200829 -0.011749566 -0.19037473 0.035251614 -0.23155165 0.08961528 -0.097273774 0.07974143
-0.14134556 0.11084491 -0.1805155 0.18504164 0.18504415 0.22664416 0.07785523 -0.15169631
-0.0034694022 0.15392809 -0.14383602 -0.18618256 0.09840498 -0.12911017 -0.21910307 0.17432795
0.15315899 -0.15365213 -0.10813411 0.04397197 -0.12026528 -0.21445875 0.113226354 0.0612469
-0.20732944 0.021880725 -0.0100735 -0.12594631 0.19023624 0.074000515 0.25421888 -0.020367716
-0.13977021 -0.015314018 -0.20182455 0.01940266 -0.21214512 0.18740442 -0.05652635 0.14433098
0.15946873 -0.21389683 0.24126536 -0.18087234 0.2344874 -0.08124591 0.050548475 0.08386821
0.2348075 0.17618945 0.14660387 0.05916958 -0.082167216 0.023571173 -0.014088776 0.16461249
-0.1846533 0.16051894 0.14857975 0.25135145 0.070615724 0.21611305 -0.16855697 -0.17961507
0.024594769 0.10597814 0.15982029 -0.20315485 -0.04052221 -0.15491162 0.002183736 -0.0036637401
-0.2067645 -0.03094208 -0.1563216 -0.0712544 0.028077438 0.15451747 0.0052812747 -0.13147746
-0.17933492 -0.08422261 0.03307724 -0.15477759 0.25129417 0.12357194 0.20303571 0.035859272
-0.17234047 0.15680322 -0.13269904 0.22345178 0.058448404 0.17225309 -0.2447558 -0.08526871
0.12272603 -0.15706454 0.19234149 0.009259252 -0.19519521 0.12048831 0.048318457 -0.11989157
-0.09249981 -0.018571286 -0.063092336 0.24920587 -0.20016482 -0.015228106 -0.18403566 -0.013144546
-0.13934205 0.23455733 -0.14142285 0.23010156 -0.008264312 0.021657351 -0.07641983 -0.029128736
-0.06341441 -0.11135688 -0.17498134 -0.058059145 -0.12634282 0.041141722 -0.021644847 -0.14229576
-0.24894959 -0.12865166 0.18936874 0.10752258 0.15137413 -0.05591654 0.18570615 0.18469223
-0.13077982 -0.12693173 0.12874755 0.15194747 -0.09697419 0.09236175 0.08474653 -0.10908115
-0.1996507 -0.072851844 -0.16792905 0.21464218 0.13838531 0.235987 0.14592664 0.09704887
0.025100285 0.18312323 0.103846565 0.026828812 0.17374839 0.19327146 -0.08941772 -0.05670327
-0.049400073 -0.19036259 -0.1698416 -0.20559485 0.016729347 -0.033099685 0.12514466 0.050119817
-0.12348506 0.066249326 -0.22781414 0.08879091 0.14846505 -0.15578113 0.03764401 -0.002652204
0.058726184 0.18756413 -0.15692838 -0.1707947 0.023647808 -0.21102636 -0.12156694 0.08809816
00000000: 3b4a c8bc a9a4 8fbc 6751 cc3a cbac 803e
00000010: 5815 723e a165 27be 1dc2 503d a629 5a3d
00000020: 5083 123e 04df 47bd c21e d03d 21a7 073e
00000030: a787 ba3c d3ea 573e f377 9d3d 2f0f 433e
00000040: 2575 353e b604 74be 40dd fdbd f008 34bd
00000050: d19e 2a3e 78ef 3fbe c5dc 2b3e 6dba e33d
00000060: 065a 3c3d b2c7 553e 0b5b 1d3c 9c26 32be
00000070: 8067 003e f08b 61be 0dc4 5bbe 5cf8 983d
00000080: 34cb 4b3e a029 80be ceec 3a3e b5cc 3e3e
00000090: 9c3f 22be f43a 54be 481d b43b fe9a 343e
000000a0: 203b 133d d92c 2bbe fa7d 97bd f61a 35bc
000000b0: 7c17 7e3e 1eb2 d9bd 2566 35be c993 7bbd
000000c0: 8d68 0cbe 1c4c e3bc 1dd9 b63c 3f82 cfbd
000000d0: 7ecf af3d 221d 70be a784 253e 35b9 993d
000000e0: 71ce fd3d acc4 8ebd 8163 bf3d f67e c33d
000000f0: 0548 cb3c d1c2 b3bd daaf 9ebd 09de 1b3e
00000100: 1ea6 4d3e 4081 40bc 98f1 42be ff63 103d
00000110: e01b 6dbe 3788 b73d 7937 c7bd 7a4f a33d
00000120: e4bc 10be a802 e33d 0ed9 38be 8e7b 3d3e
00000130: 377c 3d3e 6815 683e 9072 9f3d 4756 1bbe
00000140: e95e 63bb 539f 1d3e c049 13be a4a6 3ebe
00000150: 8d88 c93d 7535 04be 8e5c 60be 0783 323e
00000160: b6d5 1c3e fc56 1dbe 6b75 ddbd f41b 343d
00000170: a54d f6bd 139b 5bbe 38e3 e73d 08de 7a3d
00000180: 2b4e 54be 353f b33c 520b 25bc 12f8 00be
00000190: 4acd 423e 958d 973d fa28 823e 32da a6bc
000001a0: ec1f 0fbe a6e7 7abc 18ab 4ebe 54f2 9e3c
000001b0: 923c 59be f2e6 3f3e 2d88 67bd 80cb 133e
000001c0: c54b 233e c507 5bbe 440e 773e 9936 39be
000001d0: 771d 703e 4164 a6bd eb0b 4f3d 19c3 ab3d
000001e0: 6171 703e 026b 343e 531f 163e cd5b 723d
000001f0: 4947 a8bd 5518 c13c 9cd4 66bc 2d90 283e
00000200: c115 3dbe 145f 243e 4a25 183e 23b1 803e
00000210: fa9e 903d bd4c 5d3e 339a 2cbe 03ed 37be
00000220: f87a c93c 110b d93d eea7 233e d307 50be
00000230: 9efa 25bd 27a1 1ebe 031d 0f3b 5c1b 70bb
00000240: 13ba 53be 3f7a fdbc c512 20be d4ed 91bd
00000250: a802 e63c d439 1e3e 8b0e ad3b 07a2 06be
00000260: 93a3 37be e77c acbd 007c 073d 047e 1ebe
00000270: a1a9 803e 4913 fd3d 98e8 4f3e 2ce1 123d
00000280: 057a 30be 0691 203e 42e2 07be 8bd0 643e
00000290: 9867 6f3d 1d63 303e 44a1 7abe 5da1 aebd
000002a0: c957 fb3d 87d5 20be 2bf5 443e 1eb4 173c
000002b0: 41e1 47be 93c2 f63d 93e9 453d b689 f5bd
000002c0: 8a70 bdbd cf22 98bc 8e36 81bd d32f 7f3e
000002d0: 02f8 4cbe 4e7f 79bc d873 3cbe 395c 57bc
000002e0: afaf 0ebe cc2f 703e 27d1 10be be9f 6b3e
000002f0: 0967 07bc c26a b13c 0082 9cbd 639f eebc
00000300: 6adf 81bd 130f e4bd 4f2e 33be 6dcf 6dbd
00000310: 0360 01be 3984 283d 8950 b1bc fbb5 11be
00000320: a4ec 7ebe 43bd 03be e1e9 413e cc34 dc3d
00000330: d201 1b3e be08 65bd c129 3e3e f61f 3d3e
00000340: 25eb 05be 64fa 01be 66d6 033e 1e98 1b3e
00000350: 679a c6bd 2828 bd3d 978f ad3d f065 dfbd
00000360: 3c71 4cbe 5933 95bd 98f5 2bbe 29cb 5b3e
00000370: e1b4 0d3e 93a6 713e cb6d 153e 8fc1 c63d
00000380: 1d9f cd3c a884 3b3e 82ad d43d 19c8 db3c
00000390: 19eb 313e f4e8 453e a320 b7bd b041 68bd
000003a0: bb57 4abd 69ee 42be f5ea 2dbe 7587 52be
000003b0: fc0b 893c 8993 07bd ec25 003e 704a 4d3d
000003c0: bce5 fcbd baad 873d 1c48 69be 02d8 b53d
000003d0: 3907 183e 1785 1fbe 9b30 1a3d 99d0 2dbb
000003e0: de8a 703d d010 403e d5b1 20be cee4 2ebe
000003f0: 0cb9 c13c 4b17 58be 16f8 f8bd cf6c b43d

lstm_p.bias_ih_l0 f4 [64]
-0.030021947 -0.21241833 -0.17832883 -0.085803024 0.1380318 -0.06607039 0.025608568 -0.19775301
0.18202381 -0.2561708 0.08719752 0.04740727 0.22567827 -0.15104678 0.12882805 0.13157487
-0.16379169 0.19300202 -0.16933538 -0.16720867 -0.21866734 0.18459111 0.07721733 -0.0064268196
0.0040298305 0.17217968 -0.043036375 0.027762676 -0.13908538 -0.18444782 -0.2375819 0.13613178
-0.094965294 -0.13224036 0.17031226 0.22227785 0.021432374 -0.08238772 -0.22720133 -0.21211669
0.122596 -0.1546499 -0.22115073 -0.1882381 -0.062722534 0.11547913 0.16324118 -0.05573266
0.18964806 0.20313872 0.115456305 0.24031131 -0.2541709 0.056975793 -0.1821815 -0.014104451
0.05392304 0.07254735 -0.047421355 0.039112605 -0.1519438 0.17608139 -0.104591236 -0.15181127
00000000: 96f0 f5bc 3184 59be d59b 36be 7fb9 afbd
00000010: 3558 0d3e ea4f 87bd 0fc9 d13c c47f 4abe
00000020: 7364 3a3e d228 83be 9d94 b23d 202e 423d
00000030: 3418 673e 02ac 1abe 80eb 033e 90bb 063e
00000040: 02b9 27be 52a2 453e 4166 2dbe c038 2bbe
00000050: 55ea 5fbe 7405 3d3e 1f24 9e3d 1298 d2bb
00000060: ab0c 843b df4f 303e e946 30bd 8d6e e33c
00000070: 666c 0ebe e4df 3cbe ab48 73be 2166 0b3e
00000080: 2a7d c2bd 046a 07be 5666 2e3e ce9c 633e
00000090: f292 af3c e5ba a8bd 77a7 68be 1e35 59be
000000a0: 9d13 fb3d 8b5c 1ebe 5675 62be 7dc1 40be
000000b0: ac74 80bd 5280 ec3d b228 273e ee47 64bd
000000c0: 1a33 423e 9903 503e 5b74 ec3d 2b14 763e
000000d0: b022 82be 735f 693d ca8d 3abe 5b16 67bc
000000e0: 68de 5c3d b493 943d e53c 42bd 8a34 203d
000000f0: 2897 1bbe ae4e 343e ee33 d6bd 6a74 1bbe

lstm_p.bias_hh_l0 f4 [64]
-0.25316232 -0.024253165 -0.088625655 0.08812297 -0.02564898 0.047906235 -0.16876361 0.22229362
-0.018183947 -0.20024791 0.17283896 0.007803864 -0.020044101 -0.12664035 -0.08129607 0.047542978
0.11193627 -0.24720043 0.03476964 0.065061115 0.12766232 0.07378589 0.08042096 0.19956023
-0.07813762 0.022868332 -0.10061677 0.040396444 -0.11912541 0.08481092 0.021738742 0.0125817
-0.23213255 0.16226101 -0.23124915 0.05168157 -0.14235131 -0.16483633 -0.0032803304 -0.16117033
-0.12117178 -0.15649663 0.16345918 -0.074117005 0.08529901 -0.04571444 -0.20065275 0.12813866
-0.13280356 0.13522945 -0.21332408 -0.24254994 0.06785517 -0.065451786 -0.13232088 0.2317954
0.22651659 -0.24638824 0.18553147 0.118039615 -0.082022265 -0.093021005 0.06954642 -0.050648715
00000000: 7e9e 81be 93ae c6bc 5e81 b5bd d179 b43d
00000010: cf1d d2bc 5439 443d 5ed0 2cbe f0a0 633e
00000020: 80f6 94bc ca0d 4dbe b2fc 303e 8eb7 ff3b
00000030: 8733 a4bc 02ae 01be 8e7e a6bd 6dbc 423d
00000040: d83e e53d 1c22 7dbe 9c6a 0e3d c33e 853d
00000050: e9b9 023e 0f1d 973d bfb3 a43d 8459 4c3e
00000060: 9e06 a0bd 5e56 bb3c 2a10 cebd be76 253d
00000070: 06f8 f3bd 59b1 ad3d 7215 b23c 7a23 4e3c
00000080: 28b4 6dbe c027 263e 94cc 6cbe 0eb0 533d
00000090: 8bc4 11be dbca 28be d0fa 56bb d609 25be
000000a0: e928 f8bd a740 20be d861 273e a8ca 97bd
000000b0: 3fb1 ae3d 113f 3bbd ea77 4dbe c836 033e
000000c0: a8fd 07be 9779 0a3e a171 5abe 035f 78be
000000d0: a7f7 8a3d 960b 86bd 207f 07be c65b 6d3e
000000e0: f7f3 673e 334d 7cbe f6fb 3d3e c1be f13d
000000f0: 4afb a7bd cc81 bebd 5a6e 8e3d 0775 4fbd

lstm_p.weight_ih_l1 f4 [64, 16]
-0.04627163 0.07964559 0.21621309 0.01208875 -0.17740646 0.10463187 0.22013056 0.21429151
0.21698014 -0.10279234 -0.13142143 0.12762803 0.084113516 0.19341925 -0.088271424 -0.10204859
-0.040291652 0.18859194 0.079638585 0.2367016 -0.13621645 -0.067570955 0.14403248 -0.06669403
0.20458817 -0.054816566 0.17687367 0.15616974 0.040588636 -0.061538007 -0.15106216 -0.1296494
-0.14050569 -0.19313288 0.19150804 0.092688486 -0.081667006 0.19792025 0.021378158 0.004797286
0.1529948 0.23123549 0.15720464 -0.09268747 -0.22260402 -0.10465825 -0.051789384 0.09998017
0.13259678 -0.24303763 0.21589956 0.24817519 -0.07038341 0.1932556 0.114740096 -0.14772396
-0.10254501 -0.2042325 0.2119577 0.18659577 0.18518217 0.1337483 0.14980602 0.16227743
-0.07372264 -0.095097505 0.1978478 -0.080622226 0.12880471 -0.11503906 -0.21974316 -0.18896061
0.21317682 0.2094433 -0.23261103 0.020602915 0.2319345 -0.15014148 -0.0069085746 0.120431714
0.15850468 -0.08179843 -0.069648616 0.05013692 0.034386557 -0.042863242 0.21967468 -0.14627519
-0.11198498 0.21498625 -0.00089819165 -0.016956897 0.12787902 0.1036768 -0.0027096048 0.10636616
0.10456467 -0.090088956 0.15406148 0.16793731 -0.23812559 -0.16816618 0.18487151 0.01893109
0.117530726 0.08570483 -0.106800824 -0.08786438 -0.18912326 -0.16609941 0.20987199 -0.21107166
0.11459438 0.115447596 0.22549117 -0.2451392 0.11546047 0.0954456 0.159706 0.23843859
0.113978766 0.061458528 -0.052982308 -0.2151566 0.10116081 -0.10121055 0.1265683 -0.21001181
-0.021732869 0.1595157 0.029539404 -0.0369 0.0679009 0.08389342 -0.2019181 -0.02294482
0.111836575 0.19983329 0.14674355 0.037010934 0.19038641 0.16319264 -0.057181757 0.02810708
-0.06093878 -0.10093904 0.18461135 0.10741178 0.2144175 0.097736284 -0.11799046 -0.0085334005
0.04128357 0.030362986 -0.19879426 -0.04947146 -0.042816784 -0.21382742 -0.18092225 0.19560646
-0.23524885 0.04328616 0.012602789 -0.21905474 -0.19054668 -0.02566217 -0.2550817 0.0288471
0.14434105 -0.122770146 0.032349672 -0.014634801 0.23508114 -0.018059455 -0.115600966 -0.013494659
-0.121607244 -0.13225573 -0.09752212 0.0286192 0.2279822 -0.18208072 0.03598519 0.12057788
0.23462993 0.16730297 0.17065555 -0.21176185 0.20892012 -0.20565331 0.070655085 0.06420968
0.08467093 -0.018639635 -0.009576784 -0.103091314 0.19914302 -0.14820229 -0.23597206 0.2511282
-0.1249243 -0.1945825 -0.17556211 -0.12149707 0.1649666 -0.20573986 -0.23850797 0.17334317
-0.21415368 -0.17382787 -0.012414627 -0.21524324 0.19808544 0.12914245 0.23444666 -0.15411726
-0.18546486 -0.12260772 0.12557918 0.2054472 -0.1628438 0.10879057 0.13873658 0.20355052
0.079179615 0.21799949 -0.1333791 0.14342923 -0.23282751 0.114426 -0.008345834 -0.22700344
-0.015687132 0.1722414 -0.019312646 0.14465578 0.116621524 -0.17470609 -0.11116485 0.19233541
0.122121856 0.14999025 0.032615073 -0.013127485 0.083543114 -0.01964671 -0.05123371 -0.21665108
-0.083202355 0.012193937 0.046151225 0.12964916 0.070228614 -0.022825463 0.14722888 0.09187747
00000000: 5287 3dbd 3a1d a33d f766 5d3e e40f 463c
00000010: 0aaa 35be 3c49 d63d e869 613e 3c6f 5b3e
00000020: 0b30 5e3e ca84 d2bd 5793 06be ecb0 023e
00000030: b543 ac3d b20f 463e a6c7 b4bd dafe d0bd
00000040: dc08 25bd 3f1e 413e 8e19 a33d e761 723e
00000050: 537c 0bbe a462 8abd 407d 133e e196 88bd
00000060: 907f 513e 5687 60bd 5f1e 353e f6ea 1f3e
00000070: 4540 263d 470f 7cbd 0ab0 1abe d0c2 04be
00000080: b9e0 0fbe a0c4 45be af1a 443e 76d3 bd3d
00000090: 0841 a7bd 9bab 4a3e 3f21 af3c 8d32 9d3b
000000a0: abaa 1c3e ffc8 6c3e 41fa 203e eed2 bdbd
000000b0: 4ff2 63be 1157 d6bd 1b21 54bd 67c2 cc3d
000000c0: 73c7 073e dbde 78be c614 5d3e a321 7e3e
000000d0: 2d25 90bd cce4 453e dbfc ea3d f344 17be
000000e0: 1e03 d2bd 5322 51be 700b 593e f612 3f3e
000000f0: 65a0 3d3e 50f5 083e c066 193e 0e2c 263e
00000100: e5fb 96bd 7bc2 c2bd 9d98 4a3e 441d a5bd
00000110: 62e5 033e 9999 ebbd 5a04 61be e47e 41be
00000120: 064b 5a3e 4e78 563e 9631 6ebe 72c7 a83c
00000130: 3d80 6d3e b0be 19be 5361 e2bb e7a4 f63d
00000140: 0d4f 223e ef85 a7bd efa3 8ebd 5f5c 4d3d
00000150: ebd8 0c3d 5e91 2fbd 66f2 603e 2ac9 15be
00000160: 6258 e5bd 5b25 5c3e 9f74 6bba 31e9 8abc
00000170: b8f2 023e 8154 d43d a093 31bb 80d6 d93d
00000180: 0026 d63d 8f80 b8bd 4bc2 1d3e c2f7 2b3e
00000190: 32d7 73be c133 2cbe f54e 3d3e 6015 9b3c
000001a0: f3b3 f03d 0486 af3d 64ba dabd 3df2 b3bd
000001b0: 87a9 41be f715 2abe afe8 563e 2b23 58be
000001c0: 75b0 ea3d ca6f ec3d 28e7 663e c505 7bbe
000001d0: 8a76 ec3d fc78 c33d f889 233e 3f29 743e
000001e0: b36d e93d f0bb 7b3d fa03 59bd 0352 5cbe
000001f0: 662d cf3d 7a47 cfbd 1f9b 013e 560d 57be
00000200: 2109 b2bc 1558 233e 9ffc f13c 7424 17bd
00000210: a10f 8b3d 50d0 ab3d 9ec3 4ebe c6f6 bbbc
00000220: 930a e53d 19a1 4c3e f143 163e c798 173d
00000230: a8f4 423e f91b 273e 6b37 6abd d240 e63c
00000240: f19a 79bd 21b9 cebd c20a 3d3e b5fa db3d
00000250: 4390 5b3e f629 c83d fba4 f1bd adcf 0bbc
00000260: f618 293d ccbb f83c b990 4bbe 96a2 4abd
00000270: a760 2fbd 93f5 5abe af43 39be 0f4d 483e
00000280: 13e5 70be d44c 313d ee7b 4e3c e34f 60be
00000290: ab1e 43be 7939 d2bc 129a 82be c150 ec3c
000002a0: 24ce 133e ea6e fbbd 1781 043d cec6 6fbc
000002b0: 1cb9 703e 6cf1 93bc 33c0 ecbd b418 5dbc
000002c0: 380d f9bd 0c6e 07be adb9 c7bd d072 ea3c
000002d0: 2a74 693e 5e73 3abe 3565 133d 89f1 f63d
000002e0: d442 703e 7851 2b3e 54c0 2e3e 19d8 58be
000002f0: 28ef 553e c896 52be 9db3 903d 5d80 833d
00000300: f467 ad3d 26b2 98bc f2e7 1cbc 8a21 d3bd
00000310: 26ec 4b3e 57c2 17be a9a2 71be e093 803e
00000320: 50d8 ffbd a340 47be 8ec6 33be 75d3 f8bd
00000330: 01ed 283e 78ad 52be 6f3b 74be df80 313e
00000340: 1a4b 5bbe efff 31be b866 4bbc b968 5cbe
00000350: e9d6 4a3e eb3d 043e c912 703e ead0 1dbe
00000360: 80ea 3dbe c219 fbbd d497 003e c060 523e
00000370: 86c0 26be 97cd de3d f610 0e3e 8c6f 503e
00000380: ec28 a23d 423b 5f3e 8894 08be 1ddf 123e
00000390: 566a 6ebe 2e58 ea3d f7bc 08bc 9773 68be
000003a0: 4d82 80bc 0d60 303e 8e35 9ebc a520 143e
000003b0: 44d7 ee3d 27e6 32be 66aa e3bd 93f3 443e
000003c0: 061b fa3d 0b97 193e 6297 053d aa14 57bc
000003d0: a718 ab3d 23f2 a0bc 70da 51bd c8d9 5dbe
000003e0: ff65 aabd 14c9 473c 1109 3d3d c0c2 043e
000003f0: 05d4 8f3d 77fc babc 2bc3 163e 412a bc3d

lstm_p.weight_hh_l1 f4 [64, 16]
0.19287966 -0.14568067 0.24408637 -0.11141463 -0.04964077 -0.18864101 0.064328924 0.19329543
-0.07958537 0.16112374 -0.017497472 0.2385557 -0.14973786 0.005849799 0.18709463 -0.20331244
0.122191735 -0.23985498 0.21136034 0.09631603 0.04781124 -0.23134932 0.25460172 0.17985825
0.23303325 -0.2105795 0.22248666 0.032469723 0.15054171 -0.2508083 -0.135239 0.015023309
0.14048247 -0.24058188 0.13697343 0.11713347 -0.17383993 0.2060227 -0.12504466 0.08859797
-0.17609988 -0.15262577 -0.046549708 -0.07603505 0.049216725 -0.055213764 -0.12986258 0.23647395
-0.012629942 -0.21255557 0.19872333 0.20667906 -0.1299673 0.1698431 -0.10701679 -0.19043423
-0.25782365 -0.13414173 0.12415614 0.25829938 0.23296054 -0.02230086 -0.048830792 0.0069680954
0.21259136 -0.18639879 -0.14481488 -0.005165572 -0.22388527 0.12807629 -0.16360994 -0.06931232
-0.13682327 -0.015345459 0.22116487 -0.084810026 -0.09547121 0.12815571 -0.023845786 -0.012529416
0.20244838 0.07692706 -0.025701435 0.22098055 -0.25082237 0.2098758 -0.08524689 0.17061126
-0.07464206 -0.20570052 -0.008304427 0.22122169 0.027930077 -0.20214275 0.16303304 0.24167153
0.21843222 -0.13438603 -0.19070852 -0.25345185 -0.0439605 0.061527785 -0.25499588 0.0074954825
0.030639837 0.1759552 0.17180651 0.11279244 -0.014670028 0.24453804 -0.012690182 -0.050851244
-0.12998597 0.06338651 -0.1682473 0.10238118 -0.21813881 0.024556182 -0.012375926 -0.17099907
0.20103173 0.19532563 0.15812214 0.19152375 -0.009686168 -0.14622948 -0.0544026 -0.14990366
-0.12849161 0.033067368 -0.079402976 0.2514089 0.16116855 0.2500975 0.11424512 0.14293803
-0.12881443 0.19440831 0.19078968 0.07981037 0.08016063 -0.21707712 -0.011876111 0.21125127
-0.10043408 0.19138533 -0.107920565 -0.16367058 0.14031346 0.13052587 0.08618746 -0.10655184
0.16429137 -0.104345985 0.13570315 0.21882142 -0.12156941 0.18970752 0.16551226 0.07081139
-0.102025405 -0.06137594 0.13629259 0.09837256 0.0065847803 -0.096091405 0.02255766 0.25003907
0.193371 -0.16420437 0.25308993 0.1582518 0.25926328 -0.060777325 0.07780568 -0.04443702
-0.13278791 -0.06724363 -0.13718402 0.077456936 -0.051708825 -0.19441858 -0.070890345 -0.013188724
-0.11861556 -0.14975925 -0.24656202 0.13450539 0.12769575 -0.24950078 0.110514954 -0.19973554
-0.1123513 -0.16294786 -0.07503299 -0.14068882 0.0011706898 0.0382052 -0.111704655 0.16189685
-0.10140283 -0.07272153 0.07033706 0.14104196 0.18210122 0.11628398 0.027770564 -0.023925243
-0.16828564 0.19289368 -0.006491487 0.17345555 0.12947163 0.14316377 -0.18623978 0.13720994
0.23022893 -0.23426807 0.18595538 -0.13676772 -0.13052188 -0.21208683 -0.24162972 -0.16103776
-0.18941477 -0.008824681 -0.13185605 -0.007270535 0.17137359 0.20499781 -0.20162411 0.19589813
-0.026442412 -0.09841424 0.2618984 -0.19385126 -0.13182944 0.120165646 0.11509417 0.12213543
-0.21947448 -0.16506839 -0.18340355 0.16995297 0.11050066 -0.028536463 0.16759126 0.01603858
-0.23405191 -0.07417116 0.1309628 -0.043821543 0.10817542 0.06532518 -0.047104716 -0.19127621
00000000: 3f82 453e 502d 15be c7f1 793e 5b2d e4bd
00000010: 1f54 4bbd 1c2b 41be e2be 833d 3def 453e
00000020: a8fd a2bd 9ffd 243e dc56 8fbc f247 743e
00000030: e254 19be acaf bf3b bc95 3f3e 2331 50be
00000040: a93f fa3d 8b9c 75be d86e 583e 5741 c53d
00000050: b8d5 433d d6e6 6cbe 285b 823e c32c 383e
00000060: 45a0 6e3e 27a2 57be 8bd3 633e f9fe 043d
00000070: 9b27 1a3e f269 80be 187c 0abe 5324 763c
00000080: a3da 0f3e 195b 76be c342 0c3e ace3 ef3d
00000090: 1803 32be 9df7 523e b50b 00be da72 b53d
000000a0: 8753 34be ee49 1cbe e8aa 3ebd 44b8 9bbd
000000b0: 7a97 493d d427 62bd b2fa 04be 3a26 723e
000000c0: d1ed 4ebc 2ba8 59be 217e 4b3e ada3 533e
000000d0: 2616 05be 59eb 2d3e 9e2b dbbd 3101 43be
000000e0: 7601 84be 735c 09be 9345 fe3d d13f 843e
000000f0: 358d 6e3e 4bb0 b6bc cc02 48bd 9f54 e43b
00000100: 8db1 593e 53df 3ebe 5a4a 14be f543 a9bb
00000110: 2e42 65be 6e26 033e 5d89 27be 9ef3 8dbd
00000120: 661b 0cbe 856b 7bbc 0b79 623e e1b0 adbd
00000130: 6986 c3bd 403b 033e 3d58 c3bc 2e48 4dbc
00000140: a14e 4f3e ef8b 9d3d d18b d2bc ba48 623e
00000150: ca6b 80be afe9 563e ec95 aebd b8b4 2e3e
00000160: f0dd 98bd 28a3 52be 4b0f 08bc f087 623e
00000170: 9ecd e43c 82fe 4ebe 22f2 263e be78 773e
00000180: b2ac 5f3e 7e9c 09be 1849 43be 71c4 81be
00000190: ed0f 34bd 8f04 7c3d d28e 82be aa9c f53b
000001a0: 6500 fb3c 9a2d 343e 0cee 2f3e b9ff e63d
000001b0: 8f5a 70bc 2e68 7a3e 7bea 4fbc 6549 50bd
000001c0: 0b1b 05be c9d0 813d 0549 2cbe 39ad d13d
000001d0: c85f 5fbe 0c2a c93c 65c4 4abc 611a 2fbe
000001e0: 43db 4d3e 7103 483e c5ea 213e cd1e 443e
000001f0: bcb2 1ebc 2ebd 15be 43d5 5ebd 5880 19be
00000200: 4e93 03be a671 073d 079e a2bd abb8 803e
00000210: 5e09 253e c80c 803e 58f9 e93d 595e 123e
00000220: eee7 03be f912 473e 5f5e 433e 9f73 a33d
00000230: 422b a43d 7749 5ebe 0594 42bc 4152 583e
00000240: 62b0 cdbd 84fa 433e 7505 ddbd 4399 27be
00000250: 55ae 0f3e 93a8 053e 0d83 b03d da37 dabd
00000260: ff3b 283e 59b3 d5bd c4f5 0a3e b912 603e
00000270: 62f9 f8bd b042 423e 0c7c 293e 9005 913d
00000280: b2f2 d0bd 5665 7bbd 4990 0b3e 8e77 c93d
00000290: 24c5 d73b 92cb c4bd d7ca b83c 1f05 803e
000002a0: 0c03 463e 3125 28be 0195 813e c30c 223e
000002b0: 28be 843e a5f1 78bd 9658 9f3d 9803 36bd
000002c0: 8ef9 07be 07b7 89bd f879 0cbe bea1 9e3d
000002d0: a2cc 53bd aa15 47be f52e 91bd 8515 58bc
000002e0: b7ec f2bd 7d5a 19be c17a 7cbe c8bb 093e
000002f0: adc2 023e 227d 7fbe aa55 e23d 7987 4cbe
00000300: 7018 e6bd cedb 26be e5aa 99bd bb10 10be
00000310: d571 993a 0e7d 1c3d 69c5 e4bd 4ac8 253e
00000320: 49ac cfbd 07ef 94bd e00c 903d 4e6d 103e
00000330: be78 3a3e 4c26 ee3d 187f e33c dffe c3bc
00000340: 1253 2cbe ec85 453e 8ab6 d4bb 559e 313e
00000350: 3694 043e 8699 123e a4b5 3ebe c380 0c3e
00000360: 22c1 6b3e f8e3 6fbe 166b 3e3e d60c 0cbe
00000370: 87a7 05be 4a2d 59be c86d 77be 15e7 24be
00000380: f2f5 41be 6595 10bc 4605 07be ab3d eebb
00000390: 8f7c 2f3e f2ea 513e 8d76 4ebe 8599 483e
000003a0: c29d d8bc 688d c9bd 8c17 863e f280 46be
000003b0: 4cfe 06be 6819 f63d 7eb6 eb3d 2422 fa3d
000003c0: ebbd 60be b007 29be 24ce 3bbe 2708 2e3e
000003d0: 2c4e e23d 4dc5 e9bc 0b9d 2b3e 5763 833c
000003e0: 4eab 6fbe 0de7 97bd 1d1b 063e 387e 33bd
000003f0: 138b dd3d 35c9 853d e0f0 40bd e9dd 43be

lstm_p.bias_ih_l1 f4 [64]
-0.07088684 0.009607392 0.023788696 -0.24032854 -0.25198576 0.06544569 -0.13830107 0.1851386
0.06065163 0.057182707 -0.24450259 0.09076114 -0.039325718 -0.04880109 -0.2026311 -0.25246507
0.17273854 -0.15818235 0.03406101 -0.18122418 -0.1966647 0.11728852 0.06339886 -0.12202703
0.10806172 -0.15063468 -0.17446372 0.030134033 0.01834074 -0.20914228 -0.15240881 -0.14069334
-0.06845669 0.13227792 -0.2254616 0.17034113 0.019498682 -0.022449909 -0.13630956 -0.20568532
-0.0846906 0.12478256 -0.1961486 0.21988225 -0.16298626 0.15120858 -0.22359559 -0.23422995
-0.09513036 0.18673623 0.10339616 -0.15211473 0.0631038 -0.12339744 0.21684746 0.23255956
0.0033353104 0.16699697 -0.0931202 0.091539636 0.12876417 0.1063548 0.069941066 0.22895801
00000000: 1f2d 91bd 5368 1d3c 83e0 c23c af18 76be
00000010: 4704 81be 6408 863d cc9e 0dbe f994 3d3e
00000020: d86d 783d 6a38 6a3d e35e 7abe fae0 b93d
00000030: 0114 21bd a7e3 47bd 877e 4fbe 1a43 81be
00000040: 5fe2 303e 8efa 21be 8f83 0b3d d592 39be
00000050: 7962 49be f734 f03d 43d7 813d 4fe9 f9bd
00000060: 774f dd3d fa3f 1abe 9ea6 32be a6db f63c
00000070: 523f 963c 6529 56be 0e11 1cbe ea11 10be
00000080: 0533 8cbd dd73 073e 68df 66be e86d 2e3e
00000090: b3bb 9f3c dfe8 b7bc bc94 0bbe 2c9f 52be
000000a0: 4472 adbd 008e ff3d 2edb 48be d028 613e
000000b0: dfe5 26be 6cd6 1a3e 3ef6 64be fad9 6fbe
000000c0: b5d3 c2bd c837 3f3e 5ec1 d33d f7c3 1bbe
000000d0: 913c 813d ccb7 fcbd 430d 5e3e 1824 6e3e
000000e0: 3995 5a3b 4101 2b3e ceb5 bebd 2279 bb3d
000000f0: c1da 033e 8cd0 d93d 433d 8f3d f873 6a3e

lstm_p.bias_hh_l1 f4 [64]
0.073424764 0.1663323 0.10771854 0.010525215 -0.05771999 0.19155836 0.21388182 0.2102594
0.0631791 0.13951856 -0.14758544 -0.15232491 0.034794 -0.21329178 -0.13119347 0.13964343
-0.122441806 -0.16467327 -0.2366055 0.15413617 0.16036959 0.1843186 -0.04657266 -0.12844844
0.2244542 -0.16036299 0.2014974 0.053096693 -0.109500974 0.09226479 -0.14588442 0.019032171
0.20072867 -0.053394213 0.06256759 0.16379839 -0.07206509 0.15485907 0.18204165 0.031222384
0.18803623 0.20974061 -0.17757133 0.11528882 -0.0012356557 -0.087545395 0.19669646 0.025428144
-0.01125373 0.10191791 0.054297525 0.014808091 0.102349825 -0.018983928 -0.20541121 0.097360544
-0.04690799 -0.12034784 -0.1535801 0.12536341 0.08912195 -0.21088114 -0.17779951 -0.04299519
00000000: b95f 963d 0453 2a3e 8a9b dc3d f471 2c3c
00000010: cc6b 6cbd e027 443e d603 5b3e 3d4e 573e
00000020: 0b64 813d f4dd 0e3e a320 17be 10fb 1bbe
00000030: 2784 0e3d 2969 5abe 9557 06be b0fe 0e3e
00000040: c5c2 fabd 1ca0 28be b648 72be dfd5 1d3e
00000050: ed37 243e 04be 3c3e f9c2 3ebd fd87 03be
00000060: 52d7 653e 3236 24be 5655 4e3e eb7b 593d
00000070: 0c42 e0bd 52f5 bc3d ba62 15be 5be9 9b3c
00000080: d18b 4d3e e4b3 5abd 7023 803d c4ba 273e
00000090: dd96 93bd 6093 1e3e 2069 3a3e 16c6 ff3c
000000a0: 928c 403e 3ec6 563e 42d5 35be 8b1c ec3d
000000b0: baf5 a1ba 004b b3bd cc6a 493e af4e d03c
000000c0: 9161 38bc 56ba d03d 1567 5e3d a39d 723c
000000d0: c99c d13d 2f84 9bbc 5157 52be f764 c73d
000000e0: 9822 40bd ee78 f6bd 1a44 1dbe 445f 003e
000000f0: 9285 b63d 3af1 57be 1311 36be b91b 30bd

attention_p.attn_1.weight f4 [16, 16]
-0.23898673 0.18135934 0.25443807 -0.3837886 0.014752735 -0.09516851 -0.017343562 -0.40467873
-0.2874177 -0.10460191 0.0786755 0.3019099 0.39197868 0.048452258 -0.12477825 -0.40844187
-0.28961456 0.3276685 0.18728845 -0.38454565 -0.24532974 -0.26162946 -0.19133525 0.23426048
-0.15065214 0.33378264 0.33445266 -0.2140492 -0.06864728 0.3363831 0.20177 0.05323915
-0.06556042 -0.14429168 -0.04956398 -0.22070193 0.13225213 0.3714474 -0.07970883 0.21477598
0.40524387 0.2824101 -0.12388111 -0.3782599 -0.25142893 0.102343015 -0.24085729 -0.28026855
0.41604954 -0.12290324 -0.26257086 0.35979247 -0.29989207 0.40467432 0.23777561 -0.32538807
0.300507 0.27287656 -0.059148602 -0.44715956 -0.05993608 0.40140662 -0.108345374 -0.042111676
0.32882646 -0.33829668 -0.1739257 0.11995076 -0.37119263 0.2635587 0.24198462 0.16125898
-0.14946926 -0.3472618 0.119976774 0.33557642 0.18365505 -0.34201294 0.35495195 -0.21468413
-0.44001368 0.042219087 0.28923166 0.37292716 -0.09685302 -0.31486914 0.004592623 -0.1491962
-0.035707507 0.0998556 0.12168917 -0.19726515 0.057084005 0.14547017 -0.29949605 0.088603236
0.3457741 -0.17916605 0.17382547 0.13437799 0.35176697 0.2569816 -0.31154144 -0.13520698
-0.07714999 -0.21536443 0.34335718 -0.014178153 -0.12826161 0.36019233 -0.15252762 -0.28134283
0.21996713 0.3531293 0.027541855 -0.31358197 -0.034625 0.42245755 -0.032682173 0.261234
0.22060871 -0.0501296 0.0226573 -0.07737829 -0.2918773 -0.24480346 0.2470897 -0.27544945
-0.23334862 -0.26754618 0.41096753 -0.13345236 -0.2009282 0.35172147 0.15056902 -0.38082534
0.41178495 0.21474363 0.12925631 -0.025004273 0.10796631 -0.1389163 0.2966742 0.11991031
0.39128116 0.12921764 -0.034839664 0.20891964 -0.08295847 0.13711368 0.094373085 0.3380064
-0.29589912 -0.0026281883 -0.22412881 0.29170096 -0.1440141 0.21515253 0.1999881 -0.12284809
-0.030756054 0.2641844 -0.32000962 0.40000072 -0.07771302 -0.13087179 0.0016150285 0.015437286
-0.3337357 -0.028191807 0.303994 -0.1753226 0.2666598 -0.39689213 0.37257314 -0.31688356
-0.26201215 -0.16343726 -0.17107897 -0.08559989 -0.29750842 0.243373 -0.051872704 0.38655654
0.41222477 -0.35292962 0.1995774 0.3142617 0.17340577 -0.0077513224 -0.29745623 0.41618145
0.11203655 0.32455087 -0.11283811 0.15541638 -0.19521558 -0.41111594 -0.0111316545 0.4210455
0.0408947 -0.44653302 -0.0021408936 0.25692472 -0.33821106 0.43628988 0.25760445 -0.16517642
0.14249623 0.263219 0.29346982 -0.0166085 -0.039495774 0.20482993 0.11019807 -0.12223327
0.026882244 -0.33263743 -0.3604207 0.3683512 -0.4296106 -0.25132373 -0.36008453 0.13849446
0.3157595 -0.042927485 0.3684062 0.42829204 -0.048324645 -0.36514825 -0.23018673 -0.017560555
-0.12015757 -0.2837367 -0.12948287 -0.09962767 -0.267043 -0.37610582 0.31291214 -0.09995807
0.09664126 -0.18119004 -0.32159105 -0.059097726 0.25523037 0.41194326 0.06464769 -0.2854006
-0.11804844 -0.18792644 -0.0856527 -0.017674161 -0.09530659 -0.19065411 -0.2879531 -0.1010466
00000000: f0b8 74be 43b6 393e b545 823e f07f c4be
00000010: 75b5 713c b5e7 c2bd 1614 8ebc 0d32 cfbe
00000020: 6a28 93be 8739 d6bd 9f20 a13d ef93 9a3e
00000030: 6eb1 c83e e075 463d bd8b ffbd 4b1f d1be
00000040: 5c48 94be 2ac4 a73e 8bc8 3f3e 2be3 c4be
00000050: b837 7bbe 4cf4 85be 63ed 43be fbe1 6f3e
00000060: 8e44 1abe 8fe5 aa3e 613d ab3e b72f 5bbe
00000070: f296 8cbd 683a ac3e cb9c 4e3e 4c11 5a3d
00000080: 8b44 86bd 33c1 13be 9a03 4bbd b0ff 61be
00000090: 1a6d 073e 5b2e be3e 623e a3bd 3cee 5b3e
000000a0: 207c cf3e 0e98 903e 61b5 fdbd 48ab c1be
000000b0: 4bbb 80be 3799 d13d 4ba3 76be 5c7f 8fbe
000000c0: 7204 d53e b2b4 fbbd b06f 86be b836 b83e
000000d0: 748b 99be 7931 cf3e 737b 733e 4499 a6be
000000e0: 0edc 993e 7ab6 8b3e ce45 72bd 19f2 e4be
000000f0: 897f 75bd 2b85 cd3e 2ee4 ddbd 4b7d 2cbd
00000100: f15b a83e 3935 adbe 9419 32be bea8 f53d
00000110: f60c bebe 2af1 863e d1ca 773e 1321 253e
00000120: 780e 19be 4ccc b1be 62b6 f53d acd0 ab3e
00000130: 1210 3c3e 521c afbe 43bc b53e 28d6 5bbe
00000140: 7949 e1be eced 2c3d 2c16 943e 4ff0 be3e
00000150: e05a c6bd 8736 a1be b77d 963b e3c6 18be
00000160: 0942 12bd 1881 cc3d 2c38 f93d e0ff 49be
00000170: ebd0 693d 22f6 143e 8c57 99be 9d75 b53d
00000180: 4e09 b13e 4e77 37be 4eff 313e 629a 093e
00000190: cd1a b43e 1893 833e 5c82 9fbe b373 0abe
000001a0: d000 9ebd 7e88 5cbe 83cc af3e 7c4b 68bc
000001b0: 0357 03be 216b b83e 3330 1cbe 2b0c 90be
000001c0: 103f 613e 5dcd b43e 759f e13c d18d a0be
000001d0: f2d2 0dbd 5b4c d83e bedd 05bd 76c0 853e
000001e0: 40e7 613e b254 4dbd cd9b b93c 8278 9ebd
000001f0: f170 95be c2ad 7abe 1505 7d3e b607 8dbe
00000200: f1f2 6ebe d0fb 88be 566a d23e bca7 08be
00000210: 1fc0 4dbe d614 b43e c42e 1a3e 8afb c2be
00000220: 7ad5 d23e c1e5 5b3e c45b 043e c3d5 ccbc
00000230: 711d dd3d 1340 0ebe aee5 973e 8993 f53d
00000240: 0156 c83e a151 043e 09b4 0ebd 08ef 553e
00000250: 21e6 a9bd 8767 0c3e ad46 c13d 2d0f ad3e
00000260: 1780 97be af3d 2cbb 0682 65be d459 953e
00000270: 6f78 13be f250 5c3e aec9 4c3e c897 fbbd
00000280: 1ff4 fbbc 2d43 873e 4dd8 a3be e5cc cc3e
00000290: 0128 9fbd 4103 06be 5daf d33a acec 7c3c
000002a0: 68df aabe 81f2 e6bc 1aa5 9b3e c587 33be
000002b0: a287 883e 7235 cbbe e8c1 be3e 903e a2be
000002c0: 7526 86be 195c 27be 532f 2fbe ff4e afbd
000002d0: 0653 98be c636 793e 7978 54bd bdea c53e
000002e0: 200f d33e 31b3 b4be 055e 4c3e e9e6 a03e
000002f0: 4891 313e cefe fdbb 2f4c 98be bc15 d53e
00000300: 6b73 e53d 882b a63e ab17 e7bd 7925 1f3e
00000310: 98e6 47be ca7d d2be 8b61 36bc 4793 d73e
00000320: 3381 273d fa9f e4be 3c4e 0cbb a38b 833e
00000330: 002a adbe 6361 df3e bbe4 833e 0224 29be
00000340: 88ea 113e a4c4 863e ad41 963e 8d0e 88bc
00000350: 52c6 21bd f0be 513e 87af e13d 7055 fabd
00000360: 2738 dc3c 744f aabe 1089 b8be 8798 bc3e
00000370: ecf5 dbbe 81ad 80be 005d b8be 7ed1 0d3e
00000380: 3bab a13e bbd4 2fbd bd9f bc3e 1849 db3e
00000390: 10f0 45bd b6f4 babe 12b6 6bbe 27db 8fbc
000003a0: 2c15 f6bd f045 91be 2897 04be 9809 ccbd
000003b0: dcb9 88be f190 c0be 0536 a03e d1b6 ccbd
000003c0: daeb c53d e289 39be 95a7 a4be 7510 72bd
000003d0: 8ead 823e 3aea d23e 0266 843d 0720 92be
000003e0: 61c3 f1bd ca6f 40be af6a afbd 67c9 90bc
000003f0: 1a30 c3bd d53a 43be 976e 93be 85f1 cebd

attention_p.attn_1.bias f4 [16]
-0.008179382 -0.013385213 0.014594595 -0.014778877 0.0045311186 -0.00031529125 -0.0036906067 -0.019009538
0.012910578 -0.012069522 0.016269108 -0.013607071 0.013360444 0.0125204045 -0.0123733245 -0.01807802
00000000: d102 06bc a74d 5bbc 2b1e 6f3c 1a23 72bc
00000010: c779 943b ad4d a5b9 1bde 71bb e4b9 9bbc
00000020: e486 533c 3fbf 45bc cb46 853c 31f0 5ebc
00000030: c4e5 5a3c 6222 4d3c 7cb9 4abc 5b18 94bc

attention_p.attn_2.weight f4 [1, 16]
-0.44742727 -0.35348466 0.109603435 -0.17318173 -0.26127633 0.007211374 0.3706179 -0.27248067
0.25178218 -0.36428893 0.28159338 -0.17652088 0.2645645 0.4143709 -0.14980543 -0.3069854
00000000: 3015 e5be f1fb b4be c477 e03d 8d56 31be
00000010: 03c6 85be 644d ec3b a1c1 bd3e 9682 8bbe
00000020: 98e9 803e 1484 babe 022d 903e e4c1 34be
00000030: 0075 873e 6c28 d43e 9866 19be 312d 9dbe

lstm_t.weight_ih_l0 f4 [64, 7]
-0.15514402 -0.054571524 0.008656174 -0.0511957 0.2243399 -0.17512485 0.22048807 0.015074764
0.21787111 0.04635306 -0.22436644 0.21390036 0.04652169 0.09632437 0.16975766 -0.06723337
0.02462665 -0.09542672 0.121995956 -0.0020610697 0.075725235 -0.14255394 -0.091905475 -0.09952551
-0.1339861 0.2055779 -0.16264598 0.16869143 -0.20376822 0.22258905 -0.23468836 0.18893538
0.017237877 -0.052995373 -0.11729682 0.15153573 0.06348094 0.09953107 0.04713894 0.016418284
0.18355776 0.08644366 0.21047951 -0.18474968 -0.04341555 -0.056112673 0.09520065 0.058053643
-0.14810087 0.10763281 -0.037777144 -0.1729023 0.23549923 -0.18134156 -0.11210496 0.21804908
-0.08076114 0.15303408 -0.07029422 -0.09361622 0.23070148 -0.23587431 0.0346185 -0.0007949769
-0.16015325 0.039413653 -0.08587427 0.07452956 -0.12636001 -0.1687487 -0.22991256 0.051504824
-0.00095446676 -0.0650799 -0.19332054 -0.0029905695 -0.20631295 0.059334233 -0.056706253 -0.14741522
0.08158961 -0.18795349 -0.010931599 0.1240974 0.20251961 -0.10530236 -0.21865813 0.15215267
0.018185528 -0.24953112 -0.023217708 0.026357958 -0.051921792 0.17467064 0.053556643 -0.13577847
-0.023975657 0.009425827 -0.12243706 -0.12022271 -0.025622297 -0.022305518 -0.15421328 0.21727897
0.2559475 -0.18423562 0.12221227 -0.19688928 0.056593716 0.24166487 0.031212062 -0.19535154
0.006148526 -0.17874572 -0.19003029 -0.052444063 -0.14404285 0.10756502 0.0747993 -0.23099309
-0.032344483 0.24222466 0.1739385 0.1396543 0.08961133 -0.19895631 0.2106404 0.22745618
-0.07146651 -0.2159418 -0.046145663 -0.0117703425 0.16793418 0.14345889 -0.18516694 -0.13480422
0.04853087 0.19670665 0.00033199886 -0.23790267 0.122530796 -0.04162154 0.08100376 0.12066694
0.12834324 0.021508334 0.0877021 0.07694936 -0.08075872 0.067493215 0.1555173 -0.19821334
0.04032154 0.18345352 0.10185952 -0.12672938 0.059176747 -0.010551848 0.20657548 -0.13962042
0.12073474 0.01886739 0.010960956 -0.014774794 -0.21800935 0.08996139 -0.16626509 0.23103142
0.08933738 -0.11220302 0.20523468 0.19082712 0.24169827 0.12639345 0.053082827 -0.1392439
0.22004646 0.11944244 0.116309196 0.2270234 0.17219484 -0.13282232 0.18251345 0.08988918
-0.09942955 0.20354627 -0.09950106 -0.08301676 0.015616067 0.0018013745 0.17253947 -0.12896869
-0.24187896 0.07911061 -0.17434928 -0.22145793 -0.18842553 -0.19099009 -0.07829042 -0.18071589
0.14613557 -0.119838476 0.14618023 -0.13400006 0.16145028 0.03321243 -0.2344945 -0.100593515
0.23897466 0.22787988 0.18847156 0.19935423 0.05706585 -0.19722034 -0.072150715 -0.18116215
0.13479781 0.13911466 0.07679179 0.20175295 -0.046098415 0.12781912 -0.021127537 -0.04682787
-0.14902203 -0.14164649 0.046911947 -0.11648271 0.039928485 -0.112872094 -0.035520285 -0.17998421
-0.20882323 0.08992252 0.16830052 -0.037021138 0.04211131 0.056205735 0.20571697 -0.031193104
0.23499931 0.014683179 0.15932637 -0.010728727 -0.10793119 0.017879153 -0.22259812 0.033255853
-0.07030974 0.06648591 -0.24238838 0.17586039 -0.058691602 -0.027122993 0.033993635 0.20921297
00000000: 13de 1ebe 6486 5fbd a0d2 0d3c 95b2 51bd
00000010: 5cb9 653e ee53 33be a0c7 613e 25fc 763c
00000020: 9b19 5f3e b5dc 3d3d 51c0 65be b208 5b3e
00000030: 878d 3e3d b645 c53d f4d4 2d3e a6b1 89bd
00000040: d4bd c93c 166f c3bd 04d9 f93d 0313 07bb
00000050: d515 9b3d a9f9 11be f038 bcbd 08d4 cbbd
00000060: a733 09be 0383 523e ab8c 26be 72bd 2c3e
00000070: 9ea8 50be 62ee 633e 2552 70be 4778 413e
00000080: 7336 8d3c ad11 59bd 5139 f0bd 2f2c 1b3e
00000090: 4c02 823d f2d6 cb3d c314 413d a37f 863c
000000a0: 91f6 3b3e 6009 b13d f187 573e 052f 3dbe
000000b0: 81d4 31bd 67d6 65bd 8ff8 c23d a8c9 6d3d
000000c0: c1a7 17be 976e dc3d 35bc 1abd 4d0d 31be
000000d0: b626 713e 9ab1 39be 4997 e5bd 4248 5f3e
000000e0: 1966 a5bd f7b4 1c3e 6af6 8fbd dcb9 bfbd
000000f0: 023d 6c3e 0989 71be 21cc 0d3d ff65 50ba
00000100: 37ff 23be 3670 213d d9de afbd f4a2 983d
00000110: 8564 01be 76cc 2cbe 336e 6bbe b9f6 523d
00000120: 2e35 7aba 9c48 85bd d2f5 45be 6efd 43bb
00000130: b443 53be 7408 733d d144 68bd 04f4 16be
00000140: 7418 a73d e176 40be 731a 33bc c726 fe3d
00000150: 4d61 4f3e c4a8 d7bd ebe7 5fbe e9cd 1b3e
00000160: d1f9 943c 1685 7fbe 1033 bebc a5ec d73c
00000170: f2ab 54bd dcdc 323e 365e 5b3d 8309 0bbe
00000180: 9968 c4bc c96e 1a3c 48c0 fabd 5337 f6bd
00000190: dae5 d1bc 10ba b6bc 16ea 1dbe 617e 5e3e
000001a0: 8d0b 833e 43a8 3cbe 6d4a fa3d 589d 49be
000001b0: d0ce 673d ff76 773e 70b0 ff3c 3c0a 48be
000001c0: 9379 c93b 1e09 37be 4d97 42be 96cf 56bd
000001d0: f87f 13be 0d4b dc3d 6030 993d 7489 6cbe
000001e0: a67b 04bd be09 783e ef1c 323e 8901 0f3e
000001f0: 2586 b73d 34bb 4bbe 1eb2 573e 46ea 683e
00000200: 095d 92bd d91f 5dbe 3c03 3dbd 65d8 40bc
00000210: f0f6 2b3e e3e6 123e 679c 3dbe 1e0a 0abe
00000220: 4ec8 463d 786d 493e 2210 ae39 c29c 73be
00000230: 6df1 fa3d 597b 2abd 4de5 a53d 3b20 f73d
00000240: 696c 033e 3f32 b03c 299d b33d a097 9d3d
00000250: d464 a5bd e239 8a3d ed3f 1f3e 70f8 4abe
00000260: 3328 253d 3ddb 3b3e b99b d03d 59c5 01be
00000270: 5163 723d a9e1 2cbc 8688 533e a8f8 0ebe
00000280: c643 f73d c98f 9a3c 9595 333c fa11 72bc
00000290: d83d 5fbe ad3d b83d 6541 2abe 8093 6c3e
000002a0: 84f6 b63d b2ca e5bd 0a29 523e 2f68 433e
000002b0: c07f 773e 496d 013e 616d 593d f495 0ebe
000002c0: dc53 613e 3d9e f43d 8433 ee3d d278 683e
000002d0: d853 303e 9302 08be cee4 3a3e d217 b83d
000002e0: b8a1 cbbd 6f6e 503e 36c7 cbbd b104 aabd
000002f0: 88da 7f3c 191c ec3a 30ae 303e 5e10 04be
00000300: 1eaf 77be be04 a23d 9e88 32be dec5 62be
00000310: 9ff2 40be e892 43be ba56 a0bd 960d 39be
00000320: 90a4 153e e06d f5bd 45b0 153e 5037 09be
00000330: 3953 253e c209 083d 541f 70be f903 cebd
00000340: c6b5 743e 5859 693e b0fe 403e 8423 4c3e
00000350: e1bd 693d 21f4 49be c1c3 93bd 9282 39be
00000360: 7008 0a3e 1374 0e3e 0445 9d3d 5398 4e3e
00000370: b1d1 3cbd 04e3 023e a813 adbc 95ce 3fbd
00000380: 3b99 18be c70b 11be be26 403d 7d8e eebd
00000390: 0d8c 233d 7c29 e7bd b87d 11bd c84d 38be
000003a0: c2d5 55be 4c29 b83d f956 2c3e 7aa3 17bd
000003b0: e97c 2c3d fc37 663d 78a7 523e ae88 ffbc
000003c0: a9a3 703e b791 703c 7426 233e 8bc7 2fbc
000003d0: 070b ddbd 4d77 923c c3f0 63be 4a37 083d
000003e0: 8efe 8fbd c429 883d a934 78be bf14 343e
000003f0: 9b66 70bd 0a31 debc e93c 0b3d ed3b 563e
