Params/dataset1_50_0.001_10_16_222_model.pt (torch, 46565 bytes, 31 tensors)

lstm_p.weight_ih_l0 f4 [64, 10]
-0.096013516 -0.11558228 -0.040089678 -0.020585228 0.21650337 -0.13043477 0.073631644 0.17183003
-0.08170273 -0.091251135 0.12070814 0.029269665 0.007859366 0.23143055 -0.003657339 -0.131345
-0.01022912 0.047249265 0.05380544 0.088290684 0.020206444 0.031753097 -0.20546228 0.17553844
-0.15204892 -0.09528321 0.07857566 -0.044122197 0.160796 0.09070299 0.21376212 0.07633941
0.064392306 0.058277685 -0.15587384 0.03709436 0.08819529 -0.049189594 -0.12878402 -0.1440934
0.15715297 -0.18287909 0.26166946 -0.028355315 0.057753094 0.15886724 0.17438832 0.06298013
-0.2121425 -0.0062568197 -0.09733188 -0.21727556 -0.07868445 0.117840946 0.025914798 0.21719812
-0.14422846 0.11431747 0.1941064 -0.16713655 0.22264592 0.11527685 -0.014653121 -0.05850579
-0.12833245 0.20948532 0.08610682 -0.017047537 0.23719352 -0.12680069 -0.11745951 -0.12362839
0.24016817 -0.1887522 0.004349308 -0.02610798 -0.045485444 -0.21976669 0.10924337 -0.044438314
-0.21871012 -0.024910888 -0.18088032 0.06425369 0.10628739 -0.12565847 0.20998237 0.031737316
-0.22739075 0.014412989 0.0063049844 0.12437527 -0.20855393 0.049576238 -0.14149341 0.034059606
-0.1857371 0.022012271 -0.21754643 0.06948889 0.04852251 0.17417109 0.24366048 0.06415411
-0.11120735 -0.09325181 0.12561043 0.120350055 -0.008718496 -0.17472786 -0.13235869 0.024997097
0.103657804 0.13621147 0.1329501 0.16841201 -0.016815977 0.14224908 0.06870884 0.2276607
0.14960586 0.013296701 0.102504514 -0.071989834 -0.22318938 0.07398541 0.21833031 0.10112243
-0.0062859207 -0.22841643 -0.20190114 0.09719296 0.07521743 0.15530291 0.14012606 -0.013278278
-0.2139858 0.10394563 -0.19463447 0.059605524 -0.01924254 0.1255546 0.23246135 -0.0062829256
0.12387989 0.014411002 0.12842184 -0.1174457 -0.23398925 -0.092277534 0.024306213 0.116806954
0.16057867 0.0005392182 0.094689764 0.0055100257 0.222775 0.09130021 0.021226231 -0.005732635
0.064698726 -0.062140375 0.22407012 0.13336879 -0.091178626 0.08710414 -0.12232392 -0.2156552
-0.23452404 -0.23872189 -0.10325301 -0.10556866 -0.050630685 0.20438328 0.03618596 0.11673477
0.04626619 0.07410491 -0.023510678 -0.0009009739 0.24017482 0.18810895 -0.00288024 0.07051886
0.1298625 0.12091432 0.13835555 -0.09025357 0.09153585 0.004552574 0.09617972 -0.042104036
0.15599582 -0.16105074 0.14963803 0.07515438 0.13491799 0.00576651 -0.10982378 0.0025827473
0.13287729 0.055511594 -0.21615715 -0.19987923 0.23615259 -0.15500864 -0.066213034 -0.1680872
0.0862287 -0.2205828 0.1617001 -0.16831875 -0.23858295 -0.03970939 0.04743452 -0.117343426
0.09211706 -0.22854951 0.20586339 -0.2165615 0.06337164 -0.03786508 -0.08155825 0.21139263
0.2101972 0.19678035 -0.15272309 -0.18119735 -0.21855578 0.12706703 -0.011771839 -0.13077125
-0.1182289 0.12743251 -0.054984674 0.027086519 -0.2123642 0.21820948 -0.0729197 0.0976518
-0.19458938 0.18712656 0.19750214 -0.1391095 -0.104066804 -0.15991606 0.22919554 0.13781269
0.10164981 0.1057404 -0.18968277 -0.12019317 -0.16381118 -0.07329343 -0.076878816 0.13983001
00000000: bca2 c4bd 67b6 ecbd 1335 24bd 5aa2 a8bc
00000010: 0fb3 5d3e b190 05be 30cc 963d 36f4 2f3e
00000020: c353 a7bd e0e1 babd d435 f73d f0c6 ef3c
00000030: 92c4 003c 21fc 6c3e f7af 6fbb 4e7f 06be
00000040: 0a98 27bc 7288 413d 1863 5c3d bfd1 b43d
00000050: fc87 a53c 890f 023d b464 52be 59c0 333e
00000060: b6b2 1bbe d823 c3bd 47ec a03d 7ab9 34bd
00000070: b5a7 243e 7dc2 b93d 75e4 5a3e d657 9c3d
00000080: 1de0 833d 95b4 6e3d 649d 1fbe 41f0 173d
00000090: bb9f b43d 077b 49bd f5df 03be 388d 13be
000000a0: b5ec 203e a844 3bbe 8af9 853e 6849 e8bc
000000b0: 828e 6c3d 18ae 223e da92 323e bafb 803d
000000c0: e23b 59be 0206 cdbb f055 c7bd 7c7d 5ebe
000000d0: 5025 a1bd 9856 f13d 454b d43c 2f69 5e3e
000000e0: a0b0 13be 471f ea3d d4c3 463e d825 2bbe
000000f0: 4bfd 633e 4516 ec3d a513 70bc c4a3 6fbd
00000100: 9569 03be 5283 563e c658 b03d 47a7 8bbc
00000110: dce2 723e 0ad8 01be 9d8e f0bd e230 fdbd
00000120: a5ee 753e 4248 41be a484 8e3b 67e0 d5bc
00000130: f24e 3abd 850a 61be fdba df3d f304 36bd
00000140: 8cf5 5fbe eb11 ccbc b138 39be 7097 833d
00000150: 34ad d93d 9dac 00be 9e05 573e fdfe 013d
00000160: 1fd9 68be 7524 6c3c 0b9a ce3b 76b8 fe3d
00000170: 298f 55be 7410 4b3d a6e3 10be 1682 0b3d
00000180: de31 3ebe 1453 b43c 7ec4 5ebe 3150 8e3d
00000190: 8abf 463d e859 323e 2282 793e 3b63 833d
000001a0: aec0 e3bd cefa bebd 05a0 003e 177a f63d
000001b0: 06d8 0ebc dceb 32be 0989 07be b6c6 cc3c
000001c0: 8b4a d43d 057b 0b3e 1224 083e 3374 2c3e
000001d0: a9c1 89bc bea9 113e 38b7 8c3d e31f 693e
000001e0: 4732 193e 68da 593c e3ed d13d 686f 93bd
000001f0: c28b 64be aa85 973d fb91 5f3e 4719 cf3d
00000200: 20fa cdbb ffe5 69be 2cbf 4ebe 1a0d c73d
00000210: 990b 9a3d ba07 1f3e 357d 0f3e 228d 59bc
00000220: 181f 5bbe 72e1 d43d 424e 47be ec24 743d
00000230: 88a2 9dbc 6391 003e 590a 6e3e 00e1 cdbb
00000240: bdb4 fd3d 201c 6c3c 0481 033e 5f87 f0bd
00000250: e19a 6fbe 01fc bcbd d31d c73c 7c38 ef3d
00000260: bc6e 243e 525a 0d3a b5ec c13d 728d b43b
00000270: 211f 643e 9bfb ba3d a2e2 ad3c d4d8 bbbb
00000280: c480 843d e886 7ebd a372 653e d491 083e
00000290: dcbb babd a863 b23d f784 fabd b7d4 5cbe
000002a0: 1227 70be 8373 74be 5076 d3bd 6234 d8bd
000002b0: 1f62 4fbd da49 513e bb37 143d a412 ef3d
000002c0: 9e81 3d3d 51c4 973d 7799 c0bc 562f 6cba
000002d0: 63f0 753e a29f 403e 69c2 3cbb 316c 903d
000002e0: adfa 043e eda1 f73d 14ad 0d3e ddd6 b8bd
000002f0: 2677 bb3d c22d 953b dff9 c43d 4875 2cbd
00000300: 5ebd 1f3e 7cea 24be b63a 193e 8aea 993d
00000310: f127 0a3e fef4 bc3b 4aeb e0bd 4f43 293b
00000320: fc10 083e 2060 633d 4d58 5dbe 24ad 4cbe
00000330: fcd1 713e 96ba 1ebe b39a 87bd 0d1f 2cbe
00000340: ac98 b03d 75e0 61be b694 253e c05b 2cbe
00000350: 174f 74be 50a6 22bd b34a 423d c051 f0bd
00000360: dfa7 bc3d e208 6abe dacd 523e 4cc2 5dbe
00000370: fec8 813d 6a18 1bbd 0308 a7bd 4f77 583e
00000380: ef3d 573e ca80 493e 7163 1cbe cc8b 39be
00000390: 16cd 5fbe dc1d 023e acde 40bc e6e8 05be
000003a0: fe21 f2bd ab7d 023e 9c37 61bd 8ce4 dd3c
000003b0: 0076 59be 4e72 5f3e ec56 95bd abfd c73d
000003c0: 7042 47be 1b9e 3f3e 003e 4a3e b972 0ebe
000003d0: fa20 d5bd 09c1 23be 3cb2 6a3e c51e 0d3e
000003e0: c72d d03d 6c8e d83d 333c 42be d627 f6bd
000003f0: 1ebe 27be de1a 96bd a472 9dbd 992f 0f3e

lstm_p.weight_hh_l0 f4 [64, 16]
-0.024029594 -0.016897237 0.0008912966 0.25166127 0.2365052 -0.16237979 0.051793214 0.05297864
0.14407428 -0.049041606 0.10148605 0.13161021 0.022138933 0.21105093 0.076921515 0.19135459
0.17755957 -0.23778792 -0.124698445 -0.04330111 0.1666787 -0.18652111 0.16836984 0.11104125
0.04690252 0.20809393 0.009447925 -0.1745927 0.12491898 -0.21975914 -0.2146151 0.07530162
0.19940701 -0.24982274 0.18194965 0.1865918 -0.15853965 -0.20642377 0.0058395434 0.17612329
0.036792938 -0.1675592 -0.07366462 -0.011504904 0.24763902 -0.10573408 -0.17714754 -0.06098062
-0.1365064 -0.026835749 0.021844123 -0.10308899 0.085745625 -0.23383133 0.16278437 0.07419119
0.12449165 -0.06783931 0.09329808 0.094392836 0.02396317 -0.089584015 -0.07712687 0.15328619
0.20062609 -0.011974228 -0.18983434 0.035250712 -0.23168644 0.089546055 -0.097286835 0.07973093
-0.14153649 0.1106154 -0.18044424 0.18509561 0.1850903 0.22658803 0.07786002 -0.15174226
-0.0020254292 0.1558673 -0.14600985 -0.18736114 0.0984424 -0.12649423 -0.21683657 0.17335941
0.15564625 -0.1527821 -0.10824991 0.041684706 -0.12204352 -0.21544175 0.11373823 0.06353654
-0.20831518 0.02078451 -0.008528792 -0.1263006 0.19009656 0.07247775 0.2534124 -0.019818071
-0.14139369 -0.014767173 -0.2016269 0.020322297 -0.2111111 0.18697833 -0.056474 0.14341964
0.1599714 -0.2132687 0.24091849 -0.18137278 0.23406854 -0.08028855 0.051542126 0.08326318
0.2355861 0.1767056 0.14698118 0.058215905 -0.08292922 0.022958096 -0.013729808 0.16558386
-0.1836295 0.16150649 0.14714113 0.251934 0.07028621 0.2175017 -0.16788316 -0.18021926
0.025952976 0.10542726 0.16013382 -0.20394471 -0.04152971 -0.1543919 0.0015220135 -0.0029174173
-0.20468824 -0.028863462 -0.15822813 -0.07390401 0.026335206 0.15612805 0.0072155036 -0.13375777
-0.17764437 -0.08172331 0.033891972 -0.15668687 0.24927562 0.12105327 0.20311418 0.03778357
-0.17233491 0.15684979 -0.1325764 0.22309643 0.058359794 0.17245139 -0.24454792 -0.08532303
0.122832514 -0.15705638 0.19239596 0.0090782335 -0.19533285 0.12027143 0.048371408 -0.11970142
-0.09116363 -0.015780305 -0.06521686 0.24774657 -0.2003773 -0.010673089 -0.17827863 -0.013822214
-0.13558468 0.2360892 -0.14097662 0.22480087 -0.010554754 0.01699803 -0.07641982 -0.023692122
-0.062719576 -0.11044355 -0.17584538 -0.058013573 -0.12660661 0.04253895 -0.020482397 -0.14290333
-0.2476832 -0.12854634 0.18955725 0.106332384 0.15042305 -0.05603681 0.18564379 0.18588698
-0.12958212 -0.12552364 0.12969412 0.15005623 -0.09614922 0.09350763 0.086295426 -0.11057981
-0.19644669 -0.07092245 -0.1694178 0.21314657 0.13703546 0.2340779 0.14746982 0.09856629
0.025208157 0.18396278 0.10372384 0.02674662 0.17374808 0.19488621 -0.087567426 -0.057095416
-0.048193358 -0.1902571 -0.16986012 -0.20744798 0.015649205 -0.034295775 0.12514466 0.051968813
-0.124651335 0.064992756 -0.22600564 0.088645376 0.14873378 -0.15742669 0.03672812 -0.0020004618
0.056912962 0.18812042 -0.15678068 -0.16975595 0.024800286 -0.211231 -0.12156589 0.087080024
00000000: b6d9 c4bc 136c 8abc e7a5 693a bfd9 803e
00000010: 6b2e 723e e346 26be 1f25 543d 2100 593d
00000020: 3588 133e dadf 48bd ebd7 cf3d d4c4 063e
00000030: b55c b53c bc1d 583e 0789 9d3d 75f2 433e
00000040: 2dd2 353e ad7e 73be e661 ffbd 815c 31bd
00000050: d2ad 2a3e 64ff 3ebe 2569 2c3e 9869 e33d
00000060: db1c 403d 9316 553e 78cb 1a3c 6ec8 32be
00000070: 86d5 ff3d 8a08 61be 10c4 5bbe bc37 9a3d
00000080: 5a31 4c3e 88d1 7fbe 0251 3a3e ec11 3f3e
00000090: 3858 22be c160 53be a459 bf3b aa59 343e
000000a0: 31b4 163d a494 2bbe 7add 96bd 117f 3cbc
000000b0: 1595 7d3e 1c8b d8bd 2a66 35be d1c6 79bd
000000c0: 55c8 0bbe a5d6 dbbc 72f2 b23c 5220 d3bd
000000d0: 679b af3d 7b71 6fbe f2b0 263e 8df1 973d
000000e0: 7af5 fe3d 56ef 8abd 1013 bf3d 0851 c13d
000000f0: 694e c43c d377 b7bd b1f4 9dbd 0ef7 1c3e
00000100: ed70 4d3e 8d2f 44bc ef63 42be 0d63 103d
00000110: 363f 6dbe ec63 b73d 523e c7bd f849 a33d
00000120: f1ee 10be 548a e23d 60c6 38be b489 3d3e
00000130: 5088 3d3e b106 683e 1375 9f3d 5362 1bbe
00000140: 10bd 04bb ad9b 1f3e 9b83 15be 99db 3fbe
00000150: 2b9c c93d b487 01be 680a 5ebe 2185 313e
00000160: bb61 1f3e e972 1cbe 21b2 ddbd 95bd 2a3d
00000170: f4f1 f9bd c39c 5cbe 97ef e83d 721f 823d
00000180: 9350 55be 4744 aa3c 59bc 0bbc f254 01be
00000190: aca8 423e 376f 943d 45bf 813e 8259 a2bc
000001a0: 82c9 10be 03f2 71bc 4877 4ebe f27a a63c
000001b0: 822d 58be 3f77 3f3e 4851 67bd 99dc 123e
000001c0: 8bcf 233e 1c63 5abe 56b3 763e c9b9 39be
000001d0: aaaf 6f3e 536e a4bd d61d 533d e385 aa3d
000001e0: 7c3d 713e 50f2 343e 3c82 163e cd73 6e3d
000001f0: cbd6 a9bd 9e12 bc3c fdf2 60bc d18e 293e
00000200: 5f09 3cbe f561 253e 2aac 163e 7efd 803e
00000210: 37f2 8f3d c4b8 5e3e 90e9 2bbe 668b 38be
00000220: 569b d43c 3fea d73d 1ffa 233e e2d6 50be
00000230: 0f1b 2abd e918 1ebe 4c7e c73a 2432 3fbb
00000240: cb99 51be 1173 ecbc 8e06 22be fc5a 97bd
00000250: eebc d73c 08e0 1f3e 0870 ec3b ccf7 08be
00000260: 68e8 35be 8d5e a7bd 4fd2 0a3d 8672 20be
00000270: 1c42 7f3e c7ea f73d 2afd 4f3e f2c2 1a3d
00000280: 9078 30be 3b9d 203e 1cc2 07be 6473 643e
00000290: ae0a 6f3d 1997 303e c56a 7abe d7bd aebd
000002a0: 9d8f fb3d 63d3 20be 7203 453e dfbc 143c
000002b0: 5605 48be de50 f63d 1921 463d 0526 f5bd
000002c0: ffb3 babd b345 81bc 6b90 85bd 47b1 7d3e
000002d0: b52f 4dbe 2ede 2ebc ac8e 36be 9176 62bc
000002e0: b6d6 0abe 5ec1 713e 2d5c 10be 3332 663e
000002f0: d9ed 2cbc 743f 8b3c ff81 9cbd fb15 c2bc
00000300: 1f73 80bd 3a30 e2bd d010 34be a49f 6dbd
00000310: 2aa5 01be 523d 2e3d b3ca a7bc 4055 12be
00000320: aaa0 7dbe a7a1 03be 4c1b 423e cbc4 d93d
00000330: 8008 1a3e db86 65bd 6819 3e3e 2859 3e3e
00000340: 2db1 04be 4589 00be 89ce 043e 57a8 193e
00000350: e2e9 c4bd ee80 bf3d a8bb b03d ab77 e2bd
00000360: 5229 49be ca3f 91bd dc7b 2dbe 1843 5a3e
00000370: 0653 0c3e 1eb2 6f3e 5402 173e 20dd c93d
00000380: 5681 ce3c bd60 3c3e 2a6d d43d ba1b db3c
00000390: 04eb 313e 4090 473e 8d56 b3bd e2dc 69bd
000003a0: 6666 45bd c2d2 42be d0ef 2dbe 3e6d 54be
000003b0: c332 803c ba79 0cbd ec25 003e 40dd 543d
000003c0: 3349 ffbd ec1a 853d 066e 67be b58b b53d
000003d0: ab4d 183e 7634 21be 3a70 163d 2e1a 03bb
000003e0: 911d 693d a4a2 403e 1d8b 20be 81d4 2dbe
000003f0: f829 cb3c f04c 58be 8af7 f8bd 0357 b23d

lstm_p.bias_ih_l0 f4 [64]
-0.029092394 -0.2119752 -0.18101275 -0.0847594 0.13812156 -0.06371029 0.024661588 -0.19679886
0.18298803 -0.25520876 0.08740177 0.052834492 0.22695237 -0.14963801 0.13105802 0.1303988
-0.16336598 0.19319005 -0.16925703 -0.16641007 -0.21910311 0.1856452 0.07817277 -0.0057690223
0.0042526904 0.17475899 -0.04386793 0.029186629 -0.13825172 -0.18110153 -0.23606533 0.13511351
-0.09450722 -0.13223557 0.17031232 0.22241582 0.021076268 -0.08150941 -0.22796738 -0.21371269
0.12206779 -0.1557149 -0.22101906 -0.20124131 -0.0636297 0.11588084 0.16324118 -0.056660276
0.19052202 0.20357673 0.11622056 0.24046205 -0.25390157 0.060187392 -0.18278678 -0.0131077105
0.055253286 0.0732066 -0.047212828 0.04429607 -0.15063888 0.17623244 -0.10236097 -0.15297246
00000000: 2c53 eebc 0710 59be 685b 39be 5696 adbd
00000010: bd6f 0d3e 8a7a 82bd 1907 ca3c a485 49be
00000020: 3761 3b3e b9aa 82be b3ff b23d fb68 583d
00000030: 3466 683e b53a 19be 1334 063e 4387 053e
00000040: 6949 27be 9dd3 453e b751 2dbe 6767 2abe
00000050: 915c 60be c619 3e3e 0c19 a03d 110a bdbb
00000060: 275a 8b3b 05f4 323e dcae 33bd cc18 ef3c
00000070: dc91 0dbe ae72 39be 1cbb 71be 325b 0a3e
00000080: 008d c1bd c368 07be 5a66 2e3e f9c0 633e
00000090: 23a8 ac3c 68ee a6bd 4870 69be 80d7 5abe
000000a0: adfe f93d ba73 1fbe d252 62be 3412 4ebe
000000b0: 4a50 82bd ef52 ed3d b228 273e 9b14 68bd
000000c0: 3418 433e 6b76 503e 0c05 ee3d af3b 763e
000000d0: 63ff 81be 0e87 763d 752c 3bbe b9c1 56bc
000000e0: 4551 623d 58ed 953d 3d62 41bd cc6f 353d
000000f0: 1441 1abe 4776 343e a1a2 d1bd d0a4 1cbe

lstm_p.bias_hh_l0 f4 [64]
-0.2522326 -0.023809936 -0.0913096 0.0891666 -0.025559185 0.050266374 -0.1697106 0.22324777
-0.017219678 -0.19928584 0.17304328 0.013231083 -0.018770032 -0.12523164 -0.07906603 0.046366874
0.112362005 -0.24701239 0.034848023 0.065859675 0.12722655 0.074840024 0.0813764 0.20021805
-0.07791475 0.025447585 -0.10144836 0.0418204 -0.11829177 0.08815723 0.023255294 0.011563465
-0.23167446 0.16226579 -0.2312491 0.051819507 -0.14270745 -0.16395795 -0.0040463554 -0.16276634
-0.1217 -0.15756163 0.16359085 -0.08712026 0.084391855 -0.045312744 -0.20065275 0.12721103
-0.1319296 0.13566746 -0.21255979 -0.2423992 0.06812444 -0.062240187 -0.13292615 0.2327921
0.22784683 -0.24572897 0.18573996 0.12322311 -0.08071732 -0.09286994 0.07177668 -0.051809974
00000000: a224 81be 0e0d c3bc 8700 bbbd fa9c b63d
00000010: 7f61 d1bc 1de4 4d3d 9ec8 2dbe 109b 643e
00000020: 4810 8dbc 9611 4cbe 4232 313e 2fc7 583c
00000030: 9cc3 99bc b93c 00be 5fed a1bd 31eb 3d3d
00000040: 0d1e e63d d1f0 7cbe cdbc 0e3d 70e1 863d
00000050: ad47 023e ba45 993d aca8 a63d f605 4d3e
00000060: c591 9fbd 7477 d03c 28c4 cfbd de4b 2b3d
00000070: f542 f2bd c78b b43d e381 be3c b074 3d3c
00000080: 123c 6dbe 0129 263e 90cc 6cbe b140 543d
00000090: e721 12be 98e4 27be 4a97 84bb 38ac 26be
000000a0: d93d f9bd d657 21be 5c84 273e 1b6c b2bd
000000b0: a3d5 ac3d db99 39bd ea77 4dbe 9c43 023e
000000c0: 8e18 07be 69ec 0a3e 46a9 59be 7f37 78be
000000d0: d484 8b3d 91ef 7ebd cb1d 08be 0d61 6e3e
000000e0: ae50 693e 60a0 7bbe 9e32 3e3e 665c fc3d
000000f0: 1f4f a5bd 9832 bebd a7ff 923d b236 54bd

lstm_p.weight_ih_l1 f4 [64, 16]
-0.04660492 0.07961732 0.2166916 0.010711188 -0.17723168 0.10441914 0.22068627 0.21439512
0.21666093 -0.10147288 -0.13155164 0.12719432 0.08425904 0.1921308 -0.08718126 -0.101595476
-0.04108289 0.18797377 0.0807824 0.23580718 -0.1360919 -0.068483636 0.1439413 -0.06628861
0.20355485 -0.05385895 0.1767996 0.15638663 0.04125689 -0.062447157 -0.15017582 -0.12985368
-0.13971679 -0.19182342 0.19046482 0.09149995 -0.08183057 0.20007142 0.023924707 0.0040547205
0.15483579 0.23236921 0.15733783 -0.09504491 -0.223858 -0.105825216 -0.050970323 0.10235102
0.13354726 -0.24169771 0.21458858 0.24736674 -0.07046887 0.19518867 0.11633148 -0.14854746
-0.10065252 -0.20374845 0.21203996 0.18498673 0.18388017 0.13308863 0.15044767 0.16391674
-0.072780214 -0.093777314 0.19654486 -0.08124185 0.12866278 -0.11309171 -0.21804495 -0.18974929
0.21502322 0.2099172 -0.23249485 0.01890169 0.23065059 -0.15071203 -0.006485686 0.12215124
0.15786923 -0.082095705 -0.068661 0.04912089 0.034374896 -0.04338511 0.22002949 -0.14609317
-0.11277712 0.21620978 -0.00087321806 -0.01718905 0.12822796 0.10254775 -0.0019183364 0.10660085
0.105593435 -0.08879041 0.15266307 0.16770677 -0.23837563 -0.16634633 0.18625997 0.01811474
0.11929591 0.08591765 -0.10662503 -0.08930997 -0.19040112 -0.16636476 0.21000339 -0.20961636
0.11556931 0.11651871 0.22413778 -0.2448108 0.11520562 0.09692038 0.16053566 0.23774937
0.11547824 0.061144937 -0.05280134 -0.21608932 0.10008487 -0.10091604 0.12609534 -0.2090874
-0.021890054 0.15976785 0.02978288 -0.038449273 0.06828195 0.083922304 -0.20115115 -0.023075424
0.111797884 0.20132817 0.14633438 0.036354017 0.19027475 0.16172059 -0.05598767 0.028789483
-0.061672557 -0.101489425 0.18568243 0.10644867 0.21450095 0.09686968 -0.118055895 -0.008173093
0.04030729 0.031391278 -0.19884324 -0.049283955 -0.042210344 -0.21478836 -0.18016207 0.19542529
-0.23423707 0.044363838 0.011144744 -0.2186646 -0.19064404 -0.024194958 -0.2543592 0.028192643
0.1458893 -0.12323368 0.032395482 -0.015472097 0.23400782 -0.017629113 -0.116070636 -0.0126599
-0.122378394 -0.13280337 -0.096429236 0.027643047 0.2282044 -0.18294698 0.03592767 0.12094375
0.23368245 0.16830501 0.17047678 -0.21158116 0.20953697 -0.20660964 0.07146314 0.06404668
0.085879914 -0.017112859 -0.011237629 -0.10481071 0.19877627 -0.14621435 -0.23442224 0.250028
-0.12270831 -0.19408976 -0.17519431 -0.12311516 0.16350004 -0.20699254 -0.2375769 0.17502847
-0.21153903 -0.17122012 -0.015302963 -0.2180107 0.19642575 0.13124248 0.2366275 -0.15644415
-0.1831036 -0.11990591 0.1273668 0.20322755 -0.16525759 0.10635072 0.14172517 0.20574363
0.08007764 0.219437 -0.13451122 0.14160599 -0.23305047 0.116709635 -0.005728784 -0.22779432
-0.013777005 0.17355129 -0.01916283 0.14220843 0.115230165 -0.17626387 -0.109909974 0.19481094
0.12399853 0.15206334 0.029897012 -0.013658991 0.08436712 -0.017086716 -0.049608722 -0.21774249
-0.08054577 0.012319951 0.04517536 0.12790328 0.06823582 -0.023025535 0.14810632 0.09360644
00000000: cde4 3ebd 680e a33d 67e4 5d3e fb7d 2f3c
00000010: 397c 35be b4d9 d53d 95fb 613e 658a 5b3e
00000020: 5ddc 5d3e 03d1 cfbd 79b5 06be 3a3f 023e
00000030: 0190 ac3d f0bd 443e 178c b2bd 4a11 d0bd
00000040: 8846 28bd 327c 403e 3e71 a53d 7077 713e
00000050: ad5b 0bbe 2641 8cbd 5965 133e 53c2 87bd
00000060: af70 503e 349b 5cbd f40a 353e d123 203e
00000070: fcfc 283d 97c8 7fbd b1c7 19be 5df8 04be
00000080: eb11 0fbe 5c6d 44be 3609 433e 5364 bb3d
00000090: c996 a7bd 86df 4c3e bffd c33c 76dd 843b
000000a0: 468d 1e3e 32f2 6d3e 2b1d 213e e8a6 c2bd
000000b0: 083b 65be e4ba d8bd 42c6 50bd 699d d13d
000000c0: 9dc0 083e 9b7f 77be 1cbd 5b3e b54d 7d3e
000000d0: fc51 90bd 8adf 473e 333f ee3d d31c 18be
000000e0: e922 cebd 6fa3 50be 0121 593e 296d 3d3e
000000f0: 154b 3c3e 6348 083e f40e 1a3e cad9 273e
00000100: cb0d 95bd 520e c0bd 0e43 493e 2162 a6bd
00000110: 2dc0 033e a09c e7bd 2d47 5fbe a34d 42be
00000120: 0c2f 5c3e 89f4 563e 2113 6ebe b8d7 9a3c
00000130: ab2f 6c3e 4154 1abe e185 d4bb 6e2a fa3d
00000140: 79a8 213e cb21 a8bd 239e 8cbd fd32 493d
00000150: b1cc 0c3d 96b4 31bd 694f 613e 7399 15be
00000160: b1f7 e6bd 1966 5d3e ace8 64ba 0dd0 8cbc
00000170: 314e 033e 8e04 d23d b070 fbba 8c51 da3d
00000180: 5f41 d83d bfd7 b5bd b553 1c3e 53bb 2b3e
00000190: be18 74be b156 2abe efba 3e3e 5d65 943c
000001a0: 6a51 f43d 98f5 af3d 395e dabd 25e8 b6bd
000001b0: 83f8 42be 865b 2abe 210b 573e aca5 56be
000001c0: 9aaf ec3d 5da1 ee3d 6084 653e afaf 7abe
000001d0: edf0 eb3d 317e c63d 7663 243e 9274 733e
000001e0: db7f ec3d 1d73 7a3d 3846 58bd 8546 5dbe
000001f0: 4cf9 cc3d 12ad cebd 231f 013e 021b 56be
00000200: c552 b3bc 2f9a 233e 3afb f33c fc7c 1dbd
00000210: 68d7 8b3d 75df ab3d 91fa 4dbe ac08 bdbc
00000220: 4af6 e43d f928 4e3e aed8 153e f3e7 143d
00000230: 62d7 423e 159a 253e 5453 65bd ecd7 eb3c
00000240: 5d9c 7cbd b0d9 cfbd 8923 3e3e c301 da3d
00000250: 23a6 5b3e 9c63 c63d 4ac7 f1bd 70e8 05bc
00000260: 4219 253d 2494 003d 909d 4bbe f9dd 49bd
00000270: c1e4 2cbd 7bf1 5bbe 687c 38be 911d 483e
00000280: d8db 6fbe dbb6 353d 7298 363c 9de9 5fbe
00000290: 3138 43be 8134 c6bc 5e3b 82be 42f4 e63c
000002a0: 0164 153e f161 fcbd 20b1 043d ae7e 7dbc
000002b0: bf9f 6f3e ee6a 90bc 71b6 edbd 786b 4fbc
000002c0: 86a1 fabd 9bfd 07be b17c c5bd ac73 e23c
000002d0: 6aae 693e 7456 3bbe e428 133d 5bb1 f73d
000002e0: 744a 6f3e 2658 2c3e 7791 2e3e bba8 58be
000002f0: dc90 563e 7a91 53be 445b 923d e82a 833d
00000300: cfe1 af3d 4430 8cbc 081e 38bc ffa6 d6bd
00000310: 028c 4b3e 37b9 15be 620c 70be ac03 803e
00000320: 7f4e fbbd 77bf 46be 2366 33be cd23 fcbd
00000330: 8e6c 273e daf5 53be 5c47 73be aa3a 333e
00000340: b09d 58be 5454 2fbe 47b9 7abc 323e 5fbe
00000350: d523 493e 6e64 063e 7b4e 723e e532 20be
00000360: 837f 3bbe 3b91 f5bd 716c 023e e21a 503e
00000370: 4939 29be 68ce d93d 6720 113e 75ae 523e
00000380: bfff a33d 18b4 603e 4fbd 09be 2901 113e
00000390: c8a4 6ebe 7605 ef3d 86b8 bbbb ea42 69be
000003a0: f2b8 61bc 6eb7 313e 5efb 9cbc 169f 113e
000003b0: cbfd eb3d 847e 34be 7b18 e1bd 857c 473e
000003c0: f1f2 fd3d 7eb6 1b3e 94ea f43c f6c9 5fbc
000003d0: abc8 ac3d 71f9 8bbc 8432 4bbd e3f7 5ebe
000003e0: 2ef5 a4bd 9fd9 493c cc09 393d 14f9 023e
000003f0: 39bf 8b3d 0ca0 bcbc 2fa9 173e bcb4 bf3d

lstm_p.weight_hh_l1 f4 [64, 16]
0.19339018 -0.14504789 0.24165995 -0.111033216 -0.0495754 -0.18796478 0.06408551 0.19301723
-0.07895798 0.16164333 -0.017797839 0.23786256 -0.1493343 0.005305474 0.18966994 -0.20351419
0.12203044 -0.2398609 0.20872398 0.09604683 0.048505224 -0.23129924 0.2536541 0.18025342
0.23302875 -0.21072093 0.2228676 0.032418422 0.1516698 -0.25075886 -0.13234173 0.015526984
0.14258413 -0.23857406 0.13833222 0.1189068 -0.17545284 0.20791627 -0.12305081 0.08665385
-0.17418586 -0.15065476 -0.048451826 -0.07800599 0.04703829 -0.05692259 -0.1313973 0.2343235
-0.010923917 -0.2109791 0.20044017 0.20828934 -0.13162865 0.171381 -0.10506766 -0.19217259
-0.2561954 -0.13245414 0.12245108 0.25666025 0.23102163 -0.023829244 -0.050739087 0.005093827
0.21428452 -0.18483122 -0.1431671 -0.003601259 -0.22548954 0.12958154 -0.16168208 -0.07103019
-0.13525702 -0.013695799 0.21948062 -0.08638572 -0.09746169 0.12668882 -0.025738493 -0.014400113
0.20264821 0.07728732 -0.029403811 0.22104399 -0.25036052 0.21027568 -0.08590911 0.1706613
-0.07432208 -0.20550069 -0.008268362 0.22084755 0.02866041 -0.20242502 0.16684541 0.24182317
0.21987697 -0.13307391 -0.1889225 -0.25206512 -0.04546383 0.06277736 -0.2531874 0.0059671863
0.031938326 0.17735785 0.17030425 0.111511014 -0.016607378 0.24328654 -0.014732352 -0.052516777
-0.1291103 0.064116254 -0.16620201 0.10329503 -0.21933435 0.025225794 -0.01090936 -0.17205165
0.20175044 0.196174 0.15708974 0.19084926 -0.011284459 -0.14696324 -0.056723118 -0.1510723
-0.12771408 0.033964872 -0.082350574 0.25204393 0.16094103 0.25102934 0.11427767 0.14237714
-0.12792794 0.19518949 0.19021711 0.078870885 0.08029461 -0.21789442 -0.008829569 0.21077085
-0.1005928 0.19138448 -0.11044631 -0.16395216 0.14097106 0.13057758 0.08525217 -0.10616755
0.16429396 -0.10448189 0.13608256 0.21876518 -0.12039051 0.1897415 0.16834526 0.07131228
-0.101202615 -0.06071571 0.13856812 0.09926074 0.0053757406 -0.09549261 0.024056094 0.24901675
0.1940257 -0.16340885 0.25208077 0.15764521 0.25759724 -0.06144595 0.0752516 -0.045579005
-0.13287328 -0.06717641 -0.14002681 0.077272385 -0.051105555 -0.1942924 -0.07176175 -0.012874566
-0.11854207 -0.14982077 -0.24626473 0.13437608 0.12877612 -0.24953112 0.113604374 -0.19930814
-0.11008465 -0.16081554 -0.07331216 -0.1384205 -0.0010721191 0.040442374 -0.109311454 0.15960373
-0.09893366 -0.07032246 0.06807396 0.13849032 0.18014172 0.1140017 0.02570496 -0.026356036
-0.16613048 0.19509056 -0.0070520407 0.17566724 0.12721597 0.14536116 -0.18420781 0.13503668
0.23233473 -0.23210646 0.18372604 -0.13885193 -0.13243228 -0.21423258 -0.24075978 -0.16308056
-0.18709736 -0.0065855137 -0.13059302 -0.0053794803 0.16969018 0.20712446 -0.19955756 0.19380523
-0.0242585 -0.09623605 0.259872 -0.1961238 -0.13410613 0.11824431 0.11366263 0.119822584
-0.21784592 -0.16363576 -0.17971955 0.1715621 0.10840152 -0.027204318 0.17007235 0.014174439
-0.23262985 -0.07258124 0.12913416 -0.045202423 0.10552189 0.063925974 -0.051147196 -0.19327158
00000000: 1308 463e 6f87 14be b575 773e 6265 e3bd
00000010: 930f 4bbd d779 40be 443f 833d 4fa6 453e
00000020: b9b4 a1bd d485 253e c6cc 91bc 3e92 733e
00000030: 17eb 18be 8bd9 ad3b d638 423e 0666 50be
00000040: 18eb f93d 199e 75be bdbb 553e 33b4 c43d
00000050: 6aad 463d b5d9 6cbe f3de 813e 5a94 383e
00000060: 179f 6e3e 3ac7 57be 6737 643e 2ec9 043d
00000070: 544f 1b3e 7763 80be 9784 07be e464 7e3c
00000080: 9301 123e c24c 74be f6a6 0d3e 6985 f33d
00000090: e9a9 33be 01e8 543e 1002 fcbd 9377 b13d
000000a0: c75d 32be 3e45 1abe 6c75 46bd 9bc1 9fbd
000000b0: 39ab 403d a927 69bd 048d 06be 80f2 6f3e
000000c0: 3bfa 32bc e80a 58be 3040 4d3e cd49 553e
000000d0: a9c9 06be 807e 2f3e b72d d7bd e4c8 44be
000000e0: 0b2c 83be 0fa2 07be a2c7 fa3d f968 833e
000000f0: ef90 6c3e 8c35 c3bc cad3 4fbd 1eea a63b
00000100: 676d 5b3e 6544 3dbe 659a 12be 1a03 6cbb
00000110: bbe6 66be 06b1 043e fd8f 25be 4778 91bd
00000120: d180 0abe 5864 60bc 87bf 603e ffea b0bd
00000130: ff99 c7bd b7ba 013e 88d9 d2bc 74ee 6bbc
00000140: 0383 4f3e d048 9e3d 43e0 f0bc 5b59 623e
00000150: 412f 80be 8252 573e 1ef1 afbd d6c1 2e3e
00000160: 2d36 98bd c66e 52be 0678 07bc dc25 623e
00000170: 3cc9 ea3c 8148 4fbe 86d9 2a3e 7ea0 773e
00000180: 6e27 613e 8744 08be e674 41be ae0e 81be
00000190: 4838 3abd 6b91 803d c7a1 81be 6388 c33b
000001a0: c3d1 023d 4c9d 353e 3d64 2e3e e35f e43d
000001b0: 320c 88bc 1b20 793e f75f 71bc d51b 57bd
000001c0: 7e35 04be 624f 833d dc30 2abe 588c d33d
000001d0: 2f99 60be 53a6 ce3c 2cbd 32bc 4f2e 30be
000001e0: ab97 4e3e d6e1 483e 22dc 203e fd6d 433e
000001f0: 74e2 38bc 887d 16be 8056 68bd b2b2 1abe
00000200: 7bc7 02be c01e 0b3d 6ba7 a8bd e70b 813e
00000210: bacd 243e eb86 803e 690a ea3d 50cb 113e
00000220: 8bff 02be c1df 473e 46c8 423e 0f87 a13d
00000230: 8071 a43d b71f 5fbe e6a9 10bc 50d4 573e
00000240: 9903 cebd 4bfa 433e ad31 e2bd 13e3 27be
00000250: b85a 103e 21b6 053e b198 ae3d 5f6e d9bd
00000260: ad3c 283e 9afa d5bd 3a59 0b3e fb03 603e
00000270: 4d8f f6bd 994b 423e b362 2c3e 2c0c 923d
00000280: 5143 cfbd 09b1 78bd cde4 0d3e 3749 cb3d
00000290: fb26 b03b a191 c3bd 4911 c53c 3ffe 7e3e
000002a0: acae 463e a654 27be bb10 813e bf6d 213e
000002b0: c9e3 833e c0ae 7bbd 831d 9a3d 0db1 3abd
000002c0: ef0f 08be c993 89bd 3063 0fbe fc40 9e3d
000002d0: 0f54 51bd 96f4 46be d3f7 92bd d8ef 52bc
000002e0: 2fc6 f2bd 9e6a 19be d22c 7cbe e299 093e
000002f0: e3dd 033e 1685 7fbe 69a9 e83d 6f17 4cbe
00000300: 1074 e1bd d4ac 24be b024 96bd 1bbe 0dbe
00000310: 5986 8cba e7a6 253d afde dfbd 296f 233e
00000320: bb9d cabd 3905 90bd 5c6a 8b3d 68d0 0d3e
00000330: 1277 383e b979 e93d 3593 d23c 9de8 d7bc
00000340: 1c1e 2abe d2c5 473e ce14 e7bb 1de2 333e
00000350: e744 023e 8ed9 143e f9a0 3cbe 0e47 0a3e
00000360: 28e9 6d3e 51ad 6dbe ae22 3c3e 332f 0ebe
00000370: 549c 07be c95f 5bbe bb89 76be 97fe 26be
00000380: 7396 3fbe 4bcb d7bb 2dba 05be 5a46 b0bb
00000390: 43c3 2d3e 6f18 543e d158 4cbe e174 463e
000003a0: c3b9 c6bc 6817 c5bd f10d 853e add4 48be
000003b0: 1e53 09be 132a f23d f4c7 e83d 8b65 f53d
000003c0: 0013 5fbe 2290 27be 6708 38be faad 2f3e
000003d0: 9e01 de3d 97db debc 7227 2e3e e83b 683c
000003e0: 8536 6ebe 79a5 94bd bf3b 043e 2d26 39bd
000003f0: dc1b d83d 9feb 823d b97f 51bd fce8 45be

lstm_p.bias_ih_l1 f4 [64]
-0.07044638 0.009394007 0.026222493 -0.23870231 -0.25026146 0.065682575 -0.13684519 0.18607287
0.06131284 0.056998488 -0.2436659 0.090582855 -0.03770721 -0.046597205 -0.20011707 -0.25071523
0.17322764 -0.15830624 0.036293004 -0.17957594 -0.19497125 0.117546186 0.06481818 -0.121057875
0.10871472 -0.15077423 -0.17360748 0.03002483 0.019930465 -0.20697175 -0.14993066 -0.13893981
-0.068031035 0.13186447 -0.2247542 0.17208454 0.01788323 -0.022340553 -0.1354315 -0.20643975
-0.084237084 0.12466714 -0.19688378 0.22021575 -0.16368896 0.14895372 -0.22406155 -0.2357121
-0.094728485 0.18654267 0.105725944 -0.15048952 0.064802505 -0.122994155 0.21826693 0.23355488
0.0040170937 0.16680044 -0.09225421 0.0914322 0.13033026 0.108539745 0.07241115 0.2306823
00000000: 3146 90bd 52e9 193c 8ed0 d63c 616e 74be
00000010: 4522 80be 9684 863d 2521 0cbe e389 3e3e
00000020: 2c23 7b3d 3f77 693d 8e83 79be 8183 b93d
00000030: e072 1abd b6dc 3ebd 7deb 4cbe bf5d 80be
00000040: 9662 313e 081b 22be f9a7 143d c1e2 37be
00000050: 8ba6 47be 0ebc f03d 65bf 843d 31ed f7bd
00000060: d3a5 de3d 8f64 1abe 29c6 31be a2f6 f53c
00000070: 3745 a33c 67f0 53be 6c87 19be 3d46 0ebe
00000080: db53 8bbd 7b07 073e f725 66be ee36 303e
00000090: da7f 923c 8903 b7bc 8eae 0abe f164 53be
000000a0: 7e84 acbd 7c51 ff3d e79b 49be 3d80 613e
000000b0: 149e 27be 5387 183e 6470 65be 835e 71be
000000c0: 0201 c2bd 0b05 3f3e d886 d83d ed19 1abe
000000d0: 2db7 843d 5ce4 fbbd 5e81 5f3e 0329 6f3e
000000e0: d3a1 833b bccd 2a3e c6ef bcbd ce40 bb3d
000000f0: 4c75 053e 164a de3d 4c4c 943d fb37 6c3e

lstm_p.bias_hh_l1 f4 [64]
0.07386523 0.16611892 0.110152334 0.012151392 -0.055995736 0.19179524 0.21533771 0.21119367
0.063840315 0.13933438 -0.14674875 -0.15250313 0.03641251 -0.21108787 -0.12867941 0.14139332
-0.121952675 -0.16479716 -0.2343735 0.15578441 0.16206305 0.18457629 -0.045153312 -0.1274793
0.22510721 -0.16050254 0.20235364 0.05298749 -0.107911214 0.094435245 -0.14340627 0.020785678
0.20115428 -0.05380766 0.06327499 0.1655418 -0.073680565 0.15496846 0.18291971 0.030467968
0.18848975 0.20962518 -0.1783065 0.11562237 -0.0019383421 -0.08980029 0.1962305 0.023946006
-0.0108518535 0.1017244 0.056627322 0.016433327 0.10404853 -0.018580643 -0.20399174 0.09835585
-0.046226222 -0.120544374 -0.15271407 0.12525602 0.090687945 -0.20869623 -0.17532946 -0.041270893
00000000: a746 973d 141b 2a3e 8c97 e13d a216 473c
00000010: c95b 65bd f965 443e 7d81 5c3e 2743 583e
00000020: b6be 823d acad 0e3e 4e45 16be c829 1cbe
00000030: 4925 153d 6b27 58be 89c4 03be 69c9 103e
00000040: 53c2 f9bd 96c0 28be 9bff 6fbe f385 1f3e
00000050: dbf3 253e 9101 3d3e aef2 38bd ef89 02be
00000060: 8182 663e c75a 24be cb35 4f3e 6909 593d
00000070: 8e00 ddbd 4467 c13d 18d9 12be ba46 aa3c
00000080: 63fb 4d3e 6c65 5cbd 5196 813d ca83 293e
00000090: d6e5 96bd 0db0 1e3e 4e4f 3b3e f697 f93c
000000a0: 7503 413e fca7 563e fb95 36be 6ccb ec3d
000000b0: f80f feba 37e9 b7bd a6f0 483e 6a2a c43c
000000c0: f9cb 31bc e254 d03d 0df2 673d 2f9f 863c
000000d0: 6517 d53d 6f36 98bc 36e3 50be cb6e c93d
000000e0: b557 3dbd f8df f6bd 1461 1cbe 1d43 003e
000000f0: 9aba b93d 77b4 55be 9189 33be ab0b 29bd

attention_p.attn_1.weight f4 [16, 16]
-0.24211667 0.17866805 0.25256637 -0.3861333 0.016900193 -0.09778919 -0.019665612 -0.40224755
-0.29036662 -0.10711032 0.080997065 0.30480438 0.38968083 0.050779488 -0.123083346 -0.40559518
-0.29283062 0.32492828 0.18543385 -0.38687024 -0.24319988 -0.2642534 -0.19363755 0.23668435
-0.1536085 0.3312887 0.33675522 -0.21115601 -0.070905514 0.33869925 0.20344537 0.056102365
-0.062617496 -0.14179209 -0.047796346 -0.21848772 0.1302319 0.37390974 -0.07752707 0.21249618
0.4080253 0.28476584 -0.12605973 -0.38098925 -0.24924725 0.10014791 -0.2424629 -0.28295067
0.41280952 -0.12550487 -0.2644923 0.35740316 -0.29769763 0.40201253 0.23544218 -0.3229457
0.29747197 0.2703479 -0.05681041 -0.44419807 -0.062338658 0.40376985 -0.10662714 -0.03922307
0.32565776 -0.34102207 -0.1758182 0.117580116 -0.3690198 0.2609065 0.23963547 0.16371924
-0.1524542 -0.34980044 0.12232578 0.33850634 0.1813313 -0.3396593 0.3566636 -0.21180525
-0.43791518 0.04398735 0.29057375 0.3746025 -0.09835033 -0.3130767 0.006221599 -0.15087217
-0.03368866 0.10158234 0.12007874 -0.19925153 0.058698524 0.14381771 -0.3007566 0.08660324
0.348919 -0.17646271 0.17570408 0.13673213 0.34961048 0.25961456 -0.3092101 -0.13764873
-0.07418681 -0.21284457 0.34102568 -0.017086651 -0.12595496 0.3578549 -0.15422775 -0.28420147
0.21682061 0.35045457 0.025641305 -0.31595445 -0.032449692 0.41981697 -0.03502429 0.2636806
0.2176262 -0.052658986 0.024998562 -0.07445187 -0.29423663 -0.24245526 0.24880563 -0.27258685
-0.2298721 -0.26453286 0.41284862 -0.1310815 -0.20310245 0.35445368 0.15293503 -0.38334474
0.41484421 0.21731699 0.12688841 -0.02799184 0.110204205 -0.14130412 0.29497454 0.11690847
0.38820437 0.12657574 -0.0366718 0.20662174 -0.080857076 0.13454384 0.09209862 0.3403888
-0.29879278 -0.005086428 -0.22185582 0.29454145 -0.14626047 0.21743564 0.20164967 -0.120052926
-0.02774096 0.26676413 -0.31819832 0.4022701 -0.07978697 -0.12834327 0.003857169 0.013093022
-0.3308854 -0.025770476 0.30175415 -0.17812137 0.26889127 -0.3991431 0.37092945 -0.31963322
-0.26513427 -0.16609243 -0.1728988 -0.08787845 -0.29542297 0.24081406 -0.054125927 0.38892338
0.40933946 -0.35536468 0.20182912 0.31708437 0.17118734 -0.0054851575 -0.29580903 0.41897872
0.11550079 0.32746434 -0.11090507 0.15784423 -0.19744514 -0.40834406 -0.008728065 0.41849858
0.044018228 -0.44391456 -0.00455041 0.2538722 -0.33586246 0.43385738 0.25586864 -0.16819666
0.14593992 0.26627305 0.29537046 -0.01421796 -0.04169172 0.20757307 0.11259617 -0.12477997
0.029936647 -0.33004388 -0.36281863 0.3653674 -0.42736956 -0.25372484 -0.36180803 0.13547692
0.31249654 -0.045744624 0.36647713 0.4258749 -0.04610588 -0.36786425 -0.23258667 -0.015041242
-0.12320819 -0.2863317 -0.12708125 -0.09663611 -0.269397 -0.37370265 0.3146546 -0.097009026
0.09349504 -0.18387446 -0.3234835 -0.061463192 0.25739864 0.40930572 0.06231001 -0.2829562
-0.12102377 -0.19045173 -0.08331524 -0.014754848 -0.097646125 -0.18831033 -0.28624347 -0.09818541
00000000: 6fed 77be c2f4 363e 6150 813e 44b3 c5be
00000010: 4672 8a3c b345 c8bd c719 a1bc 64f3 cdbe
00000020: efaa 94be a85c dbbd cae1 a53d 520f 9c3e
00000030: 3f84 c73e 27fe 4f3d 1f13 fcbd 2caa cfbe
00000040: e5ed 95be 005d a63e 5fe2 3d3e db13 c6be
00000050: 6409 79be 394c 87be ec48 46be 625d 723e
00000060: 8c4b 1dbe ac9e a93e 2e6b ac3e 4839 58be
00000070: e936 91bd fd69 ad3e fc53 503e 98cb 653d
00000080: 9a3d 80bd f231 11be 1ac6 43bd 3fbb 5fbe
00000090: 835b 053e 1971 bf3e 83c6 9ebd 9998 593e
000000a0: b1e8 d03e d4cc 913e cd15 01be 0611 c3be
000000b0: ac3a 7fbe 591a cd3d 3248 78be e9de 90be
000000c0: c55b d33e 5984 00be 896b 87be 8cfd b63e
000000d0: d36b 98be 96d4 cd3e c117 713e 2459 a5be
000000e0: 3f4e 983e 0a6b 8a3e 08b2 68bd ee6d e3be
000000f0: d256 7fbd ecba ce3e 545f dabd 5fa8 20bd
00000100: 9dbc a63e 729a aebe b009 34be d8cd f03d
00000110: 2af0 bcbe 8995 853e 0063 753e 04a6 273e
00000120: f41c 1cbe 0b19 b3be f085 fa3d b450 ad3e
00000130: eaae 393e d3e7 adbe 9d9c b63e 7ae3 58be
00000140: 6b36 e0be 142c 343d 15c6 943e e6cb bf3e
00000150: e66b c9bd 974b a0be 8ede cb3b 3c7e 1abe
00000160: 1ffd 09bd 670a d03d d8eb f53d 9808 4cbe
00000170: dd6d 703d f344 133e c5fc 99be 0a5d b13d
00000180: 83a5 b23e a4b2 34be c5eb 333e 8203 0c3e
00000190: 2500 b33e 33ec 843e c950 9ebe caf3 0cbe
000001a0: 41ef 97bd edf3 59be eb9a ae3e 4ef9 8bbc
000001b0: 56fa 00be c238 b73e e1ed 1dbe db82 91be
000001c0: 3906 5e3e c86e b33e b70d d23c c8c4 a1be
000001d0: f8e9 04bd 40f2 d63e a175 0fbd 2501 873e
000001e0: 67d9 5e3e f3b0 57bd c9c9 cc3c 397a 98bd
000001f0: 2fa6 96be 3146 78be e7c6 7e3e 8190 8bbe
00000200: 9763 6bbe da70 87be e560 d33e 3b3a 06be
00000210: 17fa 4fbe f47a b53e 009b 1c3e c345 c4be
00000220: 7666 d43e 5888 5e3e 09ef 013e 254f e5bc
00000230: beb2 e13d 07b2 10be e706 973e b56d ef3d
00000240: b9c2 c63e 129d 013e 2b35 16bd a694 533e
00000250: 6598 a5bd dcc5 093e 349e bc3d 7147 ae3e
00000260: 5efb 98be 0dac a6bb 2c2e 63be 23ce 963e
00000270: 4ec5 15be 73a7 5e3e 407d 4e3e 4fde f5bd
00000280: 0241 e3bc 4f95 883e e4ea a2be 59f6 cd3e
00000290: 5a67 a3bd 6b6c 03be 8fc8 7c3b 1d84 563c
000002a0: d069 a9be 9b1c d3bc 857f 9a3e 7365 36be
000002b0: 1eac 893e 7c5c ccbe 77ea bd3e f7a6 a3be
000002c0: aebf 87be 2214 2abe 620c 31be 9ef9 b3bd
000002d0: ae41 97be f697 763e 26b3 5dbd f720 c73e
000002e0: f194 d13e 5cf2 b5be 4bac 4e3e e258 a23e
000002f0: bc4b 2f3e d6bc b3bb 4874 97be 6184 d63e
00000300: ae8b ec3d 68a9 a73e 3322 e3bd eba1 213e
00000310: 0f2f 4abe 7912 d1be 2800 0fbc 7245 d63e
00000320: 754c 343d c548 e3be 9b1b 95bb 89fb 813e
00000330: 2af6 abbe 8e22 de3e 3701 833e bf3b 2cbe
00000340: 4671 153e f154 883e cc3a 973e 72f2 68bc
00000350: f0c4 2abd 098e 543e d298 e63d a48c ffbd
00000360: b33d f53c 83fb a8be 5dc3 b9be 7011 bb3e
00000370: 2fd0 dabe 39e8 81be e73e b9be 76ba 0a3e
00000380: 8cff 9f3e b75e 3bbd e4a2 bb3e 460c da3e
00000390: 85d9 3cbd b458 bcbe 332b 6ebe 8b6f 76bc
000003a0: 9354 fcbd 129a 92be 9621 02be 27e9 c5bd
000003b0: 67ee 89be f455 bfbe 681a a13e abac c6bd
000003c0: 547a bf3d 9649 3cbe a19f a5be d4c0 7bbd
000003d0: c1c9 833e 8590 d13e c838 7f3d a3df 90be
000003e0: 4fdb f7bd c705 43be 2ea1 aabd 51be 71bc
000003f0: b1fa c7bd 6cd4 40be 818e 92be 6f15 c9bd

attention_p.attn_1.bias f4 [16]
-0.007217124 -0.011218209 0.011963618 -0.011767938 0.011442937 -0.0005886486 -0.004343218 -0.014551046
0.011027477 -0.010682295 0.013237125 -0.01136873 0.011083177 0.01090951 -0.010513605 -0.013620232
00000000: a07d ecbb 94cc 37bc 0d03 443c 4fce 40bc
00000010: 287b 3b3c 8a4f 1aba 8e51 8ebb 8367 6ebc
00000020: 97ac 343c cb04 2fbc 87e0 583c e943 3abc
00000030: 3796 353c cdbd 323c 4141 2cbc 6527 5fbc

attention_p.attn_2.weight f4 [1, 16]
-0.44605175 -0.3558772 0.112352 -0.17027271 -0.25655824 0.008504471 0.36821592 -0.26823628
0.25403145 -0.3662391 0.2847701 -0.17892066 0.26210508 0.4163285 -0.14753109 -0.30273145
00000000: e560 e4be 8935 b6be ce18 e63d f85b 2ebe
00000010: 9a5b 83be 5656 0b3c cc86 bc3e 4456 89be
00000020: 6910 823e b183 bbbe 63cd 913e fa36 37be
00000030: a332 863e 0229 d53e 6412 17be 9eff 9abe

lstm_t.weight_ih_l0 f4 [64, 7]
-0.1524496 -0.05349364 0.008554918 -0.05342763 0.22191945 -0.17734206 0.21860738 0.011806744
0.21565598 0.051208653 -0.22190668 0.21612337 0.048238583 0.09789332 0.16510575 -0.06420242
0.02636765 -0.09367957 0.12385281 -0.00017803747 0.07772989 -0.14812452 -0.09747766 -0.10822669
-0.14332853 0.19639802 -0.1711101 0.16095772 -0.20348348 0.22178522 -0.2353197 0.18911612
0.017806642 -0.05299849 -0.117492974 0.14659058 0.05785233 0.101565346 0.04840028 0.016748033
0.18396042 0.090237126 0.20915137 -0.17934191 -0.044880744 -0.05848767 0.09257247 0.055946358
-0.14961721 0.11203676 -0.035212576 -0.17158039 0.2369139 -0.17893116 -0.10972079 0.22000428
-0.07843951 0.14886582 -0.07533748 -0.097610295 0.22838525 -0.23750204 0.033180624 0.0026912761
-0.16066065 0.04104678 -0.08936067 0.070693664 -0.12958089 -0.17150557 -0.22642417 0.04908993
0.0017813365 -0.062280804 -0.19029897 -0.0003767905 -0.20380679 0.060211137 -0.054965124 -0.14702082
0.08127807 -0.1881851 -0.011077656 0.124260925 0.20255981 -0.10447583 -0.21905392 0.15380056
0.020140793 -0.24813059 -0.021591071 0.02236765 -0.053619634 0.17365953 0.053679675 -0.1348498
-0.023751173 0.00938653 -0.11717661 -0.1180025 -0.02473141 -0.021412801 -0.15372953 0.21760748
0.2563531 -0.1824344 0.12380513 -0.19551614 0.05680357 0.24078323 0.030438155 -0.19581473
0.008223494 -0.17684202 -0.18791349 -0.052666984 -0.14538956 0.10612564 0.073684365 -0.23240083
-0.031762 0.24402158 0.16749853 0.13465157 0.08622282 -0.20208713 0.21052761 0.22685786
-0.07083013 -0.2179015 -0.046609838 -0.012064932 0.16773999 0.13987075 -0.18931612 -0.13882178
0.042550277 0.19018815 -0.0075982995 -0.24315123 0.12188557 -0.041988365 0.0801707 0.12040664
0.1290495 0.02210557 0.08802667 0.07476704 -0.085659504 0.058583762 0.15286994 -0.19854249
0.04038288 0.1842413 0.101504594 -0.12320297 0.061958447 -0.0092962375 0.20628719 -0.13975993
0.120441355 0.019211054 0.012003413 -0.0066740774 -0.21202083 0.09325673 -0.16285324 0.23400423
0.09171163 -0.11134682 0.20188145 0.18711375 0.239057 0.12837039 0.05663878 -0.13755526
0.22274332 0.12470894 0.11573696 0.22527283 0.17090407 -0.13386592 0.18246612 0.08566194
-0.098538086 0.20493127 -0.097345926 -0.08123525 0.017407961 0.0036196348 0.17417295 -0.12731098
-0.24065246 0.08013585 -0.17327991 -0.22022481 -0.18952866 -0.19000278 -0.078209534 -0.1788303
0.15147926 -0.11423358 0.15105851 -0.13613142 0.16035636 0.032293774 -0.23530816 -0.10023496
0.23924115 0.22814858 0.19223265 0.20070887 0.058029562 -0.19626036 -0.07175147 -0.18100204
0.13505423 0.14096154 0.07761773 0.20399985 -0.04564565 0.12639704 -0.02282499 -0.048416864
-0.1500419 -0.14401597 0.042211767 -0.11988279 0.039857954 -0.11155448 -0.031555235 -0.17731518
-0.20571858 0.09377973 0.17172894 -0.035822775 0.04219802 0.055699956 0.20445567 -0.03169033
0.23531955 0.014106535 0.15860367 -0.011547074 -0.108845964 0.017442204 -0.22045402 0.036351714
-0.06755993 0.069558814 -0.23882361 0.17904541 -0.059071727 -0.027575642 0.033524793 0.20935385
00000000: bf1b 1cbe 261c 5bbd ed29 0c3c eed6 5abd
00000010: da3e 633e 2899 35be 9dda 5f3e 1371 413c
00000020: ecd4 5c3e 2ac0 513d 813b 63be 724f 5d3e
00000030: d295 453d 4b7c c83d 7b11 293e 8f7c 83bd
00000040: f800 d83c 13db bfbd 8ba6 fd3d 92af 3ab9
00000050: d930 9f3d f4ad 17be 5ea2 c7bd f4a5 ddbd
00000060: b7c4 12be 901c 493e 7c37 2fbe 1ad2 243e
00000070: f95d 50be aa1b 633e a6f7 70be a8a7 413e
00000080: 3cdf 913c f214 59bd 28a0 f0bd d71b 163e
00000090: 91f6 6c3d 7e01 d03d 5f3f 463d 2c33 893c
000000a0: 1f60 3c3e 3ece b83d c72b 563e 68a5 37be
000000b0: dfd4 37bd c490 6fbd a396 bd3d 0228 653d
000000c0: 4135 19be 8773 e53d 103b 10bd c5b2 2fbe
000000d0: 8f99 723e bb39 37be 4bb5 e0bd cd48 613e
000000e0: e5a4 a0bd 4870 183e 894a 9abd e8e7 c7bd
000000f0: d3dd 693e bc33 73be 68e8 073d 1f60 303b
00000100: 3a84 24be ab20 283d ba02 b7bd d7c7 903d
00000110: dab0 04be 289f 2fbe bddb 67be 8612 493d
00000120: bc7b e93a 281a 7fbd bcdd 42be f78b c5b9
00000130: bab2 50be f49f 763d 1c23 61bd a08c 16be
00000140: 1e75 a63d 98b3 40be 0f7f 35bc 837c fe3d
00000150: d76b 4f3e 6df7 d5bd ac4f 60be e57d 1d3e
00000160: 4efe a43c f215 7ebe c2df b0bc 5d3c b73c
00000170: 43a0 5bbd ced3 313e 38df 5b3d 1116 0abe
00000180: d291 c2bc f6c9 193c 4afa efbd 4bab f1bd
00000190: 8799 cabc e669 afbc 466b 1dbe 7fd4 5e3e
000001a0: b740 833e 15d0 3abe 8b8d fd3d 6235 48be
000001b0: dcaa 683d e18f 763e 7059 f93c a883 48be
000001c0: d5bb 063c 1316 35be 656c 40be 56b9 57bd
000001d0: 00e1 14be 6658 d93d d4e7 963d 7cfa 6dbe
000001e0: df18 02bd cbe0 793e bc84 2b3e 1ae2 093e
000001f0: 9795 b03d eeef 4ebe 8d94 573e 6d4d 683e
00000200: 630f 91bd 9221 5fbe f5e9 3ebd feab 45bc
00000210: 08c4 2b3e 473a 0f3e 16dc 41be 4c27 0ebe
00000220: 3349 2e3d afc0 423e 28fb f8bb a3fc 78be
00000230: 249f f93d fefb 2bbd 8930 a43d c297 f63d
00000240: 8d25 043e be16 b53c 5447 b43d 761f 993d
00000250: 406e afbd 87f5 6f3d f089 1c3e b94e 4bbe
00000260: 8568 253d c0a9 3c3e a4e1 cf3d d751 fcbd
00000270: 24c8 7d3d 3f4f 18bc f33c 533e 3a1d 0fbe
00000280: f5a9 f63d 8060 9d3c f7a9 443c 38b2 dabb
00000290: fd1b 59be 62fd be3d 00c3 26be ce9e 6f3e
000002a0: 4fd3 bb3d cd09 e4bd 03ba 4e3e bf9a 3f3e
000002b0: 5ccb 743e 8773 033e 11fe 673d 49db 0cbe
000002c0: d316 643e 6767 ff3d 8007 ed3d ecad 663e
000002d0: 7a01 2f3e 2614 09be 66d8 3a3e 876f af3d
000002e0: 56ce c9bd 81d9 513e 4d5d c7bd ab5e a6bd
000002f0: 249b 8e3c 6537 6d3b 655a 323e cf5d 02be
00000300: 996d 76be 441e a43d 4a70 31be 9d82 61be
00000310: cd13 42be 1790 42be 522c a0bd 4a1f 37be
00000320: 611d 1b3e 4cf3 e9bd 15af 1a3e 0966 0bbe
00000330: 7534 243e 7a46 043d 9ff4 70be fd47 cdbd
00000340: a2fb 743e c89f 693e a3d8 443e a086 4d3e
00000350: 68b0 6d3d 7af8 48be 6ff2 92bd 9958 39be
00000360: a84b 0a3e 3958 103e 0bf6 9e3d 56e5 503e
00000370: eff6 3abd 3a6e 013e 79fb babc c350 46bd
00000380: 95a4 19be ec78 13be 3fe6 2c3d 1c85 f5bd
00000390: 1842 233d ad76 e4bd 1040 01bd 1c92 35be
000003a0: e4a7 52be 960f c03d b6d9 2f3e e7ba 12bd
000003b0: d5d7 2c3d a325 643d d45c 513e b8cd 01bd
000003c0: 9cf7 703e 191f 673c 0069 223e f02f 3dbc
000003d0: a2ea debd f4e2 8e3c b3be 61be 89e5 143d
000003e0: dc5c 8abd da74 8e3d 2d8e 74be ae57 373e
000003f0: 32f5 71bd 50e6 e1bc 4b51 093d db60 563e
