Params/dataset2_100_0.001_10_16_222_model.pt (torch, 46587 bytes, 31 tensors)

lstm_p.weight_ih_l0 f4 [64, 10]
000000 a5 90 e4 bd 3e 15 ef bd e0 d6 24 bd a0 14 9d bc
       -0.11160401 -0.116739735 -0.040243983 -0.019174874
000010 c0 a3 5c 3e ac 9d 06 be 1b bc 94 3d 0a f1 2e 3e
       0.2154684 -0.13146085 0.07262441 0.17084137
000020 d6 53 a9 bd ef dc bc bd ae 5c e4 3d 08 88 f6 3c
       -0.082679436 -0.09221827 0.1115049 0.030094162
000030 da c7 cb 3b 7b 99 71 3e 8c f5 3a bb c1 af 05 be
       0.0062188925 0.23593704 -0.0028527705 -0.13055326
000040 f3 0a 1b bc 61 a1 44 3d 02 70 5f 3d 55 55 b6 3d
       -0.00946306 0.048005465 0.05455018 0.089029945
000050 f6 9e e1 3b bf 02 32 3d 2f 5d 5f be 36 93 3e 3e
       0.0068854047 0.04345965 -0.2181289 0.18610844
000060 16 aa 11 be 15 24 af bd f5 ec b4 3d 97 ac 0c bd
       -0.14225039 -0.08551804 0.088342585 -0.034344282
000070 f9 aa 2e 3e 3d bc cd 3d 9a 07 6b 3e 00 d6 9d 3d
       0.17057408 0.10045669 0.22952119 0.07706833
000080 08 5f 85 3d 02 4d 56 3d a9 8d 1f be 83 2e 18 3d
       0.065122664 0.052319534 -0.15581383 0.037153732
000090 66 b3 b4 3d 2c 71 49 bd 3b e3 03 be 66 94 13 be
       0.0882328 -0.049180195 -0.1287965 -0.14412078
0000a0 22 dc 26 3e df 22 3c be e1 ad 86 3e 27 1b 08 bd
       0.16294912 -0.18372677 0.26304534 -0.03322902
0000b0 98 26 69 3d 5a d2 21 3e f3 b0 31 3e 51 53 7e 3d
       0.05692157 0.15802899 0.17352657 0.062091175
0000c0 d3 2a 5a be f4 73 eb bb 29 ab e1 bd 41 51 5e be
       -0.21305399 -0.0071854535 -0.11018974 -0.21710683
0000d0 06 ae a2 bd 1b c2 f2 3d ed df c9 3c 58 29 5d 3e
       -0.079433486 0.11853429 0.024642909 0.21597803
0000e0 e2 e0 14 be c7 db e7 3d da ab 45 3e 5e 37 2c be
       -0.14538911 0.11321216 0.19303837 -0.16817996
0000f0 95 66 6e 3e 6c 4b ec 3d 48 0a 62 bc 09 2f 77 bd
       0.2328132 0.11537823 -0.013796397 -0.06034759
000100 97 2f 02 be 6b b5 57 3e 30 a0 b2 3d a4 f3 82 bc
       -0.12713467 0.21065299 0.087219596 -0.015985318
000110 0a f1 73 3e 2a d0 00 be 60 59 fe bd 11 69 00 be
       0.23822418 -0.12579408 -0.12419391 -0.1254008
000120 13 7c 77 3e f0 de 40 be 78 8e 3e 3b 25 cf e1 bc
       0.24168424 -0.18835044 0.0029076617 -0.027564595
000130 b9 5e 40 bd a2 93 62 be f9 a1 dc 3d 6d 3d 3c bd
       -0.046965335 -0.2212663 0.10773081 -0.045957018
000140 71 56 6d be a1 2f d2 bc 9a 74 3a be 4d 2c 98 3d
       -0.23177506 -0.025657477 -0.18208542 0.07430325
000150 71 f7 d6 3d 22 fa 01 be 38 c4 55 3e 50 4f fa 3c
       0.104964145 -0.12693074 0.20875633 0.030555397
000160 fe 06 6a be d1 b0 59 3c 5b 03 6f 3c af 26 01 3e
       -0.2285423 0.013286785 0.014588202 0.12612413
000170 e1 15 57 be d1 da 24 3d cb e2 0e be f2 7b 13 3d
       -0.2100444 0.040247742 -0.13953702 0.036006875
000180 67 39 3c be 41 de c3 3c 0a d7 5c be 4a 24 92 3d
       -0.18381272 0.02390969 -0.21566406 0.07135828
000190 a8 79 fd 3c c0 d0 31 3e 3e 19 7a 3e ca d7 91 3d
       0.0309418 0.17364788 0.24423692 0.071212366
0001a0 34 8f e4 bd b5 d0 bf bd 60 30 00 3e 57 93 f5 3d
       -0.11160126 -0.093659796 0.12518454 0.119909935
0001b0 5a 2c 16 bc a6 61 33 be d3 fd 03 be 64 c1 8a 3c
       -0.009165848 -0.17517719 -0.12889795 0.016937919
0001c0 1c 19 e5 3d ec 9a 02 3e 3c b6 ff 3d 88 2b 24 3e
       0.1118643 0.1275441 0.1248593 0.16032231
0001d0 81 f3 cb bc 29 69 09 3e 1c 87 78 3d 97 ef 60 3e
       -0.024896385 0.13419022 0.060675725 0.21966396
0001e0 03 da 0b 3e 5f 12 3c 3c f0 2a d3 3d 63 cf 83 bd
       0.13657384 0.011478989 0.10310924 -0.0643604
0001f0 a7 0c 66 be 3f 84 94 3d 1a 13 5e 3e 6a 20 cc 3d
       -0.22465764 0.072517864 0.21686974 0.0996712
000200 f9 3a fd bb 67 5d 6b be 79 a1 43 be b3 6e c5 3d
       -0.0077279774 -0.22984849 -0.19104566 0.09640255
000210 6f 01 9d 3d 9a a8 11 3e 57 24 0f 3e 4f 5c 5f bc
       0.07666289 0.14224473 0.13978706 -0.013632848
000220 82 82 5b be 4f 0c d4 3d 08 be 47 be e4 52 72 3d
       -0.21436504 0.1035391 -0.19506085 0.059161082
000230 11 c4 99 bc c4 ff ff 3d ba 08 6f 3e 47 9f e3 bb
       -0.01877025 0.12499955 0.23343173 -0.0069464776
000240 17 eb f6 3d 04 67 38 3c 07 56 00 3e c2 cc f6 bd
       0.120565586 0.01125503 0.12532817 -0.12050773
000250 c3 b8 72 be c2 2c c3 bd a9 1a cc 3c 37 13 ee 3d
       -0.23703294 -0.09530021 0.024915056 0.11624759
000260 e5 90 23 3e 7b 57 a1 ba f2 17 c6 3d 8a 67 f6 3b
       0.15973242 -0.0012309396 0.09672536 0.007519667
000270 a7 20 66 3e 38 e6 be 3d 4f 68 bd 3c ca 2a 7c bb
       0.22473393 0.093212545 0.023121027 -0.0038477653
000280 7b 7d 84 3d cf a3 7f bd d3 b2 65 3e e9 6e 08 3e
       0.06469246 -0.06241208 0.22431497 0.13323559
000290 61 c5 ba bd 62 79 b2 3d 73 67 fa bd 73 c5 5c be
       -0.09119678 0.08714558 -0.122267626 -0.21559696
0002a0 5e 17 70 be 75 62 74 be 5d e1 ea bd a7 b0 dc bd
       -0.23446414 -0.23865683 -0.11468766 -0.10775881
0002b0 2f 09 59 bd a6 ad 5b 3e 2a 97 15 3d bc cb ef 3d
       -0.052987274 0.2145296 0.036521114 0.11708781
0002c0 34 fd 3e 3d 8d 84 98 3d 0e 99 bd bc 73 07 0b ba
       0.046628192 0.07447157 -0.023144271 -0.0005303539
0002d0 a2 2f 69 3e 83 ea 3c 3e 28 1b e1 bb 91 e4 ab 3d
       0.22772077 0.18448834 -0.0068696924 0.08393205
0002e0 50 b4 04 3e 56 21 f7 3d 4f 79 0d 3e 39 2e b9 bd
       0.12959409 0.12066905 0.13815807 -0.090420194
0002f0 a2 27 bb 3d e0 c9 90 3b 3b 55 ea 3d 1a b0 28 bd
       0.09138419 0.0044185966 0.11442038 -0.04118357
000300 ed 0b 20 3e ba 60 2f be d5 6f 19 3e 11 5d 9a 3d
       0.1562955 -0.17126742 0.14984067 0.07537282
000310 c9 5c 0a 3e 31 cd c2 3b 80 9a e0 bd 15 19 32 3b
       0.13511957 0.005944871 -0.109669685 0.0027175595
000320 e0 79 08 3e 2f 3b 5c 3d 60 b9 5b be a8 8a 4f be
       0.13327742 0.05376738 -0.21457434 -0.20267737
000330 3f 2b 71 3e 77 63 1f be 0f fa 88 bd 24 d4 2c be
       0.23551653 -0.15565287 -0.0668832 -0.168778
000340 94 25 af 3d 9f 9c 62 be 32 7e 1b 3e cd 70 2e be
       0.08552089 -0.22130059 0.15184858 -0.17035218
000350 5e c1 73 be fb e1 1c bd 74 a6 3c 3d f2 23 f3 bd
       -0.23804232 -0.03830145 0.04605718 -0.118720904
000360 15 d6 b9 3d 9c 71 6b be 1f 65 51 3e bb 2a 5f be
       0.09074036 -0.22992557 0.20448731 -0.21793644
000370 bb f6 a0 3d 7e c7 16 bd e9 28 a3 bd 5e 31 4e 3e
       0.0785956 -0.036811344 -0.07966787 0.2013602
000380 74 29 57 3e ee 68 49 3e e9 85 1c be 3e b8 39 be
       0.21011907 0.19668934 -0.15285458 -0.18136689
000390 a5 00 60 be 5c e4 01 3e 04 90 ca bc 3a 7f 07 be
       -0.21875246 0.12684768 -0.024726875 -0.13232127
0003a0 d8 00 f0 bd 7d b6 07 3e 18 d6 65 bd db 9d d4 3c
       -0.11718911 0.13253208 -0.05611238 0.025954178
0003b0 26 a2 5a be 5c 43 5e 3e 3e b9 97 bd f4 9a c5 3d
       -0.21350917 0.21705383 -0.07408379 0.096486956
0003c0 09 4f 54 be 09 ba 3d 3e 0a 9d 49 3e aa 03 0c be
       -0.20733275 0.18527998 0.19688812 -0.13673273
0003d0 ca 34 d6 bd a9 4c 24 be 89 2e 6a 3e cf a2 0c 3e
       -0.104592875 -0.16044869 0.22869314 0.13733982
0003e0 a6 42 cf 3d e0 ac d7 3d 5d 74 3c be 09 b3 f3 bd
       0.10120134 0.1053102 -0.18403764 -0.118993826
0003f0 96 e6 28 be 3d 3c a0 bd 9a e9 9a bd f6 76 10 3e
       -0.16494212 -0.078239895 -0.07564087 0.1410788

lstm_p.weight_hh_l0 f4 [64, 16]
000000 33 25 cc bc 46 fe 90 bc 43 83 ff 3a 90 85 80 3e
       -0.024920082 -0.017699372 0.0019494075 0.251019
000010 33 22 73 3e de 68 27 be e8 82 51 3d ca f8 5a 3d
       0.23743515 -0.16348597 0.051150233 0.05345992
000020 a1 61 12 3e f0 52 43 bd 76 30 ce 3d 47 81 07 3e
       0.14295055 -0.047686517 0.10067837 0.13232909
000030 d9 d6 bb 3c f6 59 57 3e eb 50 9e 3d 88 38 43 3e
       0.022929596 0.21030411 0.07730278 0.19064534
000040 d3 c2 35 3e 9d 81 73 be e3 a0 fe bd e9 ac 33 bd
       0.17750101 -0.23779912 -0.124330305 -0.04386607
000050 39 97 2a 3e 39 3a 3f be 7a 76 2c 3e 88 6b e2 3d
       0.1665925 -0.18674554 0.1684207 0.11055666
000060 98 a8 3e 3d 0b e2 56 3e a7 df 13 3c f8 bf 32 be
       0.046547502 0.20984666 0.009025491 -0.17456043
000070 66 91 ff 3d 6a 11 62 be 2b c3 5b be ea 29 9a 3d
       0.124789044 -0.22076955 -0.2146117 0.07527526
000080 8d 51 4d 3e ef 88 80 be 9d c7 38 3e 32 fa 3d 3e
       0.2005064 -0.25104472 0.18044896 0.18552473
000090 4e 0a 24 be 43 d4 55 be 97 28 5b 3b c5 7e 34 3e
       -0.16019556 -0.20881753 0.0033440941 0.17626484
0000a0 9f c7 0e 3d b3 d4 29 be 3d 2c 91 bd d2 db 13 bc
       0.034858342 -0.16585045 -0.07088516 -0.009024577
0000b0 e5 01 7f 3e dc e8 d6 bd ed 65 35 be e0 13 82 bd
       0.24903066 -0.10493633 -0.17714663 -0.06351447
0000c0 62 d0 0c be f2 03 e1 bc f1 d0 b6 3c 50 8c d2 bd
       -0.13751367 -0.027467702 0.022316428 -0.10280669
0000d0 45 76 af 3d 8c 8d 6f be 1e 7b 26 3e 69 3c 9b 3d
       0.0856748 -0.2339384 0.16257903 0.07579882
0000e0 0e 84 fe 3d d4 9e 8d bd 30 74 bd 3d d6 c7 c1 3d
       0.12427531 -0.0691506 0.09250677 0.09461944
0000f0 8f 23 cb 3c 8a 87 b5 bd ad 21 9f bd 1a bc 1c 3e
       0.02479723 -0.08863743 -0.07770095 0.1530613
000100 c1 5f 4c 3e 6e 4d 55 bc 21 90 41 be 38 14 10 3d
       0.19958402 -0.013018949 -0.18902637 0.035175532
000110 d5 5c 6c be f2 6e b5 3d 3e 09 c9 bd 55 3d a6 3d
       -0.23082288 0.08859052 -0.09816216 0.08117167
000120 e8 0e 12 be 06 03 de 3d 0b ec 39 be 18 8b 3e 3e
       -0.14263499 0.108404204 -0.1815645 0.18607748
000130 f5 ba 3e 3e 11 e4 68 3e 85 73 9f 3d 75 64 1c be
       0.18626006 0.2274325 0.077857055 -0.15272696
000140 e3 76 6b bb 43 1b 1e 3e 3a 6e 13 be da 85 3f be
       -0.0035929016 0.15440087 -0.14397517 -0.18703404
000150 11 5a cb 3d 4b 25 03 be cf 10 5f be ae 3a 32 3e
       0.09929288 -0.12807195 -0.21783756 0.17405197
000160 4b 7c 1d 3e fd 9c 1b be d1 44 df bd 2e 2e 2f 3d
       0.15379445 -0.15196605 -0.109017976 0.04276865
000170 02 38 f7 bd 6f bc 5c be a1 43 e9 3d e7 d6 7f 3d
       -0.120712295 -0.21556257 0.11389852 0.062460806
000180 59 65 54 be 1c e3 b0 3c 0d 07 21 bc bb 92 01 be
       -0.20741786 0.02159267 -0.009828341 -0.1265363
000190 9a 13 42 3e 1e ae 96 3d 5d 0c 82 3e 87 91 a2 bc
       0.1895279 0.07357429 0.25400057 -0.019844783
0001a0 a8 7e 0f be 5d 8e 82 bc b9 17 4e be e5 61 a1 3c
       -0.1401316 -0.015937025 -0.20126237 0.0197
0001b0 a0 db 58 be a0 ef 3f 3e 07 4a 68 bd 57 80 13 3e
       -0.2117753 0.18743753 -0.056711223 0.14404427
0001c0 81 72 22 3e bb cd 5b be 2e f3 77 3e c0 d4 38 be
       0.15863992 -0.21465199 0.2421386 -0.18049908
0001d0 32 01 71 3e 7c 90 a7 bd 4c 67 4d 3d 41 7a ad 3d
       0.23535612 -0.08181855 0.05014734 0.08470584
0001e0 a6 b8 6f 3e da 43 33 3e e6 53 15 3e 8b 6a 74 3d
       0.23410282 0.17506352 0.14582786 0.05967192
0001f0 05 d5 a6 bd c4 ef c2 3c 8f 55 69 bc a1 11 28 3e
       -0.08146099 0.02379597 -0.01424159 0.16412975
000200 1b 40 3d be d4 39 24 3e d4 44 18 3e 5a 3b 81 3e
       -0.18481486 0.16037685 0.14870006 0.25240594
000210 f3 77 91 3d ff 51 5d 3e e8 e3 2c be 32 1e 38 be
       0.071029566 0.2161331 -0.16883814 -0.17980269
000220 ef f4 c7 3c 2e 82 d9 3d 4c 69 23 3e c3 d3 4f be
       0.024408786 0.10620533 0.15958136 -0.20295624
000230 04 db 25 bd 58 1b 1e be 85 1d c1 3a 42 2b 80 bb
       -0.040492073 -0.15440118 0.0014733529 -0.0039114067
000240 a2 06 50 be e9 ff df bc a2 d3 23 be 4e 17 99 bd
       -0.2031503 -0.027343707 -0.159987 -0.07475148
000250 59 20 b6 3c c6 70 21 3e 5b be 08 3c 67 36 0a be
       0.022232221 0.15765676 0.0083461655 -0.13497315
000260 e5 15 34 be 1b f3 a5 bd b4 bb 1f 3d c6 ad 21 be
       -0.17586477 -0.08103009 0.038997367 -0.15788946
000270 2f cb 7d 3e ca 2d f7 3d 39 d5 4f 3e 22 99 1f 3d
       0.2478454 0.120692804 0.20296182 0.0389644
000280 13 17 31 be b7 27 20 3e 7a 62 07 be 13 41 63 3e
       -0.17293958 0.1564015 -0.1322116 0.22192793
000290 dd b6 72 3d 62 2d 30 3e e5 77 7a be 89 a1 ad bd
       0.059256423 0.17204812 -0.24459799 -0.08478076
0002a0 6b de fa 3d c7 e4 20 be 3d 1d 44 3e ee 66 17 3c
       0.12249454 -0.15712272 0.19151779 0.009240849
0002b0 93 6e 47 be 41 a3 f4 3d 50 f7 45 3d 6c 5d f5 bd
       -0.19475774 0.11945201 0.04833156 -0.119807094
0002c0 92 ef bf bd 8f 9e ae bc 5f b5 7b bd ef b0 7f 3e
       -0.09371866 -0.021315841 -0.061452266 0.24969839
0002d0 06 3d 4d be 44 d1 94 bc 8d ca 3e be 07 d0 3e bc
       -0.2004281 -0.018166192 -0.18631954 -0.011646277
0002e0 b7 ad 11 be 14 64 6e 3e 6d 4f 10 be 3d 26 6e 3e
       -0.14226423 0.23280364 -0.14092799 0.23256774
0002f0 4a 4c b9 bb ab 31 be 3c 17 82 9c bd e9 31 01 bd
       -0.0056548463 0.023217043 -0.07642 -0.03154174
000300 2b 10 83 bd 5c c1 e4 bd 24 9b 32 be 80 e5 6e bd
       -0.06399568 -0.11169693 -0.17441994 -0.058324337
000310 14 56 00 be f0 ba 27 3d 05 a4 b1 bc 17 6c 11 be
       -0.12532836 0.040949762 -0.021684656 -0.14201389
000320 28 34 7f be 96 de 02 be 9c 10 41 3e af 58 dc 3d
       -0.2492224 -0.12780222 0.18853992 0.107591026
000330 a4 53 1b 3e f9 93 66 bd a1 39 3f 3e 5d 10 3d 3e
       0.15168625 -0.05629346 0.18674327 0.18463273
000340 81 9c 05 be 8b 2e 01 be fa 54 05 3e be 5d 1a 3e
       -0.13047983 -0.12615411 0.13020697 0.15074822
000350 ef 46 c3 bd 50 d3 be 3d 6c 8a af 3d 79 09 e0 bd
       -0.09535014 0.093176484 0.08571324 -0.10939307
000360 4a 73 4b be b3 19 94 bd 8e 2a 2f be 6a d9 5a 3e
       -0.19868198 -0.07231464 -0.17106077 0.21372
000370 4c 09 0d 3e 11 d1 72 3e 09 82 15 3e ac b6 c8 3d
       0.13773078 0.23712565 0.14600386 0.09800467
000380 c2 f6 cb 3c 0e 9e 3a 3e cc 19 d5 3d 05 3a db 3c
       0.024897937 0.18224356 0.10405311 0.026761064
000390 9d ec 31 3e 0c cb 44 3e 6e 29 b8 bd 8d 94 64 bd
       0.17375417 0.19218081 -0.08992277 -0.05580573
0003a0 d0 9c 4e bd 4b fe 42 be 5f 09 2e be 5c de 51 be
       -0.050442517 -0.19042318 -0.16995762 -0.2049498
0003b0 20 62 93 3c 58 f6 07 bd ec 25 00 3e 29 24 4b 3d
       0.017991126 -0.033193916 0.12514466 0.049595032
0003c0 4a dc fc bd 6f a7 87 3d 75 93 69 be aa 6b b3 3d
       -0.12346704 0.06623732 -0.22810157 0.0876077
0003d0 94 8a 18 3e 90 f9 1f be 3d cb 19 3d a0 c7 08 bb
       0.14896613 -0.15622544 0.03754734 -0.002087094
0003e0 31 13 70 3d 18 1d 40 3e 8a 0a 21 be c8 c7 2e be
       0.058612052 0.18761098 -0.15726677 -0.17068398
0003f0 94 8a c4 3c a5 8e 58 be 1f f8 f8 bd 03 39 b4 3d
       0.02399186 -0.21148165 -0.121567 0.087999366

lstm_p.bias_ih_l0 f4 [64]
000000 5a 70 f6 bc bb 3b 58 be 6f 49 2f be 62 8e ad bd
       -0.03008287 -0.21116535 -0.17117856 -0.08474423
000010 68 92 0c 3e ab 0c 85 bd 0d 91 d3 3c e4 f9 4a be
       0.13727725 -0.06496557 0.025826002 -0.19821888
000020 b7 1b 3a 3e 77 ac 81 be b1 3e b2 3d 78 11 37 3d
       0.18174635 -0.25326893 0.08703364 0.044694394
000030 6c f7 66 3e 76 9f 19 be 4d c0 02 3e 00 af 07 3e
       0.22555321 -0.15002236 0.1276867 0.13250351
000040 4d 87 27 be e7 43 46 3e a1 7b 2d be 60 42 2a be
       -0.16360207 0.1936184 -0.16941692 -0.16626883
000050 b6 fd 60 be 9d bb 3c 3e f9 c3 9f 3d b4 f7 e1 bb
       -0.21971783 0.18430944 0.07801051 -0.0068959836
000060 12 b2 79 3b 66 39 34 3e 78 88 2e bd 7b b3 db 3c
       0.0038100523 0.17600021 -0.042610615 0.026818981
000070 42 c2 0e be c1 8b 3b be 61 a4 73 be e7 68 0b 3e
       -0.13941291 -0.1831503 -0.23793174 0.13614236
000080 a8 9b c2 bd 8a 67 07 be 50 65 2e 3e 05 e2 63 3e
       -0.09502345 -0.13223091 0.17030835 0.22254188
000090 0b 24 aa 3c 37 52 a6 bd c8 8a 68 be dc 2b 59 be
       0.02076914 -0.0812115 -0.22709191 -0.21208137
0000a0 3d 09 f8 3d 8d b2 19 be b6 a0 61 be f1 f8 43 be
       0.12111137 -0.15009518 -0.22033963 -0.19137932
0000b0 21 9e 80 bd 26 0c ec 3d bb 28 27 3e b9 a3 62 bd
       -0.06280161 0.11525755 0.16324131 -0.05533192
0000c0 2a fd 41 3e 2e 46 50 3e 05 df ec 3d 7f b7 76 3e
       0.1894423 0.20339271 0.11565975 0.24093436
0000d0 d6 99 82 be 06 bf 6b 3d a4 6e 3a be 61 f6 6d bc
       -0.25507993 0.05755522 -0.18206269 -0.014524073
0000e0 02 7f 5d 3d 5f 15 9b 3d dd bf 44 bd c2 ec 15 3d
       0.054076202 0.075724356 -0.048034538 0.036602743
0000f0 cc cf 1b be 26 d4 34 3e 01 8b d8 bd 61 16 1b be
       -0.15215987 0.17659053 -0.10573388 -0.15145256

lstm_p.bias_hh_l0 f4 [64]
000000 76 a6 81 be c7 6a bc bc 94 dc a6 bd ee a4 b6 3d
       -0.25322312 -0.023000134 -0.08147541 0.089181766
000010 2b 4c d8 bc d7 bf 48 3d 62 97 2c be d0 26 63 3e
       -0.026403507 0.049011078 -0.16854623 0.22182775
000020 4d 3c 97 bc 16 15 4a be bb d1 30 3e 46 d2 a6 3b
       -0.01846137 -0.19734606 0.17267506 0.0050909845
000030 eb 39 a5 bc 75 a1 00 be f7 d4 a8 bd 30 8a 46 3d
       -0.020169219 -0.12561591 -0.08243745 0.04847163
000040 48 a2 e5 3d 87 80 7c be 25 15 0e 3d 79 2b 87 3d
       0.11212593 -0.24658404 0.034688134 0.066000886
000050 88 a6 01 3e 69 89 96 3d 99 53 a6 3d 8a de 4b 3e
       0.12661183 0.07350428 0.08121414 0.1990911
000060 d8 79 a0 bd 85 a2 da 3c f7 30 cd bd 39 99 21 3d
       -0.0783574 0.026688823 -0.10019105 0.039452765
000070 b7 a3 f4 bd af 59 b0 3d d6 37 af 3c 25 50 4e 3c
       -0.11945289 0.08610856 0.02138893 0.01259235
000080 67 c3 6d be 3a 2a 26 3e 9a cd 6c be df c4 54 3d
       -0.23219071 0.16227046 -0.23125306 0.051945563
000090 6a 72 12 be 82 96 27 be 76 d0 4f bb 94 00 25 be
       -0.14301458 -0.16366008 -0.0031709946 -0.16113502
0000a0 4a 33 fb bd a9 96 1b be 78 36 28 3e 8d 39 9e bd
       -0.12265642 -0.15194191 0.16427028 -0.07725821
0000b0 cb 87 ae 3d 69 27 3c bd e1 77 4d be d5 9f 03 3e
       0.08521994 -0.045936022 -0.20065261 0.1285394
0000c0 97 33 08 be 2c bc 0a 3e 4f 3c 5a be af bb 77 be
       -0.1330093 0.13548344 -0.21312068 -0.2419269
0000d0 f0 1a 89 3d cd db 84 bd fa 5f 07 be c2 ed 6c 3e
       0.06694591 -0.06487236 -0.13220206 0.23137572
0000e0 1c 1c 68 3e 5b 0c 79 be 30 5b 3d 3e e1 9a ec 3d
       0.22666973 -0.2432112 0.18491817 0.11552978
0000f0 93 6c a8 bd d9 76 bd bd 47 17 8c 3d f8 fc 4d bd
       -0.08223834 -0.09251184 0.06840377 -0.050290078

lstm_p.weight_ih_l1 f4 [64, 16]
000000 ff ef 3d bd f9 4b a3 3d e0 79 5d 3e 5c 5e 34 3c
       -0.046371456 0.07973475 0.21628523 0.011008825
000010 4b ed 35 be ce 5b d6 3d f2 df 61 3e 4e c0 5b 3e
       -0.17766301 0.10466729 0.22058085 0.21460077
000020 4f 5d 5e 3e 0e 95 d2 bd 72 74 06 be 3b 54 02 3e
       0.21715282 -0.10282336 -0.13130358 0.12727444
000030 b9 57 ac 3d eb 85 45 3e ed b3 b2 bd f8 35 d0 bd
       0.08415169 0.19289367 -0.08725724 -0.10166544
000040 5c 97 24 bd ad 59 41 3e 9f e2 a2 3d 17 21 71 3e
       -0.04018341 0.18881865 0.07953381 0.23547779
000050 fd f4 0b be 0d 30 8a bd 32 ff 13 3e 84 23 88 bd
       -0.13667674 -0.06747446 0.14452818 -0.06647399
000060 8f c6 51 3e a4 30 60 bd 26 64 35 3e 47 84 1f 3e
       0.204859 -0.054733887 0.17713985 0.15577804
000070 68 e2 25 3d c1 b2 7e bd 29 c4 19 be f7 54 04 be
       0.04049912 -0.06218219 -0.15016235 -0.12923037
000080 bf d8 10 be 47 91 46 be 17 2c 45 3e ae 35 bb 3d
       -0.14145182 -0.19391356 0.192551 0.09141098
000090 dc eb a4 bd 3c ad 49 3e b6 67 a9 3c c9 32 aa 3b
       -0.08052799 0.1969499 0.020679336 0.0051940423
0000a0 b8 34 1c 3e 23 97 6c 3e d2 0e 20 3e 22 35 bc bd
       0.15254486 0.23104529 0.15630654 -0.09189822
0000b0 af 27 63 be ce 08 d8 bd e7 c5 4a bd 9b 6d cb 3d
       -0.22183107 -0.10548554 -0.04950514 0.09933015
0000c0 dc 36 07 3e 5f ff 78 be 71 88 5d 3e de 87 7d 3e
       0.13204521 -0.24316166 0.2163408 0.2475886
0000d0 79 a9 8d bd 07 1c 46 3e 1e e4 eb 3d cb fc 16 be
       -0.0691709 0.19346629 0.11518119 -0.1474487
0000e0 bf 04 d2 bd 39 d5 4f be 05 0f 58 3e da a8 3e 3e
       -0.102548115 -0.20296182 0.2109948 0.186191
0000f0 dd c8 3d 3e 3d 2e 08 3e 5b 4a 1a 3e 92 9b 26 3e
       0.18533655 0.13298889 0.15067427 0.16270283
000100 b5 50 98 bd 00 6a c3 bd a7 35 4b 3e f8 95 a5 bd
       -0.07437269 -0.09541702 0.19844685 -0.08085245
000110 a8 0b 05 3e ca af eb bd 81 ce 60 be 56 31 41 be
       0.12992728 -0.115081385 -0.21953775 -0.18866476
000120 10 1d 5a 3e 11 80 57 3e 8e 12 6f be bd 6d a7 3c
       0.21300149 0.21044947 -0.23346922 0.02043807
000130 f6 d2 6d 3e cc 46 1a be 85 33 ca bb 9a 08 f7 3d
       0.23225006 -0.1506607 -0.0061706924 0.120621875
000140 30 77 22 3e 14 6f a6 bd b4 3d 8f bd 88 3a 47 3d
       0.15865779 -0.08126655 -0.06994191 0.048639804
000150 db c2 0d 3d 5e f5 2d bd 7c c6 61 3e d6 95 15 be
       0.034609657 -0.04247033 0.22048372 -0.14607939
000160 3b 48 e4 bd 7e b0 5c 3e d4 44 9c ba c4 da 90 bc
       -0.11146589 0.21551701 -0.0011922368 -0.01768244
000170 23 99 02 3e 01 7a d2 3d 65 e2 d1 ba 8c 5a db 3d
       0.1275373 0.10277177 -0.0016012905 0.1071063
000180 9b 32 d5 3d 8c b9 b8 bd 70 29 1e 3e 25 f4 2b 3e
       0.10410043 -0.09019765 0.15445495 0.16792352
000190 e5 d5 72 be 0a e8 2b be cc b0 3d 3e 3b a1 9b 3c
       -0.23714407 -0.16787735 0.18524474 0.01899778
0001a0 39 ad f0 3d 7a 97 b1 3d 7b 6f dc bd 29 b2 b4 bd
       0.117517896 0.0867147 -0.10763451 -0.08823044
0001b0 d8 94 41 be d3 7e 2a be 21 57 57 3e 69 c4 57 be
       -0.18904436 -0.16649942 0.21029331 -0.21071018
0001c0 ac ef e9 3d bb 20 ec 3d da 34 67 3e 68 45 7a be
       0.11422667 0.1152968 0.22578755 -0.24440539
0001d0 af 16 ee 3d 47 c7 c3 3d 9c 86 23 3e 47 27 74 3e
       0.1162542 0.095594935 0.15969318 0.23843108
0001e0 83 32 e9 3d 1c d6 7d 3d ba a3 5b bd 3a 5f 5c be
       0.113865875 0.06197177 -0.05362294 -0.21520701
0001f0 e4 55 cf 3d 2c ee ce bd 46 2b 01 3e 84 04 57 be
       0.10123804 -0.101040214 0.12614164 -0.20997816
000200 75 4f b4 bc f9 73 23 3e 55 e8 f2 3c 19 34 1c bd
       -0.022010544 0.15962209 0.0296518 -0.03813562
000210 d0 02 8b 3d a4 ea ab 3d 6b 50 4e be da ec b7 bc
       0.06787646 0.083943635 -0.20147865 -0.022451807
000220 ab 8f e5 3d d6 b7 4c 3e d2 c7 15 3e af 34 16 3d
       0.11209043 0.19992003 0.14627007 0.036671337
000230 dd 09 43 3e d6 89 26 3e 45 fa 66 bd 76 5a e9 3c
       0.19046731 0.16263518 -0.05639102 0.028485518
000240 52 49 79 bd 03 31 ce bd 84 f5 3c 3e 33 87 d9 3d
       -0.06086094 -0.10067942 0.18453032 0.1062149
000250 aa 02 5b 3e b7 91 c8 3d a7 71 f0 bd cd bf 07 bc
       0.21387735 0.09793418 -0.117404275 -0.008285475
000260 a4 76 2a 3d 5f cc f9 3c fc 48 4b be ec 96 4c bd
       0.04161705 0.03049296 -0.1985206 -0.049948618
000270 58 e4 2f bd dc a7 5b be 40 f2 38 be 8a d1 48 3e
       -0.042942375 -0.21450752 -0.18061161 0.19611183
000280 95 36 71 be 80 9d 30 3d fb e1 51 3c 3d 62 5f be
       -0.23555978 0.043118954 0.012810226 -0.21814819
000290 80 43 42 be e7 cf d1 bc af b7 82 be 42 cd eb 3c
       -0.18971062 -0.02561183 -0.25530764 0.028784398
0002a0 85 a8 13 3e 09 d6 fa bd a7 fd 01 3d 7a 99 6d bc
       0.14419754 -0.12247855 0.031736042 -0.014501924
0002b0 8e d0 70 3e 12 e6 90 bc fd 97 ed bd 30 93 5f bc
       0.23517057 -0.017687831 -0.11601255 -0.013645932
0002c0 d4 dc f8 bd af 18 07 be 5f fe c7 bd 48 b1 df 3c
       -0.121514946 -0.1319301 -0.09765314 0.027306214
0002d0 d5 34 69 3e 42 3e 3a be e2 dd 15 3d 29 4d f7 3d
       0.2277406 -0.18187812 0.036588557 0.12075264
0002e0 20 af 70 3e 67 78 2b 3e d6 b6 2e 3e 09 5a 59 be
       0.23504305 0.16745149 0.17061934 -0.21225752
0002f0 70 c1 55 3e ef 59 53 be c7 22 92 3d 41 99 84 3d
       0.20874572 -0.20639776 0.071355395 0.06474543
000300 ab de ab 3d 08 54 9c bc 6d a5 0d bc 14 1d d3 bd
       0.0839208 -0.019083038 -0.008645398 -0.103082806
000310 57 9b 4c 3e a7 7e 17 be c6 4e 71 be 59 e2 80 3e
       0.19981132 -0.14794408 -0.23565206 0.2517269
000320 ca 71 00 be 84 d1 46 be 96 c7 34 be 9f 62 f9 bd
       -0.12543407 -0.19415861 -0.17654261 -0.121770136
000330 a6 35 29 3e b0 10 53 be 6c 58 74 be b2 cf 31 3e
       0.16524372 -0.20611835 -0.23861855 0.17364386
000340 3a 15 5e be e5 7c 34 be 8d 20 28 bc 57 b0 5a be
       -0.21687785 -0.17625768 -0.010261667 -0.21356331
000350 5e a8 50 3e 5b bc 01 3e 61 aa 6d 3e 38 90 1a be
       0.20376727 0.12669508 0.23209526 -0.15094078
000360 cc 23 40 be 2d 12 ff bd 69 10 f5 3d 3a ca 54 3e
       -0.18763655 -0.12454639 0.119660206 0.20780268
000370 87 01 24 be 84 cb e3 3d 93 fd 0b 3e 7d 0c 4e 3e
       -0.16016208 0.11122802 0.1367095 0.20121951
000380 f2 dd 9f 3d 93 44 5e 3e 3d 36 07 be 66 81 11 3e
       0.078060046 0.21705846 -0.13204284 0.14209518
000390 df 40 6d be b1 c8 e8 3d 42 52 0f bc 8f d6 67 be
       -0.23169278 0.11366404 -0.008747639 -0.22640441
0003a0 38 f3 85 bc 9d d0 2f 3e d4 3e a6 bc 99 b5 14 3e
       -0.016351327 0.17169423 -0.02029363 0.14522399
0003b0 67 91 f0 3d 21 99 33 be 9e a3 df bd 29 6c 44 3e
       0.11746483 -0.17538883 -0.109198794 0.19181885
0003c0 e6 cc f9 3d 2c 80 19 3e 6f 25 05 3d 0e 00 48 bc
       0.121972844 0.149903 0.032506403 -0.012207044
0003d0 2d 21 ad 3d 1c 22 9f bc 0c c8 52 bd a3 d7 5d be
       0.084535934 -0.019425444 -0.05146031 -0.2166429
0003e0 09 7b aa bd e6 aa 46 3c a5 59 39 3d d7 e7 04 3e
       -0.08324248 0.012125706 0.045251507 0.12979065
0003f0 a2 e0 8f 3d aa c1 b5 bc 6c 38 16 3e c6 d1 bb 3d
       0.07025267 -0.022187073 0.1466996 0.091708705

lstm_p.weight_hh_l1 f4 [64, 16]
000000 07 f4 45 3e 0e b2 14 be 27 4d 7a 3e 1a 95 e3 bd
       0.1933137 -0.14521047 0.24443494 -0.11112423
000010 d3 67 4b bd 88 b2 40 be 8c a0 83 3d 1a a6 45 3e
       -0.04965956 -0.18818104 0.06427106 0.19301644
000020 bf 0f a2 bd 5c 6f 25 3e 99 ad 91 bc 50 b4 73 3e
       -0.079131596 0.16155761 -0.017782973 0.23799253
000030 1d 20 19 be 42 46 ae 3b b3 af 3f 3e 07 70 50 be
       -0.14953656 0.005318434 0.18719368 -0.20355235
000040 46 2f fb 3d 69 19 75 be fd 39 59 3e 60 da c5 3d
       0.12264876 -0.23935474 0.21213527 0.09660792
000050 8f 7c 43 3d 7c 66 6c be c0 58 82 3e de dd 37 3e
       0.04772621 -0.2308597 0.25458336 0.1795573
000060 c9 20 6f 3e 72 2a 57 be da 85 63 3e da 81 02 3d
       0.2335235 -0.21012285 0.22219029 0.031862117
000070 2c 5e 1a 3e e8 b0 80 be 68 d6 0a be 9c 56 72 3c
       0.15074986 -0.2513497 -0.13558352 0.014791157
000080 1c b1 0f 3e 29 80 76 be 66 83 0b 3e f2 6a ef 3d
       0.14032406 -0.24072327 0.13624343 0.1169032
000090 80 b2 31 be 70 e8 52 3e 56 80 00 be 26 03 b6 3d
       -0.17353249 0.2059648 -0.12548956 0.08887319
0000a0 a0 4b 34 be 2f 64 1c be 89 7c 3d bd e1 c2 9b bd
       -0.17606974 -0.15272592 -0.046261344 -0.076055296
0000b0 d8 be 4d 3d 1e 98 61 bd 46 fd 03 be e3 6e 72 3e
       0.05023083 -0.05507671 -0.12889585 0.23675112
0000c0 58 b8 46 bc 8b 22 59 be d9 67 4a 3e 2f e6 53 3e
       -0.012128912 -0.21204583 0.19766177 0.20693277
0000d0 fc 2c 05 be 6e 71 2e 3e 0e bf da bd 55 60 43 be
       -0.13005441 0.17035457 -0.10680972 -0.19079717
0000e0 f0 b5 83 be 74 da 08 be 83 a4 fd 3d 91 f6 83 3e
       -0.25724745 -0.13364583 0.12384894 0.25774053
0000f0 d9 69 6e 3e f0 5c b9 bc 25 c5 43 bd f0 d7 d5 3b
       0.23282565 -0.022627324 -0.047795434 0.006525986
000100 3f f8 59 3e 24 98 3e be 0b 68 15 be a7 c2 a5 bb
       0.21286105 -0.18612725 -0.1459047 -0.0050586048
000110 fe 36 65 be 96 70 03 3e 2e 7d 27 be fa 49 8e bd
       -0.22384259 0.12835917 -0.16356346 -0.06947704
000120 f6 c6 0b be d6 13 77 bc f1 56 62 3e 48 47 ae bd
       -0.13650116 -0.015080413 0.22103478 -0.085096896
000130 9c 73 c3 bd a5 1c 03 3e a0 a1 ba bc 16 2e 51 bc
       -0.09543535 0.12803896 -0.022782147 -0.012767335
000140 08 0c 50 3e 8a 1d 9f 3d 4c 42 d0 bc fd db 62 3e
       0.2031709 0.07769306 -0.025422238 0.22154231
000150 8c 91 80 be da ae 57 3e df 29 ae bd d8 1e 2e 3e
       -0.25111043 0.21062794 -0.0850408 0.17003953
000160 7e 5f 97 bd 27 e9 51 be 07 6f 11 bc a9 ae 61 3e
       -0.073912606 -0.20499097 -0.008876569 0.22039284
000170 34 4c e4 3c 14 c7 4f be f7 67 27 3e 73 f8 76 3e
       0.027868368 -0.20290786 0.16348253 0.24118213
000180 23 09 60 3e 0d 41 09 be ef 5e 44 be 7b a4 81 be
       0.21878485 -0.13403721 -0.1917684 -0.253208
000190 01 a6 34 bd cb 7e 7d 3d 2c 6f 82 be a1 a3 eb 3b
       -0.044103626 0.061888497 -0.25475442 0.007191137
0001a0 55 32 fe 3c e5 89 34 3e 78 a6 2f 3e 94 55 e6 3d
       0.03102986 0.17630728 0.17153347 0.112467915
0001b0 5a 72 73 bc b7 2f 7a 3e 73 57 3f bc 00 d1 51 bd
       -0.0148588065 0.24432264 -0.011678564 -0.05122471
0001c0 3c 18 05 be 81 c6 81 3d 86 7a 2d be 54 cd d1 3d
       -0.12997526 0.0633669 -0.1694127 0.10244241
0001d0 52 73 5f be 73 15 c9 3c 8b 89 47 bc 89 2f 2f be
       -0.21821335 0.02454636 -0.012178789 -0.17107977
0001e0 8e d9 4d 3e 9e 04 48 3e 19 d8 21 3e 96 3c 44 3e
       0.20102522 0.19533011 0.15805091 0.19163737
0001f0 d8 2b 23 bc 71 a0 15 be 18 13 5b bd e7 a8 19 be
       -0.009959184 -0.14611985 -0.053485006 -0.15005837
000200 83 15 03 be f2 88 09 3d e0 31 a2 bd be e1 80 3e
       -0.12801175 0.033577867 -0.07919669 0.25172228
000210 a6 f4 24 3e fb 4d 80 3e 9e f7 e9 3d 74 06 12 3e
       0.16108951 0.25059494 0.11424182 0.14260274
000220 78 62 03 be 89 91 47 3e f1 06 43 3e 41 32 a2 3d
       -0.12830532 0.19489111 0.19045617 0.079197414
000230 f8 ab a4 3d 00 d9 5e be 76 14 3c bc 70 09 58 3e
       0.08040613 -0.21762466 -0.011479488 0.2109735
000240 ed 94 cc bd 4a 92 44 3e 1c b5 db bd 00 3e 27 be
       -0.09989343 0.1919643 -0.10727903 -0.16332245
000250 f1 86 0f 3e 2d 3c 06 3e d5 a5 b0 3d 73 ff da bd
       0.1401632 0.13108893 0.0862538 -0.10693254
000260 e1 d3 28 3e 71 99 d4 bd 3e 96 0a 3e 41 5b 5f 3e
       0.16487075 -0.10380829 0.13533875 0.21812154
000270 d4 a2 f8 bd 9b 9f 41 3e 6d 21 29 3e d0 5b 90 3d
       -0.12140432 0.18908541 0.16516657 0.07048762
000280 7d 46 d1 bd 9c 36 7c bd 99 8e 0a 3e 78 59 c9 3d
       -0.10218523 -0.061575517 0.13530959 0.09831518
000290 a9 e9 d6 3b 1a 2f c5 bd 8d f5 b9 3c 91 0b 80 3e
       0.006558616 -0.096281245 0.022700096 0.25008824
0002a0 60 d0 45 3e 2a 50 28 be 9d 9b 81 3e ab 5e 22 3e
       0.1931777 -0.1643683 0.25314036 0.15856425
0002b0 f2 9a 84 3e fe d5 77 bd 7c f1 a0 3d 2f 1d 36 bd
       0.25899464 -0.060506813 0.078585595 -0.044461425
0002c0 09 53 07 be e5 53 88 bd 92 12 0c be 7b 9b 9f 3d
       -0.13215269 -0.066566266 -0.13678959 0.077933274
0002d0 ed d9 54 bd 41 66 46 be 09 e0 90 bd d7 04 60 bc
       -0.051965643 -0.19374944 -0.07073981 -0.013673029
0002e0 7a 89 f1 bd e4 b2 18 be 70 f8 7c be d7 eb 08 3e
       -0.117938 -0.14911991 -0.24704146 0.13371216
0002f0 a4 d7 02 3e fd 1e 80 be 76 6f e2 3d 4c f4 4c be
       0.12777573 -0.25023642 0.11056416 -0.20015067
000300 d7 1b e5 bd f9 53 26 be a1 92 9d bd 2f 2f 10 be
       -0.11186951 -0.1624297 -0.07693983 -0.14080499
000310 bc f4 dd 3a 8e 97 1e 3d 18 f4 e4 bd 79 8f 25 3e
       0.0016933898 0.038718753 -0.1117937 0.16168012
000320 f5 2e ce bd 7e d7 93 bd 2e d7 8f 3d 45 7f 0f 3e
       -0.1006755 -0.07218836 0.07023464 0.14013393
000330 e3 75 3a 3e af 3f ed 3d c6 71 f1 3c cc f1 c6 bc
       0.18209033 0.11584412 0.029473197 -0.02428522
000340 82 9f 2e be 77 32 43 3e 33 39 42 bc 48 40 2f 3e
       -0.17053035 0.1906222 -0.011854458 0.17114365
000350 60 09 07 3e f8 3f 10 3e ce 29 41 be bb d9 0e 3e
       0.1318717 0.14086902 -0.18863603 0.13950245
000360 16 5e 69 3e 83 36 72 be 3e ba 40 3e d6 b3 09 be
       0.22789797 -0.23653607 0.18821046 -0.13447508
000370 a8 07 03 be 16 b6 56 be 13 a3 71 be e5 90 22 be
       -0.1279589 -0.20967898 -0.23597364 -0.15875585
000380 b0 4c 42 be 73 89 15 bc 2e ec 07 be 28 4a fd bb
       -0.18974566 -0.009127009 -0.13273689 -0.0077297874
000390 c3 0c 30 3e 5c ad 51 3e 00 27 4f be e1 17 49 3e
       0.17192368 0.20476288 -0.20229721 0.19638015
0003a0 64 66 d9 bc 12 1a ca bd 47 5a 86 3e 89 73 46 be
       -0.026538081 -0.09868254 0.2624075 -0.1938001
0003b0 7c ce 05 be ce 9d f6 3d a0 ed ed 3d c7 1c fb 3d
       -0.13067049 0.120418176 0.11617589 0.12261348
0003c0 f2 ff 60 be 29 5a 29 be 47 f1 3b be d5 be 2d 3e
       -0.21972635 -0.165383 -0.18353759 0.16967328
0003d0 4d 5c e2 3d e5 a7 ec bc aa d2 2b 3e b7 82 84 3c
       0.11052761 -0.028888652 0.1677958 0.016175611
0003e0 84 fb 6f be ea 78 98 bd 1b 48 06 3e 50 d9 31 bd
       -0.2343579 -0.074449375 0.13113444 -0.043420136
0003f0 6c 92 dc 3d 3e ab 86 3d c5 12 42 bd d7 d8 43 be
       0.10770115 0.065756306 -0.04738118 -0.19125687

lstm_p.bias_ih_l1 f4 [64]
000000 59 69 90 bd b4 2e 24 3c bf 67 bc 3c b9 ac 75 be
       -0.070513435 0.0100209005 0.022998689 -0.2399167
000010 cd ed 80 be 7b 8e 87 3d 54 3f 0d be 85 9e 3d 3e
       -0.25181428 0.06618973 -0.13793689 0.18517502
000020 c0 e5 79 3d 95 46 6c 3d fb 86 7a be dc ef ba 3d
       0.061010122 0.0576845 -0.24465553 0.09127781
000030 3f f5 1f bd 65 80 51 bd 9e 0d 50 be 54 57 81 be
       -0.039052244 -0.051147837 -0.20317695 -0.2526194
000040 df 4a 31 3e 36 84 21 be 53 de 07 3d 18 28 39 be
       0.17313717 -0.1577309 0.03317101 -0.18081701
000050 26 36 49 be 4e ba f1 3d 92 92 82 3d 31 cd f9 bd
       -0.19649562 0.11803113 0.06375612 -0.1219734
000060 d5 1e de 3d b2 b8 19 be 3a c9 32 be ae 77 fb 3c
       0.108457245 -0.15011862 -0.17459574 0.030696716
000070 30 69 98 3c 71 7f 58 be 8f bc 1c be 81 39 10 be
       0.018604845 -0.21142365 -0.15306304 -0.14084436
000080 2c 85 8b bd d8 cb 07 3e e3 f1 66 be 45 f9 2e 3e
       -0.0681251 0.13261354 -0.2255321 0.17087276
000090 4d dc 9c 3c e6 fd b1 bc 69 5e 0b be 35 95 52 be
       0.019148016 -0.021727514 -0.13610233 -0.2056473
0000a0 71 d7 ac bd d4 4f 00 3e 56 9e 48 be f0 bf 60 3e
       -0.0843953 0.12530452 -0.1959165 0.21948218
0000b0 af b4 26 be 51 1c 1d 3e 3d d2 64 be c4 86 6f be
       -0.16279863 0.15342833 -0.22345825 -0.23391253
0000c0 64 07 c2 bd cc ab 3f 3e 75 08 d2 3d c3 5b 1b be
       -0.09474066 0.18717879 0.10255519 -0.15171723
0000d0 e8 8f 81 3d 76 14 fb bd 1e 6b 5e 3e e5 2c 6e 3e
       0.06326276 -0.12259762 0.2172055 0.23259313
0000e0 f9 d0 72 3b e2 83 2b 3e 45 05 bf bd 57 a3 bc 3d
       0.0037050827 0.16749528 -0.09327177 0.09210842
0000f0 8f 23 04 3e 6a f4 d4 3d da 06 8e 3d 21 4e 6a 3e
       0.1290419 0.10398181 0.069349006 0.22881366

lstm_p.bias_hh_l1 f4 [64]
000000 7f 23 97 3d 67 bf 2a 3e 54 fd da 3d 73 31 33 3c
       0.07379817 0.16674577 0.1069285 0.010937083
000010 03 b8 6b bd e7 ea 44 3e 4e 63 5b 3e c9 57 57 3e
       -0.057548534 0.19230233 0.214246 0.21029581
000020 fd 1f 82 3d 80 61 0f 3e bb 48 17 be 97 73 1b be
       0.063537575 0.14002037 -0.14773838 -0.15180813
000030 ea a2 0f 3d 5c d0 5c be ad e6 06 be 3c d6 0e 3e
       0.035067476 -0.21563858 -0.13173933 0.13948911
000040 b8 f1 f9 bd c4 29 28 be 02 32 73 be 9c 40 1e 3e
       -0.12204307 -0.16422182 -0.23749545 0.15454334
000050 40 64 24 3e a9 80 3d 3e 5d 4c 3d bd ee 79 03 be
       0.16053867 0.18506111 -0.046215404 -0.12839481
000060 03 3f 66 3e ea ae 23 be ba 32 4e 3e f0 c9 5b 3d
       0.22484975 -0.15984693 0.20136538 0.05365938
000070 92 b7 df bd 36 49 b8 3d 3b 0e 16 be 79 ac 9a 3c
       -0.10923685 0.08998339 -0.14653866 0.01888107
000080 b8 e2 4d 3e f5 53 59 bd d7 fc 7f 3d 21 46 28 3e
       0.20106018 -0.053058583 0.062496986 0.16433002
000090 ba 4e 94 bd c1 50 1f 3e 73 9f 3a 3e f3 0a 00 3d
       -0.072415784 0.15558149 0.18224888 0.031260442
0000a0 fe d9 40 3e 13 4f 57 3e 6a 98 35 be d2 4a eb 3d
       0.18833157 0.21026258 -0.17733923 0.1148888
0000b0 78 5e 89 ba 3d bf ae bd cd 8e 49 3e 76 e8 d2 3c
       -0.0010480424 -0.085325696 0.1968338 0.025745612
0000c0 ff fe 31 bc 66 a2 d1 3d 4a f5 5a 3d 10 21 79 3c
       -0.010864018 0.10236053 0.053456582 0.015205637
0000d0 20 f0 d1 3d d9 f6 94 bc 76 f9 51 be 9d 76 c7 3d
       0.10250878 -0.018184112 -0.20505318 0.097394206
0000e0 e2 9e 3e bd ae 73 f5 bd d6 6b 1d be 65 f4 00 3e
       -0.04653824 -0.11984955 -0.15373167 0.12593229
0000f0 2b 17 b7 3d 4d 5f 5a be 49 ac 36 be 21 b3 30 bd
       0.08939966 -0.21325417 -0.17839159 -0.04313958

attention_p.attn_1.weight f4 [16, 16]
000000 ff c7 74 be 59 e9 39 3e a8 86 82 3e 02 63 c4 be
       -0.23904417 0.18155421 0.2549336 -0.38356787
000010 ac 5b 6e 3c 08 4e c3 bd b6 86 8a bc 35 48 cf be
       0.0145482235 -0.09536368 -0.016909938 -0.40484777
000020 c4 71 93 be 02 7e d6 bd c6 83 a0 3d 3d e1 9a 3e
       -0.28797734 -0.10473253 0.07837634 0.30249968
000030 e0 58 c8 3e f1 2b 47 3d ea 72 00 be b7 41 d1 be
       0.39130306 0.04862589 -0.12543836 -0.4087045
000040 48 4c 94 be d0 ee a7 3e 70 4a 40 3e 54 c3 c4 be
       -0.28964448 0.32799387 0.18778396 -0.38430274
000050 e4 70 7b be c2 0a 86 be a4 75 43 be bd ae 6f 3e
       -0.24554783 -0.26180083 -0.19087845 0.23406501
000060 dc d4 1a be ac d7 aa 3e 4b 12 ab 3e c0 98 5a be
       -0.15120262 0.3336767 0.33412394 -0.21347332
000070 4c c5 8d bd dc 4e ac 3e d2 f0 4d 3e 6f d6 58 3d
       -0.06922397 0.33653915 0.20111397 0.052938875
000080 50 6a 86 bd 54 17 14 be 7f 34 4d bd 32 4c 62 be
       -0.06563246 -0.14462024 -0.050098892 -0.22099379
000090 9d b4 07 3e 8e 39 be 3e f6 42 a4 bd 61 31 5c 3e
       0.13252492 0.37153286 -0.08020584 0.21503212
0000a0 be b6 cf 3e 9a 9c 90 3e a6 f0 fc bd 91 ea c1 be
       0.4056911 0.28244478 -0.123505875 -0.37874272
0000b0 6a 6e 80 be 95 6d d1 3d 10 ef 75 be 24 50 8f be
       -0.2508424 0.10225979 -0.24016976 -0.2799083
0000c0 ee 0e d5 3e cf a6 fa bd f4 2f 86 be bb 56 b8 3e
       0.41612953 -0.122388475 -0.2620846 0.3600367
0000d0 ce a7 99 be 94 1f cf 3e d3 f8 73 3e 17 b7 a6 be
       -0.30010837 0.4045378 0.23825388 -0.3256156
0000e0 cb 94 99 3e 69 ab 8b 3e 25 b3 73 bd ec a7 e4 be
       0.29996333 0.27279213 -0.059497017 -0.44659364
0000f0 da ed 77 bd 7d 98 cd 3e df 36 df bd 49 e6 2d bd
       -0.060529567 0.40155402 -0.10899138 -0.042455945
000100 05 51 a8 3e 10 1e ad be 40 9b 31 be 48 12 f6 3d
       0.32874313 -0.33811998 -0.1734438 0.120152056
000110 59 25 be be 65 d4 86 3e 15 38 78 3e 02 fa 24 3e
       -0.3713787 0.2633392 0.24240144 0.16110995
000120 bc a8 19 be 56 e0 b1 be 7c 23 f5 3d 7e 21 ac 3e
       -0.15005773 -0.34741467 0.11969659 0.33619303
000130 77 59 3b 3e cb 02 af be 11 67 b5 3e 05 15 5c be
       0.18295847 -0.34181818 0.35430196 -0.21492393
000140 36 68 e1 be 0b 66 2b 3d d8 c7 93 3e 91 b8 be 3e
       -0.4402482 0.041845363 0.28863406 0.37250188
000150 29 83 c5 bd 4b 48 a1 be 39 6b 84 3b 70 61 18 be
       -0.096441574 -0.31500468 0.0040411022 -0.1488092
000160 48 8a 11 bd 5c 2c cc 3d c2 36 fa 3d c6 39 4a be
       -0.035532266 0.099693984 0.122174755 -0.19748601
000170 26 1e 6b 3d c3 1a 15 3e 82 f9 98 be 8d 71 b6 3d
       0.0574018 0.1456099 -0.2987786 0.08908377
000180 2c 11 b1 3e 49 ab 37 be 2f 7e 31 3e b4 61 09 3e
       0.34583414 -0.17936434 0.17333291 0.13416177
000190 11 35 b4 3e 57 ad 83 3e e8 ba 9f be 1f 48 0a be
       0.35196736 0.25718185 -0.31197286 -0.13504075
0001a0 2b d7 9c bd fe 64 5c be 4b f3 af 3e 0c 16 72 bc
       -0.076582275 -0.215229 0.34365305 -0.014775764
0001b0 9a a3 02 be b0 53 b8 3e 82 83 1b be 26 ea 8f be
       -0.12757722 0.36001348 -0.15186885 -0.2810833
0001c0 66 3b 61 3e 06 f0 b4 3e 64 be e5 3c 74 6f a0 be
       0.21995315 0.35339373 0.028044887 -0.31335032
0001d0 a5 b4 0e bd f5 35 d8 3e 1f 02 04 bd 2c a7 85 3e
       -0.034840245 0.42228666 -0.032228585 0.26104105
0001e0 3a 58 61 3e c6 c8 4d bd e1 00 b7 3c 14 4b 9d bd
       0.22006312 -0.0502403 0.022339286 -0.07680336
0001f0 15 ca 95 be 1c 84 7a be f5 55 7c 3e ae 2d 8d be
       -0.2925574 -0.24464458 0.24642165 -0.27573913
000200 d7 e3 6e be 68 32 89 be a5 2a d2 3e fe e6 08 be
       -0.23329102 -0.2679627 0.4104816 -0.13369367
000210 1b 88 4d be af 2c b4 3e c4 b5 19 3e eb e1 c2 be
       -0.20071451 0.3519034 0.15010744 -0.38062987
000220 5a 21 d3 3e 9f 02 5c 3e 61 b3 04 3e 07 ba d1 bc
       0.41236383 0.21485375 0.12959053 -0.0256014
000230 1b 30 de 3d d4 6b 0e be 4b 3a 98 3e 8b 2e f6 3d
       0.10849019 -0.1390832 0.29731974 0.12020596
000240 a8 54 c8 3e 51 92 04 3e 16 9a 0c bd 73 30 56 3e
       0.39127088 0.1294644 -0.034326635 0.2091692
000250 45 60 aa bd 5f 3f 0c 3e 4a 38 c2 3d 6d f4 ac 3e
       -0.08319143 0.13696049 0.094833925 0.33780232
000260 fc c3 97 be 7d 54 32 bb a2 d8 65 be f3 a1 95 3e
       -0.29641712 -0.0027211003 -0.2244592 0.2922512
000270 ef 1f 14 be 41 75 5c 3e 23 19 4c 3e 5e 35 fc bd
       -0.14465307 0.21529104 0.19931464 -0.123148665
000280 7c 24 fc bc 62 1f 87 3e b0 1c a4 be 4b aa cc 3e
       -0.030779116 0.2639113 -0.32053137 0.39973673
000290 92 a6 9e bd 92 e1 05 be 5a 7c 95 3a 18 4b 80 3c
       -0.077466145 -0.1307433 0.0011404858 0.015660807
0002a0 28 9f aa be d4 5a e6 bc 7d d2 9b 3e 5d 11 34 be
       -0.33324552 -0.028119482 0.30434027 -0.17584749
0002b0 38 db 88 3e 10 45 cb be 09 1b bf 3e 25 14 a2 be
       0.2672975 -0.39701128 0.37325314 -0.31655994
0002c0 c6 2f 86 be d1 1f 27 be 15 ae 2e be ef d2 ae bd
       -0.26208323 -0.16320731 -0.17058595 -0.08536326
0002d0 e6 6e 98 be 76 05 79 3e ce ae 52 bd 24 d4 c5 3e
       -0.2977211 0.2431849 -0.051436238 0.38638413
0002e0 49 c6 d2 3e f0 c2 b4 be 35 0c 4c 3e 1d 33 a1 3e
       0.41166905 -0.35304976 0.19926532 0.3148431
0002f0 43 fe 30 3e a4 b0 f8 bb 7e a1 98 be 06 f2 d4 3e
       0.17284493 -0.0075894166 -0.2981071 0.415909
000300 4c 53 e5 3d 79 dd a5 3e 01 18 e8 bd f8 e4 1e 3e
       0.11197528 0.32395533 -0.113327034 0.15517032
000310 37 ad 47 be aa 6a d2 be f9 7d 3e bc b4 b2 d7 3e
       -0.1949967 -0.41097003 -0.011626714 0.42128527
000320 85 d1 29 3d b6 94 e4 be c0 70 e9 ba a6 3e 83 3e
       0.04145958 -0.44644707 -0.0017810091 0.25633734
000330 9d db ac be fc 4c df 3e a5 3a 84 3e 65 c7 28 be
       -0.33761302 0.43613422 0.25825992 -0.16482313
000340 1d 41 12 3e b2 ca 86 3e 26 08 96 3e 53 54 89 bc
       0.14282651 0.2632652 0.29303092 -0.016763842
000350 c1 3e 21 bd 34 19 52 3e 81 fc e0 3d 0b 41 fa bd
       -0.039366487 0.20517427 0.10985661 -0.12219437
000360 2a f8 e1 3c 30 2f aa be 68 6d b8 be f3 3a bc 3e
       0.027584154 -0.33239126 -0.3602097 0.36763725
000370 52 ac db be d0 d1 80 be ec 0d b8 be fc ef 0d 3e
       -0.42904907 -0.25160074 -0.35948122 0.13861078
000380 88 9a a1 3e 37 3a 2f bd f2 dd bc 3e 85 61 db 3e
       0.3156321 -0.042780127 0.3688808 0.4284784
000390 9b a1 46 bd fc 15 bb be 30 4c 6b be dd e1 90 bc
       -0.048493963 -0.3654021 -0.22978282 -0.017685825
0003a0 4b 5c f7 bd 8b 5d 91 be 37 dc 04 be 59 b5 ca bd
       -0.1207815 -0.2839168 -0.1297463 -0.098978706
0003b0 ec 14 89 be e2 73 c0 be 68 e1 9f 3e c4 27 cd bd
       -0.26773775 -0.37588412 0.3122666 -0.1001735
0003c0 36 d9 c5 3d 0f 4c 39 be 6c 66 a4 be 99 25 71 bd
       0.0966057 -0.1809542 -0.32109392 -0.058873747
0003d0 5f 92 82 3e f0 d1 d2 3e 33 4e 85 3d 95 37 92 be
       0.25502297 0.41175795 0.06509056 -0.2855803
0003e0 4f e7 f2 bd fe 8f 40 be bc 0b b0 bd 91 fc 8b bc
       -0.11860525 -0.18804929 -0.08595988 -0.017088206
0003f0 6c 94 c4 bd 81 0e 43 be 70 c5 93 be f4 81 cf bd
       -0.09598622 -0.19048502 -0.2886157 -0.101322085

attention_p.attn_1.bias f4 [16]
000000 c5 04 c7 bb a8 39 5d bc 3f 51 66 3c 67 05 6c bc
       -0.0060735666 -0.013502516 0.0140574565 -0.014405585
000010 9b 96 0a 3c 75 11 4c bb a3 ef a1 bb c8 41 8a bc
       0.008458759 -0.0031138335 -0.004941897 -0.01687707
000020 2e 71 55 3c 58 c1 41 bc b8 4f 51 3c b6 fe 65 bc
       0.013027472 -0.011825882 0.012775354 -0.014037779
000030 8f 86 56 3c 06 ff 58 3c ef ca 55 bc 2f 49 86 bc
       0.013093605 0.013244396 -0.013048871 -0.016392319

attention_p.attn_2.weight f4 [1, 16]
000000 2c 9d e5 be 53 ee b4 be 75 1c e1 3d 54 2b 31 be
       -0.44846475 -0.35338077 0.10991756 -0.17301685
000010 b7 f9 83 be af eb d7 3b 45 5b bd 3e b2 b1 8a be
       -0.25776455 0.006589375 0.36983696 -0.27088696
000020 70 e1 80 3e 1d 9f ba be f0 9a 91 3e b7 65 34 be
       0.25171995 -0.3644952 0.2843852 -0.17616926
000030 ab 63 87 3e bd e2 d3 3e ae d7 19 be 8e 85 9c be
       0.26443228 0.41383925 -0.15023682 -0.30570644

lstm_t.weight_ih_l0 f4 [64, 7]
000000 d9 96 33 be 2b df a5 bd 1e 3b 9c bc 7d cc a4 bd
       -0.17538013 -0.080992065 -0.019071158 -0.080468155
000010 5e 1d 47 3e 21 7b 52 be ce cd 42 3e 75 43 a7 bb
       0.19444796 -0.20554782 0.19023821 -0.005104477
000020 8f 15 65 3e 8b 8f 8a 3d d3 dd 51 be 8a 77 6f 3e
       0.22371505 0.0676566 -0.20494775 0.23385444
000030 47 80 86 3d ac 54 ec 3d 11 92 35 3e 8b c3 89 bd
       0.06567436 0.115395874 0.17731501 -0.0672675
000040 4a f9 9d 3c 8f c9 ca bd e0 00 f7 3d 3a 79 fa bb
       0.01928391 -0.099017255 0.12060714 -0.007643846
000050 25 0c 8c 3d f4 dd 02 be 09 3f f7 bd 12 f0 e0 bd
       0.06838254 -0.12779981 -0.1207257 -0.1098329
000060 1e 14 1a be ea 7b 45 3e 44 80 38 be 5a 13 22 3e
       -0.15046737 0.1928555 -0.1801768 0.15827695
000070 35 af 4c be 60 15 4d 3e 2c cc 82 be 61 ef 2c 3e
       -0.19988711 0.20027685 -0.25546396 0.16888191
000080 c0 24 fc ba 09 f6 94 bd 46 46 0c be ae 1f 16 3e
       -0.0019237027 -0.0727349 -0.13698682 0.14660522
000090 55 a5 6d 3d 97 04 f2 3d d0 43 88 3d 8a a9 12 3d
       0.058019 0.11817282 0.06653559 0.035806216
0000a0 f9 de 4e 3e 94 82 da 3d c1 c1 55 3e b2 6d 47 be
       0.20202245 0.10669437 0.20874692 -0.19475439
0000b0 6c 21 34 bd c6 c4 69 bd cb 96 be 3d 29 ec 66 3d
       -0.043977186 -0.057072423 0.09306105 0.056377564
0000c0 4d a9 18 be f0 0d 02 3e 09 77 1e bd 79 75 37 be
       -0.14908333 0.12700629 -0.03868774 -0.17915906
0000d0 e5 99 69 3e 8a 39 3f be 61 8b f0 bd 30 b0 59 3e
       0.22812612 -0.18674293 -0.117453344 0.21258616
0000e0 e5 d0 ae bd ab df 15 3e 57 af 77 bd 5c f7 a2 bd
       -0.08535937 0.14636104 -0.06046995 -0.07957336
0000f0 e9 c6 7a 3e d9 4d 62 be 03 43 47 3d 72 9c 8c 3c
       0.2448994 -0.22100009 0.04864789 0.017164443
000100 e7 47 27 be c8 6e 2e 3d 32 67 a2 bd 92 89 a4 3d
       -0.16336022 0.042586118 -0.07929839 0.08034052
000110 9d bd f4 bd e1 43 25 be 52 44 54 be 13 8b 34 3d
       -0.11950228 -0.16139175 -0.20729187 0.044077944
000120 f1 71 29 bb 61 eb 8d bd 92 8a 49 be 6e 99 e1 bb
       -0.0025855268 -0.069296606 -0.19681767 -0.0068847453
000130 81 64 57 be 72 7a 9b 3d 21 2d 2e bd e3 f4 09 be
       -0.21034433 0.07591714 -0.042523507 -0.13472323
000140 05 2c c0 3d dc cb 33 be ee 8a c5 3a 43 11 0c 3e
       0.09383396 -0.17558235 0.0015071311 0.1367846
000150 cb 20 56 3e 90 fa c4 bd 4a 66 59 be 65 87 26 3e
       0.20910947 -0.096181035 -0.21230426 0.16262586
000160 6e 45 04 3d 3d 84 72 be 76 f8 30 bc d6 1f 91 3c
       0.032292776 -0.23683257 -0.010801425 0.017715376
000170 12 f5 58 bd 4e 85 32 3e 9b 65 5a 3d 1c f1 09 be
       -0.052968092 0.17433664 0.053319555 -0.13470882
000180 bd 78 c2 bc b8 41 11 3c 26 8c f3 bd 68 76 14 be
       -0.023739213 0.008865766 -0.118919656 -0.14498293
000190 b1 59 52 bd 3a 1d 45 bd f8 7a 38 be 80 8c 43 3e
       -0.051355068 -0.048123576 -0.18015659 0.19096565
0001a0 c2 5f 6b 3e 93 4a 3c be cd be 07 3e b5 2a 3f be
       0.22985747 -0.18387823 0.13256378 -0.18668635
0001b0 f3 29 87 3d 33 4d 7f 3e ad 2e 1f 3d 80 ef 3f be
       0.06599798 0.24931793 0.038862873 -0.18743706
0001c0 09 14 bb bc 6e 39 55 be 1e b4 5e be 36 c0 a8 bd
       -0.022836702 -0.20822689 -0.21748397 -0.08239786
0001d0 a3 18 33 be 99 b2 9a 3d 60 ff 2d 3d 06 dd 62 be
       -0.17489867 0.07553596 0.042479873 -0.22154626
0001e0 45 66 67 bd 07 7c 6b 3e 42 18 33 3e 21 24 15 3e
       -0.056494016 0.22996531 0.17489722 0.14564563
0001f0 2f 5e c8 3d d2 df 42 be 79 ac 67 3e d2 1f 72 3e
       0.09783589 -0.19030693 0.22624387 0.23644951
000200 fd 12 82 bd be 99 58 be cb 6d 1c bd 0f a9 85 bb
       -0.06351278 -0.21152398 -0.038190644 -0.0040789912
000210 b6 25 33 3e f5 7a 1d 3e 38 61 55 be 77 d5 08 be
       0.17494854 0.15378936 -0.20837867 -0.1336268
000220 06 67 39 3d 8d 05 48 3e 84 f8 a6 bb 28 57 74 be
       0.045264266 0.19533367 -0.0050955433 -0.23861372
000230 73 a1 dd 3d fd f4 79 bd 91 ba 6f 3d 1a 9b cc 3d
       0.108218096 -0.061024655 0.058527533 0.09990521
000240 5f 1a df 3d 6f c3 3e 3b d0 8a 8d 3d 63 2d b3 3d
       0.10893702 0.0029108187 0.06911242 0.08748891
000250 d2 25 cd bd e1 ce 71 3d a6 b2 27 3e 37 a6 3a be
       -0.10016979 0.059035186 0.16376743 -0.18227468
000260 28 18 66 3d 79 d7 4b 3e 83 06 e9 3d 16 68 eb bd
       0.05617538 0.19906415 0.11378195 -0.11494462
000270 e5 c1 8e 3d e3 23 6e bb 48 01 58 3e b9 c1 0a be
       0.06970576 -0.0036337308 0.21094239 -0.13550462
000280 f7 9b fe 3d 1e 2d 47 3c d6 20 e9 3c 73 1d f9 3b
       0.12432092 0.012156753 0.02845804 0.0076023876
000290 c9 18 50 be 88 34 ce 3d 8c b4 21 be 66 3d 72 3e
       -0.20321955 0.10068613 -0.1579153 0.23656234
0002a0 de 0b a1 3d 73 f4 fc bd fb 98 47 3e 14 0a 38 3e
       0.078635916 -0.123513125 0.19491951 0.17972594
0002b0 76 96 6b 3e 20 d0 fd 3d 03 19 67 3d eb 27 fb bd
       0.23006615 0.12393212 0.056420337 -0.12263473
0002c0 1c e6 74 3e 6a 05 06 3e e3 23 04 3e eb 12 73 3e
       0.23915905 0.13088003 0.12904315 0.23737685
0002d0 23 5c 3b 3e 19 07 f9 bd a5 e1 35 3e 77 bd af 3d
       0.18296866 -0.12159557 0.17761858 0.085810594
0002e0 20 0e d5 bd e9 da 4a 3e f3 34 d5 bd 75 c1 b4 bd
       -0.10403085 0.1981007 -0.1041049 -0.088259615
0002f0 67 e2 29 3c 57 d4 80 3c a9 33 40 3e ad b2 e8 bd
       0.01036892 0.015726252 0.18769707 -0.11362205
000300 45 c3 68 be 5a 55 bf 3d 3f ca 23 be 4d 1e 54 be
       -0.2273074 0.093424514 -0.1599512 -0.20714684
000310 8d e6 41 be 41 5b 3a be cb 26 90 bd 6d 6d 2e be
       -0.18935604 -0.18198873 -0.07038649 -0.1703393
000320 b7 e3 25 3e e1 58 d3 bd e9 1e 25 3e 24 25 16 be
       0.16200148 -0.10319687 0.16125073 -0.14662606
000330 fe 22 26 3e 13 7a 0b 3d 5c 65 6f be c5 b0 ca bd
       0.16224286 0.034051966 -0.2337851 -0.09896997
000340 b7 76 76 3e 54 92 6a 3e 69 6f 45 3e 36 5c 31 3e
       0.24068724 0.22907382 0.19280781 0.17320332
000350 c5 da f6 3c a1 44 65 be 90 a9 ca bd 92 75 55 be
       0.030133614 -0.22389461 -0.09895623 -0.20845631
000360 63 b1 dc 3d 27 56 1d 3e 55 4d ac 3d e1 22 5a 3e
       0.10776021 0.15364896 0.084131874 0.21302368
000370 f1 61 16 bd 0a 32 0a 3e 18 ac 71 bc dd d3 24 bd
       -0.036714498 0.13495651 -0.014750503 -0.04024111
000380 36 52 23 be c0 34 23 be ec 94 22 3d 9e 0f f9 bd
       -0.1594933 -0.15938091 0.039692804 -0.12161182
000390 df 24 22 3d 1c bf db bd a8 b1 98 bc eb 03 3f be
       0.039585944 -0.107298106 -0.0186394 -0.18653838
0003a0 b8 3c 42 be 3f 4b e4 3d 8c ad 41 3e e9 51 9a bc
       -0.18968475 0.111471646 0.18913859 -0.018837886
0003b0 93 0d 71 3d a9 52 94 3d a5 f2 5f 3e e4 29 9f bc
       0.058850836 0.07242329 0.21869905 -0.019429155
0003c0 86 6c 79 3e e9 55 7a 3c bd 44 24 3e 03 ec 57 bc
       0.24357805 0.015279272 0.16041847 -0.013178828
0003d0 fb d3 e5 bd 77 6a 85 3b 20 6f 54 be 40 a6 6f 3d
       -0.11222073 0.0040715295 -0.20745516 0.058508158
0003e0 45 db 32 bd 67 13 c2 3d 99 b3 5a be d8 92 51 3e
       -0.043666143 0.09476357 -0.21357574 0.20466173
0003f0 b3 5a 50 bd 78 bc 3c bc ad 78 2b 3d 7d cc 56 3e
       -0.050867748 -0.011519544 0.041863132 0.20976444
