Params/dataset2_150_0.001_20_16_222_model.pt (torch, 46587 bytes, 31 tensors)

lstm_p.weight_ih_l0 f4 [64, 10]
0	0xbdc88dfa	-0.09792705
1	0xbdec796a	-0.115465954
2	0xbd2454e2	-0.040120013
3	0xbcd8a163	-0.026444143
4	0x3e5d2acb	0.21598355
5	0xbe060cd8	-0.13090837
6	0x3d95ea69	0.07320101
7	0x3e2f8d34	0.17143708
8	0xbda818b0	-0.08207834
9	0xbdbbac49	-0.0916372
10	0x3df5dc6d	0.120049335
11	0x3d02ba66	0.031916045
12	0x3ba3039b	0.004974795
13	0x3e6ee3f3	0.23329143
14	0xbb0c4ae0	-0.0021406934
15	0xbe04dfb0	-0.12975955
16	0xbc0d82dc	-0.008637156
17	0x3d481db9	0.04885647
18	0x3d62dfff	0.0553894
19	0x3db7f17f	0.089816086
20	0x3c7908ee	0.015199883
21	0x3d267522	0.04063905
22	0xbe5b2dc8	-0.21404183
23	0x3e3a3d90	0.18187547
24	0xbe1542f8	-0.14576328
25	0xbdb643dd	-0.08899663
26	0x3dadd054	0.08487001
27	0xbd1ae63e	-0.037817232
28	0x3e2b2162	0.16711953
29	0x3dc6b175	0.09701816
30	0x3e6190cd	0.22027893
31	0x3da6cc9b	0.08144494
32	0x3d7594b7	0.05995628
33	0x3d6d80dd	0.05798422
34	0xbe1a21b1	-0.15051915
35	0x3d2da9a9	0.04239813
36	0x3dbf5d77	0.09343999
37	0xbd343850	-0.043999016
38	0xbdfd2d97	-0.12362211
39	0xbe0e4153	-0.13892107
40	0x3e21ad9e	0.15788886
41	0xbe3956df	-0.18099545
42	0x3e852b9a	0.26009828
43	0xbcfdfe7a	-0.031005133
44	0x3d749bec	0.05971901
45	0x3e24a47e	0.16078374
46	0x3e347106	0.1762124
47	0x3d848c05	0.06472019
48	0xbe578195	-0.21045525
49	0xbb968dcf	-0.0045945416
50	0xbdc2acb4	-0.09505597
51	0xbe5c981c	-0.215424
52	0xbda38377	-0.07984059
53	0x3dde306d	0.1084908
54	0x3cd58591	0.026064666
55	0x3e5ea0eb	0.21741073
56	0xbe136b1b	-0.14396326
57	0x3deac0c8	0.11462551
58	0x3e4718e8	0.19443095
59	0xbe2ad4b0	-0.16682696
60	0x3e622fcb	0.22088544
61	0x3dee9449	0.11649377
62	0xbc866bf3	-0.016408896
63	0xbd5f47c9	-0.05451182
64	0xbe010194	-0.12598258
65	0x3e58d8c7	0.21176444
66	0x3db4e871	0.08833397
67	0xbc7382f6	-0.0148627665
68	0x3e751ce6	0.23936805
69	0xbdff2fad	-0.12460265
70	0xbde421f8	-0.111392915
71	0xbe00522b	-0.12531345
72	0x3e783a56	0.24241003
73	0xbe4a8b23	-0.19779639
74	0x3b33acf6	0.0027416325
75	0xbce2f425	-0.027704308
76	0xbd40e677	-0.04709479
77	0xbe62b236	-0.22138295
78	0x3ddc6adf	0.107625715
79	0xbd3ca7f0	-0.046058595
80	0xbe5c60d0	-0.21521306
81	0xbcc2832e	-0.023744192
82	0xbe39c4a8	-0.18141425
83	0x3d6ec9e2	0.058298
84	0x3dd89e28	0.10577041
85	0xbe011cf6	-0.12608704
86	0x3e56a48a	0.20961204
87	0x3d00a624	0.031408444
88	0xbe692caa	-0.22770944
89	0x3c668631	0.01407008
90	0x3b04072d	0.0020145879
91	0x3e0a2a49	0.13492693
92	0xbe60e03f	-0.21960543
93	0x3d4cce7c	0.050001606
94	0xbe056328	-0.13026106
95	0x3d394820	0.0452348
96	0xbe32c9be	-0.17459771
97	0x3d07aad7	0.03312191
98	0xbe5365fc	-0.20644373
99	0x3da518fb	0.08061405
100	0x3d33adb0	0.043866813
101	0x3e34438a	0.17603889
102	0x3e77b5d4	0.24190456
103	0x3d7b62a4	0.061373368
104	0xbde09a86	-0.10966973
105	0xbdbbd7ea	-0.09172042
106	0x3e0232a7	0.12714635
107	0x3df9a1c1	0.12189055
108	0xbbeac7ac	-0.007164916
109	0xbe3151b0	-0.17316318
110	0xbe073086	-0.13202104
111	0x3cdc7aff	0.026914118
112	0x3dd0e1f0	0.10199344
113	0x3e0befd3	0.13665704
114	0x3e0845ac	0.13307828
115	0x3e2c88cc	0.16849059
116	0xbc897bb0	-0.016782612
117	0x3e11aa3d	0.14225097
118	0x3d8ca858	0.068680465
119	0x3e69110c	0.22760409
120	0x3e174391	0.14771868
121	0x3c6345c9	0.013871619
122	0x3dd0acdf	0.101892225
123	0xbd936d1f	-0.071985476
124	0xbe64b236	-0.22333607
125	0x3d9749bd	0.07387111
126	0x3e5f7dfd	0.21825404
127	0x3dcf02d8	0.10107964
128	0xbbce890b	-0.006302958
129	0xbe69e92b	-0.22842853
130	0xbe49cdc4	-0.197074
131	0x3dbf61bc	0.09344813
132	0x3da10835	0.078628935
133	0x3e18f96b	0.14938895
134	0x3e0c94ac	0.13728589
135	0xbc847268	-0.016167834
136	0xbe5e1f81	-0.21691705
137	0x3dcecef2	0.100980654
138	0xbe4a5a0f	-0.19760917
139	0x3d6806aa	0.05664698
140	0xbc9d9112	-0.019234214
141	0x3e01a0d1	0.12659003
142	0x3e6cdb43	0.23130517
143	0xbbbe11ca	-0.0058004605
144	0x3e02d16b	0.12775199
145	0x3c9316a0	0.017955124
146	0x3e06fad9	0.13181628
147	0xbde9cfb2	-0.11416568
148	0xbe6c4736	-0.2307404
149	0xbdb63c14	-0.08898178
150	0x3c960b01	0.018315794
151	0x3deecf49	0.1166063
152	0x3e231524	0.15926033
153	0x39d665e2	0.0004089317
154	0x3dc799e7	0.097461514
155	0x3c05f892	0.00817694
156	0x3e66d3d2	0.2254174
157	0x3dc05adb	0.09392329
158	0x3cc398fa	0.023876656
159	0xbb4582bd	-0.003013774
160	0x3d848aa4	0.06471756
161	0xbd7ebbbb	-0.062190752
162	0x3e6586bb	0.22414677
163	0x3e087a69	0.13327946
164	0xbdb74957	-0.08949535
165	0x3db52069	0.08844072
166	0xbdf843b5	-0.12122289
167	0xbe5bde03	-0.2147141
168	0xbe6f538f	-0.23371719
169	0xbe73c361	-0.23805
170	0xbdd5c801	-0.10438538
171	0xbdd7e686	-0.10542016
172	0xbd51d234	-0.051225856
173	0x3e4ef112	0.20209149
174	0x3d10be58	0.035337776
175	0x3ded77c2	0.115951076
176	0x3d3a6df9	0.045515034
177	0x3d9646f7	0.07337754
178	0xbcc6aa65	-0.024251172
179	0xbaddc443	-0.0016919452
180	0x3e716a7f	0.23575781
181	0x3e44d688	0.19222462
182	0xbbe6281a	-0.0070238234
183	0x3d9742d2	0.07385792
184	0x3e09b981	0.1344967
185	0x3e00a0e7	0.1256138
186	0x3e128821	0.14309742
187	0xbdaf16c3	-0.08549263
188	0x3dc51b53	0.09624352
189	0x3c162c84	0.009165887
190	0x3ddac5d5	0.10682265
191	0xbd1980b0	-0.03747624
192	0x3e1b4855	0.15164311
193	0xbe288979	-0.16458692
194	0x3e1e5a96	0.15464243
195	0x3da41ebb	0.08013674
196	0x3e0f332c	0.13984364
197	0x3c2e4cd2	0.010638433
198	0xbdd706ea	-0.10499366
199	0x3bf28375	0.007400925
200	0x3e071218	0.13190496
201	0x3d751137	0.05983087
202	0xbe61b3dd	-0.22041269
203	0xbe4af9a8	-0.19821799
204	0x3e73251e	0.23744628
205	0xbe1db08a	-0.15399376
206	0xbd85cff0	-0.065338016
207	0xbe2b5379	-0.16731061
208	0x3db211de	0.08694814
209	0xbe612b6f	-0.21989225
210	0x3e272a09	0.16324629
211	0xbe2bff6b	-0.16796653
212	0xbe750c0e	-0.2393038
213	0xbd41ba87	-0.047297027
214	0x3d42e76a	0.047583975
215	0xbdeff5b0	-0.11716783
216	0x3dbd12bc	0.09232089
217	0xbe69cd21	-0.22832157
218	0x3e530d66	0.2061058
219	0xbe5d83f7	-0.21632372
220	0x3d8c18ff	0.06840705
221	0xbd082598	-0.033238977
222	0xbdafef11	-0.0859052
223	0x3e56e605	0.20986183
224	0x3e5c92ff	0.2154045
225	0x3e4ec856	0.2019361
226	0xbe172e01	-0.14763643
227	0xbe3464eb	-0.17616622
228	0xbe5aadae	-0.21355316
229	0x3e073e35	0.13207324
230	0xbc262730	-0.010141179
231	0xbe0753a1	-0.13215496
232	0xbdefb805	-0.11705021
233	0x3dfabbcf	0.12242853
234	0xbd64652a	-0.05576054
235	0x3cd77558	0.026301071
236	0xbe5a4ae7	-0.21317635
237	0x3e5e94b3	0.21736412
238	0xbd971ea8	-0.07378894
239	0x3dc63212	0.09677519
240	0xbe497ddb	-0.19676916
241	0x3e3b7642	0.1830683
242	0x3e4d7645	0.20064647
243	0xbe135d02	-0.14390948
244	0xbddd36d6	-0.10801475
245	0xbe27c1fe	-0.16382596
246	0x3e66c4c6	0.22536
247	0x3e0940a7	0.13403569
248	0x3dc88373	0.09790697
249	0x3dd0e3db	0.1019971
250	0xbe3fb9f6	-0.18723282
251	0xbdde55fb	-0.10856243
252	0xbe343466	-0.17598113
253	0xbd8f1252	-0.06985916
254	0xbd7e1bc9	-0.062038217
255	0x3e1e653e	0.15468308

lstm_p.weight_hh_l0 f4 [64, 16]
0	0xbcc9c264	-0.024628825
1	0xbc8da032	-0.017288301
2	0x3aae80b4	0.0013313503
3	0x3e82a579	0.2551687
4	0x3e710fc2	0.23541167
5	0xbe26854f	-0.1626179
6	0x3d51a81f	0.051185723
7	0x3d58b425	0.052906174
8	0x3e135cf7	0.14390932
9	0xbd4d70dc	-0.05015646
10	0x3dcedf5a	0.10101195
11	0x3e074932	0.13211516
12	0x3cb6e3cb	0.022325417
13	0x3e59c386	0.21265993
14	0x3d9d373f	0.07676553
15	0x3e436759	0.19082393
16	0x3e37d1e3	0.17951159
17	0xbe72adc8	-0.23699105
18	0xbe01685e	-0.12637469
19	0xbd2d8119	-0.042359445
20	0x3e2480e3	0.16064791
21	0xbe3f4fd9	-0.18682803
22	0x3e2b3050	0.16717649
23	0x3de042f4	0.1095027
24	0x3d3ea5c7	0.046544816
25	0x3e555640	0.20833683
26	0x3c65aa42	0.014017643
27	0xbe31ab44	-0.17350489
28	0x3dfecbb2	0.124411955
29	0xbe5f7624	-0.21822411
30	0xbe5bc3ba	-0.21461383
31	0x3d97bbb0	0.074088454
32	0x3e57fd5c	0.21092743
33	0xbe73c8bd	-0.23807044
34	0x3e30dc58	0.17271554
35	0x3e3e9596	0.1861175
36	0xbe251fce	-0.16125414
37	0xbe49d820	-0.19711351
38	0x3c57a7f7	0.0131626045
39	0x3e2703d2	0.16310051
40	0x3d41719d	0.04722749
41	0xbe28ab98	-0.16471708
42	0xbd8b710c	-0.06808671
43	0xbc9e5678	-0.01932834
44	0x3e7150f5	0.23566039
45	0xbde16dce	-0.11007272
46	0xbe356616	-0.17714724
47	0xbd5bab0f	-0.05362993
48	0xbe082dd8	-0.13298738
49	0xbcb68606	-0.022280704
50	0x3c8f3231	0.017479988
51	0xbddd44d3	-0.10804143
52	0x3dc245f2	0.09485997
53	0xbe6a8830	-0.22903514
54	0x3e2c4cc8	0.16826165
55	0x3d92a248	0.07159859
56	0x3e042274	0.12903768
57	0xbd7f37a9	-0.06230894
58	0x3db4e44a	0.08832605
59	0x3db6663b	0.08906218
60	0x3ca3c2b4	0.019990303
61	0xbdc418c8	-0.09575039
62	0xbd999872	-0.0749978
63	0x3e227882	0.15866283
64	0x3e4ef87e	0.2021198
65	0xbc236e29	-0.009974995
66	0xbe45319e	-0.19257209
67	0x3ccd6769	0.025073724
68	0xbe705723	-0.2347074
69	0x3dbb8e57	0.091580085
70	0xbdc14de1	-0.09438682
71	0x3da39e89	0.079892226
72	0xbe0f2d11	-0.13982035
73	0x3ded1828	0.11576873
74	0xbe39b559	-0.18135585
75	0x3e3ae72c	0.18252248
76	0x3e3c320c	0.18378466
77	0x3e621b64	0.22080761
78	0x3d9f83a7	0.077887826
79	0xbe18a696	-0.14907297
80	0xbb002eb7	-0.0019559094
81	0x3e1fe575	0.15614875
82	0xbe15b2e3	-0.14619021
83	0xbe3c8d94	-0.18413383
84	0x3dc6a228	0.096988976
85	0xbe00fc75	-0.12596305
86	0xbe5e001c	-0.21679729
87	0x3e30e761	0.17275764
88	0x3e1fcbbe	0.15605065
89	0xbe1d20a0	-0.15344477
90	0xbddd66ff	-0.108106606
91	0x3d2a1d1c	0.041531667
92	0xbdfb0e73	-0.12258615
93	0xbe5b1d86	-0.21397981
94	0x3de72074	0.11285487
95	0x3d825775	0.06364337
96	0xbe54727a	-0.20746794
97	0x3cb53fea	0.022125203
98	0xbc1f7ff7	-0.009735099
99	0xbe053a5d	-0.13010545
100	0x3e463637	0.19356619
101	0x3d978839	0.07399029
102	0x3e83019e	0.2558717
103	0xbca272cc	-0.01983013
104	0xbe0fb03c	-0.14032072
105	0xbc3e66a2	-0.011621149
106	0xbe504987	-0.20340548
107	0x3c9427a4	0.018085308
108	0xbe5918b3	-0.21200828
109	0x3e3bbfb3	0.18334846
110	0xbd644b84	-0.05573608
111	0x3e152f43	0.1456881
112	0x3e214c77	0.15751825
113	0xbe5c9952	-0.21542862
114	0x3e78c9d5	0.24295743
115	0xbe398760	-0.18118048
116	0x3e7122ed	0.2354848
117	0xbda80b50	-0.08205283
118	0x3d4c659c	0.04990159
119	0x3dafb034	0.0857853
120	0x3e6f0ab7	0.23343931
121	0x3e327e70	0.17431045
122	0x3e144964	0.14481121
123	0x3d75b51f	0.059987184
124	0xbda5843e	-0.08081864
125	0x3cc8b1fc	0.024498932
126	0xbc1a18d8	-0.009405337
127	0x3e27c386	0.1638318
128	0xbe3be9e3	-0.1835094
129	0x3e255ec0	0.16149426
130	0x3e16e29f	0.14734887
131	0x3e833264	0.25624382
132	0x3d8c36d6	0.068463966
133	0x3e5ecb97	0.21757351
134	0xbe2cd08e	-0.16876432
135	0xbe39775a	-0.18111935
136	0x3cd4defc	0.025985233
137	0x3dd3e7b1	0.10346926
138	0x3e252294	0.16126472
139	0xbe501bfd	-0.20323177
140	0xbd2bddf3	-0.041959714
141	0xbe1b52ff	-0.15168379
142	0xbb1ddfec	-0.0024089767
143	0xbb72520b	-0.003697517
144	0xbe42e9d2	-0.19034508
145	0xbc6f0a5a	-0.01458987
146	0xbe30c7ed	-0.17263766
147	0xbdb3324d	-0.087498285
148	0x3caa07ea	0.020755727
149	0x3e2de401	0.16981508
150	0x3ca96ee7	0.020682765
151	0xbe16eb41	-0.1473818
152	0xbe278947	-0.16360961
153	0xbd8bd7f6	-0.06828301
154	0x3d296b6b	0.041362207
155	0xbe2e64c9	-0.17030634
156	0x3e70ec68	0.23527682
157	0x3ddd0c39	0.10793347
158	0x3e50a212	0.20374325
159	0x3d52b07f	0.05143785
160	0xbe306d23	-0.17229132
161	0x3e217034	0.15765458
162	0xbe088e17	-0.13335453
163	0x3e60fe03	0.21971898
164	0x3d7068cf	0.058693703
165	0x3e31e32a	0.17371812
166	0xbe785d83	-0.24254422
167	0xbdb05e51	-0.086117394
168	0x3dfe86b6	0.12428038
169	0xbe1e836a	-0.15479818
170	0x3e43fe88	0.19140065
171	0x3bef5f40	0.007305056
172	0xbe48aef7	-0.19597994
173	0x3defbb53	0.11705651
174	0x3d47e678	0.048803777
175	0xbdf14426	-0.117805764
176	0xbdb21d87	-0.08697038
177	0xbc42a0a5	-0.011879121
178	0xbd8c9d4d	-0.0686594
179	0x3e7bc3c0	0.24586391
180	0xbe4e0929	-0.20120682
181	0xbbff76ce	-0.007796145
182	0xbe33085d	-0.17483659
183	0xbc832c57	-0.016012354
184	0xbe0704a9	-0.13185371
185	0x3e73042d	0.23732062
186	0xbe0d2979	-0.13785352
187	0x3e630ac8	0.22172081
188	0xbc58fc79	-0.013243788
189	0x3c2626cd	0.010141087
190	0xbd9c81f7	-0.07641976
191	0xbca658ef	-0.020306079
192	0xbd8207d4	-0.06349149
193	0xbde31f91	-0.11090005
194	0xbe338760	-0.1753211
195	0xbd5fb7d3	-0.054618668
196	0xbe020f5b	-0.1270117
197	0x3d2d9ef1	0.042387906
198	0xbcaa39f3	-0.020779585
199	0xbe122b93	-0.14274435
200	0xbe7de1b2	-0.24793127
201	0xbe046d0a	-0.1293222
202	0x3e417838	0.18893516
203	0x3dda48c3	0.106584094
204	0x3e1a5428	0.15071166
205	0xbd60647f	-0.05478334
206	0x3e3d97e0	0.18514967
207	0x3e3e0fd0	0.1856072
208	0xbe093476	-0.13398919
209	0xbe040d97	-0.12895809
210	0x3e060bfc	0.13090509
211	0x3e18a7ed	0.14907809
212	0xbda7d110	-0.081941724
213	0x3db8d643	0.09025242
214	0x3dab38de	0.08360456
215	0xbddc8a74	-0.10768595
216	0xbe4c92e5	-0.19977911
217	0xbd95dcec	-0.07317528
218	0xbe3a7e86	-0.18212327
219	0x3e5d1e5a	0.2159361
220	0x3e10528b	0.14093988
221	0x3e720e69	0.2363831
222	0x3e1ae43e	0.1512613
223	0x3dc43d5f	0.09582018
224	0x3ccf400a	0.02529909
225	0x3e3e6226	0.18592128
226	0x3dd2f399	0.10300369
227	0x3cd67cdd	0.026182586
228	0x3e31eff2	0.17376688
229	0x3e4b23f2	0.19837931
230	0xbdaa40af	-0.08313119
231	0xbd699093	-0.057022642
232	0xbd3ad0a1	-0.04560912
233	0xbe424032	-0.18969801
234	0xbe2e32d9	-0.17011584
235	0xbe588918	-0.21146047
236	0x3c62bfad	0.013839644
237	0xbd192034	-0.037384227
238	0x3e0025ec	0.12514466
239	0x3d65396d	0.05596297
240	0xbe01f209	-0.12689985
241	0x3d80a35b	0.062811576
242	0xbe662e43	-0.22478585
243	0x3daf3b28	0.08556205
244	0x3e1dfe96	0.15429148
245	0xbe22f2cb	-0.1591293
246	0x3d1446f2	0.03620047
247	0x3a8f66f7	0.001094072
248	0x3d623e00	0.05523491
249	0x3e4224e2	0.18959382
250	0xbe2840c0	-0.1643095
251	0xbe2d21fa	-0.16907492
252	0x3ce064c2	0.027391795
253	0xbe59b161	-0.21259071
254	0xbdf8f5af	-0.121562354
255	0x3db11255	0.08646075

lstm_p.bias_ih_l0 f4 [64]
0	0xbcf2bd2d	-0.029631222
1	0xbe578780	-0.21047783
2	0xbe32eaf5	-0.17472441
3	0xbda29886	-0.07939248
4	0x3e0f772e	0.14010307
5	0xbd824c57	-0.06362217
6	0x3cdd8881	0.02704263
7	0xbe4b353e	-0.19844529
8	0x3e3ac66e	0.18239757
9	0xbe79cf86	-0.2439557
10	0x3db63369	0.088965245
11	0x3d5a2d8a	0.053266086
12	0x3e683d62	0.22679666
13	0xbe1c1bec	-0.15245026
14	0x3e0ac965	0.13553388
15	0x3e086954	0.1332143
16	0xbe25860b	-0.16164415
17	0x3e44e9f7	0.19229876
18	0xbe28a821	-0.16470386
19	0xbe254379	-0.1613902
20	0xbe5e2677	-0.2169436
21	0x3e3e3ed5	0.18578656
22	0x3daacfbc	0.083404034
23	0xbbd67f3c	-0.0065459292
24	0x39a1bcac	0.00030848884
25	0x3e41f4de	0.18941066
26	0xbd235dd1	-0.039884392
27	0x3ce35017	0.02774815
28	0xbe0e0467	-0.13868867
29	0xbe3c9d8f	-0.18419479
30	0xbe6d8c31	-0.2319801
31	0x3e097115	0.13422044
32	0xbdc90b7d	-0.09816644
33	0xbe0768a1	-0.13223507
34	0x3e2e65cf	0.17031024
35	0x3e61c3b7	0.22047316
36	0x3cac19a8	0.021008328
37	0xbda88550	-0.08228552
38	0xbe68b22e	-0.2272422
39	0xbe588aab	-0.21146648
40	0x3deec2f6	0.116582796
41	0xbe156139	-0.14587869
42	0xbe61f098	-0.22064435
43	0xbe4e5d6a	-0.20152822
44	0xbd734e84	-0.05940105
45	0x3df728c7	0.120683245
46	0x3e2728b4	0.16324121
47	0xbd668d19	-0.056286905
48	0x3e42cb38	0.19022834
49	0x3e5142ca	0.20435634
50	0x3dfa1c0f	0.12212383
51	0x3e7b61d2	0.24549034
52	0xbe81a3bf	-0.2532024
53	0x3d72dab4	0.059290603
54	0xbe38d5d6	-0.18050322
55	0xbc717fe1	-0.014739961
56	0x3d535315	0.051592905
57	0x3dae6bc7	0.08516651
58	0xbd404fcb	-0.046951097
59	0x3d335e74	0.04379125
60	0xbe1b2933	-0.15152435
61	0x3e31950a	0.1734201
62	0xbdc877a6	-0.09788446
63	0xbe1d0642	-0.15334418

lstm_p.bias_hh_l0 f4 [64]
0	0xbe816b42	-0.25277144
1	0xbcb6c8d5	-0.022312561
2	0xbdae1f9e	-0.08502124
3	0x3dc19aca	0.09453352
4	0xbcc125fa	-0.023577679
5	0x3d4e4083	0.050354492
6	0xbe2b5871	-0.16732956
7	0x3e62eb76	0.22160134
8	0xbc91e6a3	-0.017810171
9	0xbe408baa	-0.18803278
10	0x3e32cc19	0.1746067
11	0x3c5fd96f	0.01366268
12	0xbc9b0a21	-0.018925728
13	0xbe031dee	-0.12804386
14	0xbd98c2bc	-0.07459018
15	0x3d49738c	0.04918246
16	0x3de9a4d0	0.114083886
17	0xbe7dda77	-0.24790369
18	0x3d21632b	0.039401215
19	0x3d91294c	0.07087955
20	0x3e047dc7	0.12938605
21	0x3d998fd7	0.074981384
22	0x3db15f5c	0.086607665
23	0x3e4c3a4e	0.19944116
24	0xbda7a5a9	-0.08185894
25	0x3d243f24	0.040099278
26	0xbdc79b9f	-0.09746479
27	0x3d256784	0.040381923
28	0xbdf32802	-0.11872865
29	0x3dae3607	0.08506399
30	0x3cdff93f	0.02734053
31	0x3c2ed305	0.010670428
32	0xbe70fb4e	-0.23533365
33	0x3e262923	0.1622663
34	0xbe6ccd1b	-0.23125117
35	0x3d4c4ba7	0.049876835
36	0xbe1233b5	-0.14277537
37	0xbe28b00f	-0.16473411
38	0xbb59a87f	-0.0033212004
39	0xbe245f63	-0.16052012
40	0xbe023cc8	-0.12718499
41	0xbe174555	-0.14772542
42	0x3e27e696	0.16396555
43	0xbdb3028a	-0.08740719
44	0x3db57ea8	0.088620484
45	0xbd25ee2c	-0.04051034
46	0xbe4d77e8	-0.20065272
47	0x3e02a57d	0.12758441
48	0xbe07658a	-0.13222328
49	0x3e0bb8c8	0.13644707
50	0xbe539dc6	-0.20665655
51	0xbe73115c	-0.23737091
52	0x3d8cf35c	0.068823546
53	0xbd814df7	-0.06313699
54	0xbe05c72c	-0.1306426
55	0x3e6cb52d	0.23115988
56	0x3e659122	0.22418645
57	0xbe6f612a	-0.23376909
58	0x3e3e7739	0.18600167
59	0x3dfb53ba	0.12271829
60	0xbda71f67	-0.081602864
61	0xbdc3f50d	-0.09568224
62	0x3d9c2aa2	0.07625319
63	0xbd55bc70	-0.05218166

lstm_p.weight_ih_l1 f4 [64, 16]
0	0xbd3be9cb	-0.04587726
1	0x3da5dbc2	0.08098556
2	0x3e5c90c3	0.21539597
3	0x3bad5fac	0.005290946
4	0xbe335053	-0.1751111
5	0x3dd8fdf8	0.10595316
6	0x3e649186	0.22321138
7	0x3e5b51ab	0.21417873
8	0x3e5f5044	0.21807963
9	0xbdc94886	-0.09828286
10	0xbe082a8b	-0.13297479
11	0x3dffb799	0.1248619
12	0x3daade0f	0.083431356
13	0x3e40c93b	0.18826763
14	0xbda8ffa6	-0.08251886
15	0xbdcb2962	-0.099200025
16	0xbd253605	-0.04033472
17	0x3e41de25	0.18932398
18	0x3da2d112	0.07950033
19	0x3e6bbc41	0.23021032
20	0xbe08f479	-0.13374509
21	0xbd893af1	-0.06700695
22	0x3e15ea2d	0.14640112
23	0xbd881394	-0.06644359
24	0x3e51d887	0.20492755
25	0xbd4f5cdc	-0.050625667
26	0x3e33ae34	0.17546922
27	0x3e1dd5a3	0.15413527
28	0x3d25ba90	0.040461123
29	0xbd87bdbc	-0.06627986
30	0xbe14de2c	-0.14537877
31	0xbe029b29	-0.12754501
32	0xbe0f47c4	-0.1399222
33	0xbe43e2cb	-0.19129483
34	0x3e428f3f	0.18999957
35	0x3dbcf7ad	0.09226928
36	0xbda785b6	-0.081798
37	0x3e4e3ed5	0.20141156
38	0x3cd6daa4	0.026227303
39	0x3b6a8ce2	0.003578954
40	0x3e1f7c4e	0.15574762
41	0x3e709ff7	0.23498522
42	0x3e206de7	0.15666924
43	0xbdc6d43a	-0.09708448
44	0xbe65ad53	-0.22429399
45	0xbddb5037	-0.10708659
46	0xbd4d2db2	-0.050092407
47	0x3dd58600	0.10425949
48	0x3e08679e	0.13320777
49	0xbe7750e8	-0.24151957
50	0x3e5ba7a4	0.21450669
51	0x3e8002da	0.25002176
52	0xbd90df2b	-0.07073816
53	0x3e4871b5	0.19574626
54	0x3deee965	0.1166561
55	0xbe1878b3	-0.14889793
56	0xbdccc530	-0.09998548
57	0xbe50d755	-0.20394643
58	0x3e585c3a	0.21128932
59	0x3e3cfddb	0.18456213
60	0x3e3bfa2a	0.18357149
61	0x3e08da14	0.1336444
62	0x3e18d6c2	0.14925674
63	0x3e2849d7	0.16434418
64	0xbd96bb98	-0.073599994
65	0xbdc0d32c	-0.09415278
66	0x3e49c5c2	0.19704345
67	0xbd9ef806	-0.077621505
68	0x3e0321ce	0.12805864
69	0xbde7785d	-0.11302254
70	0xbe5f5cb7	-0.21812712
71	0xbe42312e	-0.18964073
72	0x3e5c1f75	0.21496375
73	0x3e564916	0.20926318
74	0xbe6ebe3f	-0.2331476
75	0x3c9af705	0.018916616
76	0x3e6c5fed	0.23083468
77	0xbe190acf	-0.1494553
78	0xbc0b4299	-0.008499765
79	0x3dfa0d4f	0.1220957
80	0x3e20bc8c	0.15696925
81	0xbda80ecf	-0.082059495
82	0xbd8c7a32	-0.068592444
83	0x3d3a7a09	0.045526538
84	0x3d26b424	0.04069914
85	0xbd3091a0	-0.04310763
86	0x3e62824c	0.22120017
87	0xbe140375	-0.14454444
88	0xbde6dee2	-0.1127298
89	0x3e5f3efb	0.21801369
90	0xbbc8ba1f	-0.006125703
91	0xbc94f826	-0.018184733
92	0x3e03d43f	0.12873934
93	0x3dcd9591	0.10038293
94	0x3b1e22c3	0.0024129606
95	0x3ddc6e83	0.10763266
96	0x3dd7a8ea	0.10530265
97	0xbdb5d9d1	-0.08879436
98	0x3e1c6831	0.15274121
99	0x3e2f576d	0.17123194
100	0xbe748a18	-0.23880804
101	0xbe2a0640	-0.16603947
102	0x3e3e8eb4	0.18609124
103	0x3c9236fd	0.017848486
104	0x3df4c7cc	0.11952171
105	0x3dae251b	0.08503171
106	0xbddb59d5	-0.107104935
107	0xbdb6d295	-0.08926884
108	0xbe4335f1	-0.19063546
109	0xbe28c556	-0.16481528
110	0x3e5503c6	0.2080222
111	0xbe56ba0b	-0.20969407
112	0x3debaa86	0.11507134
113	0x3ded9956	0.11601512
114	0x3e6619df	0.22470807
115	0xbe75d611	-0.24007441
116	0x3de9e6b9	0.1142096
117	0x3dc5c173	0.09656038
118	0x3e233751	0.1593907
119	0x3e735c56	0.23765692
120	0x3debb94e	0.115099534
121	0x3d724669	0.05914918
122	0xbd582c2a	-0.052776493
123	0xbe5c4b79	-0.21513166
124	0x3dcd36c8	0.10020214
125	0xbdc930e8	-0.09823781
126	0x3df7fba4	0.121085435
127	0xbe572408	-0.21009839
128	0xbca79137	-0.020454986
129	0x3e25eaaa	0.16202798
130	0x3ce1bf2a	0.027556974
131	0xbd3775cf	-0.044790085
132	0x3d92537a	0.07144828
133	0x3db093a8	0.08621913
134	0xbe4ab3fb	-0.1979522
135	0xbcc3d8f0	-0.023907155
136	0x3de9dfd9	0.11419649
137	0x3e5236a1	0.20528652
138	0x3e13685f	0.14395283
139	0x3d0880ed	0.03332608
140	0x3e413c1f	0.1887059
141	0x3e20ed42	0.15715507
142	0xbd4e8b15	-0.050425608
143	0x3d02a638	0.0318968
144	0xbd84198f	-0.064501874
145	0xbdd375b4	-0.103251845
146	0x3e40938e	0.18806288
147	0x3dd7529d	0.10513804
148	0x3e61e1c4	0.22058779
149	0x3dc407b0	0.09571779
150	0xbdf20f72	-0.11819352
151	0xbba88d0f	-0.0051437686
152	0x3d1f4134	0.038880542
153	0x3d009f15	0.031401712
154	0xbe515898	-0.20443952
155	0xbd482c35	-0.048870284
156	0xbd24338c	-0.04008822
157	0xbe5cae3a	-0.21550837
158	0xbe35b97c	-0.17746538
159	0x3e47c258	0.1950773
160	0xbe7043d9	-0.23463382
161	0x3d32ffd5	0.04370101
162	0x3c40d7d9	0.011770212
163	0xbe5ad92b	-0.21371906
164	0xbe44e995	-0.1922973
165	0xbccbecf5	-0.024893263
166	0xbe830d0a	-0.25595886
167	0x3ce51be9	0.02796741
168	0x3e14cedb	0.14532034
169	0xbe00a145	-0.1256152
170	0x3d073640	0.03301072
171	0xbc66f97b	-0.014097567
172	0x3e6fdc0a	0.23423782
173	0xbc6fafc3	-0.014629307
174	0xbdf3f90c	-0.11912736
175	0xbc66b8d8	-0.014082156
176	0xbdf914e4	-0.12162188
177	0xbe068d12	-0.13139752
178	0xbdc85bf6	-0.09783165
179	0x3cb45af9	0.022016035
180	0x3e6cda9e	0.23130271
181	0xbe39dd0c	-0.18150729
182	0x3d1d003c	0.0383303
183	0x3df76849	0.12080438
184	0x3e70d047	0.23516952
185	0x3e2fb5c3	0.1715918
186	0x3e2ca8bd	0.16861244
187	0xbe5ae67a	-0.21376982
188	0x3e55c469	0.20875706
189	0xbe578d34	-0.21049958
190	0x3d9b6552	0.07587685
191	0x3d87cd82	0.066309944
192	0x3dae6a97	0.08516424
193	0xbc8d5962	-0.017254535
194	0xbc2ba944	-0.010477368
195	0xbdd01a34	-0.10161248
196	0x3e4a235b	0.1974005
197	0xbe155d0c	-0.14586276
198	0xbe70407d	-0.234621
199	0x3e80aaf7	0.25130436
200	0xbdfe2205	-0.124088325
201	0xbe4858b2	-0.19565085
202	0xbe34f33f	-0.17670916
203	0xbdfbc84a	-0.122940615
204	0x3e273989	0.16330542
205	0xbe52530a	-0.2053949
206	0xbe727a56	-0.2367948
207	0x3e3310eb	0.17486922
208	0xbe53830d	-0.2065546
209	0xbe29ea73	-0.16593342
210	0xbcaa528d	-0.020791316
211	0xbe649c1e	-0.22325179
212	0x3e4a514a	0.19757572
213	0x3e0bf47a	0.13667479
214	0x3e77d76e	0.24203274
215	0xbe25631b	-0.16151087
216	0xbe35af98	-0.17742765
217	0xbdeacd65	-0.11464957
218	0x3e01a09a	0.12658921
219	0x3e4a87ff	0.19778441
220	0xbe2e7d4b	-0.17039983
221	0x3dd04917	0.10170191
222	0x3e166e61	0.14690544
223	0x3e5845e7	0.21120416
224	0x3da38ac0	0.07985449
225	0x3e6157c3	0.22006135
226	0xbe0a43f1	-0.1350248
227	0x3e102a33	0.14078598
228	0xbe6e0f10	-0.23247933
229	0x3df1dee0	0.11810088
230	0xbb623dab	-0.003452162
231	0xbe69b635	-0.22823413
232	0xbc4e646a	-0.012597183
233	0x3e34590c	0.17612094
234	0xbca4c7a0	-0.02011472
235	0x3e0f8d46	0.14018735
236	0x3deafe5b	0.11474296
237	0xbe36ef66	-0.17864761
238	0xbddc6f8c	-0.107634634
239	0x3e498cb0	0.19682574
240	0x3e012f9e	0.12615821
241	0x3e1d1aad	0.15342207
242	0x3ce86bf0	0.028371781
243	0xbc363ee6	-0.011123395
244	0x3da21d7d	0.07915781
245	0xbc82ff0e	-0.01599076
246	0xbd4ad242	-0.049516924
247	0xbe617048	-0.22015488
248	0xbda29e1e	-0.07940315
249	0x3c4072c8	0.011746116
250	0x3d49b592	0.049245425
251	0x3e02a5dc	0.12758583
252	0x3d87ff35	0.06640474
253	0xbcb27a07	-0.021786703
254	0x3e145d3f	0.14488696
255	0x3dc033a8	0.09384853

lstm_p.weight_hh_l1 f4 [64, 16]
0	0x3e489bc4	0.1959067
1	0xbe11ddc0	-0.14244747
2	0x3e73336e	0.23750088
3	0xbddf73fc	-0.10910794
4	0xbd501ddc	-0.050809726
5	0xbe3dd066	-0.18536529
6	0x3d863f2c	0.06555018
7	0x3e4382a0	0.19092798
8	0xbd9c81d3	-0.076419495
9	0x3e2829fb	0.16422264
10	0xbca2aaaa	-0.01985677
11	0x3e70be44	0.2351008
12	0xbe1a4557	-0.15065514
13	0x3b51b3d8	0.0031998064
14	0x3e45de3c	0.19323057
15	0xbe526c48	-0.20549119
16	0x3dfed2f7	0.12442582
17	0xbe731277	-0.23737513
18	0x3e528963	0.20560221
19	0x3dc8438d	0.09778509
20	0x3d42030a	0.04736618
21	0xbe6a50a9	-0.22882332
22	0x3e828c62	0.2549773
23	0x3e369527	0.17830335
24	0x3e711eb4	0.23546869
25	0xbe55463d	-0.20827575
26	0x3e6245dd	0.22096963
27	0x3cf3b645	0.029749999
28	0x3e1a356a	0.15059438
29	0xbe8166ee	-0.25273842
30	0xbe049294	-0.1294654
31	0x3c607a20	0.013700992
32	0x3e132795	0.14370568
33	0xbe731b1f	-0.23740815
34	0x3e0ddd84	0.13854033
35	0x3df5545d	0.11978982
36	0xbe3460b3	-0.17615013
37	0x3e55faf5	0.20896514
38	0xbdfa86bd	-0.122327305
39	0x3daf88cc	0.08571014
40	0xbe314efe	-0.1731529
41	0xbe194281	-0.14966775
42	0xbd4a3355	-0.04936536
43	0xbda1c760	-0.07899356
44	0x3d4433ba	0.047900893
45	0xbd6d8872	-0.057991453
46	0xbe06c508	-0.13161099
47	0x3e6ee260	0.23328543
48	0xbc2a1a7b	-0.01038229
49	0xbe578b7b	-0.21049301
50	0x3e4df7d6	0.20114073
51	0x3e5627fb	0.20913689
52	0xbe07a87b	-0.13247864
53	0x3e300f50	0.17193341
54	0xbdd5b477	-0.104348116
55	0xbe457dc8	-0.19286263
56	0xbe82d5c7	-0.25553724
57	0xbe071288	-0.13190663
58	0x3df95918	0.121751964
59	0x3e832679	0.2561529
60	0x3e6c82a6	0.23096713
61	0xbcca579a	-0.024699975
62	0xbd52112f	-0.05128592
63	0x3b8bf7a5	0.004271465
64	0x3e5b3898	0.21408308
65	0xbe3d8417	-0.1850742
66	0xbe127461	-0.14302208
67	0xbb6aab4d	-0.003580767
68	0xbe66f8ad	-0.225558
69	0x3e0472db	0.12934439
70	0xbe258c28	-0.16166747
71	0xbd9158be	-0.07097004
72	0xbe0ab029	-0.13543762
73	0xbc648dd1	-0.013949827
74	0x3e60d011	0.21954371
75	0xbdb035ad	-0.08603988
76	0xbdc72450	-0.09723723
77	0x3e01abe7	0.12663232
78	0xbcd39154	-0.025826134
79	0xbc6d3c77	-0.014479748
80	0x3e508ad3	0.20365457
81	0x3da0825d	0.07837365
82	0xbd16c352	-0.036807366
83	0x3e62b6b3	0.22140007
84	0xbe800784	-0.25005734
85	0x3e5862b4	0.21131402
86	0xbdaffdbc	-0.08593318
87	0x3e2e26d4	0.17006999
88	0xbd962960	-0.073321104
89	0xbe5166b9	-0.20449342
90	0xbc105589	-0.008809456
91	0x3e60eaca	0.21964565
92	0x3cec3e87	0.02883841
93	0xbe4fe1a4	-0.20300919
94	0x3e31ca40	0.17362309
95	0x3e7720f7	0.24133669
96	0x3e61017f	0.21973227
97	0xbe087a46	-0.13327894
98	0xbe408813	-0.18801908
99	0xbe80f2c1	-0.25185207
100	0xbd3bb6ac	-0.045828506
101	0x3d8024b0	0.062569976
102	0xbe817b0f	-0.252892
103	0x3bc076f8	0.005873557
104	0x3d022d29	0.03178135
105	0x3e356958	0.17715967
106	0x3e2e47fe	0.1701965
107	0x3de5174c	0.11186084
108	0xbc89662c	-0.016772352
109	0x3e78f2b3	0.24311332
110	0xbc7efabf	-0.015562712
111	0xbd580aa7	-0.052744534
112	0xbe05571c	-0.13021511
113	0x3d80dc9c	0.06292078
114	0xbe289fe8	-0.1646725
115	0x3dd27171	0.102755435
116	0xbe606f23	-0.21917395
117	0x3cc4f5f8	0.024043068
118	0xbc3783cd	-0.011200857
119	0xbe2f70d9	-0.17132892
120	0x3e4d6cd7	0.2006105
121	0x3e47b1b0	0.19501376
122	0x3e21907f	0.15777777
123	0x3e44d69e	0.19222495
124	0xbc34f8dc	-0.011045661
125	0xbe15c649	-0.14626421
126	0xbd6e007a	-0.058105923
127	0xbe1a19f6	-0.15048966
128	0xbdfeb6d0	-0.124372125
129	0x3d1916d2	0.03737528
130	0xbdb1db45	-0.086844005
131	0x3e827cf6	0.25485963
132	0x3e22848c	0.15870875
133	0x3e824603	0.2544404
134	0x3deee233	0.11664238
135	0x3e0ec157	0.13940941
136	0xbdff16b9	-0.12455506
137	0x3e4b5a8b	0.19858758
138	0x3e3fc7b6	0.18728527
139	0x3d9a39fa	0.075305894
140	0x3da063a9	0.07831509
141	0xbe622ed4	-0.22088176
142	0xbb9a877c	-0.004715858
143	0x3e54ebe8	0.20793116
144	0xbdce983d	-0.10087631
145	0x3e43c120	0.1911664
146	0xbdee65c9	-0.11640508
147	0xbe28fa48	-0.16501725
148	0x3e121342	0.14265159
149	0x3e057055	0.13031133
150	0x3dabb422	0.08383967
151	0xbdd7cdd1	-0.10537303
152	0x3e280952	0.16409805
153	0xbdd69ba5	-0.104789056
154	0x3e0c41cd	0.13696976
155	0x3e5ff65a	0.2187132
156	0xbdf34094	-0.11877552
157	0x3e430cc5	0.1904784
158	0x3e3263c6	0.17420873
159	0x3d93c84d	0.07215939
160	0xbdd23eb2	-0.102658644
161	0xbd7f0ce1	-0.06226814
162	0x3e0fec60	0.14055014
163	0x3dc9b1e0	0.0984838
164	0x3bbb48e8	0.005715478
165	0xbdc6b39a	-0.09702225
166	0x3cc102da	0.02356093
167	0x3e800482	0.2500344
168	0x3e4522a1	0.19251491
169	0xbe28dc3a	-0.1649026
170	0x3e818dc4	0.2530347
171	0x3e233937	0.15939794
172	0x3e841ab5	0.25801626
173	0xbd777532	-0.0604145
174	0x3d963b35	0.073355116
175	0xbd370902	-0.044686325
176	0xbe058bbf	-0.1304159
177	0xbd845ffb	-0.06463619
178	0xbe12d2ee	-0.14338276
179	0x3da20c33	0.07912483
180	0xbd568e01	-0.05238152
181	0xbe445908	-0.19174588
182	0xbd90193f	-0.07036065
183	0xbc7421bd	-0.014900622
184	0xbded98db	-0.116014205
185	0xbe16d48a	-0.14729515
186	0xbe7e3546	-0.2482501
187	0x3e06c713	0.13161878
188	0x3e02dbbb	0.12779133
189	0xbe80d1a7	-0.25159952
190	0x3def1b5c	0.1167514
191	0xbe4e042f	-0.20118783
192	0xbde12ee6	-0.10995273
193	0xbe246f6a	-0.16058126
194	0xbd976ba7	-0.0739358
195	0xbe0f052e	-0.1396682
196	0x3884204f	6.3002684e-05
197	0x3d25df69	0.040496264
198	0xbde04c96	-0.109521076
199	0x3e2373e2	0.15962175
200	0xbdc9dced	-0.098565914
201	0xbd901b3c	-0.070364445
202	0x3d8c3185	0.068453826
203	0x3e0d79f1	0.13816048
204	0x3e378d13	0.1792491
205	0x3de9551b	0.11393186
206	0x3ce13337	0.027490241
207	0xbcd99849	-0.026561873
208	0xbe247753	-0.16061144
209	0x3e4d5565	0.20052107
210	0xbc1305ee	-0.008973582
211	0x3e39f011	0.18157984
212	0x3df8dbfe	0.12151335
213	0x3e1a78c9	0.15085138
214	0xbe36c93f	-0.17850207
215	0x3e0488c2	0.12942794
216	0x3e737ab1	0.23777272
217	0xbe67f8aa	-0.22653452
218	0x3e3644ce	0.17799684
219	0xbe13c4af	-0.14430498
220	0xbe0d0852	-0.13772705
221	0xbe610802	-0.21975711
222	0xbe7527e0	-0.23940992
223	0xbe2cbfe7	-0.1687008
224	0xbe3dc2b1	-0.185313
225	0xbb9acf79	-0.0047244397
226	0xbe05abde	-0.13053843
227	0xbb853556	-0.004065196
228	0x3e2cb438	0.16865623
229	0x3e55e999	0.20889892
230	0xbe4b4bcc	-0.19853133
231	0x3e44fba3	0.19236617
232	0xbcb775da	-0.022395063
233	0xbdc1a524	-0.09455326
234	0x3e845b31	0.25850824
235	0xbe4ac76c	-0.19802636
236	0xbe0896c5	-0.13338764
237	0x3deebc98	0.11657065
238	0x3de8d783	0.113692306
239	0x3df24a9d	0.118306376
240	0xbe5f0792	-0.21780232
241	0xbe2797b3	-0.16366462
242	0xbe31eba4	-0.17375046
243	0x3e303fb3	0.172118
244	0x3ddb8e6f	0.107205264
245	0xbcdf4a7d	-0.027257198
246	0x3e2f4243	0.1711512
247	0x3c60793a	0.013700778
248	0xbe6e451d	-0.23268552
249	0xbd94aabd	-0.07259128
250	0x3e03b920	0.12863588
251	0xbd380656	-0.044927917
252	0x3dd50ee0	0.10403228
253	0x3d821e14	0.06353393
254	0xbd68fd00	-0.056881905
255	0xbe467d36	-0.19383702

lstm_p.bias_ih_l1 f4 [64]
0	0xbd8b6e6b	-0.0680817
1	0x3c3f6c49	0.011683532
2	0x3ce8215e	0.028336223
3	0xbe740502	-0.23830035
4	0xbe802592	-0.25028664
5	0x3d88a016	0.06671159
6	0xbe0c31af	-0.13690828
7	0x3e3d86b2	0.18508413
8	0x3d83d469	0.064369984
9	0x3d6802fc	0.05664347
10	0xbe7af714	-0.24508315
11	0x3dbe12db	0.0928094
12	0xbd1b39a7	-0.03789678
13	0xbd288d36	-0.041150294
14	0xbe4acb13	-0.19804029
15	0xbe803963	-0.25043783
16	0x3e33ea12	0.1756976
17	0xbe1fa8e7	-0.15591775
18	0x3d1d2996	0.038369738
19	0xbe37530b	-0.17902772
20	0xbe47b01a	-0.19500771
21	0x3df2c007	0.118530326
22	0x3d84ac31	0.064781554
23	0xbdf9bf9f	-0.12194752
24	0x3de4f56f	0.11179625
25	0xbe1ab62c	-0.15108556
26	0xbe333275	-0.17499717
27	0x3d04a62d	0.03238504
28	0x3ca17188	0.019707456
29	0xbe4e36e1	-0.20138122
30	0xbe175496	-0.1477836
31	0xbe0df954	-0.13864642
32	0xbd86ae71	-0.06576241
33	0x3e0933bb	0.1339864
34	0xbe6775c0	-0.22603512
35	0x3e304c1c	0.17216533
36	0x3c972f40	0.018455148
37	0xbcaec19e	-0.021332558
38	0xbe0b6a19	-0.13614692
39	0xbe5215f4	-0.20516187
40	0xbda68737	-0.08131259
41	0x3dfeb7ee	0.124374256
42	0xbe47cbb5	-0.19511302
43	0x3e5f5c03	0.21812443
44	0xbe2633db	-0.16230719
45	0x3e12e533	0.14345245
46	0xbe63ee67	-0.22258912
47	0xbe714cd4	-0.23564464
48	0xbdbd1272	-0.09232034
49	0x3e416b60	0.18888617
50	0x3ddc8e3b	0.10769316
51	0xbe19a943	-0.15005974
52	0x3d849c0d	0.06475077
53	0xbdf99f77	-0.12188619
54	0x3e5f6683	0.21816449
55	0x3e6e3332	0.23261717
56	0x3be824fd	0.0070844875
57	0x3e2a7175	0.16644843
58	0xbdbfd95d	-0.09367631
59	0x3dc00611	0.09376157
60	0x3e05428b	0.13013665
61	0x3de969ff	0.1139717
62	0x3d98732c	0.07443842
63	0x3e6c8cd1	0.23100592

lstm_p.bias_hh_l1 f4 [64]
0	0x3d9c1e6d	0.07622991
1	0x3e2c7344	0.16840845
2	0x3de5ebbf	0.112266056
3	0x3c4dacd1	0.01255341
4	0xbd657627	-0.056020882
5	0x3e4573b7	0.19282423
6	0x3e5c70f3	0.21527462
7	0x3e573ff6	0.21020493
8	0x3d89018a	0.06689747
9	0x3e0e509a	0.13897935
10	0xbe17b8d4	-0.148166
11	0xbe19e21c	-0.1502766
12	0x3d145e81	0.03622294
13	0xbe52938e	-0.205641
14	0xbe01a41f	-0.12660263
15	0x3e111222	0.14167073
16	0xbdf4b35a	-0.11948271
17	0xbe264e75	-0.16240866
18	0xbe6ddf33	-0.23229675
19	0x3e2015a9	0.15633263
20	0x3e25ea4c	0.16202658
21	0x3e3e038c	0.1855604
22	0xbd39191e	-0.04518997
23	0xbe037328	-0.12836897
24	0x3e69aa4c	0.2281887
25	0xbe24ac64	-0.16081387
26	0x3e4dc97f	0.20096396
27	0x3d62b446	0.055347703
28	0xbddd757f	-0.10813426
29	0x3dccda54	0.1000258
30	0xbe10a642	-0.14125922
31	0x3cacade7	0.021079017
32	0x3e504e15	0.20342286
33	0xbd53b473	-0.05168576
34	0x3d7ded73	0.061994027
35	0x3e2998f8	0.16562259
36	0xbd95b9fd	-0.07310865
37	0x3e1fb84b	0.15597646
38	0x3e3a93c3	0.18220429
39	0x3d0207fa	0.03174589
40	0x3e440219	0.19141425
41	0x3e565b34	0.20933229
42	0xbe34c5c9	-0.17653574
43	0x3de882ef	0.113530986
44	0xba11e8c9	-0.0005565999
45	0xbdc32d73	-0.09530153
46	0x3e4a72a3	0.19770293
47	0x3cc4b7f5	0.024013499
48	0xbc0a5765	-0.008443688
49	0x3dd52187	0.104067855
50	0x3d7000d3	0.058594536
51	0x3c8a2474	0.016863085
52	0x3dd4fc45	0.10399679
53	0xbc8f22e3	-0.01747269
54	0xbe50fe11	-0.20409419
55	0x3dc78329	0.09741814
56	0xbd30c753	-0.04315884
57	0xbdf79888	-0.1208964
58	0xbe1dd5e1	-0.1541362
59	0x3e02a5bd	0.12758537
60	0x3db9551d	0.09049437
61	0xbe502484	-0.2032643
62	0xbe317623	-0.17330222
63	0xbd27b85f	-0.040947314

attention_p.attn_1.weight f4 [16, 16]
0	0xbe792450	-0.24330258
1	0x3e36c677	0.17849146
2	0x3e80e275	0.25172773
3	0xbec64c97	-0.38730308
4	0x3c945247	0.01810564
5	0xbdcad5e9	-0.099040814
6	0xbca6b676	-0.020350676
7	0xbecd7997	-0.40131828
8	0xbe9534b6	-0.29141778
9	0xbdddfb3c	-0.10838935
10	0x3da7f055	0.082001366
11	0x3e9cc875	0.30621687
12	0x3ec6bd0e	0.38816112
13	0x3d540385	0.05176117
14	0xbdfab93d	-0.12242363
15	0xbecfdd48	-0.40598512
16	0xbe968144	-0.29395497
17	0x3ea68d1f	0.32529542
18	0x3e3d09a8	0.18460715
19	0xbec6a971	-0.3880115
20	0xbe77d10b	-0.24200837
21	0xbe87eadd	-0.26546374
22	0xbe46f660	-0.19429922
23	0x3e7347c0	0.23757839
24	0xbe1e4d92	-0.15459278
25	0x3ea8fa95	0.3300368
26	0x3eaceb08	0.33773065
27	0xbe56cfea	-0.2097775
28	0xbd944d14	-0.07241264
29	0x3eade40c	0.33963048
30	0x3e50fe60	0.20409536
31	0x3d633dec	0.055478975
32	0xbd7c30a8	-0.06156984
33	0xbe113806	-0.14181527
34	0xbd40b751	-0.047049824
35	0xbe5ea5ab	-0.21742885
36	0x3e043a1b	0.1291279
37	0x3ec0071d	0.37505427
38	0xbd9d953b	-0.07694479
39	0x3e58c2cf	0.21168064
40	0x3ed1671b	0.40898976
41	0x3e9267c2	0.28594786
42	0xbe01ff13	-0.1269496
43	0xbec3c016	-0.38232487
44	0xbe7dabfb	-0.24772637
45	0x3dcb4faa	0.09927304
46	0xbe78dac1	-0.24302198
47	0xbe9099e1	-0.282424
48	0x3ed2df2c	0.41185892
49	0xbdfe819f	-0.12427067
50	0xbe87dc38	-0.265352
51	0x3eb66490	0.35623598
52	0xbe97cb9f	-0.29647538
53	0x3ecd3a34	0.40083468
54	0x3e706eb7	0.23479734
55	0xbea4e99e	-0.32209486
56	0x3e97d2a5	0.29652897
57	0x3e89c7e2	0.2691031
58	0xbd64b802	-0.055839546
59	0xbee2b9b8	-0.44282317
60	0xbd82de00	-0.063899994
61	0x3ecf3245	0.4046804
62	0xbdd8fe1a	-0.10595341
63	0xbd244589	-0.040105376
64	0x3ea61fa8	0.32446027
65	0xbeaeb0fb	-0.341194
66	0xbe34e8b1	-0.1766689
67	0x3dee60cc	0.11639556
68	0xbebc505f	-0.36780068
69	0x3e84eff2	0.25964314
70	0x3e74ac5c	0.23893875
71	0x3e289cbf	0.16466044
72	0xbe1d32f0	-0.15351462
73	0xbeb3c22c	-0.3510908
74	0x3dfc9bd4	0.12334409
75	0x3eae0b14	0.33992827
76	0x3e3821a3	0.17981581
77	0xbead6596	-0.33866566
78	0x3eb6f4bb	0.3573359
79	0xbe59483f	-0.21218966
80	0xbee0026e	-0.43751854
81	0x3d327b7c	0.043574795
82	0x3e94e19e	0.29078382
83	0x3ec0065a	0.37504846
84	0xbdca7a54	-0.098866135
85	0xbea001ee	-0.31251472
86	0x3bcd49fa	0.006264922
87	0xbe1abad5	-0.15110333
88	0xbd07f594	-0.033193186
89	0x3dd14f9d	0.10220263
90	0x3df554d4	0.1197907
91	0xbe4ce41e	-0.20008895
92	0x3d75bcc4	0.059994474
93	0x3e12f463	0.14351039
94	0xbe99fd12	-0.3007589
95	0x3db33ce1	0.08751846
96	0x3eb33eff	0.35009
97	0xbe348f7f	-0.17632864
98	0x3e34c7f6	0.17654404
99	0x3e0d3637	0.13790213
100	0x3eb26217	0.34840462
101	0x3e858f83	0.26086053
102	0xbe9df764	-0.30852807
103	0xbe0de5b8	-0.13857162
104	0xbd95cb69	-0.07314188
105	0xbe58a56e	-0.21156856
106	0x3eae1796	0.3400237
107	0xbc978569	-0.018496232
108	0xbdfed8b8	-0.124436796
109	0x3eb6b8a8	0.35687757
110	0xbe1e9b09	-0.15488829
111	0xbe914d64	-0.28379357
112	0x3e5cc8eb	0.21561019
113	0x3eb35270	0.35023832
114	0x3ccb5154	0.024819054
115	0xbea25d3c	-0.31711757
116	0xbd00032a	-0.031253017
117	0x3ed64cfe	0.41855615
118	0xbd123b22	-0.035700925
119	0x3e877b76	0.2646138
120	0x3e5dc290	0.21656251
121	0xbd5ced54	-0.05393727
122	0x3cd4fa42	0.025998238
123	0xbd9593c5	-0.073035754
124	0xbe976d76	-0.295757
125	0xbe7744a7	-0.24147283
126	0x3e7f6edc	0.24944633
127	0xbe8bc198	-0.27296138
128	0xbe6a58db	-0.22885458
129	0xbe88179d	-0.26580516
130	0x3ed3cf5d	0.41369143
131	0xbe050d55	-0.12993367
132	0xbe513733	-0.20431213
133	0x3eb61663	0.35563955
134	0x3e1d46a0	0.15358973
135	0xbec4b73b	-0.38421044
136	0x3ed4dfe0	0.41577053
137	0x3e5fd097	0.21856914
138	0x3e00f008	0.12591565
139	0xbcf0933e	-0.029367086
140	0x3de4c81f	0.111709826
141	0xbe119d9a	-0.14220276
142	0x3e96afc4	0.29430974
143	0x3df15007	0.11782842
144	0x3ec631cc	0.38709867
145	0x3e0191c0	0.12653255
146	0xbd197812	-0.037468024
147	0x3e526feb	0.20550506
148	0xbda339b2	-0.07969989
149	0x3e088d0b	0.13335054
150	0x3dbb5216	0.09146516
151	0x3eaeb942	0.34125715
152	0xbe997e65	-0.29979244
153	0xbbceef07	-0.0063151154
154	0xbe6235c3	-0.22090821
155	0x3e9781b5	0.29591146
156	0xbe17525d	-0.14777513
157	0x3e5f99d2	0.21836022
158	0x3e4f1e26	0.20226344
159	0xbdf6d69a	-0.12052651
160	0xbcda414f	-0.02664247
161	0x3e88a0e9	0.26685265
162	0xbea28420	-0.31741428
163	0x3ece86f9	0.4033735
164	0xbda5bf20	-0.08093095
165	0xbe0235d0	-0.1271584
166	0x3b92cede	0.004480227
167	0x3c48704b	0.012233804
168	0xbea8e6d0	-0.32988596
169	0xbcc9205c	-0.024551563
170	0x3e9a04f5	0.30081907
171	0xbe37cb02	-0.17948535
172	0x3e8a737a	0.27041227
173	0xbeccd4d0	-0.40006113
174	0x3ebd9bd3	0.37032947
175	0xbea36b2e	-0.3191771
176	0xbe885bbb	-0.26632485
177	0xbe29f925	-0.16598947
178	0xbe31e2f8	-0.17371738
179	0xbdb64f54	-0.089018494
180	0xbe96a60a	-0.29423553
181	0x3e7553f9	0.23957814
182	0xbd6071e2	-0.054796107
183	0x3ec7993d	0.389841
184	0x3ed10fdc	0.40832412
185	0xbeb6981d	-0.35662928
186	0x3e4fadf6	0.20281205
187	0x3ea30fca	0.31847984
188	0x3e2dbee5	0.16967352
189	0xbb949fcf	-0.004535652
190	0xbe97202d	-0.29516736
191	0x3ed63eb6	0.4184472
192	0x3dee451a	0.11634274
193	0x3ea6dc1f	0.32589814
194	0xbde15e6d	-0.110043384
195	0x3e22d21b	0.15900461
196	0xbe4b6f89	-0.19866766
197	0xbed07cd4	-0.40720236
198	0xbc048dd0	-0.008090451
199	0x3ed5da3b	0.4176806
200	0x3d37ed0a	0.044903792
201	0xbee2a73e	-0.4426822
202	0xbbb49ec2	-0.0055120895
203	0x3e814a18	0.25251842
204	0xbeab2df7	-0.33433506
205	0x3eddafc3	0.43298158
206	0x3e82a848	0.25519013
207	0xbe2b2cc8	-0.16716301
208	0x3e16da03	0.14731602
209	0x3e88493c	0.26618373
210	0x3e97b1b3	0.2962776
211	0xbc549cee	-0.012976868
212	0xbd300b84	-0.042979732
213	0x3e55ef85	0.2089215
214	0x3de83397	0.11337965
215	0xbe00d8c7	-0.12582694
216	0x3cfe19f6	0.031018239
217	0xbea84855	-0.32867685
218	0xbeba53dc	-0.36392105
219	0x3eba5108	0.36389947
220	0xbeda0c2d	-0.42587414
221	0xbe827189	-0.25477245
222	0xbeb9a0a6	-0.36255378
223	0x3e0b373e	0.13595292
224	0x3e9f5a8b	0.31123766
225	0xbd3c05e0	-0.04590404
226	0x3ebb2dbc	0.3655833
227	0x3ed96a9f	0.42464158
228	0xbd37a8e5	-0.044838805
229	0xbebd0483	-0.36917505
230	0xbe6eeebc	-0.23333257
231	0xbc6624c7	-0.014046854
232	0xbdfe8f11	-0.124296315
233	0xbe934924	-0.2876674
234	0xbe0108cf	-0.12601016
235	0xbdc2eeac	-0.09518179
236	0xbe8ab4e6	-0.2709114
237	0xbebece16	-0.37266606
238	0x3ea178ee	0.31537575
239	0xbdc76e49	-0.09737832
240	0x3dbd08d8	0.092302024
241	0xbe3c77f5	-0.18405135
242	0xbea60ccc	-0.32431638
243	0xbd8044a1	-0.0626309
244	0x3e846762	0.25860125
245	0x3ed0ec3e	0.40805238
246	0x3d7c6f81	0.061629776
247	0xbe9065e4	-0.28202736
248	0xbdfa03ee	-0.12207781
249	0xbe44548a	-0.19172874
250	0xbda8940d	-0.082313634
251	0xbc5a9c54	-0.013342936
252	0xbdcb188c	-0.09916791
253	0xbe3fd366	-0.18732986
254	0xbe9238f3	-0.28559074
255	0xbdc9e300	-0.0985775

attention_p.attn_1.bias f4 [16]
0	0xbae40640	-0.0017396882
1	0xbc2af7d6	-0.010435065
2	0x3c3c5a5c	0.011496153
3	0xbc28a2e8	-0.010292746
4	0x3bab76cf	0.005232669
5	0xbabdedaa	-0.0014490385
6	0x3a2793df	0.0006392579
7	0xbc83a46b	-0.016069612
8	0x3c2573ba	0.010098392
9	0xbc1fdee3	-0.00975773
10	0x3c4eb8b5	0.01261728
11	0xbc35767f	-0.011075615
12	0x3c1fcbcd	0.00975318
13	0x3c310314	0.010803957
14	0xbc2a391e	-0.010389594
15	0xbc6fab80	-0.014628291

attention_p.attn_2.weight f4 [1, 16]
0	0xbee43876	-0.44574326
1	0xbeb6a3f4	-0.3567196
2	0x3de6eecd	0.112760164
3	0xbe2d068f	-0.16897033
4	0xbe7fff24	-0.24999672
5	0x3c160e00	0.009158611
6	0x3ebba496	0.36649007
7	0xbe89cbd5	-0.26913324
8	0x3e829a63	0.25508413
9	0xbebbfa6d	-0.36714497
10	0x3e92064c	0.2852043
11	0xbe37adf7	-0.17937456
12	0x3e859090	0.26086855
13	0x3ed571b5	0.41688314
14	0xbe1651c6	-0.14679632
15	0xbe9b4719	-0.3032768

lstm_t.weight_ih_l0 f4 [64, 7]
0	0xbe2ba6d4	-0.16762859
1	0xbd989dd3	-0.074519776
2	0xbc533c4b	-0.012892793
3	0xbd994139	-0.07483143
4	0x3e4cdc37	0.2000588
5	0xbe4bee4c	-0.19915122
6	0x3e497d52	0.19676712
7	0xbb021524	-0.0019849027
8	0x3e680719	0.22658958
9	0x3d8a59ce	0.0675541
10	0xbe53f8e1	-0.20700409
11	0x3e6dffe4	0.23242146
12	0x3d84e099	0.06488151
13	0x3deaedc8	0.114711344
14	0x3e39a0ea	0.1812779
15	0xbd7c32ab	-0.06157176
16	0x3cd3c39e	0.025850113
17	0xbdb865fb	-0.09003826
18	0x3e02f6ce	0.12789461
19	0x3b81f906	0.0039664535
20	0x3da787d3	0.08180203
21	0xbe09473d	-0.13406081
22	0xbdf57dcb	-0.11986884
23	0xbde4e0ff	-0.11175727
24	0xbe2131b0	-0.1574161
25	0x3e42885b	0.18997328
26	0xbe3b56fe	-0.18294904
27	0x3e2090c1	0.15680219
28	0xbe594628	-0.21218169
29	0x3e4f9b76	0.20274147
30	0xbe81a603	-0.2532197
31	0x3e300cd4	0.17192394
32	0x3a5b2bf0	0.0008360734
33	0xbd8facec	-0.07015404
34	0xbe09c79b	-0.1345505
35	0x3e160d86	0.14653596
36	0x3d789087	0.060684707
37	0x3def76ab	0.11692556
38	0x3d847d47	0.06469207
39	0x3d0c16b7	0.03420135
40	0x3e4d3b84	0.20042235
41	0x3dd7a862	0.10530163
42	0x3e5c91f5	0.21540053
43	0xbe42845c	-0.18995804
44	0xbd27902c	-0.040908977
45	0xbd605e80	-0.054777622
46	0x3dc325cb	0.09528693
47	0x3d729806	0.059227012
48	0xbe15bd11	-0.14622904
49	0x3e009e3f	0.12560366
50	0xbd1f0c83	-0.03883029
51	0xbe37a68e	-0.1793463
52	0x3e6a539d	0.22883458
53	0xbe3e8286	-0.18604478
54	0xbdeed525	-0.11661748
55	0x3e59dd79	0.21275891
56	0xbdac8109	-0.08423049
57	0x3e1c07be	0.15237328
58	0xbd8c479b	-0.06849595
59	0xbdb932e0	-0.09042907
60	0x3e717099	0.23578109
61	0xbe6a1008	-0.22857678
62	0x3d2e0f07	0.0424948
63	0x3c86ba49	0.01644625
64	0xbe264e1e	-0.16240737
65	0x3d1f62e6	0.038912676
66	0xbda3c20f	-0.07995998
67	0x3da48dcd	0.08034859
68	0xbdf48db3	-0.119410895
69	0xbe24fc7d	-0.16111942
70	0xbe5b1a8b	-0.21396844
71	0x3d5172f6	0.051135026
72	0xbb1e00ad	-0.002410929
73	0xbd8bf1d1	-0.06833232
74	0xbe4899d7	-0.19589935
75	0xbbc9c21a	-0.006157172
76	0xbe572921	-0.21011783
77	0x3d97c8dc	0.07411358
78	0xbd2296d8	-0.039694637
79	0xbe087284	-0.13324934
80	0x3dc16eb5	0.09444944
81	0xbe3303a3	-0.17481856
82	0x3b1ad210	0.0023623742
83	0x3e0d1d01	0.13780595
84	0x3e5976e7	0.21236764
85	0xbdbfa33c	-0.09357306
86	0xbe55cfdf	-0.20880078
87	0x3e2846d3	0.16433267
88	0x3d0b83d0	0.034061253
89	0xbe702a1b	-0.23453562
90	0xbc0370d3	-0.008022505
91	0x3c9b108f	0.018928794
92	0xbd6c08ee	-0.057625704
93	0x3e2f0479	0.1709155
94	0x3d4fe9fe	0.05076026
95	0xbe0bff3c	-0.13671583
96	0xbcd54e59	-0.026038336
97	0x3be9d32e	0.0071357703
98	0xbdeded28	-0.116174996
99	0xbe0fb6ed	-0.14034624
100	0xbd4380b7	-0.047730174
101	0xbd37c21a	-0.044862844
102	0xbe35c344	-0.17750269
103	0x3e46316c	0.1935479
104	0x3e6dc7ac	0.232207
105	0xbe3c926f	-0.18415235
106	0x3e0a30e9	0.1349522
107	0xbe3dd0f1	-0.18536736
108	0x3d88949c	0.0666897
109	0x3e804337	0.2505128
110	0x3d24c65f	0.040228244
111	0xbe3e6184	-0.18591887
112	0xbc821365	-0.015878389
113	0xbe4e677a	-0.2015666
114	0xbe575509	-0.21028532
115	0xbd9ade00	-0.075618744
116	0xbe2c5662	-0.16829827
117	0x3daa851f	0.08326172
118	0x3d4e60af	0.050385173
119	0xbe613866	-0.2199417
120	0xbd371161	-0.04469431
121	0x3e728af4	0.23685819
122	0x3e3596fe	0.1773338
123	0x3e16da9b	0.14731829
124	0x3dcc6880	0.09980869
125	0xbe4113ef	-0.1885526
126	0x3e5a1c22	0.21299794
127	0x3e7449b5	0.23856242
128	0xbd7acbaa	-0.061229385
129	0xbe563f29	-0.20922531
130	0xbd1319c5	-0.035913248
131	0xbac6efeb	-0.0015177702
132	0x3e361e56	0.1778501
133	0x3e15b064	0.14618069
134	0xbe5813db	-0.21101324
135	0xbe0884d9	-0.13331927
136	0x3d3ba596	0.045812212
137	0x3e481a05	0.19541176
138	0xbba4b2a9	-0.0050261808
139	0xbe73c53f	-0.23805712
140	0x3de2b407	0.11069494
141	0xbd7523f1	-0.05984873
142	0x3d7ce20e	0.06173902
143	0x3dd31993	0.10307612
144	0x3de60485	0.11231331
145	0x3bb8638b	0.005627101
146	0x3d931c63	0.07183149
147	0x3da924b0	0.08258951
148	0xbdcc6211	-0.09979642
149	0x3d572bf7	0.052532163
150	0x3e20adb5	0.15691264
151	0xbe3ab9eb	-0.18234985
152	0x3d5b239a	0.05350075
153	0x3e48e2e1	0.19617797
154	0x3ddd2518	0.10798091
155	0xbdea00c8	-0.1142593
156	0x3d8fc792	0.07020487
157	0xbb35a9ca	-0.002771961
158	0x3e58c834	0.21170121
159	0xbe099509	-0.13435759
160	0x3e007d36	0.12547764
161	0x3c52cfba	0.012866909
162	0x3cd561ad	0.026047552
163	0xbbd4024b	-0.00647
164	0xbe593013	-0.21209745
165	0x3dbc5205	0.091953315
166	0xbe280c78	-0.16411006
167	0x3e6cf276	0.23139367
168	0x3da26115	0.07928673
169	0xbdf707bb	-0.12062021
170	0x3e4bef5b	0.19915526
171	0x3e3c0830	0.18362498
172	0x3e71f288	0.23627675
173	0x3e056c8c	0.13029689
174	0x3d752122	0.05984605
175	0xbdf70719	-0.12061901
176	0x3e73b0ee	0.23797962
177	0x3e041076	0.12896904
178	0x3e028d9c	0.12749332
179	0x3e723f9b	0.23657076
180	0x3e3b4c00	0.1829071
181	0xbdf97592	-0.12180628
182	0x3e341318	0.17585409
183	0x3db07725	0.08616475
184	0xbdd36572	-0.103220835
185	0x3e4b83a9	0.19874443
186	0xbdd33eef	-0.10314738
187	0xbdb29b54	-0.08721033
188	0x3c370c87	0.01117242
189	0x3c9e8ab0	0.01935324
190	0x3e417332	0.188916
191	0xbde6fd0b	-0.11278733
192	0xbe683a6d	-0.22678538
193	0x3dc01e3e	0.09380768
194	0xbe233dbe	-0.15941522
195	0xbe539a8a	-0.2066442
196	0xbe40c86a	-0.18826452
197	0xbe393d5f	-0.18089817
198	0xbd8d3418	-0.06894702
199	0xbe2c906c	-0.16851968
200	0x3e27ca2e	0.16385719
201	0xbdcf99a5	-0.10136727
202	0x3e26d304	0.16291434
203	0xbe13793a	-0.14401713
204	0x3e21dfd2	0.15808037
205	0x3ce5c1de	0.028046545
206	0xbe748d45	-0.23882015
207	0xbdd30af7	-0.10304826
208	0x3e71d318	0.23615682
209	0x3e66a413	0.22523527
210	0x3e45ab47	0.19303618
211	0x3e36902c	0.17828435
212	0x3d0bb523	0.034108292
213	0xbe62090b	-0.22073762
214	0xbdc521ed	-0.096256115
215	0xbe52be36	-0.20580372
216	0x3de0f7dc	0.109847754
217	0x3e1ef30f	0.15522407
218	0x3db113b0	0.08646333
219	0x3e5b856c	0.21437615
220	0xbd131c22	-0.0359155
221	0x3e0acded	0.13555117
222	0xbc5dfa91	-0.013548509
223	0xbd20e4b5	-0.039280612
224	0xbe293210	-0.16523004
225	0xbe20dee8	-0.15710032
226	0x3d0d4c31	0.03449649
227	0xbe01382f	-0.12619089
228	0x3d121782	0.03566695
229	0xbde4e8cc	-0.11177215
230	0xbccaa5bb	-0.02473723
231	0xbe40a0db	-0.18811361
232	0xbe409189	-0.18805517
233	0x3de77b7e	0.11302851
234	0x3e42cea8	0.19024146
235	0xbc925e8f	-0.017867355
236	0x3d76e08d	0.060272742
237	0x3d966a10	0.073444486
238	0x3e5742ea	0.2102162
239	0xbc9fcee0	-0.019507825
240	0x3e7a15fc	0.24422449
241	0x3c9cd528	0.01914461
242	0x3e29b7a4	0.1657396
243	0xbbc882c3	-0.0061191036
244	0xbdd6538b	-0.10465153
245	0x3a7758fa	0.0009435561
246	0xbe5315ae	-0.20613739
247	0x3d68b00e	0.056808524
248	0xbd3c18a1	-0.045921925
249	0x3dbd9bf6	0.09258263
250	0xbe5c5508	-0.21516812
251	0x3e5002d4	0.20313579
252	0xbd3813fe	-0.04494094
253	0xbc8fbd4e	-0.017546322
254	0x3d109fff	0.035308834
255	0x3e574905	0.21023948
