Params/dataset3_100_0.001_15_16_222_model.pt (torch, 46587 bytes, 31 tensors)

lstm_p.weight_ih_l0 f4 [64, 10]
0	0xbdd5eb14	-0.10445228
1	0xbdf443d5	-0.119270004
2	0xbd17979b	-0.037009817
3	0xbcaab18d	-0.020836616
4	0x3e5b889b	0.2143883
5	0xbe07b428	-0.13252318
6	0x3d929ecb	0.071591936
7	0x3e2deb6d	0.16984339
8	0xbdab4bb7	-0.08364051
9	0xbdbec678	-0.09315199
10	0x3dea4744	0.11439374
11	0x3ce25c50	0.027631909
12	0x3c0b3165	0.008495663
13	0x3e76818e	0.24072859
14	0xbba7e100	-0.0051232576
15	0xbe080068	-0.13281405
16	0xbc3faf3b	-0.011699493
17	0x3d3b806b	0.045776766
18	0x3d565ac1	0.052332643
19	0x3db1caa3	0.08681228
20	0x3ca18614	0.019717254
21	0x3d2f4061	0.042786006
22	0xbe5da34c	-0.21644324
23	0x3e35bd74	0.17748052
24	0xbe0f85de	-0.1401591
25	0xbdaadbd2	-0.08342709
26	0x3db93b31	0.09044493
27	0xbd0406b1	-0.032232944
28	0x3e30d8da	0.17270222
29	0x3dd22ab5	0.10262052
30	0x3e5dcbf7	0.21659838
31	0x3da56c88	0.08077341
32	0x3d77831c	0.06042777
33	0x3d694105	0.056946773
34	0xbe1cd8d9	-0.15317096
35	0x3d22f16a	0.03978101
36	0x3dba0798	0.0908348
37	0xbd3ee34d	-0.04660349
38	0xbe014865	-0.12625273
39	0xbe110141	-0.14160635
40	0x3e156007	0.14587413
41	0xbe3cc7c3	-0.18435578
42	0x3e867594	0.2626158
43	0xbccaf9db	-0.024777343
44	0x3d64c4de	0.05585181
45	0x3e20b43f	0.15693758
46	0x3e308ea2	0.1724191
47	0x3d79b7aa	0.06096617
48	0xbe5b5745	-0.2142001
49	0xbc08d4b6	-0.0083514955
50	0xbdd766c0	-0.10517645
51	0xbe635a83	-0.22202496
52	0xbd9a23c2	-0.075263515
53	0x3dec9bf9	0.11553187
54	0x3cc53bc8	0.024076357
55	0x3e5c9682	0.21541789
56	0xbe156993	-0.14591055
57	0x3de6e4a6	0.1127408
58	0x3e453e12	0.19261959
59	0xbe2c9a51	-0.16855742
60	0x3e67a9fe	0.2262344
61	0x3df522fd	0.11969564
62	0xbc947d2e	-0.018126097
63	0xbd752427	-0.05984893
64	0xbe015096	-0.12628397
65	0x3e588b17	0.21146809
66	0x3db43a5d	0.088001944
67	0xbc79c1d2	-0.015243964
68	0x3e74a6e8	0.23891795
69	0xbe0022d8	-0.12513292
70	0xbdfd44fc	-0.12366673
71	0xbe026799	-0.12734832
72	0x3e792e5c	0.24334091
73	0xbe4348b2	-0.190707
74	0x3a9b26f7	0.0011837174
75	0xbceff90e	-0.029293563
76	0xbd47719b	-0.048692327
77	0xbe64578c	-0.22299021
78	0x3dd91a7e	0.10600756
79	0xbd434feb	-0.047683638
80	0xbe600480	-0.21876717
81	0xbce8aae8	-0.028401807
82	0xbe37162d	-0.17879553
83	0x3d751d52	0.059842415
84	0x3dd85619	0.10563297
85	0xbe014401	-0.12623598
86	0x3e568b98	0.20951688
87	0x3d008703	0.031378757
88	0xbe692143	-0.22766595
89	0x3c688f41	0.014194311
90	0x3b48890d	0.0030599267
91	0x3e03d1af	0.12872957
92	0xbe59fe8c	-0.21288508
93	0x3d335bf9	0.043788884
94	0xbe0e44b1	-0.13893391
95	0x3d15d5e8	0.03658095
96	0xbe3baacb	-0.18326871
97	0x3cc816cc	0.024424933
98	0xbe5c5a6e	-0.21518871
99	0x3d930c7f	0.07180118
100	0x3d0931c9	0.033494744
101	0x3e30f044	0.17279154
102	0x3e7ae866	0.24502715
103	0x3d84e7fd	0.06489561
104	0xbde5e7dc	-0.11225864
105	0xbdc12f30	-0.094328284
106	0x3dff0167	0.12451439
107	0x3df43402	0.11923982
108	0xbc212b91	-0.009837047
109	0xbe341285	-0.1758519
110	0xbe07d431	-0.13264538
111	0x3c984847	0.018589152
112	0x3ddcb0da	0.10775919
113	0x3e0d827a	0.13819304
114	0x3dfac7c5	0.12245134
115	0x3e21a7e9	0.15786709
116	0xbce0efb1	-0.027458044
117	0x3e06a1ed	0.13147707
118	0x3d6cae99	0.057783697
119	0x3e5dd14b	0.2166187
120	0x3e11c1ed	0.14234133
121	0x3c17f27e	0.009274123
122	0x3dd94c69	0.10610277
123	0xbd92e670	-0.07172859
124	0xbe6716a0	-0.22567225
125	0x3d9272e1	0.07150818
126	0x3e5d114c	0.2158863
127	0x3dca2e1f	0.09872078
128	0xbc0da75c	-0.008645859
129	0xbe6c47ad	-0.23074217
130	0xbe53648d	-0.20643826
131	0x3dc24b71	0.094870456
132	0x3d9fb577	0.077982835
133	0x3e1b2030	0.15148997
134	0x3e0bae6f	0.1364076
135	0xbc8b701f	-0.017021237
136	0xbe5f0121	-0.21777774
137	0x3dcd0237	0.10010188
138	0xbe4b4a16	-0.1985248
139	0x3d640e5c	0.055677757
140	0xbca3aefd	-0.019980902
141	0x3e014e87	0.12627612
142	0x3e6d6f23	0.23186927
143	0xbbb44ee8	-0.0055025704
144	0x3dfceb3d	0.12349556
145	0x3c69e1a9	0.014274993
146	0x3e03712c	0.1283614
147	0xbdf094d2	-0.11747135
148	0xbe6fa1e6	-0.23401603
149	0xbdbd15cb	-0.09232672
150	0x3cd38563	0.02582044
151	0x3df88f30	0.12136686
152	0x3e20b932	0.15695646
153	0xbbc0918e	-0.0058767265
154	0x3dc7b86b	0.09751972
155	0x3c06bb78	0.008223407
156	0x3e66cc90	0.22538972
157	0x3dc02693	0.093823574
158	0x3cc1fbd3	0.02367965
159	0xbb59be92	-0.003322516
160	0x3d8475e8	0.06467801
161	0xbd7e4634	-0.06207867
162	0x3e655e00	0.2239914
163	0x3e089ba2	0.13340619
164	0xbdbafc60	-0.09130168
165	0x3db002b9	0.08594269
166	0xbdfdcd22	-0.123926416
167	0xbe5eb750	-0.21749616
168	0xbe722fd3	-0.23651056
169	0xbe769757	-0.24081169
170	0xbde15b68	-0.110037625
171	0xbde01951	-0.10942329
172	0xbd47797f	-0.048699852
173	0x3e53719d	0.20648809
174	0x3d0df9df	0.034662124
175	0x3dec01a6	0.11523752
176	0x3d37948f	0.04481941
177	0x3d94e579	0.07270331
178	0xbccbcbd1	-0.02487746
179	0xbb1339c6	-0.0022464856
180	0x3e711e27	0.23546658
181	0x3e3c16cd	0.18368073
182	0xbaab064a	-0.0013048139
183	0x3d96d947	0.07365661
184	0x3e01e76b	0.12685935
185	0x3df18d48	0.117945254
186	0x3e0ab5f6	0.13545975
187	0xbdbe9e77	-0.093075685
188	0x3db5d0de	0.08877729
189	0x3af0fff5	0.0018386828
190	0x3dd5f631	0.10447348
191	0xbd1aa582	-0.037755497
192	0x3e1b7851	0.15182616
193	0xbe2a15ae	-0.16609833
194	0x3e1bec3a	0.15226832
195	0x3d9f4f15	0.077787556
196	0x3e0cd06c	0.13751382
197	0x3c0832ad	0.008312863
198	0xbddbd106	-0.107332274
199	0x3ba4a0e2	0.0050240615
200	0x3e065d65	0.13121565
201	0x3d67610d	0.05648904
202	0xbe5ee155	-0.21765645
203	0xbe4a9904	-0.19784933
204	0x3e6f3590	0.23360276
205	0xbe2160ed	-0.1575963
206	0xbd8cf09e	-0.068818316
207	0xbe2eccc9	-0.17070307
208	0x3dab383c	0.08360335
209	0xbe649378	-0.2232188
210	0x3e19eff0	0.15032935
211	0xbe30d377	-0.17268167
212	0xbe703dd3	-0.23461084
213	0xbd3508ce	-0.04419785
214	0x3d35c504	0.044377342
215	0xbdf694e3	-0.12040117
216	0x3db66fc9	0.0890804
217	0xbe6d1d54	-0.23155719
218	0x3e4fc14f	0.20288585
219	0xbe60c830	-0.21951365
220	0x3d8ee7b0	0.06977785
221	0xbd0914b7	-0.03346702
222	0xbdae912e	-0.085237846
223	0x3e58f017	0.21185337
224	0x3e593e3e	0.2121515
225	0x3e4b7cd0	0.19871831
226	0xbe1a77a4	-0.15084702
227	0xbe37b2c2	-0.17939284
228	0xbe5e0681	-0.21682169
229	0x3e03d54b	0.12874334
230	0xbcf5a717	-0.029986901
231	0xbe088d2b	-0.13335101
232	0xbdeda3c9	-0.11603505
233	0x3e079bc1	0.13243009
234	0xbd6bea68	-0.057596594
235	0x3cc84b22	0.024449889
236	0xbe5c3104	-0.21503073
237	0x3e5caee9	0.21551098
238	0xbd9aedd4	-0.07564893
239	0x3dc25852	0.09489502
240	0xbe45de80	-0.19323158
241	0x3e3b2290	0.18274903
242	0x3e4ec02e	0.20190498
243	0xbe140709	-0.14455809
244	0xbdd9fc3a	-0.106438115
245	0xbe262d24	-0.16228157
246	0x3e68562a	0.22689119
247	0x3e0ad56a	0.13557974
248	0x3dcbc420	0.09949517
249	0x3dd4485a	0.103653625
250	0xbe42d39a	-0.19026032
251	0xbdeb2655	-0.11481921
252	0xbe2d38cc	-0.16916198
253	0xbd98fe44	-0.07470372
254	0xbd9552a4	-0.07291153
255	0x3e13405c	0.1438002

lstm_p.weight_hh_l0 f4 [64, 16]
0	0xbcdb5e2f	-0.026778309
1	0xbc9fb008	-0.019493118
2	0x3b7bbafa	0.0038411007
3	0x3e81ec68	0.25375676
4	0x3e74d01b	0.23907511
5	0xbe28c61b	-0.16481821
6	0x3d4c1c2e	0.04983156
7	0x3d5ef763	0.054435145
8	0x3e10ff6f	0.1415994
9	0xbd4ab64f	-0.04949027
10	0x3dca731d	0.09885237
11	0x3e08cc45	0.13359173
12	0x3cc7fbfc	0.024412148
13	0x3e58caea	0.21171156
14	0x3d9f3376	0.07773487
15	0x3e41e8d3	0.18936472
16	0x3e335a06	0.1751481
17	0xbe766b65	-0.24064405
18	0xbdf9119b	-0.12161561
19	0xbd294745	-0.041327734
20	0x3e290cc4	0.16508776
21	0xbe422b28	-0.18961775
22	0x3e29820c	0.16553515
23	0x3de4fd09	0.11181075
24	0x3d310dfa	0.04322622
25	0x3e54956f	0.2076013
26	0x3c0dcf71	0.008655415
27	0xbe2fe67d	-0.17177768
28	0x3e023084	0.1271382
29	0xbe5f2afe	-0.21793744
30	0xbe5bb72d	-0.21456595
31	0x3d94517c	0.072421044
32	0x3e4db671	0.20089127
33	0xbe811a62	-0.2521544
34	0x3e38e9a5	0.18057878
35	0x3e3f5d06	0.1868783
36	0xbe242183	-0.16028409
37	0xbe572f35	-0.21014102
38	0x3af9a21d	0.0019045506
39	0x3e349e2e	0.17638466
40	0x3d085927	0.033288147
41	0xbe2a1309	-0.16608824
42	0xbd8eeab6	-0.06978361
43	0xbbf8e748	-0.0075959302
44	0x3e8009cb	0.2500747
45	0xbdd62f1e	-0.10458206
46	0xbe35676d	-0.17715235
47	0xbd85038d	-0.06494818
48	0xbe0a1ce7	-0.13487588
49	0xbcc7d7c4	-0.024394877
50	0x3c9de6e7	0.019275142
51	0xbdd86a7d	-0.10567186
52	0x3db12a6b	0.08650669
53	0xbe6c9a65	-0.23105772
54	0x3e2953d8	0.1653589
55	0x3d97dce9	0.07415182
56	0x3e021f01	0.1270714
57	0xbd88ac66	-0.066735074
58	0x3dbb8a00	0.09157181
59	0x3dbc2dec	0.091884464
60	0x3cb5f18b	0.022209903
61	0xbdb9e9b0	-0.090777755
62	0xbd9ea590	-0.07746422
63	0x3e1f9133	0.15582733
64	0x3e4aa7b8	0.19790542
65	0xbc676819	-0.01412394
66	0xbe404cb6	-0.18779263
67	0x3d09ccaa	0.03364245
68	0xbe6b5f23	-0.2298551
69	0x3db36c25	0.08760861
70	0xbdcaa516	-0.09894769
71	0x3daa9f59	0.083311744
72	0xbe135333	-0.14387207
73	0x3ddd81ab	0.10815748
74	0xbe3c6be1	-0.18400528
75	0x3e3f7ced	0.18699999
76	0x3e40349e	0.18770072
77	0x3e6967e4	0.22793537
78	0x3d9f7a62	0.077870145
79	0xbe1d4d0d	-0.15361424
80	0xbbae6ff9	-0.005323407
81	0x3e1c84fa	0.15285102
82	0xbe11cf1e	-0.14239165
83	0xbe3c4b07	-0.18387996
84	0x3dcd422a	0.100223854
85	0xbe03f1a8	-0.12885153
86	0xbe5fd69a	-0.21859208
87	0x3e32f6d6	0.17476973
88	0x3e1cb238	0.1530236
89	0xbe1d825c	-0.1538176
90	0xbde18a5b	-0.11012717
91	0x3d31ed95	0.043439467
92	0xbdf4a3d6	-0.11945312
93	0xbe5b6007	-0.2142335
94	0x3de90fcc	0.11379966
95	0x3d7d0c53	0.06177933
96	0xbe52b02c	-0.20575017
97	0x3cbf54bb	0.023355832
98	0xbc3e085a	-0.011598671
99	0xbe04da86	-0.12973985
100	0x3e4157ed	0.18881197
101	0x3d9918d7	0.07475441
102	0x3e82c473	0.25540504
103	0xbca9436b	-0.02066203
104	0xbe0e5eee	-0.139034
105	0xbc5fa15f	-0.013649314
106	0xbe4d3e91	-0.20043398
107	0x3c96bf97	0.018401904
108	0xbe5a4768	-0.21316302
109	0x3e3e28c4	0.18570238
110	0xbd672686	-0.056433223
111	0x3e14da0c	0.14536303
112	0x3e202313	0.1563838
113	0xbe5ddcdc	-0.21666282
114	0x3e7a1571	0.24422242
115	0xbe37d0cb	-0.17950742
116	0x3e734ce6	0.23759803
117	0xbdab4412	-0.08362593
118	0x3d46187f	0.048363205
119	0x3db21571	0.08695496
120	0x3e6da1e7	0.23206292
121	0x3e315c41	0.17320348
122	0x3e1291db	0.14313452
123	0x3d7bec04	0.06150438
124	0xbda29df3	-0.07940283
125	0x3cd385d9	0.02582066
126	0xbc601d9b	-0.0136789335
127	0x3e262fd7	0.16229187
128	0xbe3de75b	-0.18545286
129	0x3e23f12e	0.16009971
130	0x3e18c4e1	0.14918853
131	0x3e824adf	0.25447747
132	0x3d936afd	0.07198141
133	0x3e5ddc72	0.21666124
134	0xbe2c67b0	-0.16836429
135	0xbe3892de	-0.18024775
136	0x3cce64e4	0.025194593
137	0x3dd740cc	0.10510406
138	0x3e228d61	0.15874244
139	0xbe506447	-0.20350753
140	0xbd25ac09	-0.04044727
141	0xbe1d96c8	-0.1538955
142	0x3a0c3dfc	0.00053498126
143	0xbb59a753	-0.0033211305
144	0xbe4c7339	-0.19965829
145	0xbcc2f050	-0.02379623
146	0xbe27aa2e	-0.16373512
147	0xbd9ea825	-0.07746915
148	0x3cb34794	0.021884717
149	0x3e24c4a1	0.16090633
150	0x3c3664d6	0.01113244
151	0xbe0d0d63	-0.13774638
152	0xbe306851	-0.17227294
153	0xbda1a400	-0.07892609
154	0x3d1b8ca5	0.037975926
155	0xbe24960b	-0.16072862
156	0x3e7a7c5b	0.244615
157	0x3df37e47	0.1188932
158	0x3e4fe6fe	0.2030296
159	0x3d2b8bde	0.041881435
160	0xbe329e3e	-0.17443177
161	0x3e1f2b26	0.15543804
162	0xbe063b49	-0.13108553
163	0x3e624767	0.2209755
164	0x3d7b6540	0.061375856
165	0x3e2f7e93	0.17138128
166	0xbe7addbe	-0.2449865
167	0xbdab9dd0	-0.0837971
168	0x3df9c2ab	0.12195333
169	0xbe20f99a	-0.15720215
170	0x3e41e604	0.189354
171	0x3c1f7100	0.009731531
172	0xbe465114	-0.19366866
173	0x3df426d7	0.119214706
174	0x3d4750b7	0.04866096
175	0xbdf63dc6	-0.12023501
176	0xbdb9d9ed	-0.09074769
177	0xbc8a986a	-0.01691838
178	0xbd8789f0	-0.06618106
179	0x3e7cd14d	0.24689217
180	0xbe4dac93	-0.20085363
181	0xbc6dc152	-0.014511423
182	0xbe3ba260	-0.1832366
183	0xbc4d978c	-0.012548339
184	0xbe0bc63c	-0.13649839
185	0x3e71e460	0.23622274
186	0xbe0f3de1	-0.13988449
187	0x3e6b3606	0.22969827
188	0xbc0802f1	-0.008301483
189	0x3c94b776	0.018153887
190	0xbd9c870b	-0.07642945
191	0xbce5ab2c	-0.028035723
192	0xbd86f74c	-0.06590137
193	0xbde85bbb	-0.11345621
194	0xbe30ae46	-0.1725398
195	0xbd6442f4	-0.055727914
196	0xbdfd3389	-0.12363345
197	0x3d22a9c9	0.0397127
198	0xbcba7c8b	-0.022764465
199	0xbe105420	-0.14094591
200	0xbe804578	-0.25053
201	0xbe0482f6	-0.12940583
202	0x3e3f22e9	0.18665661
203	0x3dde8f9b	0.10867234
204	0x3e1ce005	0.15319832
205	0xbd618382	-0.055057056
206	0x3e3f03d6	0.18653807
207	0x3e3bf5d3	0.18355493
208	0xbe097031	-0.13421704
209	0xbe04bfb4	-0.12963754
210	0x3e06e387	0.13172732
211	0x3e1b7141	0.15179922
212	0xbdba1d77	-0.09087651
213	0x3db7667f	0.089550965
214	0x3da84c0f	0.08217632
215	0xbdda8985	-0.10670761
216	0xbe4dced0	-0.20098424
217	0xbd9ae81d	-0.07563803
218	0xbe34a839	-0.17642297
219	0x3e5e8bff	0.21733092
220	0x3e10da8e	0.14145872
221	0x3e74c9db	0.23905127
222	0x3e15e9a8	0.14639914
223	0x3dc126c8	0.09431225
224	0x3ccf1fb4	0.025283672
225	0x3e3be417	0.18348728
226	0x3dd40783	0.10352995
227	0x3cda1718	0.02662234
228	0x3e31e8ed	0.1737401
229	0x3e464f6c	0.19366235
230	0xbdb52287	-0.08844476
231	0xbd65f0ff	-0.056138035
232	0xbd4a159a	-0.049337007
233	0xbe42cf34	-0.19024354
234	0xbe2e0aa8	-0.16996253
235	0xbe537f7f	-0.20654105
236	0x3c8b9b2d	0.017041767
237	0xbd09f2fe	-0.033679
238	0x3e002684	0.12514693
239	0x3d50f0af	0.051010784
240	0xbdf9ead5	-0.12202994
241	0x3d8b3285	0.06796745
242	0xbe6b0ca1	-0.22954036
243	0x3dae8da5	0.0852311
244	0x3e19a62e	0.15004799
245	0xbe1e4b29	-0.15458359
246	0x3d210765	0.039313693
247	0xbb41d045	-0.0029573601
248	0x3d779582	0.060445316
249	0x3e4212f1	0.18952538
250	0xbe21e311	-0.15809275
251	0xbe3073e3	-0.17231707
252	0x3cb83a74	0.02248881
253	0xbe5aac24	-0.21354729
254	0xbdf8f20b	-0.12155541
255	0x3db7a3a0	0.08966756

lstm_p.bias_ih_l0 f4 [64]
0	0xbcff8fd8	-0.03119652
1	0xbe5a83ab	-0.2133929
2	0xbe2d517e	-0.16925618
3	0xbda8127d	-0.08206651
4	0x3e0b88e9	0.13626446
5	0xbd864195	-0.065554775
6	0x3cdad050	0.02671066
7	0xbe4cb6c5	-0.19991596
8	0x3e3ab22d	0.18232031
9	0xbe815c5f	-0.25265786
10	0x3db0e9b8	0.08638328
11	0x3d2dd81a	0.04244242
12	0x3e65e091	0.22448947
13	0xbe1d0b64	-0.15336376
14	0x3e061f37	0.13097845
15	0x3e086f68	0.13323748
16	0xbe25b15f	-0.16180943
17	0x3e444be2	0.19169572
18	0xbe304f79	-0.17217816
19	0xbe27b6fc	-0.16378397
20	0xbe62cbb7	-0.22148024
21	0x3e3afdfd	0.18260951
22	0x3da41523	0.08011844
23	0xbc08bec2	-0.008346261
24	0x3af7d186	0.0018907047
25	0x3e3711c5	0.17877872
26	0xbd29fcf2	-0.041500993
27	0x3cc828d3	0.024433529
28	0xbe106952	-0.14102677
29	0xbe3e5cd8	-0.18590105
30	0xbe72921c	-0.23688549
31	0x3e0d2395	0.13783105
32	0xbdc9ecce	-0.0985962
33	0xbe06dc8c	-0.1317007
34	0x3e2e6f68	0.17034686
35	0x3e62a57b	0.22133438
36	0x3cb15269	0.021645742
37	0xbda823db	-0.08209964
38	0xbe67ce15	-0.22637208
39	0xbe570a96	-0.21000132
40	0x3def7c1c	0.11693594
41	0xbe1a9b2c	-0.15098256
42	0xbe6228e4	-0.22085911
43	0xbe36783c	-0.17819303
44	0xbd6cb663	-0.057791125
45	0x3df325d5	0.1187245
46	0x3e27360a	0.16329208
47	0xbd5efeee	-0.05444234
48	0x3e40c1e7	0.18823968
49	0x3e4f9828	0.20272887
50	0x3de94eac	0.113919586
51	0x3e79dbfd	0.24400325
52	0xbe836867	-0.2566559
53	0x3d623c29	0.055233154
54	0xbe39e18f	-0.1815245
55	0xbc84a8a6	-0.0161937
56	0x3d508615	0.05090912
57	0x3d9c718a	0.07638843
58	0xbd4a2641	-0.049352888
59	0x3d04b443	0.032398473
60	0xbe1d6987	-0.15372287
61	0x3e326da6	0.1742464
62	0xbdd1afdd	-0.102386214
63	0xbe195356	-0.14973196

lstm_p.bias_hh_l0 f4 [64]
0	0xbe823868	-0.2543366
1	0xbcceaa2e	-0.025227632
2	0xbda2ecc0	-0.07955313
3	0x3dbc20d3	0.09185948
4	0xbce09823	-0.027416294
5	0x3d465609	0.048421893
6	0xbe2baf79	-0.16766156
7	0x3e6169ef	0.22013067
8	0xbc9288bc	-0.017887466
9	0xbe4974dc	-0.19673485
10	0x3e302740	0.17202473
11	0x3b3a0f0d	0.0028390319
12	0xbcadf0ae	-0.02123293
13	0xbe040d64	-0.12895733
14	0xbda21723	-0.07914569
15	0x3d498bd4	0.049205616
16	0x3de94e2b	0.113918625
17	0xbe7e788c	-0.24850672
18	0x3d02c5d1	0.031926934
19	0x3d8c4245	0.068485774
20	0x3dffb10f	0.12484943
21	0x3d930e29	0.07180435
22	0x3daaa4c3	0.08332207
23	0x3e4a625b	0.19764082
24	0xbda46825	-0.080276765
25	0x3cf16576	0.029467326
26	0xbdcaeb29	-0.099081345
27	0x3d17d3e5	0.037067313
28	0xbdf7f1e0	-0.12106681
29	0x3daab776	0.08335774
30	0x3cb7c9bb	0.02243506
31	0x3c69fa86	0.014280921
32	0xbe716bf9	-0.23576345
33	0x3e26b538	0.16280067
34	0xbe6cc382	-0.23121455
35	0x3d4fd2d2	0.050738163
36	0xbe118ca2	-0.14213803
37	0xbe287f53	-0.1645482
38	0xbb20a297	-0.0024510974
39	0xbe22df4e	-0.15905496
40	0xbe01e034	-0.12683183
41	0xbe1c7f48	-0.15282929
42	0x3e27ae4a	0.1637508
43	0xbd833826	-0.06407194
44	0x3db8cab8	0.090230405
45	0xbd2df413	-0.042469095
46	0xbe4d6a92	-0.20060185
47	0x3e048906	0.12942895
48	0xbe096eda	-0.13421193
49	0x3e0a0e26	0.1348196
50	0xbe5c0471	-0.2148607
51	0xbe749731	-0.238858
52	0x3d85e0bb	0.065370046
53	0xbd899d3b	-0.067194425
54	0xbe06d2e5	-0.13166387
55	0x3e6b3815	0.22970612
56	0x3e64dde1	0.22350265
57	0xbe785e44	-0.2425471
58	0x3e3c0198	0.18359983
59	0x3de3fea2	0.11132552
60	0xbdaba004	-0.0838013
61	0xbdc243e6	-0.09485607
62	0x3d92f26b	0.07175144
63	0xbd46f0d7	-0.048569527

lstm_p.weight_ih_l1 f4 [64, 16]
0	0xbd393450	-0.045215905
1	0x3da5bc63	0.080925725
2	0x3e5c1315	0.21491654
3	0x3c08f955	0.008360227
4	0xbe3725a5	-0.17885454
5	0x3dd7c608	0.10535818
6	0x3e62b3e2	0.22138932
7	0x3e5b3f00	0.21410751
8	0x3e5ef2ea	0.21772352
9	0xbdcf0361	-0.10108066
10	0xbe05d514	-0.13069564
11	0x3e019645	0.1265498
12	0x3daa993d	0.08330009
13	0x3e441e10	0.19152093
14	0xbdb1008e	-0.08642684
15	0xbdceb335	-0.10092775
16	0xbd1ff1c8	-0.03904894
17	0x3e42813e	0.18994614
18	0x3da064cb	0.07831725
19	0x3e6e5f0f	0.2327845
20	0xbe0d1355	-0.13776906
21	0xbd89117d	-0.06692789
22	0x3e14b70e	0.14522955
23	0xbd88fc4b	-0.06688746
24	0x3e522d60	0.20525122
25	0xbd58e0e5	-0.05294885
26	0x3e362331	0.17786862
27	0x3e1ee39a	0.1551651
28	0x3d22b64c	0.039724633
29	0xbd8207cf	-0.063491456
30	0xbe187524	-0.14888436
31	0xbe03b23b	-0.12860958
32	0xbe130541	-0.14357473
33	0xbe4856ef	-0.19564413
34	0x3e471192	0.19440296
35	0x3dbdf8f4	0.09276
36	0xbda081d2	-0.07837261
37	0x3e4922b0	0.19642138
38	0x3caeb0b5	0.021324495
39	0x3bbe8574	0.0058142487
40	0x3e1baedc	0.15203422
41	0x3e6dbd9b	0.2321686
42	0x3e1e3652	0.15450409
43	0xbdbcdea7	-0.09222155
44	0xbe61997c	-0.22031206
45	0xbdd9929f	-0.10623669
46	0xbd4ae18a	-0.049531497
47	0x3dcc3589	0.099711485
48	0x3e0554ad	0.13020582
49	0xbe7a4020	-0.24438524
50	0x3e5f24e1	0.21791412
51	0x3e7f9dc0	0.2496252
52	0xbd89ee9a	-0.06734963
53	0x3e45e740	0.19326496
54	0x3debfa7c	0.115223855
55	0xbe165e72	-0.14684466
56	0xbdd2b027	-0.10287505
57	0xbe50cde9	-0.20391048
58	0x3e562758	0.20913446
59	0x3e3e9d1c	0.1861462
60	0x3e3ecd73	0.1863306
61	0x3e085690	0.13314271
62	0x3e1a9dde	0.15099284
63	0x3e26ab00	0.16276169
64	0xbd9c9cf3	-0.07647123
65	0xbdc6c0eb	-0.09704765
66	0x3e4d2e18	0.20037115
67	0xbda077d3	-0.07835355
68	0x3e06c466	0.13160858
69	0xbded0933	-0.1157402
70	0xbe6127d5	-0.21987851
71	0xbe405509	-0.18782438
72	0x3e593d0f	0.21214698
73	0x3e56399c	0.20920414
74	0xbe70fdc0	-0.23534298
75	0x3caa69a5	0.020802328
76	0x3e6f3585	0.2336026
77	0xbe199311	-0.14997508
78	0xbbd1a46c	-0.0063977744
79	0x3df64b04	0.12026027
80	0x3e241636	0.16024098
81	0xbda305ed	-0.07960115
82	0xbd92d346	-0.071692035
83	0x3d3aa5c4	0.045568243
84	0x3d0be628	0.03415504
85	0xbd298086	-0.041382335
86	0x3e62ecf4	0.22160703
87	0xbe166311	-0.14686228
88	0xbde25f5f	-0.11053347
89	0x3e5ecf71	0.2175882
90	0xbaacc89d	-0.0013182346
91	0xbc997611	-0.018733056
92	0x3e0148cc	0.12625426
93	0x3dcf4459	0.10120458
94	0xb9d5c195	-0.00040770756
95	0x3ddd83c9	0.10816152
96	0x3dd1bc6d	0.102410175
97	0xbdbb8fc6	-0.09158282
98	0x3e1fc2ce	0.15601656
99	0x3e2ee8dd	0.17081018
100	0xbe71517b	-0.23566239
101	0xbe2c8549	-0.16847719
102	0x3e3d2b8c	0.18473643
103	0x3ca1ece5	0.01976628
104	0x3def5375	0.1168584
105	0x3dae4fe0	0.08511329
106	0xbddf91f7	-0.109165125
107	0xbdb3c563	-0.08777883
108	0xbe40740a	-0.18794265
109	0xbe2965cf	-0.16542743
110	0x3e56ae3b	0.20964901
111	0xbe583a73	-0.21116047
112	0x3de76c93	0.11300006
113	0x3dea2e6c	0.114346355
114	0x3e6855c5	0.22688968
115	0xbe77ac88	-0.24186909
116	0x3df0fa91	0.11766542
117	0x3dc34230	0.09534109
118	0x3e2331e9	0.15937008
119	0x3e74a36a	0.23890463
120	0x3de8be70	0.11364448
121	0x3d77b911	0.060479227
122	0xbd615287	-0.055010345
123	0xbe5c1f61	-0.21496345
124	0x3dd0bd99	0.10192413
125	0xbdccdbfe	-0.10002898
126	0x3dff2e93	0.12460055
127	0xbe574646	-0.21022901
128	0xbcab53bb	-0.02091395
129	0x3e24b793	0.16085653
130	0x3ce7dd33	0.028303718
131	0xbd264b89	-0.04059938
132	0x3d88ac28	0.06673461
133	0x3dad482f	0.084610336
134	0xbe4d8c59	-0.2007307
135	0xbcbcc601	-0.023043634
136	0x3de6ac8c	0.112633795
137	0x3e4e7e63	0.201654
138	0x3e15fa1f	0.14646195
139	0x3d136564	0.035985366
140	0x3e42231f	0.1895871
141	0x3e2521c9	0.1612617
142	0xbd61ec7f	-0.05515718
143	0x3ceefd53	0.029173529
144	0xbd74fc9c	-0.05981122
145	0xbdcbfae5	-0.09959964
146	0x3e3bc90b	0.1833841
147	0x3dd42e0f	0.103603475
148	0x3e59dba5	0.21275194
149	0x3dc99366	0.09842567
150	0xbdef1009	-0.1167298
151	0xbc0d69ed	-0.008631212
152	0x3d2bb7fc	0.041923508
153	0x3d03f7b4	0.03221865
154	0xbe4ab35b	-0.19794981
155	0xbd4efb7b	-0.0505328
156	0xbd32d3b7	-0.04365894
157	0xbe5cebdd	-0.2157435
158	0xbe381f7f	-0.17980765
159	0x3e496b8b	0.1966993
160	0xbe728cc5	-0.23686512
161	0x3d2c1976	0.04201647
162	0x3c662ac3	0.014048281
163	0xbe5c8ab9	-0.21537293
164	0xbe40f162	-0.1884208
165	0xbcd50f0f	-0.026008157
166	0xbe82fc4d	-0.25583115
167	0x3cef4cbe	0.029211398
168	0x3e135593	0.14388113
169	0xbdfe5afa	-0.12419696
170	0x3cfa63ba	0.030565131
171	0xbc667a36	-0.014067223
172	0x3e719ada	0.23594227
173	0xbc875e27	-0.016524388
174	0xbdf066f6	-0.11738388
175	0xbc66d4a7	-0.014088786
176	0xbdf69b17	-0.120413
177	0xbe05f7ac	-0.1308276
178	0xbdca8097	-0.09887808
179	0x3cc95067	0.024574472
180	0x3e6830ec	0.22674912
181	0xbe39be04	-0.18138891
182	0x3d187864	0.03722419
183	0x3df6afc9	0.12045247
184	0x3e710b34	0.2353943
185	0x3e2d485f	0.16922139
186	0x3e2f41df	0.17114972
187	0xbe59e9b9	-0.21280564
188	0x3e55045e	0.20802447
189	0xbe54a752	-0.20766953
190	0x3d94242b	0.07233461
191	0x3d85ba86	0.06529717
192	0x3da7fb80	0.08202267
193	0xbca913ae	-0.020639267
194	0xbbdbbe73	-0.006706053
195	0xbdc9c171	-0.09851349
196	0x3e4d73f9	0.20063771
197	0xbe185403	-0.14875798
198	0xbe71e1fd	-0.23621364
199	0x3e81fef7	0.25389835
200	0xbe038b91	-0.12846209
201	0xbe48802c	-0.19580144
202	0xbe36b9dd	-0.17844339
203	0xbdf8533c	-0.12125251
204	0x3e2a74f2	0.16646174
205	0xbe510e02	-0.204155
206	0xbe74fa88	-0.23923695
207	0x3e313879	0.17306699
208	0xbe55fd8d	-0.20897503
209	0xbe2d178e	-0.16903517
210	0xbc8d3376	-0.017236453
211	0xbe604ec8	-0.21905053
212	0x3e3ef4a1	0.18648006
213	0x3e088c65	0.13334806
214	0x3e740959	0.23831691
215	0xbe241332	-0.16022947
216	0xbe39493e	-0.18094346
217	0xbdf2af4e	-0.11849843
218	0x3e086ca8	0.13322699
219	0x3e4e4a02	0.20145419
220	0xbe2bfff5	-0.16796859
221	0x3dd77120	0.10519624
222	0x3e1332e2	0.14374879
223	0x3e548238	0.207528
224	0x3d9bb265	0.076023854
225	0x3e5cabd7	0.21549927
226	0xbe05785d	-0.13034196
227	0x3e11863f	0.14211367
228	0xbe6b1f90	-0.22961259
229	0x3de7c3c8	0.11316639
230	0xbc053075	-0.008129229
231	0xbe672b1c	-0.22575039
232	0xbc893f14	-0.01675371
233	0x3e313605	0.17305763
234	0xbcb64ed4	-0.022254385
235	0x3e145723	0.14486365
236	0x3df374ed	0.11887536
237	0xbe35589e	-0.17709586
238	0xbddce84d	-0.10786495
239	0x3e44e43e	0.19227692
240	0x3df6dee8	0.12054235
241	0x3e1838d8	0.14865434
242	0x3d0ab9ea	0.033868708
243	0xbc124037	-0.008926443
244	0x3dae082c	0.084976524
245	0xbca35ded	-0.019942248
246	0xbd559509	-0.052144084
247	0xbe5d8836	-0.21633992
248	0xbdab6863	-0.083695196
249	0x3c2671f5	0.010159005
250	0x3d37241f	0.044712182
251	0x3e057ed4	0.13036662
252	0x3d9199b5	0.071093954
253	0xbcaaab04	-0.0208335
254	0x3e16e342	0.1473513
255	0x3dba98ee	0.091112

lstm_p.weight_hh_l1 f4 [64, 16]
0	0x3e46bc00	0.19407654
1	0xbe13e19e	-0.14441535
2	0x3e77f480	0.24214363
3	0xbde266bc	-0.11054751
4	0xbd4d6a8c	-0.05015044
5	0xbe3fe328	-0.18738997
6	0x3d8556ac	0.06510672
7	0x3e44eecd	0.1923172
8	0xbda07d8e	-0.07836448
9	0x3e2646ef	0.16237997
10	0xbc975381	-0.018472435
11	0x3e72d30c	0.2371332
12	0xbe1a00ea	-0.15039411
13	0x3ba26c8e	0.0049567884
14	0x3e414320	0.18873262
15	0xbe50fc9c	-0.20408863
16	0x3dfc71d0	0.123263955
17	0xbe746ba0	-0.2386918
18	0x3e577c53	0.2104352
19	0x3dc6b564	0.09702566
20	0x3d420e02	0.04737664
21	0xbe6bb918	-0.23019826
22	0x3e82ae85	0.25523773
23	0x3e37503c	0.179017
24	0x3e6fc227	0.23413907
25	0xbe567b78	-0.20945537
26	0x3e62fd3b	0.22166912
27	0x3cff2e5a	0.031150032
28	0x3e19a71d	0.15005155
29	0xbe80d24a	-0.25160438
30	0xbe098cf9	-0.13432683
31	0x3c6c46a7	0.014421142
32	0x3e0fed14	0.14055282
33	0xbe763e13	-0.24047117
34	0x3e09e32f	0.1346557
35	0x3def5725	0.116865434
36	0xbe3139b4	-0.17307168
37	0x3e532b8d	0.20622082
38	0xbe013496	-0.12617716
39	0x3db63b5b	0.0889804
40	0xbe33e43b	-0.17567532
41	0xbe1c2949	-0.15250124
42	0xbd3cf68e	-0.04613357
43	0xbd9c9f32	-0.076475516
44	0x3d5b3231	0.053514663
45	0xbd62e6dd	-0.05539595
46	0xbe023938	-0.1271714
47	0x3e725a85	0.23667343
48	0xbc4425db	-0.011971916
49	0xbe58fb5e	-0.21189639
50	0x3e48b604	0.19600683
51	0x3e5404ed	0.20705004
52	0xbe0501d4	-0.12988979
53	0x3e2ea405	0.17054756
54	0xbddb98c2	-0.107224956
55	0xbe436e0c	-0.19084948
56	0xbe8389a6	-0.25690955
57	0xbe08b054	-0.13348514
58	0x3dfd9aa4	0.12383011
59	0x3e83d413	0.25747737
60	0x3e6f7099	0.23382796
61	0xbcbd841b	-0.023134282
62	0xbd3c341f	-0.045948144
63	0x3bcddab9	0.0062821773
64	0x3e5996a8	0.21248877
65	0xbe3ef9c1	-0.18649961
66	0xbe175f15	-0.14782365
67	0xbbb4a774	-0.005513126
68	0xbe647f49	-0.2231418
69	0x3e030f23	0.12798743
70	0xbe286886	-0.16446123
71	0xbd8d4db8	-0.06899589
72	0xbe0c0834	-0.13675004
73	0xbc7d9c47	-0.015479154
74	0x3e62dd4e	0.22154734
75	0xbdad9cc8	-0.08477169
76	0xbdc0d1a7	-0.09414988
77	0x3e032f07	0.12810908
78	0xbcaa2d4a	-0.020773549
79	0xbc4c78ec	-0.012480002
80	0x3e511909	0.20419706
81	0x3da14b7f	0.07875728
82	0xbce9e717	-0.028552575
83	0x3e63b832	0.22238234
84	0xbe80f9d2	-0.25190598
85	0x3e58bf3d	0.21166702
86	0xbdabe037	-0.08392375
87	0x3e2d1d87	0.16905795
88	0xbd954fb4	-0.07290593
89	0xbe50cefd	-0.2039146
90	0xbc2124b5	-0.009835412
91	0x3e608d1e	0.21928832
92	0x3cdbd5eb	0.026835402
93	0xbe508692	-0.20363835
94	0x3e29cb35	0.16581424
95	0x3e7626b2	0.24038199
96	0x3e5f98b8	0.21835601
97	0xbe09b8f7	-0.13449465
98	0xbe45910e	-0.19293615
99	0xbe81d717	-0.25359413
100	0xbd3252b7	-0.043535914
101	0x3d7b9351	0.06141979
102	0xbe82d1d8	-0.25550723
103	0x3bfab0ff	0.007650494
104	0x3cfb04de	0.03064197
105	0x3e340c48	0.1758281
106	0x3e302175	0.17200263
107	0x3de7506a	0.11294635
108	0xbc63c71c	-0.013902452
109	0x3e7a4bf4	0.24443036
110	0xbc2b6d3a	-0.010463053
111	0xbd50c162	-0.050965674
112	0xbe055b3c	-0.13023084
113	0x3d81289c	0.06306574
114	0xbe2d9ac3	-0.16953568
115	0x3dd18a32	0.10231437
116	0xbe5f47e2	-0.21804765
117	0x3cc68ede	0.024238046
118	0xbc4e4df4	-0.012591828
119	0xbe2ef712	-0.17086437
120	0x3e4d9a18	0.20078313
121	0x3e47b40b	0.19502275
122	0x3e221086	0.15826616
123	0x3e449560	0.19197607
124	0xbc1ad299	-0.009449624
125	0xbe15bf1f	-0.14623688
126	0xbd59db9a	-0.053187944
127	0xbe19a023	-0.15002494
128	0xbe025f5e	-0.12731692
129	0x3d0c9391	0.034320418
130	0xbdaa272e	-0.08308254
131	0x3e812333	0.25222167
132	0x3e247135	0.1605881
133	0x3e80ac55	0.2513148
134	0x3deb8699	0.11500282
135	0x3e115acf	0.14194797
136	0xbe02acc5	-0.12761219
137	0x3e485366	0.19563064
138	0x3e42634d	0.18983193
139	0x3da0a38a	0.078436926
140	0x3da30f6e	0.07961927
141	0xbe5f3fa5	-0.21801622
142	0xbc0996ef	-0.008397802
143	0x3e578c3a	0.21049586
144	0xbdcb701e	-0.09933494
145	0x3e4531aa	0.19257227
146	0xbddfcb5b	-0.10927459
147	0xbe26e03d	-0.16296478
148	0x3e0f3b0d	0.1398737
149	0x3e06dc5d	0.1317
150	0x3db1d5c2	0.08683349
151	0xbddbfabd	-0.10741184
152	0x3e296421	0.16542102
153	0xbdd35c3d	-0.103203274
154	0x3e0a1d41	0.13487722
155	0x3e5eb289	0.21747793
156	0xbdfa2444	-0.12213948
157	0x3e416bca	0.18888775
158	0x3e2ad328	0.16682112
159	0x3d8fbbb4	0.070182234
160	0xbdd226fd	-0.10261343
161	0xbd7e2836	-0.062050067
162	0x3e0ac590	0.13551927
163	0x3dc8d5b4	0.09806386
164	0x3bdf96b9	0.0068233875
165	0xbdc629a2	-0.096759096
166	0x3cb58e69	0.022162633
167	0x3e803b80	0.25045395
168	0x3e456546	0.19276914
169	0xbe28cc8b	-0.16484277
170	0x3e81c9de	0.25349325
171	0x3e22e58e	0.1590788
172	0x3e84f530	0.25968313
173	0xbd77a640	-0.060461283
174	0x3da0e7af	0.0785669
175	0xbd355cba	-0.044277884
176	0xbe06c450	-0.13160825
177	0xbd871ed3	-0.06597676
178	0xbe0e0456	-0.13868842
179	0x3da056cc	0.07829055
180	0xbd561608	-0.052267104
181	0xbe45cbe6	-0.19316062
182	0xbd8faca1	-0.07015348
183	0xbc67b8b3	-0.014143157
184	0xbdf06b41	-0.11739207
185	0xbe1815d3	-0.14852075
186	0xbe7d6f6a	-0.24749532
187	0x3e0843b8	0.13307083
188	0x3e02313c	0.12714094
189	0xbe80369c	-0.25041664
190	0x3de54745	0.11195234
191	0xbe4d403e	-0.20044038
192	0xbde7efce	-0.11325036
193	0xbe279b83	-0.16367917
194	0xbda3297d	-0.07966898
195	0xbe136571	-0.14394166
196	0x3ba874aa	0.0051408606
197	0x3d176f2b	0.036971252
198	0xbde90c4c	-0.113792986
199	0x3e2758ac	0.1634242
200	0xbdd258fe	-0.1027088
201	0xbd9808f1	-0.074235804
202	0x3d9417f0	0.07231128
203	0x3e11d7ef	0.14242528
204	0x3e3a2922	0.18179753
205	0x3df21c5e	0.11821817
206	0x3d09b62c	0.033621
207	0xbcbba524	-0.022905894
208	0xbe281f62	-0.16418222
209	0x3e49b7a2	0.19698957
210	0xbc1605d8	-0.009156667
211	0x3e36660b	0.17812364
212	0x3dff3dd7	0.12462967
213	0x3e16d9df	0.14731549
214	0xbe39fe27	-0.18163358
215	0x3e0802b2	0.13282278
216	0x3e7004f9	0.23439397
217	0xbe6b94dc	-0.23006004
218	0x3e39ce28	0.18145049
219	0xbe10285a	-0.14077893
220	0xbe0a599f	-0.1351075
221	0xbe5dae3f	-0.21648501
222	0xbe7524b7	-0.23939787
223	0xbe294a62	-0.16532281
224	0xbe41978d	-0.18905468
225	0xbc0954b2	-0.008382009
226	0xbe09d5eb	-0.1346051
227	0xbbf6bd9d	-0.007529928
228	0x3e305a81	0.17222025
229	0x3e5279b7	0.20554243
230	0xbe4fa868	-0.20279086
231	0x3e48e05e	0.1961684
232	0xbcd15ce8	-0.025556996
233	0xbdc8a9be	-0.09798001
234	0x3e86471e	0.26226133
235	0xbe4789d4	-0.19486171
236	0xbe02b8ca	-0.12765804
237	0x3df54f34	0.119779974
238	0x3df214b9	0.11820359
239	0x3dfa565c	0.12223503
240	0xbe61ac2b	-0.22038333
241	0xbe2a10a2	-0.16607907
242	0xbe3b2d4b	-0.18278997
243	0x3e2d3422	0.16914418
244	0x3de34df6	0.11098854
245	0xbcf2822f	-0.029603092
246	0x3e2b1a4b	0.16709249
247	0x3c8935b3	0.016749239
248	0xbe70aed0	-0.23504186
249	0xbd99f7ed	-0.07517991
250	0x3e06dc58	0.13169992
251	0xbd2e8b2a	-0.042613186
252	0x3dddd8e4	0.10832384
253	0x3d876464	0.06610945
254	0xbd4407af	-0.04785889
255	0xbe437121	-0.19086124

lstm_p.bias_ih_l1 f4 [64]
0	0xbd8eee86	-0.069790885
1	0x3c2e3768	0.010633327
2	0x3cbfac15	0.023397485
3	0xbe759e3c	-0.23986143
4	0xbe811b7b	-0.25216278
5	0x3d89b454	0.06723848
6	0xbe0db3f9	-0.13838185
7	0x3e3d5fc2	0.1849356
8	0x3d7caf01	0.061690334
9	0x3d6eab53	0.058268856
10	0xbe7af8fd	-0.24509044
11	0x3dbc0f49	0.09182603
12	0xbd220896	-0.03955897
13	0xbd37bd3c	-0.044858202
14	0xbe4fa095	-0.20276101
15	0xbe81a356	-0.25319928
16	0x3e321b98	0.17393339
17	0xbe20db24	-0.15708596
18	0x3d095496	0.033527933
19	0xbe39055c	-0.1806845
20	0xbe4997c9	-0.19686808
21	0x3df3aae4	0.11897829
22	0x3d81903c	0.06326339
23	0xbdfa45c6	-0.122203395
24	0x3ddf6b1b	0.109091006
25	0xbe1916ff	-0.14950179
26	0xbe3343d5	-0.17506345
27	0x3d0021e8	0.031282336
28	0x3c944a1f	0.01810175
29	0xbe51c5da	-0.2048563
30	0xbe1c5692	-0.15267399
31	0xbe10d4ca	-0.14143673
32	0xbd8a14c4	-0.06742242
33	0x3e0869e1	0.1332164
34	0xbe676ec9	-0.22600855
35	0x3e2ee930	0.17081141
36	0x3c9ec679	0.019381749
37	0xbcaa7b50	-0.020810753
38	0xbe0baed2	-0.13640907
39	0xbe5253c6	-0.2053977
40	0xbdab7a61	-0.08372951
41	0x3e00ea74	0.12589437
42	0xbe482365	-0.19544752
43	0x3e6033d5	0.21894772
44	0xbe2666b5	-0.16250117
45	0x3e171728	0.14754927
46	0xbe645cf5	-0.22301085
47	0xbe6eb408	-0.23310864
48	0xbdc06aa4	-0.0939534
49	0x3e4054a9	0.18782295
50	0x3dd28a09	0.10280234
51	0xbe1b4bf1	-0.15165688
52	0x3d80b75b	0.06284972
53	0xbdf90152	-0.12158455
54	0x3e5ded3b	0.21672527
55	0x3e6de56c	0.23232049
56	0x3b8f8362	0.0043796757
57	0x3e2c1dfb	0.16808312
58	0xbdbff9a7	-0.09373789
59	0x3dbdc1f2	0.09265508
60	0x3e03b5d1	0.12862326
61	0x3de2070f	0.110365026
62	0x3d8e9f4e	0.06963979
63	0x3e69c066	0.228273

lstm_p.bias_hh_l1 f4 [64]
0	0x3d989e52	0.07452072
1	0x3e2b5ff1	0.16735817
2	0x3ddbce71	0.10732735
3	0x3c341917	0.01099231
4	0xbd6d256e	-0.057897024
5	0x3e45fddd	0.19335122
6	0x3e5aeea9	0.21380104
7	0x3e571906	0.2100564
8	0x3d83849c	0.064217776
9	0x3e0ffab1	0.14060475
10	0xbe17babd	-0.14817329
11	0xbe1ae3eb	-0.15126006
12	0x3d0d8f93	0.03456075
13	0xbe565f87	-0.20934878
14	0xbe0679a2	-0.13132337
15	0x3e0e3e39	0.13890924
16	0xbdf85049	-0.12124688
17	0xbe2780b2	-0.16357687
18	0xbe72d470	-0.23713851
19	0x3e1e6358	0.15467584
20	0x3e24029d	0.16016622
21	0x3e3e7900	0.18600845
22	0xbd3f5106	-0.04670813
23	0xbe03b63b	-0.12862484
24	0x3e66e520	0.22548342
25	0xbe230d37	-0.1592301
26	0x3e4db81f	0.20089768
27	0x3d5e3002	0.054245003
28	0xbde0bf58	-0.10973996
29	0x3dc5bc62	0.09655072
30	0xbe15a83e	-0.1461496
31	0x3c95d252	0.018288765
32	0x3e4e9aef	0.2017629
33	0xbd56dbcc	-0.05245571
34	0x3d7e095f	0.062020656
35	0x3e28360c	0.16426867
36	0xbd93d42b	-0.07218202
37	0x3e204115	0.15649827
38	0x3e3a4f0a	0.18194214
39	0x3d0110a6	0.031510018
40	0x3e418885	0.18899734
41	0x3e57e9b1	0.2108524
42	0xbe351d79	-0.17687024
43	0x3dea32a4	0.1143544
44	0xba44ba64	-0.0007504581
45	0xbdbac987	-0.091204695
46	0x3e4a0415	0.1972812
47	0x3cd97e3a	0.026549447
48	0xbc2518e4	-0.010076735
49	0x3dd2f40d	0.10300455
50	0x3d5bf87d	0.053703774
51	0x3c7a1e19	0.015265965
52	0x3dd11793	0.102095746
53	0xbc8caa45	-0.017171035
54	0xbe527759	-0.2055334
55	0x3dc6e7a8	0.09712154
56	0xbd3bdb84	-0.045863643
57	0xbdf43f85	-0.11926178
58	0xbe1de607	-0.1541978
59	0x3e0183b2	0.12647894
60	0x3db63ba8	0.08898097
61	0xbe53d5fa	-0.20687094
62	0xbe36600a	-0.17810073
63	0xbd32e9fc	-0.043680176

attention_p.attn_1.weight f4 [16, 16]
0	0xbe7399d2	-0.23789147
1	0x3e3c2684	0.18374068
2	0x3e82f252	0.255755
3	0xbec3f91e	-0.38276
4	0x3c6252be	0.013813673
5	0xbdc1b71a	-0.09458752
6	0xbc80327d	-0.015649075
7	0xbecfdb13	-0.40596828
8	0xbe931b1b	-0.28731617
9	0xbdd5661c	-0.104198664
10	0x3d9e6c7e	0.07735537
11	0x3e9acc7b	0.3023413
12	0x3ec861da	0.39137155
13	0x3d43e31b	0.047824007
14	0xbe01674b	-0.1263706
15	0xbed27036	-0.41101235
16	0xbe939cad	-0.28830472
17	0x3ea965a9	0.33085373
18	0x3e4126e9	0.188625
19	0xbec451d0	-0.38343668
20	0xbe7c3ab9	-0.24631776
21	0xbe8599ce	-0.26093906
22	0xbe4222b4	-0.1895855
23	0x3e6e762e	0.2328727
24	0xbe1a0ee3	-0.15044741
25	0x3eab24e1	0.33426574
26	0x3eaa84e1	0.33304504
27	0xbe5ad209	-0.21369185
28	0xbd8d7f58	-0.069090545
29	0x3eabdc27	0.335664
30	0x3e4cfafc	0.20017618
31	0x3d4e689e	0.05039274
32	0xbd891d72	-0.066950694
33	0xbe167f71	-0.14697053
34	0xbd510bb4	-0.05103655
35	0xbe6342fb	-0.2219352
36	0x3e089487	0.13337909
37	0x3ebdc369	0.3706315
38	0xbda71049	-0.08157403
39	0x3e5d7730	0.21627498
40	0x3ecf51b5	0.40492025
41	0x3e904653	0.28178653
42	0xbdfa9637	-0.122356825
43	0xbec1c531	-0.37845758
44	0xbe80818f	-0.25098845
45	0x3dd35299	0.10318489
46	0xbe74dc6d	-0.23912211
47	0xbe8e12d1	-0.2774873
48	0x3ed5e92f	0.41779467
49	0xbdf2befd	-0.118528344
50	0xbe85c83d	-0.26129332
51	0x3eb8c764	0.36089623
52	0xbe9a09ab	-0.300855
53	0x3ecf99f9	0.4054716
54	0x3e7553ce	0.2395775
55	0xbea75f45	-0.32689872
56	0x3e99feb8	0.30077147
57	0x3e8bfbe3	0.27340612
58	0xbd7849f0	-0.060617387
59	0xbee4c417	-0.44680855
60	0xbd77c73c	-0.06049274
61	0x3ecd20ee	0.40064186
62	0xbde10eee	-0.10989176
63	0xbd399cb5	-0.045315463
64	0x3ea8e739	0.3298891
65	0xbeabfc74	-0.33591044
66	0xbe30ca64	-0.17264706
67	0x3df7ad92	0.12093653
68	0xbebe82a6	-0.37209052
69	0x3e87382f	0.26410052
70	0x3e797dd0	0.243644
71	0x3e23d835	0.16000445
72	0xbe18feeb	-0.14940993
73	0xbeb19cb9	-0.34689882
74	0x3df31689	0.118695326
75	0x3eac0f1e	0.33605283
76	0x3e3b671e	0.18301055
77	0xbeaf699e	-0.34260267
78	0x3eb4f017	0.35339424
79	0xbe5e7119	-0.21722831
80	0xbee23dd8	-0.44187808
81	0x3d235a4a	0.03988103
82	0x3e930a14	0.28718626
83	0x3ebdf9b5	0.37104574
84	0xbdc2c09a	-0.09509392
85	0xbea1f4b7	-0.31632015
86	0x3b1918c2	0.0023360704
87	0xbe16c2f0	-0.147228
88	0xbd1647af	-0.036689457
89	0x3dc9d542	0.09855129
90	0x3dfd6d70	0.12374389
91	0xbe49589d	-0.1966271
92	0x3d683b55	0.05669721
93	0x3e167cf1	0.14696099
94	0xbe98300c	-0.29724157
95	0x3dbb4ce4	0.09145525
96	0x3eb0762d	0.3446516
97	0xbe39f945	-0.18161495
98	0x3e30a88a	0.17251793
99	0x3e088e34	0.13335496
100	0x3eb4950e	0.3526997
101	0x3e834620	0.2563944
102	0xbea06085	-0.3132364
103	0xbe091fa8	-0.13390982
104	0xbd9e3722	-0.077253595
105	0xbe5cf277	-0.21576868
106	0x3eb0799a	0.34467775
107	0xbc6f638a	-0.014611134
108	0xbe02b486	-0.12764177
109	0x3eb8bdba	0.3608225
110	0xbe1a90bd	-0.15094276
111	0xbe8eb8c3	-0.27875337
112	0x3e626eb7	0.22112547
113	0x3eb615f8	0.35563636
114	0x3cecaff7	0.0288925
115	0xbea00263	-0.3125182
116	0xbd11cf4a	-0.035598077
117	0x3ed89e03	0.42308053
118	0xbcfd7d0a	-0.030943412
119	0x3e851147	0.25989744
120	0x3e620977	0.22073923
121	0xbd4b82e8	-0.04968539
122	0x3cae6ef8	0.021293148
123	0xbd9da757	-0.07697933
124	0xbe95c02c	-0.29248178
125	0xbe7b5d5d	-0.24547334
126	0x3e7b59fc	0.24546045
127	0xbe8e6069	-0.2780793
128	0xbe70a571	-0.23500611
129	0xbe8b6ac6	-0.272299
130	0x3ed1bf9e	0.40966505
131	0xbe09d0a8	-0.13458502
132	0xbe4cbd4b	-0.19994085
133	0x3eb3ad57	0.35093185
134	0x3e185968	0.14877856
135	0xbec23719	-0.3793266
136	0x3ed2af83	0.4114953
137	0x3e5b5b53	0.21421556
138	0x3e05dcd6	0.13072523
139	0xbccf9c00	-0.025342941
140	0x3ddde35a	0.108343795
141	0xbe0d7290	-0.13813233
142	0x3e98b13c	0.2982272
143	0x3dfc2cfe	0.12313269
144	0x3ec8f9bf	0.3925304
145	0x3e06f3c8	0.13178933
146	0xbd090297	-0.033449735
147	0x3e571611	0.21004511
148	0xbdac0177	-0.08398717
149	0x3e0d1e83	0.1378117
150	0x3dc4ec49	0.0961538
151	0x3eac57ff	0.33660886
152	0xbe976430	-0.29568624
153	0xbb0ac983	-0.002117724
154	0xbe66f668	-0.22554934
155	0x3e9583b0	0.29202032
156	0xbe1402ad	-0.14454146
157	0x3e5b903c	0.2144174
158	0x3e4b1693	0.1983283
159	0xbe008c66	-0.12553558
160	0xbd033a33	-0.032037925
161	0x3e85f75c	0.26165283
162	0xbea492cc	-0.32143247
163	0x3ecc34b2	0.39883953
164	0xbd9cfa33	-0.07664909
165	0xbe06c3c2	-0.13160613
166	0xb94ce2e4	-0.0001953948
167	0x3c8a285a	0.016864944
168	0xbeab0020	-0.33398533
169	0xbceb70db	-0.028740337
170	0x3e9c639f	0.30544755
171	0xbe33cfd7	-0.17559753
172	0x3e88ca99	0.2671707
173	0xbecad0ad	-0.39612332
174	0x3ebf9f8c	0.37426412
175	0xbea0dd47	-0.3141882
176	0xbe858f36	-0.26085824
177	0xbe248f5e	-0.16070315
178	0xbe2dcf3a	-0.16973582
179	0xbdad1007	-0.084503226
180	0xbe98d3ac	-0.29848993
181	0x3e79dcc8	0.24400628
182	0xbd4d748b	-0.050159972
183	0x3ec53d4e	0.38523334
184	0x3ed323df	0.41238305
185	0xbeb47860	-0.3524809
186	0x3e4af699	0.19820632
187	0x3ea11913	0.31464443
188	0x3e311f4d	0.17297097
189	0xbc0a2605	-0.008431916
190	0xbe991d9c	-0.29905403
191	0x3ed3b31e	0.41347593
192	0x3de0fe10	0.109859586
193	0x3ea35f54	0.31908667
194	0xbde9b3c2	-0.11411239
195	0x3e1df76b	0.15426414
196	0xbe46e104	-0.19421774
197	0xbed2fb1b	-0.41207203
198	0xbc54f8e4	-0.012998793
199	0x3ed86d50	0.422709
200	0x3d25c6bd	0.040472735
201	0xbee4f25c	-0.44716156
202	0xba1a17ae	-0.00058781623
203	0x3e836b9b	0.25668034
204	0xbeaceaf4	-0.33773005
205	0x3edfd4fa	0.43717176
206	0x3e84adcf	0.25913855
207	0xbe258c33	-0.16166763
208	0x3e1125b9	0.14174546
209	0x3e8572d4	0.2606417
210	0x3e95a640	0.292284
211	0xbc8f7db9	-0.017516004
212	0xbd1e86d1	-0.03870279
213	0x3e515d8b	0.2044584
214	0x3dde9821	0.1086886
215	0xbdf822e7	-0.12116032
216	0x3cdcbdf5	0.026946047
217	0xbeaa6b00	-0.3328476
218	0xbeb7f21c	-0.35926902
219	0x3ebc46f5	0.36772886
220	0xbedbba7d	-0.42915717
221	0xbe807172	-0.25086552
222	0xbeb7a120	-0.35865116
223	0x3e1064fd	0.14101024
224	0x3ea22ba7	0.3167393
225	0xbd25eaf8	-0.040507287
226	0x3ebd3f83	0.36962518
227	0x3edbc1b4	0.4292122
228	0xbd495837	-0.049156394
229	0xbebab77d	-0.36468115
230	0xbe6a12bb	-0.22858708
231	0xbc99935a	-0.01874702
232	0xbdf61847	-0.12016349
233	0xbe912026	-0.2834484
234	0xbe05d5bb	-0.13069813
235	0xbdcae68d	-0.09907255
236	0xbe8910cd	-0.2677063
237	0xbec0d526	-0.3766262
238	0x3e9f71cb	0.31141505
239	0xbdd1dfb8	-0.10247749
240	0x3dc83b6e	0.0977696
241	0xbe3702ef	-0.17872213
242	0xbea3f983	-0.320263
243	0xbd6dccd1	-0.058056656
244	0x3e823100	0.2542801
245	0x3ed338b2	0.41254193
246	0x3d87e8bd	0.06636188
247	0xbe92cbe1	-0.28671172
248	0xbdf188cc	-0.1179367
249	0xbe4001e0	-0.18750715
250	0xbdb228a7	-0.0869916
251	0xbc8d55d9	-0.01725285
252	0xbdc470cf	-0.09591829
253	0xbe43e3df	-0.19129895
254	0xbe944104	-0.28955853
255	0xbdd44852	-0.103653565

attention_p.attn_1.bias f4 [16]
0	0xbb1ff108	-0.002440514
1	0xbc6f7c1f	-0.014616995
2	0x3c7366b4	0.014856029
3	0xbc733c3c	-0.014845904
4	0x3b6d8751	0.0036243985
5	0xbb286300	-0.0025693774
6	0x3acd8092	0.0015678576
7	0xbc9ce7be	-0.019153472
8	0x3c6204d1	0.013795094
9	0xbc44bc51	-0.012007789
10	0x3c439076	0.011936298
11	0xbc8021d4	-0.01564113
12	0x3c5af238	0.0133634135
13	0x3c76d111	0.015064494
14	0xbc7553ef	-0.014973625
15	0xbc99a2cf	-0.018754391

attention_p.attn_2.weight f4 [1, 16]
0	0xbee65114	-0.44983733
1	0xbeb45015	-0.35217348
2	0x3ddedc99	0.108819194
3	0xbe31fdba	-0.17381945
4	0xbe8396a1	-0.25700858
5	0x3bbc671c	0.0057495963
6	0x3ebd668c	0.369923
7	0xbe8bdaad	-0.27315274
8	0x3e807cc4	0.2509519
9	0xbeba5e0b	-0.36399874
10	0x3e912273	0.28346595
11	0xbe32cba4	-0.17460495
12	0x3e87afda	0.26501352
13	0x3ed320f4	0.4123608
14	0xbe1afbff	-0.15135191
15	0xbe9dc4ca	-0.308142

lstm_t.weight_ih_l0 f4 [64, 7]
0	0xbe460107	-0.1933633
1	0xbdac8d42	-0.0842538
2	0xbca78d8b	-0.020453235
3	0xbd9e2810	-0.07722485
4	0x3e4b4476	0.19850335
5	0xbe4db664	-0.20089108
6	0x3e476243	0.19471078
7	0x3c822405	0.015886316
8	0x3e6b8487	0.22999774
9	0x3d94b401	0.072608955
10	0xbe4bed32	-0.19914702
11	0x3e7588d6	0.2397798
12	0x3d92e2fd	0.07172201
13	0x3df84c11	0.121238835
14	0x3e42f8f6	0.19040284
15	0xbd53ff48	-0.051757127
16	0x3d19ec83	0.03757907
17	0xbda72bd8	-0.081626594
18	0x3e0c11d0	0.1367867
19	0x3c4b5b04	0.012411837
20	0x3db92e30	0.09042013
21	0xbe2a5936	-0.16635594
22	0xbda67e4e	-0.081295595
23	0xbdb61b7e	-0.088919625
24	0xbe0a2643	-0.13491158
25	0x3e512dd7	0.20427643
26	0xbe2ca661	-0.16860344
27	0x3e295fc4	0.16540438
28	0xbe64c925	-0.22342356
29	0x3e4d8881	0.20071603
30	0xbe836f7f	-0.25671002
31	0x3e2a5b58	0.16636407
32	0xbbae1380	-0.005312383
33	0xbd9bf9ab	-0.0761598
34	0xbe0fda14	-0.14048034
35	0x3e144e5d	0.14483018
36	0x3d8ffde6	0.07030849
37	0x3df0b015	0.11752335
38	0x3d881a65	0.06645659
39	0x3d132439	0.035923216
40	0x3e4f52f2	0.20246485
41	0x3ddb39a7	0.10704356
42	0x3e511a57	0.20420204
43	0xbe382831	-0.17984082
44	0xbd1d9b86	-0.038478397
45	0xbd4f2454	-0.050571755
46	0x3dcc4612	0.09974302
47	0x3d81e3f2	0.06342305
48	0xbe11d74f	-0.1424229
49	0x3dd61b6e	0.104544505
50	0xbcd7a21c	-0.026322417
51	0xbe29e9cd	-0.16593094
52	0x3e7aad22	0.24480107
53	0xbe2dc5c1	-0.16969968
54	0xbdcdbd9d	-0.100459315
55	0x3e6a99f1	0.22910286
56	0xbd9dd810	-0.07707226
57	0x3e1a3dd4	0.15062648
58	0xbd8ef910	-0.06981099
59	0xbdbcdca2	-0.0922177
60	0x3e6f03bd	0.2334127
61	0xbe6d1336	-0.2315186
62	0x3d210ee8	0.039320856
63	0x3b02df69	0.0019969589
64	0xbe2c84a6	-0.16847476
65	0x3ceaf107	0.028679384
66	0xbdc13c5b	-0.0943534
67	0x3d845c99	0.06462974
68	0xbe0a74a2	-0.13521054
69	0xbe3515db	-0.17684118
70	0xbe752e65	-0.2394348
71	0x3d22e0ed	0.039765287
72	0x395d9c77	0.0002113449
73	0xbd8169ba	-0.06318994
74	0xbe403259	-0.18769206
75	0x3b11f041	0.0022268447
76	0xbe508d10	-0.20366311
77	0x3d7917ac	0.06081359
78	0xbd6068d7	-0.054787483
79	0xbe18f3a3	-0.1493669
80	0x3d9ddfb3	0.07708683
81	0xbe45a9d9	-0.19303073
82	0xbc814fc2	-0.015785102
83	0x3df4cf56	0.11953609
84	0x3e505225	0.20343836
85	0xbdc935f5	-0.098247446
86	0xbe5e3155	-0.21698506
87	0x3e2071db	0.15668432
88	0x3cd6bc06	0.026212703
89	0xbe77e418	-0.24208105
90	0xbc81bd8b	-0.015837451
91	0x3d1caa74	0.038248494
92	0xbd3ebc35	-0.046566207
93	0x3e35bd8d	0.17748089
94	0x3d5d03f1	0.053958837
95	0xbe0aa40d	-0.13539143
96	0xbcc79a81	-0.024365665
97	0x3c14d53b	0.009084041
98	0xbe173870	-0.14767623
99	0xbe14f261	-0.14545585
100	0xbd5418a2	-0.051781304
101	0xbd42f899	-0.047600362
102	0xbe37840e	-0.17921469
103	0x3e449f76	0.19201455
104	0x3e6c0301	0.23048021
105	0xbe3211ab	-0.17389552
106	0x3e07bebf	0.13256358
107	0xbe3d62ef	-0.18494771
108	0x3d8efd6d	0.06981931
109	0x3e8251d1	0.25453046
110	0x3d35c752	0.04437954
111	0xbe3a7a66	-0.18210754
112	0xbce524c8	-0.02797164
113	0xbe5cba8a	-0.21555534
114	0xbe62c4ee	-0.22145435
115	0xbda5d792	-0.080977574
116	0xbe2f3b54	-0.17112476
117	0x3da44741	0.08021403
118	0x3d42ab93	0.047526907
119	0xbe60d094	-0.21954566
120	0xbd0c5281	-0.03425837
121	0x3e776d0b	0.2416269
122	0x3e3cf261	0.18451835
123	0x3e1df5d1	0.15425803
124	0x3dda0b2d	0.10646663
125	0xbe3a6c7a	-0.18205443
126	0x3e654a2a	0.22391573
127	0x3e80b57b	0.2513846
128	0xbd4d48f2	-0.050118394
129	0xbe4ba8fa	-0.19888678
130	0xbcd793a9	-0.026315527
131	0x3c0e64ca	0.008691022
132	0x3e406aeb	0.18790786
133	0x3df45244	0.119297534
134	0xbe388c82	-0.1802235
135	0xbdf54543	-0.11976101
136	0x3d620f25	0.055190224
137	0x3e4db53f	0.20088671
138	0x3a101cf9	0.00054974813
139	0xbe70f8a4	-0.23532349
140	0x3dd10d7d	0.10207651
141	0xbd806c06	-0.06270604
142	0x3d6f000a	0.058349647
143	0x3dc8678d	0.09785376
144	0x3dd97aa4	0.10619095
145	0xb9fdae26	-0.0004838567
146	0x3d869da2	0.06573035
147	0x3dade253	0.084904335
148	0xbdbf2b8c	-0.09334478
149	0x3d868e2b	0.06570085
150	0x3e2c6b2e	0.16837761
151	0xbe37496d	-0.17899103
152	0x3d75fc86	0.06005528
153	0x3e4f4795	0.2024215
154	0x3dd52a4d	0.10408459
155	0xbdf45a72	-0.119313136
156	0x3d8bec72	0.06832208
157	0xbb132d3e	-0.0022457386
158	0x3e5aa04e	0.21350214
159	0xbe07a6d7	-0.13247238
160	0x3e029c54	0.12754947
161	0x3c8b4652	0.017001305
162	0x3c93f346	0.018060338
163	0xb84122f8	-4.6047353e-05
164	0xbe5110ce	-0.20416567
165	0x3dd26e0d	0.10274897
166	0xbe1cec26	-0.15324458
167	0x3e797f50	0.24364972
168	0x3db88496	0.09009664
169	0xbdeb354d	-0.11484776
170	0x3e4d9f83	0.2008038
171	0x3e3cce29	0.18438019
172	0x3e7103ba	0.23536578
173	0x3e0288bc	0.12747473
174	0x3d69e664	0.057104483
175	0xbe0567f8	-0.13027942
176	0x3e67a4c3	0.22621445
177	0x3dede575	0.11616031
178	0x3de88058	0.11352605
179	0x3e62b463	0.22139125
180	0x3e2adfc0	0.16686916
181	0xbe0cc810	-0.13748193
182	0x3e2555ea	0.16146055
183	0x3d86bdf2	0.06579198
184	0xbdf5c988	-0.1200133
185	0x3e45a36c	0.19300622
186	0xbdd0099c	-0.10158083
187	0xbdac78a9	-0.084214516
188	0x3c6e8efe	0.014560459
189	0x3c1ec8e2	0.009691449
190	0x3e34b600	0.17647552
191	0xbe02a831	-0.12759472
192	0xbe78a074	-0.24279958
193	0x3d9d7833	0.07688942
194	0xbe34e43e	-0.17665192
195	0xbe65140f	-0.22370933
196	0xbe3fcb29	-0.18729843
197	0xbe40cd96	-0.18828425
198	0xbd9e14da	-0.07718821
199	0xbe369f28	-0.17834151
200	0x3e1d493a	0.15359965
201	0xbde43bfe	-0.11144255
202	0x3e1c8bf6	0.15287766
203	0xbe01c6a8	-0.12673438
204	0x3e30b7aa	0.17257562
205	0x3d22f268	0.039781958
206	0xbe6d6070	-0.23181319
207	0xbdca662f	-0.09882771
208	0x3e761daf	0.24034761
209	0x3e6aa7fb	0.22915642
210	0x3e2894b6	0.16462979
211	0x3e2fb574	0.17159063
212	0x3ce4d996	0.027935784
213	0xbe65eace	-0.22452852
214	0xbdca02c1	-0.098638065
215	0xbe54c3b1	-0.20777775
216	0x3ddd19af	0.107959144
217	0x3e190860	0.14944601
218	0x3dac7011	0.084198125
219	0x3e5af3bd	0.21382041
220	0xbd0ae239	-0.03390715
221	0x3e0e75dd	0.13912149
222	0xbc1e2965	-0.009653424
223	0xbd11115f	-0.035416957
224	0xbe1c1b80	-0.15244865
225	0xbe185f0c	-0.14880008
226	0x3d1b7460	0.03795278
227	0xbe002abd	-0.12516303
228	0x3d15ffa2	0.036620744
229	0xbde2d688	-0.11076075
230	0xbcbfc13b	-0.02340757
231	0xbe3bd01e	-0.18341109
232	0xbe3fed42	-0.1874285
233	0x3deddd37	0.11614459
234	0x3e48a6bd	0.19594856
235	0xbc3d90e3	-0.011570188
236	0x3d877034	0.06613198
237	0x3da23e3c	0.079220265
238	0x3e56a13d	0.20959945
239	0xbcfdc272	-0.030976508
240	0x3e6f41d6	0.23364958
241	0x3bedd348	0.0072578527
242	0x3e1c5b9d	0.15269323
243	0xbc9b3c71	-0.01894972
244	0xbdee867d	-0.11646745
245	0x3ce1e49b	0.027574828
246	0xbe462dc9	-0.19353403
247	0x3d8e3d2d	0.06945262
248	0xbd0033c2	-0.03129936
249	0x3ddca8a4	0.10774353
250	0xbe4cd773	-0.20004062
251	0x3e5f57ac	0.21810788
252	0xbd75bc9a	-0.059994318
253	0xbd0a3c60	-0.033748984
254	0x3cd78552	0.02630869
255	0x3e4e0d1d	0.2012219
