Params/dataset3_150_0.001_10_16_222_model.pt (torch, 46587 bytes, 31 tensors)

lstm_p.weight_ih_l0 f4 [64, 10]
000000 e5 11 c6 bd 36 89 f1 bd 8b e8 16 bd bb dd d2 bc
       -0.09671382 -0.11793749 -0.036842864 -0.025740495
000010 88 9f 5b 3e a8 9c 07 be 38 c9 92 3d ce fd 2d 3e
       0.21447575 -0.13243353 0.07167286 0.1699135
000020 d8 2b ab bd 54 a0 be bd db c4 e7 3d bf de f1 3c
       -0.08357972 -0.09307924 0.11316844 0.029525159
000030 9c 0b bb 3b 26 68 79 3e 58 5f 3a bb 36 b2 05 be
       0.005708171 0.24356136 -0.0028438177 -0.13056263
000040 a3 1b 1c bc ff 31 44 3d cd d9 5e 3d ba f1 b5 3d
       -0.0095280735 0.047899242 0.05440693 0.08883996
000050 fc 99 99 3c a1 4f 2f 3d 63 be 5c be dc 78 3b 3e
       0.018750183 0.04280055 -0.21557002 0.18307823
000060 4f 7b 16 be 25 c4 b8 bd 90 43 ab 3d a4 1b 20 bd
       -0.14695476 -0.090217866 0.08362496 -0.03908886
000070 46 d3 29 3e 86 25 c4 3d ba bb 4e 3e 61 70 9e 3d
       0.165845 0.095774695 0.201888 0.07736278
000080 3a 04 7e 3d c7 83 89 3d 3d bc 1e be dd 52 1b 3d
       0.06201575 0.06714588 -0.15501495 0.03792082
000090 e7 3d b6 3d 68 67 46 bd c2 24 03 be 82 e0 12 be
       0.08898526 -0.04843846 -0.1280699 -0.14343455
0000a0 27 d6 0d 3e d6 5d 3c be 85 48 86 3e fb 4f c8 bc
       0.13851224 -0.1839517 0.26227203 -0.0244522
0000b0 63 7b 67 3d 7e 63 21 3e a9 42 31 3e c4 9b 7c 3d
       0.056514155 0.1576061 0.17310585 0.061671987
0000c0 01 96 5a be 38 ab f8 bb e3 67 b9 bd 8c b6 61 be
       -0.21346284 -0.0075887702 -0.09053018 -0.22042292
0000d0 70 4c 97 bd 14 3b dd 3d 5e 25 c2 3c fa 35 5c 3e
       -0.07387626 0.10802284 0.023699459 0.21504965
0000e0 78 c8 15 be e4 2e e6 3d 9e e6 44 3e 40 e8 2c be
       -0.14627254 0.112394124 0.19228598 -0.16885471
0000f0 78 3a 5d 3e cd ea ef 3d 94 72 96 bc e5 85 4e bd
       0.21604335 0.117147066 -0.018365182 -0.05042066
000100 76 b3 01 be d6 2a 58 3e eb 76 b3 3d 2d d6 7f bc
       -0.12666115 0.2111009 0.08762916 -0.015615028
000110 8c 44 74 3e 03 8e 00 be 84 9f 01 be c7 9d 00 be
       0.23854274 -0.12554173 -0.12658507 -0.12560187
000120 a0 bc 77 3e f3 5b 3d be 3e b7 2d 3b a8 e2 e3 bc
       0.24193048 -0.18492107 0.0026506926 -0.027818039
000130 e9 5e 41 bd 3d d1 62 be 73 2d dc 3d 19 1e 3d bd
       -0.047209654 -0.2215013 0.10750856 -0.04617128
000140 a8 ae 55 be 1c dc db bc 89 c5 35 be f9 50 61 3d
       -0.20867407 -0.026838355 -0.17751135 0.055008862
000150 b2 d8 d6 3d 52 08 02 be 48 c1 55 3e 86 a3 fa 3c
       0.1049055 -0.12698486 0.20874512 0.030595552
000160 cb ef 69 be 99 19 5c 3c 8e 08 b8 bb 87 d9 00 3e
       -0.2284538 0.013433837 -0.005616254 0.1258298
000170 26 f6 58 be 16 9d 56 3d af 0d 10 be c3 be 0e 3d
       -0.21187648 0.052395903 -0.1406772 0.034849893
000180 c7 6d 3d be a6 31 ba 3c c6 12 5e be 4b 98 8f 3d
       -0.18498908 0.022728752 -0.21686849 0.070114695
000190 45 db fe 3c e4 67 31 3e af 65 7a 3e 1e 2f 96 3d
       0.031110415 0.17324787 0.24452852 0.07333206
0001a0 5d 1d e5 bd 6c 5f c0 bd 65 cf ff 3d c5 01 f5 3d
       -0.11187241 -0.093932 0.12490729 0.11963228
0001b0 fd bc 1a bc f4 ac 33 be cb 14 07 be 99 bb ad 3c
       -0.009444472 -0.17546445 -0.13191526 0.021207618
0001c0 6d f8 dd 3d 61 99 0f 3e 2c af f1 3d 32 08 1d 3e
       0.10838399 0.14023353 0.118009895 0.15335158
0001d0 f8 b5 02 bd 83 17 02 3e 28 fa 5a 3d 3b 80 59 3e
       -0.03191182 0.12704282 0.053461224 0.21240322
0001e0 bf 49 18 3e 3a a9 29 3c 69 f0 d8 3d 8f db 91 bd
       0.14871882 0.010355288 0.105927296 -0.071219556
0001f0 9a c4 66 be c6 1d 93 3d 05 63 5d 3e 4b cc ca 3d
       -0.22535935 0.07183413 0.21619804 0.09902247
000200 40 f2 08 bc 3a fc 6b be 25 8f 5a be e9 4c c6 3d
       -0.008358538 -0.23045436 -0.21343668 0.09682638
000210 13 16 98 3d 49 09 22 3e 0e e5 0e 3e d4 8a 63 bc
       0.07426085 0.15823855 0.13954565 -0.01388808
000220 b7 c9 5b be 52 74 d3 3d 15 0f 48 be 9f f0 70 3d
       -0.21463667 0.10324921 -0.19537003 0.058823224
000230 68 53 9b bc af 04 ff 3d e1 03 6f 3e 48 21 df bb
       -0.01896067 0.12452065 0.23341323 -0.0068093874
000240 9a ae f3 3d 6b 24 1e 3c 4b a7 fd 3d af 9c f9 bd
       0.11898537 0.009652237 0.12385424 -0.12188088
000250 13 05 74 be b3 88 c5 bd 2e 85 af 3c 55 c9 f1 3d
       -0.2383006 -0.09645214 0.02142581 0.11805979
000260 e8 4c 21 3e 95 61 57 ba 61 b5 c6 3d a8 a7 ff 3b
       0.15751994 -0.000821614 0.09702564 0.0078019686
000270 3c 59 66 3e ce 49 bf 3d 93 68 be 3c af 7c 79 bb
       0.22494978 0.09340249 0.023243224 -0.0038068702
000280 02 7f 84 3d d3 94 7e bd 95 6c 65 3e b9 98 08 3e
       0.06469537 -0.06215365 0.22404702 0.13339509
000290 f7 ec bd bd d4 68 ad 3d 17 0f 00 be 31 c7 5f be
       -0.09273713 0.0846726 -0.12505756 -0.21853329
0002a0 b4 2c 73 be fc 7c 77 be 88 97 d6 bd b8 8d d9 bd
       -0.23747522 -0.24168772 -0.10478121 -0.10622734
0002b0 b1 e3 49 bd e5 e7 52 3e 91 67 11 3d 1e b1 ed 3d
       -0.04928941 0.20596273 0.03549916 0.11606048
0002c0 c4 c0 3a 3d 37 67 96 3d 1a 06 c6 bc 8b 5a ca ba
       0.045593992 0.073439054 -0.024172831 -0.0015438361
0002d0 44 b5 7c 3e 97 a7 3e 3e 26 39 ba 3a 7a d7 85 3d
       0.24678522 0.18618618 0.0014207705 0.065352395
0002e0 1d 30 02 3e f3 2b f2 3d d5 02 0b 3e 9e 08 be bd
       0.12713666 0.11824789 0.13575299 -0.09278987
0002f0 d2 66 b6 3d 1f 65 0e 3b 43 09 c2 3d 16 3b 23 bd
       0.0890633 0.0021727753 0.09474423 -0.03985127
000300 38 d9 1b 3e 4a b4 21 be fe 7d 1a 3e 4f 5b 9c 3d
       0.15219581 -0.15791431 0.15087125 0.07634603
000310 6f 57 0b 3e f4 3e e1 3b 5b b9 de bd 10 b8 6b 3b
       0.13607572 0.0068739597 -0.108751975 0.0035967864
000320 48 bd 05 3e ab 5a 60 3d e8 cc 5c be 6d 2d 4b be
       0.13060486 0.054773968 -0.2156254 -0.19841547
000330 06 52 70 3e da 39 20 be 2c 98 8a bd 63 9d 2d be
       0.2346879 -0.15647069 -0.06767306 -0.1695457
000340 b7 9f ad 3d df 5a 63 be 94 d7 22 3e fd 92 2f be
       0.08477729 -0.22202633 0.15902549 -0.17145915
000350 f7 39 70 be cd 87 39 bd c8 6d 37 3d 15 b5 f5 bd
       -0.23459612 -0.045295525 0.04478243 -0.11997429
000360 9e 4d b7 3d 71 af 6c be 86 2d 50 3e 21 5a 60 be
       0.08950351 -0.231138 0.20329866 -0.21909381
000370 ab 18 59 3d 45 3a 16 bd 68 8b ac bd 83 71 62 3e
       0.05300204 -0.036676664 -0.08425027 0.22113614
000380 60 75 57 3e f4 ac 49 3e e8 42 1c be f3 7b 39 be
       0.21040869 0.19694883 -0.15259898 -0.18113689
000390 73 ca 5f be 04 0f 02 3e 1d 61 e9 bc 9d a3 07 be
       -0.21854572 0.1270104 -0.02848869 -0.13246007
0003a0 e1 99 ef bd 32 30 09 3e 01 3f 67 bd f8 b6 d1 3c
       -0.11699272 0.13397291 -0.05645657 0.025599942
0003b0 66 ff 5a be 43 e4 5d 3e f3 77 98 bd e8 d8 c4 3d
       -0.2138649 0.21669106 -0.074447535 0.09611684
0003c0 af ce 35 be 6c 7b 3b 3e c1 89 51 3e 32 3b 1e be
       -0.17754625 0.183088 0.20462705 -0.15452269
0003d0 9c 4c dc bd e9 43 27 be 3a 3d 67 3e 07 bf 09 3e
       -0.107567996 -0.163345 0.2258195 0.13451777
0003e0 25 8f c9 3d a7 23 d2 3d bf 24 4b be a5 8c f3 bd
       0.09841756 0.102607064 -0.19838236 -0.1189206
0003f0 d1 22 2a be 8f 4e 8a bd bf 53 9b bd b6 35 10 3e
       -0.16614844 -0.06753265 -0.07584333 0.14082989

lstm_p.weight_hh_l0 f4 [64, 16]
000000 be b8 d5 bc cc 48 9d bc 9e 2f 6f 3b 66 91 81 3e
       -0.026089069 -0.019199751 0.0036496888 0.25306243
000010 43 82 73 3e 79 ca 28 be 6a 33 4c 3d dd 6f 5e 3d
       0.2378016 -0.16483487 0.04985372 0.0543059
000020 78 d7 10 3e 95 0b 4a bd d9 b1 cd 3d b1 ca 08 3e
       0.14144695 -0.04932745 0.100436874 0.1335857
000030 d3 28 c5 3c f7 82 58 3e ee 72 9e 3d b1 e8 41 3e
       0.024067318 0.21143709 0.07736765 0.18936421
000040 a2 0d 34 3e 4a 36 75 be 09 a2 fa bd fb 71 2d bd
       0.17583326 -0.23946491 -0.12237937 -0.04234503
000050 3d 70 2b 3e 44 d5 40 be 13 1b 2b 3e 1d 80 e5 3d
       0.16742034 -0.18831354 0.16709547 0.11206076
000060 29 39 37 3d 3c 6c 55 3e 59 0d 14 3c fd 67 31 be
       0.044732247 0.2084207 0.009036385 -0.17324825
000070 6f 52 01 3e 05 f1 60 be f7 ca 5b be 20 62 97 3d
       0.12629102 -0.21966942 -0.21464144 0.07391763
000080 83 8c 4b 3e be 67 81 be c1 a9 3a 3e cc 5f 3e 3e
       0.1987782 -0.25274462 0.18228818 0.18591231
000090 50 64 23 be 8d a0 57 be 02 22 04 3b d9 ca 35 3e
       -0.15956235 -0.21057339 0.0020161872 0.17753161
0000a0 96 6b 07 3d 22 e9 2a be e3 c0 93 bd 74 9c fd bb
       0.033061586 -0.16690496 -0.072145246 -0.007739598
0000b0 db 42 80 3e 20 4a d5 bd 48 64 35 be e0 b7 84 bd
       0.25051007 -0.10414529 -0.17714036 -0.06480384
0000c0 4d ba 0a be 06 71 d1 bc 94 82 a3 3c 5e 06 d4 bd
       -0.1354763 -0.02556659 0.019959725 -0.10352777
0000d0 3e 21 ae 3d 66 00 6e be f5 87 27 3e 5c 43 98 3d
       0.08502434 -0.2324234 0.16360457 0.07434723
0000e0 e7 33 01 3e 0e 43 8c bd 89 ce bf 3d 1e a3 bf 3d
       0.12617455 -0.06848727 0.09365565 0.09357284
0000f0 60 fd be 3c 48 6b b6 bd 96 c5 9d bd a3 d9 1d 3e
       0.023314178 -0.08907181 -0.07703702 0.15415053
000100 ad 3c 4c 3e f7 33 55 bc 79 88 41 be 5c 95 11 3d
       0.19945021 -0.013012878 -0.18899716 0.03554283
000110 3e f9 6b be 2b 64 b5 3d 1f 67 c9 bd 34 26 a6 3d
       -0.23044297 0.08856996 -0.09834122 0.081127554
000120 23 cb 11 be 47 18 de 3d c8 32 3a be 59 a9 3e 3e
       -0.14237647 0.10844474 -0.18183434 0.18619289
000130 b8 cf 3e 3e ac 61 69 3e dc 7c 9f 3d f5 79 1c be
       0.18633926 0.22791165 0.07787487 -0.15280898
000140 ca 82 ad bb 69 fd 1b 3e c4 f4 10 be 45 84 3c be
       -0.0052951323 0.15233387 -0.1415587 -0.18409832
000150 39 da cb 3d bd a3 04 be 1a 43 60 be d6 5f 33 3e
       0.09953732 -0.12953086 -0.21900597 0.17517027
000160 3e a4 1b 3e e4 b2 1d be 74 c2 de bd 09 07 34 3d
       0.15199372 -0.15400273 -0.10876933 0.04395202
000170 9f f7 f3 bd 5f 90 5b be 7d ba e8 3d 29 28 7b 3d
       -0.11912464 -0.21441792 0.11363695 0.061317597
000180 ba 6b 52 be 3d 9f c2 3c 70 30 4c bc 8a d0 03 be
       -0.20548907 0.023757571 -0.01246272 -0.1287252
000190 30 a2 41 3e c4 b4 99 3d 39 a1 82 3e 07 75 ad bc
       0.18909526 0.075051814 0.25513628 -0.021173967
0001a0 a5 5f 0d be 38 40 6c bc 7f 2a 4e be fb e0 97 3c
       -0.13806017 -0.014419608 -0.20133398 0.018539896
0001b0 8f 82 5a be a2 f6 3e 3e cc f9 67 bd 5b b1 14 3e
       -0.21338867 0.1864877 -0.05663471 0.1452078
0001c0 1f 47 22 3e 62 f7 5b be 04 35 78 3e a3 4a 38 be
       0.15847443 -0.21481088 0.24238974 -0.17997222
0001d0 05 27 71 3e 5a da a7 bd 90 37 4c 3d b1 8c ad 3d
       0.23550041 -0.08195944 0.049857676 0.084741004
0001e0 7b a3 6f 3e 0c 0c 33 3e a7 25 15 3e 18 57 75 3d
       0.23402207 0.17485064 0.14565144 0.059897512
0001f0 1b 92 a6 bd 0e 24 c8 3c 23 05 47 bc 13 d7 27 3e
       -0.08133336 0.024431255 -0.012147221 0.16390638
000200 a8 9d 3e be 49 d7 22 3e 7f 23 1a 3e 9d f0 81 3e
       -0.18614829 0.15902437 0.15052603 0.25378886
000210 36 a2 92 3d b1 a5 5c 3e 99 1c 2d be 1a 54 37 be
       0.071598455 0.21547581 -0.1690544 -0.17903176
000220 89 2a c0 3c 76 95 d7 3d 61 80 23 3e 76 8d 4f be
       0.023457782 0.10526554 0.15966941 -0.20268807
000230 85 ed 21 bd 17 f8 1d be 32 aa 88 3a f7 c1 86 bb
       -0.039533157 -0.1542667 0.0010426699 -0.004112478
000240 98 16 50 be 6f 14 e0 bc 3c 3d 24 be 60 83 98 bd
       -0.20321119 -0.027353493 -0.16038984 -0.07446933
000250 3f 09 c7 3c 1e 3e 21 3e d3 14 02 3c 3c 59 09 be
       0.024296401 0.15746352 0.007939535 -0.13412946
000260 75 1a 34 be e8 6c a7 bd 54 58 13 3d 60 3b 21 be
       -0.17588218 -0.08175069 0.03597291 -0.15745306
000270 10 36 7e 3e f2 6f f8 3d 78 04 50 3e 9c e1 1d 3d
       0.2482531 0.12130727 0.20314205 0.038545236
000280 27 a1 31 be f3 aa 1f 3e 77 d2 06 be ae b6 64 3e
       -0.17346631 0.15592556 -0.13166223 0.22335312
000290 6e cf 74 3d c0 d2 2f 3e aa 0e 7b be f9 74 ac bd
       0.059768133 0.17170238 -0.24517313 -0.08420748
0002a0 c7 00 fa 3d ab 24 22 be 21 9d 43 3e da 2a 20 3c
       0.122071795 -0.158343 0.19102909 0.009775842
0002b0 99 f1 46 be c8 a7 f7 3d aa f9 46 3d f3 79 f6 bd
       -0.194281 0.120925486 0.048577942 -0.12034979
0002c0 cf e0 bb bd 47 cd a5 bc 0b e4 85 bd b7 58 7b 3e
       -0.09173738 -0.020239485 -0.06537636 0.24545561
0002d0 56 83 4d be f5 6d ab bc a9 43 42 be c0 d1 3e bc
       -0.20069632 -0.020926455 -0.18971123 -0.011646688
0002e0 52 2f 11 be f2 ad 71 3e 44 47 10 be 36 7a 71 3e
       -0.14178208 0.23601511 -0.14089686 0.23581776
0002f0 dd 5b 94 bb 07 d7 ba 3c 85 7b 9c bd 4b 57 0c bd
       -0.0045275525 0.022807611 -0.07640747 -0.034262937
000300 16 a0 84 bd 71 ce e6 bd 3b 65 31 be 07 69 68 bd
       -0.064758465 -0.11269844 -0.17323773 -0.056740787
000310 aa 3a 00 be 0b 4c 24 3d 13 fb b7 bc 6a dd 10 be
       -0.12522379 0.040111583 -0.022458589 -0.14146963
000320 e3 1a 80 be f2 2f 04 be 46 e6 40 3e 1a e9 dd 3d
       -0.25020513 -0.12908915 0.18837842 0.10835476
000330 4a 14 1c 3e 20 bc 63 bd 33 54 3e 3e fc 47 3c 3e
       0.15242115 -0.05559933 0.18586807 0.18386835
000340 86 74 04 be f7 60 00 be 36 fc 01 3e b2 f3 19 3e
       -0.12935075 -0.12536989 0.12693867 0.15034369
000350 99 b8 c6 bd d9 40 bf 3d 55 7f af 3d b1 9d e5 bd
       -0.09703178 0.093385406 0.085692085 -0.11211718
000360 88 cf 48 be 26 72 93 bd c5 cf 2c be ea d5 5a 3e
       -0.19610417 -0.071995065 -0.16876133 0.21370664
000370 e9 82 0c 3e fe c0 70 3e 88 a8 16 3e 74 b4 c8 3d
       0.13721813 0.2351112 0.14712727 0.09800044
000380 83 50 cc 3c 4c c5 3a 3e 0d 2b d5 3d c0 85 db 3c
       0.024940735 0.18239325 0.10408602 0.026797175
000390 29 ea 31 3e 50 84 44 3e 0b b9 b9 bd ad a4 65 bd
       0.17374481 0.19191098 -0.09068497 -0.05606525
0003a0 92 f6 4e bd f1 e1 42 be 57 f9 2d be ba 02 51 be
       -0.050528117 -0.19031502 -0.16989647 -0.20411196
0003b0 64 d8 8f 3c a3 4b 08 bd f7 25 00 3e a1 f1 47 3d
       0.017559238 -0.033275258 0.12514482 0.04881442
0003c0 72 d4 f8 bd dd 3c 8c 3d 33 05 6c be 2d 8c af 3d
       -0.12149896 0.06847546 -0.23048858 0.08571658
0003d0 df 67 17 3e dc e1 1d be 46 64 20 3d d0 18 6b bb
       0.14785717 -0.1541819 0.03915813 -0.0035872944
0003e0 f0 15 79 3d 65 6f 41 3e 00 a7 21 be c1 5d 30 be
       0.060811937 0.1889015 -0.15786362 -0.17223264
0003f0 44 39 b5 3c d2 8d 59 be 5b f8 f8 bd 09 6a b7 3d
       0.022122033 -0.21245506 -0.12156745 0.089557715

lstm_p.bias_ih_l0 f4 [64]
000000 35 3c ff bc 01 29 58 be 3f f3 33 be 28 bb ab bd
       -0.031156639 -0.21109392 -0.1757326 -0.083853066
000010 cb 30 0c 3e c6 2d 87 bd 78 61 d8 3c c5 3c 4b be
       0.13690488 -0.066005275 0.026413664 -0.198474
000020 8a e4 39 3e 5c 3b 82 be 78 b1 b1 3d a5 05 1d 3d
       0.18153587 -0.25435913 0.086764276 0.03833546
000030 21 2a 66 3e 98 c7 19 be b2 bd 00 3e ca 05 08 3e
       0.22477008 -0.15017545 0.12572363 0.13283458
000040 16 08 27 be f4 1e 45 3e bc 2d 30 be a4 16 29 be
       -0.16311678 0.19250089 -0.17204946 -0.16512543
000050 2a d6 61 be 5c 5f 3b 3e 32 a3 a0 3d 96 81 ec bb
       -0.22054353 0.18298095 0.07843627 -0.0072175963
000060 dc 37 32 3a 14 10 34 3e 28 c7 26 bd 51 b0 d5 3c
       0.0006798485 0.17584258 -0.040717274 0.02608505
000070 87 a7 0f be 72 41 39 be dd 48 74 be 83 f2 0c 3e
       -0.1402875 -0.18091372 -0.2385592 0.13764386
000080 aa 4b cc bd f0 f1 07 be 88 57 2e 3e 66 bc 62 3e
       -0.09975369 -0.13275886 0.17025578 0.22142181
000090 49 ca b3 3c 19 17 a7 bd d8 d6 67 be 0d 7d 58 be
       0.021947043 -0.081587024 -0.2264055 -0.21141453
0000a0 6e 8e f1 3d 23 ab 1a be 04 75 63 be d6 ec 17 be
       0.117947444 -0.15104346 -0.22212607 -0.1483644
0000b0 d2 e6 6e bd d2 9f e8 3d bb 22 27 3e 1f 17 5f bd
       -0.058325596 0.11358608 0.16321842 -0.05446541
0000c0 8f ee 40 3e 49 65 4f 3e be 0a e9 3d 15 ff 78 3e
       0.18841003 0.20253481 0.11379002 0.24316056
0000d0 b3 bf 82 be f1 61 5a 3d 6e 81 3a be 62 87 72 bc
       -0.2553688 0.05331606 -0.18213436 -0.014802786
0000e0 7c 97 4a 3d 6a c4 98 3d d5 90 45 bd dc 99 f3 3c
       0.049460873 0.07459338 -0.048233826 0.029736452
0000f0 d8 3a 1d be 51 28 37 3e 16 a6 dc bd b7 42 19 be
       -0.15354478 0.17886473 -0.10773866 -0.14966856

lstm_p.bias_hh_l0 f4 [64]
000000 31 33 82 be 29 d5 bb bc 33 30 b0 bd 28 78 b8 3d
       -0.2542968 -0.022928791 -0.08602943 0.09007293
000010 11 59 db bc 93 7d 44 3d 56 fd 2b be ef e3 62 3e
       -0.026775869 0.04797132 -0.16795859 0.22157262
000020 82 f5 98 bc d6 32 4b be 1a 8b 30 3e b4 31 a6 ba
       -0.018671755 -0.19843611 0.17240563 -0.0012679608
000030 47 a4 ab bc 99 c9 00 be 12 da ac bd 46 e5 47 3d
       -0.020952357 -0.12576903 -0.08440031 0.048802637
000040 ad a0 e6 3d 7a a5 7d be a7 4c 03 3d fc 82 89 3d
       0.11261115 -0.24770156 0.032055523 0.067144364
000050 14 ce 00 3e fc d0 93 3d d2 32 a7 3d 3d 8a 4b 3e
       0.12578613 0.07217595 0.0816399 0.19876952
000060 f8 e2 a6 bd d8 57 d9 3c 50 50 c9 bd a0 97 1e 3d
       -0.081487596 0.026531145 -0.098297715 0.03871882
000070 59 6e f6 bd 35 ee b4 3d bf 13 aa 3c c8 e9 66 3c
       -0.12032766 0.08834497 0.020761369 0.014093824
000080 6d 9b 72 be d4 9f 25 3e 62 db 6c be 4f 2e 50 3d
       -0.23692103 0.16174251 -0.23130563 0.050825413
000090 a3 3d 11 be f7 f8 27 be c6 d3 22 bb c5 51 24 be
       -0.14183669 -0.16403566 -0.0024845465 -0.16046818
0000a0 15 d7 00 be 3f 8f 1c be 2a 62 26 3e de 42 0c bd
       -0.12582047 -0.15289019 0.16248384 -0.034243457
0000b0 85 b2 b7 3d 13 00 43 bd e1 7d 4d be f7 82 04 3e
       0.08969597 -0.047607493 -0.2006755 0.12940584
0000c0 33 42 09 be 47 db 09 3e 6a 26 5c be 19 74 75 be
       -0.13404159 0.13462554 -0.21499029 -0.23970069
0000d0 70 83 88 3d 5c 8a 8d bd c4 72 07 be b1 a4 6c 3e
       0.06665695 -0.069111556 -0.13227373 0.231097
0000e0 34 62 63 3e cd 34 7a be f1 26 3d 3e ff 8a de 3d
       0.2220543 -0.24434204 0.18471886 0.10866355
0000f0 9f 42 ab bd 88 ce b8 bd 32 fc 87 3d 55 ae 46 bd
       -0.08362316 -0.09023768 0.06639899 -0.0485061

lstm_p.weight_ih_l1 f4 [64, 16]
000000 2e 64 3a bd 44 94 a4 3d d9 58 5c 3e c4 e2 2b 3c
       -0.045505695 0.08036092 0.21518268 0.010491077
000010 cf c6 36 be 1a 1d d6 3d 2d 61 61 3e 8c 54 5b 3e
       -0.17849277 0.104547694 0.22009726 0.21418971
000020 29 a7 5e 3e 27 eb d1 bd 83 ef 05 be 69 c4 02 3e
       0.21743454 -0.1024993 -0.13079648 0.12770237
000030 ca ad ab 3d a2 d0 45 3e 0e 9d b4 bd 99 29 d1 bd
       0.08382757 0.19317868 -0.08819018 -0.10213012
000040 1a ae 1f bd 6d 61 42 3e bc a5 9f 3d e0 14 70 3e
       -0.038984396 0.18982477 0.07795283 0.23445463
000050 ea 95 0c be fb eb 89 bd 4e b2 13 3e 32 5f 89 bd
       -0.13729063 -0.06734463 0.14423487 -0.0670761
000060 1c 68 52 3e 11 d3 5d bd 0a 95 35 3e c3 bf 1f 3e
       0.20547527 -0.054156367 0.17732635 0.15600495
000070 15 6f 23 3d e0 2c 7e bd 4a 35 19 be 5d 9b 04 be
       0.039900858 -0.062054515 -0.14961734 -0.12949891
000080 78 e7 11 be 62 42 48 be 54 f3 46 3e 64 25 c3 3d
       -0.14248455 -0.19556573 0.1942876 0.09528616
000090 22 a3 a5 bd 2c c5 47 3e dc 55 95 3c 75 d7 c2 3b
       -0.08087756 0.19508809 0.018229418 0.0059460946
0000a0 b4 73 1a 3e 28 b1 69 3e e1 03 20 3e 5b bc b7 bd
       0.150832 0.22821486 0.1562648 -0.08971473
0000b0 45 ea 61 be 96 fa d3 bd b1 5f 57 bd bc ff c6 3d
       -0.22062023 -0.1035053 -0.052581493 0.09716746
0000c0 2f 23 06 3e ac 58 7a be 73 48 5f 3e b4 c3 7f 3e
       0.13099359 -0.24447888 0.21804981 0.24976999
0000d0 dd e4 8d bd dd 6b 45 3e 3a 07 eb 3d 48 67 16 be
       -0.06928418 0.19279428 0.11475988 -0.14687836
0000e0 e5 81 d4 bd 7f 39 51 be 22 1d 58 3e 9a 29 3f 3e
       -0.10376338 -0.2043209 0.21104863 0.18668213
0000f0 72 aa 3e 3e 7d ce 08 3e 04 62 19 3e 4a 1e 26 3e
       0.18619707 0.13360019 0.14978796 0.16222492
000100 94 6e 9a bd 79 18 c6 bd 84 ed 4c 3e da 87 a1 bd
       -0.07540622 -0.096726365 0.2001248 -0.0788724
000110 2d 07 05 3e ce 66 ed bd f4 72 61 be 48 98 40 be
       0.12991019 -0.11591874 -0.22016507 -0.1880809
000120 d7 de 58 3e ae 1e 56 3e f0 1c 6f be e6 e7 ac 3c
       0.21178757 0.20910141 -0.23350883 0.021106672
000130 93 b9 6e 3e 84 b2 19 be 5b 50 f7 bb 13 b6 f5 3d
       0.23312978 -0.15009505 -0.007547421 0.119976185
000140 a7 ed 23 3e cd 1e a4 bd 7f ed 92 bd 69 63 42 3d
       0.16008626 -0.08013687 -0.07174205 0.047458086
000150 36 e2 09 3d 07 94 2d bd 68 6c 61 3e d4 52 16 be
       0.033662997 -0.042377498 0.2201401 -0.14680034
000160 c5 c9 e2 bd 4e 43 5d 3e fb 44 9b ba d6 79 8e bc
       -0.11073641 0.21607706 -0.0011846119 -0.01739208
000170 5b f1 01 3e 7f a7 d2 3d ec 6d b0 ba 81 b1 da 3d
       0.12689726 0.102858536 -0.0013460494 0.106783874
000180 47 fd d2 3d 4f 60 bb bd 02 da 1f 3e 99 e7 2d 3e
       0.10302215 -0.09149229 0.15610507 0.16982879
000190 82 c3 72 be 4a ad 2c be f9 42 3d 3e db fa a0 3c
       -0.23707393 -0.1686298 0.1848258 0.019650867
0001a0 8a 65 ee 3d 71 15 af 3d 02 47 dc bd 20 bc b3 bd
       0.11640461 0.085490115 -0.10755731 -0.08776116
0001b0 f5 a9 40 be 87 09 2a be af e7 56 3e 2f 35 58 be
       -0.18814833 -0.16605197 0.20986818 -0.21114038
0001c0 0f cf e7 3d 8b eb e9 3d af bd 68 3e d2 f7 78 be
       0.1131879 0.114218794 0.22728609 -0.24313286
0001d0 69 b6 ee 3d 72 f3 c2 3d 58 86 23 3e 79 c2 74 3e
       0.11655886 0.0951909 0.15969217 0.2390231
0001e0 d4 87 e7 3d 16 8f 7a 3d 23 dc 5b bd 42 4d 5c be
       0.11305204 0.061171614 -0.053676736 -0.21513847
0001f0 21 cd d0 3d f6 ce ce bd b3 fb 00 3e 39 0c 57 be
       0.10195375 -0.100980684 0.12596016 -0.21000756
000200 7b a7 aa bc 32 55 24 3e b1 bc e6 3c 41 49 1f bd
       -0.020831814 0.16048124 0.028166147 -0.03888822
000210 c4 e7 88 3d a9 c3 ab 3d d8 c4 4e be c1 ee bb bc
       0.06684831 0.083869286 -0.20192277 -0.022940995
000220 c8 50 e6 3d 2c 2e 4d 3e 40 5e 16 3e cf c9 17 3d
       0.112458766 0.20037144 0.14684391 0.037057694
000230 29 94 42 3e 21 be 26 3e 87 14 6c bd e6 be e5 3c
       0.19001831 0.16283466 -0.057636764 0.028045129
000240 93 23 74 bd c6 10 cc bd 78 48 3b 3e b4 6e d7 3d
       -0.05960424 -0.09964137 0.18289363 0.10519162
000250 02 78 5a 3e 0d ec c8 3d 3f eb f0 bd be d1 12 bc
       0.21334842 0.09810648 -0.1176362 -0.008961139
000260 b4 37 2d 3d 02 cc fe 3c 5f 0f 4b be a7 ed 4b bd
       0.04228945 0.031103138 -0.19830082 -0.04978719
000270 63 7f 32 bd 0b 96 5b be ef 79 38 be 61 9d 48 3e
       -0.043578517 -0.21443956 -0.18015264 0.19591285
000280 5b 83 72 be b5 7f 2b 3d 07 47 6f 3c 4b e3 5d be
       -0.2368292 0.041869838 0.014604337 -0.21668737
000290 fd fa 41 be 02 26 d5 bc c9 b4 82 be ba 86 f1 3c
       -0.189434 -0.0260191 -0.25528553 0.029483188
0002a0 da b1 12 3e 99 9e fc bd 25 ed 01 3d 69 b5 6c bc
       0.14325657 -0.123349376 0.0317203 -0.014447548
0002b0 64 a4 71 3e 71 ff 8f bc 63 65 f0 bd 82 f1 5f bc
       0.23597866 -0.017577859 -0.11738088 -0.01366842
0002c0 20 77 f6 bd 78 28 06 be 42 16 cb bd aa 63 d8 3c
       -0.1203444 -0.13101375 -0.09916355 0.026414711
0002d0 15 83 68 3e 95 2e 3a be 91 61 14 3d 3f 31 f6 3d
       0.22706254 -0.18181832 0.03622586 0.12021112
0002e0 da 2a 71 3e 4d 07 2c 3e 7c 08 2f 3e f9 0d 59 be
       0.23551503 0.1679966 0.1709308 -0.21196736
0002f0 83 35 55 3e 40 24 53 be 33 63 92 3d 55 e3 83 3d
       0.20821194 -0.20619297 0.07147827 0.064398445
000300 bb f5 a9 3d 1a 0b a6 bc 25 fd ec bb 92 22 ce bd
       0.082988225 -0.020268966 -0.0072323256 -0.100651875
000310 9b f7 4c 3e d4 43 18 be b3 a9 71 be 00 1e 81 3e
       0.20016329 -0.14869624 -0.23599891 0.252182
000320 a9 95 01 be 99 c4 47 be 5f 5b 34 be 2f a7 f8 bd
       -0.12654747 -0.1950859 -0.1761298 -0.12141263
000330 9c 10 2a 3e dc 2b 52 be ce a7 73 be 95 73 31 3e
       0.16607898 -0.20524544 -0.23794481 0.17329247
000340 f6 e9 5c be f5 6c 33 be bf 5d 39 bc 17 cb 5b be
       -0.21573624 -0.17522033 -0.011313855 -0.21464191
000350 b8 b7 4b 3e 8b 71 02 3e 42 68 6e 3e 04 f1 1b be
       0.19894302 0.12738626 0.23281959 -0.15228659
000360 e7 73 3f be e4 d7 fc bd ae f6 fe 3d e1 0a 54 3e
       -0.18696557 -0.12345865 0.12449394 0.20707275
000370 92 09 25 be 5e 96 e1 3d 4c 1a 0e 3e c5 c6 4e 3e
       -0.16116932 0.110150084 0.13877219 0.20193012
000380 61 f6 9d 3d 28 b4 5c 3e d5 92 05 be b1 6b 16 3e
       0.07713009 0.21553099 -0.13044293 0.14689519
000390 fb 8a 6d be 02 7f e5 3d b2 3f 30 bc 6e 2d 67 be
       -0.23197548 0.112058654 -0.010757374 -0.22575924
0003a0 d3 ef 92 bc c0 3c 2d 3e c9 9a a5 bc ff 8b 16 3e
       -0.017936623 0.16917706 -0.020215409 0.14701842
0003b0 3f d4 f2 3d 82 48 31 be 3c c1 e5 bd 90 97 42 3e
       0.11856889 -0.17312816 -0.11218497 0.19003129
0003c0 8e cf f5 3d d9 c9 17 3e 65 5b 0f 3d c3 e2 25 bc
       0.120024785 0.14823093 0.03499927 -0.010124865
0003d0 82 9b ad 3d 90 eb a2 bc ad a6 52 bd c2 f5 5c be
       0.084769264 -0.019887716 -0.051428486 -0.21578124
0003e0 34 b1 ac bd 07 a9 34 3c 33 9e 3b 3d d1 f3 04 3e
       -0.08432236 0.011026627 0.045805167 0.12983634
0003f0 fa 1c 92 3d 5d c7 b4 bc 56 f9 14 3e 5e db bb 3d
       0.07134433 -0.02206772 0.14548239 0.091727

lstm_p.weight_hh_l1 f4 [64, 16]
000000 92 73 45 3e a8 34 15 be b4 47 7d 3e 85 8e e4 bd
       0.19282368 -0.14570868 0.24734384 -0.11159996
000010 64 4e 4b bd cd 3c 41 be e5 56 83 3d 1e 0b 46 3e
       -0.049635306 -0.1887085 0.06413058 0.19340178
000020 cf 1e a3 bd 61 ee 24 3e 64 8b 8e bc f4 3f 74 3e
       -0.07964861 0.1610656 -0.017400451 0.23852521
000030 f7 fa 18 be a4 c1 c1 3b e5 35 3d 3e 15 ef 4f be
       -0.14939485 0.0059129763 0.1847759 -0.20306046
000040 94 92 fa 3d a6 6b 75 be 1c 3d 5c 3e a2 46 c5 3d
       0.12234989 -0.23966846 0.21507686 0.09632613
000050 70 99 42 3d a0 c3 6c be 40 66 82 3e 81 0b 38 3e
       0.04750961 -0.231215 0.25468636 0.17973138
000060 0d c3 6e 3e a7 78 57 be d2 b0 63 3e a7 fe 03 3d
       0.23316593 -0.21042119 0.2223542 0.032225277
000070 4a 45 1a 3e fc 79 80 be e2 5c 0d be fa 56 77 3c
       0.15065494 -0.25093067 -0.13804963 0.01509642
000080 9c f9 0d 3e 4c 45 78 be a3 9d 0a 3e 17 f3 ec 3d
       0.1386475 -0.24245185 0.13536696 0.11569803
000090 59 6a 30 be 1d 53 51 3e 7c f0 01 be 35 16 b9 3d
       -0.17228068 0.20441861 -0.12689394 0.09037439
0000a0 17 d4 35 be 80 01 1e be 7b 85 37 bd b5 83 98 bd
       -0.17756687 -0.1543026 -0.04480503 -0.07446996
0000b0 38 56 53 3d bd 73 5c bd 05 1b 03 be 58 e0 73 3e
       0.051595896 -0.053821314 -0.12803276 0.23816049
0000c0 0d 1f 50 bc 3a b2 59 be ea 1e 49 3e e7 54 53 3e
       -0.012702716 -0.21259394 0.19640699 0.20637856
0000d0 31 52 04 be 3a e9 2d 3e f4 54 dc bd 44 b6 42 be
       -0.12921979 0.169835 -0.10758391 -0.19014841
0000e0 2a fa 83 be f5 72 09 be 5a fe fe 3d d5 3b 84 3e
       -0.25776798 -0.13422759 0.124508575 0.25826898
0000f0 64 04 6f 3e f5 e5 b5 bc f3 98 3f bd a0 e1 e6 3b
       0.23341519 -0.022204379 -0.046776723 0.0070459396
000100 0e 59 59 3e 8f 31 3f be 48 b1 16 be 21 b0 b7 bb
       0.21225378 -0.18671249 -0.14716065 -0.005605713
000110 f7 60 64 be cb e5 02 3e f6 51 28 be 0f e9 8c bd
       -0.22302614 0.12782972 -0.16437516 -0.0688039
000120 55 4d 0c be f9 63 80 bc c9 08 63 3e 77 35 ad bd
       -0.13701375 -0.01567267 0.2217132 -0.08457463
000130 2f ef c1 bd 52 8a 03 3e 71 9b b1 bc 9a e4 47 bc
       -0.09469449 0.12845734 -0.021680566 -0.012200499
000140 25 bf 4f 3e ad 7d 9e 3d ad 33 aa bc 54 8e 62 3e
       0.2028776 0.077388145 -0.020776594 0.22124606
000150 bf b7 80 be 87 54 57 3e ca ef ad bd 3e 4a 2e 3e
       -0.25140187 0.21028338 -0.08493002 0.17020509
000160 71 0d 98 bd fc 31 52 be 83 d5 0e bc 01 04 62 3e
       -0.07424439 -0.2052688 -0.008717897 0.2207184
000170 52 66 e4 3c a3 62 4f be 26 8a 23 3e b4 4c 77 3e
       0.027880821 -0.2025247 0.15970668 0.24150354
000180 89 a0 5f 3e 57 a4 09 be 1c cd 45 be f9 d7 81 be
       0.21838583 -0.13441597 -0.19316524 -0.25360087
000190 e2 9f 31 bd 1b 1a 7c 3d bc c7 82 be d8 08 fc 3b
       -0.043365367 0.061548334 -0.2554301 0.007691484
0001a0 37 69 fb 3c e2 1f 34 3e 1f 2c 30 3e 26 06 e7 3d
       0.030689819 0.17590287 0.17204331 0.112804696
0001b0 a3 1a 6a bc 7f 76 7a 3e b9 80 2c bc a9 4c 50 bd
       -0.014288577 0.24459265 -0.010528737 -0.05085436
0001c0 cd 18 05 be bf d1 81 3d 96 49 2f be 67 b6 d1 3d
       -0.12997742 0.06338834 -0.17117915 0.102398686
0001d0 7b f9 5e be 7a 8f c9 3c 8e b9 4d bc 17 0d 2f be
       -0.21774857 0.024604548 -0.012556447 -0.17094837
0001e0 0b e9 4d 3e a5 04 48 3e d0 fd 21 3e da 28 44 3e
       0.2010843 0.19533022 0.15819478 0.19156209
0001f0 11 98 1d bc 8f bd 15 be b3 13 55 bd 68 a4 19 be
       -0.009618775 -0.14623092 -0.05202074 -0.15004122
000200 75 9f 03 be cc 68 07 3d 7f 8a 99 bd de 96 80 3e
       -0.12853797 0.033058926 -0.07497119 0.25115103
000210 be 09 25 3e f6 03 80 3e 07 86 e9 3d 7f 77 12 3e
       0.16116998 0.25003022 0.11402517 0.14303397
000220 15 f9 03 be 63 07 47 3e db 77 43 3e 2f 5f a3 3d
       -0.12887986 0.19436412 0.1908869 0.07977139
000230 23 17 a5 3d 6d 32 5e be 4f 3e 75 bc e1 a2 58 3e
       0.080610536 -0.21698923 -0.014968469 0.21155883
000240 bf 03 cd bd 0e 56 44 3e a3 37 d6 bd db 63 27 be
       -0.1001048 0.19173452 -0.104598306 -0.16346686
000250 47 36 0f 3e 71 f7 05 3e 01 0b b1 3d 34 d4 da bd
       0.13985549 0.13082673 0.08644677 -0.10685006
000260 ea 8b 28 3e a7 05 d5 bd 70 a5 0a 3e 37 a6 5f 3e
       0.16459623 -0.10401469 0.13539672 0.2184075
000270 bc fe f8 bd f1 f6 41 3e 63 bd 26 3e 1c cd 90 3d
       -0.12157962 0.18941857 0.16283183 0.070703715
000280 e5 59 d1 bd 59 42 7c bd 5a 51 08 3e 2d 2b c9 3d
       -0.10222224 -0.06158671 0.13312283 0.09822688
000290 e3 ba e8 3b b1 1f c5 bd 06 4d b6 3c 51 22 80 3e
       0.0071023568 -0.09625185 0.022253525 0.2502618
0002a0 c7 da 45 3e 47 5a 28 be 00 b5 81 3e db 51 22 3e
       0.19321738 -0.16440688 0.25333405 0.15851538
0002b0 c6 cf 84 3e 98 3e 78 bd 87 c0 a4 3d 67 f7 35 bd
       0.2593977 -0.06060657 0.08044534 -0.044425394
0002c0 ca c7 07 be e1 42 89 bd b6 ee 08 be ba ba 9e 3d
       -0.13259807 -0.06702209 -0.13372311 0.07750459
0002d0 7b 15 55 bd 28 e9 46 be 44 fc 90 bd df b1 5a bc
       -0.05202244 -0.1942488 -0.07079366 -0.013348072
0002e0 9c 95 f2 bd 47 28 19 be 4b a6 7c be 63 74 09 3e
       -0.11844942 -0.14956771 -0.2467281 0.13423304
0002f0 65 dc 02 3e 3c a8 7f be 44 1a dd 3d 6b 7c 4c be
       0.12779386 -0.2496652 0.107960254 -0.19969337
000300 81 7a e6 bd d5 01 27 be 4e 6b 9e bd af 9e 10 be
       -0.112538345 -0.16309293 -0.077353105 -0.14123033
000310 68 28 20 3b f3 8e 1b 3d f5 44 e6 bd 03 46 26 3e
       0.0024438147 0.037978124 -0.11243621 0.16237645
000320 12 35 d0 bd 9e 7f 95 bd ce 1f 91 3d 4b 9e 10 3e
       -0.10166372 -0.07299732 0.070861444 0.14122884
000330 61 cc 3a 3e d4 f6 ee 3d 21 f2 f3 3c 10 0b c2 bc
       0.18242027 0.116681725 0.029778542 -0.023686916
000340 a4 e5 2d be 48 fb 43 3e aa c5 f3 bb eb f7 2f 3e
       -0.16982132 0.19138825 -0.007439335 0.17184417
000350 50 3b 06 3e ef 08 11 3e ff 79 40 be e9 1b 0e 3e
       0.13108563 0.14163564 -0.18796538 0.13877834
000360 62 28 6a 3e d4 78 71 be cc 00 40 3e 4e 73 0a be
       0.22866967 -0.23581249 0.18750304 -0.13520548
000370 8d c9 03 be ec 8d 57 be 45 c7 75 be c8 3b 23 be
       -0.12869854 -0.21050233 -0.24001797 -0.15940773
000380 9b f3 43 be f0 17 31 bc 46 aa 08 be 1a 8d 10 bc
       -0.19135897 -0.01080893 -0.13346204 -0.008822704
000390 62 3a 31 3e 91 18 50 3e 5f 67 50 be c0 87 4a 3e
       0.17307428 0.20321871 -0.20351933 0.19778347
0003a0 ab 27 e6 bc 8e 4a cd bd 64 0a 87 3e 32 b9 44 be
       -0.028095087 -0.10023986 0.26375115 -0.19211271
0003b0 f9 c4 04 be 04 3b f9 3d a2 2b ef 3d d7 be fd 3d
       -0.12965764 0.121694595 0.11678244 0.123899154
0003c0 ec e1 60 be 56 37 29 be be 62 40 be e0 e8 2d 3e
       -0.21961182 -0.16525015 -0.18787667 0.16983366
0003d0 e6 4a e3 3d b2 fa ea bc 47 80 2b 3e 71 a7 84 3c
       0.1109827 -0.028683994 0.16748153 0.016193124
0003e0 63 c3 6f be 18 38 98 bd 12 4e 06 3e aa ab 32 bd
       -0.23414378 -0.07432574 0.13115719 -0.043620743
0003f0 be 36 dd 3d 47 14 86 3d 45 56 34 bd 19 02 44 be
       0.10801457 0.06546836 -0.044027586 -0.19141425

lstm_p.bias_ih_l1 f4 [64]
000000 cf 59 91 bd e3 e5 1f 3c 38 c3 a9 3c a0 23 76 be
       -0.07097208 0.009759399 0.02072297 -0.24037027
000010 2f 43 81 be 86 e4 86 3d 26 b2 0d be 3c 95 3d 3e
       -0.2524657 0.06586556 -0.1383749 0.1851396
000020 b6 2b 78 3d 2a 79 6b 3d f2 8b 7a be 98 45 ba 3d
       0.06058856 0.057488598 -0.24467447 0.09095305
000030 5a 53 21 bd fd 96 4e bd 19 ee 51 be b5 57 81 be
       -0.03938613 -0.050436962 -0.20500983 -0.25262228
000040 c7 d1 30 3e 6f cf 21 be 74 f9 fe 3c b3 9e 39 be
       0.17267524 -0.15801786 0.031124808 -0.18126945
000050 25 db 49 be 52 f9 f0 3d b5 a9 81 3d 42 ea f9 bd
       -0.19712503 0.11766304 0.06331197 -0.12202884
000060 50 43 dd 3d 82 e4 19 be 91 cd 32 be 65 d4 f8 3c
       0.108038545 -0.15028575 -0.1746123 0.030374715
000070 c4 fb 95 3c fe c0 57 be f9 88 1e be 30 32 10 be
       0.018308528 -0.21069714 -0.15481938 -0.14081645
000080 a2 76 8c bd d5 96 07 3e 30 f6 66 be f0 8b 2e 3e
       -0.06858565 0.13241132 -0.2255485 0.1704557
000090 13 c6 9e 3c 1f 6a b5 bc 2d 78 0b be cf ae 52 be
       0.019381559 -0.022145329 -0.13620062 -0.20574497
0000a0 8a 79 ad bd 59 1d 00 3e 80 c1 48 be 2b fb 60 3e
       -0.08470447 0.12511195 -0.19605064 0.21970813
0000b0 43 d3 26 be 16 83 1c 3e ca f2 64 be 5c 6e 6f be
       -0.16291527 0.1528438 -0.22358242 -0.23381943
0000c0 ad e1 c2 bd 00 6e 3f 3e 05 a1 cd 3d 6e cb 1b be
       -0.095157005 0.18694305 0.10040478 -0.15214321
0000d0 cb 2d 80 3d 05 d5 fb bd 69 f4 5d 3e 09 14 6e 3e
       0.06258734 -0.122964896 0.21675266 0.2324983
0000e0 4a 0f 57 3b e1 51 2b 3e 89 25 bf bd 77 e1 bb 3d
       0.003281551 0.16730453 -0.09333331 0.091738634
0000f0 af d9 03 3e 48 72 d6 3d c5 45 8a 3d 30 53 6a 3e
       0.12876008 0.10471016 0.06751589 0.22883296

lstm_p.bias_hh_l1 f4 [64]
000000 09 33 96 3d e1 7a 2a 3e 2e 54 d6 3d b8 c2 2b 3c
       0.07333953 0.16648437 0.10465275 0.010483436
000010 02 63 6e bd f0 95 44 3e 7c f0 5a 3e 80 4e 57 3e
       -0.05819989 0.19197822 0.213808 0.21026039
000020 fa 42 81 3d 2a 2e 0f 3e b2 4d 17 be c5 c8 1b be
       0.06311603 0.13982454 -0.14775732 -0.15213306
000030 cf 44 0e 3d f9 15 5c be 28 c7 08 be 73 d5 0e 3e
       0.03473359 -0.21492757 -0.13357222 0.13948612
000040 f2 e3 fa bd fd 74 28 be 5d 4a 75 be 01 ca 1d 3e
       -0.12250508 -0.16450877 -0.23954149 0.1540909
000050 41 bf 23 3e 2b 20 3d 3e 23 1e 3f bd 77 88 03 be
       0.15990926 0.18469302 -0.0466596 -0.12845026
000060 40 d1 65 3e ba da 23 be 63 2e 4e 3e 43 78 5a 3d
       0.22443104 -0.16001406 0.20134883 0.053337347
000070 f3 52 e0 bd 30 c6 b9 3d a5 da 17 be e1 e6 9a 3c
       -0.10953321 0.090710044 -0.148295 0.01890892
000080 f5 69 4d 3e 03 28 5a bd a3 eb 7f 3d cc d8 27 3e
       0.2005995 -0.053260814 0.06248058 0.16391295
000090 46 d4 93 bd 40 e3 1e 3e af 85 3a 3e f4 48 ff 3c
       -0.07218222 0.15516376 0.18215059 0.031162716
0000a0 fa 88 40 3e 98 1c 57 3e 94 bb 35 be 53 c1 eb 3d
       0.18802252 0.21007001 -0.17747337 0.11511483
0000b0 32 aa 98 ba bb f1 af bd 40 6e 49 3e ad ab d3 3c
       -0.0011647402 -0.08591028 0.19670963 0.025838697
0000c0 5c d1 38 bc cb 26 d1 3d 60 26 52 3d 2b 26 72 3c
       -0.011280384 0.10212477 0.05130613 0.014779608
0000d0 03 8e d0 3d fe f8 97 bc 2b 70 52 be de 44 c7 3d
       0.101833366 -0.018551346 -0.20550601 0.09729932
0000e0 ff 5a 40 bd bc d7 f5 bd ec 7b 1d be 66 93 00 3e
       -0.04696178 -0.12004039 -0.15379304 0.12556228
0000f0 71 83 b6 3d 65 a0 59 be da 8c 38 be dd 9e 30 bd
       0.08911789 -0.21252592 -0.1802248 -0.043120254

attention_p.attn_1.weight f4 [16, 16]
000000 ca 77 72 be 0a 38 3c 3e 61 25 83 3e 48 a4 c3 be
       -0.23678508 0.18380752 0.25614455 -0.38211274
000010 6b 65 54 3c 36 3d bf bd 8d 56 7c bc e1 2b d0 be
       0.012963633 -0.09337847 -0.015401495 -0.40658477
000020 66 53 92 be a9 97 d2 bd ed 44 9d 3d d3 be 99 3e
       -0.28579253 -0.10282833 0.07679162 0.300284
000030 a4 53 c9 3e 1a 6d 40 3d bf 62 01 be a9 06 d2 be
       0.39321625 0.046979047 -0.12635325 -0.41020706
000040 4e 18 93 be a0 27 a9 3e a0 83 41 3e c9 06 c4 be
       -0.2872948 0.33038044 0.18897867 -0.38286427
000050 f3 0c 7d be 69 04 85 be b3 eb 41 be b1 e4 6d 3e
       -0.24711971 -0.25979927 -0.18937568 0.2323177
000060 57 93 18 be 6f d1 ab 3e fb 43 aa 3e 39 e1 5c be
       -0.14899956 0.33558223 0.3325499 -0.2157029
000070 53 ff 89 bd e6 76 ab 3e 2f 04 4d 3e 98 a9 52 3d
       -0.06738152 0.3348915 0.20021127 0.05143127
000080 7f a5 8a bd 36 31 16 be 23 a6 51 bd 0d a4 63 be
       -0.06769847 -0.1466721 -0.05118383 -0.22230549
000090 9a 2c 09 3e 0b 4b bd 3e 87 08 a7 bd 3d cd 5d 3e
       0.1339592 0.36971316 -0.08155923 0.21660323
0000a0 af ac ce 3e 7b b8 8f 3e 6d 05 fa bd 36 dc c0 be
       0.40366122 0.28070435 -0.12208066 -0.37668008
0000b0 96 59 81 be bf 81 d4 3d e9 1b 75 be dc 9f 8e be
       -0.2526366 0.103763096 -0.23936428 -0.27856338
0000c0 9c 3f d6 3e 23 1f f6 bd a6 8a 85 be 70 1a b9 3e
       0.41845405 -0.120176576 -0.26082343 0.36152983
0000d0 eb 7d 9a be 15 28 d0 3e bf 88 75 3e e8 9c a7 be
       -0.30174193 0.4065558 0.23977946 -0.32736897
0000e0 eb bb 9a 3e 4e a8 8c 3e 80 40 7a bd 16 d2 e5 be
       0.30221495 0.27472156 -0.06109667 -0.44886845
0000f0 8b ed 6f bd b1 bc cc 3e 48 27 e1 bd 04 f4 33 bd
       -0.058576148 0.3998771 -0.109938204 -0.043933883
000100 4f 80 a9 3e 3d ef ab be c8 54 30 be 1b 21 f9 3d
       0.33105704 -0.33580962 -0.17219841 0.121645175
000110 41 fa be be 6c de 87 3e 76 ce 79 3e 0c 27 23 3e
       -0.37300304 0.26536882 0.24395165 0.15932864
000120 9f 60 17 be 10 e1 b0 be 7f ce f1 3d 56 f9 aa 3e
       -0.14782952 -0.3454671 0.11806964 0.33393353
000130 e4 56 3d 3e 80 df af be 56 eb b4 3e 8a a9 5d be
       0.18490177 -0.34350204 0.35335797 -0.21646705
000140 ef 07 e2 be f2 63 26 3d 04 7b 93 3e d9 58 be 3e
       -0.44146678 0.04062266 0.2880479 0.3717716
000150 cc d4 c3 bd ec d9 a1 be 88 ce 57 3b c6 74 17 be
       -0.09562072 -0.31611574 0.0032929499 -0.1479064
000160 55 ee 16 bd 5b 04 ca 3d 70 d8 fb 3d 24 d8 48 be
       -0.036848385 0.09864112 0.122971416 -0.19613701
000170 d0 03 66 3d ed 07 16 3e 26 c6 98 be 5d f4 b7 3d
       0.05615598 0.14651461 -0.29838675 0.089821555
000180 1c e7 af 3e 9f fd 39 be 58 3e 30 3e 6a e1 07 3e
       0.3435601 -0.18163155 0.17211282 0.13269582
000190 35 06 b5 3e 66 a7 82 3e 0e 82 a0 be 9e 7d 08 be
       0.35356298 0.2551834 -0.31349224 -0.13329169
0001a0 d4 57 a1 bd 77 5b 5e be 7e c4 b0 3e d5 8d 4d bc
       -0.0787808 -0.21714579 0.34524912 -0.012546022
0001b0 b3 9b 04 be 01 2d b9 3e e0 91 1a be dc 23 8f be
       -0.1295002 0.36167148 -0.1509471 -0.27957046
0001c0 fd 8f 63 3e ea 16 b6 3e e3 ee ef 3c f6 ac 9f be
       0.22222896 0.35564357 0.029288715 -0.31186646
0001d0 e5 53 15 bd ea 3c d9 3e f3 73 fb bc d0 c0 84 3e
       -0.03645696 0.42429286 -0.030694937 0.25928354
0001e0 6e 9c 63 3e 3d e2 45 bd 86 d3 a9 3c bb e4 a1 bd
       0.22227642 -0.04831146 0.020730745 -0.07904955
0001f0 bc c8 94 be 67 39 7c be 8e 5f 7b 3e e5 f3 8d be
       -0.29059398 -0.24631272 0.2454817 -0.2772514
000200 3b 66 71 be 79 7a 8a be 1b 8e d1 3e 51 60 0a be
       -0.23574154 -0.27046564 0.4092873 -0.13513304
000210 9c ea 4b be 0c 22 b3 3e fe 29 18 3e d4 f9 c1 be
       -0.19913715 0.34986913 0.14859769 -0.37885916
000220 bd fb d1 3e 30 0a 5a 3e 93 51 06 3e 6c 30 bf bc
       0.41012374 0.21292949 0.13117056 -0.023338519
000230 2b 7e da 3d 4d b7 0c be 2f b0 98 3e dd 4c f9 3d
       0.10668596 -0.13741799 0.29821917 0.12172864
000240 9b 74 c9 3e 1b d1 06 3e a7 d7 07 bd cf 9f 57 3e
       0.39346775 0.13165705 -0.033164646 0.21057056
000250 6e 81 ad bd e2 38 0e 3e 80 31 c5 3d 68 18 ac 3e
       -0.084719524 0.13888887 0.09628582 0.3361237
000260 a3 ac 96 be 35 36 65 ba e0 68 67 be 4d 86 94 3e
       -0.29428586 -0.0008743734 -0.225986 0.29008713
000270 05 37 12 be fe d2 5a 3e 95 34 4b 3e 5f 2c ff bd
       -0.14278801 0.2136955 0.19844277 -0.12459635
000280 d6 e0 06 bd 24 07 86 3e 96 b2 a4 be 93 f5 cb 3e
       -0.032929264 0.26177323 -0.321675 0.39835796
000290 09 92 9b bd 90 d2 07 be b2 49 95 b9 dc c9 8d 3c
       -0.07596213 -0.13263917 -0.00028474402 0.017308168
0002a0 74 b2 ab be f5 3d f5 bc 00 97 9c 3e cb e1 31 be
       -0.33534586 -0.02993677 0.30583954 -0.1737129
0002b0 8b e7 87 3e 4c 77 ca be 35 8b bf 3e 66 5a a1 be
       0.2654384 -0.3954414 0.37410894 -0.3151428
0002c0 d9 06 85 be 5f c6 24 be 9e 7e 2d be 38 f8 ab bd
       -0.25981787 -0.16091298 -0.16942832 -0.08396953
0002d0 ca 36 99 be 34 02 7b 3e ba ba 4c bd a0 f6 c4 3e
       -0.29924613 0.24512559 -0.049982764 0.3846941
0002e0 43 df d3 3e bf d0 b3 be eb 7c 4a 3e e9 16 a0 3e
       0.41381273 -0.35120198 0.19774215 0.3126748
0002f0 79 d8 32 3e 97 84 16 bc 93 13 99 be 35 33 d4 3e
       0.1746539 -0.009186885 -0.29897746 0.41445318
000300 df 4f e0 3d 34 a4 a4 3e ef a9 ea bd d8 5a 1d 3e
       0.10952734 0.32156527 -0.114581935 0.15366685
000310 45 fe 45 be 6f 7b d3 be 4f f4 57 bc 9e 9f d8 3e
       -0.19335277 -0.4130511 -0.013180806 0.42309278
000320 e4 64 20 3d ff 97 e5 be 81 79 1d b9 dd 6f 84 3e
       0.039158717 -0.44842526 -0.0001501795 0.25866595
000330 8b d6 ad be 2d 2e e0 3e 42 b6 84 3e 9b 33 27 be
       -0.33952746 0.4378523 0.25920302 -0.1632828
000340 7a a9 0f 3e 27 6e 85 3e 7f 65 95 3e dd 96 95 bc
       0.14029494 0.26060602 0.29178998 -0.018260414
000350 e1 8c 1a bd 5f f2 4f 3e c4 bb dd 3d 27 75 f6 bd
       -0.03773201 0.20307301 0.10826829 -0.12034064
000360 03 4a cf 3c 1d 34 ab be 34 94 b7 be 05 68 bd 3e
       0.025303846 -0.33438197 -0.35855258 0.36993423
000370 2a 9b dc be 51 e0 7f be 5e 91 b7 be f5 99 0f 3e
       -0.4308713 -0.24987914 -0.35853094 0.14023574
000380 1d d4 a2 3e c1 62 25 bd a4 85 bd 3e 76 2a dc 3e
       0.31802455 -0.040377382 0.37016022 0.43001145
000390 86 76 4d bd c9 04 ba be b6 a9 69 be 36 ec 9f bc
       -0.05016186 -0.36331776 -0.22818646 -0.019521814
0003a0 3c b2 f2 bd a4 57 90 be 05 93 06 be 3f 6e cf bd
       -0.11850402 -0.28191864 -0.13142021 -0.1012845
0003b0 71 14 88 be b7 56 c1 be 95 61 9f 3e b8 6b d0 bd
       -0.26578096 -0.3776147 0.31129137 -0.10176796
0003c0 4d 87 ca 3d 4b f9 36 be 1d c4 a3 be 0f 14 6b bd
       0.09889088 -0.17868535 -0.3198556 -0.057392176
0003d0 e8 be 81 3e 58 d9 d3 3e 1c 72 88 3d 54 1e 93 be
       0.25340962 0.41376758 0.0666239 -0.28734076
0003e0 ed 5e ee bd 18 96 3e be 70 57 b3 bd d9 60 9e bc
       -0.116391994 -0.18611944 -0.08756912 -0.01933329
0003f0 c8 96 c0 bd 1d c4 44 be 3b 40 94 be 33 9e d2 bd
       -0.09403759 -0.19215436 -0.28955254 -0.1028408

attention_p.attn_1.bias f4 [16]
000000 11 e7 cc bb 43 0f 72 bc 96 bc 81 3c aa aa 88 bc
       -0.006253131 -0.0147741465 0.015836995 -0.016682941
000010 3d ad fa 3b 23 18 82 bb f5 f7 fc ba 4a 57 a8 bc
       0.007650046 -0.0039701625 -0.0019299971 -0.020549435
000020 9d 3d 6b 3c 57 06 51 bc fc b5 75 3c 37 47 7b bc
       0.0143579515 -0.012757859 0.014997002 -0.015336803
000030 c7 66 73 3c 29 71 66 3c ac b2 63 bc 07 4f a0 bc
       0.014856047 0.014065065 -0.013897579 -0.019568933

attention_p.attn_2.weight f4 [1, 16]
000000 f1 19 e6 be 6d 25 b4 be 89 45 dd 3d a4 61 33 be
       -0.44941667 -0.35184804 0.108042784 -0.17517716
000010 6d ff 85 be e8 16 c3 3b 1d 86 be 3e a3 79 8c be
       -0.26171437 0.0059536584 0.37211695 -0.2743655
000020 24 0e 80 3e 9e e9 b9 be 5f 71 90 3e 1a d6 32 be
       0.25010788 -0.36311048 0.28211495 -0.17464486
000030 c4 54 88 3e e2 45 d3 3e 37 3f 1b be 76 1c 9e be
       0.2662717 0.41264254 -0.15160833 -0.3088109

lstm_t.weight_ih_l0 f4 [64, 7]
000000 55 c3 3a be da 77 c6 bd 73 4b de bc a9 00 b1 bd
       -0.18238576 -0.096908286 -0.027135586 -0.08642704
000010 84 9c 43 3e 08 fc 54 be 73 16 40 3e f9 98 75 3c
       0.19102675 -0.20799267 0.18758564 0.014990085
000020 4f 8e 68 3e 39 b1 8f 3d 31 68 50 be 4f 5f 73 3e
       0.22710536 0.070162244 -0.20352246 0.23766826
000030 27 87 8f 3d ea cb f4 3d 7d 0c 3e 3e e1 8a 6a bd
       0.070082 0.11952956 0.18559451 -0.05726135
000040 6a c3 0d 3d a2 c5 af bd 21 5d 0a 3e 3d c3 3a 3c
       0.03461019 -0.08582617 0.13512088 0.0113990875
000050 9a 48 b6 3d bf 3b 24 be 3f 15 ae bd c0 74 c6 bd
       0.089005664 -0.16038416 -0.08500146 -0.09690237
000060 97 94 12 be b0 f5 4b 3e e6 50 31 be 2e 38 24 3e
       -0.14314495 0.19917941 -0.17316017 0.16037056
000070 f2 96 64 be e6 a9 4f 3e cc 6b 82 be 84 3c 2d 3e
       -0.22323206 0.20279655 -0.25472867 0.16917616
000080 4e 36 5f bb 26 b1 98 bd 2f 2b 0e be 28 02 1d 3e
       -0.0034059468 -0.074556634 -0.1388366 0.15332854
000090 0f ee 8a 3d 87 f1 e9 3d ae 4a 80 3d 73 ae 03 3d
       0.06783687 0.11423021 0.06264244 0.03214879
0000a0 8d 67 4b 3e 6d 4f d3 3d 3c 8c 52 3e 64 ef 3c be
       0.1986372 0.10317884 0.20561308 -0.18450695
0000b0 86 6d 2b bd 65 99 62 bd a1 52 c6 3d 02 f9 78 3d
       -0.041852497 -0.05532207 0.09683729 0.060784347
0000c0 fc b3 14 be ab 54 df 3d b4 64 f3 bc 20 a6 2c be
       -0.14521784 0.10904821 -0.029711105 -0.16860247
0000d0 fe be 76 3e 6b 61 30 be eb 81 d2 bd 0c 27 68 3e
       0.24096295 -0.17224662 -0.10278686 0.22671145
0000e0 8d 91 50 bd c9 84 1d 3e f3 8c 93 bd 46 87 c4 bd
       -0.050920058 0.15382685 -0.07204618 -0.09596114
0000f0 20 5a 67 3e c0 63 75 be d3 4b 02 3d 1a 08 1f ba
       0.22592974 -0.23963833 0.031810593 -0.0006066576
000100 d4 ef 26 be 60 85 02 3d 10 9f b7 bd 23 62 88 3d
       -0.16302425 0.031865478 -0.08965886 0.06659343
000110 be ee 08 be 3d 6f 33 be ac 5d 6b be 5a b3 d1 3c
       -0.13372323 -0.17522903 -0.22984952 0.025598217
000120 f1 19 4f bb 8e d4 8b bd 0c 6b 45 be e5 a9 64 bb
       -0.0031601156 -0.06827651 -0.19279116 -0.0034891304
000130 01 b7 55 be c3 b0 72 3d ae de 55 bd 4d fb 17 be
       -0.20870592 0.059250604 -0.052214317 -0.14841957
000140 01 51 a2 3d 4d b7 44 be f6 e9 74 bc 4e c2 f6 3d
       0.079256065 -0.19210549 -0.014948359 0.120487794
000150 8f e2 52 3e 89 c4 c6 bd 79 e8 5b be cc f8 23 3e
       0.20594238 -0.09705455 -0.214754 0.16012877
000160 5e 40 f3 3c 6b 86 74 be 46 39 4d bc 3f 35 1e 3d
       0.029693779 -0.23879401 -0.012525862 0.038625
000170 aa e3 03 bd 0b a3 3e 3e ea cd 81 3d f4 0f 04 be
       -0.03219954 0.18616883 0.06338103 -0.1289671
000180 98 4c 98 bc 3a d8 73 3c 04 75 10 be 95 3c 12 be
       -0.01859121 0.014883095 -0.14107138 -0.14280923
000190 4b 9b 4d bd 0c f0 3e bd 88 3a 37 be d6 ca 44 3e
       -0.050196927 -0.046615645 -0.17893422 0.19218001
0001a0 f1 47 6c 3e 19 e3 30 be f3 69 04 3e dc b9 40 be
       0.23074318 -0.17274131 0.12931041 -0.188209
0001b0 64 ec 85 3d dc ce 80 3e 9d af 2b 3d f2 ff 3c be
       0.065392286 0.2515782 0.041915525 -0.1845701
0001c0 71 b1 a0 bc f1 2c 5a be 25 a0 66 be ed d2 b2 bd
       -0.01961586 -0.21306206 -0.22522028 -0.08731637
0001d0 2b 30 36 be 07 11 96 3d f9 b8 24 3d c5 da 63 be
       -0.17791812 0.073274665 0.040215466 -0.22251423
0001e0 09 22 0c bd 3a a1 74 3e 60 dd 39 3e 94 53 1b 3e
       -0.034212146 0.23889628 0.18150854 0.15168601
0001f0 36 c2 d5 3d fb 2b 3c be 39 e2 53 3e 99 3f 7b 3e
       0.104374334 -0.18376152 0.20691766 0.2453598
000200 43 47 66 bd 42 ec 50 be 77 d1 f7 bc ca bf a4 3b
       -0.056220304 -0.20402625 -0.030251248 0.005027746
000210 18 99 3d 3e 9e 95 01 3e 61 aa 3b be a3 48 02 be
       0.18515432 0.1265473 -0.18326713 -0.12723021
000220 81 ec 3d 3d 89 da 46 3e 9c ba b0 bb 54 6a 76 be
       0.046368126 0.19419302 -0.0053933393 -0.24063998
000230 bc bb d4 3d 6b 3e 7f bd 9a a4 77 3d 56 9a cc 3d
       0.1038737 -0.062315386 0.06045971 0.09990375
000240 4c 0e de 3d fa f5 a0 3a 22 cb 89 3d 90 20 b4 3d
       0.10842571 0.0012280338 0.06728198 0.08795273
000250 31 25 b8 bd f4 b9 81 3d d4 6c 29 3e d6 ed 3a be
       -0.08991469 0.06334296 0.16545421 -0.1825479
000260 8d b7 66 3d 8d 62 4b 3e c8 78 dc 3d 10 54 f2 bd
       0.05632739 0.19861813 0.10765225 -0.1183244
000270 78 27 87 3d ac 54 9f bb b3 fc 57 3e 4e 18 0a be
       0.06599325 -0.0048623886 0.21092491 -0.13485834
000280 fb 1b 00 3e 79 ed b5 3c b1 33 ae 3c de a8 ca ba
       0.12510674 0.022207962 0.021264883 -0.0015461703
000290 ec cd 52 be 9e 26 ce 3d 3c cd 1e be e0 8a 77 3e
       -0.20586365 0.100659594 -0.15507978 0.2417407
0002a0 f8 38 b6 3d f2 64 e4 bd 32 50 4e 3e 61 7a 39 3e
       0.08897585 -0.11152066 0.2014778 0.1811309
0002b0 ef ef 6a 3e 33 b2 f6 3d a4 06 4e 3d e3 cb 03 be
       0.2294309 0.120457076 0.0502993 -0.12870745
0002c0 a3 24 66 3e ea e0 f2 3d 73 4a ed 3d 7b 83 64 3e
       0.22474913 0.11859305 0.11586466 0.22315781
0002d0 68 48 2c 3e 84 cb 0b be 58 2c 3b 3e ab 02 9f 3d
       0.16824496 -0.13651854 0.18278635 0.07764181
0002e0 3d f9 f4 bd 4f b0 40 3e c1 a8 dc bd be 6a b0 bd
       -0.11961601 0.18817256 -0.10774375 -0.086141095
0002f0 64 01 28 3c b8 75 ec 3b de e5 31 3e 61 e3 01 be
       0.010254238 0.0072161816 0.17372844 -0.12684394
000300 0f ed 77 be fb 10 9f 3d 72 28 34 be 09 6a 64 be
       -0.24211524 0.07766911 -0.17593554 -0.22306074
000310 a3 4f 3f be 65 37 40 be 4c 6f 99 bd c2 aa 33 be
       -0.18682723 -0.18771131 -0.07491931 -0.17545608
000320 40 d6 20 3e 70 7b dd bd 92 e7 1f 3e f5 94 06 be
       0.1570673 -0.108145595 0.15615681 -0.1314276
000330 b0 bb 36 3e 31 22 47 3d 8a 17 65 be 50 7a bc bd
       0.17845035 0.04861659 -0.2237226 -0.09203017
000340 b2 c2 7c 3e 72 32 71 3e f5 be 2b 3e 30 63 34 3e
       0.24683645 0.235544 0.16772063 0.17615962
000350 cd f5 02 3d f6 80 63 be 0d 3e c7 bd 5a d6 53 be
       0.031972695 -0.22217163 -0.09728632 -0.20687237
000360 f5 d6 de 3d fe 5d 18 3e 18 73 b0 3d 22 a0 58 3e
       0.108808435 0.14879605 0.086157024 0.21154836
000370 93 06 15 bd 34 9e 0b 3e 8c 95 42 bc e0 6f 19 bd
       -0.036383223 0.13634568 -0.011876475 -0.037460208
000380 db 51 18 be d0 a7 11 be e8 72 34 3d 5b 56 f1 bd
       -0.14874975 -0.14224172 0.044054896 -0.11784049
000390 18 bf 2f 3d 34 87 d6 bd a9 7f 8d bc 19 22 39 be
       0.04290685 -0.10475007 -0.017272787 -0.18079413
0003a0 fe 9d 42 be 5d 8e e9 3d 32 f1 44 3e c3 4d 5b bc
       -0.19005582 0.11404107 0.19232634 -0.013385239
0003b0 b8 52 84 3d 08 f9 9e 3d f8 68 55 3e 58 92 da bc
       0.0646109 0.07762343 0.20840824 -0.02668111
0003c0 e3 27 72 3e 0c 1a 3c 3c 85 74 1e 3e 28 bb 8d bc
       0.23648028 0.011480819 0.15474136 -0.017301157
0003d0 df be ea bd 50 10 c5 3c 78 0d 49 be af c6 86 3d
       -0.11462187 0.02405563 -0.19634044 0.06580865
0003e0 ae 7a 10 bd 24 3d d6 3d dc e5 4f be 24 1f 5c 3e
       -0.035273246 0.104608804 -0.20302528 0.21496254
0003f0 02 05 7a bd 71 99 00 bd 01 76 e6 3c bc c3 50 3e
       -0.061039932 -0.031396333 0.02813244 0.20387167
