Params/dataset2_100_0.001_20_16_222_model.pt (torch, 46587 bytes, 31 tensors)

lstm_p.weight_ih_l0 f4 [64, 10]
000000 6c c7 d7 bd 98 8c ee bd 41 03 21 bd 89 f8 a5 bc
       -0.105360836 -0.1164791 -0.039309744 -0.020260112
000010 31 ef 59 3e c0 37 09 be f3 c3 8f 3d b1 99 2c 3e
       0.2128265 -0.13400173 0.07019796 0.16855504
000020 55 c4 ad bd b8 2d c1 bd 83 03 ed 3d 17 c5 e9 3c
       -0.08484713 -0.09432548 0.115729354 0.028536363
000030 26 e6 e4 3b ba 6c 74 3e 02 5d ba bb ad 87 08 be
       0.0069854436 0.23869601 -0.005687357 -0.13333006
000040 0c d4 47 bc e1 ae 39 3d 19 9e 54 3d 4a d9 b0 3d
       -0.012196552 0.045332793 0.051908586 0.086351946
000050 8d bb 7b 3c 9c 6b 0c 3d 6d cc 57 be f0 7a 3a 3e
       0.01536454 0.03428231 -0.21074076 0.1821096
000060 ed f3 1d be c7 91 c7 bd af 87 9c 3d 35 60 3d bd
       -0.15425082 -0.09744602 0.07643067 -0.04623433
000070 7d 80 22 3e ae 4c b5 3d cd 89 6f 3e bc 86 ab 3d
       0.15869327 0.08852516 0.2339241 0.08375308
000080 e1 18 70 3d 10 ed 51 3d c8 04 13 be 3b 93 49 3d
       0.058617476 0.05125147 -0.14357293 0.049212676
000090 00 00 cd 3d 24 c3 19 bd 3f 4c f0 bd 1f ea 07 be
       0.100097656 -0.037539616 -0.11733293 -0.13272904
0000a0 d2 5b 2c 3e 5d 04 3c be ed 83 86 3e e0 36 18 bd
       0.16831902 -0.1836104 0.26272526 -0.037161708
0000b0 78 af 73 3d 9b 5b 24 3e 86 0a 34 3e 2c 6d 83 3d
       0.059493512 0.1605057 0.1758214 0.06417307
0000c0 86 34 58 be 3b f3 af bb bb ec d5 bd 5e 85 56 be
       -0.21113786 -0.0053695715 -0.104455434 -0.20949313
0000d0 a4 be ab bd 7a a1 da 3d 72 1e cf 3c 7b 11 5e 3e
       -0.08385971 0.106753305 0.025283072 0.21686356
0000e0 d9 bb 13 be 93 a5 ea 3d f9 40 47 3e 7f 8d 2a be
       -0.14427127 0.11457362 0.19458379 -0.16655539
0000f0 49 32 69 3e 3c 4b eb 3d fd 1a 7c bc b1 d2 7b bd
       0.22773089 0.11488959 -0.015387294 -0.061480228
000100 ce 5f fc bd c2 81 5b 3e b0 d9 b9 3d b0 6f 4f bc
       -0.12322961 0.21436217 0.09074724 -0.012660906
000110 9b 30 77 3e 69 3f fb bd a6 cc d9 bd 6b af 02 be
       0.24139635 -0.12267954 -0.10634737 -0.12762229
000120 f2 74 7a 3e a8 2e 4e be e1 8a b8 b8 3f d6 f9 bc
       0.24458674 -0.20134985 -8.799672e-05 -0.030497668
000130 63 1b 4c bd df 71 65 be eb fe d6 3d 9a 60 47 bd
       -0.049830806 -0.2240672 0.104978405 -0.04867611
000140 1f 04 66 be dc 0c 90 bc 19 01 3f be be f4 82 3d
       -0.2246251 -0.017584257 -0.18652762 0.06394337
000150 d5 f2 d8 3d df ab 00 be d7 58 57 3e 6b 87 04 3d
       0.105931915 -0.12565564 0.21029983 0.032355707
000160 ab 00 68 be 0b f9 7a 3c 16 bf 82 3c f1 dd 06 3e
       -0.22656505 0.0153181655 0.015960258 0.13170601
000170 fe 4d 5e be 7c 6d 23 3d be 89 02 be 2b a6 43 3d
       -0.21709439 0.039899334 -0.12747857 0.047765892
000180 7c 7b 30 be 25 a4 0f 3d ca a6 51 be 1e 50 a8 3d
       -0.17234606 0.03506865 -0.20473781 0.08218406
000190 5b 71 28 3d 10 40 37 3e b2 b8 73 3e 19 57 8a 3d
       0.04112373 0.17895532 0.23800924 0.06754894
0001a0 0d 6e d9 bd fe 04 b5 bd 3c 7b 05 3e 22 fb ff 3d
       -0.10616694 -0.08838843 0.13035291 0.12499072
0001b0 ce a0 86 bb d4 27 2e be 0f a9 06 be 7f 5f f3 3c
       -0.004108525 -0.1700738 -0.13150428 0.029708622
0001c0 ad fb ca 3d 78 cc 0d 3e 9f fb 0a 3e a0 2a 2f 3e
       0.099112846 0.1384753 0.13572548 0.17106104
0001d0 fe 92 6b bc 1d f0 13 3e 74 e7 90 3d 8e 1e 6b 3e
       -0.014378307 0.14447065 0.07075396 0.22960874
0001e0 0c 4d 0c 3e 39 3e 57 3c d3 ca d1 3d 5a 78 68 bd
       0.13701266 0.013137394 0.10243764 -0.0567554
0001f0 f0 ba 67 be 0d 4b 91 3d cb 92 5c 3e 04 65 c9 3d
       -0.22629905 0.07094393 0.21540372 0.0983372
000200 13 46 12 bc 31 7e 6c be 6d d1 3e be d2 28 b8 3d
       -0.00892784 -0.23095013 -0.18634577 0.08992161
000210 69 ae a7 3d b4 ca 0e 3e 63 c4 0d 3e 9c f4 78 bc
       0.08187563 0.13944513 0.13844447 -0.015195038
000220 63 57 5d be 85 e6 cf 3d 8b fe 49 be 6d 02 69 3d
       -0.21615367 0.1015139 -0.19726007 0.05688708
000230 18 e0 91 bc ac cb 09 3e b3 ba 64 3e fd 44 5d bb
       -0.017807052 0.13456601 0.22336845 -0.0033763044
000240 78 75 11 3e 38 e7 04 3d 93 dc 15 3e be 33 cc bd
       0.14204967 0.03244707 0.14634924 -0.099708065
000250 23 a3 5d be af 46 99 bd 9a 9f 95 3c a8 e9 f1 3d
       -0.21644263 -0.07484185 0.01826458 0.118121445
000260 59 87 21 3e 94 0e 39 3b 54 cd ca 3d 86 7e 1d 3c
       0.15774287 0.002823745 0.099024445 0.009612685
000270 18 2c 68 3e 54 c5 c2 3d ad 93 cc 3c 6a e8 fa ba
       0.2267307 0.095102936 0.024972761 -0.0019142751
000280 79 8c 84 3d f0 cb 7e bd a9 8f 65 3e 10 84 08 3e
       0.064721055 -0.06220621 0.22418083 0.13331628
000290 3a 5b bc bd c1 21 af 3d 5d 9e fe bd de 1b 5f be
       -0.091970876 0.0855136 -0.12432549 -0.21787974
0002a0 5d 96 72 be c2 08 77 be d0 2a d8 bd 75 7d da bd
       -0.23690172 -0.24124435 -0.10555041 -0.1066846
0002b0 cf 24 46 bd 10 24 54 3e e2 e9 01 3d 3b 38 e6 3d
       -0.048374947 0.20716882 0.03171719 0.11241194
0002c0 89 32 2c 3d 52 60 8f 3d 12 a1 e1 bc de 3b a2 bb
       0.04204038 0.070007935 -0.027542625 -0.0049509844
0002d0 68 93 6a 3e 44 7a 3a 3e 13 12 a2 3b 2d 75 a3 3d
       0.22907794 0.18210703 0.0049460023 0.07981334
0002e0 b1 d6 fa 3d 3e 3f e9 3d 1a b2 06 3e 75 2f c6 bd
       0.122479804 0.113890156 0.13153878 -0.096770205
0002f0 54 7b ae 3d 4b c0 e4 ba cb a8 01 3e e4 67 11 bd
       0.08519617 -0.0017452327 0.12662046 -0.03549947
000300 18 62 19 3e db 13 35 be ba 61 25 3e 0c 16 b2 3d
       0.14978826 -0.17683356 0.16150561 0.08695611
000310 fa 10 16 3e 35 c6 8c 3c 69 f7 c9 bd ae 91 5f 3c
       0.14654914 0.017184356 -0.09861643 0.013645573
000320 d0 54 07 3e 18 fd 73 3d 50 2d 61 be 58 4c 4b be
       0.13215947 0.05956754 -0.21989942 -0.19853342
000330 ae 6d 71 3e 09 57 1f be 86 14 89 bd ac fa 2c be
       0.23576996 -0.15560545 -0.06693368 -0.16892499
000340 36 af ae 3d 7a e4 62 be 1d 4f 1f 3e 97 10 2e be
       0.085295126 -0.2215747 0.15557523 -0.16998516
000350 11 c4 73 be 9f 64 22 bd c1 7d 33 3d 3a 87 f7 bd
       -0.23805262 -0.03964674 0.0438211 -0.12086339
000360 d9 ad b5 3d ac 62 6d be 6c 92 4f 3e 19 ec 60 be
       0.088710494 -0.23182172 0.202707 -0.21965064
000370 02 b7 a3 3d bb 48 0f bd 94 31 ac bd 8c 9f 4d 3e
       0.0799389 -0.03498147 -0.08407894 0.20080394
000380 64 4e 5f 3e fb 5d 51 3e 46 cc 14 be 6b 42 32 be
       0.21807247 0.20446007 -0.14531049 -0.17408149
000390 d8 c2 58 be d7 02 09 3e 24 10 8a bb 79 4b 08 be
       -0.21168077 0.1337999 -0.00421335 -0.1331004
0003a0 6c cd ed bd 62 9a 00 3e f2 34 69 bd 6b 71 cd 3c
       -0.11611447 0.12558892 -0.05693526 0.025078496
0003b0 8b 9c 5b be ad 32 5d 3e 7e 01 9a bd e0 3b c3 3d
       -0.21446435 0.21601363 -0.07519816 0.095329046
0003c0 d2 31 57 be 02 49 38 3e 2b bb 4e 3e 97 3c 0b be
       -0.21015099 0.179966 0.20188586 -0.13597332
0003d0 08 ee e6 bd d3 8b 2c be ac 23 62 3e 83 d2 04 3e
       -0.112758696 -0.16850214 0.2208392 0.12970929
0003e0 c8 06 c0 3d 8e ac c8 3d a2 a8 2d be df 4b cc bd
       0.093762934 0.09798537 -0.1695886 -0.09975409
0003f0 b8 ad 3d be e1 01 9f bd 7d dd 4f bd 2d e0 29 3e
       -0.185233 -0.0776403 -0.050748337 0.16589423

lstm_p.weight_hh_l0 f4 [64, 16]
000000 3a d2 e5 bc 5e 01 ad bc 67 cc a0 3b 0a d0 85 3e
       -0.028054345 -0.021118816 0.004907179 0.26135284
000010 69 07 71 3e cd 1b 2a be 76 fe 45 3d c7 b7 5b 3d
       0.23537983 -0.16612168 0.048338376 0.05364206
000020 34 cd 0f 3e 44 73 5a bd 7a af d1 3d bc 2b 0a 3e
       0.14043123 -0.053332582 0.102385476 0.13493246
000030 ad 3c d0 3c d5 c0 5b 3e 63 e4 93 3d e1 8c 40 3e
       0.025419557 0.21460278 0.07221296 0.18803741
000040 69 87 33 3e 4c d2 77 be 39 ae f9 bd 99 48 13 bd
       0.17532124 -0.24201316 -0.121914335 -0.035957906
000050 82 18 25 3e 79 c5 44 be 79 4e 26 3e e6 45 e4 3d
       0.1612263 -0.19215955 0.16240872 0.111461446
000060 e3 3d 25 3d 0b a4 50 3e c3 31 9b 3c 64 bc 2c be
       0.040342223 0.20375077 0.018944627 -0.1686874
000070 3d eb 03 3e 30 01 5b be ac c4 5b be fe c6 8d 3d
       0.12882705 -0.21387172 -0.21461743 0.069227204
000080 e8 40 50 3e 89 e9 81 be cd 62 3c 3e 3a f4 45 3e
       0.2033726 -0.25373486 0.18397065 0.19331446
000090 ca 13 25 be fd 1e 5a be 59 60 b2 ba 88 5f 2c 3e
       -0.1612083 -0.21300884 -0.0013609036 0.16833317
0000a0 ae 8e f2 3c f2 58 34 be 9c 7b 89 bd 12 92 97 bb
       0.02960905 -0.17612055 -0.0671303 -0.0046255672
0000b0 34 a8 7e 3e 52 a7 c6 bd 14 66 35 be 17 62 8b bd
       0.24868852 -0.096998826 -0.17714721 -0.068058185
0000c0 ec 90 03 be 07 34 6d bc 74 70 58 3c ff f2 f2 bd
       -0.12848252 -0.014477736 0.013210405 -0.11862754
0000d0 b0 09 d1 3d 8e fd 62 be 4f fe 32 3e d8 05 90 3d
       0.10206926 -0.22167036 0.17479824 0.070323646
0000e0 0b a8 0b 3e 0b b7 69 bd d3 d4 99 3d 5b 09 a9 3d
       0.13638322 -0.05705933 0.07511296 0.082537375
0000f0 9e d1 5f 3c 7f c5 cf bd 38 6d 85 bd 80 18 29 3e
       0.0136608165 -0.10145091 -0.065149724 0.16513252
000100 32 6e 4f 3e 41 85 0f bc 43 f9 45 be d9 ec ae 3c
       0.2025688 -0.008759798 -0.19333367 0.021353172
000110 5f 19 70 be b8 44 bd 3d e1 29 c1 bd 25 92 a9 3d
       -0.23447178 0.09241623 -0.09431816 0.08279828
000120 31 99 0f be 80 3e ee 3d af ba 3f be 04 e0 3a 3e
       -0.14023282 0.11633015 -0.18723558 0.18249518
000130 d7 ff 3b 3e 63 7c 63 3e 09 94 9f 3d 2e c8 18 be
       0.18359314 0.22215419 0.07791907 -0.14920112
000140 68 45 c6 bb b2 30 1c 3e c6 91 11 be 4e 6a 35 be
       -0.0060507543 0.15252951 -0.14215764 -0.17716333
000150 a6 e8 c3 3d a3 4b 02 be 20 85 5e be 21 21 32 3e
       0.095658585 -0.12724166 -0.2173047 0.1739545
000160 34 49 1d 3e d9 0f 20 be 48 ed d8 bd 89 9d 2c 3d
       0.15359956 -0.15631045 -0.10592133 0.042142425
000170 14 30 f5 bd 08 8c 59 be 83 65 d4 3d ef 52 81 3d
       -0.11972061 -0.21244824 0.10370924 0.063146465
000180 8a 42 50 be 48 88 d7 3c b9 73 62 bc 38 84 0b be
       -0.20337883 0.026310101 -0.013821536 -0.13624656
000190 be ec 47 3e 63 68 9d 3d 21 07 84 3e dc 47 a7 bc
       0.19523904 0.07685926 0.2578669 -0.020420007
0001a0 98 84 0c be 9c d6 06 bc 87 5f 57 be 4a b8 83 3c
       -0.13722456 -0.008229878 -0.21032535 0.016079087
0001b0 41 6d 5c be 5c e0 39 3e c3 ff 50 bd d7 1f 17 3e
       -0.21526052 0.18151993 -0.051025163 0.1475824
0001c0 dd bf 1e 3e e3 20 5f be 81 34 7b 3e 53 6f 39 be
       0.15502878 -0.21789889 0.24531747 -0.18108873
0001d0 ec 6b 72 3e b7 fa ac bd 88 f9 41 3d f7 13 b4 3d
       0.23673981 -0.084462576 0.047357112 0.087928705
0001e0 08 2f 6d 3e e5 9d 2f 3e 35 59 13 3e 49 f1 7f 3d
       0.23162472 0.17150076 0.14389499 0.062485967
0001f0 2a 7a a0 bd 71 3a db 3c 08 61 fb bb c9 43 25 3e
       -0.07835801 0.026761265 -0.007671479 0.16139139
000200 34 ba 3f be 8d 85 22 3e 30 87 1a 3e db 4f 86 3e
       -0.18723375 0.15871258 0.15090632 0.262328
000210 16 5b 8a 3d 06 e6 5e 3e 45 fd 2b be 68 97 38 be
       0.067556545 0.21767434 -0.16795833 -0.18026507
000220 9c da cb 3c ae 53 cf 3d 1f ba 29 3e 2b c4 50 be
       0.024884515 0.101233825 0.16574906 -0.20387332
000230 a9 36 23 bd 5f 85 1a be a8 fb 88 bc a9 69 3a bb
       -0.03984705 -0.1508994 -0.016721562 -0.0028444326
000240 e2 d2 3b be a7 f8 fe bb 54 0b 38 be 3c 1e c9 bd
       -0.18342164 -0.0077811065 -0.17973071 -0.0982022
000250 4d 94 c3 3c bc 5a 32 3e f9 68 c5 3c 45 02 19 be
       0.023874426 0.17417425 0.024097906 -0.14942272
000260 04 4a 22 be 32 63 7f bd ac 6f 07 3d e2 f2 31 be
       -0.15848547 -0.06235046 0.033065483 -0.17377809
000270 24 24 6b 3e a4 fc d4 3d d3 48 56 3e 56 88 60 3d
       0.22963005 0.1039975 0.20926218 0.05481752
000280 22 a5 2f be 29 39 23 3e 51 4b 0a be 62 8a 59 3e
       -0.17152837 0.15939774 -0.13505293 0.21244195
000290 8f b9 83 3d ef 0a 34 3e bc fd 75 be 14 c6 af bd
       0.06431877 0.17582296 -0.24022573 -0.08582702
0002a0 03 7f 01 3e b4 fb 19 be ad b7 3f 3e db 80 a4 3b
       0.12646107 -0.15037423 0.1872241 0.0050202436
0002b0 ea 4c 49 be 66 fe e8 3d e6 a2 4f 3d 69 99 ec bd
       -0.19658247 0.11376648 0.05069246 -0.11552698
0002c0 b8 4e a6 bd 9e 4c b1 bb 72 46 9b bd 76 f8 72 3e
       -0.08120483 -0.005410745 -0.07581796 0.23727593
0002d0 22 ae 4d be 13 09 1c bb 9b 2b 2e be 7a 28 9c bc
       -0.20085958 -0.002380912 -0.17008822 -0.01906227
0002e0 cb 93 ff bd d8 2b 79 3e 3c d6 0e be a5 0c 5e 3e
       -0.12479361 0.24333131 -0.13948911 0.21684511
0002f0 79 62 97 bc f7 b9 83 3b 23 7f 9c bd 8b f6 77 bc
       -0.018479573 0.0040199715 -0.07641437 -0.015134464
000300 88 4c 89 bd e7 0b eb bd f6 bf 2f be d0 48 46 bd
       -0.0670405 -0.114768796 -0.17163071 -0.048409283
000310 a1 40 01 be 5d f0 1f 3d 2e 9d c0 bc 0b f1 10 be
       -0.1262231 0.039047588 -0.02351245 -0.1415445
000320 b4 c1 80 be 31 84 07 be 96 14 42 3e 67 ce df 3d
       -0.25147784 -0.13234021 0.18953165 0.1092804
000330 19 9c 1d 3e 8f 4f 58 bd 0e c2 31 3e 46 53 3b 3e
       0.15391578 -0.052810248 0.17359182 0.18293485
000340 0b d9 05 be 3e cf 00 be 37 f1 02 3e 1a de 12 3e
       -0.13071077 -0.12579057 0.12787329 0.14342538
000350 ee 16 a7 bd 2c d2 bb 3d ce 83 ac 3d e5 23 dd bd
       -0.0815867 0.091709465 0.08423577 -0.10797862
000360 9b a4 4a be 89 72 91 bd 49 d8 40 be 26 67 5c 3e
       -0.19789355 -0.07101924 -0.18832506 0.21523723
000370 fe d4 0d 3e 35 24 71 3e 9a 63 23 3e 96 63 c5 3d
       0.13850781 0.23548968 0.15955964 0.09638135
000380 89 54 eb 3c 6e d4 4a 3e be ba c4 3d db b5 9d 3c
       0.028726833 0.19807598 0.09605931 0.019251755
000390 5c 06 32 3e b9 05 59 3e dc b9 8f bd cf db 7b bd
       0.17385238 0.2119359 -0.07017872 -0.061488923
0003a0 58 86 0a bd e1 0f 3c be db bb 2f be fb b6 65 be
       -0.033819526 -0.18365432 -0.17161505 -0.22433083
0003b0 24 6b ee 3a 1d ac 40 bd 2a 26 00 3e 80 8c 8c 3d
       0.0018189889 -0.04703914 0.12514558 0.06862736
0003c0 23 37 fb bd c9 5b 8a 3d be 06 6b be ab 51 9e 3d
       -0.12266376 0.06755788 -0.2295179 0.07730421
0003d0 bf 7a 1d 3e 5f af 1e be d3 51 22 3d b7 b1 b7 b9
       0.15378855 -0.15496586 0.039628815 -0.00035036888
0003e0 bb ad 79 3d dc dd 46 3e c3 1d 32 be 69 d3 30 be
       0.060956698 0.1942057 -0.17394166 -0.17268147
0003f0 d2 68 c1 3c ef cb 5d be fc e2 f8 bd 87 5e b8 3d
       0.023609553 -0.21659826 -0.12152669 0.09002405

lstm_p.bias_ih_l0 f4 [64]
000000 14 35 06 bd ea 19 5b be 02 19 3b be 14 6d 94 bd
       -0.032765463 -0.21396604 -0.18271258 -0.072473675
000010 5f 1b 0f 3e c2 42 84 bd 41 63 f4 3c be 1f 4e be
       0.13975285 -0.064580455 0.029832484 -0.20129296
000020 8f bc 3a 3e a7 e1 76 be 51 aa bd 3d c9 ce 64 3d
       0.18235992 -0.24109517 0.09261001 0.05586127
000030 5d 43 65 3e 37 e1 1a be fc f3 18 3e 8f 24 0a 3e
       0.22388978 -0.15124975 0.14936823 0.13490508
000040 63 e3 26 be 0a 42 41 3e 4c 25 35 be f7 4a 1e be
       -0.16297679 0.18872848 -0.17690009 -0.15458284
000050 94 f5 5f be 7c 70 3a 3e 38 28 b0 3d 6a c7 fa bb
       -0.21871024 0.18206972 0.08601421 -0.0076531665
000060 1f a0 8c bb a8 69 4d 3e e0 60 00 bd de 6a cb 3c
       -0.004291549 0.20059836 -0.031342387 0.024831232
000070 ac 9c 11 be 64 4f 3b be 3b 14 60 be 72 17 0d 3e
       -0.14219922 -0.18292004 -0.21882717 0.13778475
000080 68 06 df bd e1 5f 07 be 8f 65 2e 3e 4e 45 5e 3e
       -0.10889894 -0.13220169 0.17030929 0.21706125
000090 f5 66 b8 3c cb 31 a5 bd b7 9e 65 be ef 4f 53 be
       0.022510031 -0.08066138 -0.22423826 -0.20635961
0000a0 5c f2 d1 3d c9 62 0f be e5 8f 65 be 20 8c 50 be
       0.102513045 -0.14002527 -0.22418173 -0.20365953
0000b0 08 fd 32 bd 73 19 f0 3d a6 28 27 3e 5f 23 61 bd
       -0.04369834 0.11723604 0.163241 -0.054965373
0000c0 9b 6b 3f 3e ca 29 4f 3e 7e f0 f1 3d be 45 80 3e
       0.18693392 0.20230785 0.11813448 0.2505321
0000d0 39 fa 81 be 01 b1 53 3d 8b 5c 38 be 68 3c 90 bc
       -0.25386217 0.051682476 -0.18004052 -0.017606929
0000e0 02 63 34 3d 29 da b3 3d 11 77 34 bd 98 2e 3b 3d
       0.044039734 0.08781845 -0.044058863 0.045698732
0000f0 db 12 20 be 96 f9 35 3e 1e 1b ac bd 7e 6d 19 be
       -0.15632193 0.1777099 -0.0840361 -0.14983174

lstm_p.bias_hh_l0 f4 [64]
000000 14 06 83 be 42 5c d3 bc ad 7b be bd 3c c6 cf 3d
       -0.25590575 -0.025800828 -0.09300933 0.10145232
000010 79 04 c4 bc ae 53 4a 3d 1c 7d 28 be f6 00 60 3e
       -0.023927914 0.04939621 -0.16453975 0.21875367
000020 7f 35 92 bc cb 9d 3d be 8f 87 36 3e 39 2f 85 3c
       -0.017847775 -0.18517224 0.17825149 0.01625787
000030 63 da b2 bc 39 e3 01 be 1b db 78 bd 7e 60 50 3d
       -0.02183265 -0.12684335 -0.06075583 0.050873272
000040 20 ea e6 3d 35 c1 80 be f9 dc de 3c 4d 1a 9f 3d
       0.112751245 -0.25147405 0.027204977 0.07768688
000050 aa ae 02 3e 1f f3 91 3d d8 b7 b6 3d 0d 18 4b 3e
       0.12761942 0.0712645 0.08921784 0.19833393
000060 6b 11 b1 bd 4e 12 52 3d 25 1d b6 bd e7 74 19 3d
       -0.086459 0.051286988 -0.08892278 0.037465002
000070 94 58 fa bd 5f d2 b0 3d 79 dc 25 3d 73 38 69 3c
       -0.12223926 0.08633875 0.040493462 0.01423465
000080 c6 f8 7b be e3 31 26 3e 5b cd 6c be 11 52 3e 3d
       -0.24606618 0.16229968 -0.23125212 0.046464983
000090 0a aa 10 be 51 06 27 be 87 53 a6 b9 a7 24 1f be
       -0.14127365 -0.16311003 -0.0003172422 -0.15541326
0000a0 16 a5 10 be e5 46 11 be 49 47 24 3e ef 5f b7 bd
       -0.14125475 -0.141872 0.16042818 -0.08953845
0000b0 6b a7 d5 3d cd 0c 34 bd f6 77 4d be ec ff 03 3e
       0.10432323 -0.04395752 -0.20065293 0.12890595
0000c0 27 c5 0a be c8 9f 09 3e 93 b3 57 be b3 e7 6d be
       -0.1355177 0.13439858 -0.21064596 -0.23232917
0000d0 83 99 8b 3d cd e2 90 bd e1 4d 05 be 9b c5 69 3e
       0.068163894 -0.07074509 -0.1301799 0.22829287
0000e0 1d d5 5d 3e f5 a9 6c be 63 6d 41 3e d1 3b ff 3d
       0.21663328 -0.23111708 0.18889384 0.12462581
0000f0 b4 f2 b0 bd ff 2b bb bd 2a 87 b8 3d 5c 59 47 bd
       -0.08640042 -0.09139251 0.090101555 -0.048669204

lstm_p.weight_ih_l1 f4 [64, 16]
000000 48 74 2f bd bd c5 aa 3d 33 8b 59 3e eb 35 4d ba
       -0.042835504 0.08338497 0.21244507 -0.0007828164
000010 3e 74 32 be 33 7a d8 3d 6c 86 63 3e ce c9 5a 3e
       -0.17427155 0.10570183 0.22219247 0.21366045
000020 6f ce 60 3e b2 5d c6 bd c5 5a 0b be 1a cd 00 3e
       0.21953748 -0.0968584 -0.13608845 0.1257824
000030 19 6f a7 3d 4e 65 40 3e a1 3f 92 bd 6d 2b cd bd
       0.08175487 0.18788645 -0.071410425 -0.100180484
000040 8c 03 17 bd 43 db 44 3e 4e e0 9b 3d 2b c7 64 3e
       -0.036868617 0.19224267 0.07611142 0.22341602
000050 86 ce 07 be df 97 88 bd a6 6a 15 3e 6b 99 89 bd
       -0.13262376 -0.06669592 0.14591464 -0.06718715
000060 b8 ec 53 3e b6 85 47 bd 1b 07 30 3e a9 3c 1e 3e
       0.2069577 -0.0487115 0.1719021 0.15452828
000070 fc 0e 1d 3d e4 7d 89 bd eb da 07 be 19 0f 03 be
       0.03834437 -0.06713465 -0.13267104 -0.12798728
000080 5e dc 13 be d1 64 49 be e7 4f 47 3e 3c ab cd 3d
       -0.14439532 -0.19667365 0.19464074 0.10042426
000090 96 0e aa bd f7 bb 48 3e 4d ce af 3c cd 04 a3 3b
       -0.08303563 0.19602953 0.021460677 0.0049749375
0000a0 34 3a 1b 3e ed 7e 6c 3e 98 56 22 3e a3 7c bd bd
       0.15158921 0.23095293 0.15853345 -0.09252288
0000b0 90 f9 60 be f1 1f d6 bd b0 58 7f bd 56 a8 cc 3d
       -0.219702 -0.10455311 -0.06234044 0.09993045
0000c0 c1 0a 04 3e f8 66 7b be a4 f7 5f 3e 3d 28 84 3e
       0.12894727 -0.24550998 0.21871811 0.2581195
0000d0 c7 6e 94 bd 97 9b 46 3e 62 2e ed 3d 3d 0e 17 be
       -0.072476916 0.1939529 0.115811124 -0.14751525
0000e0 d3 dd d2 bd 46 6a 53 be 7d 96 5b 3e 6e d9 3d 3e
       -0.10296216 -0.20646009 0.21444125 0.18539974
0000f0 11 32 3f 3e da 65 0a 3e 00 38 0c 3e be 7a 27 3e
       0.18671443 0.13515416 0.13693237 0.16355416
000100 15 e8 a0 bd 7a ef ca bd 23 f4 4e 3e a1 0e 8c bd
       -0.07856766 -0.09908958 0.20210318 -0.06838728
000110 30 06 01 3e 9d bb ed bd 4c 8f 61 be 43 76 40 be
       0.12600017 -0.1160805 -0.2202732 -0.18795113
000120 ad f0 57 3e b3 79 52 3e b8 64 6b be f1 77 ac 3c
       0.21087904 0.20554237 -0.2298764 0.021053286
000130 25 68 70 3e b5 7f 16 be 4a 23 c8 bc 7d ca f5 3d
       0.23477228 -0.14697154 -0.02443089 0.12001512
000140 c4 22 24 3e a5 99 a2 bd c8 e4 92 bd 12 c6 21 3d
       0.16028887 -0.079394616 -0.07172543 0.039495535
000150 a4 25 31 3d 6b 25 31 bd a1 86 61 3e 79 cd 14 be
       0.043248788 -0.043248575 0.22024013 -0.14531507
000160 37 e8 e2 bd d8 e6 60 3e ff b1 39 bc a4 22 8e bc
       -0.11079448 0.2196306 -0.0113339415 -0.017350502
000170 d9 e0 01 3e f8 ea cb 3d 1d 28 67 3c fe a2 da 3d
       0.12683429 0.09956926 0.014108685 0.106756195
000180 36 0c cf 3d 41 8f bd bd dd b5 20 3e f1 51 37 3e
       0.10109751 -0.09255839 0.15694375 0.17902352
000190 d9 89 76 be 05 34 2b be c5 3a 3e 3e c1 cb 9c 3c
       -0.24076022 -0.16719063 0.18577106 0.019140126
0001a0 be ef ee 3d ff a1 a8 3d 05 6f d5 bd 53 03 b6 bd
       0.11666821 0.08234023 -0.10421566 -0.08887353
0001b0 2b 48 40 be b7 24 27 be f2 6d 48 3e e5 1b 57 be
       -0.1877753 -0.163226 0.19573191 -0.21006735
0001c0 94 f8 e3 3d 95 e5 e6 3d c5 e6 69 3e 3d 50 6e be
       0.11131397 0.11274258 0.22841938 -0.23272796
0001d0 1c 9b e7 3d ce 47 c4 3d 8e 4f 23 3e 83 54 74 3e
       0.11308882 0.09584008 0.15948316 0.23860364
0001e0 d7 d9 e6 3d e8 e2 68 3d 07 7f 4b bd 89 4d 5c be
       0.112720184 0.05685702 -0.04968169 -0.21513952
0001f0 65 2d d2 3d 7c d8 c6 bd f4 fa d9 3d 0b 15 57 be
       0.102625646 -0.0970926 0.10643569 -0.21004121
000200 91 65 88 bc 30 0c 29 3e 21 e2 c2 3c 8d 51 57 bd
       -0.016649993 0.16508555 0.023789467 -0.052568007
000210 d4 cc 96 3d bc 43 b0 3d 76 bd 4b be 65 ad c8 bc
       0.073632866 0.08606669 -0.19896492 -0.024496743
000220 a7 d2 ed 3d 5c 4c 54 3e 73 04 0d 3e e0 35 0c 3d
       0.11612444 0.20732254 0.13771228 0.034231067
000230 be 1a 3f 3e c2 2e 20 3e f9 df 12 bd ca 49 fd 3c
       0.18662545 0.15642837 -0.03585813 0.030918974
000240 76 fd 7e bd dd 09 d0 bd 5e 1c 3e 3e 60 e5 ca 3d
       -0.062253438 -0.10158131 0.18565509 0.09907031
000250 e4 ae 62 3e db be c2 3d aa ea f4 bd cd 7d 9c bb
       0.22137028 0.09509059 -0.11958821 -0.004775739
000260 3d 3d 22 3d b9 b3 03 3d 4b 92 54 be 7a bf 42 bd
       0.039609183 0.03215382 -0.20758931 -0.047545888
000270 3c ae 27 bd 62 41 5c be f7 0f 2b be fd 5d 46 3e
       -0.040937647 -0.21509317 -0.16705309 0.19371791
000280 ac 2c 74 be 9d f1 24 3d 78 a6 7e 3c b8 52 53 be
       -0.23845166 0.040269483 0.015542619 -0.20637023
000290 28 09 46 be 1d b5 d4 bc f3 2b 83 be d9 88 ed 3c
       -0.1933943 -0.025965268 -0.25619468 0.028995918
0002a0 18 32 12 3e c2 06 03 be ad ac 14 3d 6e 14 62 bc
       0.14276922 -0.12795547 0.03629749 -0.013798816
0002b0 3d 85 72 3e 43 0b 5b bc 1f fe 06 be cd f1 6a bc
       0.23683639 -0.013369384 -0.13182877 -0.014339876
0002c0 ed fa f0 bd 10 2b 03 be ce 48 d0 bd 12 19 66 3c
       -0.1176661 -0.12809396 -0.101701364 0.014044063
0002d0 a4 b2 6e 3e ed 87 39 be 76 d3 1a 3d d4 68 f5 3d
       0.23310333 -0.18118258 0.03779932 0.11982885
0002e0 e5 32 73 3e 11 ee 31 3e 8f b5 27 3e 66 74 5a be
       0.23749883 0.17375971 0.16377853 -0.21333465
0002f0 ac 51 53 3e c2 a8 58 be 78 a0 b7 3d d4 d2 86 3d
       0.20636624 -0.21158126 0.08966154 0.06583181
000300 cb 16 a2 3d 5e c2 b2 bc e6 1e 82 bb 81 a0 b9 bd
       0.07914504 -0.021821197 -0.0039709685 -0.09063817
000310 71 a1 47 3e ed 48 15 be c9 85 6f be 46 9d 82 3e
       0.19495179 -0.145786 -0.23390879 0.25510615
000320 3a 1d 05 be f8 74 4d be 69 4a 31 be 63 6c fc bd
       -0.1299943 -0.20064151 -0.17313541 -0.123253606
000330 b5 87 2a 3e 87 52 4d be 53 cf 81 be 4a 85 33 3e
       0.1665333 -0.20051013 -0.25353488 0.17531314
000340 bf d7 55 be 3d 5d 2c be 4e f1 91 bc 6e ef 5f be
       -0.20883082 -0.16832443 -0.017815258 -0.21868679
000350 2d e5 40 3e 78 3e 0a 3e a2 ff 75 3e 4b 50 24 be
       0.18837424 0.13500392 0.24023297 -0.16046254
000360 f2 10 38 be 64 5e f1 bd 58 a8 04 3e 45 6b 4c 3e
       -0.17975214 -0.11785582 0.12954843 0.19962795
000370 0a c6 2c be 7c 4a d5 3d 30 77 0f 3e b4 65 56 3e
       -0.16872421 0.104145974 0.1401031 0.20937234
000380 89 69 9a 3d 8d 30 5c 3e 87 8c 05 be a4 31 18 3e
       0.075396605 0.21502896 -0.13041888 0.14862686
000390 bc f7 6e be de 49 e9 3d 87 61 e5 bb cb 3f 68 be
       -0.2333669 0.11391042 -0.0070001516 -0.22680585
0003a0 a3 ab 87 bc 37 5c 30 3e 94 8c 98 bc 0e 1a 13 3e
       -0.016561335 0.17222677 -0.01862172 0.14365408
0003b0 49 8d f3 3d 57 6b 34 be 60 f0 f3 bd b3 12 46 3e
       0.118921824 -0.17619072 -0.11911082 0.1934307
0003c0 8d 50 fa 3d a3 f0 19 3e 5e 23 03 3d 86 f3 9d bb
       0.12222395 0.15033202 0.03201615 -0.00482029
0003d0 58 d6 9c 3d f8 1c 83 bc bb 59 47 bd 64 19 60 be
       0.0765807 -0.016005024 -0.048669558 -0.21884686
0003e0 bf ca a6 bd 01 0f 23 3c b4 d0 58 3d 7a e3 01 3e
       -0.081441395 0.009952308 0.05293341 0.12684432
0003f0 37 ec 8c 3d 07 16 aa bc cd ad 0a 3e b2 d7 c1 3d
       0.06880992 -0.020762457 0.13542862 0.09464969

lstm_p.weight_hh_l1 f4 [64, 16]
000000 98 8a 47 3e 4f f3 12 be b2 72 77 3e 46 f6 e0 bd
       0.19486463 -0.14350627 0.24164847 -0.10984473
000010 95 f7 50 bd b0 0b 3f be 84 9d 85 3d d6 4a 44 3e
       -0.051017363 -0.18656802 0.06524184 0.19169173
000020 1d 4d 9f bd b2 1a 27 3e 12 a1 9d bc ad fe 71 3e
       -0.0777838 0.16318777 -0.019241843 0.23632307
000030 47 07 19 be 18 08 8f 3b a9 b1 42 3e 00 f3 50 be
       -0.14944182 0.0043649785 0.19013084 -0.20405197
000040 12 db fd 3d 00 97 73 be 71 44 57 3e 15 fb c7 3d
       0.123953 -0.2378807 0.21022202 0.09764687
000050 a2 d0 3e 3d 31 f7 6a be a5 b4 82 3e a9 c5 36 3e
       0.046585687 -0.22945859 0.25528446 0.17848839
000060 da 4e 70 3e 1b bc 55 be 55 4f 62 3e a7 e6 f8 3c
       0.2346758 -0.20872538 0.22100575 0.030383421
000070 e6 f7 1a 3e e8 18 81 be dc 4b 08 be 81 90 6e 3c
       0.15133628 -0.25214314 -0.13310188 0.01456082
000080 71 bc 0f 3e 34 95 76 be fc 7f 09 3e 26 92 ef 3d
       0.14036728 -0.24080354 0.13427728 0.116977975
000090 27 0b 31 be ca fc 52 3e 34 45 01 be 81 7f b6 3d
       -0.1728941 0.20604244 -0.12624055 0.08911038
0000a0 8f 41 34 be 33 7a 1c be b8 ca 3c bd 2b 7a 9b bd
       -0.17603134 -0.1528099 -0.046091765 -0.07591661
0000b0 0f 01 66 3d 3b bd 61 bd 97 34 02 be f8 11 72 3e
       0.056153353 -0.055112105 -0.12715374 0.23639667
0000c0 a6 62 35 bc 86 3b 58 be c7 07 49 3e b5 47 55 3e
       -0.011070883 -0.21116456 0.19631873 0.20828135
0000d0 cc d0 05 be ca 98 2f 3e 1d ee d8 bd 58 7d 44 be
       -0.13067931 0.17148128 -0.105922915 -0.1918844
0000e0 9c ff 82 be 01 cb 07 be 1d 93 fb 3d 60 6e 83 3e
       -0.2558564 -0.13261034 0.12283919 0.25670147
0000f0 67 37 6d 3e 9b 1d c6 bc 30 62 40 bd f7 ac 94 3b
       0.23165666 -0.024184039 -0.04696864 0.0045372206
000100 19 44 59 3e 5b 72 3f be 53 5d 18 be f1 d9 b6 bb
       0.21217383 -0.18695967 -0.1487935 -0.00558018
000110 37 0e 64 be e7 bf 02 3e 73 61 28 be 6f e6 8c bd
       -0.22271048 0.12768517 -0.16443424 -0.06879889
000120 29 49 0c be ac e8 81 bc c9 1b 63 3e 07 92 ac bd
       -0.13699783 -0.015858017 0.22178568 -0.0842629
000130 78 c4 c2 bd 0d 67 03 3e b4 21 a8 bc 97 eb 53 bc
       -0.0951013 0.1283228 -0.020523883 -0.012934587
000140 a7 aa 4f 3e 75 a7 9e 3d e0 af f3 bc 1e 5b 64 3e
       0.20279942 0.07746784 -0.02974695 0.22300383
000150 81 58 80 be e9 5d 57 3e 71 ec ab bd be b0 2e 3e
       -0.25067523 0.21031918 -0.08394707 0.1705961
000160 59 a2 98 bd 34 34 52 be 52 bc 0a bc 05 ec 5f 3e
       -0.0745284 -0.20527726 -0.008467751 0.21867378
000170 26 f3 f6 3c 48 f3 50 be f8 e6 2b 3e 81 71 78 3e
       0.03014524 -0.20405304 0.16787326 0.24262048
000180 04 8f 60 3e 51 e1 08 be 2b 90 45 be 60 56 81 be
       0.21929556 -0.13367201 -0.19293277 -0.2526121
000190 7b e5 34 bd c0 43 7f 3d 3b 24 82 be c9 8d d8 3b
       -0.044164162 0.06232047 -0.25418267 0.006608699
0001a0 a0 c0 01 3d d8 ee 34 3e 48 2f 2f 3e da b4 e5 3d
       0.031677842 0.17669237 0.1710788 0.11216135
0001b0 d0 f1 88 bc 1b 40 79 3e 83 f4 39 bc b8 e0 57 bd
       -0.016716868 0.2434086 -0.0113498 -0.052704543
0001c0 0f 3e 05 be b9 1d 81 3d 84 83 2d be ff 0d d2 3d
       -0.13011955 0.06304497 -0.169447 0.10256576
0001d0 0a 4d 5f be 92 2f c7 3c 9f ed 42 bc ad 3f 2f be
       -0.21806732 0.024314675 -0.011897474 -0.17114134
0001e0 f8 d8 4d 3e 4d c6 47 3e fd e4 21 3e f2 95 44 3e
       0.20102298 0.1950924 0.15810008 0.19197825
0001f0 5b 56 39 bc 81 03 16 be bd 0c 5e bd e0 97 1a be
       -0.011312093 -0.14649774 -0.054211367 -0.15096998
000200 c5 75 00 be 12 97 14 3d 50 fe a6 bd ae 1f 82 3e
       -0.12544926 0.036276884 -0.08153975 0.25414795
000210 87 1f 22 3e 81 a1 81 3e 6d 5c ee 3d 67 89 0f 3e
       0.15832339 0.2531853 0.116387226 0.14017259
000220 77 0a 01 be 36 43 4a 3e 99 60 40 3e f0 d9 9c 3d
       -0.12601648 0.19752201 0.18786849 0.07658756
000230 4f 4c a3 3d 69 e8 60 be b8 cc 0b bc 93 85 56 3e
       0.07973539 -0.21963657 -0.0085326955 0.20949392
000240 9b 63 d1 bd 9a 50 42 3e 86 d1 e8 bd 4f 1b 2a be
       -0.10224076 0.1897606 -0.113680884 -0.1661198
000250 79 64 12 3e 8a e0 03 3e c4 6f aa 3d dd 87 d5 bd
       0.1429614 0.12878624 0.08322099 -0.104263045
000260 02 5a 26 3e 70 5a d9 bd 2c 46 0d 3e b9 7b 61 3e
       0.16245273 -0.10612953 0.137963 0.22019853
000270 53 fb ef bd 75 90 44 3e 0f 38 30 3e 36 3f 97 3d
       -0.11717858 0.19195731 0.17208885 0.073851034
000280 18 b4 d2 bd a8 d7 7f bd e5 24 0b 3e 00 b8 c8 3d
       -0.102882564 -0.062461525 0.13588293 0.0980072
000290 79 d6 e7 3b 4f c5 c6 bd 70 7f b8 3c b7 46 80 3e
       0.0070751277 -0.097056024 0.022521704 0.2505395
0002a0 c6 3d 45 3e 91 1c 29 be f8 df 81 3e 75 4e 23 3e
       0.19261846 -0.16514803 0.25366187 0.15947898
0002b0 e3 24 84 3e b2 1d 77 bd 7e 60 9e 3d 12 a9 37 bd
       0.25809392 -0.060331054 0.07733248 -0.044838972
0002c0 c3 05 06 be 90 6a 85 bd 3f 67 0d be 9c f3 a1 3d
       -0.13088135 -0.06514466 -0.13808917 0.07907793
0002d0 db 8c 5a bd 62 fd 44 be 42 49 8f bd ec cc 71 bc
       -0.053356986 -0.19237283 -0.06996395 -0.01475833
0002e0 07 43 ef bd 7b 42 17 be b5 3f 7e be 6e 6a 07 3e
       -0.11682706 -0.14771454 -0.2482899 0.13224193
0002f0 ff e4 03 3e 23 85 80 be 37 ac e6 3d 64 15 4d be
       0.12880324 -0.25101575 0.11263316 -0.20027691
000300 33 b8 df bd 98 aa 23 be 91 a2 9c bd d4 30 10 be
       -0.10923805 -0.15983045 -0.076481946 -0.14081126
000310 60 ed 3c 3b 84 74 28 3d 47 4e df bd 00 20 23 3e
       0.002882801 0.041126743 -0.10903602 0.15930176
000320 e3 4c c7 bd 15 7b 8e bd 9c 5c 8c 3d 5e e1 0b 3e
       -0.09731462 -0.0695707 0.06853601 0.1366019
000330 8b f6 36 3e f0 45 e7 3d 62 bc fd 3c d5 c2 e3 bc
       0.17867486 0.112926364 0.030973617 -0.027802864
000340 25 50 26 be 35 85 4b 3e 80 7e 31 bc f9 f9 37 3e
       -0.1624151 0.19875033 -0.010833383 0.17966451
000350 c3 bd fc 3d 08 ab 18 3e 2d 91 38 be 4b 57 06 3e
       0.12340882 0.14908993 -0.1802413 0.13119237
000360 8e c5 71 3e 8c c4 69 be 62 25 38 3e 04 f9 11 be
       0.23610517 -0.22828883 0.1798301 -0.14255148
000370 5c 07 0c be db 58 5f be 2f 84 73 be f7 0d 2b be
       -0.13674682 -0.2181124 -0.23780893 -0.16704546
000380 a1 d0 40 be 77 35 fd bb 01 fd 09 be 81 55 dc bb
       -0.18829586 -0.007727321 -0.1347542 -0.00672406
000390 18 e2 2f 3e f6 37 53 3e 93 f8 4e be 28 24 48 3e
       0.17176092 0.20626816 -0.20212011 0.19545043
0003a0 d8 a6 cc bc f2 74 c7 bd 0e e6 85 3e 29 f1 47 be
       -0.024981901 -0.097391024 0.2615208 -0.19525589
0003b0 9f f5 01 be 93 15 f4 3d 83 a1 f1 3d 6a f6 f7 3d
       -0.12691353 0.119181775 0.11798384 0.12107547
0003c0 33 26 5e be 97 ab 26 be 7d ef 36 be 54 a6 30 3e
       -0.2169426 -0.16276394 -0.17864795 0.17250949
0003d0 35 fd dc 3d 35 ef d6 bc 02 3c 2f 3e ca 15 58 3c
       0.10790483 -0.02623711 0.17112735 0.013188789
0003e0 ee f4 6c be 57 03 93 bd bb 69 03 3e af 6e 3c bd
       -0.23140308 -0.071783714 0.12833302 -0.046003994
0003f0 83 27 d2 3d cc 1b 80 3d c9 a9 59 bd 83 e4 47 be
       0.102614425 0.06255302 -0.053140435 -0.19520764

lstm_p.bias_ih_l1 f4 [64]
000000 b2 60 8d bd c3 85 38 3c 28 61 c2 3c ec d9 74 be
       -0.06903209 0.01126236 0.023727968 -0.23911256
000010 a8 3b 81 be 96 db 86 3d bd 91 0c be 9d 8f 3d 3e
       -0.25240827 0.065848514 -0.1372747 0.18511815
000020 e3 e7 81 3d 3f 7d 62 3d f4 3e 7b be c9 1c bd 3d
       0.06343057 0.055295225 -0.24535733 0.09234006
000030 4a d0 19 bd b4 1e 30 bd 2f 5c 4e be 56 a6 7f be
       -0.037552156 -0.04299803 -0.20152353 -0.24965796
000040 10 f2 32 3e be 19 20 be 54 bc 0a 3d 77 05 38 be
       0.17475152 -0.1563482 0.03387101 -0.17970835
000050 eb d7 49 be 17 bb f0 3d 9d b6 83 3d 71 c8 f9 bd
       -0.19711272 0.117544346 0.06431315 -0.12196434
000060 87 0a e3 3d f2 11 1c be 46 82 33 be cb 08 03 3d
       0.11085992 -0.1524122 -0.17530164 0.031990808
000070 27 4b a5 3c fc 01 50 be 8e ea 1a be 2c 14 0d be
       0.020177437 -0.20313257 -0.15128538 -0.13777226
000080 03 77 88 bd 33 02 09 3e 76 8d 67 be 3c d0 2f 3e
       -0.06663325 0.13379745 -0.22612557 0.17169279
000090 ff 40 9e 3c a6 20 b9 bc a4 21 0b be 08 72 52 be
       0.019318102 -0.022598576 -0.13587052 -0.20551312
0000a0 0f 22 a7 bd 5b 0e fc 3d d5 0e 48 be f9 55 5f 3e
       -0.08160793 0.123074256 -0.19536908 0.2181014
0000b0 ca 4f 26 be 14 fb 14 3e 2f 38 64 be 3b 77 71 be
       -0.16241375 0.14548904 -0.22287057 -0.23580639
0000c0 18 84 be bd 50 2c 41 3e 8c 30 d3 3d 66 67 1a be
       -0.09302539 0.1886456 0.10311994 -0.15078506
0000d0 f5 1b 80 3d 8e 9e fb bd 2d ea 5e 3e 45 fc 6d 3e
       0.062553324 -0.12286101 0.21769018 0.23240764
0000e0 4b a0 c9 3b 1a 0d 29 3e 25 c0 c0 bd fb f6 be 3d
       0.0061531416 0.16508904 -0.09411649 0.093244515
0000f0 1c c3 05 3e 1d c3 e5 3d fe 2c 91 3d df 84 6d 3e
       0.1306271 0.112188555 0.0708866 0.23195218

lstm_p.bias_hh_l1 f4 [64]
000000 26 2c 9a 3d d8 04 2c 3e b4 7b dc 3d 6c 5e 40 3c
       0.07527952 0.16798723 0.10765782 0.011741262
000010 e7 26 6e bd 77 91 44 3e e5 10 5c 3e e1 48 57 3e
       -0.05814257 0.19196115 0.2149082 0.21023895
000020 04 15 87 3d 29 ef 0c 3e b4 00 18 be 1f 5d 1a be
       0.06595805 0.13763107 -0.14844018 -0.15074585
000030 de c7 15 3d ea 77 54 be 3f 35 05 be 90 de 11 3e
       0.03656756 -0.20748869 -0.13008593 0.14245057
000040 5a a3 f6 bd 4c bf 26 be 85 7a 72 be 3d 63 1f 3e
       -0.120428756 -0.16283911 -0.2367955 0.155652
000050 7b c2 23 3e 0c 01 3d 3e 42 04 3b bd 8d 77 03 be
       0.15992157 0.1845743 -0.045658357 -0.12838574
000060 d9 b4 68 3e 2a 08 26 be ae 79 4d 3e e3 16 61 3d
       0.22725238 -0.16214052 0.20065948 0.054953467
000070 1a 7f dc bd 24 44 c9 3d 3a 3c 14 be 17 d7 b3 3c
       -0.1076643 0.0982745 -0.144761 0.021953149
000080 cf 69 4f 3e 7f 7a 54 bd 93 8e 7d 3d 18 1d 29 3e
       0.20255207 -0.051874634 0.061903547 0.16515005
000090 8e f5 93 bd 65 6c 1e 3e 38 dc 3a 3e a4 97 00 3d
       -0.0722457 0.15471037 0.1824807 0.031394616
0000a0 ae b4 43 3e 6d 06 55 3e e9 08 35 be e3 76 e8 3d
       0.19111893 0.20803232 -0.1767918 0.11350801
0000b0 e5 d8 2d ba af 01 bf bd db 28 4a 3e 8f 64 c3 3c
       -0.0006631746 -0.09326493 0.19742148 0.023851661
0000c0 c0 e4 15 bc 5f a3 d4 3d 7c 45 5d 3d 69 33 84 3c
       -0.0091487765 0.10382723 0.054021344 0.016137796
0000d0 2d 7c d0 3d 4b 1f 97 bc 67 7a 51 be 4f 15 c7 3d
       0.10179935 -0.018447539 -0.20456849 0.09720861
0000e0 e8 97 34 bd 49 61 fa bd 44 49 1e be 32 1e 02 3e
       -0.04409018 -0.12225587 -0.15457636 0.12706831
0000f0 40 56 ba 3d f5 f7 51 be 3d 19 35 be 26 d8 23 bd
       0.09098482 -0.20504744 -0.17685409 -0.040001057

attention_p.attn_1.weight f4 [16, 16]
000000 1a 38 73 be 29 4d 41 3e 66 4c 82 3e f4 b2 c4 be
       -0.2375187 0.1887709 0.25448912 -0.3841778
000010 cd cd 77 3c 79 1c c2 bd 34 3a 83 bc 9b c3 cf be
       0.01512475 -0.09478087 -0.016018964 -0.40578923
000020 6b 22 92 be b3 80 d5 bd 44 91 a0 3d 91 2b 9a 3e
       -0.28541884 -0.10424938 0.07840207 0.30111364
000030 b5 d5 c7 3e 03 b5 40 3d d8 03 00 be fb bc d3 be
       0.39030233 0.047047626 -0.12501466 -0.41355118
000040 30 49 93 be dc 5f ad 3e 4c de 3f 3e 97 09 c5 be
       -0.28766775 0.33862197 0.18737143 -0.3848388
000050 90 e4 7a be c4 a7 85 be f0 76 42 be fd 8e 6e 3e
       -0.24501252 -0.26104558 -0.18990684 0.23296733
000060 8a e1 17 be 72 26 ab 3e 32 0c ab 3e 33 33 5c be
       -0.1483213 0.3342777 0.33407742 -0.21503906
000070 7c bc 8f bd be 67 ab 3e 79 5a 4e 3e d6 76 41 3d
       -0.070183724 0.33477587 0.201517 0.04723247
000080 cd 9b 89 bd 09 90 1b be 52 d0 4b bd 06 cc 61 be
       -0.0671917 -0.15191664 -0.049759217 -0.22050485
000090 d3 35 07 3e 4e e9 bd 3e 9b 32 a6 bd ec 30 5d 3e
       0.13204126 0.3709206 -0.08115121 0.21600693
0000a0 b2 6b ce 3e a5 5a 90 3e 21 d1 fc bd bf 36 c1 be
       0.4031654 0.28194156 -0.12344576 -0.3773708
0000b0 83 e0 7f be 9b a7 d4 3d 6b 42 76 be c3 d4 8c be
       -0.24987988 0.10383531 -0.24048774 -0.27506074
0000c0 8a 54 d6 3e bc d5 dd bd da 6f 86 be d3 07 b8 3e
       0.41861373 -0.10831782 -0.2625721 0.3594347
0000d0 1b 58 99 be 08 8d cf 3e b9 fc 74 3e df 53 a7 be
       -0.29950032 0.40537286 0.23924531 -0.32681176
0000e0 77 2f 9b 3e 51 ff 8b 3e 71 ca 73 bd 95 82 e5 be
       0.3030965 0.27343228 -0.059519235 -0.4482619
0000f0 fb 37 7c bd 1d a1 cc 3e aa 43 de bd 2e e6 48 bd
       -0.061576825 0.3996667 -0.1085275 -0.04904764
000100 d3 1e a9 3e 69 53 a9 be 7a 12 32 be 68 ce f4 3d
       0.3303133 -0.3307145 -0.17389861 0.11953431
000110 07 d9 bd be 67 23 87 3e b7 23 79 3e f8 fd 23 3e
       -0.3707964 0.26394197 0.2433003 0.1601485
000120 2a 00 17 be f4 9e b1 be ee 2f f5 3d ce 68 ab 3e
       -0.14746156 -0.34691584 0.119720325 0.33478397
000130 0b 53 3a 3e b5 d4 af be e8 9f b5 3e 21 1e 61 be
       0.18195741 -0.3434197 0.3547356 -0.2198415
000140 8b a4 e2 be f8 fd 11 3d 4f 78 93 3e 94 6c be 3e
       -0.4426616 0.035642594 0.28802726 0.37192214
000150 20 7d c4 bd bb 05 a2 be 1e 40 12 3b 2e 8d 16 be
       -0.09594178 -0.31644997 0.002231605 -0.14702293
000160 7e bf 1d bd 30 83 c9 3d 55 61 fc 3d 5d 23 48 be
       -0.0385127 0.09839475 0.12323252 -0.1954474
000170 46 5a 6c 3d dc 4b 17 3e da aa 98 be 2c 74 c0 3d
       0.05770328 0.14775032 -0.2981785 0.09397158
000180 91 41 b0 3e b9 43 3f be db f2 31 3e 64 00 0a 3e
       0.34425023 -0.18678178 0.17377798 0.13476712
000190 14 ea b3 3e 56 5d 83 3e b9 31 a0 be f2 49 09 be
       0.35139525 0.25657147 -0.31287935 -0.13407114
0001a0 33 29 a2 bd 31 e9 5c be a0 f1 af 3e df f5 5a bc
       -0.079180144 -0.2157333 0.34364033 -0.013364284
0001b0 f1 9d 01 be 1d 26 b9 3e 9c f2 1b be 35 65 8d be
       -0.12657906 0.3616189 -0.15229267 -0.27616277
0001c0 d1 a8 62 3e 96 98 b8 3e c1 ad e2 3c 16 be a0 be
       0.22134711 0.36053914 0.027670743 -0.31395024
0001d0 8e 79 0c bd a6 7b d8 3e 82 48 00 bd fe 2f 85 3e
       -0.03429561 0.42281836 -0.03131915 0.26013178
0001e0 26 f7 63 3e b9 d7 4b bd 87 43 b7 3c 9a 29 a0 bd
       0.22262248 -0.049766276 0.022371067 -0.07820435
0001f0 09 46 96 be 23 29 7c be b1 b2 7c 3e 81 a4 8f be
       -0.29350308 -0.24625067 0.2467754 -0.28055194
000200 7d 82 71 be 1f df 90 be 85 69 d2 3e b2 51 08 be
       -0.23584934 -0.28295228 0.4109613 -0.13312414
000210 d8 22 4e be 26 b8 b3 3e 8d b4 18 3e 1a 41 c2 be
       -0.2013048 0.35101432 0.14912625 -0.37940294
000220 73 7e d1 3e 33 55 5b 3e ca bd 04 3e 89 f5 c3 bc
       0.40916786 0.2141922 0.12963024 -0.023920791
000230 6e 3c e0 3d 02 77 0c be 4e fc 97 3e 9b f1 01 3e
       0.10949026 -0.13717273 0.2968468 0.12689821
000240 ac 2c c9 3e 51 4d 0c 3e be 2f 0e bd cd a3 55 3e
       0.39291894 0.13701369 -0.0347135 0.20863266
000250 95 52 a9 bd b7 eb 0c 3e 1f 2d c4 3d ec 6e ac 3e
       -0.082677044 0.13761793 0.09578919 0.33678377
000260 b3 6b 96 be 02 b0 0e bb 2d e5 65 be 43 e5 94 3e
       -0.29379043 -0.002177239 -0.22450705 0.29081163
000270 a7 1f 15 be 9b c7 5a 3e 02 79 4c 3e 46 32 03 be
       -0.14562856 0.21365206 0.19968036 -0.12812147
000280 2d 57 04 bd 18 83 83 3e a0 e9 a3 be 54 f1 cc 3e
       -0.0323097 0.25685954 -0.3201418 0.4002787
000290 f7 b9 9f bd cc 7d 06 be 6e 33 6c 39 9a 1d 88 3c
       -0.07799142 -0.13133925 0.00022525873 0.016615678
0002a0 e8 e8 ab be 5e 5d ea bc 5c d5 9b 3e 94 ab 32 be
       -0.3357613 -0.028608974 0.30436218 -0.17448264
0002b0 62 5b 89 3e 1d 78 ca be f1 ea be 3e ea a0 9f be
       0.26827532 -0.39544764 0.3728862 -0.31177455
0002c0 5e 5d 85 be 26 07 1e be 04 1b 2f be 82 fd af bd
       -0.26047796 -0.15432414 -0.1710015 -0.08593275
0002d0 5d 25 98 be ba a1 79 3e 17 0e 4f bd 5e 59 c5 3e
       -0.29716006 0.243781 -0.050550546 0.38544744
0002e0 eb 22 d4 3e a6 83 b4 be 19 13 4c 3e 40 78 a0 3e
       0.4143289 -0.3525669 0.1992916 0.31341743
0002f0 b1 fe 2f 3e 98 bb 16 bc b2 6b 98 be ec 46 d2 3e
       0.17187001 -0.009199999 -0.29769665 0.41069734
000300 94 44 df 3d ca 1a 9e 3e f7 01 e7 bd 30 85 1f 3e
       0.10901752 0.30879813 -0.11279672 0.15578151
000310 fb 52 48 be 38 e9 d2 be 95 ae 4e bc b0 5d d8 3e
       -0.19562905 -0.41193557 -0.012614866 0.42258978
000320 03 13 1c 3d 1c f0 e4 be 7e 79 e5 ba b9 24 84 3e
       0.03810407 -0.4471444 -0.0017507521 0.25809267
000330 72 57 ac be b8 52 e0 3e bb f6 83 3e 96 7a 21 be
       -0.33660465 0.4381311 0.25774178 -0.15769419
000340 82 76 10 3e 2c 71 81 3e dc 4b 96 3e a6 fa 83 bc
       0.14107707 0.25281656 0.2935475 -0.01611073
000350 ca dd 23 bd 4c 71 51 3e a0 42 df 3d 88 4c f8 bd
       -0.040006436 0.20453376 0.109013796 -0.12123972
000360 fb f3 ca 3c 15 71 aa be 02 79 b8 be ce fe bc 3e
       0.024774542 -0.332894 -0.36029822 0.3691315
000370 49 28 db be f9 ef 7f be a8 52 b8 be c4 9d 13 3e
       -0.42804173 -0.24993886 -0.36000562 0.14415652
000380 41 66 a2 3e 10 d8 0e bd ba 98 bc 3e 26 06 db 3e
       0.3171864 -0.034874022 0.3683527 0.42778128
000390 ff f0 43 bd be cc ba be 49 72 6a be d0 4f 98 bc
       -0.047837254 -0.3648433 -0.22895159 -0.018592745
0003a0 e6 ff f1 bd 40 22 91 be 0f c1 04 be 0c 91 cd bd
       -0.11816387 -0.28346443 -0.12964271 -0.10037431
0003b0 10 9b 89 be 5f 43 c1 be 9f 24 a0 3e bf 6d d7 bd
       -0.26876116 -0.37746713 0.3127794 -0.10518979
0003c0 9b f6 c8 3d ce bd 31 be 32 9b a4 be 30 92 73 bd
       0.09812661 -0.17357561 -0.32149655 -0.059465587
0003d0 34 da 82 3e ab 1f d3 3e 11 33 87 3d 99 b5 92 be
       0.255571 0.41235098 0.06601537 -0.28654173
0003e0 84 91 ed bd 7f 0a 40 be e4 07 b0 bd f8 af 97 bc
       -0.116000205 -0.18754004 -0.08595255 -0.018516526
0003f0 19 92 c6 bd fc b8 44 be 81 93 93 be 49 91 d9 bd
       -0.09695835 -0.19211191 -0.28823474 -0.10623414

attention_p.attn_1.bias f4 [16]
000000 10 f0 9b bb e5 ee 68 bc 11 1e 95 3c 4c e9 6f bc
       -0.0047588423 -0.014217113 0.018202813 -0.014643025
000010 b0 fe 1e 3b 8d 88 ea ba 6a 78 54 3b b2 92 08 bd
       0.0024260692 -0.0017893479 0.0032420405 -0.033343025
000020 a0 04 5b 3c d3 a2 59 bc 60 e9 dd 3c 40 9a 85 bc
       0.013367802 -0.013283449 0.027088821 -0.016308904
000030 6b f1 58 3c f5 a5 6c 3c 39 72 6c bc e8 b8 d9 bc
       0.013241152 0.014443864 -0.01443153 -0.026577428

attention_p.attn_2.weight f4 [1, 16]
000000 ae c6 e4 be 64 69 b4 be 61 7a d8 3d 22 e1 31 be
       -0.4468283 -0.35236657 0.10570217 -0.17371038
000010 da e7 81 be cb 47 fa 3b d8 78 bd 3e 61 af 91 be
       -0.253722 0.007637953 0.3700626 -0.28454116
000020 cf af 80 3e 57 ce b9 be d2 d4 8b 3e 32 0e 32 be
       0.2513413 -0.36290237 0.27310807 -0.17388228
000030 18 9c 87 3e 97 76 d3 3e 6b 84 1a be 76 fd a0 be
       0.26486278 0.41301414 -0.15089576 -0.31443375

lstm_t.weight_ih_l0 f4 [64, 7]
000000 75 5d 37 be 38 13 9e bd 28 86 6b bc 53 ef 9d bd
       -0.17906745 -0.077185094 -0.014375247 -0.07711663
000010 5c 8c 4a 3e e7 81 4e be 19 01 47 3e 44 07 87 3a
       0.19780105 -0.20166741 0.19434012 0.0010301848
000020 5f c9 5d 3e 57 b9 6e 3d 67 40 60 be 1c 93 64 3e
       0.21658848 0.058282223 -0.21899568 0.22321743
000030 3d e5 68 3d 3d 0b db 3d 27 7f 48 3e 15 ca 7f bd
       0.056859244 0.10695503 0.19579755 -0.06244858
000040 ef fb d2 3c e6 36 be bd 52 6c fb 3d ab a3 aa ba
       0.025754897 -0.09287815 0.1227652 -0.0013018748
000050 6b 22 9b 3d 85 63 0f be 5f 2d f3 bd 2c c9 d1 bd
       0.07574924 -0.14002807 -0.11873888 -0.102434486
000060 d5 c5 1a be ca 31 4a 3e 9b 14 34 be 30 06 28 3e
       -0.1511453 0.19745556 -0.17585985 0.1640861
000070 f3 9e 49 be ae 1e 52 3e b2 fa 80 be 80 ec 33 3e
       -0.1968954 0.20519516 -0.25191265 0.17570686
000080 dd b4 00 3b 52 14 8d bd 38 d3 08 be 14 4b 17 3e
       0.0019639053 -0.068886414 -0.13361824 0.14774734
000090 1f 5a 85 3d 47 ef f5 3d c3 1a 89 3d 42 2a 17 3d
       0.0651133 0.12008529 0.066945575 0.036905535
0000a0 d7 a9 4f 3e 6f 42 dd 3d 52 fd 4f 3e c5 30 50 be
       0.20279633 0.10803687 0.20311478 -0.20331104
0000b0 5b 75 33 bd 77 e2 71 bd 45 48 bd 3d 21 a2 66 3d
       -0.04381309 -0.059053864 0.092423 0.056306962
0000c0 5f 36 18 be 13 c9 00 3e a8 4d 22 bd 86 9f 38 be
       -0.14864491 0.12576704 -0.03962484 -0.18029603
0000d0 6a 3a 69 3e 2f 1f 40 be 54 6e f0 bd 51 3a 58 3e
       0.2277619 -0.18761896 -0.117397934 0.21115996
0000e0 34 35 8f bd b2 0f 2f 3e 57 33 58 bd 29 ba a0 bd
       -0.069925696 0.17095831 -0.052783336 -0.07848007
0000f0 54 ad 7b 3e ad c8 62 be fb f0 47 3d 2c 1e 8b 3c
       0.24577838 -0.22146864 0.0488138 0.01698216
000100 2a f9 29 be 0c 92 29 3d ed 2a a7 bd c2 ff a2 3d
       -0.16598955 0.041399047 -0.08162484 0.07958938
000110 d2 4c f5 bd da 92 25 be 03 b8 56 be 71 d4 58 3d
       -0.11977543 -0.161693 -0.20968632 0.052936975
000120 e1 fd 59 ba 07 8b 88 bd 69 84 48 be 2f e7 9e bb
       -0.0008315724 -0.06667142 -0.1958176 -0.0048493366
000130 13 dd 56 be 85 c3 96 3d ad ce 18 bd ac 0a 07 be
       -0.2098277 0.07361511 -0.037306476 -0.13187665
000140 5e 15 c2 3d 69 1c 32 be de 38 30 3b e7 c0 0d 3e
       0.09476732 -0.1739365 0.0026889364 0.13843118
000150 31 11 61 3e 17 06 b4 bd fc 61 54 be dd 8b 2d 3e
       0.21979214 -0.08790224 -0.20740503 0.16947885
000160 34 a9 1e 3d 1f 9c 6c be 8b ce 66 bb fd a2 de 3c
       0.038735583 -0.2310643 -0.0035218324 0.027177328
000170 e7 7b 4a bd 5c f9 34 3e 3a 46 6c 3d d5 c6 03 be
       -0.04943457 0.17673248 0.05768416 -0.12868817
000180 54 9a 90 bc 80 bb 77 3c 0e df bd bd 74 4e 08 be
       -0.017651714 0.015120387 -0.0927106 -0.13311177
000190 26 8c 2f bd cb 1d 23 bd 7f 2b 30 be 85 d8 4a 3e
       -0.042858265 -0.039823335 -0.17204092 0.19809158
0001a0 f0 fe 71 3e 15 15 43 be 97 b1 05 3e 9b 59 41 be
       0.23632407 -0.19051011 0.13056026 -0.18881838
0001b0 f2 0b 7f 3d 43 f9 7c 3e de 0c 15 3d 79 bc 41 be
       0.06226725 0.24704461 0.036389224 -0.18919553
0001c0 58 8c 93 bc a5 50 55 be 3e a9 59 be 2a d6 a0 bd
       -0.018011257 -0.20831545 -0.21255967 -0.078533486
0001d0 34 28 2f be ed 8e a4 3d 7c 38 42 3d d9 21 68 be
       -0.1710518 0.080350734 0.04741715 -0.22669162
0001e0 4d 98 50 bd d7 02 6b 3e 88 2e 2c 3e b6 e0 0f 3e
       -0.050926495 0.22950302 0.16814625 0.14050564
0001f0 72 9b c0 3d f2 3e 47 be df b2 58 3e 6e 3a 73 3e
       0.09404649 -0.19457605 0.21161984 0.23752758
000200 29 e4 7c bd 5d 09 57 be 44 54 17 bd 2a 7b 48 bb
       -0.061741028 -0.20999666 -0.036945596 -0.003059099
000210 6a 5d 34 3e 58 3d 19 3e 9c 48 50 be 1d 99 01 be
       0.1761376 0.14964807 -0.20340198 -0.12656064
000220 73 b2 46 3d 3b 58 4b 3e a5 f3 a6 ba d1 d9 70 be
       0.048510026 0.19857876 -0.0012737407 -0.2352059
000230 c4 81 c4 3d f7 7f 52 bd 44 7a 8b 3d 24 f7 e0 3d
       0.09595063 -0.051391568 0.0681043 0.10984638
000240 b3 af f1 3d d5 51 1c 3c 94 67 9b 3d 4d 9d a9 3d
       0.1180109 0.009540995 0.07588115 0.08281956
000250 b3 a1 d3 bd 9b 9a 47 3d ff dc 1e 3e 8d 1d 3c be
       -0.10333576 0.048731428 0.15513991 -0.18370648
000260 6e ef 5b 3d bc 34 4a 3e 78 ab dc 3d da 59 ea bd
       0.053695135 0.19746679 0.107748926 -0.11442919
000270 91 8c 8f 3d 6d f4 76 bb 7f a5 57 3e 20 3e 0a be
       0.07009233 -0.003768231 0.21059225 -0.13500261
000280 51 9c fe 3d d9 c0 89 3c be dd df 3c 88 f3 c1 bb
       0.12432159 0.01681559 0.027327415 -0.0059189238
000290 83 0b 5b be 2b d0 b2 3d 5a 75 29 be 5d 23 6a 3e
       -0.2139111 0.08731111 -0.16548672 0.22865053
0002a0 19 36 a9 3d ab ad d2 bd 0f 78 60 3e cf 03 4f 3e
       0.082622714 -0.10287031 0.21920799 0.20216297
0002b0 36 43 81 3e b2 ae 12 3e 8b c0 90 3d 10 49 e9 bd
       0.2524659 0.14324453 0.07067975 -0.11390889
0002c0 c1 43 72 3e f2 22 04 3e b2 b5 00 3e 3c b9 6f 3e
       0.23658659 0.12903956 0.12569311 0.23410505
0002d0 f3 f2 39 3e 4a b7 fc bd 63 f9 3c 3e cf 4e b7 3d
       0.18159084 -0.12339647 0.18454508 0.089505784
0002e0 d3 1e ce bd 1e ae 4d 3e b0 48 d0 bd e9 a9 af bd
       -0.10064473 0.20085952 -0.10170114 -0.0857733
0002f0 30 b4 4e 3c 7d ae 88 3c 2a 68 41 3e e4 9c e6 bd
       0.012616202 0.016684765 0.18887392 -0.11260393
000300 a3 1e 69 be 6a f0 be 3d 82 c0 23 be ef 90 54 be
       -0.22765593 0.09323199 -0.15991405 -0.20758413
000310 1d 7f 37 be 87 79 3a be 9b 5b 8f bd 3e 7b 2c be
       -0.17919584 -0.18210422 -0.06999894 -0.16843888
000320 96 13 27 3e 01 32 d1 bd f8 0e 26 3e 63 3e 15 be
       0.16316065 -0.102146156 0.16216648 -0.1457458
000330 a9 e4 2d 3e 66 e7 17 3d ba bf 6b be 8b 41 c0 bd
       0.16981758 0.037085913 -0.23022357 -0.09387501
000340 18 05 7b 3e e9 98 6f 3e 8d 46 4c 3e 9a f8 3d 3e
       0.24513662 0.23398174 0.19948788 0.18551865
000350 a2 bd 1c 3d e6 5d 5d be 54 ef ba bd 3e 00 4f be
       0.038266785 -0.2161785 -0.091276795 -0.20214936
000360 3f 07 e8 3d 94 d8 19 3e 3f 91 a1 3d cb db 55 3e
       0.11329507 0.15024024 0.078890316 0.20884626
000370 44 cf 29 bd 19 64 05 3e f9 3c 98 bc 45 f6 34 bd
       -0.04145743 0.13026465 -0.018583762 -0.044180173
000380 ae fd 25 be 14 43 18 be 58 14 1d 3d 48 e7 f6 bd
       -0.16210052 -0.14869338 0.03834948 -0.12055832
000390 42 b7 22 3d a1 4b dc bd 1b 7c a8 bc a2 49 50 be
       0.03972555 -0.107566126 -0.02056699 -0.20340589
0003a0 6a df 45 be 79 95 dc 3d 20 8b 3b 3e 9e 58 cb bc
       -0.19323507 0.10770697 0.1831479 -0.02482253
0003b0 b8 c5 5c 3d 05 1c 89 3d da e3 60 3e 28 bb b6 bc
       0.053899497 0.066947974 0.21961918 -0.02230604
0003c0 a6 22 76 3e ea 4d 8b 3c e0 38 25 3e df 6b 2e bc
       0.24036655 0.017004926 0.16134977 -0.010645836
0003d0 53 68 df bd b9 ac 1b bc 37 bb 5e be 54 c5 56 3d
       -0.1090857 -0.0095016295 -0.21751104 0.05243428
0003e0 3f 4d 56 bd fd 0f b4 3d 72 1f 60 be 92 47 4c 3e
       -0.05231976 0.08792112 -0.21886995 0.19949177
0003f0 93 25 48 bd ab fd e1 39 f7 5b 56 3d 0b cf 67 3e
       -0.04886396 0.00043104342 0.0523338 0.22637574
