Params/dataset1_150_0.001_20_16_222_model.pt (torch, 46587 bytes, 31 tensors)

lstm_p.weight_ih_l0 f4 [64, 10]
-0.09371746 -0.11701078 -0.036460936 -0.0316267 0.21219943 -0.13466 0.069506496 0.16781531
-0.08560395 -0.0950517 0.11655993 0.0306342 0.005037794 0.24476261 -0.0041282475 -0.13182937
-0.010748648 0.046688322 0.053201497 0.08763907 0.024820738 0.03492397 -0.2080168 0.17121527
-0.15349603 -0.09675479 0.07708527 -0.0456243 0.15930115 0.089182645 0.2028707 0.0820272
0.05547504 0.07182355 -0.14576943 0.047111254 0.09809904 -0.039416313 -0.11917189 -0.13464192
0.14588901 -0.18529159 0.26225376 -0.030959861 0.05726347 0.1583042 0.17371786 0.062175617
-0.21310772 -0.0073885997 -0.08021098 -0.21275347 -0.07744021 0.09755125 0.023227664 0.2147925
-0.14624692 0.11269265 0.19284654 -0.16810323 0.21883984 0.114058465 -0.01750104 -0.045787573
-0.12391367 0.2137312 0.09014218 -0.013249154 0.24076366 -0.12342823 -0.119255766 -0.1284841
0.24463451 -0.19385143 -3.3999535e-05 -0.030507876 -0.049912654 -0.22421949 0.10476706 -0.048937973
-0.20110337 -0.017052535 -0.18307678 0.044314984 0.10654775 -0.1250993 0.21092616 0.033040702
-0.22578026 0.016245728 -0.0008206553 0.12539664 -0.21659505 0.055423208 -0.13171838 0.043587632
-0.1765052 0.030905949 -0.20900099 0.07771317 0.04324662 0.17401071 0.2430512 0.06510106
-0.11021647 -0.0923002 0.12653567 0.121250436 -0.007839846 -0.17386839 -0.13911115 0.025813563
0.100338206 0.14510477 0.13337578 0.16871932 -0.016680194 0.14220054 0.06839558 0.22706251
0.15822193 0.011599012 0.105730936 -0.07618309 -0.22672248 0.07051562 0.21496062 0.097862
-0.009431191 -0.23146263 -0.20297365 0.08966367 0.080606416 0.15431236 0.13634467 -0.017166063
-0.21802278 0.09974612 -0.19899134 0.055112414 -0.019100744 0.12535368 0.23238853 -0.0067623714
0.12967072 0.020637557 0.13484144 -0.110932924 -0.22745582 -0.08576345 0.030527476 0.115482934
0.15685777 0.006741342 0.100971155 0.011595483 0.22869913 0.097027704 0.026808651 -0.00026457565
0.064684846 -0.06209962 0.22400716 0.13339752 -0.092266485 0.085124895 -0.12475519 -0.21837276
-0.2374343 -0.24177268 -0.09243507 -0.10481661 -0.047855802 0.20487869 0.03252828 0.11315749
0.0427646 0.07066807 -0.026889447 -0.0042419806 0.2453937 0.19009638 -0.0030457503 0.07298969
0.12599741 0.11708602 0.13456994 -0.09399452 0.08783827 0.00088114577 0.08125811 -0.035764508
0.1465409 -0.14961928 0.15927465 0.08473134 0.14439456 0.015132805 -0.100596756 0.011660993
0.13099386 0.059087735 -0.22013363 -0.19736715 0.23389418 -0.15737578 -0.068624854 -0.17053004
0.08374938 -0.22310252 0.17793278 -0.17197348 -0.23335935 -0.053646587 0.042267594 -0.12246864
0.087054044 -0.23354636 0.2009436 -0.22141159 0.04451443 -0.03626993 -0.08617223 0.21846296
0.21589153 0.2023503 -0.1473412 -0.17602617 -0.21362136 0.13178007 -0.022299029 -0.13450213
-0.115602754 0.13374142 -0.057547074 0.024490546 -0.21500617 0.21551427 -0.07567447 0.09483364
-0.18443796 0.18322833 0.20362772 -0.15037207 -0.1112773 -0.16706355 0.22216587 0.13091987
0.09494291 0.09921603 -0.21300904 -0.101344965 -0.18748902 -0.06569919 -0.053279825 0.16336097
00000000: f1ee bfbd 59a3 efbd 1058 15bd 008b 01bd
00000010: cf4a 593e 50e4 09be 6c59 8e3d c7d7 2b3e
00000020: 2051 afbd 77aa c2bd f9b6 ee3d 93f4 fa3c
00000030: 1414 a53b 0da3 7a3e 4046 87bb 47fe 06be
00000040: 191b 30bc 413c 3f3d d0e9 593d 1d7c b33d
00000050: dc54 cb3c 700c 0f3d 5b02 55be 0e53 2f3e
00000060: 102e 1dbe 6027 c6bd e2de 9d3d 8ce0 3abd
00000070: d71f 233e 64a5 b63d 56bd 4f3e e0fd a73d
00000080: cc39 633d 3a18 933d 9544 15be bbf7 403d
00000090: 26e8 c83d 0073 21bd 6410 f4bd 92df 09be
000000a0: ee63 153e 14bd 3dbe 2046 863e 899f fdbc
000000b0: 1a8d 6a3d 7f1a 223e 18e3 313e dcab 7e3d
000000c0: e938 5abe 111c f2bb a745 a4bd 0cdc 59be
000000d0: f998 9ebd f3c8 c73d f147 be3c 91f2 5b3e
000000e0: c1c1 15be 67cb e63d 9079 453e 4123 2cbe
000000f0: 8d17 603e 7c97 e93d 575e 8fbc c08b 3bbd
00000100: 73c6 fdbd 5adc 5a3e 779c b83d fb12 59bc
00000110: c08a 763e f1c7 fcbd 5e3c f4bd 5691 03be
00000120: 7881 7a3e fd80 46be b99a 0eb8 a7eb f9bc
00000130: 3671 4cbd cb99 65be 1d90 d63d 2f73 48bd
00000140: 0bee 4dbe c2b1 8bbc 7b78 3bbe a183 353d
00000150: b535 da3d 081a 00be 07fd 573e b055 073d
00000160: f132 67be c315 853c 3f21 57ba fa67 003e
00000170: 18cb 5dbe 7203 633d 2fe1 06be f288 323d
00000180: c7bd 34be 792e fd3c 5b04 56be 1528 9f3d
00000190: 5e23 313d dd2f 323e 6ae2 783e b453 853d
000001a0: 2cb9 e1bd e307 bdbd 9192 013e 2652 f83d
000001b0: b372 00bc 8e0a 32be 2773 0ebe f776 d33c
000001c0: 1e7e cd3d 5896 143e a993 083e c2c4 2c3e
000001d0: e7a4 88bc 059d 113e fb12 8c3d 1383 683e
000001e0: ee04 223e c809 3e3c 7689 d83d e105 9cbd
000001f0: f029 68be 7e6a 903d a31e 5c3e df6b c83d
00000200: 4885 1abc 8a04 6dbe 53d8 4fbe 96a1 b73d
00000210: fa14 a53d 0f04 1e3e f09d 0b3e d89f 8cbc
00000220: 5d41 5fbe b247 cc3d 63c4 4bbe 8ebd 613d
00000230: 2a79 9cbc b75c 003e 42f7 6d3e e296 ddbb
00000240: 67c8 043e 1810 a93c e013 0a3e cd30 e3bd
00000250: 2eea 68be bfa4 afbd c214 fa3c 5182 ec3d
00000260: 539f 203e 7ae6 dc3b f7c9 ce3d fbfa 3d3c
00000270: 1b30 6a3e 76b6 c63d d19d db3c beb6 8ab9
00000280: 7d79 843d 2c5c 7ebd 2262 653e 5c99 083e
00000290: 36f6 bcbd f655 ae3d a67f ffbd 1c9d 5fbe
000002a0: fa21 73be 4293 77be 994e bdbd 17aa d6bd
000002b0: 7204 44bd b8cb 513e 603c 053d 1dbf e73d
000002c0: ef29 2f3d 6cba 903d 4247 dcbc 5000 8bbb
000002d0: 7c48 7b3e a0a8 423e 369b 47bb 9e7b 953d
000002e0: 7705 013e ccca ef3d b4cc 093e 3380 c0bd
000002f0: 8de4 b33d b1fc 663a a76a a63d ce7d 12bd
00000300: d10e 163e cc35 19be e518 233e a087 ad3d
00000310: 2bdc 133e 96ef 773c ac05 cebd c00d 3f3c
00000320: 4123 063e fb05 723d b66a 61be 9d1a 4abe
00000330: f581 6f3e 1e27 21be 308b 8cbd 6d9f 2ebe
00000340: cc84 ab3d fd74 64be 0334 363e d119 30be
00000350: c1f5 6ebe 86bc 5bbd c920 2d3d d7d0 fabd
00000360: 6449 b23d c726 6fbe 29c4 4d3e b8b9 62be
00000370: c354 363d c78f 14bd 117b b0bd c1b4 5f3e
00000380: ab12 5d3e eb34 4f3e 9de0 16be 3440 34be
00000390: 8fbf 5abe 5bf1 063e 74ac b6bc edba 09be
000003a0: 23c1 ecbd 83f3 083e 7bb6 6bbd 66a0 c83c
000003b0: 942a 5cbe c6af 5c3e 37fb 9abd 2438 c23d
000003c0: 4edd 3cbe 35a0 3b3e c983 503e 23fb 19be
000003d0: 5ae5 e3bd b512 2bbe 737f 633e dc0f 063e
000003e0: 6e71 c23d c631 cb3d 0b1f 5abe f38d cfbd
000003f0: 1ffd 3fbe 4c8d 86bd f23b 5abd 1948 273e

lstm_p.weight_hh_l0 f4 [64, 16]
-0.028222747 -0.021811243 0.0060722902 0.25921476 0.23802526 -0.16706082 0.047614697 0.054374833
0.13944378 -0.0535062 0.0994964 0.13571134 0.02580405 0.2135702 0.07580388 0.18722615
0.17473042 -0.24263857 -0.12063558 -0.03825698 0.1632709 -0.19215763 0.16283537 0.11148402
0.04033654 0.20535465 0.01319946 -0.16911334 0.12857763 -0.21579264 -0.21461663 0.069663554
0.20055912 -0.2506424 0.18114896 0.18726784 -0.15951835 -0.20847519 0.0036352957 0.17488782
0.03477206 -0.16625234 -0.071205795 -0.009346845 0.24841815 -0.10575863 -0.17714751 -0.063221075
-0.12992407 -0.017048946 0.012051037 -0.11720201 0.09238342 -0.22318216 0.17268053 0.07204458
0.13487922 -0.05716982 0.08580548 0.08464663 0.016993005 -0.09593667 -0.07522421 0.16309974
0.19941637 -0.011283501 -0.19061564 0.026126146 -0.23240212 0.09015057 -0.09657328 0.08391665
-0.14131711 0.11290185 -0.18495841 0.18478538 0.18628934 0.22594444 0.0778671 -0.15135542
-0.0083322385 0.14915341 -0.13821277 -0.17428395 0.09800211 -0.13009961 -0.21948707 0.1756304
0.15094624 -0.15997155 -0.10813367 0.04427793 -0.11707743 -0.21138988 0.10776546 0.061022773
-0.20345043 0.02675114 -0.015062751 -0.13738787 0.1903872 0.07729043 0.25773415 -0.021189258
-0.13647276 -0.00835844 -0.20237517 0.016174158 -0.21535446 0.18319376 -0.05504009 0.14756002
0.15536423 -0.21762219 0.24515124 -0.1792388 0.23763274 -0.084532365 0.04717428 0.08824847
0.23116459 0.17181341 0.14268999 0.06267891 -0.07833907 0.027885273 -0.015313842 0.16112523
-0.18702886 0.15837751 0.15167479 0.26021758 0.071358345 0.21751761 -0.16722047 -0.1801686
0.025550094 0.10157892 0.16144493 -0.20464726 -0.039642137 -0.15281476 -0.0029932861 -0.0020090237
-0.19045033 -0.01258946 -0.17548083 -0.09363001 0.029733563 0.17009594 0.019108955 -0.14238523
-0.16234267 -0.066500284 0.025222559 -0.1686907 0.2361261 0.11204016 0.20379533 0.049831156
-0.17412451 0.15631326 -0.13189729 0.21838348 0.06189041 0.17273894 -0.24358359 -0.08390806
0.12327031 -0.15505157 0.1888168 0.00838222 -0.19409366 0.118555434 0.04804771 -0.11888028
-0.08650171 -0.0073373704 -0.07325741 0.23855709 -0.20084648 -0.0032818 -0.17206024 -0.014798281
-0.12565416 0.24210419 -0.1415691 0.2188037 -0.015372795 0.008847805 -0.0764196 -0.017070875
-0.0671144 -0.1152093 -0.17078637 -0.051120248 -0.1243627 0.038422268 -0.024023628 -0.14096963
-0.2519572 -0.13247728 0.18702543 0.10985932 0.1542321 -0.053604946 0.18375772 0.18234868
-0.13367622 -0.12839408 0.13029157 0.14843546 -0.08841744 0.08998233 0.08237636 -0.10646684
-0.20021026 -0.073874466 -0.18026946 0.21717162 0.14106002 0.23876086 0.14953555 0.0945029
0.02532518 0.18624277 0.1034509 0.026749993 0.17373973 0.20010841 -0.082625166 -0.057002876
-0.043214932 -0.19042328 -0.16961688 -0.21221425 0.014191687 -0.034918528 0.12514466 0.056917947
-0.119720995 0.071566164 -0.23301357 0.07931711 0.15059747 -0.15105535 0.042767692 -0.0040628444
0.06460391 0.19495451 -0.1626651 -0.17575951 0.019899812 -0.21730296 -0.12155819 0.09311575
00000000: 6433 e7bc 7ead b2bc 10fa c63b ccb7 843e
00000010: e5bc 733e fe11 2bbe a107 433d 25b8 5e3d
00000020: 5aca 0e3e 5129 5bbd c5c4 cb3d eaf7 0a3e
00000030: 0463 d33c 26b2 5a3e 113f 9b3d 36b8 3f3e
00000040: 88ec 323e 3f76 78be c90f f7bd 5ab3 1cbd
00000050: 7d30 273e f8c4 44be 51be 263e bc51 e43d
00000060: ee37 253d 7d48 523e 8c42 583c 0c2c 2dbe
00000070: dba9 033e bff8 5cbe 76c4 5bbe c4ab 8e3d
00000080: 5f5f 4d3e 3354 80be 1d7f 393e 24c3 3f3e
00000090: c758 23be 857a 55be 243e 6e3b cb15 333e
000000a0: 266d 0e3d 0e3e 2abe 58d4 91bd 8223 19bc
000000b0: 5461 7e3e fb97 d8bd 2866 35be 0d7a 81bd
000000c0: d10a 05be 3baa 8bbc b671 453c 9b07 f0bd
000000d0: 8533 bd3d dd89 64be 2ad3 303e 1c8c 933d
000000e0: c71d 0a3e e72a 6abd c9ba af3d 365b ad3d
000000f0: ea34 8b3c 727a c4bd 270f 9abd 9e03 273e
00000100: ce33 4c3e 6fde 38bc bf30 43be 8006 d63c
00000110: d2fa 6dbe dda0 b83d 36c8 c5bd 7edc ab3d
00000120: 6fb5 10be 1639 e73d bd65 3dbe 6138 3d3e
00000130: a2c2 3e3e fb5d 673e c978 9f3d eafc 1abe
00000140: f183 08bc acbb 183e a687 0dbe 7e77 32be
00000150: 55b5 c83d d538 05be 38c1 60be 75d8 333e
00000160: a791 1a3e 95cf 23be 3075 ddbd c65c 353d
00000170: 4bc6 efbd 9776 58be 23b4 dc3d 04f3 793d
00000180: 4f55 50be 3525 db3c c2c9 76bc 68af 0cbe
00000190: ddf4 423e 724a 9e3d bbf5 833e 1895 adbc
000001a0: 84bf 0bbe d7f1 08bc 703b 4fbe ab7f 843c
000001b0: e185 5cbe 2597 3b3e b871 61bd f919 173e
000001c0: cd17 1f3e 5ad8 5ebe ed08 7b3e 608a 37be
000001d0: ff55 733e 4e1f adbd d139 413d 9dbb b43d
000001e0: 69b6 6c3e dbef 2f3e 531d 123e cd5d 803d
000001f0: 3c70 a0bd a86f e43c e9e6 7abc 03fe 243e
00000200: 7e84 3fbe b72d 223e a350 1b3e 3d3b 853e
00000210: 5324 923d f0bc 5e3e d83b 2bbe 1e7e 38be
00000220: 6e4e d13c 9c08 d03d d251 253e 0d8f 51be
00000230: cb5f 22bd 797b 1cbe 022b 44bb d3a9 03bb
00000240: 6905 43be 0644 4ebc 3fb1 33be 17c1 bfbd
00000250: cd93 f33c a12d 2e3e 628a 9c3c 6fcd 11be
00000260: 283d 26be 4d31 88bd 8a9f ce3c 41bd 2cbe
00000270: 0acb 713e 5075 e53d b9af 503e c11b 4c3d
00000280: b24d 32be 9510 203e 1510 07be eb9f 5f3e
00000290: cc80 7d3d 7ae2 303e fa6d 79be fdd7 abbd
000002a0: 2575 fc3d d7c5 1ebe 3159 413e 9455 093c
000002b0: 7dc0 46be 31cd f23d adcd 443d 8177 f3bd
000002c0: cf27 b1bd 536e f0bb fb07 96bd 4f48 743e
000002d0: b3aa 4dbe 7813 57bb 8f30 30be 7d74 72bc
000002e0: 7cab 00be 29ea 773e 7df7 10be 140e 603e
000002f0: 2dde 7bbc 62f6 103c e181 9cbd 38d8 8bbc
00000300: 4673 89bd daf2 ebbd 9fe2 2ebe 7763 51bd
00000310: dfb1 febd ab60 1d3d 33cd c4bc 585a 10be
00000320: 8900 81be 20a8 07be 9883 3f3e ecfd e03d
00000330: 05ef 1d3e dc90 5bbd fc2a 3c3e 9db9 3a3e
00000340: 6be2 08be bd79 03be 276b 053e 77ff 173e
00000350: 3414 b5bd a848 b83d f0b4 a83d 490b dabd
00000360: eb03 4dbe 7f4b 97bd 8f98 38be 3d62 5e3e
00000370: 0a72 103e ba7d 743e d91f 193e bd8a c13d
00000380: c076 cf3c 6db6 3e3e 11de d33d cd22 db3c
00000390: d4e8 313e 38e9 4c3e 6237 a9bd d97b 69bd
000003a0: 2402 31bd 52fe 42be 0cb0 2dbe b14e 59be
000003b0: 4084 683c bb06 0fbd ec25 003e cb22 693d
000003c0: 4830 f5bd 4891 923d 1c9b 6ebe 0271 a23d
000003d0: 3936 1a3e 41ae 1abe 2d2d 2f3d 9c21 85bb
000003e0: 0e4f 843d 28a2 473e ae91 26be 4dfa 33be
000003f0: ee04 a33c ab84 5ebe 80f3 f8bd 78b3 be3d

lstm_p.bias_ih_l0 f4 [64]
-0.03344735 -0.21234241 -0.18239337 -0.07459454 0.13767444 -0.06667055 0.029218579 -0.20114335
0.18294196 -0.24524473 0.0884449 0.053506024 0.22338569 -0.1533513 0.13620786 0.13687474
-0.16314079 0.18954326 -0.17301461 -0.15667991 -0.2208947 0.18045633 0.08393685 -0.008288673
-0.0029687486 0.19853212 -0.036273263 0.024342954 -0.14225818 -0.18555929 -0.23105374 0.1413713
-0.11099358 -0.13224255 0.17031227 0.21792676 0.022816177 -0.08137196 -0.22441304 -0.21041767
0.0985517 -0.14627774 -0.22288148 -0.18810226 -0.042426564 0.11796624 0.16324118 -0.051819384
0.1862762 0.20218378 0.11297486 0.2501903 -0.2560083 0.04493016 -0.18127175 -0.017481541
0.04118069 0.08231645 -0.047979668 0.04284197 -0.156155 0.17568196 -0.09721349 -0.14578962
00000000: 1700 09bd 4a70 59be 54c5 3abe 06c5 98bd
00000010: 87fa 0c3e 928a 88bd cd5b ef3c 86f8 4dbe
00000020: 2355 3b3e 6f21 7bbe 9a22 b53d 2229 5b3d
00000030: 38bf 643e 2008 1dbe 137a 0b3e e428 0c3e
00000040: 610e 27be a117 423e be2a 31be b370 20be
00000050: 3832 62be 8bc9 383e 15e7 ab3d 37cd 07bc
00000060: 568f 42bb 014c 4b3e 4693 14bd e06a c73c
00000070: 21ac 11be 4103 3ebe 5a99 6cbe a3c3 103e
00000080: 9a50 e3bd 976a 07be 5766 2e3e 3128 5f3e
00000090: fee8 ba3c 58a6 a6bd 88cc 65be bb77 57be
000000a0: 79d5 c93d d5c9 15be 0b3b 64be e19d 40be
000000b0: 7ac7 2dbd 4998 f13d b228 273e 9040 54bd
000000c0: 30bf 3e3e 4409 4f3e 5d5f e73d f118 803e
000000d0: 8513 83be b008 383d 4d9f 39be 7335 8fbc
000000e0: 15ad 283d 8795 a83d 5486 44bd 107b 2f3d
000000f0: 19e7 1fbe f9e5 333e de17 c7bd e049 15be

lstm_p.bias_hh_l0 f4 [64]
-0.25658765 -0.024177311 -0.0926902 0.09933145 -0.026006356 0.047306124 -0.1651536 0.21890327
-0.017265826 -0.18932177 0.1740864 0.013902589 -0.022336775 -0.1289449 -0.07391618 0.05284288
0.112587094 -0.25065926 0.031090388 0.07558983 0.12543505 0.069650926 0.08714048 0.19769841
-0.085136235 0.04922065 -0.093853764 0.036976736 -0.122298196 0.08369954 0.028266868 0.017821267
-0.24816073 0.16225882 -0.23124914 0.04733033 -0.14096749 -0.16382056 -0.0004921369 -0.15947132
-0.14521603 -0.14812447 0.16172843 -0.07398115 0.10559501 -0.04322726 -0.20065275 0.13205194
-0.13617542 0.13427451 -0.2158055 -0.23267117 0.06601789 -0.0774975 -0.13141112 0.22841822
0.21377428 -0.23661904 0.18497314 0.121769056 -0.08623351 -0.09342065 0.07692416 -0.044627026
00000000: 755f 83be 7f0f c6bc 5cd4 bdbd 4a6e cb3d
00000010: 480b d5bc 11c4 413d 061e 29be 2e28 603e
00000020: 1071 8dbc 91dd 41be b543 323e afc7 633c
00000030: 9dfb b6bc 220a 04be 5e61 97bd c771 583d
00000040: 1094 e63d 6956 80be 45b1 fe3c d7ce 9a3d
00000050: 0c72 003e 25a5 8e3d b576 b23d 7471 4a3e
00000060: e85b aebd 989b 493d 6736 c0bd eb74 173d
00000070: 7a77 fabd aa6a ab3d eb8f e73c e8fd 913c
00000080: d91d 7ebe 2d27 263e 93cc 6cbe 73dd 413d
00000090: c859 10be 94c0 27be c002 01ba 734c 23be
000000a0: 83b3 14be f1ad 17be 239c 253e 6e83 97bd
000000b0: 3242 d83d 110f 31bd ea77 4dbe a038 073e
000000c0: 9271 0bbe 427f 093e 1efc 5cbe 5a41 6ebe
000000d0: 6334 873d 02b7 9ebd a390 06be 77e6 693e
000000e0: a5e7 5a3e 434c 72be 9969 3d3e 0e62 f93d
000000f0: 329b b0bd 5353 bfbd 6a8a 9d3d d4ca 36bd

lstm_p.weight_ih_l1 f4 [64, 16]
-0.042224962 0.084599085 0.21054004 -0.00023435122 -0.17714825 0.10659415 0.22219236 0.21318772
0.22000976 -0.095902115 -0.13335536 0.12579295 0.081011884 0.18912637 -0.08106736 -0.1002104
-0.036510937 0.19315396 0.074485146 0.224593 -0.135656 -0.06603927 0.14575106 -0.067553334
0.20710912 -0.048008367 0.17523475 0.15468866 0.03781965 -0.06564453 -0.14341713 -0.12816714
-0.14495827 -0.19780612 0.19659689 0.09950084 -0.0812368 0.19510283 0.020356711 0.0055991206
0.15064234 0.22864312 0.1556536 -0.09130349 -0.21927284 -0.10506201 -0.053843047 0.09873582
0.127663 -0.24762715 0.2215153 0.2583905 -0.07020945 0.19202714 0.11432041 -0.14634445
-0.10463407 -0.20896462 0.21088809 0.18693684 0.18832192 0.1353126 0.1442224 0.16200753
-0.079119004 -0.10061985 0.20413794 -0.069460824 0.12863433 -0.11780958 -0.22175124 -0.1872316
0.2095357 0.20358327 -0.2337454 0.022555828 0.23587233 -0.14717624 -0.0129219135 0.118512906
0.1629668 -0.07623787 -0.075787686 0.037107483 0.036791593 -0.040585898 0.22201216 -0.14763102
-0.108630046 0.22268084 -0.005247387 -0.019110883 0.12426608 0.09903106 0.0054096254 0.108500004
0.100113675 -0.094636075 0.15955254 0.17941919 -0.23764248 -0.16947953 0.18411231 0.020123705
0.11501499 0.079936445 -0.107465096 -0.08721801 -0.1862599 -0.16339698 0.20415497 -0.21170639
0.110902116 0.111666165 0.2301289 -0.2341212 0.11623732 0.09483245 0.15921533 0.23927017
0.112267844 0.05594742 -0.05322125 -0.21485774 0.10339192 -0.09823487 0.11952263 -0.21030207
-0.018502343 0.16409491 0.02474992 -0.04704421 0.06736283 0.08642109 -0.19910537 -0.024365654
0.11506496 0.20603849 0.14514436 0.034403145 0.18736242 0.15877229 -0.05238091 0.030734299
-0.058420166 -0.09757546 0.18092418 0.0972708 0.21468681 0.0986319 -0.116771884 -0.008520419
0.042741638 0.03574085 -0.20037201 -0.05042001 -0.044591688 -0.21696453 -0.17554253 0.19656225
-0.23906684 0.039165206 0.017438184 -0.20728427 -0.19074042 -0.026678208 -0.25614604 0.029518072
0.14243254 -0.12891223 0.03302876 -0.013818819 0.23753107 -0.014674465 -0.12303135 -0.014303805
-0.11772017 -0.12761457 -0.10286622 0.016045542 0.22928144 -0.18084711 0.037366245 0.119653694
0.23709284 0.17416361 0.16816095 -0.21291028 0.20613402 -0.20977056 0.07839048 0.065368414
0.079567365 -0.023506112 -0.0026560624 -0.08564725 0.19959001 -0.1485124 -0.23562905 0.2565073
-0.1323927 -0.20172304 -0.17666872 -0.12170802 0.1679563 -0.19802149 -0.24600343 0.17354867
-0.19871505 -0.15902844 -0.027777215 -0.22814842 0.17955181 0.1431379 0.24765661 -0.1700269
-0.17117576 -0.10924415 0.14117678 0.19202639 -0.17775483 0.09625001 0.1450763 0.21689884
0.074584685 0.21343891 -0.12810557 0.14869797 -0.23203197 0.112436466 -0.008441379 -0.22611618
-0.017729612 0.16945828 -0.02102306 0.1451427 0.119784564 -0.17638785 -0.11220142 0.19199277
0.12246966 0.14960603 0.033252113 -0.0035722633 0.070422515 -0.01589148 -0.04751406 -0.22090247
-0.081024036 0.009049744 0.05988909 0.12561046 0.06863649 -0.02335936 0.13618927 0.09589627
00000000: 15f4 2cbd 4942 ad3d cf97 573e 2dbc 75b9
00000010: 5a66 35be 094e da3d 6586 633e e24d 5a3e
00000020: 3d4a 613e 5468 c4bd 4f8e 08be decf 003e
00000030: 8fe9 a53d 58aa 413e a506 a6bd 1c3b cdbd
00000040: 7e8c 15bd 27ca 453e ab8b 983d b5fb 653e
00000050: 68e9 0abe 993f 87bd c43f 153e 6759 8abd
00000060: 6a14 543e 6ca4 44bd bd70 333e b466 1e3e
00000070: c7e8 1a3d a470 86bd f1db 12be 3f3e 03be
00000080: f16f 14be b08d 4abe b250 493e 19c7 cb3d
00000090: 7b5f a6bd 09c9 473e 1ec3 a63c d478 b73b
000000a0: fc41 1a3e 6c21 6a3e a863 1f3e 53fd babd
000000b0: 0f89 60be c02a d7bd 878a 5cbd 0136 ca3d
000000c0: 17ba 023e f991 7dbe e8d4 623e c24b 843e
000000d0: f9c9 8fbd c3a2 443e d220 ea3d 52db 15be
000000e0: 634a d6bd d2fa 55be 0cf3 573e 5f6c 3f3e
000000f0: 76d7 403e 638f 0a3e 09af 133e 4de5 253e
00000100: 2509 a2bd c811 cebd 8909 513e 7a41 8ebd
00000110: b8b8 033e 2646 f1bd c212 63be a4b9 3fbe
00000120: 8790 563e 2278 503e f45a 6fbe 00c7 b83c
00000130: 8488 713e 5eb5 16be 6fb6 53bc e5b6 f23d
00000140: c5e0 263e 9a22 9cbd 9336 9bbd 04fe 173d
00000150: c8b2 163d 663d 26bd 2857 633e 962c 17be
00000160: 6e79 debd 7206 643e 46f2 abbb 6d8e 9cbc
00000170: 377f fe3d ccd0 ca3d 3a43 b13b 4035 de3d
00000180: 6608 cd3d 8fd0 c1bd be61 233e aab9 373e
00000190: 8d58 73be 0b8c 2dbe f087 3c3e 78da a43c
000001a0: fb8c eb3d b8b5 a33d a916 dcbd 5b9f b2bd
000001b0: eaba 3ebe 8a51 27be 000e 513e 8fc9 58be
000001c0: a620 e33d 3bb1 e43d e9a6 6b3e 78bd 6fbe
000001d0: d50d ee3d 8437 c23d 5809 233e 3d03 753e
000001e0: afec e53d 1f29 653d 87fe 59bd ab03 5cbe
000001f0: 25bf d33d 5d2f c9bd 48c8 f43d 6d59 57be
00000200: 3a92 97bc 7f08 283e 58c0 ca3c 6eb1 40bd
00000210: 86f5 893d 8afd b03d 47e2 4bbe 7b9a c7bc
00000220: 2ea7 eb3d c1fb 523e b9a0 143e 50ea 0c3d
00000230: efdb 3f3e 3495 223e 5d8d 56bd 7fc6 fb3c
00000240: fc49 6fbd a5d5 c7bd 3044 393e ea35 c73d
00000250: dcd6 5b3e 86ff c93d 1926 efbd 3a99 0bbc
00000260: db11 2f3d ff64 123d 522e 4dbe 3685 4ebd
00000270: c6a5 36bd f32b 5ebe 6cc1 33be 9d47 493e
00000280: f0cd 74be b26b 203d 86da 8e3c 5442 54be
00000290: 7551 43be 428c dabc 9325 83be e2cf f13c
000002a0: d6d9 113e 9101 04be 2a49 073d 5468 62bc
000002b0: 583b 733e 2b6d 70bc dcf7 fbbd 825a 6abc
000002c0: 4617 f1bd 65ad 02be 86ab d2bd f171 833c
000002d0: c1c8 6a3e fc2f 39be 590d 193d ff0c f53d
000002e0: 77c8 723e f257 323e 6232 2c3e 2705 5abe
000002f0: cc14 533e 18ce 56be 308b a03d e0df 853d
00000300: 37f4 a23d e48f c0bc 5511 2ebb d367 afbd
00000310: 5361 4c3e a213 18be be48 71be ed54 833e
00000320: f491 07be 7c90 4ebe a5e8 34be 0e42 f9bd
00000330: bcfc 2b3e 25c6 4abe 53e8 7bbe beb6 313e
00000340: f57b 4bbe 5ad8 22be 0b8d e3bc bd9f 69be
00000350: 6edc 373e be92 123e b299 7d3e 881b 2ebe
00000360: b348 2fbe 66bb dfbd a590 103e 91a2 443e
00000370: 5d05 36be ba1e c53d e28e 143e bb1a 5e3e
00000380: dbbf 983d bb8f 5a3e 1b2e 03be 4844 183e
00000390: ca99 6dbe 1745 e63d b64d 0abc 008b 67be
000003a0: b13d 91bc 7986 2d3e 8d38 acbc 4aa0 143e
000003b0: 9c51 f53d 049f 34be dcc9 e5bd c199 443e
000003c0: 60d1 fa3d 5332 193e 5e33 083d a21c 6abb
000003d0: ae39 903d d92e 82bc 1a9e 42bd 4234 62be
000003e0: eeef a5bd 6145 143c 434e 753d 07a0 003e
000003f0: 4a91 8c3d 215c bfbc 3375 0b3e 4365 c43d

lstm_p.weight_hh_l1 f4 [64, 16]
0.19479303 -0.14354822 0.24339198 -0.11008908 -0.05130788 -0.18671706 0.06601412 0.19155067
-0.07779828 0.16318144 -0.01929103 0.23632044 -0.15063466 0.00430945 0.1880045 -0.20420882
0.12372863 -0.23807845 0.21132962 0.09726148 0.046516713 -0.22975713 0.25584945 0.17851129
0.23448598 -0.20890638 0.22111233 0.030576307 0.15012437 -0.25203308 -0.13466607 0.014520589
0.13940905 -0.24170867 0.13348988 0.11623173 -0.1721739 0.2051986 -0.12748362 0.09007661
-0.1768121 -0.15357746 -0.045132235 -0.07526202 0.05778342 -0.054388087 -0.1261615 0.23735258
-0.012702049 -0.21279377 0.19469415 0.20669596 -0.12895307 0.16988917 -0.1080745 -0.19011858
-0.25753188 -0.13426156 0.12456398 0.25833634 0.23425043 -0.022453813 -0.04512655 0.0064440705
0.21070203 -0.18840918 -0.1497565 -0.0068940334 -0.22136402 0.12627965 -0.16627389 -0.0672603
-0.13844845 -0.017286848 0.22327529 -0.08284118 -0.09277679 0.12980945 -0.01923599 -0.011264407
0.20453864 0.07925452 -0.028128471 0.22249775 -0.25269604 0.21197994 -0.08343631 0.16866668
-0.072703406 -0.20349014 -0.010287085 0.21885425 0.027210059 -0.2039374 0.1658245 0.24061465
0.21774057 -0.13524295 -0.19442013 -0.25389355 -0.04265882 0.060864903 -0.25630987 0.008292763
0.030132521 0.17514826 0.17266056 0.113692656 -0.013695552 0.24497883 -0.009448482 -0.050933186
-0.13032283 0.06282421 -0.17040576 0.10247276 -0.21760184 0.02417076 -0.012839317 -0.17073776
0.20079502 0.19485158 0.1584313 0.19218244 -0.009733138 -0.1461803 -0.052823372 -0.15048352
-0.12574555 0.036010843 -0.08263969 0.25353995 0.15889551 0.25287375 0.116619416 0.14037883
-0.12615524 0.19724081 0.18823853 0.07681119 0.0781856 -0.2194871 -0.0086612115 0.20936325
-0.09945001 0.19259569 -0.10947174 -0.16335231 0.13980967 0.13156618 0.086774684 -0.10728652
0.16523637 -0.10325017 0.13498016 0.21745935 -0.12177148 0.18902674 0.16749175 0.07078044
-0.1028327 -0.06242477 0.13471664 0.098137215 0.0073498795 -0.096939184 0.02180245 0.25069684
0.19265428 -0.16513446 0.25376463 0.15942262 0.25952318 -0.06027833 0.078827225 -0.04462055
-0.13147157 -0.06569025 -0.13769114 0.078308746 -0.05299569 -0.19303009 -0.069812864 -0.014355192
-0.11738597 -0.14827561 -0.24779323 0.13282765 0.1277452 -0.25055444 0.111669526 -0.2000002
-0.113330744 -0.163901 -0.07597074 -0.1431473 0.004505206 0.036466487 -0.11280614 0.16351071
-0.10260326 -0.074468985 0.07250983 0.1423207 0.17966148 0.11841886 0.03089826 -0.02336893
-0.15505685 0.20608154 -0.00021147064 0.18738268 0.11514183 0.15639393 -0.17194927 0.12351855
0.24326196 -0.22088441 0.1720878 -0.1497106 -0.14549442 -0.22544776 -0.24851865 -0.17449619
-0.1894322 -0.0088401735 -0.13564302 -0.0075706863 0.17262857 0.20526089 -0.2034924 0.19658263
-0.025933504 -0.098341204 0.26262596 -0.19440365 -0.12468249 0.12008061 0.119067855 0.122178406
-0.21567078 -0.1615128 -0.17953543 0.17413494 0.106933735 -0.024781045 0.17158008 0.012069459
-0.23020068 -0.07057437 0.12708156 -0.047068886 0.10211671 0.061397396 -0.052156366 -0.19630775
00000000: d377 473e 4efe 12be bf3b 793e 6276 e1bd
00000010: 3628 52bd c232 3fbe 6932 873d dc25 443e
00000020: b454 9fbd 0919 273e 3908 9ebc fcfd 713e
00000030: f93f 1abe 4936 8d3b 4084 403e 1e1c 51be
00000040: 7065 fd3d d6ca 73be cb66 583e 0731 c73d
00000050: 4f88 3e3d 7445 6bbe b3fe 823e aacb 363e
00000060: 181d 703e 8eeb 55be 456b 623e 2a7b fa3c
00000070: 34ba 193e 7b0a 81be e7e5 09be c4e7 6d3c
00000080: 3fc1 0e3e 7a82 77be 92b1 083e e70a ee3d
00000090: 5b4e 30be 951f 523e 118b 02be 167a b83d
000000a0: 3b0e 35be 6943 1dbe 94dc 38bd f922 9abd
000000b0: 4fae 6c3d 0bc6 5ebd 7b30 01be 8e0c 733e
000000c0: 411c 50bc 9ce6 59be e75d 473e 1ba8 533e
000000d0: 460c 04be 6df7 2d3e 2a56 ddbd 72ae 42be
000000e0: 38db 83be dd7b 09be 661b ff3d a944 843e
000000f0: 58df 6f3e 0ff1 b7bc 9ed6 38bd c828 d33b
00000100: 46c2 573e 56ee 40be c559 19be 58e7 e1bb
00000110: 40ad 62be 744f 013e b443 2abe c5bf 89bd
00000120: 6ec5 0dbe 269d 8dbc 47a2 643e a3a8 a9bd
00000130: c201 bebd c5ec 043e cb94 9dbc 598e 38bc
00000140: 9472 513e 3250 a23d ae6d e6bc 73d6 633e
00000150: 6061 81be 4511 593e a8e0 aabd f5b6 2c3e
00000160: 86e5 94bd b85f 50be 298b 28bc 541b 603e
00000170: a1e7 de3c f7d4 50be e6cd 293e b063 763e
00000180: 62f7 5e3e 217d 0abe 1216 47be 56fe 81be
00000190: 04bb 2ebd 7a4d 793d 0c3b 83be 5ede 073c
000001a0: 7ad8 f63c 115a 333e eecd 303e b2d7 e83d
000001b0: 4f63 60bc bbdb 7a3e cecd 1abc 519f 50bd
000001c0: 5973 05be fba9 803d d97e 2ebe 3ddd d13d
000001d0: 04d3 5ebe c201 c63c 005c 52bc e1d5 2ebe
000001e0: 369d 4d3e 2c87 473e d13b 223e 79cb 443e
000001f0: bd77 1fbc 4ab0 15be 525d 58bd 5a18 1abe
00000200: 71c3 00be 1b80 133d ff3e a9bd fdcf 813e
00000210: 81b5 223e ab78 813e 29d6 ee3d 78bf 0f3e
00000220: d72e 01be 7ff9 493e 9ac1 403e 2f4f 9d3d
00000230: c61f a03d 3ac1 60be c1e7 0dbc 5263 563e
00000240: 72ac cbbd ce37 453e b832 e0bd d445 27be
00000250: 442a 0f3e 49b9 063e edb6 b13d 09b9 dbbd
00000260: b933 293e d374 d3bd 3d38 0a3e aaad 5e3e
00000270: 5363 f9bd 3a90 413e f582 2b3e 56f5 903d
00000280: f399 d2bd 1eb1 7fbd 29f3 093e 2afc c83d
00000290: 42d7 f03b 0d88 c6bd 0d9b b23c 565b 803e
000002a0: 2a47 453e 0219 29be 70ed 813e af3f 233e
000002b0: 39e0 843e 69e6 76bd 2b70 a13d 0ac4 36bd
000002c0: 7ca0 06be 9c88 86bd e8fe 0cbe 5660 a03d
000002d0: 0212 59bd aea9 45be 0cfa 8ebd 0a32 6bbc
000002e0: 0e68 f0bd 90d5 17be 82bd 7dbe f903 083e
000002f0: a3cf 023e ac48 80be feb2 e43d dacc 4cbe
00000300: f319 e8bd aad5 27be 8c96 9bbd 3595 12be
00000310: 68a0 933b e25d 153d e806 e7bd 5a6f 273e
00000320: a821 d2bd 3283 98bd 0980 943d 85bc 113e
00000330: 2ef9 373e 9685 f23d 591e fd3c 3370 bfbc
00000340: 39c7 1ebe 0a07 533e 38be 5db9 3fe1 3f3e
00000350: 7bcf eb3d bb25 203e 7813 30be 4bf7 fc3d
00000360: aa19 793e 862f 62be c937 303e bc4d 19be
00000370: 7dfc 14be c7db 66be ac7b 7ebe 21af 32be
00000380: 84fa 41be 60d6 10bc 01e6 0abe 8513 f8bb
00000390: 8bc5 303e e92f 523e 5060 50be f54c 493e
000003a0: 8072 d4bc 1d67 c9bd e976 863e c011 47be
000003b0: 8959 ffbd d3ec f53d d9d9 f33d ac38 fa3d
000003c0: cdd8 5cbe 9d63 25be 23d8 37be 6e50 323e
000003d0: 1300 db3d 9e01 cbbc b0b2 2f3e fbbe 453c
000003e0: bab9 6bbe 4c89 90bd ab21 023e 4ecb 40bd
000003f0: 9122 d13d d67b 7b3d eaa1 55bd e604 49be

lstm_p.bias_ih_l1 f4 [64]
-0.06906578 0.01107806 0.022493372 -0.24062699 -0.25390744 0.06758242 -0.13891801 0.18486024
0.06325104 0.058132943 -0.2453105 0.091889784 -0.039069038 -0.0354365 -0.20302255 -0.248415
0.17472154 -0.1565826 0.032805707 -0.18122992 -0.19856606 0.11918605 0.0626995 -0.12228042
0.11062245 -0.14957462 -0.17528386 0.031444896 0.018722415 -0.19571653 -0.15275402 -0.13649803
-0.066711515 0.13362221 -0.22625616 0.16990231 0.020692222 -0.020912036 -0.13676047 -0.20545241
-0.081995785 0.12578467 -0.195523 0.21873836 -0.16273707 0.13783458 -0.22300823 -0.23720361
-0.09297271 0.18844938 0.10192475 -0.1523201 0.061064746 -0.121246435 0.21610403 0.23208895
0.0059604463 0.16794959 -0.09408048 0.092719294 0.12926593 0.11969441 0.06933597 0.23322965
00000000: 5c72 8dbd c080 353c 0544 b83c ec66 76be
00000010: 2800 82be a768 8a3d 8640 0ebe 014c 3d3e
00000020: c389 813d cf1c 6e3d ad32 7bbe b630 bc3d
00000030: db06 20bd dd25 11bd 25e5 4fbe 8060 7ebe
00000040: 34ea 323e 3057 20be 475f 063d 5694 39be
00000050: e754 4bbe d117 f43d 9868 803d 286e fabd
00000060: 068e e23d 172a 19be 9d7d 33be 5dcc 003d
00000070: c05f 993c ea69 48be 8d6b 1cbe 24c6 0bbe
00000080: 0ca0 88bd 43d4 083e b2af 67be dffa 2d3e
00000090: bc82 a93c b84f abbc f00a 0cbe 1e62 52be
000000a0: 68ed a7bd b2cd 003e 2e37 48be f3fc 5f3e
000000b0: 8ca4 26be 8224 0d3e 455c 64be 81e5 72be
000000c0: 7a68 bebd e0f8 403e ecbd d03d cdf9 1bbe
000000d0: 071f 7a3d 0d50 f8bd 604a 5d3e baa8 6d3e
000000e0: d94f c33b fafa 2b3e 44ad c0bd 9de3 bd3d
000000f0: 4a5e 043e 5822 f53d 0400 8e3d c1d3 6e3e

lstm_p.bias_hh_l1 f4 [64]
0.07524583 0.16780305 0.10642316 0.0102267815 -0.05964189 0.19369496 0.21326488 0.20998104
0.065778516 0.14046896 -0.14839335 -0.15119615 0.03505068 -0.19992723 -0.13158493 0.1436935
-0.12045863 -0.16307351 -0.23786086 0.15413043 0.15846823 0.18621632 -0.047272027 -0.12870191
0.227015 -0.15930294 0.20067726 0.054407556 -0.109119266 0.10569035 -0.14622964 0.02322744
0.20247373 -0.052049898 0.06177307 0.16335957 -0.070871584 0.15639678 0.18159074 0.031455293
0.19073088 0.21074273 -0.17694572 0.11414483 -0.0009864537 -0.10091935 0.19728382 0.022454426
-0.009096021 0.103631064 0.052826185 0.0146028185 0.100310735 -0.016832858 -0.20615464 0.09688989
-0.044282865 -0.119395085 -0.1545404 0.12654312 0.089623645 -0.19754161 -0.17840464 -0.038723595
00000000: 7c1a 9a3d 90d4 2b3e 63f4 d93d 3b8e 273c
00000010: 0e4b 74bd f957 463e 1c62 5a3e 4505 573e
00000020: e3b6 863d 18d7 0f3e 6df4 17be 2ad3 1abe
00000030: 4d91 0f3d b9b9 4cbe 33be 06be 6424 133e
00000040: 04b3 f6bd befc 26be cc91 73be 5ed4 1d3e
00000050: 7f45 223e 7eaf 3e3e 50a0 41bd 6fca 03be
00000060: 9f76 683e 4f20 23be 577e 4d3e 75da 5e3d
00000070: ec79 dfbd 2f74 d83d 39bd 15be 7947 be3c
00000080: 4655 4f3e 4632 55bd c205 7d3d bb47 273e
00000090: 1f25 91bd 7a26 203e ecf2 393e 44d7 003d
000000a0: f54e 433e f1cc 573e 4231 35be c4c4 e93d
000000b0: e54b 81ba ceae cebd c504 4a3e 58f2 b73c
000000c0: 7a07 15bc 863c d43d 4560 583d a940 6f3c
000000d0: b76f cd3d 10e5 89bc 341a 53be 356e c63d
000000e0: f361 35bd 6985 f4bd d73f 1ebe 8594 013e
000000f0: 9a8c b73d 5948 4abe b5af 36be a29c 1ebd

attention_p.attn_1.weight f4 [16, 16]
-0.23458019 0.18888158 0.25644642 -0.38141748 0.012723057 -0.091970615 -0.013958701 -0.40820923
-0.28274527 -0.10214771 0.07569991 0.29947716 0.39265054 0.04532763 -0.12676229 -0.41442478
-0.28458795 0.3371365 0.18932222 -0.3820636 -0.24741948 -0.2581918 -0.18787353 0.23053838
-0.14561053 0.33635956 0.33135942 -0.21663396 -0.067806244 0.33309847 0.19978452 0.04668888
-0.07002949 -0.15176265 -0.051657792 -0.22316875 0.1343653 0.36821806 -0.08312144 0.21833062
0.4006392 0.27992114 -0.12084443 -0.37581274 -0.25217566 0.10548267 -0.23878436 -0.2743162
0.42147678 -0.11236803 -0.26056233 0.36229673 -0.30197933 0.4082453 0.24129565 -0.32923797
0.30580178 0.275529 -0.06230524 -0.44982275 -0.059162863 0.3980138 -0.11030545 -0.049092356
0.333322 -0.33056375 -0.17190564 0.12234068 -0.37324122 0.26681152 0.24541084 0.15767258
-0.14471321 -0.3447645 0.11696627 0.33309594 0.18433899 -0.34518677 0.35295695 -0.2207628
-0.44434848 0.03649455 0.28652352 0.36991823 -0.09416853 -0.31825304 0.00092863286 -0.14551306
-0.03990811 0.09702729 0.12508398 -0.19452345 0.055689707 0.1487843 -0.29679087 0.09392526
0.34126782 -0.18687494 0.17181395 0.13198991 0.3538106 0.25373232 -0.31495574 -0.13162762
-0.081885956 -0.21785372 0.3463626 -0.011707859 -0.1289353 0.36335537 -0.1505401 -0.27528095
0.22435331 0.3607563 0.029644612 -0.31115115 -0.036723945 0.42567098 -0.029248912 0.25767925
0.22534095 -0.04763308 0.01963677 -0.07986276 -0.29111105 -0.24798892 0.24502073 -0.28149283
-0.23926377 -0.27930707 0.40899488 -0.13598081 -0.19883552 0.34797493 0.14701599 -0.37683082
0.40628594 0.21203275 0.13246603 -0.022276467 0.10710951 -0.13545293 0.29858753 0.1271718
0.39586374 0.13698895 -0.032770656 0.21137416 -0.08506341 0.14041562 0.09783235 0.33437777
-0.29114422 -8.956699e-05 -0.2271918 0.2891877 -0.14328894 0.21194755 0.19794384 -0.12894258
-0.035283808 0.25662473 -0.3221082 0.39752826 -0.07558793 -0.13415252 -0.0018419226 0.01904523
-0.33843717 -0.030727271 0.30705875 -0.17281248 0.2659092 -0.39369905 0.37464714 -0.31086335
-0.25731465 -0.1548138 -0.16906616 -0.08317138 -0.29955798 0.24665996 -0.04850395 0.38298088
0.41706133 -0.35045078 0.19657163 0.311782 0.17421617 -0.010923526 -0.29942173 0.40991324
0.10497422 0.3123831 -0.114806294 0.15278302 -0.19305797 -0.41526058 -0.01483827 0.425384
0.034867503 -0.44947204 0.0012473514 0.25993085 -0.33908 0.440017 0.25949994 -0.15720053
0.13790394 0.25407258 0.29159933 -0.018901924 -0.037588485 0.20162448 0.10694566 -0.118755154
0.022005014 -0.33500543 -0.35754454 0.3707418 -0.43039593 -0.24823621 -0.35827377 0.14480455
0.32031944 -0.03478706 0.37034065 0.43061587 -0.050296307 -0.3619092 -0.22682463 -0.02111553
-0.115337215 -0.28128836 -0.13243324 -0.10207859 -0.26637882 -0.3792512 0.3110122 -0.106130764
0.10110055 -0.17349032 -0.3195179 -0.056671515 0.25314355 0.41519186 0.0680902 -0.28898498
-0.113289595 -0.18541503 -0.08868277 -0.02017223 -0.09457068 -0.19384724 -0.28999603 -0.10712533
00000000: ca35 70be 2c6a 413e f24c 833e 2749 c3be
00000010: 5e74 503c 175b bcbd 09b3 64bc cd00 d1be
00000020: fdc3 90be d232 d1bd 8e08 9b3d 1255 993e
00000030: 7e09 c93e 77a9 393d f9cd 01be 7c2f d4be
00000040: 83b5 91be 289d ac3e afdd 413e d79d c3be
00000050: 885b 7dbe b731 84be eb61 40be 4112 6c3e
00000060: ed1a 15be 5237 ac3e f1a7 a93e 4bd5 5dbe
00000070: 00de 8abd e28b aa3e 5094 4c3e d73c 3f3d
00000080: 9f6b 8fbd ab67 1bbe 1f97 53bd 5986 64be
00000090: 0f97 093e 1487 bc3e 933b aabd 1092 5f3e
000000a0: 9520 cd3e d351 8f3e 497d f7bd 876a c0be
000000b0: 2b1d 81be 4c07 d83d e383 74be 2c73 8cbe
000000c0: cecb d73e 3621 e6bd 6d68 85be f57e b93e
000000d0: 099d 9abe 8705 d13e 3516 773e e191 a8be
000000e0: 0d92 9c3e 2312 8d3e c833 7fbd 2b4f e6be
000000f0: c254 72bd 77c8 cb3e d3e7 e1bd 1115 49bd
00000100: 2ea9 aa3e a73f a9be 0808 30be c08d fa3d
00000110: 7919 bfbe 859b 883e fb4c 7b3e ec74 213e
00000120: b32f 14be f984 b0be 038c ef3d 8d8b aa3e
00000130: 5cc3 3c3e 52bc b0be c6b6 b43e a50f 62be
00000140: a581 e3be 4f7b 153d 36b3 923e ec65 bd3e
00000150: 6edb c0bd 10f2 a2be 7f6f 733a 6001 15be
00000160: b076 23bd 3eb6 c63d 0416 003e 2831 47be
00000170: e41a 643d e95a 183e f9f4 97be e35b c03d
00000180: a8ba ae3e 255c 3fbe ffef 2f3e 5d28 073e
00000190: aa26 b53e 34e9 813e e141 a1be 64c9 06be
000001a0: d3b3 a7bd 0c15 5fbe 7056 b13e 52d2 3fbc
000001b0: 9e07 04be b709 ba3e 2f27 1abe a0f1 8cbe
000001c0: e0bc 653e 0db5 b83e 42d9 f23c 344f 9fbe
000001d0: d96b 16bd 8cf1 d93e 6a9b efbc 89ee 833e
000001e0: c7bf 663e e81a 43bd 4bdd a03c 168f a3bd
000001f0: 820c 95be cff0 7dbe b7e6 7a3e d41f 90be
00000200: 9001 75be 5601 8fbe c767 d13e 8e3e 0bbe
00000210: 8a9b 4bbe c529 b23e 5c8b 163e f8ef c0be
00000220: b604 d03e 1d1f 593e 2da5 073e 237d b6bc
00000230: 3b5c db3d 2cb4 0abe 77e0 983e 5339 023e
00000240: a7ae ca3e d546 0c3e 863a 06bd 7872 583e
00000250: ba35 aebd 1dc9 0f3e 545c c83d 9033 ab3e
00000260: db10 95be e9d5 bbb8 f8a4 68be 6910 943e
00000270: 56ba 12be c708 593e cab1 4a3e 8609 04be
00000280: c185 10bd 5164 833e 5eeb a4be d388 cb3e
00000290: d8cd 9abd 475f 09be ab6c f1ba be04 9c3c
000002a0: a347 adbe c2b7 fbbc ce36 9d3e c1f5 30be
000002b0: 4025 883e ec92 c9be c0d1 bf3e 7b29 9fbe
000002c0: bfbe 83be 8287 1ebe ae1f 2dbe c255 aabd
000002d0: aa5f 99be 6e94 7c3e 14ac 46bd 1216 c43e
000002e0: 1089 d53e 496e b3be 134a 493e e4a1 9f3e
000002f0: b965 323e 97f8 32bc ce4d 99be 26e0 d13e
00000300: b9fc d63d adf0 9f3e 901f ebbd 2773 1c3e
00000310: fdb0 45be 099d d4be 371c 73bc efcb d93e
00000320: 3ad1 0e3d 3321 e6be 2b7e a33a a815 853e
00000330: e59b adbe e949 e13e 2ddd 843e 2df9 20be
00000340: b136 0d3e cd15 823e 824c 953e 35d8 9abc
00000350: 62f6 19bd a676 4e3e 5406 db3d e735 f3bd
00000360: dc43 b43c d585 abbe 1410 b7be dfd1 bd3e
00000370: db5c dcbe a231 7ebe a96f b7be a547 143e
00000380: e900 a43e e07c 0ebd 4a9d bd3e af79 dc3e
00000390: 8003 4ebd 2a4c b9be b744 68be 7afa acbc
000003a0: eb35 ecbd 0705 90be 949c 07be 940e d1bd
000003b0: ce62 88be 372d c2be fe3c 9f3e 165b d9bd
000003c0: ce0d cf3d 72a7 31be da97 a3be 6420 68bd
000003d0: 089c 813e 0794 d43e e072 8b3d d7f5 93be
000003e0: 6004 e8bd 70dd 3dbe 509f b5bd 3c40 a5bc
000003f0: 46ae c1bd e47f 46be 5c7a 94be 8664 dbbd

attention_p.attn_1.bias f4 [16]
-0.0074627562 -0.016535964 0.018936029 -0.017557507 -0.0074170483 -0.0033389844 0.007849213 -0.02817911
0.0152297495 -0.0138253365 0.017816594 -0.017593974 0.015260884 0.016273033 -0.016075533 -0.026281962
00000000: 238a f4bb 6e76 87bc bb1f 9b3c c3d4 8fbc
00000010: b60a f3bb ddd2 5abb fc99 003c e0d7 e6bc
00000020: 3386 793c aa83 62bc 1bf4 913c 3d21 90bc
00000030: c908 7a3c 064f 853c d6b0 83bc 454d d7bc

attention_p.attn_2.weight f4 [1, 16]
-0.4491254 -0.34982035 0.104500644 -0.17667109 -0.25992012 0.0062800823 0.37230304 -0.28099474
0.24912816 -0.36177835 0.27848214 -0.17228211 0.26713136 0.4108844 -0.15296964 -0.314984
00000000: c4f3 e5be a71b b3be 6f04 d63d 44e9 34be
00000010: 4014 85be 26c9 cd3b 819e be3e 8bde 8fbe
00000020: 741b 7f3e 033b b9be 3695 8e3e b96a 30be
00000030: 71c5 883e 715f d23e 13a4 1cbe 9545 a1be

lstm_t.weight_ih_l0 f4 [64, 7]
-0.1543372 -0.0593684 0.009286431 -0.049355146 0.22773494 -0.1695303 0.22438085 0.010590766
0.22950315 0.059950516 -0.21911293 0.22079141 0.053207006 0.10313074 0.16965003 -0.063534655
0.02411336 -0.09616824 0.12045846 -0.003767528 0.07389573 -0.14925481 -0.11384261 -0.11052213
-0.15171523 0.18747766 -0.1796512 0.15166423 -0.21631509 0.21358578 -0.24521752 0.17991586
0.00467084 -0.06458639 -0.12516956 0.15130019 0.06356255 0.11853951 0.063213415 0.03387673
0.20065042 0.101341 0.21778545 -0.16984378 -0.030941023 -0.050866883 0.101889156 0.063866496
-0.14457536 0.11054712 -0.032912813 -0.17454419 0.23504455 -0.18374513 -0.11473653 0.21606997
-0.08645732 0.14175707 -0.07579137 -0.09710188 0.22885619 -0.2367761 0.032351047 0.005105994
-0.14221334 0.035342984 -0.08142032 0.08109956 -0.11788785 -0.16265361 -0.23344362 0.04258483
-0.018251209 -0.072502635 -0.19967125 -0.009201335 -0.212451 0.06072305 -0.044556092 -0.14270723
0.08429897 -0.18481414 -0.0075880946 0.12620032 0.19861908 -0.11376865 -0.2178602 0.15327506
0.009168825 -0.2577333 -0.033187866 0.027635075 -0.049970336 0.17420726 0.05321242 -0.13894492
-0.023737568 0.010779796 -0.13049346 -0.11961349 -0.021213152 -0.019184431 -0.14804015 0.22267023
0.2603072 -0.1706271 0.119559474 -0.19692516 0.05400292 0.24231899 0.032260824 -0.19532149
-0.004080625 -0.18134363 -0.18947098 -0.0525847 -0.14152072 0.11466282 0.08080117 -0.22276922
-0.04244398 0.2332009 0.17000838 0.13450432 0.087600455 -0.20129344 0.21341428 0.23531458
-0.06718558 -0.21648139 -0.046328243 -0.012348009 0.16726555 0.13346064 -0.21307419 -0.14455463
0.033063516 0.18182574 -0.017969701 -0.25188267 0.12422747 -0.041867066 0.07624246 0.116519295
0.12090088 0.012278708 0.08013099 0.08440543 -0.09755669 0.05706551 0.15518065 -0.1909337
0.052917726 0.19165127 0.12217455 -0.12724055 0.06092832 -0.0079323165 0.21206641 -0.13352583
0.12536319 0.023307215 0.0029953697 -0.016998796 -0.21687533 0.08996055 -0.16647613 0.23142196
0.086833745 -0.12751561 0.18971571 0.17562804 0.22829415 0.12183106 0.049973655 -0.123577565
0.23099962 0.1207488 0.11974667 0.23122454 0.1805674 -0.12360497 0.17884937 0.0746697
-0.119551964 0.19378507 -0.10474982 -0.08816147 0.010697838 -0.0052766595 0.16750582 -0.1330846
-0.24453174 0.07759402 -0.17635238 -0.22409575 -0.19931689 -0.19941375 -0.084360406 -0.18563585
0.14185779 -0.12122382 0.14467093 -0.1209276 0.16619089 0.03299847 -0.23391524 -0.10326009
0.23769003 0.22737885 0.17971222 0.19947936 0.0581549 -0.19745359 -0.06628822 -0.17465164
0.1403776 0.1270125 0.065923624 0.19439918 -0.05446567 0.12285056 -0.025162268 -0.051018886
-0.16245228 -0.15886442 0.027758177 -0.13213152 0.021493468 -0.13266593 -0.039154418 -0.1739011
-0.19589853 0.10458605 0.18348904 -0.022691598 0.054160498 0.06641557 0.19615169 -0.02660267
0.24127191 0.01539671 0.1568754 -0.011106467 -0.106121965 0.010563845 -0.21797468 0.042982675
-0.06000278 0.07579653 -0.23284204 0.1855979 -0.061809767 -0.03210246 0.03191022 0.2080798
00000000: 920a 1ebe 482c 73bd 1d26 183c 9f28 4abd
00000010: 5933 693e 5a99 2dbe 18c4 653e e484 2d3c
00000020: e002 6b3e ac8e 753d 245f 60be 2517 623e
00000030: 97ef 593d 3636 d33d bdb8 2d3e 751e 82bd
00000040: 6289 c53c dbf3 c4bd edb2 f63d a2e8 76bb
00000050: a556 973d 41d6 18be 5026 e9bd 6d59 e2bd
00000060: 3d5b 1bbe 25fa 3f3e 7cf6 37be de4d 1b3e
00000070: b481 5dbe 3bb6 5a3e 4d1a 7bbe dd3b 383e
00000080: d90d 993b df45 84bd 732c 00be 70ee 1a3e
00000090: 152d 823d d8c4 f23d 0976 813d 53c2 0a3d
000000a0: 4e77 4d3e df8b cf3d 2603 5f3e 87eb 2dbe
000000b0: 0778 fdbc cb59 50bd 43ab d03d 70cc 823d
000000c0: 900b 14be 8766 e23d 96cf 06bd b6bb 32be
000000d0: 85af 703e af27 3cbe fcfa eabd 7241 5d3e
000000e0: 8910 b1bd c428 113e 8138 9bbd 5add c6bd
000000f0: 4759 6a3e 6f75 72be 8882 043d 2f50 a73b
00000100: 60a0 11be cec3 103d b2bf a6bd 8717 a63d
00000110: 2f6f f1bd ab8e 26be d80b 6fbe 6e6d 2e3d
00000120: 8f83 95bc 437c 94bd 9f76 4cbe 32c1 16bc
00000130: c18c 59be bcb8 783d 7380 36bd d821 12be
00000140: f0a4 ac3d eb3f 3dbe 8da5 f8bb a83a 013e
00000150: cd62 4b3e 8aff e8bd bf16 5fbe 23f4 1c3e
00000160: d738 163c 9ef5 83be 00f0 07bd f462 e23c
00000170: b2ad 4cbd 6363 323e 44f5 593d 9447 0ebe
00000180: 4a75 c2bc be9d 303c 14a0 05be ebf7 f4bd
00000190: 34c7 adbc ab28 9dbc d697 17be aa03 643e
000001a0: fc46 853e dfb8 2ebe 99db f43d c0a6 49be
000001b0: 2a32 5d3d 7822 783e ed23 043d 5b02 48be
000001c0: c3b6 85bb 25b2 39be ae04 42be 0e63 57bd
000001d0: cfea 10be 57d4 ea3d 157b a53d 9d1d 64be
000001e0: bdd9 2dbd 37cc 6e3e ad16 2e3e 80bb 093e
000001f0: de67 b33d de1f 4ebe 4689 5a3e 4ef6 703e
00000200: 9898 89bd 4cad 5dbe afc2 3dbd 4e4f 4abc
00000210: a947 2b3e e8a9 083e 1f30 5abe 2106 14be
00000220: 9c6d 073d 8730 3a3e 3235 93bc c4f6 80be
00000230: f96a fe3d cd7c 2bbd 0225 9c3d aba1 ee3d
00000240: e19a f73d a22c 493c b71b a43d c1dc ac3d
00000250: cdcb c7bd 86bd 693d ade7 1e3e 2084 43be
00000260: 42c0 583d 3b40 443e a736 fa3d 594b 02be
00000270: f98f 793d 8cf6 01bc f027 593e ffba 08be
00000280: 355f 003e c6ee be3c f74d 443b 0f41 8bbc
00000290: 9114 5ebe 3d3d b83d b878 2abe e1f9 6c3e
000002a0: e4d5 b13d 7493 02be d644 423e d6d7 333e
000002b0: f1c5 693e 9082 f93d 2db1 4c3d 3c16 fdbd
000002c0: 2a8b 6c3e 264b f73d be3d f53d 20c6 6c3e
000002d0: a9e6 383e 9a24 fdbd 4a24 373e 6dec 983d
000002e0: a9d7 f4bd 986f 463e 1387 d6bd 008e b4bd
000002f0: fc45 2f3c d4e7 acbb a586 2b3e 5447 08be
00000300: 8766 7abe 9de9 9e3d b895 34be 5b79 65be
00000310: ba19 4cbe 1e33 4cbe 26c5 acbd 5317 3ebe
00000320: 2b43 113e 3244 f8bd 9e24 143e e4a8 f7bd
00000330: f22d 2a3e 6729 073d 7a87 6fbe 077a d3bd
00000340: 0465 733e 00d6 683e 7b06 383e 5144 4c3e
00000350: d533 6e3d 4631 4abe 1ec2 87bd e1d7 32be
00000360: 25bf 0f3e 910f 023e f702 873d 9410 473e
00000370: 6517 5fbd 1399 fb3d 1a21 cebc 2ef9 50bd
00000380: e459 26be 5bad 22be 1e65 e33c 7c4d 07be
00000390: 1213 b03c 94d9 07be 6260 20bd 2113 32be
000003a0: a099 48be 3631 d63d 8de4 3b3e bbe3 b9bc
000003b0: 66d7 5d3d e304 883d fddb 483e d8ed d9bc
000003c0: fc0f 773e 7b42 7c3c f2a3 203e e6f7 35bc
000003d0: 7956 d9bd fa13 2d3c c134 5fbe 9a0e 303d
000003e0: 7ac5 75bd 363b 9b3d 256e 6ebe 600d 3e3e
000003f0: 3d2c 7dbd de7d 03bd 4ab4 023d df12 553e
