Params/dataset2_50_0.001_10_16_222_model.pt (torch, 46565 bytes, 31 tensors)

lstm_p.weight_ih_l0 f4 [64, 10]
000000 3b 5d db bd 78 9c f0 bd b1 8b 21 bd 6f 06 b1 bc
       -0.10711142 -0.11748594 -0.03943986 -0.021609513
000010 68 ca 5b 3e 91 73 07 be a0 24 93 3d 7b 2f 2e 3e
       0.2146393 -0.13227679 0.0718472 0.170103
000020 56 cb aa bd 6b 4f be bd c3 48 e3 3d 82 fc ec 3c
       -0.083395645 -0.092924915 0.110978626 0.028928999
000030 d4 f5 aa 3b 32 54 76 3e 38 b3 04 bb f5 db 04 be
       0.0052172933 0.24055555 -0.0020248424 -0.12974532
000040 44 04 0e bc 18 d3 47 3d ed 8f 62 3d 45 dc b7 3d
       -0.008668009 0.0487853 0.05531304 0.0897756
000050 ad 69 f7 3b 55 e7 2d 3d 9e 44 60 be 62 74 3f 3e
       0.0075504393 0.042456944 -0.21901175 0.1869674
000060 e4 2e 11 be 2d 30 ae bd d0 ef b5 3d 83 b5 0a bd
       -0.14178044 -0.085052826 0.08883631 -0.03386451
000070 1b 2c 2f 3e 3d d4 ce 3d 87 d8 6c 3e 95 68 a1 3d
       0.17106669 0.10099075 0.23129474 0.078812756
000080 c2 29 83 3d b7 f0 51 3d 26 3d 1e be 65 59 1d 3d
       0.06404449 0.051254954 -0.15453014 0.03841533
000090 53 32 b7 3d 23 9a 44 bd 98 b2 02 be b9 63 12 be
       0.089451455 -0.04799856 -0.1276344 -0.14295854
0000a0 ec a0 25 3e 05 9d 3c be a7 f5 86 3e ef 50 0f bd
       0.16174668 -0.18419273 0.26359293 -0.034989294
0000b0 ec 41 68 3d ec 96 21 3e f8 6f 31 3e fa 40 7d 3d
       0.056703493 0.15780228 0.17327869 0.061829545
0000c0 f9 72 5a be 77 e7 f4 bb 5f d4 da bd a0 a8 5d be
       -0.21332921 -0.007473882 -0.10685038 -0.21646357
0000d0 db 2a a3 bd 76 6e ec 3d 39 22 c6 3c 62 be 5c 3e
       -0.079671584 0.11544506 0.02418624 0.21557
0000e0 c2 36 15 be c4 59 e7 3d f3 78 45 3e 1e 62 2c be
       -0.1457167 0.11296418 0.1928442 -0.16834304
0000f0 7c f5 6c 3e 05 b7 ec 3d 11 f7 66 bc 04 26 76 bd
       0.2314052 0.11558346 -0.014096991 -0.06009485
000100 f0 7c 01 be a3 5d 58 3e 50 c4 b3 3d 25 04 7e bc
       -0.12645316 0.2112947 0.08777678 -0.015503918
000110 44 63 74 3e 58 64 00 be 47 f0 f1 bd 72 11 01 be
       0.23865992 -0.12538278 -0.118134074 -0.12604311
000120 71 2b 78 3e ce 59 45 be 2d 52 1b 3b d5 44 e6 bc
       0.24235322 -0.19272539 0.0023700104 -0.028108994
000130 f5 94 42 bd ce 1e 63 be 3e 8d db 3d 92 68 3e bd
       -0.047505338 -0.2217972 0.10720299 -0.046486445
000140 37 11 6e be fe 10 d1 bc bf 9c 3a be e0 5e 9c 3d
       -0.23248754 -0.025520798 -0.18223856 0.076352835
000150 14 84 d6 3d 74 2c 02 be 82 a4 55 3e 09 dc f9 3c
       0.10474411 -0.1271227 0.20863536 0.030500429
000160 9c 0b 6a be 33 be 59 3c d2 42 6e 3c f1 a7 02 3e
       -0.22855991 0.013289976 0.014542298 0.12759377
000170 1f ec 57 be d6 fa 21 3d 09 f7 0d be b9 17 17 3d
       -0.21086167 0.039545856 -0.13863768 0.036887858
000180 d5 5c 3b be 55 7a ca 3c 92 08 5c be 48 bd 93 3d
       -0.18297131 0.024716536 -0.21487644 0.07213837
000190 1d ec 30 3d b2 9b 31 3e 63 76 7a 3e 35 c7 82 3d
       0.043193925 0.1734455 0.24459223 0.06385652
0001a0 37 27 e5 bd 4d 6e c0 bd b2 c0 ff 3d 35 f3 f4 3d
       -0.1118912 -0.09396038 0.124879256 0.119604506
0001b0 6d 1e 1b bc 94 b0 33 be 68 bd 02 be 66 3b 50 3c
       -0.009467703 -0.17547828 -0.12767565 0.012709474
0001c0 83 d5 ed 3d 2b 8c fd 3d 2f 47 f3 3d 12 f6 1d 3e
       0.1161299 0.123802505 0.118788116 0.154259
0001d0 c8 cd fd bc 44 2e 03 3e 87 97 5f 3d 91 b0 5a 3e
       -0.030981913 0.12810618 0.054587867 0.21356417
0001e0 0a c6 0b 3e b7 1e 38 3c 6a 26 d4 3d 9a fe 7d bd
       0.13649765 0.011237792 0.103588894 -0.062010385
0001f0 c4 ad 66 be bb 46 93 3d 3c 7b 5d 3e 54 00 cb 3d
       -0.22527224 0.07191225 0.21629041 0.09912172
000200 0e 46 07 bc 37 e5 6b be 6e 11 46 be 0e c5 c6 3d
       -0.008256448 -0.23036657 -0.19342586 0.09705554
000210 dd 9c 9c 3d 5d f9 16 3e e2 6e 0f 3e 7d f9 5a bc
       0.07647107 0.14743562 0.14007142 -0.013365147
000220 92 48 5b be 39 6b d4 3d 4b 94 47 be 59 f4 72 3d
       -0.21414402 0.103720136 -0.19490163 0.05931506
000230 4c f9 99 bc b1 40 00 3e 93 d0 6e 3e ee 76 df bb
       -0.018795632 0.12524678 0.23321752 -0.0068195974
000240 ed 47 f6 3d e1 53 33 3c c8 01 00 3e 5a 6f f7 bd
       0.120254375 0.010945291 0.1250068 -0.120817855
000250 ea 04 73 be 1a b1 c3 bd 91 30 bd 3c 90 57 ef 3d
       -0.23732343 -0.09555264 0.023094447 0.11686623
000260 22 f7 21 3e 2c a0 ab 3a 94 32 c8 3d 49 3f 0b 3c
       0.1581693 0.0013094 0.09775272 0.008498975
000270 46 0d 67 3e 27 9e c0 3d 21 17 c4 3c f3 dc 46 bb
       0.22563657 0.09405165 0.02393681 -0.0030344098
000280 0d 80 84 3d 30 3f 7f bd 46 9b 65 3e 6b 73 08 3e
       0.06469736 -0.06231612 0.22422513 0.13325278
000290 da 24 bd bd 6e 63 af 3d f3 b3 fd bd a7 76 5e be
       -0.092355445 0.085638866 -0.12387838 -0.2172495
0002a0 83 ca 71 be 36 16 76 be ba 7d eb bd 78 68 dd bd
       -0.23612408 -0.2403191 -0.1149859 -0.108109415
0002b0 47 01 58 bd 60 1b 59 3e 11 20 14 3d db 06 ef 3d
       -0.052735593 0.21201849 0.036163393 0.116712295
0002c0 0a 8d 3d 3d bd d3 97 3d 3f 5a c0 bc 89 ec 63 ba
       0.046277083 0.07413433 -0.023480533 -0.0008694609
0002d0 97 d3 62 3e ac fc 3a 3e 0b ab 12 bc da 3b b1 3d
       0.22151028 0.18260449 -0.008951913 0.08653994
0002e0 ab 36 03 3e 07 3c f4 3d 58 1f 0c 3e 80 bc bb bd
       0.12813823 0.11925512 0.13683832 -0.09166813
0002f0 09 b1 b8 3d fe 99 54 3b 44 40 dd 3d 1c 89 24 bd
       0.09018142 0.003244042 0.10803273 -0.04016982
000300 ff 79 1e 3e 0a 7b 29 be 4c d5 1a 3e 7e 1e 9d 3d
       0.15476225 -0.16550842 0.15120429 0.076718315
000310 0a b2 0b 3e 1b 36 ec 3b 21 15 de bd c7 10 81 3b
       0.13642135 0.0072085983 -0.10843874 0.0039387676
000320 81 9d 08 3e 5c cf 5b 3d 69 ef 5b be d2 af 4e be
       0.13341333 0.05366455 -0.21478046 -0.20184258
000330 8a 43 70 3e 38 4b 20 be 9d bf 8a bd 01 b1 2d be
       0.23463264 -0.15653694 -0.067748286 -0.16962053
000340 51 74 ad 3d bb 72 63 be c6 6f 1f 3e 70 5f 2f be
       0.08469451 -0.22211735 0.15569982 -0.1712625
000350 ce ef 72 be 59 6d 2a bd 7c 82 38 3d f8 2f f5 bd
       -0.2372429 -0.04160819 0.045046315 -0.1197204
000360 68 d6 b7 3d 35 6a 6c be 74 72 50 3e 78 1a 60 be
       0.089764416 -0.2308739 0.2035616 -0.21885097
000370 fc c2 a0 3d d6 06 13 bd 81 39 a3 bd ce e7 49 3e
       0.0784969 -0.03589519 -0.079699524 0.19717333
000380 7e f2 57 3e 43 2b 4a 3e 24 d4 1b be 20 15 39 be
       0.21088597 0.19743066 -0.15217644 -0.18074465
000390 5d 68 5f be 1a 77 02 3e b8 0e d6 bc 3a fd 07 be
       -0.21817155 0.12740746 -0.026130065 -0.13280192
0003a0 62 c3 ee bd e0 23 04 3e 23 24 68 bd d2 f7 cf 3c
       -0.1165836 0.1290431 -0.056675088 0.025386725
0003b0 d2 38 5b be e8 ab 5d 3e 30 e6 98 bd 74 6f c4 3d
       -0.21408394 0.21647608 -0.0746578 0.095915705
0003c0 b8 4f 53 be 4a a5 3b 3e 5a 20 4b 3e f0 97 0a be
       -0.20635879 0.18324772 0.1983656 -0.13534522
0003d0 2c 4a da bd 1b 54 26 be b5 37 68 3e 4e bb 0a 3e
       -0.106586784 -0.16243021 0.226775 0.13548014
0003e0 85 8d cb 3d 73 05 d4 3d b6 e6 37 be ea 39 eb bd
       0.09939102 0.10352602 -0.17959103 -0.114856556
0003f0 11 c9 2a be 98 ed a8 bd ac 36 96 bd ac c2 12 3e
       -0.16678263 -0.082484424 -0.073346466 0.14332074

lstm_p.weight_hh_l0 f4 [64, 16]
000000 a0 13 d5 bc 66 f0 99 bc 55 0e 59 3b c1 62 81 3e
       -0.026010334 -0.018791389 0.0033120115 0.25270656
000010 16 b2 73 3e 34 6c 28 be 36 30 4e 3d 40 c0 5d 3d
       0.23798403 -0.16447526 0.050338946 0.054138422
000020 30 2d 11 3e 99 f5 46 bd d4 ae cc 3d f6 58 08 3e
       0.14177394 -0.048574064 0.09994283 0.13315186
000030 40 13 c3 3c 8c 25 58 3e f5 f5 9d 3d dc 5d 42 3e
       0.02381289 0.21108073 0.07712928 0.18981117
000040 74 04 35 3e 34 2c 74 be 89 e3 fc bd 77 f6 30 bd
       0.1767748 -0.23844987 -0.123480864 -0.043203797
000050 62 a3 2a 3e 94 e4 3f be 78 eb 2b 3e 08 63 e3 3d
       0.16663888 -0.1873954 0.16789043 0.11102873
000060 68 26 3b 3d 64 68 56 3e 67 61 03 3c fb 2d 32 be
       0.045690924 0.2093826 0.008018828 -0.17400353
000070 7d 51 00 3e aa 7f 61 be d3 c2 5b be 7e f8 98 3d
       0.12531085 -0.22021356 -0.21461038 0.07469271
000080 ba 82 4e 3e 25 d2 80 be 2d 95 37 3e 82 3a 3e 3e
       0.20167056 -0.25160328 0.17928 0.18577006
000090 49 4c 24 be 66 25 57 be 38 68 0b 3b 32 78 34 3e
       -0.16044725 -0.2101036 0.0021271836 0.17623976
0000a0 83 dd 09 3d 73 b1 29 be 52 34 8f bd 36 63 00 bc
       0.033658516 -0.16571598 -0.06992401 -0.007836154
0000b0 21 e1 7f 3e 91 c6 d5 bd 02 66 35 be ea 9a 84 bd
       0.24988224 -0.10438264 -0.17714694 -0.0647486
0000c0 71 3e 0b be 5a be d4 bc 7d 62 a7 3c 8e 00 d5 bd
       -0.13598038 -0.025969673 0.020432705 -0.104004964
0000d0 20 74 b1 3d 16 06 6e be 2d b2 27 3e 47 17 99 3d
       0.08664727 -0.23244509 0.16376562 0.07475143
0000e0 81 06 01 3e d6 f9 8b bd d0 b9 bd 3d 8c 43 bf 3d
       0.12600137 -0.06834762 0.092639565 0.093390554
0000f0 11 0f c1 3c 71 48 b7 bd b5 41 9e bd e0 00 1e 3e
       0.023566755 -0.08949364 -0.07727376 0.15430021
000100 53 db 4b 3e c3 ef 59 bc 48 3a 41 be 50 d0 0c 3d
       0.19907884 -0.013301793 -0.18869889 0.03437835
000110 63 d0 6b be 87 2b b5 3d 53 68 c9 bd b5 89 a7 3d
       -0.23028712 0.08846193 -0.098343514 0.081805624
000120 f7 53 12 be 12 90 dd 3d 5c b5 3a be e3 c6 3e 3e
       -0.14289843 0.10818495 -0.18233246 0.18630557
000130 1c 19 3f 3e 8c 09 69 3e f3 76 9f 3d 81 a4 1c be
       0.18661922 0.22757548 0.0778636 -0.15297128
000140 eb 7e a2 bb 52 c8 1c 3e d2 b4 11 be bc 2e 3d be
       -0.0049589775 0.15310791 -0.14229134 -0.18474859
000150 3e b9 cb 3d 7f e2 03 be ad 85 5f be 93 f6 32 3e
       0.099474415 -0.1287937 -0.21828337 0.17476873
000160 23 4d 1c 3e 44 d6 1c be 3e d5 df bd 78 1f 31 3d
       0.152638 -0.15316111 -0.109293446 0.0432429
000170 b6 15 f5 bd ec e6 5b be 92 a7 e7 3d 9a f9 7d 3d
       -0.11967032 -0.21474808 0.113112584 0.062005617
000180 71 0e 53 be ae 5f bb 3c 87 4c 3c bc 0a c1 03 be
       -0.20610978 0.022872772 -0.011492855 -0.12866607
000190 3a 0c 42 3e 78 75 98 3d c7 50 82 3e 49 5d a8 bc
       0.18949977 0.074442804 0.25452253 -0.020552294
0001a0 84 2e 0e be 80 b4 74 bc a9 ea 4d be d0 07 9d 3c
       -0.13884932 -0.014935613 -0.20109047 0.019168764
0001b0 d6 df 59 be f0 1e 3f 3e 02 5e 67 bd df 0c 14 3e
       -0.21276793 0.18664145 -0.056486137 0.14458035
0001c0 55 b3 21 3e 42 71 5c be 56 b9 78 3e 6d 2a 38 be
       0.15791066 -0.2152758 0.2428945 -0.17984934
0001d0 8a b3 71 3e 4d ab a8 bd cb 27 4b 3d 57 cc ae 3d
       0.23603645 -0.08235798 0.049598496 0.085350685
0001e0 44 1d 6f 3e e5 78 32 3e bb 92 14 3e e2 b6 76 3d
       0.23351008 0.1742893 0.14509098 0.060233004
0001f0 ae 9e a5 bd 15 e6 c7 3c 42 8e 67 bc 5b 7e 27 3e
       -0.080869064 0.024401704 -0.014133038 0.16356795
000200 06 3e 3e be fa 59 23 3e 78 93 19 3e a3 09 82 3e
       -0.18578348 0.15952292 0.14997661 0.25397977
000210 d2 a4 91 3d 70 e7 5c 3e 04 06 2d be 7c af 37 be
       0.07111515 0.21572661 -0.16896826 -0.17938036
000220 bc b8 c1 3c 61 19 d8 3d 20 4e 23 3e 96 aa 4f be
       0.023647659 0.10551716 0.15947771 -0.20279917
000230 99 44 23 bd f8 a1 1d be 12 12 8c 39 69 da 84 bb
       -0.03986034 -0.15393817 0.00026716344 -0.004054357
000240 73 c7 4d be cd e9 d0 bc e0 6c 26 be 8f 14 9d bd
       -0.20095615 -0.02550211 -0.1625247 -0.07669937
000250 af 6f b5 3c a4 06 23 3e 8c dd 1c 3c 10 17 0c be
       0.022147981 0.15920502 0.009574305 -0.13680673
000260 36 f4 31 be 95 00 a3 bd b2 3a 27 3d 7c 06 23 be
       -0.17378315 -0.079590954 0.04082746 -0.15920442
000270 f8 24 7c 3e 62 33 f4 3d c1 e2 4f 3e 06 12 25 3d
       0.24623477 0.11923863 0.20301344 0.04030039
000280 09 ca 31 be 19 a8 1f 3e ba ce 06 be 69 7a 63 3e
       -0.17362227 0.15591468 -0.13164797 0.22214665
000290 af 09 76 3d 89 ce 2f 3e 8e d1 7a be a0 73 ac bd
       0.06006783 0.1716863 -0.24494001 -0.08420491
0002a0 80 0d fa 3d 27 6b 21 be 44 45 43 3e 14 38 1d 3c
       0.12209606 -0.15763532 0.19069391 0.00959589
0002b0 52 e8 46 be b4 76 f5 3d 38 76 46 3d 4f 15 f6 bd
       -0.1942456 0.119855314 0.048452586 -0.12015783
0002c0 12 93 c1 bd da a2 bf bc 78 ae 79 bd be 4d 7f 3e
       -0.094518796 -0.023393083 -0.060957402 0.24932
0002d0 37 75 4d be b5 2c b0 bc b6 95 42 be 43 5a 2f bc
       -0.20064245 -0.021505693 -0.19002423 -0.010702672
0002e0 86 9d 13 be 18 fe 6d 3e ae c1 0f be 73 da 71 3e
       -0.14415559 0.2324146 -0.14038727 0.23618488
0002f0 30 21 52 bb b7 2c c9 3c 05 82 9c bd f7 27 0f bd
       -0.0032063238 0.024557455 -0.07641987 -0.034950223
000300 d4 ea 84 bd ea 90 e6 bd a0 6c 31 be 8b 53 69 bd
       -0.064901024 -0.11258109 -0.17326593 -0.05696444
000310 57 d1 ff bd 69 a9 24 3d be 6f b6 bc 2a e4 10 be
       -0.124911 0.040200625 -0.02227008 -0.14149538
000320 63 11 80 be ff 8e 03 be f6 74 40 3e d9 97 dd 3d
       -0.25013265 -0.12847517 0.18794617 0.10819978
000330 70 0e 1c 3e c0 9f 64 bd cc 3d 3e 3e 14 72 3c 3e
       0.15239882 -0.055816412 0.18578261 0.18402892
000340 46 bd 04 be 5a 77 00 be e6 4c 04 3e 0b a1 19 3e
       -0.12962827 -0.12545529 0.1291996 0.1500284
000350 0c 8f c2 bd f5 b2 bf 3d 79 04 b0 3d 9b 5d e1 bd
       -0.0949994 0.09360305 0.08594603 -0.11004182
000360 ad b7 4a be 7a 15 93 bd a1 5f 2e be e3 95 5a 3e
       -0.19796629 -0.07181831 -0.17028667 0.2134624
000370 f0 70 0c 3e 7d 5d 72 3e 19 28 16 3e 05 3f c9 3d
       0.13714957 0.23668475 0.14663734 0.09826473
000380 66 c6 cc 3c 06 23 3b 3e 63 d6 d4 3d 63 44 da 3c
       0.024996947 0.18275079 0.103924535 0.026643937
000390 41 ed 31 3e 11 f6 44 3e 26 4c b8 bd 70 cc 66 bd
       0.17375661 0.19234492 -0.08998899 -0.05634731
0003a0 c0 1d 4c bd f6 e0 42 be 20 11 2e be 6d c9 51 be
       -0.04983306 -0.19031128 -0.1699872 -0.20486994
0003b0 c0 8e 8f 3c 19 93 0a bd ec 25 00 3e b6 ee 4a 3d
       0.017524123 -0.03383169 0.12514466 0.04954406
0003c0 0c 93 fa bd 9c 01 8a 3d 45 32 6b be cb a5 af 3d
       -0.12235078 0.06738588 -0.22968395 0.085765444
0003d0 c8 f8 18 3e ac 37 1f be 2f 9c 1b 3d 8f 53 2c bb
       0.14938653 -0.15548581 0.037990745 -0.0026294922
0003e0 b1 53 75 3d 5a 1e 41 3e 1d eb 21 be a3 47 2f be
       0.059894267 0.18859234 -0.15812345 -0.17117171
0003f0 d3 d6 bd 3c aa 7b 59 be 6a f8 f8 bd 59 3c b5 3d
       0.023173725 -0.2123858 -0.12156756 0.08849401

lstm_p.bias_ih_l0 f4 [64]
000000 ec 76 fd bc ff 57 57 be a1 c5 2e be b7 e2 aa bd
       -0.030940495 -0.21029662 -0.17067577 -0.08344024
000010 a8 55 0c 3e 49 1c 86 bd cc 73 d9 3c 53 89 4b be
       0.1370455 -0.06548364 0.026544474 -0.19876604
000020 fd d4 39 3e 1c 35 81 be 21 ac b1 3d 3b 47 1e 3d
       0.18147655 -0.25235832 0.08675409 0.03864215
000030 09 4e 66 3e 25 4f 19 be cb 6e 02 3e d9 d0 08 3e
       0.22490706 -0.14971597 0.12737577 0.13360919
000040 00 c7 27 be 0f e2 45 3e c7 e7 2e be 69 d5 28 be
       -0.16384506 0.19324516 -0.17080604 -0.1648766
000050 dd e2 61 be 53 b1 3b 3e 30 4d a1 3d 11 9f f4 bb
       -0.22059198 0.18329363 0.078760505 -0.0074652513
000060 75 ef ef 3a d3 98 36 3e 5a ea 29 bd 39 61 d2 3c
       0.0018305617 0.17831735 -0.04148326 0.025681125
000070 31 90 0f be c7 33 3b be 18 51 73 be 2a 03 0c 3e
       -0.14019848 -0.1828147 -0.23761404 0.13673082
000080 16 1a c9 bd 78 67 07 be 8d 65 2e 3e d2 01 63 3e
       -0.098194286 -0.13223064 0.17030926 0.22168663
000090 4c 31 af 3c 72 f8 a5 bd a3 c6 67 be 09 5b 58 be
       0.021385811 -0.08104028 -0.22634368 -0.21128477
0000a0 e1 6f f2 3d cb 79 17 be 94 80 62 be 9d dd 32 be
       0.118377455 -0.14792554 -0.22119361 -0.17467351
0000b0 7c df 74 bd 23 1a ea 3d be 28 27 3e d2 22 5f bd
       -0.059783444 0.114307664 0.16324136 -0.054476567
0000c0 79 1a 41 3e a3 f1 4f 3e fa a7 ea 3d 39 d5 78 3e
       0.18857755 0.20307021 0.1145782 0.24300088
0000d0 c7 cc 82 be 6d b3 5f 3d 1c 6d 3a be 51 e9 76 bc
       -0.25546858 0.054614473 -0.18205684 -0.015070275
0000e0 a9 c9 51 3d 77 57 9d 3d 73 c3 46 bd 5e bb f9 3c
       0.05121771 0.07682698 -0.04852624 0.030484851
0000f0 b0 dc 1c be 33 82 36 3e be 2d d9 bd 50 a4 19 be
       -0.1531856 0.17823105 -0.10604428 -0.15004086

lstm_p.bias_hh_l0 f4 [64]
000000 e0 16 82 be e4 4c b5 bc f2 d4 a5 bd 99 50 b9 3d
       -0.25408077 -0.02213139 -0.08097257 0.09048576
000010 2d 32 da bc 9a a0 46 3d 09 db 2b be 61 97 62 3e
       -0.026635254 0.048493005 -0.16782774 0.22128059
000020 52 72 99 bc 55 26 49 be 7b 88 30 3e 53 fc 7b ba
       -0.01873127 -0.19643529 0.17239563 -0.00096124894
000030 f3 84 aa bc 29 51 00 be f8 77 a9 bd 96 11 4b 3d
       -0.020815348 -0.1253096 -0.08274835 0.049577318
000040 e3 22 e5 3d 5f e2 7c be 85 64 08 3d 6d 05 8a 3d
       0.11188295 -0.24695729 0.033298988 0.06739316
000050 61 c1 00 3e d5 74 94 3d d0 dc a7 3d 4d 49 4b 3e
       0.12573768 0.072488464 0.081964135 0.19852181
000060 aa 87 a4 bd 19 9e ed 3c e0 e1 ca bd 14 f0 1c 3d
       -0.08033688 0.02900605 -0.099063635 0.038314894
000070 9d 3f f6 bd 9b 09 b1 3d 0f d2 b1 3c 10 f4 57 3c
       -0.12023852 0.0864441 0.021706609 0.013180748
000080 9b 02 71 be 4c 2a 26 3e 5d cd 6c be 14 44 51 3d
       -0.2353615 0.16227072 -0.23125215 0.051090315
000090 c2 d0 11 be a2 69 27 be 74 c5 1e bb c1 2f 24 be
       -0.14239791 -0.1634889 -0.0024226578 -0.16033842
0000a0 54 66 00 be e7 5d 19 be 9a 56 27 3e e8 05 78 bd
       -0.12539035 -0.14977227 0.1634163 -0.060552508
0000b0 2d b6 b4 3d 71 0b 40 bd de 77 4d be 0e 80 04 3e
       0.0882381 -0.04688591 -0.20065257 0.12939474
0000c0 49 16 09 be a1 67 0a 3e d5 57 5b be f5 9d 75 be
       -0.13387407 0.13516094 -0.21420224 -0.23986037
0000d0 36 4f 88 3d 9a e1 8a bd 72 5e 07 be 96 5e 6c 3e
       0.06655733 -0.06781311 -0.13219622 0.23082957
0000e0 c3 2e 65 3e 55 eb 77 be 4c da 3c 3e 5a 13 e0 3d
       0.2238112 -0.24210866 0.18442649 0.10941191
0000f0 52 86 aa bd c6 1a ba bd 8a 74 8b 3d 9c 34 48 bd
       -0.08326401 -0.09087138 0.068093374 -0.048878297

lstm_p.weight_ih_l1 f4 [64, 16]
000000 d0 9b 3b bd 42 14 a4 3d 4f b2 5c 3e 81 80 24 3c
       -0.04580289 0.08011676 0.21552394 0.010040403
000010 51 21 36 be e3 2e d6 3d ab 8d 61 3e 8e 8c 5b 3e
       -0.17786147 0.10458162 0.22026698 0.21440336
000020 fc a8 5e 3e b5 e1 d1 bd 19 06 06 be 64 a1 02 3e
       0.2174415 -0.10248128 -0.13088264 0.12756878
000030 5f e3 ab 3d d5 65 45 3e 64 75 b1 bd 4c d5 d0 bd
       0.08392977 0.19277127 -0.086649686 -0.10196933
000040 48 c6 20 bd 6a 13 42 3e db 74 a0 3d c5 9e 6f 3e
       -0.039251596 0.18952718 0.078347884 0.2340041
000050 55 0f 0c be 79 0e 8a bd 8a c7 13 3e 5d ea 88 bd
       -0.13677724 -0.06741042 0.14431587 -0.06685326
000060 77 5e 52 3e a1 bd 5d bd 54 b4 35 3e 4a b5 1f 3e
       0.20543848 -0.054135922 0.17744571 0.155965
000070 da f3 23 3d 9f dc 7f bd ee 8a 18 be 15 89 04 be
       0.040027477 -0.06246626 -0.14896747 -0.12942918
000080 a7 4f 12 be b5 54 48 be 29 0c 47 3e 74 ad bf 3d
       -0.14288197 -0.19563563 0.19438232 0.093592554
000090 de 17 a4 bd 7d 7d 47 3e 57 65 95 3c c2 29 c2 3b
       -0.08012365 0.19481464 0.0182368 0.005925388
0000a0 77 a9 1a 3e 6e 93 6a 3e 9a 6f 1f 3e 3c 79 b7 bd
       0.15103708 0.22907802 0.15569916 -0.089586705
0000b0 75 b4 61 be 51 c0 d5 bd 1f 4e 51 bd 3a 10 c7 3d
       -0.22041495 -0.10437072 -0.051099893 0.09719892
0000c0 63 05 06 3e d7 0a 7a be 7e 03 5f 3e f3 75 7f 3e
       0.13087992 -0.24418198 0.21778676 0.24947338
0000d0 bf d5 8c bd 27 96 45 3e 26 a2 eb 3d 65 5a 16 be
       -0.06876706 0.1929556 0.11505537 -0.1468292
0000e0 a0 05 d4 bd 27 8d 50 be 16 7f 57 3e 8e d3 3e 3e
       -0.103526354 -0.20366345 0.21044573 0.18635389
0000f0 bd 9c 3e 3e 51 8b 08 3e 9a 0c 19 3e 1a 74 26 3e
       0.18614478 0.13334395 0.14946213 0.16255227
000100 55 c8 9a bd f5 bb c5 bd c1 c6 4c 3e d9 ad a1 bd
       -0.075577416 -0.096549906 0.19997694 -0.07894487
000110 29 74 05 3e 29 36 ed bd a0 3d 61 be a0 8e 40 be
       0.13032593 -0.11582596 -0.21996164 -0.18804407
000120 14 03 59 3e 89 ab 56 3e 2f a2 6f be 2f 2d ab 3c
       0.2119258 0.20963873 -0.23401712 0.020895569
000130 33 be 6e 3e b3 cb 19 be a3 8c 01 bc b8 26 f6 3d
       0.23314743 -0.15019111 -0.007907066 0.12019104
000140 0e 86 23 3e 69 cf a4 bd 88 f5 91 bd 1c d3 40 3d
       0.15969107 -0.08047373 -0.071269095 0.04707633
000150 c0 c0 0e 3d 05 c7 2d bd a3 80 61 3e aa 08 16 be
       0.03485179 -0.042426128 0.22021727 -0.14651743
000160 97 e4 e2 bd 96 56 5d 3e 5f b4 9a ba 76 eb 8e bc
       -0.11078756 0.21615061 -0.0011803022 -0.01744626
000170 fe 0e 02 3e 77 cd d1 3d 93 62 75 ba 5a d8 da 3d
       0.12701032 0.102442674 -0.0009360697 0.10685797
000180 43 db d2 3d 44 ce ba bd 88 a7 1f 3e cd d7 2d 3e
       0.10295727 -0.09121373 0.15591252 0.16976853
000190 cd 8b 72 be 40 59 2c be ea 8c 3d 3e 40 4c a0 3c
       -0.23686142 -0.16830921 0.18510786 0.019567609
0001a0 12 c5 ee 3d d0 ee af 3d 8a 59 dd bd bd 55 b4 bd
       0.11658682 0.08590472 -0.10808094 -0.08805416
0001b0 05 cb 40 be 47 06 2a be f7 2a 56 3e b0 f0 57 be
       -0.18827446 -0.16603957 0.20914827 -0.21087909
0001c0 86 d6 e7 3d 78 71 ea 3d c6 83 68 3e 46 96 78 be
       0.11320214 0.11447424 0.22706518 -0.24276075
0001d0 dd a9 ee 3d ae 53 c3 3d 5b 9b 23 3e b6 a4 74 3e
       0.116534926 0.09537445 0.15977232 0.23890957
0001e0 06 bd e7 3d 17 24 7b 3d 3e 6a 5d bd a7 6b 5c be
       0.1131535 0.061313715 -0.0540564 -0.21525441
0001f0 10 93 d0 3d 50 40 ce bd 94 22 ff 3d 93 f4 56 be
       0.101843 -0.100708604 0.12457767 -0.20991735
000200 5f ea ac bc 9f 2b 24 3e f9 fa e8 3c c7 b4 21 bd
       -0.02110785 0.16032265 0.028439986 -0.039479043
000210 9f e6 8a 3d 47 02 ac 3d 54 8a 4e be 93 af ba bc
       0.06782269 0.08398872 -0.20169955 -0.022788798
000220 9f b3 e6 3d 06 4b 4d 3e 49 0b 16 3e d3 04 17 3d
       0.11264729 0.2004815 0.14652742 0.036869835
000230 d0 94 42 3e 73 3e 26 3e ec d1 63 bd da 9a e7 3c
       0.1900208 0.1623476 -0.05562012 0.028272081
000240 3b aa 75 bd 0a d3 cc bd 6b d1 3b 3e e7 c0 d6 3d
       -0.059976798 -0.1000119 0.18341605 0.10486012
000250 2f e7 5a 3e 2f ae c8 3d e5 dd f0 bd 40 52 0d bc
       0.21377252 0.09798848 -0.11761073 -0.008625567
000260 a1 aa 2c 3d 50 57 fe 3c 89 f8 4a be 80 d5 4b bd
       0.042154912 0.031047493 -0.19821371 -0.049764156
000270 96 af 31 bd f7 e7 5b be 17 67 38 be b4 9e 48 3e
       -0.043380342 -0.21475206 -0.18008076 0.1959179
000280 00 54 72 be c5 19 2d 3d 13 e9 67 3c df a0 5d be
       -0.23664856 0.042260904 0.01415469 -0.21643399
000290 ef 0a 42 be 3a 79 d3 bc 18 a9 82 be dc bf ef 3c
       -0.18949483 -0.025814641 -0.25519633 0.02926629
0002a0 6f e7 12 3e 9f 40 fc bd fe 68 00 3d 1d f6 6e bc
       0.14346097 -0.12317013 0.03135013 -0.014585045
0002b0 3e 71 71 3e c2 1f 8e bc 96 7a f0 bd 76 0a 5e bc
       0.23578355 -0.017349128 -0.117421314 -0.013552299
0002c0 2e f9 f6 bd 89 5c 06 be ab 6b ca bd 95 c6 d3 3c
       -0.12059246 -0.13121237 -0.09883817 0.025851527
0002d0 0e 29 69 3e 1f 2b 3a be db 1f 15 3d 04 8c f6 3d
       0.22769567 -0.18180512 0.036407333 0.120384246
0002e0 e7 44 71 3e 81 18 2c 3e 1f f5 2e 3e 1d 31 59 be
       0.2356144 0.16806222 0.17085694 -0.21210141
0002f0 43 44 55 3e ed a6 53 be 10 18 94 3d 43 41 84 3d
       0.20826821 -0.20669146 0.07231152 0.0645776
000300 a2 7a a9 3d c2 a0 a4 bc ca 6f e7 bb da 03 cf bd
       0.082753435 -0.020096187 -0.007062887 -0.101081565
000310 81 d2 4c 3e 6f c0 17 be 5f 38 71 be 4d 3b 81 3e
       0.20002176 -0.14819501 -0.2355666 0.25240555
000320 52 92 01 be 47 a1 47 be 17 24 35 be fb 6d f9 bd
       -0.12653473 -0.19495116 -0.17689548 -0.1217918
000330 aa fa 29 3e 44 a0 52 be 3c 19 75 be c4 d8 31 3e
       0.16599527 -0.20568949 -0.23935407 0.17367846
000340 7c 02 5e be 56 3f 34 be e7 2e 2a bc aa f7 5a be
       -0.21680635 -0.17602286 -0.010387159 -0.21383539
000350 fb 32 50 3e 26 fb 01 3e cf dc 6d 3e 4e ad 1a be
       0.20331948 0.12693462 0.23228763 -0.15105173
000360 77 e4 3f be 85 56 fe bd 38 50 f6 3d 2b 9e 54 3e
       -0.18739496 -0.12418846 0.12027019 0.20763461
000370 3b 4a 24 be ec 09 e3 3d 3a 01 0c 3e e3 39 4e 3e
       -0.16043942 0.11085877 0.13672343 0.2013927
000380 ac e8 9c 3d 49 8f 5c 3e f9 45 05 be ef d8 13 3e
       0.07661566 0.21539034 -0.13014974 0.14438222
000390 46 d9 6c be 4f 6d e5 3d 15 50 2b bc b9 0d 67 be
       -0.23129758 0.112024896 -0.010456105 -0.22563829
0003a0 f3 75 92 bc 3f f0 2d 3e c1 36 ab bc 47 6e 16 3e
       -0.017878508 0.16986178 -0.020900132 0.14690505
0003b0 11 53 f3 3d 52 65 32 be 57 b0 e2 bd 7c bf 42 3e
       0.11881078 -0.17421463 -0.110687904 0.19018358
0003c0 5e 2f f7 3d a9 88 18 3e 22 5c 0b 3d bc 90 28 bc
       0.120695814 0.14895882 0.03402341 -0.010288414
0003d0 df fb ac 3d 40 78 9f bc f3 7e 51 bd 8a 4f 5d be
       0.08446478 -0.01946652 -0.05114646 -0.21612373
0003e0 1c f0 ab bd a6 b2 39 3c af 0e 39 3d 3b 9f 04 3e
       -0.083954066 0.011334097 0.04518002 0.12951367
0003f0 8b 3d 91 3d 0a 17 b3 bc f9 9f 15 3e 65 6f bc 3d
       0.070918165 -0.021861572 0.14611806 0.09200934

lstm_p.weight_hh_l1 f4 [64, 16]
000000 2b a5 45 3e ae 01 15 be 4c f8 7c 3e 69 42 e4 bd
       0.19301288 -0.14551422 0.24704093 -0.11145479
000010 eb 57 4b bd c8 05 41 be e2 5e 83 3d 26 e6 45 3e
       -0.049644392 -0.18849862 0.06414582 0.19326076
000020 73 a8 a2 bd 05 28 25 3e 84 7f 8f bc 5a ff 73 3e
       -0.079422854 0.16128547 -0.017516859 0.23827878
000030 e4 de 18 be 5e 73 b9 3b 2c ea 3d 3e d7 0b 50 be
       -0.14928776 0.005659505 0.1854636 -0.20317017
000040 91 c8 fa 3d c5 4d 75 be cb 26 5c 3e 72 68 c5 3d
       0.12245286 -0.23955448 0.21499173 0.09639062
000050 f6 c9 42 3d 67 a0 6c be 7c 5b 82 3e 84 fd 37 3e
       0.047555886 -0.23108064 0.25460422 0.17967802
000060 20 ea 6e 3e 35 55 57 be ee a8 63 3e ee 4a 03 3d
       0.23331499 -0.21028598 0.2223241 0.03205388
000070 d1 87 1a 3e 85 8f 80 be e4 e3 0c be a9 57 77 3c
       0.15090872 -0.25109497 -0.13758808 0.015096583
000080 b4 59 0e 3e 30 dc 77 be 24 5f 0a 3e 57 5b ed 3d
       0.13901407 -0.24205089 0.13512856 0.11589687
000090 14 95 30 be f8 b8 51 3e 81 de 01 be 68 9d b8 3d
       -0.17244369 0.20480716 -0.12682535 0.09014398
0000a0 ac 61 35 be a4 a0 1d be 1c 6d 38 bd c9 6f 99 bd
       -0.1771304 -0.15393311 -0.04502593 -0.074920245
0000b0 4c 0d 55 3d 84 98 5d bd 63 ae 02 be 28 b0 73 3e
       0.052014634 -0.05410053 -0.12761836 0.23797667
0000c0 5c 71 49 bc 27 48 59 be f8 81 48 3e 1c a7 53 3e
       -0.012295093 -0.2121893 0.19580829 0.20669216
0000d0 da 8b 04 be 78 50 2e 3e 24 c5 db bd 32 13 43 be
       -0.12943974 0.17022884 -0.10730961 -0.19050291
0000e0 1f c8 83 be 61 10 09 be 77 44 fe 3d 89 0a 84 3e
       -0.25738618 -0.13385154 0.124154024 0.25789288
0000f0 95 bb 6e 3e 47 30 b8 bc 27 24 3d bd ad c8 d9 3b
       0.23313744 -0.022483958 -0.046177056 0.006646237
000100 97 9a 59 3e db f0 3e be 99 40 17 be 97 aa b1 bb
       0.21250378 -0.18646567 -0.14770736 -0.005421947
000110 6b 81 64 be 87 21 03 3e 3c 25 28 be cd 58 8d bd
       -0.22314994 0.12805758 -0.16420454 -0.06901703
000120 f5 14 0c be ba 37 7d bc a5 cf 62 3e a0 9f ad bd
       -0.1367987 -0.015455181 0.22149523 -0.08477712
000130 8d 4e c2 bd b0 65 03 3e 66 67 ad bc 57 fb 4b bc
       -0.094876386 0.1283176 -0.021167468 -0.012450061
000140 7b cf 4f 3e 2d a2 9e 3d ce eb af bc cf 9c 62 3e
       0.20293991 0.07745776 -0.021474745 0.2213013
000150 96 ad 80 be 95 6c 57 3e 5b 27 ae bd dc 43 2e 3e
       -0.25132436 0.21037515 -0.085036 0.17018074
000160 01 dc 97 bd dd 1a 52 be e3 ef 0e bc 03 e9 61 3e
       -0.07415009 -0.2051806 -0.008724186 0.22061543
000170 69 3a e6 3c 4d 80 4f be 53 e1 24 3e da 55 77 3e
       0.028104024 -0.20263787 0.1610158 0.24153844
000180 43 d8 5f 3e 0a 6e 09 be 65 4b 46 be d9 bf 81 be
       0.21859841 -0.13420883 -0.19364698 -0.2534168
000190 df 66 32 bd ee e4 7c 3d ff a9 82 be d1 d4 f4 3b
       -0.043555137 0.061741762 -0.25520322 0.0074716588
0001a0 1b 06 fd 3c 61 52 34 3e b7 f0 2f 3e 2a ab e6 3d
       0.0308867 0.1760955 0.17181669 0.11263116
0001b0 1a 4b 6e bc 87 4d 7a 3e ff 0a 25 bc 60 56 51 bd
       -0.014544273 0.24443637 -0.010073422 -0.051107764
0001c0 15 07 05 be 5d ed 81 3d a9 de 2f be f5 ee d1 3d
       -0.12990983 0.063441016 -0.17174782 0.102506556
0001d0 33 1f 5f be ce df c9 3c 94 92 4a bc d9 29 2f be
       -0.21789245 0.024642851 -0.0123640485 -0.17105807
0001e0 7e ef 4d 3e ff 0d 48 3e 8f db 21 3e 9d 2a 44 3e
       0.2011089 0.19536589 0.15806411 0.1915688
0001f0 20 7f 22 bc fc bf 15 be 69 bc 53 bd 39 cf 19 be
       -0.009918004 -0.14624017 -0.051693354 -0.15020455
000200 f8 51 03 be 77 9a 08 3d 1b 1c 9b bd 6a bc 80 3e
       -0.12824237 0.033350434 -0.0757372 0.2514375
000210 13 d9 24 3e 35 2c 80 3e 58 e4 e9 3d de 30 12 3e
       0.16098432 0.25033727 0.11420506 0.14276454
000220 47 a4 03 be 3a 5c 47 3e 00 36 43 3e 7f ad a2 3d
       -0.12855636 0.19468775 0.19063568 0.07943248
000230 7f 13 a5 3d ae 8c 5e be 0c 27 61 bc db 67 58 3e
       0.08060359 -0.21733353 -0.01374222 0.21133368
000240 f9 f3 cc bd 98 61 44 3e 28 a5 d6 bd 02 72 27 be
       -0.100074716 0.19177854 -0.1048072 -0.16352084
000250 6e 5d 0f 3e 3a 06 06 3e 4b b7 b0 3d 56 c6 da bd
       0.14000484 0.13088313 0.0862871 -0.10682361
000260 c1 a1 28 3e ec e6 d4 bd d4 b5 0a 3e 97 88 5f 3e
       0.16467954 -0.10395607 0.13545924 0.21829449
000270 5a 4e f8 bd bf de 41 3e 43 3b 27 3e 75 f2 90 3d
       -0.121243194 0.18932627 0.163312 0.07077495
000280 92 1c d1 bd 72 d9 7b bd c2 09 08 3e 71 84 c9 3d
       -0.102105275 -0.06148667 0.13284972 0.09839714
000290 9b 7a e1 3b 81 f4 c4 bd d7 74 b8 3c f9 0c 80 3e
       0.006881071 -0.09616948 0.022516651 0.25009897
0002a0 45 ea 45 3e bd 44 28 be 1b 9c 81 3e a3 4a 22 3e
       0.19327648 -0.16432472 0.25314412 0.15848784
0002b0 08 9a 84 3e 72 6c 78 bd 21 e9 a4 3d 22 d9 36 bd
       0.25898767 -0.060650297 0.08052278 -0.044640668
0002c0 79 7f 07 be fc ad 88 bd 49 43 09 be 43 35 9f 3d
       -0.1323222 -0.0667381 -0.13404574 0.07773831
0002d0 1a 89 55 bd 77 99 46 be d3 cf 90 bd de 5c 5e bc
       -0.052132703 -0.1939448 -0.07070889 -0.013571946
0002e0 75 ec f1 bd 11 d8 18 be ba da 7c be 1e 19 09 3e
       -0.11812679 -0.14926173 -0.24692813 0.13388488
0002f0 16 f9 02 3e fb ff 7f be 73 8a de 3d 05 ab 4c be
       0.12790331 -0.24999993 0.10866251 -0.19987114
000300 bb 24 e5 bd be 53 26 be 5c 7b a1 bd 00 6b 10 be
       -0.111886464 -0.16242883 -0.07884857 -0.14103317
000310 c8 2c 20 3b f7 9b 1e 3d 8b 97 e5 bd a9 bb 25 3e
       0.0024440754 0.03872296 -0.11210545 0.16184868
000320 f9 21 ce bd de e9 93 bd 8d 3c 90 3d 88 6c 0f 3e
       -0.100650735 -0.07222341 0.07042799 0.14006245
000330 11 a4 3a 3e f2 6f ed 3d ff 57 ff 3c a0 08 c7 bc
       0.18226649 0.115936175 0.03116989 -0.024296105
000340 6a 68 2e be f7 6c 43 3e 4d 10 25 bc a9 64 2f 3e
       -0.17032018 0.19084536 -0.010074687 0.17128243
000350 d8 ce 06 3e db 79 10 3e 2a ed 40 be 31 a1 0e 3e
       0.13164842 0.14108984 -0.18840471 0.13928677
000360 fb a7 69 3e d0 f9 71 be 6f 8c 40 3e 6c fc 09 be
       0.22817986 -0.23630452 0.18803571 -0.13475198
000370 b5 35 03 be e1 fe 56 be ec d4 72 be e7 bb 22 be
       -0.12813456 -0.20995666 -0.23714036 -0.15891992
000380 b1 a6 43 be d3 62 2b bc 55 0e 09 be 0d 23 10 bc
       -0.19106556 -0.010460573 -0.13384373 -0.008797419
000390 9c 38 31 3e 24 75 50 3e f9 82 50 be ee 69 4a 3e
       0.17306751 0.20357186 -0.20362462 0.19766971
0003a0 f6 5c e2 bc 89 9e cc bd 53 00 87 3e 11 44 45 be
       -0.027632218 -0.09991176 0.26367435 -0.19264247
0003b0 51 21 04 be 53 bc f8 3d 11 6d f0 3d fe a4 fd 3d
       -0.12903334 0.12145295 0.11739553 0.123849854
0003c0 d4 a7 60 be 3f 02 29 be d8 56 3f be 66 19 2e 3e
       -0.21939021 -0.16504763 -0.18685472 0.17001876
0003d0 0b ad e2 3d 25 9d e9 bc 46 e2 2b 3e c8 9c 82 3c
       0.110681616 -0.028517315 0.16785535 0.0159439
0003e0 c1 97 6f be 49 db 97 bd 1a 0a 06 3e 07 4f 33 bd
       -0.23397733 -0.07414872 0.13089791 -0.04377654
0003f0 03 08 dc 3d c4 da 85 3d 26 9b 38 bd f8 57 44 be
       0.107437156 0.06535867 -0.045069836 -0.19174182

lstm_p.bias_ih_l1 f4 [64]
000000 16 07 91 bd 68 fc 20 3c ac 02 a9 3c e2 d3 75 be
       -0.0708143 0.009825803 0.020631157 -0.24006608
000010 ab 28 81 be 2e 0e 87 3d 09 6b 0d be 22 ad 3d 3e
       -0.2522634 0.065945014 -0.13810362 0.18523076
000020 58 0c 79 3d 99 7c 6b 3d d4 6e 7a be 74 99 ba 3d
       0.060802788 0.057491872 -0.2445634 0.091113
000030 50 d7 1f bd a9 d1 50 bd 14 cb 51 be 70 31 81 be
       -0.039023697 -0.050981198 -0.20487624 -0.2523303
000040 fc fc 30 3e 4b b7 21 be 2a 02 fd 3c 1b 51 39 be
       0.17284006 -0.15792577 0.030884821 -0.18097346
000050 ff a7 49 be 36 26 f1 3d 89 35 82 3d 1a b6 f9 bd
       -0.19692992 0.11774866 0.06357867 -0.12192936
000060 e8 b6 dd 3d 02 e4 19 be a4 af 32 be d5 4c fa 3c
       0.10825902 -0.15028384 -0.17449814 0.030554214
000070 b7 b2 98 3c d6 49 58 be 48 88 1e be 5d e6 0f be
       0.018639905 -0.21121916 -0.15481675 -0.1405272
000080 f9 29 8c bd 5f a4 07 3e b8 dd 66 be d7 dd 2e 3e
       -0.06843943 0.13246296 -0.22545516 0.17076813
000090 79 ed 9c 3c e1 d1 b4 bc df 4d 0b be 21 bf 52 be
       0.019156205 -0.022072734 -0.13603924 -0.20580722
0000a0 6c 23 ad bd a5 17 00 3e 65 ce 48 be 49 e2 60 3e
       -0.08454022 0.1250902 -0.19609983 0.21961321
0000b0 52 d5 26 be 66 0d 1d 3e 42 fd 64 be cd a6 6f be
       -0.16292313 0.15337142 -0.22362235 -0.23403473
0000c0 2e 8f c2 bd df 7f 3f 3e dc 4d cd 3d 2d 7f 1b be
       -0.094999656 0.18701123 0.10024616 -0.15185232
0000d0 b3 97 80 3d 85 a3 fb bd 57 3a 5e 3e dc 2b 6e 3e
       0.06278934 -0.12287048 0.21701942 0.23258919
0000e0 e0 bb 65 3b 5c 55 2b 3e 88 e4 be bd 6b 45 bc 3d
       0.003505461 0.16731781 -0.093209326 0.09192928
0000f0 4c 35 04 3e c7 55 d5 3d d9 7a 8a 3d d3 a1 6a 3e
       0.12910956 0.10416751 0.067617126 0.22913294

lstm_p.bias_hh_l1 f4 [64]
000000 c2 85 96 3d 48 8c 2a 3e 13 24 d6 3d fa be 30 3c
       0.07349731 0.16655076 0.10456099 0.01078772
000010 10 8f 6d bd c0 aa 44 3e 99 37 5b 3e 66 66 57 3e
       -0.057997763 0.19205761 0.21407928 0.21035156
000020 4d b3 81 3d 07 2f 0f 3e 94 30 17 be d2 9e 1b be
       0.06333027 0.13982783 -0.14764625 -0.15197304
000030 d8 c0 0f 3d aa a4 5c be 22 a4 08 be fb 21 0f 3e
       0.03509602 -0.2154719 -0.13343862 0.13977806
000040 89 8d fa bd d9 5c 28 be 50 89 75 be 99 17 1e 3e
       -0.12234027 -0.16441669 -0.23978162 0.1543869
000050 67 f2 23 3e a5 36 3d 3e 68 06 3e bd 61 6e 03 be
       0.16010438 0.18477876 -0.04639283 -0.12835075
000060 06 0b 66 3e 3a da 23 be 50 4c 4e 3e 82 34 5b 3d
       0.22465143 -0.16001216 0.20146298 0.053516872
000070 35 a5 df bd 6b b4 b8 3d f4 d9 17 be b1 45 9d 3c
       -0.109201826 0.09018787 -0.14829236 0.01919827
000080 54 90 4d 3e c8 f1 59 bd cd 26 80 3d b3 2a 28 3e
       0.20074588 -0.053209096 0.06257401 0.16422538
000090 6c 4a 94 bd 43 f6 1e 3e fd af 3a 3e 6c c6 fe 3c
       -0.07240757 0.15523629 0.18231197 0.031100474
0000a0 fd b3 40 3e e1 16 57 3e 79 c8 35 be 76 8f eb 3d
       0.1881866 0.21004821 -0.17752255 0.115019724
0000b0 d2 b0 99 ba 15 dd ae bd c8 63 49 3e 14 e8 d1 3c
       -0.001172567 -0.08538262 0.1966697 0.025623359
0000c0 42 3d 36 bc 8c 4a d1 3d 1a 80 51 3d 8b ea 76 3c
       -0.011123003 0.10219297 0.051147558 0.015070568
0000d0 eb f7 d0 3d 18 33 97 bc 3d 2a 52 be 83 74 c7 3d
       0.102035366 -0.01845698 -0.20523925 0.0973902
0000e0 31 70 3f bd c2 d0 f5 bd 77 5b 1d be 69 c5 00 3e
       -0.046737853 -0.12002708 -0.15366922 0.12575306
0000f0 b1 3a b7 3d 9d 2e 5a be 47 72 38 be 4a 64 2f bd
       0.08946741 -0.21306844 -0.18012343 -0.042820252

attention_p.attn_1.weight f4 [16, 16]
000000 a9 ff 72 be 79 f8 3b 3e 37 2c 83 3e 12 bb c3 be
       -0.23730339 0.18356504 0.2561967 -0.3822866
000010 ae db 57 3c 6c 5c c0 bd 32 db 7c bc 71 0d d0 be
       0.013174934 -0.09392628 -0.01543312 -0.40635255
000020 e6 b8 92 be 45 96 d3 bd 81 8c 9d 3d 6c 1f 9a 3e
       -0.2865669 -0.10331396 0.076928146 0.30102098
000030 80 eb c8 3e f0 e2 41 3d a5 a2 01 be ef fd d1 be
       0.39242172 0.047335565 -0.126597 -0.41014048
000040 20 5e 93 be 04 10 a9 3e 6e 92 41 3e 03 1b c4 be
       -0.2878275 0.3302003 0.18903515 -0.38301858
000050 96 d8 7c be 20 4b 85 be b1 f0 41 be 50 1e 6e 3e
       -0.24691996 -0.26033878 -0.18939473 0.23253751
000060 9c 5e 19 be 6e 93 ab 3e 28 53 aa 3e 5b 21 5c be
       -0.14977497 0.33510917 0.33266568 -0.21497099
000070 3d 7a 8b bd 2e a4 ab 3e 74 c4 4c 3e e6 d6 52 3d
       -0.068104245 0.33523697 0.19996816 0.051474474
000080 2d dd 89 bd 09 14 16 be 48 25 52 bd 17 90 63 be
       -0.06731639 -0.1465608 -0.051305085 -0.22222935
000090 66 0d 09 3e c3 83 bd 3e 70 25 a7 bd 63 ab 5d 3e
       0.13384017 0.3701459 -0.081614375 0.2164741
0000a0 aa 04 cf 3e 53 ea 8f 3e 33 18 fa bd 62 30 c1 be
       0.40433246 0.28108463 -0.12211647 -0.37732226
0000b0 c2 fc 80 be 25 f6 d3 3d 42 cd 74 be 7b 9a 8e be
       -0.2519284 0.10349683 -0.23906425 -0.27852234
0000c0 ab 08 d6 3e ef e0 f5 bd 9e 86 85 be 5c 04 b9 3e
       0.41803488 -0.12005793 -0.26079267 0.36136138
0000d0 65 61 9a be 7d e4 cf 3e 4a 88 75 3e 7b 84 a7 be
       -0.3015243 0.4060401 0.23977771 -0.32718262
0000e0 5e 56 9a 3e 09 6c 8c 3e 25 d5 79 bd 13 73 e5 be
       0.30144018 0.27426174 -0.060994286 -0.44814357
0000f0 14 18 73 bd 69 e8 cc 3e 95 9e e1 bd a4 11 34 bd
       -0.059349135 0.40021065 -0.11016575 -0.043962136
000100 52 38 a9 3e 16 12 ac be df 4c 30 be 90 b8 f8 3d
       0.3305078 -0.33607548 -0.17216824 0.121445775
000110 36 db be be f4 92 87 3e ec bf 79 3e a6 6a 23 3e
       -0.3727662 0.26479304 0.24389619 0.15958652
000120 b4 32 18 be 2a 24 b1 be a5 23 f2 3d 5c 5d ab 3e
       -0.14863092 -0.34597903 0.11823205 0.33469665
000130 9d 80 3c 3e db ad af be b5 cd b4 3e 15 92 5d be
       0.18408437 -0.3431233 0.35313192 -0.21637757
000140 d7 fb e1 be 1e 69 26 3d 5a 54 93 3e bc 40 be 3e
       -0.4413745 0.04062759 0.28775293 0.37158763
000150 45 91 c3 bd 9f c9 a1 be 4a 71 49 3b 56 5b 17 be
       -0.09549192 -0.31599137 0.0030737692 -0.14780936
000160 a3 6c 15 bd 1c 3a ca 3d b6 3d fc 3d e1 39 49 be
       -0.036480557 0.09874365 0.12316458 -0.19650985
000170 1d a2 67 3d f9 00 16 3e 17 8e 98 be 6f 6e b8 3d
       0.056551088 0.14648809 -0.29795906 0.090054385
000180 fa 2b b0 3e 8b bd 39 be 3b 32 30 3e da 10 08 3e
       0.3440855 -0.18138711 0.17206661 0.13287678
000190 9b e9 b4 3e 3b f0 82 3e 29 7d a0 be 15 bc 08 be
       0.35334477 0.25573906 -0.3134549 -0.13352998
0001a0 1d bd 9f bd 35 da 5d be c4 b1 b0 3e f0 c5 59 bc
       -0.07799742 -0.2166527 0.34510624 -0.013291821
0001b0 52 c9 03 be 73 fd b8 3e f6 52 1a be 36 2d 8f be
       -0.12869766 0.36130866 -0.1507071 -0.2796418
0001c0 9c 0c 63 3e 8a fd b5 3e 04 4b f0 3c 82 c4 9f be
       0.22172779 0.35544997 0.029332645 -0.3120461
0001d0 96 6e 14 bd 7f f5 d8 3e 6f b4 fb bc ab de 84 3e
       -0.036238275 0.423748 -0.030725686 0.25951132
0001e0 eb d0 62 3e ac df 47 bd 59 f1 aa 3c 70 61 a0 bd
       0.22150008 -0.048797294 0.020867037 -0.07831085
0001f0 90 33 95 be 96 dc 7b be a6 20 7b 3e 16 ed 8d be
       -0.29140902 -0.24595866 0.24524173 -0.27719945
000200 5e d0 70 be 13 6d 8a be 6d 87 d1 3e 2b 38 0a be
       -0.23516986 -0.27036342 0.40923634 -0.13497989
000210 b4 1f 4c be b6 6a b3 3e 2e 2e 18 3e b8 16 c2 be
       -0.19933969 0.3504235 0.14861366 -0.37907958
000220 fd 64 d2 3e eb 87 5a 3e b1 34 06 3e 26 59 c5 bc
       0.41092673 0.21340911 0.13106038 -0.02409036
000230 f8 e7 db 3d ed 12 0d be 91 cf 98 3e 37 39 f9 3d
       0.10737604 -0.13776751 0.2984586 0.12169116
000240 5e 36 c9 3e 24 9c 06 3e ff 83 07 bd fb 7b 57 3e
       0.3929929 0.131455 -0.033084866 0.21043389
000250 3c 25 ad bd c5 b3 0d 3e 24 32 c5 3d eb 31 ac 3e
       -0.084543675 0.13838108 0.09628704 0.33631834
000260 85 0d 97 be cd 54 ad ba eb 4e 67 be c6 e2 94 3e
       -0.29502502 -0.0013224125 -0.22588699 0.29079264
000270 61 fe 12 be ce 27 5b 3e 86 ee 4a 3e 7b 1d ff bd
       -0.1435485 0.21401903 0.19817552 -0.12456795
000280 11 11 05 bd 2c 1e 86 3e ad be a4 be 4d 05 cc 3e
       -0.03248698 0.26194894 -0.32176724 0.39847794
000290 86 e5 9b bd a4 53 07 be 13 ad 9e b9 a1 5b 8c 3c
       -0.076121375 -0.132155 -0.0003026506 0.017133536
0002a0 a4 54 ab be 4a bd f1 bc 77 8c 9c 3e 42 95 32 be
       -0.33463013 -0.029509205 0.30575916 -0.1743975
0002b0 9b 4a 88 3e 7d 9f ca be 9c af bf 3e 5b 5b a1 be
       0.2661942 -0.39574805 0.37438667 -0.3151501
0002c0 d8 4c 85 be bf 02 25 be 1b 6d 2d be e8 42 ac bd
       -0.2603519 -0.16114329 -0.16936152 -0.08411199
0002d0 28 1e 99 be ba 76 7a 3e 31 cd 4c bd 53 13 c5 3e
       -0.2990582 0.24459353 -0.050000373 0.38491306
0002e0 23 7b d3 3e c6 0d b4 be 06 9a 4a 3e a5 75 a0 3e
       0.41304883 -0.35166758 0.19785318 0.31339756
0002f0 4d 20 32 3e 7b f7 10 bc 55 34 99 be a5 39 d4 3e
       0.17395134 -0.008848066 -0.2992274 0.4145023
000300 29 56 e1 3d a1 9a a4 3e fe b9 ea bd fa 88 1d 3e
       0.11002762 0.32149222 -0.114612564 0.15384284
000310 05 39 46 be 06 33 d3 be 52 c5 57 bc 7c 84 d8 3e
       -0.19357689 -0.41249865 -0.013169603 0.42288578
000320 32 b9 23 3d 7a 58 e5 be fa 90 8a b9 f2 0b 84 3e
       0.039971538 -0.44794065 -0.00026429427 0.25790364
000330 94 72 ad be b8 ff df 3e 80 d4 84 3e d5 34 27 be
       -0.3387648 0.43749785 0.25943375 -0.16328748
000340 45 6e 10 3e bd ab 85 3e ca 64 95 3e e9 bd 93 bc
       0.14104564 0.26107588 0.29178458 -0.018034892
000350 ca a7 1b bd 50 9f 50 3e d6 f6 dd 3d 0e 27 f7 bd
       -0.038001813 0.20373273 0.10838096 -0.12067996
000360 2b 6e d6 3c 11 e9 aa be e3 af b7 be ee fc bc 3e
       0.026175579 -0.3338094 -0.35876378 0.3691172
000370 38 3e dc be d0 28 80 be 5e 78 b7 be b1 68 0f 3e
       -0.4301622 -0.25031137 -0.3583402 0.1400478
000380 92 85 a2 3e 93 9e 26 bd 7f 87 bd 3e 1b 0d dc 3e
       0.3174253 -0.040678572 0.37017438 0.4297875
000390 41 65 4c bd e5 54 ba be 0b be 69 be 55 90 9d bc
       -0.04990125 -0.36392894 -0.22826402 -0.019233862
0003a0 c8 66 f4 bd a8 9e 90 be a8 61 06 be c5 d0 cd bd
       -0.119336665 -0.28246045 -0.1312319 -0.10049585
0003b0 db 7f 88 be a7 21 c1 be cf 45 9f 3e f8 2b d0 bd
       -0.26660046 -0.37720987 0.31107947 -0.101646364
0003c0 3c 79 c9 3d 3d 32 37 be 75 be a3 be 51 d3 6b bd
       0.09837577 -0.17890258 -0.31981245 -0.057574574
0003d0 db db 81 3e fd 90 d3 3e a3 5f 88 3d 9c ff 92 be
       0.2536305 0.41321555 0.06658866 -0.2871064
0003e0 a2 f8 ef bd d1 16 3f be 63 0d b3 bd 10 4a 98 bc
       -0.11717345 -0.18661048 -0.08742788 -0.018590003
0003f0 2e 3f c2 bd c1 65 44 be 6c 5f 94 be d1 7d d2 bd
       -0.09484707 -0.19179441 -0.2897905 -0.10277904

attention_p.attn_1.bias f4 [16]
000000 30 e7 aa bb bb e6 6f bc 82 92 78 3c 9c 8f 82 bc
       -0.005215548 -0.014642413 0.015171649 -0.015937619
000010 b0 ea e9 3b be ae a5 bb 81 8a 41 bb 6e b7 98 bc
       0.0071385726 -0.0050562313 -0.0029532018 -0.018642154
000020 ba 3b 68 3c 20 e1 4c bc 4b 0c 58 3c 12 91 7c bc
       0.014174396 -0.012504846 0.013186525 -0.015415447
000030 cf 13 6b 3c 8f 82 6c 3c 84 e0 6a bc 2b ff 93 bc
       0.014347984 0.0144354245 -0.014335755 -0.01806601

attention_p.attn_2.weight f4 [1, 16]
000000 63 56 e6 be 16 41 b4 be e8 62 de 3d 52 cb 32 be
       -0.44987783 -0.35205907 0.108587086 -0.17460373
000010 45 a2 84 be 7f 5c bb 3b 64 17 be 3e 82 a9 8b be
       -0.25905052 0.0057178135 0.3712722 -0.27277762
000020 20 34 80 3e 2d 14 ba be d1 3c 91 3e 27 dd 32 be
       0.25039768 -0.36343518 0.28366712 -0.17467175
000030 47 1a 88 3e 33 34 d3 3e ad 52 1b be cf 74 9d be
       0.26582548 0.41250762 -0.15168257 -0.3075318

lstm_t.weight_ih_l0 f4 [64, 7]
000000 61 9a 2f be 56 08 a4 bd 2f b6 9b bc 90 a6 a6 bd
       -0.17148735 -0.080094025 -0.01900777 -0.08137238
000010 90 df 45 3e 98 52 53 be e6 89 42 3e ed 18 8a bb
       0.19323564 -0.20636976 0.18997917 -0.004214397
000020 db bd 65 3e 17 12 88 3d 0b c1 53 be d4 58 6d 3e
       0.22435705 0.06644075 -0.20679109 0.23178416
000030 59 67 82 3d e1 60 e8 3d 85 31 35 3e 74 06 8a bd
       0.06367368 0.11346603 0.17694671 -0.06739512
000040 f1 b3 9b 3c 87 60 d1 bd 07 77 ee 3d 46 ab f7 bb
       0.019006701 -0.10223489 0.116437964 -0.007558259
000050 18 22 8d 3d 21 44 01 be d7 cd fc bd 7d 95 e7 bd
       0.068912685 -0.12623645 -0.12343948 -0.113078095
000060 1a 4e 20 be 3f 7d 40 3e 0a cd 3d be f3 9c 1c 3e
       -0.15654793 0.18797778 -0.18535247 0.15294246
000070 59 7d 58 be ec c0 4b 3e af 6c 83 be b9 99 2c 3e
       -0.21141566 0.19897813 -0.25668857 0.16855516
000080 27 60 22 bb b3 c5 95 bd ea 19 0d be 8c 8f 16 3e
       -0.002477655 -0.07313099 -0.13779417 0.14703196
000090 62 00 81 3d a6 b7 f1 3d e4 10 87 3d 12 66 0f 3d
       0.06298901 0.11802606 0.065950185 0.03500945
0000a0 e8 e8 4d 3e 19 d2 d8 3d f3 d5 59 3e 72 a1 4b be
       0.20108378 0.10586948 0.21273021 -0.19885805
0000b0 26 71 3b bd 2c bf 72 bd 71 ed ba 3d 02 e0 5f 3d
       -0.045762204 -0.059264347 0.091273196 0.05465699
0000c0 70 3b 1a be e7 5c 06 3e c8 a0 18 bd 3c 0e 37 be
       -0.15061736 0.13121377 -0.037262708 -0.17876524
0000d0 ba 69 69 3e fc 5b 3f be 3d b4 ef bd 77 2d 5a 3e
       0.22794238 -0.18687433 -0.117042996 0.21306406
0000e0 a8 ac b1 bd 31 4d 1c 3e 68 e6 73 bd f5 0f a4 bd
       -0.0867551 0.15263821 -0.059545904 -0.08010856
0000f0 21 85 79 3e de a4 62 be 2e cc 4b 3d a3 b0 86 3c
       0.24367191 -0.22133204 0.049755268 0.016441649
000100 59 ed 23 be e3 55 30 3d f3 f4 a3 bd c7 60 a2 3d
       -0.1600851 0.043050658 -0.08005705 0.07928615
000110 fb 32 f6 bd 24 29 26 be 7d 2a 53 be 3c 01 43 3d
       -0.120214425 -0.16226631 -0.20621677 0.0476086
000120 e1 2e e1 ba f4 6f 8c bd fe db 48 be 64 4b b4 bb
       -0.0017180109 -0.06857291 -0.1961517 -0.0055021513
000130 ae 57 56 be 36 65 98 3d 76 60 32 bd 69 7a 0a be
       -0.20931885 0.074411795 -0.043549024 -0.13523258
000140 f8 12 bf 3d f9 39 34 be 4d ce 63 3a 45 7f 0b 3e
       0.0932979 -0.1760024 0.0008690104 0.13622768
000150 d5 2c 5a 3e 7d 55 d5 bd ac f3 5d be 52 ef 1e 3e
       0.21306165 -0.10416696 -0.21674985 0.15520981
000160 52 e2 c1 3c 22 04 7b be a9 fa 99 bc 88 91 93 3c
       0.023667488 -0.24513295 -0.018796282 0.01801373
000170 08 9d 5c bd 1e be 31 3e 2e b5 5a 3d 30 f1 09 be
       -0.053860694 0.1735768 0.053395443 -0.13470912
000180 b3 2e c7 bc c1 0f f9 3b 30 42 e7 bd 55 05 15 be
       -0.02431426 0.007600755 -0.11291921 -0.14552815
000190 70 8b 55 bd 8d 3c 45 bd 3a 86 38 be 89 65 43 3e
       -0.05213493 -0.04815345 -0.18019953 0.19081701
0001a0 b9 8e 6a 3e 3c 1c 3f be 8f b9 06 3e 0c 62 40 be
       0.22906007 -0.18663114 0.13156722 -0.18787402
0001b0 6a b6 84 3d 85 6e 7e 3e fd 5d 1a 3d b9 f0 40 be
       0.06480105 0.24846847 0.03768729 -0.18841828
0001c0 70 79 b9 bc e6 ca 56 be 36 d6 5e be fc 42 aa bd
       -0.022640914 -0.20975837 -0.21761402 -0.083135575
0001d0 c7 cd 34 be 2b ce 98 3d 69 85 2c 3d a9 54 63 be
       -0.17656623 0.074611984 0.042119417 -0.22200264
0001e0 41 08 4c bd 52 e3 6b 3e 3c 5a 31 3e f2 f8 12 3e
       -0.04981256 0.23035935 0.17319578 0.14352778
0001f0 b8 70 c4 3d ca f5 44 be c0 c6 64 3e 03 d3 72 3e
       0.09591812 -0.19234386 0.22341442 0.23713307
000200 9b b0 80 bd 0d b9 58 be 4d 66 1f bd ba 2d 81 bb
       -0.06283685 -0.21164341 -0.03891592 -0.0039422186
000210 3b 6f 32 3e 64 37 1a 3e b4 3c 5a be cd ca 0e be
       0.17425244 0.15060192 -0.21312219 -0.1394455
000220 a1 82 28 3d e5 a3 42 3e cc 3d 2c bc 63 58 78 be
       0.041140202 0.19007833 -0.01051278 -0.24252467
000230 3b b8 cc 3d ad 1e 85 bd 00 da 6b 3d a5 5e cb 3d
       0.09996077 -0.064999916 0.057580948 0.099301614
000240 96 03 df 3d 2d 7f 24 3b ec 70 8c 3d bc 20 b5 3d
       0.10889356 0.0025100217 0.06857476 0.08844134
000250 3a cc c8 bd 9b 1e 80 3d d2 e9 2a 3e 1d 18 39 be
       -0.09804578 0.062558375 0.16690758 -0.18075605
000260 42 86 6a 3d 00 e2 4c 3e c8 55 e4 3d 74 6d ea bd
       0.057256944 0.20008087 0.11149174 -0.11446658
000270 dd f7 8e 3d 97 4c 87 bb ca 3f 57 3e e1 73 0b be
       0.0698087 -0.0041290033 0.21020427 -0.13618423
000280 0f 10 fd 3d a6 c3 3b 3c 6e e2 ec 3c 00 39 84 3a
       0.123565786 0.01146022 0.028916564 0.0010087788
000290 1c e4 53 be 59 72 c3 3d 41 c5 24 be dc 65 71 3e
       -0.20692486 0.095432945 -0.16090871 0.23574013
0002a0 23 f9 a3 3d 8d c0 f9 bd f5 18 4a 3e 14 57 3c 3e
       0.080065034 -0.12194929 0.19736083 0.18392593
0002b0 3f 51 6f 3e 79 df 01 3e 1e 12 71 3d a8 c8 f6 bd
       0.23370837 0.12682904 0.05885517 -0.12049991
0002c0 4c df 73 3e d1 65 06 3e 06 05 03 3e 85 4d 71 3e
       0.2381565 0.13124777 0.12794885 0.23564728
0002d0 3d ee 39 3e d2 de fb bd b3 a6 33 3e fe c5 b2 3d
       0.18157287 -0.12298359 0.1754406 0.0872917
0002e0 fb 5b d2 bd 9f 93 4b 3e 47 df d3 bd 25 63 b2 bd
       -0.1027145 0.19880532 -0.10345321 -0.087103166
0002f0 a4 a3 3a 3c 73 a7 92 3c 44 ce 3f 3e c0 47 ea bd
       0.011391554 0.017902112 0.18731028 -0.114394665
000300 c0 cc 69 be c1 5a bd 3d d5 cb 24 be ec 1d 55 be
       -0.22832012 0.092458256 -0.16093381 -0.20812196
000310 3f bd 34 be 98 ad 3a be 95 2c 92 bd 06 81 2f be
       -0.17650317 -0.18230283 -0.071374096 -0.17139062
000320 aa c6 24 3e 9c 56 d6 bd 67 f5 23 3e f5 2a 17 be
       0.1609141 -0.10465738 0.16011582 -0.1476248
000330 9d a3 24 3e 3f da 07 3d e5 91 6f be 33 79 cb bd
       0.16078039 0.03316712 -0.23395498 -0.09935226
000340 5b df 75 3e c9 a5 69 3e e7 09 4a 3e a3 1d 30 3e
       0.24010985 0.22817148 0.1973034 0.17198806
000350 72 7e f0 3c 9f 97 65 be 20 5c ca bd 20 46 55 be
       0.029357169 -0.2242112 -0.09880853 -0.20827532
000360 92 2b db 3d 4d e9 20 3e c4 a1 aa 3d b9 14 59 3e
       0.1070167 0.15713997 0.083316356 0.21199311
000370 b0 78 1b bd b1 16 09 3e a0 37 81 bc af 0d 29 bd
       -0.037956893 0.13387562 -0.015773594 -0.041272815
000380 80 df 2f be 8a 5d 22 be ff 4d 25 3d f6 e8 f7 bd
       -0.17175102 -0.15855995 0.040357586 -0.12104981
000390 0e f8 28 3d e3 7c d7 bd 6b 17 9a bc 9b b5 3a be
       0.04125219 -0.10521867 -0.018809995 -0.1823334
0003a0 ec 91 40 be 6f 39 e6 3d 9e d6 41 3e 80 5f 98 bc
       -0.18805665 0.11241423 0.18929526 -0.018600225
0003b0 f5 c6 71 3d 89 84 94 3d aa 8c 60 3e c7 ba a7 bc
       0.05902763 0.072518416 0.21928659 -0.020474805
0003c0 59 36 76 3e 75 a4 1e 3c e6 66 20 3e 5b ff 8b bc
       0.2404417 0.009682764 0.15664253 -0.017089536
0003d0 fa ee ec bd 23 15 95 3b 0f 4d 4f be f6 f2 7a 3d
       -0.11569019 0.004549639 -0.2024424 0.06126686
0003e0 64 a4 2e bd 14 76 c3 3d f4 f3 59 be df 52 52 3e
       -0.042637244 0.09544006 -0.21284467 0.20539425
0003f0 e5 c7 29 bd f0 da b1 bc 7d 92 ed 3c 18 bf 51 3e
       -0.0414504 -0.021710843 0.029000515 0.20483053
